Assets/Training/results/test2_v1/MarsTaxi/MarsTaxi-499998.onnx (onnx, 542464 bytes, 10 tensors)

54 f4 [6]
14.052406 18.219635 36.50958 0.045710113 0.0024330732 0.100710526
00000000: a8d6 6041 d0c1 9141 cf09 1242 873a 3b3d
00000010: 3274 1f3b 5241 ce3d

action_model._discrete_distribution.branches.0.bias f4 [6]
0.036655776 -0.009444481 -0.008534299 -0.027668467 -0.024918716 -0.0074843946
00000000: 5e24 163d 06bd 1abc 72d3 0bbc fba8 e2bc
00000010: 5622 ccbc a73f f5bb

action_model._discrete_distribution.branches.0.weight f4 [6, 256]
-0.033756673 0.019746512 0.012489671 -0.017892193 0.040651146 -0.028774627 -0.027197443 0.009813957
0.0062566055 -0.065759316 0.025895294 -0.028401319 -0.053856157 0.006959558 0.015698124 0.02365694
0.035543688 0.01943627 -0.037811767 -0.04503807 -0.037034806 -0.016125109 -0.062126797 -0.0060451645
-0.008514698 0.0024334898 -0.02893633 0.004604697 -0.001829373 0.020466622 0.0045515294 0.023951786
-0.0009379915 -0.032628138 0.054382127 -0.027037581 0.025438681 -0.0117934905 -0.04582944 0.008043463
-0.026862286 -0.0013507741 0.010549916 -0.050821938 0.05612 -0.033550348 0.019325376 -0.017322632
-0.040705997 -0.019272562 -0.008229324 0.03421599 0.0037189918 0.010039078 0.035845976 0.0057610483
0.020499196 0.030598687 0.021366427 0.037983827 0.04232825 0.0069105104 0.0229344 0.028547822
0.001961534 0.014144282 0.03582535 0.022514228 0.025188366 -0.041774802 0.010734597 0.022705872
0.0028339718 0.01751626 -0.015429258 0.0037788297 0.03921813 -0.0040351893 -0.009448995 0.03967537
-0.034272436 0.0190903 -0.04864992 0.024509756 -0.051452044 0.027596144 -0.025701245 0.029145323
0.011478981 -0.0444145 -0.014473813 -0.018393895 0.02663466 -0.021136241 0.0039650216 0.011508833
0.030234998 0.01733036 -0.052339833 -0.006693501 -0.03721614 0.03354986 0.017371625 0.019473234
0.008186362 0.01588817 0.0151797775 -0.03661988 -0.03670273 0.0217307 -0.0029195654 0.017663242
0.0049755364 -0.038001332 -0.032837775 0.024780925 -0.052322067 -0.037418425 0.03644793 0.038912907
0.013968509 0.040358514 0.022652384 0.0100272605 -0.05770707 -0.05451727 0.03522208 0.023708759
0.027465923 -0.014838172 0.025119368 0.032739654 0.00452489 0.023884013 0.0055030254 -0.013806766
0.006963541 -0.035712093 -0.002008508 0.00056077464 -0.05182986 0.029847283 -0.043799058 -0.01737897
-0.010347002 0.017279698 -0.036669467 -0.008676292 -0.026549326 -0.014927856 0.009091485 0.04475654
-0.03817971 -0.04279577 0.008238325 0.04056461 -0.030075034 0.018804567 -0.020462645 -0.06457261
0.027167648 0.01814317 0.032495342 0.019734208 -0.03502703 -0.024416095 -0.007379587 0.030181918
0.01833312 0.040093757 -0.046157315 -0.018469905 -0.043339174 0.01642072 0.013744984 0.0033596787
-0.014508431 0.034932636 -0.0028885496 0.017642789 0.01005388 0.030421998 0.020045988 0.027207917
-0.040306877 0.027923401 -0.026039248 -0.010168386 -0.0019743082 0.012005101 0.03998239 -0.03503548
-0.050311152 -0.016171228 0.020533102 -0.030090995 0.036904432 0.03264771 -0.015723463 0.022535397
0.007172862 -0.02923637 -0.011739066 -0.02116631 0.027327321 -0.008269369 -0.043361723 -0.035193317
0.012984165 -0.00624963 0.00817197 0.026673393 0.024529636 0.012498363 0.015696637 0.017973807
-0.008125718 0.009389927 -0.021463785 0.010169057 -0.045673966 0.007324815 -0.01680439 0.038471907
0.036244836 -0.02146198 0.03722803 0.019622248 -0.022292703 -0.05134751 -0.007048058 0.011326851
-0.01488213 -0.039691117 -0.049614854 0.034266375 -0.014402624 0.029532816 -0.008259784 0.035532128
0.019697832 0.010988257 -0.04347642 -0.009509603 0.035598837 -0.04913054 0.00977985 0.009923671
-0.028280823 0.01819191 -0.035632435 0.02849184 -0.03811528 0.03280864 -0.02367045 -0.0066825463
00000000: 7044 0abd 70c3 a13c 7aa1 4c3c a692 92bc
00000010: d181 263d c4b8 ebbc 2ccd debc b8ca 203c
00000020: 3604 cd3b d2ac 86bd 5e22 d43c e2a9 e8bc
00000030: 4698 5cbd 010d e43b 5a99 803c 33cc c13c
00000040: 4296 113d d038 9f3c 83e0 1abd d779 38bd
00000050: cfb1 17bd ce18 84bc ab78 7ebd 8416 c6bb
00000060: 3b81 0bbc 2f7b 1f3b e20b edbc 00e3 963b
00000070: 92c7 efba 9ea9 a73c ff24 953b 8936 c43c
00000080: 8be3 75ba 15a5 05bd cbbf 5e3d eb7d ddbc
00000090: c864 d03c 7c39 41bc a7b7 3bbd bbc8 033c
000000a0: 4c0e dcbc 750c b1ba 8ed9 2c3c aa2a 50bd
000000b0: 16de 653d 176c 09bd 4050 9e3c 31e8 8dbc
000000c0: 55bb 26bd 7ee1 9dbc 49d4 06bc 1126 0c3d
000000d0: 54ba 733b f27a 243c 3bd3 123d 2dc7 bc3b
000000e0: eeed a73c 19aa fa3c a508 af3c ee94 1b3d
000000f0: 6360 2d3d 9071 e23b ece0 bb3c 1fdd e93c
00000100: 148d 003b 6bbd 673c 9abd 123d c26f b83c
00000110: d557 ce3c 0e1c 2bbd 2ae0 2f3c aa01 ba3c
00000120: 28ba 393b 427e 8f3c 00cb 7cbc 3ea6 773b
00000130: 31a3 203d 9f39 84bb f5cf 1abc a482 223d
00000140: 4161 0cbd 4363 9c3c 2345 47bd afc8 c83c
00000150: 61bf 52bd 4f11 e23c 6b8b d2bc 2cc2 ee3c
00000160: 5612 3c3c fbeb 35bd 9223 6dbc cbae 96bc
00000170: ee30 da3c e925 adbc 03ed 813b 8b8f 3c3c
00000180: 63af f73c 66f8 8d3c 4b62 56bd 2855 dbbb
00000190: f46f 18bd 946b 093d f04e 8e3c 5586 9f3c
000001a0: 1720 063c e827 823c 9ab4 783c bafe 15bd
000001b0: 9a55 16bd 9504 b23c 2e56 3fbb 81b2 903c
000001c0: d309 a33b 49a7 1bbd e780 06bd 5e01 cb3c
000001d0: aa4f 56bd 1044 19bd 6d4a 153d 2463 1f3d
000001e0: 2cdc 643c f84e 253d 7e91 b93c 6149 243c
000001f0: 405e 6cbd 804d 5fbd 0745 103d df38 c23c
00000200: 3700 e13c ce1b 73bc 22c7 cd3c 041a 063d
00000210: 8745 943b 68a8 c33c b952 b43b c635 62bc
00000220: 6a2e e43b d846 12bd 2ca1 03bb f300 133a
00000230: 8c4b 54bd 4a82 f43c a466 33bd 575e 8ebc
00000240: 7986 29bc 278e 8d3c b932 16bd 0227 0ebc
00000250: f97d d9bc f793 74bc 74f4 143c a252 373d
00000260: 5462 1cbd 9e4a 2fbd 0afa 063c 1427 263d
00000270: eb5f f6bc 090c 9a3c 47a1 a7bc a53e 84bd
00000280: b08e de3c fca0 943c d619 053d a2a9 a13c
00000290: 8178 0fbd 4304 c8bc 76d0 f1bb 1240 f73c
000002a0: 572f 963c 5a39 243d 740f 3dbd 334e 97bc
000002b0: 6b84 31bd bf84 863c a432 613c 0e2e 5c3b
000002c0: c5b4 6dbc 8615 0f3d d24d 3dbb 9c87 903c
000002d0: 07b9 243c 8e37 f93c 7c37 a43c 23e3 de3c
000002e0: d318 25bd 9ebf e43c 4350 d5bc 4d99 26bc
000002f0: 6563 01bb 0bb1 443c 93c4 233d 5d81 0fbd
00000300: 1113 4ebd 8679 84bc 0935 a83c 6481 f6bc
00000310: 1a29 173d 9bb9 053d 7ece 80bc 279c b83c
00000320: 540a eb3b 1d81 efbc 3655 40bc f864 adbc
00000330: 8cdd df3c 3f7c 07bc 109c 31bd de26 10bd
00000340: 89bb 543c b2c9 ccbb bae3 053c 2982 da3c
00000350: 60f2 c83c efc5 4c3c 3c96 803c ce3d 933c
00000360: bb21 05bc 35d8 193c d2d4 afbc 1e9c 263c
00000370: a014 3bbd 0005 f03b 5ca9 89bc b894 1d3d
00000380: 7775 143d 09d1 afbc 6b7c 183d d6be a03c
00000390: 309f b6bc c451 52bd 65f3 e6bb 4294 393c
000003a0: 2dd4 73bc 2793 22bd f238 4bbd e65a 0c3d
000003b0: fcf8 6bbc ceee f13c 0c54 07bc 238a 113d
000003c0: 595d a13c 1708 343c 5514 32bd 2ace 1bbc
000003d0: 16d0 113d 1b3d 49bd aa3b 203c e596 223c
000003e0: 2fad e7bc 3307 953c 51f3 11bd b867 e93c
000003f0: c51e 1cbd 5a62 063d 88e8 c1bc 43f9 dabb

network_body._body_endoder.seq_layers.0.bias f4 [256]
0.032094583 0.07611159 0.061527774 -0.03874056 0.060048748 0.07578454 0.057794597 0.01937555
0.05955334 0.05585341 0.05576328 0.04664517 0.068466455 0.03462154 0.048337415 0.019906746
-0.018721193 0.056637146 0.05203023 -0.06858506 0.07284863 -0.006884029 0.0714812 0.0632706
-0.03636838 -0.040693086 0.046591416 0.06781574 -0.060388207 0.0660488 0.02194839 0.07676954
-0.045978144 0.049059212 0.009617132 0.060680065 -0.03349635 0.057871107 0.056147963 -0.059784375
0.06640138 0.0682743 0.014056287 0.015264461 0.043730684 0.058777243 0.061252423 0.0621392
0.055680618 0.004175124 0.06634725 0.07547828 0.06090786 0.041085966 -0.050775774 0.053491432
0.05917675 0.029093495 0.05337418 -0.049986035 -0.038036335 0.06868379 -0.05195064 0.06859549
0.058645308 0.05326954 -0.041037787 -0.0399926 0.06688539 -0.04775134 0.050832454 -0.062956624
0.07297851 0.053410955 0.043706756 0.044927616 -0.04172456 0.067523316 0.0055530835 -0.006679232
0.053099744 0.05881838 0.043760236 0.07252333 0.050336644 0.05894915 -0.03302897 -0.03182076
0.073554456 -0.043104626 0.069937594 0.04119359 0.062550604 -0.021774042 0.06694815 0.05644281
0.085797176 0.05645876 -0.06039971 -0.042438097 0.072757274 0.023631323 0.065489545 0.048100267
0.06659388 -0.014200667 0.0020228995 -0.015162692 0.06950823 -0.009074472 0.04008698 0.00857474
-0.011910781 -0.051565517 0.071224995 0.057018206 -0.039974105 0.052465063 -0.021608723 0.07540493
0.045523923 0.05182889 0.021509307 -0.06698288 0.055676617 0.037588786 0.037933834 0.068642035
0.031688605 0.069565974 0.011997555 0.038171615 0.06134885 0.024611183 0.053503346 0.071260184
0.035813864 0.055396806 -0.06278008 0.0049512587 -0.03473404 0.032939903 0.06276415 0.0701662
0.049466133 0.0027290236 0.021858688 0.06363775 0.063736446 0.068764724 -0.057369724 0.06546518
-0.024966823 0.07181073 0.010510472 -0.002394508 -0.05247335 -0.006835493 -0.06273758 0.011361512
-0.059411522 0.0686101 0.06256395 0.0017478012 -0.0004379079 0.056429386 0.070195384 0.06460512
0.048370123 0.066300884 -0.015404314 0.055318817 0.07472065 -0.02546645 0.06782201 0.0649326
0.010768713 0.052333273 0.053325605 -0.013736958 0.03823814 0.06112691 0.034637008 0.023007488
0.03435772 -0.023146095 0.07297576 0.06021703 0.05281216 0.045968402 0.061327465 0.057185434
0.0019192755 0.06051693 -0.039939187 0.06553498 -0.044741284 -0.037491105 0.0048050513 0.056072127
-0.06588803 0.004447289 0.060374774 0.058611315 0.061447024 0.07104515 0.061410364 -0.035017665
-0.040164553 -0.05646987 0.018102078 0.07011623 -0.036176007 0.0133572575 0.040803406 0.063476466
0.061959293 0.05605674 -0.032168955 0.07338051 0.05911741 0.0779771 0.06351457 0.0701969
0.05989802 0.011214991 -0.0010760182 0.05925141 0.07222954 0.021010846 -0.067624174 -0.042514592
0.0679369 0.024042603 0.07373797 0.05917516 0.059689682 0.05908324 0.060422365 0.051432196
0.06443233 0.049761094 0.05754586 0.06494117 0.06381362 0.046015266 0.02960332 0.06257668
0.05287112 0.07423112 0.06512448 -0.04962763 0.029770978 0.06521189 -0.07856502 0.053826332
00000000: 9c75 033d 65e0 9b3d 8c04 7c3d 6cae 1ebd
00000010: adf5 753d ed34 9b3d 07ba 6c3d 79b9 9e3c
00000020: 34ee 733d 8cc6 643d 0968 643d 010f 3f3d
00000030: 2438 8c3d 51cf 0d3d 74fd 453d 7913 a33c
00000040: 305d 99bc 5afc 673d a71d 553d 5376 8cbd
00000050: aa31 953d 6c93 e1bb bc64 923d 0494 813d
00000060: 03f7 14bd cbad 26bd a4d6 3e3d fbe2 8a3d
00000070: a059 77bd 9844 873d 1ccd b33c 5939 9d3d
00000080: 9453 3cbd 50f2 483d 2d91 1d3c a98b 783d
00000090: 7833 09bd 410a 6d3d 68fb 653d 76e0 74bd
000000a0: 72fd 873d 65d3 8b3d 574c 663c ca17 7a3c
000000b0: f21e 333d 68c0 703d d2e3 7a3d ac85 7e3d
000000c0: 5c11 643d 7bcf 883b 11e1 873d 5b94 9a3d
000000d0: 857a 793d c249 283d 42fa 4fbd d519 5b3d
000000e0: 5263 723d 7b55 ee3c e29e 5a3d 28be 4cbd
000000f0: fdcb 1bbd 16aa 8c3d 32ca 54bd cb7b 8c3d
00000100: 1036 703d 2931 5a3d 3d17 28bd 48cf 23bd
00000110: 35fb 883d e996 43bd b135 503d 67ef 80bd
00000120: c275 953d 72c5 5a3d db05 333d 0506 383d
00000130: 5fe7 2abd aa49 8a3d a4f6 b53b 76dd dabb
00000140: 1e7f 593d 8beb 703d ef3d 333d 1d87 943d
00000150: cc2d 4e3d aa74 713d 6349 07bd 7c56 02bd
00000160: b8a3 963d 7a8e 30bd 713b 8f3d 9cba 283d
00000170: 881a 803d 7a5f b2bc 1d1c 893d 9330 673d
00000180: 6eb6 af3d 4d41 673d b065 77bd 92d3 2dbd
00000190: c401 953d 7a96 c13c 621f 863d c904 453d
000001a0: 5f62 883d eaa9 68bc 9f92 043b f16c 78bc
000001b0: 555a 8e3d 18ad 14bc 3f32 243d 117d 0c3c
000001c0: 7025 43bc 5d36 53bd 69de 913d ec8b 693d
000001d0: e3bb 23bd 9be5 563d c704 b1bc e66d 9a3d
000001e0: 4b77 3a3d 884a 543d 4934 b03c 522e 89bd
000001f0: 2a0d 643d b3f6 193d 8260 1b3d 3294 8c3d
00000200: e9cb 013d 9b78 8e3d 6591 443c d759 1c3d
00000210: ef48 7b3d 649d c93c 5326 5b3d dcf0 913d
00000220: 8fb1 123d c3e7 623d d892 80bd 2b3e a23b
00000230: 4845 0ebd feeb 063d 7e8a 803d 4cb3 8f3d
00000240: 009d 4a3d 6bd9 323b fe10 b33c 8254 823d
00000250: 4188 823d 85d4 8c3d 84fc 6abd 9c12 863d
00000260: 3987 ccbc 8111 933d 1d34 2c3c 2eed 1cbb
00000270: 4cee 56bd 45fc dfbb 8f7c 80bd a325 3a3c
00000280: 7f59 73bd 7483 8c3d 8721 803d 7a16 e53a
00000290: 0197 e5b9 8022 673d 99c2 8f3d b04f 843d
000002a0: c01f 463d c2c8 873d 6062 7cbc fc95 623d
000002b0: 2407 993d 049f d0bc 44e6 8a3d 62fb 843d
000002c0: 426f 303c 6a5b 563d f36b 5a3d fa10 61bc
000002d0: 999f 1c3d 3660 7a3d 89df 0d3d 337a bc3c
000002e0: aeba 0c3d e19c bdbc 5174 953d 22a6 763d
000002f0: 9051 583d 5d49 3c3d 8232 7b3d 463b 6a3d
00000300: 3390 fb3a 9ae0 773d 4697 23bd 3437 863d
00000310: a342 37bd 4690 19bd b173 9d3b e3ab 653d
00000320: 4ef0 86bd 90ba 913b 8a4b 773d 6b12 703d
00000330: e0af 7b3d 1f80 913d 6f89 7b3d af6e 0fbd
00000340: 9683 24bd f34c 67bd cf4a 943c 1999 8f3d
00000350: 4b2d 14bd 66d8 5a3c 7921 273d f3ff 813d
00000360: 07c9 7d3d c19b 653d 98c3 03bd 8548 963d
00000370: 1925 723d 75b2 9f3d ed13 823d 64c3 8f3d
00000380: a057 753d 15bf 373c 2e09 8dba 9bb1 723d
00000390: 15ed 933d f01e ac3c 8b7e 8abd c823 2ebd
000003a0: 8022 8b3d fef4 c43c ef03 973d a761 723d
000003b0: 2b7d 743d 4401 723d 717d 773d 91aa 523d
000003c0: 19f5 833d 4ad2 4b3d 35b5 6b3d e0ff 843d
000003d0: b7b0 823d 817a 3c3d a982 f23c 3428 803d
000003e0: 638f 583d 7c06 983d fc5f 853d 5746 4bbd
000003f0: 44e2 f33c d08d 853d b2e6 a0bd 0079 5c3d

network_body._body_endoder.seq_layers.0.weight f4 [256, 6]
-0.1570719 -0.10790945 0.68676543 0.13599038 -0.41556442 -0.13351333 -0.21529065 0.4737706
-0.10687351 0.1531962 0.004134245 -0.08714998 0.28177053 0.09136043 0.07186914 0.0053778645
0.04464012 -0.17872149 0.016840754 0.4286587 -0.22007957 -0.12719584 0.50912297 -0.29654458
-0.61771446 0.029149948 -0.5739569 0.039155506 -0.57676226 0.16676915 -0.20258921 -0.26772457
-0.11409141 0.32828194 -0.7886363 -0.22974579 0.57928896 0.006664333 0.4682987 -0.06880906
0.21512075 -0.18991856 -0.031810082 0.43805966 0.7911914 -0.11449667 -0.9674926 0.047511708
0.34633648 0.88598734 -0.30343208 0.32131544 -0.14659292 0.90327716 0.50425994 -0.15138426
0.4135924 -0.49254155 -0.2313485 0.13151999 -0.3070482 0.43637484 0.047200903 -0.059784617
-0.54482687 0.07386248 0.53157455 0.32409987 -0.79356295 0.14517054 0.12601148 0.6417441
0.08572537 -0.34259412 -0.25674254 -0.43294555 0.076377824 0.023794087 -0.12072019 -0.3866191
0.14041086 -0.044131707 0.25283855 0.6745714 -0.28810254 -0.0012853893 0.513031 -0.2344506
-0.13676828 0.22041236 -0.5218267 0.48589972 -0.48066378 0.61580133 0.42872477 0.6562922
0.2578526 -0.52968735 -0.44784567 0.28355062 -0.037386656 -0.17769657 0.021246718 0.5250907
-0.16949937 -0.31701016 -0.5898594 -0.16201808 -0.70601237 -0.8092913 0.11709022 -0.51330364
-0.09927308 0.21841663 0.12907721 0.23104809 -0.13066311 -0.110416606 -0.6563192 0.43661234
-0.044216316 0.04792607 -0.65656 0.6682338 0.4913614 0.20244618 0.07730104 -0.2104703
-0.1358085 -0.0008405316 -0.85281545 0.81152314 -0.045779623 0.25076568 0.14672175 -0.33457237
0.50748336 -0.03153513 -0.21440266 -0.11904437 -0.38864112 0.003916871 0.5809498 0.45337635
-0.18658857 0.40026098 -0.158474 -0.20096152 -0.6852814 0.27760705 0.22588862 0.45800936
0.6633125 0.4854056 0.7601415 0.15930372 -0.29824442 0.7428785 -0.38426515 0.1280484
-0.12144879 -0.084506236 -0.035857487 0.5578805 0.46292415 -0.5425224 -0.105971225 0.19576442
-0.22071 0.070542336 -0.06447704 0.17908503 0.44727036 0.39698714 -1.2262237 0.19724831
0.020972801 0.5791595 -0.24880168 -0.20645462 0.27120852 0.9335963 -0.1797862 0.11433986
0.31885165 0.45070633 0.17301984 0.6697504 -0.5263129 0.39918584 0.007037119 -0.31806383
-0.17009704 -0.005274526 -0.020978563 0.6616526 -0.26025656 0.22136408 -0.886467 -0.823396
-0.3698709 -0.31208256 0.30701745 -0.104361944 0.33635652 0.66032165 -0.22486903 -0.39312068
0.2518358 -0.31576777 0.7128508 -0.5405964 -0.3401865 -0.7431384 0.44832042 -0.32678118
-0.03644024 -0.028624868 -0.26168516 0.25052515 -0.48487976 0.47015885 0.32745492 -0.22483082
0.2840688 0.042313423 0.13644196 0.39729506 0.02327532 -0.16144365 0.18055683 0.41183344
0.80144507 -0.7855019 0.24166992 -0.2808566 0.092707485 -0.43994257 -0.7648578 0.52463615
-0.07732415 0.15703824 0.28306657 -0.4545303 0.01177275 0.16753887 -0.64097315 0.0280343
-0.44115204 0.03144736 -0.16851999 0.524853 0.11594532 -0.082208514 -0.88585085 -0.13587028
00000000: 75d7 20be a1ff dcbd dccf 2f3f 1041 0b3e
00000010: dcc4 d4be b8b7 08be 2775 5cbe 0f92 f23e
00000020: 80e0 dabd 77df 1c3e 9078 873b b07b b2bd
00000030: 3a44 903e 2d1b bb3d 2130 933d cc38 b03b
00000040: 8fd8 363d c402 37be 9ff5 893c 2779 db3e
00000050: 8a5c 61be a03f 02be e255 023f b1d4 97be
00000060: 8922 1ebf dfcb ee3c d7ee 12bf 8661 203d
00000070: b1a6 13bf 88c5 2a3e 8c73 4fbe 3213 89be
00000080: c2a8 e9bd 9214 a83e 12e4 49bf 7b42 6bbe
00000090: 484c 143f 7a60 da3b d9c4 ef3e c4eb 8cbd
000000a0: 9d48 5c3e 037a 42be 4a4b 02bd 5b49 e03e
000000b0: 858b 4a3f 3b7d eabd 98ad 77bf a39b 423d
000000c0: 0453 b13e 11d0 623f 735b 9bbe 7583 a43e
000000d0: 741c 16be 2c3d 673f 2e17 013f 7a04 1bbe
000000e0: 62c2 d33e 682e fcbe 9fe6 6cbe 2dad 063e
000000f0: 6c35 9dbe 866c df3e bc55 413d b7e0 74bd
00000100: c679 0bbf 3645 973d 4515 083f 6bf0 a53e
00000110: f126 4bbf 96a7 143e 2709 013e 5749 243f
00000120: c890 af3d 7f68 afbe c273 83be 0aab ddbe
00000130: fa6b 9c3d d1eb c23c 263c f7bd f0f2 c5be
00000140: ddc7 0f3e 73c3 34bd 0e74 813e b6b0 2c3f
00000150: 2d82 93be 827a a8ba 0056 033f d113 70be
00000160: fc0c 0cbe c7b3 613e 6f96 05bf d9c7 f83e
00000170: 9019 f6be 28a5 1d3f d081 db3e c402 283f
00000180: 4205 843e 9799 07bf 074c e5be 8c2d 913e
00000190: c022 19bd 17f6 35be 990d ae3c 586c 063f
000001a0: 3e91 2dbe 284f a2be 0701 17bf 11e8 25be
000001b0: 3abd 34bf b72d 4fbf ffcc ef3d de67 03bf
000001c0: af4f cbbd 9ca8 5f3e d12c 043e df97 6c3e
000001d0: 8dcc 05be 1a22 e2bd 8904 28bf a78b df3e
000001e0: 2b1c 35bd 204e 443d 5114 28bf 5f11 2b3f
000001f0: b993 fb3e 0d4e 4f3e 0250 9e3d 8785 57be
00000200: 6211 0bbe 1f57 5cba 1d52 5abf fbbf 4f3f
00000210: 6a83 3bbd 5c64 803e 3a3e 163e 124d abbe
00000220: 6eea 013f fb2a 01bd 5f8c 5bbe 89cd f3bd
00000230: f8fb c6be 1859 803b 20b9 143f f220 e83e
00000240: 1311 3fbe 02ef cc3e 0247 22be dbc8 4dbe
00000250: 9a6e 2fbf 8322 8e3e 594f 673e 3480 ea3e
00000260: d9ce 293f 1587 f83e a298 423f 8420 233e
00000270: 7eb3 98be 492d 3e3f 67be c4be 1f1f 033e
00000280: 25ba f8bd 9b11 adbd 4ddf 12bd 42d1 0e3f
00000290: 6504 ed3e bfe2 0abf 7107 d9bd 7876 483e
000002a0: cd01 62be 8078 903d 8a0c 84bd 1162 373e
000002b0: 9f00 e53e e641 cb3e e6f4 9cbf 76fb 493e
000002c0: 27cf ab3c cc43 143f dec5 7ebe d768 53be
000002d0: d8db 8a3e 2b00 6f3f e019 38be 042b ea3d
000002e0: 8640 a33e fbc2 e63e 1d2c 313e c374 2b3f
000002f0: 71bc 06bf 1662 cc3e a297 e63b 43d9 a2be
00000300: eb2d 2ebe eed5 acbb 3cdb abbc 1162 293f
00000310: 5940 85be 44ad 623e 80ef 62bf 15ca 52bf
00000320: b85f bdbe 49c9 9fbe 6431 9d3e b7bb d5bd
00000330: ec36 ac3e d70a 293f 1144 66be 1d47 c9be
00000340: 9ff0 803e 50ac a1be 647d 363f 8764 0abf
00000350: ed2c aebe 513e 3ebf 418a e53e dd4f a7be
00000360: 5c42 15bd b37e eabc 99fb 85be d544 803e
00000370: 2942 f8be a9b8 f03e 2ca8 a73e 0d3a 66be
00000380: 7771 913e d750 2d3d 71b7 0b3e 426a cb3e
00000390: e2ab be3c 7c51 25be e4e3 383e d5db d23e
000003a0: 812b 4d3f a716 49bf 5278 773e 70cc 8fbe
000003b0: 6cdd bd3d 2740 e1be b9cd 43bf 8e4e 063f
000003c0: 205c 9ebd a2ce 203e 1aee 903e 32b8 e8be
000003d0: 7ee2 403c 4f8f 2b3e d116 24bf 30a8 e53c
000003e0: aede e1be f2ce 003d 8190 2cbe c45c 063f
000003f0: bd74 ed3d f05c a8bd 1fc7 62bf 9421 0bbe

network_body._body_endoder.seq_layers.2.bias f4 [256]
0.042654812 0.058624487 0.059754975 0.031509522 -0.039859015 0.047305297 0.040638562 -0.021175802
0.026751036 0.044539638 0.04991008 0.062466163 -0.02200791 -0.066616446 -0.016617155 0.05712298
0.007999048 0.053683866 0.033140898 0.008449543 -0.058641132 0.06423637 0.055478495 0.045060344
0.037897978 0.04271602 0.0012138749 -0.048036784 0.042396095 -0.050670337 -0.0483169 0.047236256
0.052595157 -0.048999954 0.047356494 0.07694307 0.0536402 -0.017725706 0.0676865 -0.027843125
0.03924763 -0.049671777 -0.049747754 0.014383755 -0.03489518 -0.026360298 0.05187097 0.044923857
0.061121725 0.055600323 0.067112006 0.0627933 0.061199874 0.033870347 0.028932 -0.045886774
-0.028764917 -0.043093435 -0.06564994 0.054579053 0.052724544 0.042939033 -0.031834032 -0.037668835
-0.063314974 0.041200858 0.059512664 -0.037718184 -0.057243723 0.026998593 -0.05369885 -0.062789015
0.052666042 0.040241405 0.015505579 0.04864661 0.041174445 0.04427357 -0.039265692 -0.009363565
-0.072387725 -0.067673825 0.031865317 0.053913463 -0.035907984 0.058930147 0.054856353 -0.04754505
0.040098038 0.06581295 0.0013165581 -0.055218946 -0.028800286 0.05472769 -0.06841874 0.063686214
-0.069104105 0.053433344 0.052609604 -0.057780586 -0.056296796 0.05125932 -0.036363907 0.015339298
-0.03747077 -0.016359612 -0.051275663 -0.06183566 0.04755357 -0.05544819 0.052756626 -0.014464953
0.040339082 0.039869025 0.036692344 -0.030603271 0.0155907385 -0.06404901 -0.05719613 -0.036389742
0.054978117 -0.061366133 -0.062409684 0.033070702 0.023734048 0.047772225 -0.06929827 -0.067096815
0.020956304 0.04832951 -0.0028087802 -0.008074734 0.06074526 -0.0435565 -0.07200423 0.019497983
-0.060891163 -0.023345474 -0.048913706 -0.043124378 -0.03813623 -0.054178033 -0.040786196 -0.033005204
0.049489856 0.05454432 -0.07079276 0.019571304 0.037810523 -0.054616563 -0.03874126 0.03432033
0.049220357 -0.045341324 -0.06620766 0.03088693 0.045848936 0.03931725 0.045690343 0.01404113
0.024718639 0.037843194 -0.056854635 -0.06565855 -0.05493139 0.019717723 -0.01860736 0.038221363
-0.056222904 0.04504582 0.061188757 0.035371058 -0.0465092 0.025009627 0.052381713 0.04780806
0.06659546 -0.06588062 -0.018956838 0.036811706 -0.018587666 0.04428953 0.045646187 0.038372487
0.0480312 0.013043512 -0.051587507 -0.0063325795 -0.06621826 0.05499391 0.048253626 -0.03661258
-0.023801588 0.04233078 0.055003304 -0.056880552 0.029813899 0.054708127 -0.06437303 -0.059945628
0.009672969 0.07133582 -0.059795003 -0.011814166 -0.01112329 0.022382038 -0.0696145 0.044095542
-0.048778675 0.067179516 -0.033921514 -0.06756198 -0.059355143 0.05894068 0.055604108 0.04239117
0.047672294 -0.060580518 0.022387786 0.056167062 -0.0040674843 0.056182936 0.05928462 0.060448542
0.061198354 -0.07251157 0.046283007 0.041019347 0.056123603 -0.06762958 -0.032721944 0.061344888
-0.0002610958 -0.07158489 -0.06621202 -0.06482489 0.036727726 -0.03642517 -0.0017525618 -0.06487447
0.042298354 0.04081162 -0.068462 -0.0005558856 -0.07236889 -0.0036024144 -0.04880385 0.027560562
0.04818391 -0.06530876 0.04977893 0.059093725 0.04679194 0.04603593 0.04789139 -0.05881709
00000000: d0b6 2e3d 3b20 703d a2c1 743d 2110 013d
00000010: 3543 23bd 33c3 413d 9f74 263d e078 adbc
00000020: fd24 db3c 326f 363d 836e 4c3d 85dc 7f3d
00000030: ef49 b4bc 346e 88bd b320 88bc c9f9 693d
00000040: 700e 033c 9de3 5b3d c0be 073d f46f 0a3c
00000050: af31 70bd 5c8e 833d 6b3d 633d 3291 383d
00000060: e93a 1b3d fef6 2e3d e21a 9f3a 38c2 44bd
00000070: 87a7 2d3d b38b 4fbd f1e7 45bd ce7a 413d
00000080: 056e 573d 2db4 48bd e2f8 413d 5494 9d3d
00000090: d4b5 5b3d 8035 91bc 389f 8a3d 4417 e4bc
000000a0: 1fc2 203d a274 4bbd 4dc4 4bbd d7a9 6b3c
000000b0: 40ee 0ebd 8df1 d7bc a776 543d 1402 383d
000000c0: c65a 7a3d 2abd 633d 0572 893d c699 803d
000000d0: b8ac 7a3d a2bb 0a3d cd02 ed3c c5f3 3bbd
000000e0: 67a4 ebbc be82 30bd 7a73 86bd 498e 5f3d
000000f0: b1f5 573d d7e0 2f3d 6764 02bd a34a 1abd
00000100: 48ab 81bd 3bc2 283d 8dc3 733d 627e 1abd
00000110: 6578 6abd 272c dd3c 53f3 5bbd 8797 80bd
00000120: 59b8 573d 2cd4 243d 1d0b 7e3c ab41 473d
00000130: 89a6 283d 3458 353d 10d5 20bd a369 19bc
00000140: 0440 94bd 9398 8abd 3585 023d 5dd4 5c3d
00000150: 4014 13bd bd60 713d 0eb1 603d 99be 42bd
00000160: d73d 243d f1c8 863d 5c90 ac3a 432d 62bd
00000170: 94ee ebbc 242a 603d 201f 8cbd eb6d 823d
00000180: 7486 8dbd ecdc 5a3d 2b7d 573d 56ab 6cbd
00000190: 7897 66bd 4bf5 513d 52f2 14bd ae51 7b3c
000001a0: f37a 19bd 9804 86bc 6e06 52bd 6447 7dbd
000001b0: 88c7 423d a41d 63bd 5517 583d 69fe 6cbc
000001c0: 983a 253d b44d 233d b64a 163d b6b3 fabc
000001d0: 4c70 7f3c 212c 83bd 7d46 6abd 690d 15bd
000001e0: bc30 613d 0e5b 7bbd 4ca1 7fbd 2575 073d
000001f0: e86d c23c cfac 433d 40ec 8dbd 0e6a 89bd
00000200: 8eac ab3c 2af5 453d 8313 38bb e44b 04bc
00000210: 06d0 783d 4d68 32bd f476 93bd 3cba 9f3c
00000220: 0369 79bd 023f bfbc bd59 48bd 30a3 30bd
00000230: bc34 1cbd c9e9 5dbd 6d0f 27bd 7730 07bd
00000240: e0b5 4a3d dd69 5f3d cbfb 90bd 0054 a03c
00000250: 35df 1a3d 9eb5 5fbd 28af 1ebd 7993 0c3d
00000260: 499b 493d d3b7 39bd e297 87bd 9606 fd3c
00000270: 18cc 3b3d 200b 213d cc25 3b3d c50c 663c
00000280: be7e ca3c 7701 1b3d 68e0 68bd fd77 86bd
00000290: bdff 60bd 1087 a13c 766e 98bc 018e 1c3d
000002a0: fd49 66bd f781 383d 10a1 7a3d 3ee1 103d
000002b0: 6e80 3ebd fde0 cc3c 358e 563d 62d2 433d
000002c0: 3363 883d 6bec 86bd 5f4b 9bbc dfc7 163d
000002d0: 2945 98bc f068 353d 7ff7 3a3d 782c 1d3d
000002e0: 5dbc 443d 74b4 553c 6c4d 53bd 8781 cfbb
000002f0: 709d 87bd 4b41 613d 98a5 453d 13f7 15bd
00000300: 8cfb c2bc 0a63 2d3d 254b 613d 95fb 68bd
00000310: 473c f43c a115 603d 02d6 83bd 8c89 75bd
00000320: 5f7b 1e3c 8418 923d 9beb 74bd 3490 41bc
00000330: 763e 36bc 895a b73c 0c92 8ebd 879d 343d
00000340: 26cc 47bd 6a95 893d 49f1 0abd ef5d 8abd
00000350: 611e 73bd c86b 713d 22c1 633d 5da2 2d3d
00000360: 0644 433d 4723 78bd 9766 b73c 6f0f 663d
00000370: 8848 85bb 1420 663d 6ed4 723d e498 773d
00000380: 20ab 7a3d f280 94bd 4093 3d3d e703 283d
00000390: dde1 653d 6181 8abd 7207 06bd c744 7b3d
000003a0: afe3 88b9 199b 92bd 2b9a 87bd e9c2 84bd
000003b0: d06f 163d 8f32 15bd 37b6 e5ba e8dc 84bd
000003c0: 0a41 2d3d 162a 273d ce35 8cbd dab8 11ba
000003d0: 2436 94bd 7c16 6cbb 8ce6 47bd b0c6 e13c
000003e0: 7e5c 453d 99c0 85bd fee4 4b3d 430c 723d
000003f0: e8a8 3f3d 2c90 3c3d c329 443d 30ea 70bd

network_body._body_endoder.seq_layers.2.weight f4 [256, 256]
-0.0346626 -0.04922361 -0.047042932 -0.020070305 -0.0005051628 -0.022644436 0.091630384 -0.09760114
0.006637663 -0.036714356 -0.015034008 0.021833723 0.07283975 -0.114608854 -0.024370309 0.04348873
-0.01588126 -0.031900577 -0.0072807847 0.0014474649 -0.015811801 0.125382 -0.009543872 0.02055162
-0.11997943 -0.018624686 -0.014415319 0.0706861 0.027734496 0.07337465 -0.06139218 0.014918707
-0.07363053 0.06151283 -0.011463389 0.10839003 -0.12557828 0.03995311 -0.06560382 0.036309943
-0.00011190834 0.022083992 -0.00022700807 0.049355958 -0.011945215 -0.072751515 -0.02637276 0.14154287
0.060055114 -0.16551524 -0.062046852 0.009648421 0.09152481 0.04969601 0.03752141 -0.07156661
-0.05096193 0.027472788 0.044237275 -0.056572136 -0.05534481 0.023200393 0.04489688 -0.041670214
0.084446885 0.021655597 -0.028022071 0.07867981 0.03194173 -0.05175321 -0.09641929 0.0077923336
0.032402232 0.059630275 0.0016212004 -0.018594135 -0.002711875 -0.004619583 0.06340657 0.03730911
0.05442967 -0.0138283 -0.013342288 -0.1088 0.039430704 0.038157307 -0.085770406 0.035785824
-0.015455521 -0.058821928 0.065582536 0.072161324 0.09725796 0.07871691 0.07926594 -0.035172686
0.09724198 -0.06293391 0.022990674 -0.068207696 -0.09671812 0.006954272 -0.08078418 -0.06706539
-0.05042273 -0.12523997 -0.029823206 -0.04848011 0.02609274 -0.024916284 -0.03651796 0.03945775
-0.10326356 -0.023838026 0.1576216 -0.015347344 0.007936975 -0.03199217 0.06257085 0.04561311
0.010456212 -0.08212108 0.08670743 0.0050176703 -0.047472153 -0.013663401 0.12658313 -0.06275317
-0.033206534 -0.021846268 -0.013247894 0.07267226 0.012286643 -0.057452593 0.11746736 0.07990269
0.01052075 0.06249238 -0.030362684 -0.00094489194 -0.012996743 0.07174587 -0.14640109 -0.008329392
-0.07604465 0.117039226 0.040213093 0.11266974 0.09753209 -0.01530987 0.008810807 -0.010630436
-0.06797851 -0.015401587 -0.08500973 -0.07305129 -0.021671588 -0.006050037 -0.030012108 0.05445366
-0.05497718 -0.007941118 -0.13690461 -0.015607741 -0.013579988 0.038142107 0.088707164 -0.06410275
0.07847298 0.07948405 -0.0301405 -0.011283172 0.0015660459 -0.035527524 0.0023507583 0.057122488
0.015621251 0.13265707 0.016214695 0.039383844 0.07091252 -0.08809635 0.099214986 -0.039340287
-0.08414148 -0.06413949 0.010723597 -0.010478926 0.082593754 0.05025279 -0.006942631 0.008788402
-0.02937347 -0.06525838 -0.036954198 0.11949817 0.07920062 0.08567238 -0.0028567456 -0.020057647
-0.014714405 -0.00499698 -0.08581924 0.00020217104 0.019151742 -0.038915705 0.09811054 -0.011818221
0.02328603 0.04213789 -0.033900425 0.062125623 0.02362521 -0.06513587 -0.0030724176 -0.07646568
-0.028629804 -0.08681115 0.09019627 -0.012734633 0.05969596 0.036017977 -0.07427895 0.021009794
0.012544748 -0.10561772 -0.1521091 0.06252656 -0.056180853 0.029984644 -0.1631288 -0.039125912
0.0588919 -0.03034442 0.031766545 0.12555856 0.029689956 -0.010078073 0.009026885 -0.053814016
0.09519467 -0.0013116115 0.058635604 0.10440626 0.03952566 -0.06215813 -0.014408732 -0.035929706
0.02392763 0.031350918 -0.05453446 0.036448117 -0.022386169 0.11539836 0.04406552 0.04447177
00000000: 5ffa 0dbd b29e 49bd 17b0 40bd 7b6a a4bc
00000010: e76c 04ba d380 b9bc b6a8 bb3d 1be3 c7bd
00000020: c180 d93b cb61 16bd 3351 76bc a3dc b23c
00000030: 022d 953d 0cb8 eabd 3ea4 c7bc 3d21 323d
00000040: 6b19 82bc 2eaa 02bd a693 eebb ddb8 bd3a
00000050: c087 81bc 2464 003e e75d 1cbc df5b a83c
00000060: c7b7 f5bd cc92 98bc 3b2e 6cbc e0c3 903d
00000070: 7433 e33c 7345 963d 5e76 7bbd 986d 743c
00000080: 9acb 96bd e1f4 7b3d f0d0 3bbc 98fb dd3d
00000090: 9897 00be dfa5 233d 4c5b 86bd bcb9 143d
000000a0: 55b0 eab8 7de9 b43c 0409 6eb9 7929 4a3d
000000b0: ddb5 43bc bffe 94bd b00b d8bc 9df0 103e
000000c0: 5afc 753d d47c 29be d724 7ebd 6914 1e3c
000000d0: 5c71 bb3d 0b8e 4b3d 0db0 193d 8491 92bd
000000e0: 75bd 50bd 9d0e e13c 2532 353d 2fb8 67bd
000000f0: 3db1 62bd c00e be3c cae5 373d 63ae 2abd
00000100: 7df2 ac3d 1467 b13c 8b8e e5bc e122 a13d
00000110: 55d5 023d 2dfb 53bd 7a77 c5bd d556 ff3b
00000120: 34b8 043d e03e 743d 757e d43a ba52 98bc
00000130: b6b9 31bb df5f 97bb 4edb 813d 70d1 183d
00000140: a5f1 5e3d 1890 62bc 9d99 5abc 89d2 debd
00000150: 1782 213d d64a 1c3d 65a8 afbd 2894 123d
00000160: 2739 7dbc 43ef 70bd 2350 863d 51c9 933d
00000170: 2e2f c73d 5536 a13d 2e56 a23d 3c11 10bd
00000180: ce26 c73d 7ee3 80bd f056 bc3c 7ab0 8bbd
00000190: 2614 c6bd a9e0 e33b 2d72 a5bd 9459 89bd
000001a0: 1188 4ebd e83e 00be cc4f f4bc 1493 46bd
000001b0: 71c0 d53c 3c1d ccbc db93 15bd 739e 213d
000001c0: d87b d3bd f747 c3bc 8f67 213e 6d73 7bbc
000001d0: 160a 023c 390a 03bd 2525 803d d0d4 3a3d
000001e0: 8850 2b3c 192f a8bd aa93 b13d 456b a43b
000001f0: 2972 42bd 75dc 5fbc 029f 013e bc84 80bd
00000200: 9303 08bd f2f6 b2bc b20d 59bc 32d5 943d
00000210: ea4d 493c 6953 6bbd ba92 f03d 06a4 a33d
00000220: 395f 2c3c 03f8 7f3d 2abb f8bc a0b2 77ba
00000230: 4bf0 54bc 80ef 923d 2bea 15be 0178 08bc
00000240: 4cbd 9bbd 43b2 ef3d 7cb6 243d 65bf e63d
00000250: e8be c73d 40d6 7abc 345b 103c 482b 2ebc
00000260: 5138 8bbd f056 7cbc 9519 aebd ea9b 95bd
00000270: 9d88 b1bc 643f c6bb f4db f5bc cd0a 5f3d
00000280: c02f 61bd 771b 02bc b930 0cbe 9cb7 7fbc
00000290: 997e 5ebc e63a 1c3d 1aac b53d 4d48 83bd
000002a0: 71b6 a03d 89c8 a23d 36e9 f6bc 0edd 38bc
000002b0: c843 cd3a 4f85 11bd 2e0f 1a3b 45f9 693d
000002c0: 47f0 7f3c 41d7 073e aed4 843c f450 213d
000002d0: 953a 913d dc6b b4bd 3a31 cb3d 4823 21bd
000002e0: 5e52 acbd 915b 83bd 07b2 2f3c cdaf 2bbc
000002f0: ea26 a93d dfd5 4d3d 037f e3bb 3bfd 0f3c
00000300: a2a0 f0bc 2fa6 85bd 495d 17bd 75bb f43d
00000310: ef33 a23d 0075 af3d 3d38 3bbb ef4f a4bc
00000320: b014 71bc b5bd a3bb ffc1 afbd e0fd 5339
00000330: 1de4 9c3c 1366 1fbd 2eee c83d 36a1 41bc
00000340: 58c2 be3c c898 2c3d 2cdb 0abd 7077 7e3d
00000350: a889 c13c f465 85bd 9d5a 49bb 0a9a 9cbd
00000360: 0d89 eabc 0bca b1bd d2b8 b83d eca4 50bc
00000370: c083 743d 9687 133d 901f 98bd bb1c ac3c
00000380: 7d88 4d3c 1a4e d8bd 7dc2 1bbe ed0d 803d
00000390: e51d 66bd 5ba2 f53c 3c0b 27be 7e42 20bd
000003a0: a238 713d dc94 f8bc a31d 023d 6c92 003e
000003b0: 5a38 f33c 801e 25bc 80e5 133c 166c 5cbd
000003c0: 6cf5 c23d 61ea abba e32b 703d f3d2 d53d
000003d0: a9e5 213d 8699 7ebd 9a12 6cbc 072b 13bd
000003e0: e103 c43c d269 003d 875f 5fbd 9f4a 153d
000003f0: 3363 b7bc fa55 ec3d 0c7e 343d 0828 363d

network_body._body_endoder.seq_layers.4.bias f4 [256]
-0.041032426 0.0552934 0.06330166 -0.020154342 0.058448378 -0.021038756 0.009257273 0.04166905
0.008828534 -0.039499667 0.05282199 -0.054655988 -0.03728652 0.012382477 0.043429296 0.04573752
0.04624196 0.035679925 -0.06114145 -0.05806961 -0.05259475 -0.031407874 -0.03901495 -0.0154162
-0.022962023 0.00416355 -0.05317424 0.05784205 0.02301646 0.027866155 0.024896568 0.041968532
-0.008113943 -0.03981525 0.05230187 -0.048839092 0.01490839 0.0033216279 -0.05916183 0.033757493
-0.032211907 0.011595194 -0.0064405976 -0.054418594 0.0584511 -0.041325197 0.035010833 -0.015176834
-0.050770804 -0.039550018 0.013046497 0.04746812 0.014610229 -0.005205514 0.0553122 0.03925262
0.03911462 0.056282986 0.041443568 0.047943037 0.056983072 0.0115001695 0.03675027 0.06536773
0.03542531 0.034631927 0.058547653 0.04364469 0.042377986 -0.044684492 0.031413425 0.037788454
0.031332083 0.051906485 -0.044862747 0.012234699 0.04607462 -0.028780973 0.008472216 0.059985004
-0.03202972 0.027547253 -0.041983128 0.048428748 -0.041973487 0.047670733 -0.014646177 0.06027848
0.040886827 -0.063909136 -0.04391531 -0.05307897 0.045960013 -0.050010532 0.04712457 0.032246485
0.043323018 0.036779884 -0.055094823 0.044661123 -0.048251506 0.05463039 0.0406478 0.041536074
0.049387727 0.036939587 0.020235771 -0.041665815 -0.02563102 0.04905676 -6.6634184e-06 0.050595853
-0.03362132 -0.056900114 -0.0341744 0.062127735 -0.040796343 -0.034027502 0.049681883 0.051704135
0.035632342 0.050115876 0.04019749 0.057843298 -0.042858794 -0.052576683 0.058390792 0.044566024
0.038092647 -0.038551632 0.052045427 0.044489518 0.010725774 0.058845617 -0.01949776 -0.045014475
0.007098368 -0.05556255 -0.0031205988 0.031630907 -0.04424328 0.05364001 -0.043677554 -0.019169655
-0.007825239 0.046513483 -0.040032145 -0.014214003 -0.038138613 -0.018413315 0.027987845 0.047958214
-0.04736197 -0.05642541 0.024120415 0.051573634 -0.038342465 0.046365753 -0.033916768 -0.04292545
0.050164305 0.03814991 0.065764576 0.049009707 -0.057672724 -0.05013896 0.016804041 0.055051647
0.049195945 0.052094843 -0.016503414 -0.051898625 -0.056213237 0.040671375 0.037364397 0.014547727
-0.00852093 0.05444971 0.012739484 0.051348254 0.0075452547 0.03705437 0.035568375 0.047990385
-0.053336654 0.04667655 -0.037415504 -0.041594017 0.016474435 0.037194643 0.054755766 -0.033895914
-0.053033262 0.007753969 0.044540163 -0.031969935 0.0528408 0.05292156 -0.045047723 0.047942493
0.02621638 -0.053064324 -0.023241986 -0.034899633 0.044871554 0.0032480655 -0.037449673 -0.017460464
0.016174067 -0.013889071 -0.001733657 0.048242737 0.04279124 0.041488603 0.028229726 0.04588037
8.292838e-05 0.030226035 -0.04152411 0.042750552 -0.061263047 0.048998326 0.0080640465 0.059297975
0.05369174 -0.02890745 0.04717042 0.036644988 -0.044468228 -0.03746298 0.0076280744 0.007841764
-0.022803312 -0.04351997 -0.041412644 0.05239902 -0.0022164884 0.05093843 -0.01216887 0.049625065
0.045650642 0.038329814 -0.04593873 -0.019605685 0.054055974 -0.054396804 0.0232919 0.016574346
-0.04225307 0.033832222 -0.048189975 0.03988009 -0.043381896 0.046327434 -0.038654637 -0.04708485
00000000: 9e11 28bd 557b 623d 4da4 813d b81a a5bc
00000010: 9167 6f3d 7859 acbc d1ab 173c 2aad 2a3d
00000020: 8ea5 103c 67ca 21bd df5b 583d f5de 5fbd
00000030: c0b9 18bd dfdf 4a3c ebe2 313d 4457 3b3d
00000040: 3668 3d3d 1d25 123d 756f 7abd 66da 6dbd
00000050: 986d 57bd 8ba5 00bd 24ce 1fbd 3b94 7cbc
00000060: da1a bcbc 646e 883b 3bcd 59bd c9eb 6c3d
00000070: 048d bc3c 9047 e43c e3f3 cb3c 32e7 2b3d
00000080: 58f0 04bc 5115 23bd 7c3a 563d 800b 48bd
00000090: 5242 743c abaf 593b ad53 72bd 4c45 0a3d
000000a0: a2f0 03bd c5f9 3d3c a60b d3bb 08e6 5ebd
000000b0: 6c6a 6f3d 9c44 29bd 8567 0f3d 41a8 78bc
000000c0: 0cf5 4fbd 33ff 21bd f9c0 553c ee6d 423d
000000d0: be5f 6f3c 0493 aabb 0c8f 623d 5bc7 203d
000000e0: a736 203d fd88 663d bbc0 293d eb5f 443d
000000f0: 1567 693d 356b 3c3c 7387 163d 84df 853d
00000100: 211a 113d 35da 0d3d aacf 6f3d c6c4 323d
00000110: 8a94 2d3d 1607 37bd 5dab 003d 11c8 1a3d
00000120: 1256 003d e59b 543d 00c2 37bd 0c74 483c
00000130: beb8 3c3d 13c6 ebbc 0dcf 0a3c d6b2 753d
00000140: 9831 03bd c7aa e13c 80f6 2bbd 395d 463d
00000150: 64ec 2bbd 6342 433d 85f6 6fbc 91e6 763d
00000160: f278 273d cbe2 82bd 8ae0 33bd 5669 59bd
00000170: 9140 3c3d d8d7 4cbd b105 413d e414 043d
00000180: 7a73 313d 81a6 163d 1cab 61bd 95ee 363d
00000190: 5fa3 45bd 1ec4 5f3d 4f7e 263d bb21 2a3d
000001a0: c94a 4a3d f74d 173d 7dc5 a53c c6a9 2abd
000001b0: 25f8 d1bc beef 483d 5496 dfb6 993d 4f3d
000001c0: 82b6 09bd 1810 69bd 75fa 0bbd a779 7e3d
000001d0: 111a 27bd 6c60 0bbd 3b7f 4b3d b7c7 533d
000001e0: 38f3 113d 4e46 4d3d 20a6 243d 18ed 6c3d
000001f0: b48c 2fbd a65a 57bd 2f2b 6f3d dd8a 363d
00000200: 0907 1c3d 51e8 1dbd 962d 553d a43a 363d
00000210: 28bb 2f3c 1a08 713d c4b9 9fbc 1961 38bd
00000220: 6d99 e83b 8e95 63bd f682 4cbb 698f 013d
00000230: 7138 35bd a1b5 5b3d 3ce7 32bd ae09 9dbc
00000240: 6e35 00bc ec84 3e3d bff8 23bd dae1 68bc
00000250: 3c37 1cbd 85d7 96bc c446 e53c d56f 443d
00000260: a0fe 41bd 551e 67bd 2d98 c53c e03e 533d
00000270: fd0c 1dbd 04ea 3d3d 4fec 0abd 99d2 2fbd
00000280: 1679 4d3d 1443 1c3d 94af 863d 67be 483d
00000290: 3c3a 6cbd 835e 4dbd a1a8 893c d67d 613d
000002a0: b081 493d 6761 553d 2b32 87bc a793 54bd
000002b0: da3f 66bd 0797 263d 690b 193d 9759 6e3c
000002c0: 5f9b 0bbc a906 5f3d 45b9 503c 8c52 523d
000002d0: 2f3e f73b 53c6 173d 25b0 113d 9191 443d
000002e0: 8977 5abd e92f 3f3d 0041 19bd 7d5e 2abd
000002f0: 65f5 863c 6959 183d 9547 603d 71d6 0abd
00000300: 6839 59bd 0215 fe3b bf6f 363d e8f2 02bd
00000310: 986f 583d 47c4 583d f683 38bd 595f 443d
00000320: bcc3 d63c fa59 59bd fa65 bebc ebf2 0ebd
00000330: 3ccb 373d 7fdd 543b d464 19bd 3f09 8fbc
00000340: 7a7f 843c fc8e 63bc e03b e3ba 2d9a 453d
00000350: de45 2f3d f4ef 293d 0742 e73c 0eed 3b3d
00000360: d6e9 ad38 979c f73c 2f15 2abd 341b 2f3d
00000370: f6ee 7abd 78b2 483d 101f 043c 6fe2 723d
00000380: dfeb 5b3d 51cf ecbc c535 413d 0e19 163d
00000390: 5124 36bd c872 19bd edf4 f93b be7a 003c
000003a0: 03ce babc ff41 32bd 4ea0 29bd 5ba0 563d
000003b0: 8142 11bb d1a4 503d f15f 47bc a743 4b3d
000003c0: 2bfc 3a3d b9ff 1c3d 402a 3cbd 1a9c a0bc
000003d0: cc69 5d3d 2fcf 5ebd a8ce be3c ecc6 873c
000003e0: 8e11 2dbd a893 0a3d da62 45bd 4e59 233d
000003f0: 37b1 31bd d6c1 3d3d 5354 1ebd 0bdc 40bd

network_body._body_endoder.seq_layers.4.weight f4 [256, 256]
-0.068518564 0.06907259 -0.012627278 0.01316478 0.01969108 0.14558327 0.053533487 -0.006438555
0.07602055 -0.06790253 -0.03837734 -0.069443166 -0.023884796 0.074852586 0.021695053 0.0028428144
0.09726592 -0.084725246 -0.096423805 0.011127932 -0.031125298 -0.034657814 0.070232406 0.026011199
-0.038312074 -0.003669099 0.10069649 0.07557565 -0.03936437 0.106113404 -0.01696181 0.0878242
-0.014094332 0.09233509 0.006784466 -0.111321904 -0.029121937 0.04791387 -0.028970314 0.08109187
-0.036748335 -0.046302184 0.009776675 -0.12093923 0.008436762 -0.096140765 -0.07457199 0.03154034
0.002925204 0.0061841225 0.055548705 -0.08783094 -0.0292247 0.0053563765 -0.06932239 -0.001093568
0.10045169 0.20627794 -0.10502386 0.04617321 0.020344546 0.007933715 -0.039621163 0.08320252
0.08329857 0.018715747 0.023902908 -0.00743636 0.007971678 -0.043650184 0.09883102 0.017054697
0.00017245312 0.13390099 -0.06236522 -0.058268953 -0.019952182 0.044759084 -0.042782817 0.038733795
0.0019082106 -0.05902367 0.050698634 0.016767353 0.07526799 -0.064195774 -0.13275333 0.020033306
0.070509195 -0.048134554 -0.0071379608 -0.04454521 -0.024123188 0.0091301715 0.1266107 0.004688939
-0.05411729 -0.04110228 0.027859377 0.002963237 0.019173743 0.014017779 -0.039528396 0.13334638
0.14016919 0.084071465 -0.024795312 0.05801746 0.061063852 0.022763824 -0.055960912 0.024407059
-0.07996261 0.014339922 -0.08903809 0.09948579 -0.0373957 0.061791845 0.08041155 0.02698728
0.037248205 -0.11590424 0.094300754 -0.0054616625 -0.0216772 0.111393474 0.042359814 0.029031763
0.059181266 -0.04799057 -0.022182269 0.04271905 0.03277886 0.038824752 0.06846181 -0.019160891
0.05382052 0.087893166 0.02082502 0.07033294 -0.014218243 -0.05554295 0.028036328 0.0129955765
0.026873041 0.031405263 -0.055024087 -0.0360652 0.11021323 0.13946708 0.04654068 -0.03927627
-0.040574018 0.0486412 0.045917533 0.022738814 -0.0120600285 -0.05034294 -0.033669423 -0.0044891476
0.08334849 -0.10677999 0.012235959 0.09724154 0.05679032 0.03711643 0.06853404 -0.0020990344
-0.0071851364 0.025096012 0.1268225 -0.07026585 -0.012805165 0.0049219597 -0.057500098 0.013084643
-0.040865544 -0.05661129 -0.0033149787 -0.054887183 -0.059150398 -0.06255868 0.02788408 -0.008755873
0.0958302 0.044800743 0.050507326 0.1624813 0.04748451 -0.034499392 0.067480385 0.01980792
-0.09809442 -0.0027953587 0.033975042 0.018806145 0.021419527 0.003039833 0.013429694 0.142697
-0.07044108 -0.060651436 -0.07245807 0.027604934 0.08652205 0.09245579 -0.012167435 0.0030686143
-0.046179272 -0.032957774 0.0013862316 -0.06889939 0.085381605 -0.026113529 0.019095914 0.013748938
-0.1740161 -0.0051084305 0.0894633 -0.0143299205 -0.01652691 0.0053004054 0.030786619 -0.038280703
-0.067854784 0.039280355 -0.000803903 -0.049584713 -0.14625864 -0.004430332 0.03054435 0.09752983
-0.060310896 0.019567836 0.10395136 0.05097024 0.038513903 -0.055060614 0.015408944 -0.05801243
0.03719716 -0.050625358 0.038826555 0.041442573 0.017994849 -0.004639085 0.0717735 0.13332938
-0.0007740099 0.023369558 0.15534984 -0.013154211 -0.05221053 0.081352115 -0.026398605 0.03753744
00000000: 7653 8cbd ee75 8d3d a5e2 4ebc 17b1 573c
00000010: 304f a13c c813 153e ee45 5b3d 84fa d2bb
00000020: aab0 9b3d 7b10 8bbd 8f31 1dbd 3838 8ebd
00000030: 0caa c3bc 504c 993d d3b9 b13c 834e 3a3b
00000040: 5b33 c73d 6e84 adbd d879 c5bd ee51 363c
00000050: 7bfa febc 5af5 0dbd 02d6 8f3d 7015 d53c
00000060: 1fed 1cbd 4475 70bb f639 ce3d 68c7 9a3d
00000070: 893c 21bd fc51 d93d 7ef3 8abc 2ddd b33d
00000080: eaeb 66bc 2e1a bd3d 3a50 de3b bdfc e3bd
00000090: 2191 eebc 5641 443d 2753 edbc 7f13 a63d
000000a0: 6c85 16bd 5ca7 3dbd 592e 203c fdae f7bd
000000b0: 583a 0a3c 73e5 c4bd 33b9 98bd 7230 013d
000000c0: c8b4 3f3b 2ea4 ca3b 0a87 633d b5e0 b3bd
000000d0: a368 efbc 8b84 af3b e6f8 8dbd 0e56 8fba
000000e0: 9eb9 cd3d 863a 533e c016 d7bd 1f20 3d3d
000000f0: 9ba9 a63c 6afc 013c cd49 22bd 1566 aa3d
00000100: 7198 aa3d c451 993c 08d0 c33c b6ac f3bb
00000110: a49b 023c 89ca 32bd eb67 ca3d 4bb6 8b3c
00000120: 88d4 3439 571d 093e ac72 7fbd 6dab 6ebd
00000130: c272 a3bc 4d55 373d 093d 2fbd 54a7 1e3d
00000140: ec1c fa3a cec2 71bd 5fa9 4f3d b05b 893c
00000150: 1b26 9a3d 1379 83bd 7df0 07be e31c a43c
00000160: 2067 903d bd28 45bd 8ee5 e9bb 0a75 36bd
00000170: fe9d c5bc b796 153c 3ca6 013e aca5 993b
00000180: 17aa 5dbd dd5a 28bd 5939 e43c de32 423b
00000190: 4112 9d3c d4aa 653c 87e8 21bd f48b 083e
000001a0: 8388 0f3e a92d ac3d 8a1f cbbc b7a3 6d3d
000001b0: 171e 7a3d 337b ba3c 4537 65bd 50f1 c73c
000001c0: 70c3 a3bd fef1 6a3c 9a59 b6bd 35bf cb3d
000001d0: 3c2c 19bd 7219 7d3d d0ae a43d 6e14 dd3c
000001e0: 9391 183d 345f edbd c120 c13d bff7 b2bb
000001f0: 6294 b1bc 4322 e43d 7c81 2d3d 05d4 ed3c
00000200: 0e68 723d c391 44bd 97b7 b5bc 2cfa 2e3d
00000210: 2043 063d b406 1f3d b535 8c3d 4df7 9cbc
00000220: e872 5c3d 5501 b43d 3b99 aa3c b70a 903d
00000230: a2f3 68bc 0181 63bd 71ac e53c 66eb 543c
00000240: da24 dc3c cea2 003d f060 61bd 1ab9 13bd
00000250: 79b7 e13d 75d0 0e3e 71a1 3e3d 27e0 20bd
00000260: f130 26bd ff3b 473d 0614 3c3d c046 ba3c
00000270: 6d97 45bc 6634 4ebd f3e8 09bd b319 93bb
00000280: 9db2 aa3d 78af dabd 5579 483c 9326 c73d
00000290: f79c 683d 6607 183d 935b 8c3d f48f 09bb
000002a0: 4b71 ebbb 2796 cd3c c2dd 013e 8be7 8fbd
000002b0: c1cc 51bc 6448 a13b 3985 6bbd f860 563c
000002c0: a162 27bd 3de1 67bd 1d40 59bb 62d1 60bd
000002d0: b047 72bd c41e 80bd 276d e43c cb74 0fbc
000002e0: a042 c43d fc80 373d c5e0 4e3d 7f61 263e
000002f0: 1e7f 423d 3c4f 0dbd 2833 8a3d 3844 a23c
00000300: bae5 c8bd 5632 37bb 6a29 0b3d 580f 9a3c
00000310: 0178 af3c ef37 473b 3808 5c3c 2a1f 123e
00000320: 6a43 90bd a46d 78bd e664 94bd be23 e23c
00000330: 7932 b13d 7659 bd3d ec59 47bc ce1a 493b
00000340: 7a26 3dbd bbfe 06bd 37b2 b53a 201b 8dbd
00000350: 8ddc ae3d 0aec d5bc 096f 9c3c 3a43 613c
00000360: 4731 32be 9f64 a7bb 8938 b73d 0bc8 6abc
00000370: 7163 87bc 06af ad3b 3834 fc3c 3acc 1cbd
00000380: 73f7 8abd 70e4 203d 04bd 52ba 5719 4bbd
00000390: d3c4 15be 522c 91bb 2538 fa3c b8bd c73d
000003a0: 8f08 77bd ba4c a03c 73e4 d43d 2cc6 503d
000003b0: c1c0 1d3d 3d87 61bd cc75 7c3c 719e 6dbd
000003c0: 0d5c 183d 895c 4fbd 9808 1f3d b0bf 293d
000003d0: ef69 933c 7703 98bb fcfd 923d 7f87 083e
000003e0: ede6 4aba 8471 bf3c 0714 1f3e c384 57bc
000003f0: b5da 55bd f09b a63d e341 d8bc dcc0 193d

network_body.observation_encoder.processors.0.normalizer.running_mean f4 [6]
47.599216 36.062473 32.09416 -32.28028 1.3999468 -71.157326
00000000: 9965 3e42 f93f 1042 6b60 0042 021f 01c2
00000010: 7531 b33f 8d50 8ec2
