Assets/Training/results/test2_v1/MarsTaxi.onnx (onnx, 542464 bytes, 10 tensors)

54 f4 [6]
13.259733 16.966957 46.24529 0.04087492 0.002175206 0.0900538
00000000: de27 5441 54bc 8741 2dfb 3842 766c 273d
00000010: e78d 0e3b 206e b83d

action_model._discrete_distribution.branches.0.bias f4 [6]
0.035552442 -0.007033128 -0.008966386 -0.026004087 -0.024933157 -0.008872109
00000000: 709f 113d 2776 e6bb c0e7 12bc 8606 d5bc
00000010: 9f40 ccbc 535c 11bc

action_model._discrete_distribution.branches.0.weight f4 [6, 256]
-0.03161351 0.021102605 0.010046792 -0.019862296 0.038451444 -0.03253789 -0.03528779 0.01052593
0.0049971556 -0.07009405 0.029145949 -0.022450054 -0.055852707 0.013158084 0.015628356 0.025133887
0.037436362 0.02617479 -0.034330733 -0.041018408 -0.035593297 -0.014202717 -0.068238996 -0.0052424627
-0.009247591 0.0006424462 -0.025824206 0.0030169967 0.0018787546 0.022642808 0.0037087682 0.022166789
-0.0012562538 -0.034493066 0.06514292 -0.023344671 0.03170492 -0.012478806 -0.043228645 0.0037704255
-0.024945326 -0.0022879506 0.014210745 -0.048646923 0.054242473 -0.030687148 0.02307151 -0.016015083
-0.040592045 -0.017983438 -0.0068287337 0.039207645 0.0050887307 0.010378686 0.040427048 0.003882354
0.018768197 0.028061753 0.02533489 0.040777262 0.05000826 0.007537062 0.020635596 0.027575625
-0.0016792448 0.011706499 0.037572604 0.024088185 0.02761235 -0.0429054 0.009834023 0.019906616
0.0023329128 0.015597654 -0.011013873 0.0048005227 0.041294917 -0.002168379 -0.007849295 0.038321447
-0.03205541 0.021861413 -0.053184394 0.023295052 -0.053990416 0.03021998 -0.02946391 0.028568616
0.010321811 -0.039234847 -0.013267011 -0.01295137 0.026872566 -0.019446122 0.0029107486 0.009964544
0.033955537 0.019273264 -0.04722845 -0.008079454 -0.035271604 0.033495754 0.017742207 0.021657484
0.0079774745 0.014556706 0.017824085 -0.03827006 -0.040258884 0.023265187 0.00068783545 0.017888054
0.008392907 -0.0329238 -0.032249637 0.02421939 -0.051787864 -0.038807247 0.03781617 0.03615428
0.015131436 0.043626834 0.026249219 0.009026283 -0.061112665 -0.048413493 0.032832157 0.026090696
0.031744868 -0.01327863 0.023546059 0.035905685 0.0075264135 0.022030255 0.009115659 -0.008604902
0.008726445 -0.032765064 0.00063642487 -0.0012034981 -0.05478709 0.026139049 -0.04317225 -0.01525668
-0.009561876 0.017510876 -0.039462864 -0.006819458 -0.026025783 -0.013898301 0.0108766025 0.0453309
-0.03524634 -0.038450897 0.009168778 0.038303252 -0.031844955 0.018038787 -0.019999556 -0.069098465
0.02668623 0.019461975 0.034865685 0.01630374 -0.032458503 -0.022568041 -0.0072072884 0.035271958
0.018741656 0.036952358 -0.0440262 -0.0157875 -0.039556064 0.017500754 0.008905915 0.0048897723
-0.017718509 0.03686133 -0.0035774182 0.015440872 0.012069276 0.035777174 0.021218738 0.024126088
-0.035176236 0.029424435 -0.025037339 -0.008211997 -0.0017935601 0.0122597255 0.041074812 -0.03557587
-0.04651077 -0.015747814 0.021281457 -0.029965421 0.037400853 0.029803952 -0.0135789765 0.024850795
0.005886833 -0.0242419 -0.012045273 -0.015575637 0.031463698 -0.008252821 -0.041976914 -0.037375346
0.019128036 -0.004756611 0.010741009 0.024988342 0.02338895 0.009727534 0.018799236 0.015733523
-0.009884672 0.012548705 -0.019574828 0.0020136929 -0.040442005 0.0018142083 -0.016522458 0.038676526
0.03257431 -0.021561373 0.038332015 0.024529714 -0.017376024 -0.05739821 -0.008214767 0.00949487
-0.010945045 -0.037106536 -0.048923 0.034721512 -0.0140036885 0.030174747 -0.009421155 0.038468957
0.017447146 0.010551593 -0.046108305 -0.0081674075 0.03429266 -0.045714658 0.009999005 0.013851338
-0.027936378 0.016184395 -0.031512342 0.024126612 -0.034520995 0.036137447 -0.022409018 -0.0029705842
00000000: 2b7d 01bd 5fdf ac3c 4d9b 243c 41b6 a2bc
00000010: 437f 1d3d 7346 05bd ee89 10bd f374 2c3c
00000020: 2ebf a33b 788d 8fbd 7cc3 ee3c 2de9 b7bc
00000030: cfc5 64bd 0195 573c 0a07 803c 95e5 cd3c
00000040: df56 193d 836c d63c 629e 0cbd eb02 28bd
00000050: 47ca 11bd 83b2 68bc e3c0 8bbd f7c8 abbb
00000060: 3583 17bc d669 283a 498d d3bc ceb8 453b
00000070: 8b40 f63a 697d b93c ce0e 733b 2097 b53c
00000080: e2a8 a4ba 9a48 0dbd a769 853d 533d bfbc
00000090: 05dd 013d e873 4cbc 8510 31bd 3e19 773b
000000a0: 245a ccbc 71f1 15bb 2fd4 683c ff41 47bd
000000b0: 5b2d 5e3d 9d63 fbbc 7700 bd3c 1032 83bc
000000c0: d843 26bd 0152 93bc 92c3 dfbb 3298 203d
000000d0: 5ebf a63b 5d0b 2a3c d596 253d 176f 7e3b
000000e0: c3bf 993c c3e1 e53c 1d8b cf3c 0f06 273d
000000f0: 76d5 4c3d 75f9 f63b fb0b a93c 47e6 e13c
00000100: 1b1a dcba 9ecc 3f3c bbe5 193d 9654 c53c
00000110: 4c33 e23c 93bd 2fbd e21e 213c 3313 a33c
00000120: c8e3 183b 4d8d 7f3c 8873 34bc b44d 9d3b
00000130: dc24 293d 5d1b 0ebb 549a 00bc f3f6 1c3d
00000140: 894c 03bd b516 b33c e1d7 59bd 44d5 be3c
00000150: 0e25 5dbd e48f f73c 4c5e f1bc bb08 ea3c
00000160: d01c 293c b8b4 20bd e15d 59bc fc31 54bc
00000170: db23 dc3c 794d 9fbc 42c2 3e3b 5442 233c
00000180: f614 0b3d f7e2 9d3c 9f72 41bd b05f 04bc
00000190: f578 10bd d832 093d 1b58 913c 096b b13c
000001a0: f4b3 023c 407f 6e3c d103 923c 11c1 1cbd
000001b0: 80e6 24bd a296 be3c db4f 343a f889 923c
000001c0: 6782 093c 1bdb 06bd 3218 04bd be67 c63c
000001d0: 831f 54bd 59f4 1ebd 21e5 1a3d 8316 143d
000001e0: d8e9 773c 0db2 323d 9a08 d73c fae2 133c
000001f0: 4651 7abd 3a4d 46bd 037b 063d 28bc d53c
00000200: e806 023d 9c8e 59bc aae3 c03c d711 133d
00000210: 22a0 f63b cb78 b43c d859 153c 93fb 0cbc
00000220: 5df9 0e3c a934 06bd c0d5 263a b2be 9dba
00000230: 6d68 60bd 8f21 d63c 63d5 30bd 27f7 79bc
00000240: 6aa9 1cbc f872 8f3c d0a3 21bd c375 dfbb
00000250: 0634 d5bc b3b5 63bc c733 323c e5ac 393d
00000260: 775e 10bd b07e 1dbd a438 163c dfe3 1c3d
00000270: db6f 02bd 14c6 933c 1cd6 a3bc 7f83 8dbd
00000280: 159d da3c b86e 9f3c 52cf 0e3d 6c8f 853c
00000290: 35f3 04bd 9de0 b8bc 1e2b ecbb 5479 103d
000002a0: 1a88 993c 5b5b 173d d154 34bd ca54 81bc
000002b0: 8a05 22bd be5d 8f3c 1dea 113c 623a a03b
000002c0: 6826 91bc e8fb 163d 1e73 6abb b6fb 7c3c
000002d0: 36be 453c 168b 123d ebd2 ad3c 13a4 c53c
000002e0: f514 10bd 830b f13c 1b1b cdbc 9d8b 06bc
000002f0: e415 ebba 04dd 483c 103e 283d 01b8 11bd
00000300: 1482 3ebd 8f01 81bc 7356 ae3c 0b7a f5bc
00000310: a331 193d 6b27 f43c 5b7a 5ebc e593 cb3c
00000320: 56e6 c03b f396 c6bc 8959 45bc f530 7fbc
00000330: 14e0 003d d736 07bc fcef 2bbd e416 19bd
00000340: 66b2 9c3c 58dd 9bbb 0ffb 2f3c 5ab4 cc3c
00000350: 2f9a bf3c 3c60 1f3c db00 9a3c 97e3 803c
00000360: 52f3 21bc 1599 4d3c 645b a0bc 29f8 033b
00000370: 84a6 25bd bbca ed3a 1b5a 87bc 476b 1e3d
00000380: a46c 053d 7aa1 b0bc 0802 1d3d 8af2 c83c
00000390: 2a58 8ebc 631a 6bbd 3b97 06bc 5f90 1b3c
000003a0: d952 33bc 06fd 17bd 7c63 48bd 2538 0e3d
000003b0: ba6f 65bc 0831 f73c 305b 1abc a091 1d3d
000003c0: 51ed 8e3c 97e0 2c3c 10dc 3cbd 97d0 05bc
000003d0: 7676 0c3d 4b3f 3bbd ded2 233c b9f0 623c
000003e0: d5da e4bc 2395 843c 1613 01bd 2ca5 c53c
000003f0: e365 0dbd dc04 143d 1e93 b7bc 22ae 42bb

network_body._body_endoder.seq_layers.0.bias f4 [256]
0.033530835 0.07489143 0.064674444 -0.03669662 0.059843868 0.07032031 0.06204423 0.030180203
0.059748545 0.058597367 0.05928106 0.048354983 0.06473614 0.026994195 0.05026591 0.021659374
-0.020429827 0.058514263 0.050273687 -0.06566649 0.0719034 -0.009626035 0.075373024 0.06134249
-0.034504313 -0.033121556 0.04804747 0.07501416 -0.059533805 0.06561494 0.023767877 0.077586666
-0.047321454 0.04932185 0.011372694 0.06209322 -0.0342954 0.059647035 0.053732377 -0.060042676
0.067500524 0.06767814 0.013924073 0.010581991 0.04135779 0.063291565 0.060501754 0.06365276
0.05174095 0.011727938 0.065253794 0.07535725 0.059532277 0.04104804 -0.048724066 0.052324973
0.06056414 0.03617637 0.05463456 -0.048684843 -0.032010425 0.07301484 -0.04766563 0.06804607
0.06322048 0.053182676 -0.037935276 -0.041101713 0.07008111 -0.048326306 0.054263275 -0.06128842
0.07044432 0.050351076 0.042517215 0.043922648 -0.04187051 0.06568012 0.0074667856 -0.0014748381
0.05083908 0.065709576 0.040485784 0.073438555 0.055414435 0.061382893 -0.028560206 -0.030961541
0.069970526 -0.04390113 0.066474564 0.040940035 0.06183108 -0.024250492 0.06446401 0.05907294
0.08597282 0.055229884 -0.062774494 -0.039800398 0.07182665 0.020370701 0.06665416 0.05284693
0.06558783 -0.019462992 -0.002390971 -0.007482843 0.06650974 -0.0071591134 0.037592784 0.011397426
-0.01182745 -0.048444867 0.071479805 0.05911338 -0.040031407 0.054006387 -0.012350519 0.07578057
0.04590758 0.053006187 0.021572512 -0.061265558 0.05423103 0.03959057 0.03899096 0.06435153
0.028925046 0.07069949 0.009500427 0.03791935 0.060130637 0.020419395 0.05703509 0.07242387
0.04399422 0.05636984 -0.061106957 0.007893124 -0.03325096 0.044885863 0.0573268 0.06767341
0.05357488 -4.049258e-05 0.022941904 0.062770255 0.06374113 0.06830042 -0.057564016 0.066786654
-0.02690867 0.07095007 0.010288844 0.0020975051 -0.05597913 -0.006865437 -0.06626952 0.011946695
-0.057328247 0.066001125 0.06199117 0.0031013335 -0.0011816772 0.054377113 0.067045905 0.061658394
0.04855584 0.06475822 -0.019994512 0.054207586 0.08131476 -0.023989895 0.06485537 0.06519196
0.0075590955 0.050774645 0.056282576 -0.003048883 0.040294442 0.06387947 0.031735457 0.025053348
0.0300645 -0.021598106 0.07326346 0.062982015 0.05053664 0.0496084 0.06477687 0.05973795
0.0045946636 0.055684395 -0.03719322 0.0683273 -0.040266257 -0.03393892 0.0033942105 0.05646804
-0.060793247 0.0028865186 0.056719255 0.065294206 0.06128442 0.07155615 0.05908669 -0.032410104
-0.044586122 -0.05612609 0.022113344 0.06797683 -0.036840647 0.012823219 0.042478036 0.06883478
0.061860062 0.057274755 -0.033621278 0.07028131 0.062253293 0.07542173 0.06149302 0.0696067
0.057687722 0.01565641 0.00035852735 0.058529582 0.07515785 0.021050181 -0.0635776 -0.043678675
0.06788642 0.019804936 0.07183577 0.063816965 0.05944729 0.06075753 0.06408043 0.05499386
0.06922438 0.049192272 0.059685856 0.065280646 0.062339958 0.052917298 0.028471913 0.069111966
0.049671583 0.07309978 0.06738643 -0.05064207 0.03097636 0.06726335 -0.07551573 0.061493583
00000000: a157 093d ae60 993d 0974 843d 324f 16bd
00000010: d81e 753d 1804 903d 1722 7e3d 793c f73c
00000020: e4ba 743d cb03 703d b2d0 723d e00f 463d
00000030: 6294 843d ee22 dd3c a0e3 4d3d 006f b13c
00000040: 745c a7bc a7ac 6f3d c8eb 4d3d 277c 86bd
00000050: 1742 933d 84b6 1dbc 2c5d 9a3d 4342 7b3d
00000060: 6554 0dbd 78aa 07bd 6dcd 443d 06a1 993d
00000070: b8d9 73bd 2061 863d dab4 c23c c2e5 9e3d
00000080: 24d4 41bd b505 4a3d 8954 3a3c 7655 7e3d
00000090: 5579 0cbd 7350 743d 7b16 5c3d 4fef 75bd
000000a0: b73d 8a3d d69a 8a3d cc21 643c 1660 2d3c
000000b0: c966 293d 029f 813d b0d0 773d 615c 823d
000000c0: 52ee 533d 8a26 403c c8a3 853d e754 9a3d
000000d0: 1ed8 733d fd21 283d e392 47bd b652 563d
000000e0: 1b12 783d ac2d 143d 7dc8 5f3d c269 47bd
000000f0: 5d1d 03bd ce88 953d 093d 43bd bd5b 8b3d
00000100: bd79 813d 14d6 593d 0562 1bbd 455a 28bd
00000110: af86 8f3d cef1 45bd 2b43 5e3d 9109 7bbd
00000120: 1d45 903d ee3c 4e3d 8826 2e3d 3ce8 333d
00000130: 6980 2bbd 4c83 863d f0ab f43b 5b4f c1ba
00000140: a43c 503d be92 863d 6cd4 253d f466 963d
00000150: 3ffa 623d a16c 7b3d 18f7 e9bc 0fa3 fdbc
00000160: b54c 8f3d acd1 33bd d123 883d bdb0 273d
00000170: 9642 7d3d f8a8 c6bc b505 843d 78f6 713d
00000180: 8512 b03d bb38 623d ea8f 80bd be05 23bd
00000190: da19 933d 75e0 a63c fa81 883d 0676 583d
000001a0: ea52 863d da70 9fbc d6b1 1cbb a332 f5bb
000001b0: 4236 883d ff96 eabb e4fa 193d 45bc 3a3c
000001c0: ecc7 41bc 206e 46bd 0164 923d df20 723d
000001d0: f9f7 23bd cd35 5d3d d559 4abc d832 9b3d
000001e0: 9609 3c3d 041d 593d d6b8 b03c 98f1 7abd
000001f0: 5b21 5e3d b929 223d fcb4 1f3d bcca 833d
00000200: 38f4 ec3c e5ca 903d aea7 1b3c 5251 1b3d
00000210: 8b4b 763d 9346 a73c a09d 693d f752 943d
00000220: 4933 343d 10e4 663d 4a4b 7abd 2952 013c
00000230: 2932 08bd 3dda 373d 82cf 6a3d 5b98 8a3d
00000240: 5571 5b3d 94d6 29b8 a9f0 bb3c b18d 803d
00000250: b68a 823d 17e1 8b3d 3fc8 6bbd 71c7 883d
00000260: 926f dcbc 454e 913d 8a92 283c 4c76 093b
00000270: 5f4a 65bd 76f7 e0bb 50b8 87bd 12bc 433c
00000280: 06d1 6abd 992b 873d 74ea 7d3d be3f 4b3b
00000290: 82e2 9aba 89ba 5e3d 5d4f 893d 838d 7c3d
000002a0: 7de2 463d f59f 843d 88cb a3bc c608 5e3d
000002b0: 5a88 a63d 7586 c4bc e4d2 843d 5d83 853d
000002c0: 4ab2 f73b 13f9 4f3d 8f88 663d c5cf 47bb
000002d0: c90b 253d 3dd3 823d 0afd 013d ae3c cd3c
000002e0: d449 f63c 83ee b0bc 270b 963d b7fc 803d
000002f0: 82ff 4e3d 2d32 4b3d bca9 843d c8af 743d
00000300: d58e 963b 5215 643d eb57 18bd 2fef 8b3d
00000310: 3bee 24bd 8903 0bbd 6771 5e3b 084b 673d
00000320: 5702 79bd bf2b 3d3b 7352 683d f8b8 853d
00000330: 5f05 7b3d 088c 923d e304 723d 75c0 04bd
00000340: f09f 36bd 79e4 65bd 0b27 b53c 7037 8b3d
00000350: 38e6 16bd 7b18 523c 73fd 2d3d 40f9 8c3d
00000360: fa60 7d3d ef98 6a3d 77b6 09bd a6ef 8f3d
00000370: 4ffd 7e3d b576 9a3d 1be0 7b3d f58d 8e3d
00000380: f649 6c3d df41 803c baf8 bb39 b7bc 6f3d
00000390: 5cec 993d 6e71 ac3c f934 82bd 69e8 32bd
000003a0: 0908 8b3d f63d a23c a21e 933d 78b2 823d
000003b0: 007f 733d e3dc 783d 9a3c 833d 3e41 613d
000003c0: 83c5 8d3d d67d 493d 2879 743d dcb1 853d
000003d0: 2f58 7f3d cfbf 583d ee3d e93c 938a 8d3d
000003e0: 6e74 4b3d 56b5 953d e601 8a3d 0f6e 4fbd
000003f0: 23c2 fd3c 5ec1 893d fea7 9abd b2e0 7b3d

network_body._body_endoder.seq_layers.0.weight f4 [256, 6]
-0.15747827 -0.10367712 0.6890543 0.13476536 -0.41433924 -0.1347384 -0.21243988 0.47080153
-0.105833404 0.15467755 0.002653018 -0.0856686 0.2811934 0.09046012 0.07147591 0.0015425939
0.04847421 -0.18255672 0.018529022 0.42961687 -0.22164492 -0.1296192 0.5115465 -0.29896796
-0.6185974 0.031850386 -0.58018404 0.039270677 -0.5768774 0.16688435 -0.2055207 -0.26892444
-0.11351241 0.33471468 -0.79506695 -0.22331336 0.57721305 0.0056789913 0.46814024 -0.07432384
0.22063485 -0.19543341 -0.037171155 0.43772238 0.79118335 -0.12820877 -0.9537873 0.0337995
0.34542817 0.8859283 -0.30451447 0.32105574 -0.14633317 0.90301704 0.5047955 -0.15160249
0.41336623 -0.4960517 -0.22783908 0.12801003 -0.30560568 0.43829504 0.047501322 -0.06394864
-0.54066443 0.069698475 0.53255695 0.32360053 -0.7961521 0.14306642 0.12811556 0.63964033
0.08441068 -0.34522012 -0.256813 -0.42867133 0.072104365 0.028068379 -0.11690918 -0.38039443
0.13740134 -0.035590038 0.24430326 0.6831129 -0.28762925 0.0011323711 0.51864296 -0.23638503
-0.13483433 0.21847795 -0.5190123 0.48763698 -0.484398 0.6137181 0.43080795 0.6542087
0.25749737 -0.5330878 -0.44637918 0.2855419 -0.039377894 -0.1757052 0.02222668 0.52618015
-0.17096055 -0.31927025 -0.58759934 -0.1642781 -0.70850444 -0.80498487 0.115203016 -0.5107667
-0.101809844 0.22095348 0.13201305 0.23183581 -0.12989825 -0.11396311 -0.6527734 0.43306586
-0.04718372 0.045966726 -0.66532177 0.66915226 0.490443 0.20336474 0.08033909 -0.21395609
-0.13234147 0.0023569763 -0.8560115 0.8147208 -0.048168126 0.2506188 0.14556077 -0.33953857
0.5124489 -0.036501534 -0.21718514 -0.11993777 -0.39044508 0.006178264 0.57868886 0.4556378
-0.18381026 0.40226683 -0.15958288 -0.20317821 -0.6830657 0.27539045 0.2229088 0.46106172
0.6595872 0.47514942 0.7703952 0.14904696 -0.29571953 0.7438831 -0.38644165 0.12630792
-0.119708136 -0.0862468 -0.038211744 0.5583861 0.46465734 -0.5518561 -0.09664086 0.18643066
-0.21906227 0.07058295 -0.06549841 0.17798649 0.44836876 0.3958886 -1.2220788 0.1992246
0.021506239 0.5798443 -0.24948664 -0.20576957 0.27042666 0.93516326 -0.18130161 0.11214131
0.32105058 0.44850767 0.17485857 0.67036897 -0.52903104 0.3981419 0.008081073 -0.3191078
-0.1681079 -0.004070358 -0.021896012 0.66323996 -0.26184332 0.22295125 -0.8914892 -0.82269585
-0.37088904 -0.31232044 0.30725494 -0.10459974 0.33651683 0.6609264 -0.22642802 -0.3952509
0.2539657 -0.31789812 0.71420956 -0.54401785 -0.34269235 -0.74494743 0.45012963 -0.32859057
-0.039878722 -0.030480118 -0.26489216 0.25133917 -0.4856934 0.4709728 0.33231887 -0.224277
0.28130147 0.040104233 0.13865034 0.39508593 0.027932376 -0.16068776 0.17990458 0.41477895
0.7985008 -0.7825564 0.24723966 -0.2792356 0.08915654 -0.43958512 -0.7652146 0.5249932
-0.07849426 0.15528254 0.29149827 -0.45595142 0.01319327 0.16611785 -0.64128524 0.029202715
-0.4468702 0.032155845 -0.16922858 0.5255616 0.11325814 -0.08669961 -0.8916995 -0.1358901
00000000: fc41 21be ab54 d4bd dd65 303f eeff 093e
00000010: 4624 d4be ddf8 09be d789 59be e60c f13e
00000020: 2fbf d8bd cb63 1e3e 42de 2d3b 0573 afbd
00000030: 95f8 8f3e 2843 b93d f661 923d dd30 ca3a
00000040: e58c 463d 26f0 3abe 2dca 973c bef6 db3e
00000050: e3f6 62be e5ba 04be b6f4 023f 5412 99be
00000060: 665c 1ebf 8d75 023d f186 14bf 4ada 203d
00000070: 3dae 13bf bbe3 2a3e 0574 52be 77b0 89be
00000080: 3279 e8bd b95f ab3e 8289 4bbf 42ac 64be
00000090: 3cc4 133f d516 ba3b 14b0 ef3e 1937 98bd
000000a0: 1aee 613e b21f 48be c840 18bd 261d e03e
000000b0: fe8a 4a3f 2949 03be 682b 74bf 5871 0a3d
000000c0: f6db b03e 32cc 623f 52e9 9bbe 6b61 a43e
000000d0: 5dd8 15be 202c 673f 473a 013f af3d 1bbe
000000e0: bda4 d33e 7dfa fdbe a64e 69be 1015 033e
000000f0: 5978 9cbe 3568 e03e bf90 423d 81f7 82bd
00000100: fc68 0abf 13be 8e3d a755 083f f8ae a53e
00000110: a0d0 4bbf 0180 123e ba30 033e 78bf 233f
00000120: 82df ac3d b1c0 b0be fe7c 83be cf7a dbbe
00000130: 74ab 933d a8ef e53c 156e efbd 0fc3 c2be
00000140: f0b2 0c3e dcc6 11bd a22a 7a3e 7de0 2e3f
00000150: 2444 93be 126c 943a c9c5 043f eb0e 72be
00000160: 0312 0abe afb8 5f3e fddd 04bf 8eab f93e
00000170: 0403 f8be a11c 1d3f dc92 dc3e 397a 273f
00000180: b2d6 833e 7178 08bf d08b e4be 8c32 923e
00000190: b74a 21bd 10ec 33be ba14 b63c beb3 063f
000001a0: 4810 2fbe 6477 a3be e96c 16bf 8538 28be
000001b0: 8c60 35bf 7d13 4ebf 8fef eb3d 9bc1 02bf
000001c0: ae81 d0bd a141 623e 6e2e 073e 5e66 6d3e
000001d0: 0c04 05be 7e65 e9bd 281c 27bf cfba dd3e
000001e0: b743 41bd 9b47 3c3d 8752 2abf 904d 2b3f
000001f0: 581b fb3e d93e 503e d288 a43d 4e17 5bbe
00000200: 8684 07be 8077 1a3b 9223 5bbf 8b91 503f
00000210: f14b 45bd 1b51 803e e20d 153e 00d8 adbe
00000220: da2f 033f a282 15bd c865 5ebe efa1 f5bd
00000230: 6be8 c7be 0973 ca3b f424 143f 5c49 e93e
00000240: c238 3cbe ebf5 cd3e b269 23be f30d 50be
00000250: 65dd 2ebf faff 8c3e 3442 643e 4810 ec3e
00000260: b5da 283f c946 f33e 9f38 453f c49f 183e
00000270: 8d68 97be 1f6f 3e3f aedb c5be dd56 013e
00000280: 8a29 f5bd 2aa2 b0bd eb83 1cbd 64f2 0e3f
00000290: 91e7 ed3e 7146 0dbf a5eb c5bd aee7 3e3e
000002a0: dc51 60be cb8d 903d 0824 86bd 1742 363e
000002b0: 9790 e53e e9b1 ca3e 146d 9cbf 8901 4c3e
000002c0: da2d b03c ad70 143f 6d79 7fbe 42b5 52be
000002d0: 5d75 8a3e dc66 6f3f 21a7 39be 58aa e53d
000002e0: be60 a43e cca2 e53e 200e 333e 4d9d 2b3f
000002f0: 946e 07bf 41d9 cb3e 7a66 043c 1962 a3be
00000300: 7a24 2cbe a360 85bb 445f b3bc 18ca 293f
00000310: 5410 86be 554d 643e a338 64bf 329c 52bf
00000320: 2be5 bdbe 77e8 9fbe 8550 9d3e 6338 d6bd
00000330: ef4b ac3e 7932 293f bfdc 67be 535e cabe
00000340: cb07 823e 8bc3 a2be 70d6 363f c144 0bbf
00000350: 5f75 afbe e0b4 3ebf 6477 e63e 063d a8be
00000360: df57 23bd 71b1 f9bc f29f 87be 87af 803e
00000370: ceac f8be 5923 f13e b325 aa3e dfa8 65be
00000380: bf06 903e 5644 243d 5bfa 0d3e b448 ca3e
00000390: 70d2 e43c 558b 24be e838 383e e85d d43e
000003a0: 8c6a 4c3f 9e55 48bf 652c 7d3e f8f7 8ebe
000003b0: b497 b63d 4d11 e1be 1be5 43bf f465 063f
000003c0: 99c1 a0bd 6302 1f3e 433f 953e 7772 e9be
000003d0: 9628 583c cc1a 2a3e 452b 24bf 883a ef3c
000003e0: 2ccc e4be d9b5 033d 424a 2dbe 348b 063f
000003f0: e2f3 e73d 918f b1bd 6b46 64bf c626 0bbe

network_body._body_endoder.seq_layers.2.bias f4 [256]
0.0446265 0.057213556 0.058615454 0.031640124 -0.037850287 0.04707584 0.038202 -0.02071383
0.028666615 0.050096348 0.049754657 0.061544538 -0.019732382 -0.064919606 -0.018693665 0.053940546
0.0077256747 0.05120637 0.039048065 0.010222082 -0.052527398 0.060187474 0.054820243 0.046625573
0.039634023 0.042583227 -0.0014683198 -0.04688839 0.043912955 -0.049501304 -0.043887656 0.049306635
0.05361207 -0.049044937 0.045601133 0.07459997 0.051579162 -0.011798775 0.06716712 -0.02653865
0.039351866 -0.04473769 -0.04924239 0.010518314 -0.031389732 -0.024570838 0.050517194 0.04585696
0.060294013 0.05353157 0.064962015 0.059974365 0.05813519 0.03148988 0.028429667 -0.044301376
-0.026558822 -0.040058523 -0.066034295 0.047989227 0.05268717 0.044595163 -0.02720974 -0.035415575
-0.061383013 0.034078415 0.059411597 -0.034187943 -0.051430967 0.027520757 -0.0555883 -0.06387035
0.055504017 0.036579728 0.013901082 0.052490465 0.03954139 0.043446016 -0.03722531 -0.0071087894
-0.07183993 -0.06835596 0.03751142 0.047003355 -0.034322944 0.053705387 0.055169433 -0.044278815
0.046144545 0.06563191 -0.0025711018 -0.05438756 -0.030381078 0.05552275 -0.06973799 0.062726505
-0.06957074 0.055223685 0.058168046 -0.05992142 -0.059440695 0.056731615 -0.0334414 0.012941309
-0.03562203 -0.014992111 -0.051857784 -0.064480774 0.048372105 -0.05646198 0.049141277 -0.009694848
0.044271313 0.038231116 0.037529517 -0.028068863 0.01822466 -0.06299833 -0.055536486 -0.029878572
0.0526848 -0.063009314 -0.058566574 0.03323772 0.024150621 0.044552106 -0.07043855 -0.06601972
0.023254083 0.049732573 -0.005062888 -0.012159997 0.058404956 -0.03616078 -0.07328665 0.027078975
-0.053088523 -0.019073805 -0.045345504 -0.04081394 -0.038170025 -0.052402183 -0.031845592 -0.032324776
0.0505832 0.051846825 -0.070541985 0.016574014 0.041597273 -0.046928152 -0.046257198 0.03804569
0.04957038 -0.046825033 -0.06778556 0.035939053 0.0429251 0.0393662 0.047127966 0.01931016
0.027295949 0.0326868 -0.054829262 -0.06492717 -0.056249343 0.019409172 -0.015998203 0.040824175
-0.045471184 0.043005716 0.06587048 0.039904557 -0.046674293 0.023997996 0.05328506 0.049599797
0.06468102 -0.06280997 -0.018376486 0.040235993 -0.01821839 0.049823128 0.044636548 0.039515395
0.050373126 0.015326855 -0.05406392 -0.003529886 -0.06735472 0.05489193 0.046494976 -0.03352821
-0.020700024 0.047496326 0.055566195 -0.052649517 0.033042885 0.051553816 -0.065571226 -0.058142148
0.009634882 0.069060266 -0.0613623 -0.0055204816 -0.011861008 0.02057549 -0.069116995 0.046276983
-0.049053144 0.062473662 -0.034846094 -0.06921637 -0.060135942 0.05730242 0.053886186 0.037357453
0.046140753 -0.065476745 0.02278867 0.054070745 -0.003051557 0.057884354 0.056070767 0.055991333
0.05713897 -0.07170096 0.048340563 0.036128838 0.060367387 -0.068769954 -0.029951751 0.05925476
-0.0013732258 -0.07244265 -0.06771651 -0.06403927 0.030947676 -0.03536528 0.00016014639 -0.05907051
0.043377757 0.040118236 -0.06806298 0.0023141517 -0.073199466 -0.006925839 -0.049297858 0.030424055
0.047677618 -0.06447566 0.049752604 0.057714842 0.04153165 0.047961116 0.047030028 -0.055441514
00000000: 47ca 363d c358 6a3d c216 703d 1399 013d
00000010: e708 1bbd 99d2 403d b379 1c3d 0db0 a9bc
00000020: 40d6 ea3c d431 4d3d 8acb 4b3d 2016 7c3d
00000030: cea5 a1bc 92f4 84bd 7523 99bc c3f0 5c3d
00000040: a827 fd3b c5bd 513d ddf0 1f3d 857a 273c
00000050: f826 57bd 2487 763d 318b 603d 75fa 3e3d
00000060: 4957 223d c06b 2e3d a374 c0ba 0a0e 40bd
00000070: 12de 333d e1c1 4abd 8bc3 33bd c1f5 493d
00000080: 5498 5b3d 58e3 48bd 41c8 3a3d dec7 983d
00000090: ac44 533d a64f 41bc ea8e 893d 9567 d9bc
000000a0: 6c2f 213d de3e 37bd 63b2 49bd 0255 2c3c
000000b0: 8592 00bd c848 c9bc 1eeb 4e3d 82d4 3b3d
000000c0: dbf6 763d eb43 5b3d ce0a 853d aea7 753d
000000d0: 2a1f 6e3d 88fb 003d 55e5 e83c 5c75 35bd
000000e0: e391 d9bc 6814 24bd fd3c 87bd 5a90 443d
000000f0: 81ce 573d 6ba9 363d f6e6 debc ec0f 11bd
00000100: c16c 7bbd cf95 0b3d 9359 733d a808 0cbd
00000110: 47a9 52bd 3673 e13c 8fb0 63bd 75ce 82bd
00000120: 2e58 633d a0d4 153d 5dc1 633c 3e00 573d
00000130: 27f6 213d 73f4 313d 9179 18bd d9f0 e8bb
00000140: d020 93bd 36fe 8bbd 93a5 193d 9786 403d
00000150: 3796 0cbd 2efa 5b3d 58f9 613d b45d 35bd
00000160: 1002 3d3d 066a 863d ee7f 28bb 7dc5 5ebd
00000170: bde1 f8bc d36b 633d cbd2 8ebd c176 803d
00000180: 1b7b 8ebd 3b32 623d 9e41 6e3d 2a70 75bd
00000190: 1678 73bd 695f 683d d9f9 08bd c907 543c
000001a0: 68e8 11bd 79a1 75bc d468 54bd 7f0e 84bd
000001b0: d421 463d ad44 67bd 5d48 493d 24d7 1ebc
000001c0: d655 353d 3b98 1c3d 8db8 193d acf0 e5bc
000001d0: e24b 953c 4505 81bd 3a7a 63bd e8c3 f4bc
000001e0: 04cc 573d 070b 81bd 81e3 6fbd 4724 083d
000001f0: 86d7 c53c 457c 363d 1642 90bd 5935 87bd
00000200: 597f be3c 62b4 4b3d 95e6 a5bb b93a 47bc
00000210: 093a 6f3d 531d 14bd 5017 96bd bad4 dd3c
00000220: 5a73 59bd ab40 9cbc 35bc 39bd 852c 27bd
00000230: 2c58 1cbd aca3 56bd 8670 02bd fc66 04bd
00000240: 5430 4f3d 565d 543d 5178 90bd 3ac6 873c
00000250: e761 2a3d bc37 40bd 3078 3dbd ccd5 1b3d
00000260: 500a 4b3d 9bcb 3fbd 28d3 8abd d434 133d
00000270: 3bd2 2f3d 743e 213d 4109 413d 5730 9e3c
00000280: c19b df3c 98e2 053d a694 60bd 89f8 84bd
00000290: b665 66bd fcff 9e3c aa0e 83bc 4037 273d
000002a0: fe3f 3abd c326 303d 1ae7 863d f672 233d
000002b0: 8b2d 3fbd 7297 c43c 6f41 5a3d 2829 4b3d
000002c0: 7c77 843d 83a2 80bd 498a 96bc 7fce 243d
000002d0: bc3e 95bc 5613 4c3d d0d4 363d e5da 213d
000002e0: 0d54 4e3d 7d1d 7b3c 2172 5dbd a955 67bb
000002f0: 45f1 89bd 5cd6 603d 8471 3e3d e054 09bd
00000300: 1993 a9bc 828b 423d 6199 633d 05a7 57bd
00000310: fa57 073d 182a 533d 354a 86bd 7626 6ebd
00000320: a0db 1d3c 786f 8d3d 0957 7bbd 28e5 b4bb
00000330: ac54 42bc ee8d a83c 368d 8dbd ef8c 3d3d
00000340: f3eb 48bd 62e4 7f3d c7ba 0ebd 50c1 8dbd
00000350: 1b51 76bd f1b5 6a3d c3b7 5c3d 2104 193d
00000360: 16fe 3c3d ac18 86bd 4eaf ba3c 4979 5d3d
00000370: a2fc 47bb 2518 6d3d 76aa 653d 2b57 653d
00000380: 8d0a 6a3d f4d7 92bd c100 463d d5fb 133d
00000390: cb43 773d 43d7 8cbd 605d f5bc 1fb5 723d
000003a0: d0fd b3ba d05c 94bd f4ae 8abd 0527 83bd
000003b0: fb85 fd3c 2fdb 10bd f8ec 2739 ebf3 71bd
000003c0: e0ac 313d 0553 243d 9b64 8bbd 06a9 173b
000003d0: 9ae9 95bd 26f2 e2bb 8dec 49bd de3b f93c
000003e0: 9b49 433d d10b 84bd 63c9 4b3d 6666 6c3d
000003f0: 171d 2a3d e072 443d 8fa2 403d a416 63bd

network_body._body_endoder.seq_layers.2.weight f4 [256, 256]
-0.035591036 -0.05225293 -0.043367047 -0.022347985 -0.002868686 -0.022944793 0.09434017 -0.09836851
0.0054673296 -0.03421607 -0.017620519 0.02228721 0.0743183 -0.11446054 -0.02483198 0.040176198
-0.013897963 -0.034052193 -0.0069631827 0.0005338121 -0.016948566 0.1268621 -0.010299695 0.01910283
-0.123350024 -0.019054858 -0.017979443 0.07002421 0.02477826 0.073629975 -0.062957756 0.013386927
-0.076470934 0.06135073 -0.012022198 0.11365083 -0.12695338 0.041983973 -0.064721346 0.038660415
-0.0005027781 0.019885525 -0.00060506904 0.048515964 -0.012614614 -0.068443164 -0.026053058 0.1467776
0.060081024 -0.16480988 -0.062320936 0.009817898 0.09234067 0.049550537 0.034819655 -0.07205387
-0.04888351 0.026400862 0.048794154 -0.05978536 -0.056356244 0.027055105 0.04489342 -0.038223546
0.083490275 0.022104178 -0.021808162 0.077725835 0.03246201 -0.04690065 -0.089859284 0.007102311
0.032199286 0.058301527 -0.00071890693 -0.018520964 -0.005298281 -0.005016039 0.061584067 0.03761479
0.054324336 -0.012920635 -0.012763738 -0.10861545 0.043981683 0.037292283 -0.08737774 0.032993242
-0.013820399 -0.060905475 0.065374054 0.0722517 0.10196866 0.0792821 0.08078524 -0.031810127
0.096011 -0.062750265 0.023646683 -0.07093164 -0.09791675 0.006670211 -0.084083036 -0.06797177
-0.05111106 -0.12716942 -0.029948851 -0.04801428 0.025173053 -0.027321799 -0.036833573 0.03901523
-0.10475452 -0.022517184 0.15788269 -0.015633684 0.0068907007 -0.032863934 0.061571494 0.045441587
0.009216658 -0.08272068 0.08405278 0.0062804352 -0.047404762 -0.016403241 0.12542744 -0.06383428
-0.03313799 -0.018406903 -0.013083226 0.07301874 0.016766444 -0.05738126 0.122987024 0.08263459
0.010340103 0.06546927 -0.032974854 -0.0033279976 -0.015385533 0.0729691 -0.14623478 -0.010549496
-0.07406731 0.116604134 0.03887047 0.11222342 0.09886485 -0.015574468 0.011485526 -0.013239487
-0.06985737 -0.01667032 -0.08555809 -0.07320876 -0.022826571 -0.0013890688 -0.030728377 0.053431243
-0.05701845 -0.008093936 -0.13594621 -0.01191606 -0.014128283 0.040442854 0.08816322 -0.065486796
0.082638524 0.07913879 -0.030965587 -0.0074220095 0.0010017875 -0.03549927 0.0020257195 0.06177606
0.015337772 0.13228935 0.018145058 0.038834717 0.06935559 -0.08708875 0.09941647 -0.03857696
-0.0843046 -0.064452365 0.0118330205 -0.011588305 0.08476148 0.055938862 -0.0073661623 0.010632366
-0.032735135 -0.066991456 -0.039077554 0.11875403 0.08335196 0.08474435 -0.002874799 -0.0178064
-0.009612298 -0.00611831 -0.08739841 -0.0002718604 0.020761507 -0.036160074 0.10231305 -0.014639421
0.022493104 0.047457244 -0.033526935 0.06349458 0.023575692 -0.066878065 0.0010705268 -0.07650084
-0.028763393 -0.08719437 0.0914935 -0.01492055 0.05874092 0.033144012 -0.06994814 0.018998127
0.013046436 -0.104345 -0.15469134 0.061542246 -0.054964755 0.03107416 -0.16473839 -0.03968235
0.059239697 -0.03008257 0.031243136 0.13030574 0.0275193 -0.012082785 0.008629506 -0.05442344
0.09465963 -0.0009168827 0.06322329 0.103380986 0.04253644 -0.061181735 -0.015269796 -0.036595505
0.023380946 0.028937034 -0.053025946 0.033185396 -0.021657668 0.120703034 0.041634776 0.049330194
00000000: e8c7 11bd 2b07 56bd a5a1 31bd 1f13 b7bc
00000010: 9100 3cbb b8f6 bbbc 6b35 c13d 6e75 c9bd
00000020: 4927 b33b 2626 0cbd e858 90bc ab93 b63c
00000030: 3134 983d 4a6a eabd 706c cbbc cc8f 243d
00000040: 48b4 63bc 507a 0bbd 692b e4bb 86ef 0b3a
00000050: b8d7 8abc 23e8 013e 0dc0 28bc 8a7d 9c3c
00000060: f09e fcbd ef18 9cbc a049 93bc da68 8f3d
00000070: c7fb ca3c 50cb 963d ffef 80bd d754 5b3c
00000080: cb9c 9cbd e74a 7b3d c1f8 44bc c4c1 e83d
00000090: 1100 02be 63f7 2b3d a08c 84bd 625a 1e3d
000000a0: decc 03ba f8e6 a23c 7f9d 1eba adb8 463d
000000b0: 87ad 4ebc ee2b 8cbd 396d d5bc de4c 163e
000000c0: 8517 763d ecc3 28be 3d44 7fbd 40db 203c
000000d0: 1b1d bd3d 81f5 4a3d 0e9f 0e3d fb90 93bd
000000e0: 133a 48bd 9f46 d83c 61dc 473d 7ee1 74bd
000000f0: ced5 66bd aba2 dd3c 2ae2 373d 4b90 1cbd
00000100: f3fc aa3d d213 b53c 08a7 b2bc b92e 9f3d
00000110: e2f6 043d e51a 40bd 2508 b8bd 81ba e83b
00000120: 66e3 033d 95cd 6e3d 0775 3cba 47b9 97bc
00000130: 349d adbb 965d a4bb 933f 7c3d f711 1a3d
00000140: 3283 5e3d 12b1 53bc ff1e 51bc c771 debd
00000150: 2326 343d cbbf 183d 1af3 b2bd ec23 073d
00000160: f46e 62bc 0578 79bd d5e2 853d b3f8 933d
00000170: f2d4 d03d a75e a23d bb72 a53d 564b 02bd
00000180: 6aa1 c43d 3683 80bd b0b6 c13c 9c44 91bd
00000190: 9488 c8bd c991 da3b ba33 acbd c934 8bbd
000001a0: d559 51bd b338 02be 4b57 f5bc 9faa 44bd
000001b0: b837 ce3c f7d1 dfbc cdde 16bd 6fce 1f3d
000001c0: 8a89 d6bd f575 b8bc 00ac 213e 3612 80bc
000001d0: 63cb e13b 559c 06bd 6432 7c3d f520 3a3d
000001e0: 7701 173c 7669 a9bd dd23 ac3d 1ccc cd3b
000001f0: 7f2b 42bd 1760 86bc 0d70 003e 8cbb 82bd
00000200: b3bb 07bd 13ca 96bc 075b 56bc d98a 953d
00000210: c859 893c 9d08 6bbd 9fe0 fb3d 533c a93d
00000220: 8969 293c c114 863d a410 07bd 891a 5abb
00000230: 9a13 7cbc d370 953d 92be 15be cbd7 2cbc
00000240: 9ab0 97bd 26ce ee3d a436 1f3d 64d5 e53d
00000250: a879 ca3d 0e2c 7fbc ca2d 3c3c 6fea 58bc
00000260: 6111 8fbd 3290 88bc 1439 afbd 79ee 95bd
00000270: cafe babc 6a11 b6ba 14ba fbbc b8da 5a3d
00000280: 2e8c 69bd 6e9c 04bc 7c35 0bbe 943b 43bc
00000290: 507a 67bc 68a7 253d eb8e b43d f11d 86bd
000002a0: 633e a93d 8513 a23d 8bab fdbc 5434 f3bb
000002b0: 694e 833a af67 11bd efc1 043b e508 7d3d
000002c0: 474b 7b3c dc76 073e f2a4 943c 2711 1f3d
000002d0: 4e0a 8e3d 965b b2bd dd9a cb3d e002 1ebd
000002e0: e4a7 acbd 9aff 83bd 49df 413c e0dc 3dbc
000002f0: 6d97 ad3d 2620 653d d95f f1bb 6033 2e3c
00000300: 4715 06bd d132 89bd c90f 20bd 5035 f33d
00000310: 6fb4 aa3d 728e ad3d 2067 3cbb bade 91bc
00000320: e67c 1dbc 1b7c c8bb f0fd b2bd 7c88 8eb9
00000330: 0914 aa3c 961c 14bd 8189 d13d 2fda 6fbc
00000340: 7543 b83c 8762 423d 8a53 09bd 7209 823d
00000350: cf21 c13c 5ef7 88bd eb50 8c3a 79ac 9cbd
00000360: 35a1 ebbc f692 b2bd f260 bb3d 5375 74bc
00000370: 529a 703d 04c2 073d f840 8fbd f6a1 9b3c
00000380: b8c0 553c d5b2 d5bd 6867 1ebe b913 7c3d
00000390: b922 61bd 3d8f fe3c 2eb1 28be f689 22bd
000003a0: 53a5 723d b96f f6bc 9bf1 ff3c de6e 053e
000003b0: 2870 e13c e0f6 45bc c662 0d3c 1deb 5ebd
000003c0: e8dc c13d f55a 70ba 367b 813d 69b9 d33d
000003d0: b13a 2e3d b399 7abd 2b2e 7abc 2be5 15bd
000003e0: 6689 bf3c 5c0d ed3c bc31 59bd 69ed 073d
000003f0: 6c6b b1bc 2733 f73d 3a89 2a3d 750e 4a3d

network_body._body_endoder.seq_layers.4.bias f4 [256]
-0.04331604 0.05158869 0.06514663 -0.018283263 0.05467186 -0.0075767953 0.010503868 0.041918688
0.0064241206 -0.03496189 0.050250463 -0.056647304 -0.02901915 0.012181801 0.040124763 0.04616079
0.045610476 0.03747742 -0.065244414 -0.06183105 -0.05044678 -0.030050451 -0.03724588 -0.013945502
-0.02466463 0.007759379 -0.054083996 0.058714565 0.021826487 0.02777436 0.023473214 0.03995672
-0.008732468 -0.03844037 0.055822607 -0.051915165 0.015165494 0.0073022353 -0.0621198 0.03383456
-0.033168074 0.014690589 -0.0070377314 -0.054931127 0.05482562 -0.040804066 0.034117445 -0.010527629
-0.050860215 -0.042476226 0.0110953 0.04852019 0.018737277 -0.0100114625 0.05599754 0.037669513
0.036237407 0.052371897 0.039293885 0.049899846 0.058728684 0.012229212 0.02154368 0.057243332
0.035386164 0.026603725 0.059323877 0.045193676 0.044515975 -0.04184818 0.028530408 0.03830988
0.029753502 0.04910893 -0.04550583 0.01006259 0.042892158 -0.027984958 0.021081192 0.05659701
-0.034900706 0.027848274 -0.03250445 0.04566262 -0.039996583 0.044470415 -0.0113977995 0.05800761
0.030537607 -0.067008846 -0.04466623 -0.05582393 0.04293521 -0.05399367 0.052202206 0.031285692
0.047651667 0.041465256 -0.05941573 0.04608148 -0.046869393 0.051445395 0.043359127 0.04527026
0.045534927 0.034670915 0.021452315 -0.03794144 -0.021650305 0.048253007 -0.0012908074 0.05137042
-0.035344854 -0.059411187 -0.03533163 0.06018709 -0.041060206 -0.03337878 0.050131124 0.04874113
0.03192921 0.049395945 0.04340184 0.052477382 -0.039296508 -0.056424867 0.053346828 0.043967616
0.037247084 -0.038703367 0.049861737 0.04450334 0.01408979 0.050078146 -0.021727184 -0.048462782
0.0093523245 -0.054911785 -0.00474645 0.027230458 -0.04348964 0.052668333 -0.044226248 -0.02348827
-0.00736061 0.043507267 -0.0350093 -0.009080321 -0.038033795 -0.024438864 0.028015468 0.045590516
-0.044852696 -0.058959357 0.023104258 0.04890697 -0.036601283 0.043868903 -0.031716112 -0.038605567
0.04763758 0.035568766 0.060453754 0.051506598 -0.05635219 -0.045897055 0.016185198 0.05876092
0.050812118 0.049218245 -0.015022134 -0.049799234 -0.05588301 0.045398787 0.034599654 0.0058771763
-0.007111294 0.05234253 0.010418164 0.047612898 0.010600429 0.040381756 0.035203923 0.044336118
-0.057884995 0.048844606 -0.03929765 -0.03878493 0.0118874 0.031128228 0.053587247 -0.034440394
-0.053645514 0.014424933 0.04223907 -0.024308546 0.05202171 0.050888233 -0.04270888 0.048109412
0.023963703 -0.056456815 -0.024155928 -0.032726143 0.04713844 -0.003449887 -0.038764574 -0.010163462
0.019045124 -0.01567551 -0.0029275492 0.040136013 0.039831333 0.040985383 0.030581055 0.04422658
-0.0008285069 0.03657344 -0.040717393 0.047076236 -0.064306855 0.03912567 0.0086343745 0.055945136
0.05147406 -0.027154155 0.04598294 0.03627484 -0.04973638 -0.025881216 0.006430233 0.0069221472
-0.018285964 -0.038453758 -0.042781085 0.05077228 -0.0026318193 0.048638295 -0.020920364 0.04783159
0.042291015 0.03777994 -0.043197174 -0.012324706 0.048792776 -0.053641215 0.024642302 0.013542909
-0.038349148 0.035551444 -0.05001853 0.038662057 -0.04266556 0.049840625 -0.03667276 -0.047695138
00000000: 296c 31bd aa4e 533d 996b 853d c8c6 95bc
00000010: 9aef 5f3d c446 f8bb 6a18 2c3c eeb2 2b3d
00000020: 6e81 d23b 3334 0fbd 6ed3 4d3d 0107 68bd
00000030: 92b9 edbc 2d96 473c dd59 243d 1913 3d3d
00000040: 0dd2 3a3d ec81 193d dd9e 85bd 8e42 7dbd
00000050: 48a1 4ebd 5d2c f6bc 238f 18bd ad7b 64bc
00000060: 7a0d cabc 6442 fe3b 2e87 5dbd af7e 703d
00000070: 76cd b23c 0e87 e33c e64a c03c a8a9 233d
00000080: a012 0fbc a673 1dbd 3fa6 643d ffa4 54bd
00000090: b178 783c 9747 ef3b 5571 7ebd 1c96 0a3d
000000a0: 3fdb 07bd ccb0 703c c59c e6bb 76ff 60bd
000000b0: d490 603d 2a22 27bd bcbe 0b3d 147c 2cbc
000000c0: cd52 50bd 8dfb 2dbd 10c9 353c 1bbd 463d
000000d0: eb7e 993c 1e07 24bc ad5d 653d 594b 1a3d
000000e0: ad6d 143d ea83 563d a0f2 203d c863 4c3d
000000f0: 7d8d 703d 085d 483c 5f7c b03c fc77 6a3d
00000100: 15f1 103d 0ef0 d93c 98fd 723d 011d 393d
00000110: 6256 363d ff68 2bbd 9ab8 e93c d2ea 1c3d
00000120: 9ebd f33c 7226 493d 5264 3abd 90dd 243c
00000130: b0af 2f3d b640 e5bc 77b2 ac3c 44d2 673d
00000140: 0bf4 0ebd 1022 e43c 6323 05bd ba08 3b3d
00000150: 75d3 23bd 9c26 363d d6bd 3abc 6399 6d3d
00000160: 012a fa3c ef3b 89bd f0f3 36bd a2a7 64bd
00000170: d5dc 2f3d 7728 5dbd fbd1 553d 6d25 003d
00000180: 652e 433d 79d7 293d e95d 73bd efbf 3c3d
00000190: 1ffa 3fbd 68b8 523d 5799 313d 4f6d 393d
000001a0: d582 3a3d 1703 0e3d c4bc af3c 7c68 1bbd
000001b0: fb5b b1bc f2a4 453d 4f30 a9ba ca69 523d
000001c0: c4c5 10bd 2559 73bd e6b7 10bd bd86 763d
000001d0: bf2e 28bd 30b8 08bd 4b56 4d3d c7a4 473d
000001e0: 34c8 023d 6753 4a3d 21c6 313d 86f2 563d
000001f0: 60f5 20bd c31d 67bd 3482 5a3d 6317 343d
00000200: 6690 183d 6c87 1ebd d23b 4c3d 2249 363d
00000210: ddd8 663c be1e 4d3d 35fd b1bc e980 46bd
00000220: 7e3a 193c 2eeb 60bd 1c88 9bbb 6912 df3c
00000230: 3122 32bd c0ba 573d 9526 35bd 796a c0bc
00000240: 4631 f1bb ad34 323d e965 0fbd a0c5 14bc
00000250: 53c9 1bbd 0334 c8bc b280 e53c 1fbd 3a3d
00000260: 76b7 37bd 5e7f 71bd 2445 bd3c ad52 483d
00000270: 3aeb 15bd e1af 333d c1e8 01bd df20 1ebd
00000280: a01f 433d 8eb0 113d 5b9e 773d 95f8 523d
00000290: 8ed1 66bd 8dfe 3bbd d296 843c 4aaf 703d
000002a0: 5e20 503d 1299 493d 661f 76bc 48fa 4bbd
000002b0: 95e5 64bd 14f4 393d 5eb8 0d3d 5495 c03b
000002c0: dc05 e9bb 1f65 563d f2b0 2a3c be05 433d
000002d0: 6cad 2d3c 5767 253d fd31 103d ca99 353d
000002e0: d118 6dbd 4811 483d 93f6 20bd f2dc 1ebd
000002f0: 5fc3 423c a000 ff3c 4d7e 5b3d 5f11 0dbd
00000300: 66bb 5bbd 8e56 6c3c e002 2d3d b722 c7bc
00000310: b714 553d 2e70 503d 82ef 2ebd 600e 453d
00000320: 874f c43c 433f 67bd a7e2 c5bc d90b 06bd
00000330: 3d14 413d 8017 62bb 9ac7 1ebd a684 26bc
00000340: 8504 9c3c ed69 80bc 20dc 3fbb a965 243d
00000350: 2e26 233d 4ae0 273d 1f85 fa3c ee26 353d
00000360: 2830 59ba 08ce 153d 48c7 26bd 03d3 403d
00000370: 50b3 83bd 3d42 203d 3177 0d3c ba26 653d
00000380: 77d6 523d 6472 debc 9b58 3c3d ed94 143d
00000390: 60b8 4bbd d804 d4bc b4b4 d23b 2ed3 e23b
000003a0: 72cc 95bc b081 1dbd 383b 2fbd 98f6 4f3d
000003b0: 9a7a 2cbb f338 473d 2f61 abbc 0feb 433d
000003c0: 5839 2d3d 23bf 1a3d 85ef 30bd 90ed 49bc
000003d0: efda 473d e4b6 5bbd a7de c93c 14e3 5d3c
000003e0: ff13 1dbd 649e 113d 3be0 4cbd 1b5c 1e3d
000003f0: 15c2 2ebd af25 4c3d 2d36 16bd fa5b 43bd

network_body._body_endoder.seq_layers.4.weight f4 [256, 256]
-0.06813016 0.06871143 -0.007190382 0.0123336315 0.025213929 0.14398374 0.053270772 -0.002937701
0.07646692 -0.07446005 -0.03867442 -0.065810524 -0.02572022 0.07812636 0.017501982 0.002319821
0.09750883 -0.08008548 -0.09577732 0.010322115 -0.029047305 -0.035777356 0.07058538 0.030896181
-0.032753162 -7.174525e-05 0.104885414 0.07884939 -0.04069327 0.1099879 -0.018358178 0.08692505
-0.013709011 0.09866395 0.010037364 -0.113301285 -0.032575693 0.04451049 -0.029388493 0.080195755
-0.039847564 -0.047591664 0.011911404 -0.12093268 0.006924864 -0.09261028 -0.07328096 0.03707318
0.0046233153 0.008462177 0.058435827 -0.08840394 -0.030754315 0.003244145 -0.0687352 0.001647444
0.10024458 0.205433 -0.10153142 0.044938758 0.023335807 0.009114636 -0.040203933 0.082062155
0.08625628 0.0228148 0.020340536 -0.0037226137 0.00843139 -0.042264827 0.100537345 0.021931794
0.00069411047 0.13229583 -0.061917648 -0.059072144 -0.020075124 0.045750365 -0.044218067 0.04411363
0.008406051 -0.053465635 0.037885588 0.020683369 0.07300617 -0.063735425 -0.13742033 0.0198348
0.07046394 -0.046213266 -0.002558674 -0.045729592 -0.024664532 0.008296714 0.13341236 0.0028199777
-0.04946731 -0.041556034 0.029706355 0.007977087 0.023566982 0.014498712 -0.03810643 0.13162836
0.13757093 0.0829197 -0.027536925 0.05221524 0.05644933 0.02710517 -0.05644323 0.023369923
-0.084026925 0.019184833 -0.09239906 0.094478175 -0.03674826 0.064694665 0.08664042 0.025945174
0.039122 -0.11368313 0.09145836 -0.0015388564 -0.020679392 0.11338558 0.048088994 0.036487468
0.066539735 -0.046226658 -0.021242341 0.041678153 0.033200335 0.037012357 0.07290722 -0.024076069
0.054964736 0.085607044 0.01942179 0.068007454 -0.011481928 -0.057745516 0.02797821 0.017505497
0.025022112 0.03344713 -0.05070547 -0.030077174 0.10529718 0.1400858 0.049546186 -0.040616453
-0.04362705 0.04945908 0.052341945 0.021732496 -0.013190394 -0.04461295 -0.03500495 -0.01231991
0.08235026 -0.10196099 0.019129269 0.10445487 0.06317023 0.03580786 0.05925906 -0.0026585215
-0.005753738 0.024796106 0.12247068 -0.07040645 -0.010374968 0.0057443464 -0.05702743 0.014625997
-0.038110547 -0.051441763 0.0023553283 -0.05590528 -0.05597999 -0.0736143 0.02850604 -0.0059553855
0.09486681 0.041451626 0.052786887 0.16185437 0.053385347 -0.033046257 0.06587052 0.017159937
-0.09994013 -0.0025016025 0.03415206 0.019100912 0.014113905 0.0031508717 0.01658276 0.14799328
-0.07340819 -0.057982054 -0.07185403 0.022511125 0.08502677 0.09541019 -0.008407663 0.002358487
-0.04312392 -0.028730595 -0.0021985315 -0.06746237 0.088249385 -0.025720423 0.017926227 0.01053066
-0.17411582 0.0005703851 0.08782236 -0.011177736 -0.016461711 0.00619305 0.032555476 -0.038091324
-0.07072287 0.043217696 -0.00974817 -0.05034537 -0.14281656 0.00034183194 0.03040528 0.09874391
-0.060285296 0.025725719 0.10778361 0.056555323 0.042634897 -0.055482224 0.015130612 -0.059585348
0.035945088 -0.050780363 0.046807412 0.037254248 0.021065678 -0.003446452 0.074945 0.13599978
-0.000633574 0.02977084 0.15290613 -0.012606087 -0.053888734 0.083110385 -0.028718626 0.03585948
00000000: d387 8bbd 94b8 8c3d 4c9d ebbb 0013 4a3c
00000010: 718d ce3c 7970 133e 7432 5a3d 7286 40bb
00000020: b09a 9c3d 837e 98bd 1269 1ebd abc7 86bd
00000030: 36b3 d2bc b700 a03d 5160 8f3c 2308 183b
00000040: b6b2 c73d db03 a4bd e626 c4bd 171e 293c
00000050: 9df4 edbc 478b 12bd 118f 903d fd19 fd3c
00000060: 2e28 06bd f075 96b8 2ace d63d ca7b a13d
00000070: fcad 26bd 5641 e13d e463 96bc c305 b23d
00000080: c29b 60bc 5310 ca3d c273 243c 810a e8bd
00000090: 176e 05bd a250 363d 23c0 f0bc ac3d a43d
000000a0: 3337 23bd 7aef 42bd 0d28 433c 8eab f7bd
000000b0: f8e9 e23b 75aa bdbd 5414 96bd 0cda 173d
000000c0: 2e7f 973b f1a4 0a3c 685a 6f3d 200d b5bd
000000d0: 79f0 fbbc b99b 543b 0ac5 8cbd 0cef d73a
000000e0: 084d cd3d 075d 523e b5ef cfbd b411 383d
000000f0: bc2a bf3c 8e55 153c e1ac 24bd 3410 a83d
00000100: 22a7 b03d 1ae6 ba3c 32a1 a63c 18f7 73bb
00000110: d023 0a3c e21d 2dbd 86e6 cd3d 4eaa b33c
00000120: f7f4 353a 8f78 073e 5c9d 7dbd a2f5 71bd
00000130: 9674 a4bc bc64 3b3d 011e 35bd 7eb0 343d
00000140: 89b9 093c c8fe 5abd eb2d 1b3d 2b70 a93c
00000150: 4284 953d b887 82bd eab7 0cbe 977c a23c
00000160: 664f 903d 1f4a 3dbd 6daf 27bb f44e 3bbd
00000170: 460d cabc f1ee 073c 409d 083e 60cf 383b
00000180: 3c9e 4abd a936 2abd be5a f33c 54b2 023c
00000190: 8b0f c13c 018c 6d3c 7d15 1cbd 96c9 063e
000001a0: 65df 0c3e ced1 a93d 1e95 e1bc a6df 553d
000001b0: 6a37 673d a90b de3c 0431 67bd 4872 bf3c
000001c0: 4f16 acbd 8329 9d3c b83b bdbd c67d c13d
000001d0: 5885 16bd a37e 843d 8870 b13d f98a d43c
000001e0: 643e 203d b3d2 e8bd 854e bb3d 74b3 c9ba
000001f0: d467 a9bc b336 e83d f7f8 443d e273 153d
00000200: fc45 883d 2a58 3dbd 6b04 aebc b6b6 2a3d
00000210: 13fd 073d 459a 173d 6150 953d 2d3b c5bc
00000220: b422 613d bf52 af3d 721a 9f3c 7e47 8b3d
00000230: b21e 3cbc 9086 6cbd 8f32 e53c b067 8f3c
00000240: 2cfb cc3c dcff 083d 8ab0 4fbd 6864 f6bc
00000250: 0ca6 d73d a772 0f3e f1f0 4a3d 705d 26bd
00000260: 47b2 32bd 9b95 4a3d 8264 563d 5908 b23c
00000270: 861c 58bc 12bc 36bd 5a61 0fbd 73d9 49bc
00000280: 41a7 a83d ecd0 d0bd fcb4 9c3c 6fec d53d
00000290: 655f 813d 43ab 123d a1b9 723d 973a 2ebb
000002a0: da89 bcbb 3421 cb3c e8d1 fa3d 4231 90bd
000002b0: c5fb 29bc 123b bc3b 9895 69bd e1a1 6f3c
000002c0: ce19 1cbd 99b4 52bd da5b 1a3b effc 64bd
000002d0: 464b 65bd 18c3 96bd 8085 e93c 6525 c3bb
000002e0: 8849 c23d 2ec9 293d 1037 583d 27bd 253e
000002f0: 98aa 5a3d 835b 07bd 20e7 863d ff92 8c3c
00000300: 69ad ccbd edf1 23bb 08e3 0b3d 8479 9c3c
00000310: 023e 673c db7e 4e3b 91d8 873c 8d8b 173e
00000320: 0857 96bd 977e 6dbd 3528 93bd 4069 b83c
00000330: 8422 ae3d 6b66 c33d 4bc0 09bc d990 1a3b
00000340: b5a2 30bd 6d5c ebbc 3d15 10bb b629 8abd
00000350: 18bc b43d a3b3 d2bc 06da 923c ca88 2c3c
00000360: 6b4b 32be e585 153a 36dc b33d d322 37bc
00000370: b6da 86bc 12ef ca3b e458 053d a605 1cbd
00000380: 27d7 90bd 0a05 313d cab6 1fbc f236 4ebd
00000390: 813e 12be e837 b339 7e14 f93c 3f3a ca3d
000003a0: b7ed 76bd bebe d23c a7bd dc3d 8ea6 673d
000003b0: eea1 2e3d 5441 63bd 63e6 773c c40f 74bd
000003c0: 283b 133d 12ff 4fbd 21b9 3f3d e997 183d
000003d0: ee91 ac3c dfdd 61bb c47c 993d 8743 0b3e
000003e0: 6e16 26ba fae1 f33c 6d93 1c3e c389 4ebc
000003f0: 6fba 5cbd c735 aa3d 5343 ebbc 64e1 123d

network_body.observation_encoder.processors.0.normalizer.running_mean f4 [6]
48.91337 38.190205 16.137356 -32.28028 1.3999468 -71.157326
00000000: 4aa7 4342 c5c2 1842 4e19 8141 021f 01c2
00000010: 7531 b33f 8d50 8ec2
