Assets/Training/results/learn_v1_4/MarsTaxi/MarsTaxi-499987.onnx (onnx, 542464 bytes, 10 tensors)

54 f4 [6]
00000000: af8c 0c42 ab6b 9a41 30af 3342 d826 3b3d
00000010: d07d 1f3b 452f ce3d
35.137386 19.302572 44.92108 0.04569134 0.0024336465 0.1006761

action_model._discrete_distribution.branches.0.bias f4 [6]
00000000: dd46 253d 028b ffba fa8f c5bc e62c 1ebd
00000010: 319e cfbc 34a3 a8bc
0.040350784 -0.0019496384 -0.024116505 -0.038617037 -0.025343986 -0.020585634

action_model._discrete_distribution.branches.0.weight f4 [6, 256]
00000000: 53a8 fbbb c1f8 3dbc 31c1 40bd bacc 3cbb
00000010: c90c 45bd 7cac 953c 1b61 11bd ffe8 c73c
00000020: d0e3 383d 5b60 253d deb3 4bbc 33c7 94bc
00000030: 21cc 243d 7e2a d43c 52ce 21bd 4e46 3c3d
00000040: 4414 193c 5f69 80bc d268 673b 39a6 9b3c
00000050: 9b67 223c aa1f 3dbd 5d55 56bd 8599 db3c
00000060: bb1c aebb 8f3c 3f3d 22a7 51bd 4711 e83c
00000070: 0dbd 3abc 043b 173c ca92 7c3c 3885 31bd
00000080: fb3a 883a 921e 093d a633 1a3d 18e5 813c
00000090: 2e8c 9b3c 57b7 4dbd f49c f9bc d2a5 483c
000000a0: ab19 52bd 6c4e 20bd 6745 4dbc 7213 083d
000000b0: 5a44 263d a39c 03bb 86e3 3cbc 43fa 3b3d
000000c0: 7874 b83c a53a 583c b48f e33c 9b58 133d
000000d0: 4d0e 41bc 25e1 eb3c 3c4e 06bd edb0 e7bc
000000e0: b60a 12bb 8e69 c63b 3a49 233d 0f87 43bd
000000f0: 3025 83bc a6f8 51bd 6e8b 363c 6450 823a
00000100: bea2 4a3c 374f b83b 8fc2 933c e646 db3c
00000110: 99ef c6bb 1a86 15bd 8747 3ebd 1b97 1fbd
00000120: 0ffb 3a3c 48c8 20bd 6f5b 46bb b0b1 b23c
00000130: 524c 2bbc 57f0 943c ffde 2f3b ade3 4c3c
00000140: b08b 923c 3c9a 2bbd 67a7 adbc 5873 45bd
00000150: 2077 1cbd 20cf cfbc b104 77bb 9a93 cc3c
00000160: 5e6f e5bb c0fa 243c 2c4e 1c3d b18b 22bd
00000170: cac9 a23b c01c cc3c 130f 72bd 37ed b73c
00000180: cc4c f0bc 1689 dd3b e366 043c a20e e2bc
00000190: 2b10 763c 352a 9d3c 9663 32bc 412c 8bbc
000001a0: 66d1 20bd 1afa ff3b ea53 0a3d 3d68 78bd
000001b0: f438 163d 3ab2 c0ba b3e3 6c3c dffb 29bd
000001c0: bf8f 33bd d50f 7e3c 195f da3c f4eb 4d3c
000001d0: 76de 263c c160 2abd aecd 76bc 9d46 b33c
000001e0: 8147 be3c 1d54 db3b 1939 573c fd86 40bd
000001f0: 7375 3ebc 55d2 37bc 11a4 63bd c03f 5bbd
00000200: 38cb 1e3c 4f4e 0c3d e760 a9bc c323 ae3c
00000210: cb3a c03c 0d9a 14bc dcaf ad3c ce3f 0d3c
00000220: 72f6 28bc ad28 5bbd 12a5 2cbc 422c 803c
00000230: e443 96bc c9a5 5d3d 6216 453c 739d c6bc
00000240: 3c20 17bd c4a0 10bd bdcd 223d 40b2 26bb
00000250: 5937 43bd a922 36bc aef6 43bd 8200 a93a
00000260: 5d08 21bd d79c 083d cc40 6d3c 07e9 60bd
00000270: 511d 773c 17e6 963c ffb9 e23c 0afe 633c
00000280: fce6 b6bc 8c18 1f3d bf95 2e3b 26c5 a03c
00000290: c5fd a33b 2de9 20bd 2323 e9bc ed1a fe3c
000002a0: 3c89 863c c406 c83c d1d8 123d a5b0 1e3d
000002b0: b698 56bd 6273 813c b445 5abd bfbb 8abc
000002c0: 5de0 c43c db1b e23c 5c23 54ba 06e0 143d
000002d0: 3232 85bc 2c8d 23bc f271 3e3b 9547 8a3c
000002e0: 261b c33c 10a3 51bc 081a fb3c 6e5f 3c3d
000002f0: cab3 8a3c decd 3b3d c3d1 5dbc 73ed 24bd
00000300: 982a b73c 695a 8cbc 9e39 4bbd 6a07 703c
00000310: 5e6d 333c a7e3 0a3d 287f 073c d6e4 b5bc
00000320: 67a9 523b b49c 27bb 73cd ffbc b3e8 3e3d
00000330: a0cf 8a3c 885e 843c 2830 8cbb f91a 1dbc
00000340: 5099 c1ba f966 443d c5cf 01bd 0ef1 883b
00000350: 2fc0 b0bc 6654 ef3c db41 d43c 85b0 3abd
00000360: f108 cfbb d898 ccbc e8ab 5ebc 5f66 bd3b
00000370: 45fe 09bc b12c 4f3d ae09 1b3d 8982 933a
00000380: 3832 383c c7da c7bb ea9d 88b9 4dc3 d23c
00000390: e736 5b3c f198 25bc 4423 0fbc 6efb 8c3b
000003a0: 429e 3abc aec2 053d c492 5f3d a8c6 2b3c
000003b0: 34b5 da3c c14a cfbc 904a 193b 74b8 50bd
000003c0: 90c9 a0b9 c682 d7bc 0fe3 033d 9657 e3bc
000003d0: 2dc6 053d 0f94 99bc 2899 c0ba d42f 643c
000003e0: edf8 10bb 81e4 963c cb44 8f3c 11dc 693b
000003f0: 8835 8bbb e82d ccbc d013 cabc a31e 1abd
-0.007679978 -0.011594952 -0.04705924 -0.002880855 -0.048107896 0.018270724 -0.035492998 0.024403093
0.045139134 0.040375095 -0.01243302 -0.018161392 0.040233735 0.025899168 -0.039503403 0.045965485
0.009343211 -0.015675245 0.003531028 0.01900016 0.009912397 -0.046172775 -0.052327503 0.026806602
-0.0053134835 0.046688613 -0.05118478 0.028328551 -0.011397612 0.009230379 0.015415857 -0.043339938
0.0010393554 0.03347642 0.037646912 0.01585631 0.018987741 -0.050223675 -0.030470349 0.012246566
-0.05129401 -0.03913729 -0.012528754 0.03322167 0.04059253 -0.0020082376 -0.011528855 0.045892965
0.022516474 0.013197576 0.027778484 0.035973173 -0.011783195 0.02879388 -0.032789454 -0.028282607
-0.0022284216 0.0060550636 0.039864756 -0.047736224 -0.016008943 -0.05126252 0.011141641 0.0009942171
0.012367902 0.0056246775 0.018037109 0.026767205 -0.0060710427 -0.036504842 -0.046454933 -0.038962465
0.011412396 -0.039253503 -0.00302669 0.021813244 -0.010455208 0.01818101 0.0026835797 0.012505454
0.017888874 -0.041895136 -0.021197988 -0.048205703 -0.038199544 -0.02536732 -0.0037692005 0.024972726
-0.0070018014 0.010069549 0.038160488 -0.039684 0.004967903 0.024916053 -0.059096407 0.02245198
-0.029333495 0.0067607267 0.008081171 -0.027594868 0.015018503 0.019185165 -0.010888001 -0.016988875
-0.039262198 0.007811797 0.033771433 -0.060646284 0.03667541 -0.0014701553 0.014458585 -0.04149997
-0.04383826 0.015506704 0.026656674 0.012568463 0.010184875 -0.041596178 -0.015063686 0.021884257
0.023227455 0.0066933767 0.013136172 -0.047003735 -0.011624682 -0.011219581 -0.055576388 -0.053527594
0.009692006 0.03425437 -0.02067609 0.021257287 0.023465535 -0.009069932 0.02120202 0.008621169
-0.010312663 -0.05350559 -0.010537403 0.015646104 -0.01834292 0.054113183 0.012029262 -0.024245
-0.036895975 -0.035309568 0.03974699 -0.0025435835 -0.047660206 -0.011116662 -0.047842674 0.0012893828
-0.039314616 0.0333527 0.014480781 -0.054909732 0.015082673 0.018420262 0.02767658 0.013915548
-0.022326939 0.03884177 0.0026639549 0.019625258 0.005004617 -0.039284874 -0.028459137 0.031018699
0.01642286 0.024417289 0.035851303 0.03874268 -0.05239173 0.01580209 -0.05328913 -0.016935227
0.024032766 0.027601173 -0.0008092427 0.036346458 -0.016259287 -0.0099823885 0.0029059616 0.016879836
0.023816656 -0.012795225 0.030652061 0.045989446 0.016931433 0.045850627 -0.013538781 -0.04026551
0.022359177 -0.017132955 -0.049615495 0.014650205 0.010951368 0.033908512 0.0082700625 -0.022203844
0.0032144429 -0.002557558 -0.031225896 0.046608638 0.016944706 0.016158357 -0.0042782016 -0.00958895
-0.0014770422 0.047949765 -0.031692285 0.0041791266 -0.021576015 0.029215049 0.025910309 -0.0455785
-0.0063182046 -0.024975225 -0.01359079 0.005780026 -0.008422439 0.05057973 0.03785103 0.0011254112
0.011242442 -0.0060990783 -0.00026057597 0.025727892 0.013379789 -0.010107265 -0.008736435 0.0043024337
-0.011390271 0.032656364 0.054583326 0.010484375 0.026697733 -0.0253042 0.002339039 -0.05095716
-0.00030667754 -0.026307475 0.03219896 -0.027751725 0.0326597 -0.018747358 -0.0014694082 0.013927419
-0.0022121028 0.018419506 0.017488858 0.0035684148 -0.004248325 -0.024924234 -0.02466765 -0.037626874

network_body._body_endoder.seq_layers.0.bias f4 [256]
00000000: 3d98 963b 53a8 2f3d 8599 613d 538e 223b
00000010: 24bb b73c 3c89 063d 10ce 42ba 7f0a 913d
00000020: e213 803d a33c 2c3d e414 803d 14cc a43c
00000030: 3a4b 863d 4f9c f6bb 8efe 98bd 7175 413d
00000040: 1bdb 793d 1774 9cbd a6eb 5f3d 661f 8c3d
00000050: b85c 933d 64ed 2b3d 56e1 a33c 4d63 943d
00000060: cfca 9d3c c200 523d 84da 8f3d afb8 3e3d
00000070: 007e a03d 04ce 8a3d 657c 703d f0e4 2d3d
00000080: 275c 4ebd 1e0c 92bd 08e8 353d f113 993d
00000090: 219e 953d 3a29 82bd c3c6 893d 29b2 8b3d
000000a0: d90c a8bb a226 153d 7716 bd3c 7061 8e3c
000000b0: 1b78 34bd c678 de3c 34cb 793d 7a2b 973d
000000c0: 0032 213d b330 9e3d df38 4e3d 842d 8f3d
000000d0: 5f8f 823d d46c 9c3d a83b a23d 0848 933d
000000e0: 4158 99bc b569 713d da8c 9abd 51fc 8f3d
000000f0: 10e4 85bd 8924 933d f31a 9b3d b015 1cbc
00000100: cdde 99bd 1d2d af3c 7bef 553d 4c42 9a3d
00000110: d829 f9bc 9fa3 853d b3e4 913d ca0f 92bd
00000120: 3353 f63b 114c 183d 1e12 943d 4461 663d
00000130: 9a3d 593d 07b5 983d e496 9e3c fddf 36bd
00000140: 84ca acba 2a51 1c3c c27c 8f3d ec63 393d
00000150: d997 65bd 44ca 703d 93d8 833d d4a6 943d
00000160: 05c5 7d3d 6f76 3cbd 66ff 793d 1caf 8dbd
00000170: 3c1f 923d ba96 f9bb ef48 473d 7cba 97bc
00000180: 980e 903d 69a6 6e3d 02f6 853d f63f 0fbd
00000190: 07ca 4bbd 2747 853d d48b 873d b378 9d3d
000001a0: 2dbf 8e3d 6e92 933d 8887 9a3d 0940 afbc
000001b0: 65ac 6cbd 3131 983d 56aa a13d 0457 8b3c
000001c0: 71cd 943d e1ee 8d3d 3e02 a3bc bf6d edbc
000001d0: 3360 3b3d 3fa4 6f3d 8cd6 943d 5b8a b73b
000001e0: 8f6a 833d d0b8 803d af21 1abd d8cf 943d
000001f0: e9ff 063d 8cbc 2abd 0ed7 953d 2ea1 573d
00000200: b0c0 583d f0cf 5f3d 9baa 8abd 38df 3cbc
00000210: f54b 90bd 973e 80bd 491f 873d 763d 8e3d
00000220: 5460 313d 2f81 b5bc ca01 6e3d 456a 8b3d
00000230: b7d7 943d 0bc6 763d dff9 813d e812 603d
00000240: d1ed 883d 8d5c f5bc 4673 713d ed3b 8c3d
00000250: 4d74 833d a13f 713d af14 743d 87b0 533d
00000260: c402 6fba be5b 9b3d a233 163d 1461 85bc
00000270: d6bb c93c eff8 853c d58d 843d f867 8e3d
00000280: 474d 09bc 4ff2 35bd e37d 81bd dc81 86bd
00000290: ed47 27bc 1804 69bd e44d 973d 1ee1 6dbc
000002a0: 1a10 0c3d 1180 803d fddd 8f3d 9b0c 683d
000002b0: b24d 913b a5c5 15bd 3410 623d 27fb 8a3b
000002c0: c5f3 89bc 4dee 913d 3dd6 813d 0bda a03d
000002d0: 8f27 423c c26e 8c3d a8c9 843d ffce 7fbd
000002e0: 0ff5 0b3d 0474 8a3d 23e5 95bb bc71 683d
000002f0: cbb3 26bd 07f3 983d 417c 943d d8a5 863d
00000300: 4459 80bd 0a07 103d 495e 12bd 3312 793d
00000310: d6ce 5ebd f340 67b9 ae7b 893d 2c19 45bc
00000320: 2f0b ba3c fb62 213c 4973 21bd 44ec 86bc
00000330: b033 3b3d f2b5 8d3d f20c 08bd 16fe 17bd
00000340: 9e02 523d e366 8a3d 83cd d9bc fde2 863d
00000350: 82fd 7f3d 11c1 953c 1e68 903d 999b 843d
00000360: 1c69 883d f811 903d 33bf a83c d1b0 5f3d
00000370: 833a 363d 16a7 8d3d 75a1 7f3d d18e 853d
00000380: 96b0 fc3c 47da 883c e190 6bbd 84ee c7bc
00000390: b301 fe3c 1649 913d 675a 833d db8f 8b3d
000003a0: 8595 843d 3acd 683d 8b2e a93c 053f 8b3d
000003b0: 36de fe3c eae1 663d 12c5 913d 8210 763d
000003c0: fa76 923d 3aee a2bd 77ce 90bd 69c3 9a3d
000003d0: 2f0e 9a3d 3b94 8a3d 3caf 963d 129c 8fbd
000003e0: 3221 633d 9015 953d 7d61 d1bc 9bf6 853d
000003f0: 457b 95bd c10c 8a3d 5e4b 89bd a7b8 973d
0.004595785 0.042885136 0.05507805 0.002480407 0.022428103 0.03284572 -0.00074312184 0.0708208
0.06253792 0.042050015 0.062539846 0.020116843 0.06557317 -0.0075259577 -0.074704275 0.04723114
0.06099997 -0.0763933 0.05466809 0.06841926 0.07195419 0.04197444 0.02000491 0.072455026
0.019261746 0.051270254 0.070241004 0.046562847 0.078365326 0.067775756 0.058712382 0.04245466
-0.050380852 -0.071312174 0.044410735 0.07474507 0.07305551 -0.063555196 0.06727364 0.06821091
-0.0051284847 0.036413796 0.023082001 0.017380446 -0.044059854 0.027157199 0.060984805 0.07381339
0.039354324 0.077241324 0.050347205 0.06991103 0.06375002 0.07637945 0.07921535 0.07191473
-0.01871884 0.0589387 -0.075463966 0.070305474 -0.0653764 0.07184703 0.075734995 -0.009526655
-0.07513199 0.021383816 0.05223034 0.075321764 -0.03041546 0.06525349 0.07123699 -0.07131918
0.0075172423 0.037181918 0.07230018 0.056245103 0.053037263 0.07456403 0.01935906 -0.044647206
-0.0013182913 0.009540835 0.070062175 0.04526131 -0.056053016 0.058786646 0.06437793 0.072583824
0.06195547 -0.046011385 0.061034583 -0.06918165 0.07134864 -0.007616845 0.04865354 -0.01852154
0.070340335 0.05826417 0.06541063 -0.034973107 -0.049753215 0.06507712 0.06618467 0.07689037
0.06970058 0.072056636 0.07545382 -0.021392839 -0.057781596 0.074312575 0.07893817 0.017009266
0.07265747 0.06930328 -0.01989853 -0.028982995 0.04574604 0.058506247 0.07267484 0.00560121
0.06416809 0.0628525 -0.03762978 0.072662055 0.0329589 -0.04168372 0.07316409 0.052643947
0.052918136 0.054641664 -0.06770822 -0.011527829 -0.07045738 -0.06261938 0.06597764 0.069453165
0.043304756 -0.022156326 0.058107175 0.06807379 0.07267707 0.060247462 0.06346487 0.05470553
0.06685985 -0.029951358 0.058947824 0.068473674 0.06418667 0.058898572 0.059590038 0.05168202
-0.00091175386 0.07585858 0.036670335 -0.016281642 0.0246257 0.016354052 0.06472365 0.06953424
-0.008380241 -0.044420537 -0.06322839 -0.065677375 -0.01021002 -0.05688867 0.07387903 -0.014519004
0.034195043 0.06274427 0.07024763 0.056652647 0.004434311 -0.03656544 0.055191234 0.0042413655
-0.016839871 0.071255304 0.06339691 0.078540884 0.011850252 0.06857063 0.064837754 -0.062453266
0.034169253 0.067604095 -0.0045744344 0.05674909 -0.040698808 0.07468229 0.07250262 0.06574601
-0.06267026 0.035162963 -0.03573445 0.06080837 -0.054396473 -0.00022054072 0.06713043 -0.012029927
0.02271041 0.009850259 -0.039416585 -0.016470082 0.04570359 0.06919469 -0.03321547 -0.03710755
0.051272027 0.06757905 -0.026587253 0.06586263 0.062497623 0.018280538 0.07051109 0.064749904
0.06660673 0.07034677 0.020598983 0.054611985 0.044489395 0.06916635 0.062409837 0.06521381
0.030845921 0.016705645 -0.057511214 -0.024405725 0.03100667 0.07094018 0.06413727 0.06814548
0.06473831 0.056836344 0.020652076 0.067991294 0.031111818 0.056367792 0.07117666 0.060074337
0.07151599 -0.07955594 -0.0707063 0.07556803 0.075222366 0.06766554 0.07357642 -0.0701219
0.05545158 0.07279503 -0.025559181 0.06541177 -0.072989024 0.06740714 -0.06703828 0.074082665

network_body._body_endoder.seq_layers.0.weight f4 [256, 6]
00000000: ee7d 0abf 9bf6 88bf 87e8 d3be 47b7 d1be
00000010: 6e4a 05bf ebb2 7abe 6b15 153f d472 84be
00000020: a5bd e33e 0b92 fdbd da31 1d3f 974d 0fbf
00000030: 2b35 ed3e 6e1d b43e 214f 4d3e ffdb 62bf
00000040: 76d6 b6be 1af0 b53e a43c 5f3e bda9 32bf
00000050: 2e8f 29bd 3811 ca3d 9728 67bf 8746 b2be
00000060: 5611 b8bd ddca c8be ad26 d03e a61a 1fbf
00000070: 15b5 b93e 8611 25bf 4408 c33e b9d4 1c3e
00000080: bb61 7e3e a32e 81bd fa41 93bc 075e 713e
00000090: 6ae7 ec3e 7021 2b3d 4a94 353f e5fd 6f3e
000000a0: f58b 6a3e 6d76 5cbd c731 48bf 411a 903d
000000b0: cdbe 0bbf fd56 7c3f 7b3d 973e 03f1 693f
000000c0: 66cd 793d 6d3f febe 3413 a1be b8ec a13b
000000d0: 541f 92be 5ebd a3be 82c3 28bc c78b 033f
000000e0: 42ae d53c 0c3d 403f f0e9 743e 70f2 5cbe
000000f0: ace9 e53e 46fe c7bc 4da5 2bbe a678 26bf
00000100: c2b4 e73e b452 c33d f55b 93be f889 a1be
00000110: 417d d3bd b8b8 efbd 3077 0c3f 5786 c6bd
00000120: ada5 46be dd28 1fbf 13af 7ebe 6a50 0c3e
00000130: f99c 0ebf 5965 56be 606e b93e e0e0 e9be
00000140: 5960 c03e 1e99 5b3e ae26 88be cc58 84be
00000150: 38c3 833e 6d38 3f3e 8422 2c3e 9bbb c5be
00000160: a31a 34bf be02 163e 7e1f 323f 047a 4f3e
00000170: c6e1 6d3e 3a7f bd3e 6ccc 223f 22ad 56be
00000180: b925 173e 73d9 f4bd 32ab 1bbf c195 3d3d
00000190: fb20 1a3e 9923 703e c0ab 9f3d ab53 db3e
000001a0: c3d8 f3bd 76af 413f d74d d33c 6e1b 873d
000001b0: 08e4 213e 270e 553f 310f c5be bed4 d9be
000001c0: 6f70 453e f120 ddbe 32f6 2bbf ae9e d13d
000001d0: 00ff b3be 9b7d 813f 4917 dc3d 7960 bebe
000001e0: 0f10 19be fce0 06bf 5a62 91be b322 42be
000001f0: a19d 8d3e 427a f8be ac7d 843d 224f 18bf
00000200: d693 513e 3cf1 21bf b1ea 583d 99af 06be
00000210: fd78 703e 9f67 14be 61af 573f 9711 3abf
00000220: 1e0a bbbd 1a63 35bd 651e 30bf 6cf0 20bd
00000230: 43ee bfbe 2f3e 5abf cb49 533f 8530 63be
00000240: 358b 313f a53d 093f 12b3 6e3f 4d17 573e
00000250: d9c3 79be 3813 bcbe 683f 1e3f 6748 83be
00000260: 3164 28be f072 48bb 28df 203f 283c f03e
00000270: 2785 1bbf 036b 983d d289 183e e740 3fbf
00000280: d86d aebe 754a 493f a320 6d3e fe58 adbe
00000290: 4822 053e 3854 d1bd 71e9 08bd 4594 ffbd
000002a0: 2693 30be e621 4ebe fcf0 babe 383c a3be
000002b0: 918b f8bd de80 163e eefa 12bf c13c aebd
000002c0: caee 4b3e bcaa 30bf 93f0 633e 24b8 c93e
000002d0: 2700 0dbe 94aa e3be 1493 2e3e 2f66 d93e
000002e0: 0d83 803e d6e1 8dbe b72d 74bc abe9 e0be
000002f0: 491f 7cbe 92c8 b13e dd21 a3be c565 fabe
00000300: 674a 0cbe c9a4 75bc 3dff 0d3f 5bbd 2a3f
00000310: 96fe c13d 11d0 5ebe 264e 883a 16c6 233f
00000320: 50e7 7d3e 0862 a6bd 7d4d 78be 07ea 9f3e
00000330: 5066 b1be 85f4 02bf 06d2 af3f 4a92 0abe
00000340: 5d11 81be acc7 8ebe df84 edbe 5cd8 9f3e
00000350: b3a5 53bd 12c2 0dbf cc5a d0be 16c6 13bf
00000360: 5980 b7be 8cac 72be 0648 20bf 99dd 78be
00000370: 9bc6 263f 9b93 273f a112 ef3e 64bd 823e
00000380: 8ce6 843e 78df 843e bb82 82be e68a 0e3f
00000390: 9b0d 90be 577b 2dbf 4df8 f6be fb83 41bf
000003a0: 8465 02bf 92ec a3bd 2633 dc3e 0f77 7dbe
000003b0: cd8f ffbe 3b48 4fbe d125 debe aee4 c13b
000003c0: e2d6 8d3d 9805 d6be c728 c7be f76b 92bd
000003d0: 30fa 88be 0358 e8bd c0b1 20bf 8b2e 363f
000003e0: 8a35 fbbd f92e 46be 10d0 79be 04a4 e5be
000003f0: 4d0c 913e 4e70 c03d 283c 043f 120c c3bd
-0.54098403 -1.0700258 -0.41388342 -0.40960142 -0.52066696 -0.24482314 0.58235806 -0.25868857
0.44480625 -0.12381371 0.6140419 -0.5597777 0.46329626 0.35178703 0.20049717 -0.8861694
-0.35710496 0.35534745 0.21800476 -0.6979025 -0.041396312 0.098665655 -0.9029631 -0.34819433
-0.089876816 -0.39217272 0.40654507 -0.6215004 0.36270967 -0.64479864 0.38092244 0.15315522
0.24841969 -0.063077234 -0.017975796 0.23571025 0.46270305 0.041779935 0.70929396 0.23436697
0.22904952 -0.053823877 -0.78200954 0.070362575 -0.54588014 0.98570234 0.29539093 0.9138338
0.0609869 -0.49657765 -0.31459963 0.004941549 -0.28539526 -0.31980413 -0.010300519 0.5138516
0.02608407 0.7509315 0.23917365 -0.21576858 0.4490484 -0.02441324 -0.16762276 -0.65027845
0.45255095 0.09537259 -0.28781095 -0.31550574 -0.10326625 -0.11705154 0.54869366 -0.09693592
-0.19399138 -0.6217173 -0.24871473 0.1370255 -0.5570827 -0.20937099 0.36217022 -0.45679379
0.37573507 0.21445128 -0.2659201 -0.25848997 0.25734878 0.18673868 0.16810042 -0.38619694
-0.70353144 0.14649484 0.69579303 0.20261389 0.23230657 0.3701113 0.63593173 -0.20964482
0.14760484 -0.11955538 -0.608081 0.046285395 0.15051644 0.2345108 0.077964306 0.4283727
-0.119065784 0.7565836 0.025793953 0.06597029 0.15809643 0.8322472 -0.38488153 -0.42545122
0.19281171 -0.43189195 -0.6717254 0.10235344 -0.35155487 1.0116457 0.10746629 -0.37182978
-0.14947532 -0.5268705 -0.2839535 -0.18958549 0.27659324 -0.48530775 0.064692825 -0.5949575
0.20466551 -0.6325872 0.052958194 -0.13152923 0.23483653 -0.14492653 0.8425198 -0.7268309
-0.09132789 -0.044283964 -0.6879638 -0.039291784 -0.37486467 -0.85251135 0.82534474 -0.22186477
0.6935304 0.5360969 0.9324199 0.21004982 -0.24391116 -0.36733413 0.618155 -0.25641176
-0.1644447 -0.0030586086 0.6284051 0.46920896 -0.6075005 0.07442286 0.14896324 -0.7470841
-0.3406818 0.7862924 0.23156981 -0.33856958 0.13001359 -0.102211416 -0.033425752 -0.12479452
-0.17243633 -0.20130119 -0.3651198 -0.3188188 -0.12135995 0.14697596 -0.5741414 -0.08507682
0.1991531 -0.6901052 0.2225974 0.393983 -0.1376959 -0.44466078 0.17048293 0.42460772
0.25099984 -0.27711362 -0.014903477 -0.43928275 -0.2462131 0.34723336 -0.31861773 -0.4890577
-0.13700257 -0.014992901 0.5546759 0.66695184 0.094723865 -0.21759059 0.0010399267 0.6397413
0.2479527 -0.08124167 -0.2424831 0.31233236 -0.3464837 -0.5115436 1.3735969 -0.13532367
-0.2520856 -0.27886713 -0.46390435 0.31219757 -0.051671695 -0.5537425 -0.40694273 -0.5772413
-0.3584011 -0.23698634 -0.626099 -0.24303283 0.651468 0.65459603 0.466939 0.2553512
0.25957143 0.25951743 -0.25490364 0.5568069 -0.2813538 -0.67766327 -0.48236313 -0.7559201
-0.5093615 -0.080041066 0.43007773 -0.24752448 -0.499144 -0.20242397 -0.43388227 0.0059171533
0.06925751 -0.41801143 -0.38898298 -0.07149499 -0.26753378 -0.11344912 -0.62771225 0.7116477
-0.12266071 -0.19353856 -0.24395776 -0.44851696 0.28329697 0.093964204 0.5165429 -0.095237866

network_body._body_endoder.seq_layers.2.bias f4 [256]
00000000: d68a 8dbd 1578 86bd ab51 423d 4941 643d
00000010: 55d5 febc cda4 233d 1036 513d 602e 8dbd
00000020: ef9a 533d 8617 853d 38de 88bd 3fcd 90bd
00000030: 0142 bf3a 5ab2 603d 264f 463c 8608 153d
00000040: aec3 353d 6879 a63c cc29 82bd fbb7 303d
00000050: 5f85 7a3d d7f3 523d 03ca 843d 622b 82bd
00000060: 7b14 403d 950f 2b3d 4f5f 733d 57da 34bd
00000070: 4e06 79bd d5bc 9abd 4bc1 6e3d ba66 713d
00000080: 371b 7e3d 7ce0 423b a4ec 2ebd 7024 573d
00000090: eb96 89bd 49b5 773d 9a80 3e3d db16 94bd
000000a0: 5dbe 893d 18d0 373d fdb5 91bd 8b0e e43c
000000b0: 4eca 8cbc ea68 9839 36f6 7b3d d142 423d
000000c0: fbd6 693d bd07 6a3d 5d81 543d 2b6a 96bd
000000d0: e2d5 fd3c 58bd 5dbd 9012 8fbd fe23 663d
000000e0: 251b 663d 194b 93bd 4c55 4cbd 8f7f 83bc
000000f0: 2543 87bd efbf 9ebd 6b34 893c 8182 313d
00000100: 0760 6abd c1cb a5bd fe2b 1ebd ba0e 853d
00000110: 9f48 503d 4fa2 813d 6f0a 7e3d 35a7 3e3d
00000120: e558 8c3d 4657 393d 08c6 533d fc32 153d
00000130: 28b1 683d d27f 1c3d 8d6f 93bd 043f 663d
00000140: a7da fcbc f011 91bd a8e9 393d 9b97 5ebd
00000150: 7f56 0abd 72d0 31bd 52df 8f3c 080f ca3c
00000160: b8b1 223d ff52 883d c250 ec3c 1ca8 063d
00000170: 0335 81bd 9be7 02bd cd32 413d 859e 4f3d
00000180: b88a 18ba 5565 ff3c a459 7d3d 67af 85bb
00000190: 87bc 01bd 062a 703d 6ab5 63bd 7f6b 42bd
000001a0: 45cb 433d a222 84bd aa92 813d 3155 103c
000001b0: 9f29 883d 5ce6 923c dc85 343d 594e 043d
000001c0: ad67 243d 7e2a 693d 465b fe3c e3b3 35bc
000001d0: 9527 853d 9de1 86ba 4242 bd3c f58e 243d
000001e0: b2cb 90bd 90a3 08bd 19a7 483d 15b4 88bd
000001f0: 18a5 72bd 3435 6b3d 51a0 92bd 8bef 8dbd
00000200: bf16 573d 3470 d4bc 5aaa 873d f5ce 603d
00000210: f347 7d3d 8cb9 f0bc 8aa1 6a3d 7c09 6dbd
00000220: 7259 923c 28b2 5abd d472 a03c c2c7 523d
00000230: b054 563d 214e 733d 92b3 83bd e6f3 8cbd
00000240: fc4c 703d 034b b23c 123b 7abd 0546 683d
00000250: 7203 81bc b38f 96bd b61a 4c3d 75d1 3bbc
00000260: b729 073d b78e 603d dd59 293d b7ce dcbc
00000270: 5680 0e3c 2171 623d 861e 8cbd cf32 7f3d
00000280: f5e0 8bbd 3fbc 8fbd 0a7e 5f3d d36f 443d
00000290: 6997 50bc 0d10 08bd 85bc 8cbd 1791 5d3d
000002a0: 1606 323d e667 19bd 1518 7d3d 9153 d73c
000002b0: 33dc 75bd 9237 c6bb a893 613d 5dde 443d
000002c0: 3272 7dbd 59ca a73c 127a 8abd 4ddf 34bd
000002d0: b26a bdbc 8ab5 85bd 5fcc 823d a3ef 853d
000002e0: 913f 953d 096b 87bd ef52 653d f97a b03c
000002f0: 77f9 003d 2b4a 7e3d 5d5e 8b3d 8d02 5cba
00000300: 8414 07bd 5e6f 72bc 9034 353d 0804 4bbd
00000310: 35d9 ef3c a268 96bd 07e0 243d 3482 573d
00000320: 2220 483c e46c 2d3d 13a3 1dbd ad8f 4a3d
00000330: ba4e 63bc 971f 533d b6f6 2d3d d893 793d
00000340: 8307 66bd 7fa4 623d 0b7b 7b3d e3fa a53c
00000350: 920f 7a3d a3af 603d 0c57 093d 0809 783d
00000360: e004 5d3d 2ee8 68bc 0402 89bd 17b6 e8bc
00000370: 407b f9bc 2b74 e33c a029 9aba d42c 5d3d
00000380: d8ce 97bd 06e9 51bd b970 17bb 2f0b 33bd
00000390: ef3a a23c 1f66 8ebd 4795 723d 8be7 f03c
000003a0: 0fc0 403d 8b18 28bd 8da7 77bd 73b3 7cbd
000003b0: 5437 693d b96a 81bd 5a4e 65bd 7d68 0cbc
000003c0: f398 17bd 6a3d b4ba 8370 ec3c d543 6e3d
000003d0: f282 633d 7e8e 683d 87a0 61bd 40c0 7bbc
000003e0: 0fd0 ab3b 61c2 8cbd 7840 13bc 0157 563d
000003f0: 54a7 2ebd f256 53bd d3cd 80bd bea6 82bd
-0.069112465 -0.065658726 0.047441166 0.055726323 -0.031107584 0.03995209 0.05107695 -0.06893611
0.051661428 0.06498627 -0.0668301 -0.070703976 0.0014591814 0.05485759 0.012103831 0.03638508
0.044376068 0.020321563 -0.06355628 0.043144207 0.06116235 0.051502075 0.06483843 -0.06355931
0.04689453 0.041762907 0.059417065 -0.044153538 -0.06079703 -0.07555548 0.058289807 0.05893586
0.062037673 0.0029735854 -0.042706147 0.052524984 -0.067182384 0.06047562 0.046509363 -0.07230922
0.06725762 0.044876188 -0.0711479 0.027838966 -0.01718631 0.00029069866 0.061514102 0.047427002
0.057089787 0.057136286 0.051881183 -0.07344469 0.030985776 -0.05413565 -0.069859624 0.05618667
0.05617823 -0.07192058 -0.049886033 -0.016052036 -0.06604604 -0.07751452 0.016748628 0.04333735
-0.057220485 -0.080955036 -0.038616173 0.064969495 0.050850507 0.06329786 0.06202167 0.04654618
0.06852893 0.045249246 0.05170253 0.036425576 0.056809574 0.038207836 -0.07199011 0.05621244
-0.03086598 -0.070834994 0.045388848 -0.0543438 -0.033773895 -0.04341168 0.017562542 0.02466537
0.039720267 0.06656455 0.028847102 0.032875165 -0.06308939 -0.031959157 0.047167588 0.050688285
-0.00058190105 0.031176249 0.061853066 -0.0040797475 -0.031673934 0.058633827 -0.05559293 -0.047465798
0.047801275 -0.06451918 0.06326802 0.008809374 0.066485636 0.01793211 0.04407297 0.03230128
0.040137935 0.05692529 0.031049382 -0.011090252 0.0650169 -0.0010290627 0.023102883 0.040175397
-0.07070102 -0.03335911 0.04898748 -0.06674973 -0.059239477 0.057423785 -0.07159484 -0.06930455
0.052511927 -0.025932409 0.06624289 0.05488487 0.061836194 -0.02938535 0.057282962 -0.057870373
0.017864916 -0.05339256 0.019586004 0.051460035 0.052326858 0.05940068 -0.06430735 -0.068824574
0.058667168 0.021764284 -0.06109149 0.0567074 -0.015748713 -0.07351627 0.04983016 -0.011463513
0.032998767 0.054823603 0.041345466 -0.026954038 0.00869759 0.05528367 -0.068417594 0.062304314
-0.068300165 -0.07018327 0.05456356 0.047958206 -0.0127314115 -0.033218432 -0.06871895 0.054093447
0.043462835 -0.0374526 0.061790545 0.026284965 -0.06002445 -0.006049105 0.055072457 0.048063625
-0.061876483 0.02048223 -0.06761564 -0.04415827 -0.023122165 -0.065287665 0.06386637 0.06539848
0.07287515 -0.06612212 0.055987295 0.021543013 0.03148791 0.06208245 0.06805108 -0.0008392714
-0.03297855 -0.01479706 0.04423958 -0.04956439 0.029278377 -0.07344176 0.04025271 0.052614406
0.012214692 0.042340174 -0.038485598 0.049453426 -0.01387375 0.0515438 0.04247161 0.06093201
-0.056159507 0.055332657 0.06139664 0.020261234 0.061050005 0.054855 0.03353028 0.060555488
0.053959727 -0.014215512 -0.066898376 -0.02840714 -0.030454278 0.027765354 -0.0011761673 0.05399783
-0.07412499 -0.05124762 -0.002310796 -0.043711837 0.019803492 -0.06953072 0.059224393 0.029407283
0.04705816 -0.04103903 -0.060462523 -0.061694574 0.05693753 -0.06319184 -0.055982925 -0.008569834
-0.037011098 -0.0013751213 0.028862244 0.05817016 0.0555448 0.056776516 -0.05508473 -0.01536566
0.0052433084 -0.06873012 -0.0089875385 0.052329067 -0.042640045 -0.05159659 -0.06289258 -0.0637946

network_body._body_endoder.seq_layers.2.weight f4 [256, 256]
00000000: 8f27 b0bb 9eb6 45bd 1bbe 98bd d3a5 953d
00000010: d8e9 00bd 2ac5 823c 0672 3bbc d6ca 29bd
00000020: a0ff e73c 67b7 a3bd 127a 7b3b cc97 a53d
00000030: 62ca 6dbd 49cd 863c d0cc 56bd 4297 00bd
00000040: 7d5a 01bd 939a 6a3d 6b0c 6e3c 961f 15be
00000050: 8dd1 8d3d ae46 11bd 8a20 2c3c 0148 73bc
00000060: c1fa 603d 63ae 0b3d 97bd 3fbd c19f b7bc
00000070: b2af f7bc 6775 89bd 9afe 3dbb 7ac4 e3bd
00000080: 495b dbbd 85ff 94bd a2c6 d2bd 0774 89bd
00000090: 4cb4 c0bc cc6b 83bd 7b52 213d f54b 8abd
000000a0: a622 32bd a9c8 a4bd 875d a8bd c3ff 68bd
000000b0: b03a ab3c 4c49 71bd de96 6e3d 0a17 7dbd
000000c0: f50b 0b3d 6ed5 d1bd e3ba 163d a8ec a9bd
000000d0: 5fd1 34bd 1f18 62be 8243 cfbd d043 583d
000000e0: a4ec 02be 195b 85bc c0f2 99ba 9f56 a2bd
000000f0: 401a 31bd c228 423b d3ba 8f3d 50e9 2abd
00000100: 6d1e cfbd 456f 0cbd e434 c63d 5528 62bd
00000110: 7b46 9b3d 4283 d03c 6621 21be baf1 a6bd
00000120: fbd2 6d3d 7b14 87bd 07ba 64bd 7201 dbbd
00000130: 0600 23bd 6d51 1cbd 894e 9c3d 3022 1dbd
00000140: 59ac 79bd 5222 d6bc 5440 03be 1f29 eebd
00000150: 45e1 e3bb 07b3 8f3b dae4 9d3d f613 3fbd
00000160: bdc8 7ebc 7617 d2bb 7939 d7bd afe6 26be
00000170: 9b4d c03d e6ed 5bbc de1f 233c 7c1a c1bd
00000180: 49c2 f9bc fffd cb3c 5451 bdbc 6f16 fb3c
00000190: 379b fa3d 193d 91bc ab53 efbc f3f5 3f3d
000001a0: 6910 05be 7373 ffbc d1bd f03c a1a2 12bd
000001b0: ab4d 053e 3709 4c3c ad35 96bd 4fd4 7f3b
000001c0: 4e3f c8bd b13f b2bd dd55 7ebb 0e7b 84bd
000001d0: bbaf 2a3b 950c e33d 239f bfbd d6cb d6bc
000001e0: 7d59 d4bd 0d4c 81bb a1d4 063d 2586 c73d
000001f0: c319 243b 0bd1 a8bc 7a80 15be 82e8 eb3c
00000200: b088 b63d ee49 0fbd b686 87ba 538e 06bc
00000210: fe2b 09be 80df 773d 40b5 0abd 022f a6bd
00000220: 6c95 60bd 5167 67bd 3002 8ebd 4335 c4bc
00000230: 4a9a 0fbe 09ef b0bd fb5d c0bd de28 cabd
00000240: 5f8e 12be 272b 01be 917c 3b3d 0835 f43d
00000250: 4443 48bd 2cbb 3bbd 1c13 bf3a 0f1f 42bd
00000260: f921 bf3d ba60 acbd f363 82bd 9ff4 4cbd
00000270: 759f 5bbd 6e4d a5bd c977 11be 7731 28be
00000280: 5c2b ce3c 3ef5 c6bd 65de e53d e707 5abb
00000290: 6de1 8a3d fa0d 89bc 3fb8 ad3c 5224 133d
000002a0: 3bb5 d43c 163d f73c da62 a13c b780 3e3c
000002b0: 4769 a43c 95d0 f3bb 5756 b9bc 84b5 71bd
000002c0: 3212 e63c fe51 dfbd 8ff6 24bd de82 ee3d
000002d0: 9c8b 71bd 4ff6 463b c01d 1fbd 5009 da3d
000002e0: 47ab abbc 7034 dfbd 93b2 3abd 1960 d23c
000002f0: 717f a83d e114 5ebc c69d a13c d1b9 58bc
00000300: 33c6 0c3c c819 88bc 7a4c acbd 61ef f9bd
00000310: 5166 a5bd 2b71 b5bc b00b 24bc fa0a 15bd
00000320: 5e7b 14bd fdc9 a53c 6a8a c63d f462 c23d
00000330: b60a 033c 6c62 24be f228 ca3d e07c 443d
00000340: de5d 86bd b56b 3e3d d925 87bd b207 d1bd
00000350: bb6d 11bc f03a 97bd 6d4c d0bd d397 62bd
00000360: 1b5b 24be db08 ba3d 4388 c33c 2848 88bd
00000370: 8b77 1d3d bef5 3ebc 9ca4 cebc 6f19 b8bc
00000380: 3e18 95bd 1fdc 97bd f081 a0bd eb6a bcbd
00000390: dea5 4fbd 8890 673d 8bef 41bd 75eb 80bd
000003a0: 1e77 42be f190 a8bd 0ad9 23bc d20c a63c
000003b0: 3df2 c8bc 3ccb d4bb 7b6c 65bd 0b7a a53c
000003c0: 0da9 583d 9291 2abd aab9 1d3d 17b8 253c
000003d0: 42ad f0bd fda3 733d 5d62 ccbc f239 073e
000003e0: 87c7 493d ac6b 8c3d c2b4 a1bd 1ca9 26bc
000003f0: e86d df3d 1796 a2bd ba4f 36bd b411 763c
-0.0053758095 -0.04826986 -0.07458135 0.07307019 -0.03147301 0.015963156 -0.0114407595 -0.041453205
0.028320134 -0.079939656 0.003837232 0.080855936 -0.058054335 0.01645531 -0.05244142 -0.03139425
-0.031580437 0.05727632 0.014529328 -0.1456283 0.06924734 -0.035467796 0.010505805 -0.01484871
0.054926638 0.034101855 -0.046811666 -0.022415044 -0.030235145 -0.06711846 -0.0028990866 -0.11121459
-0.10710771 -0.07275299 -0.102917925 -0.067115836 -0.023523472 -0.06417045 0.0393853 -0.06752769
-0.043490075 -0.080460854 -0.08220964 -0.05688454 0.020902008 -0.058907792 0.058249347 -0.06178955
0.03394695 -0.102457866 0.036799323 -0.08297092 -0.044144984 -0.22079514 -0.10120298 0.052799046
-0.12785584 -0.01627879 -0.0011745319 -0.07926678 -0.043237925 0.0029626344 0.07018056 -0.04172641
-0.10113225 -0.034285802 0.09678057 -0.055214245 0.075818025 0.025453214 -0.15735397 -0.081515744
0.058062535 -0.06595703 -0.055841472 -0.10693635 -0.039794944 -0.03816359 0.07632167 -0.038362682
-0.06095538 -0.026139412 -0.12817508 -0.11628937 -0.0069543445 0.0043853554 0.077096656 -0.046649896
-0.015550789 -0.006411488 -0.10509009 -0.16298936 0.09389802 -0.013423419 0.009956328 -0.094288796
-0.03048815 0.024901388 -0.02311007 0.030650346 0.12236636 -0.017729329 -0.0292147 0.046865415
-0.12994541 -0.03118298 0.029387387 -0.035799626 0.13017909 0.012453369 -0.073344566 0.0039036458
-0.097776994 -0.087035544 -0.0038808503 -0.06468783 0.0026044685 0.11086384 -0.09356525 -0.026220243
-0.10368631 -0.0039458335 0.032917622 0.09742383 0.002503977 -0.020607492 -0.14599791 0.028797392
0.0891279 -0.034982614 -0.001033983 -0.008212644 -0.13395688 0.06051588 -0.03386426 -0.08114435
-0.05483 -0.056495015 -0.06934011 -0.023951178 -0.140237 -0.08639342 -0.09392925 -0.09871076
-0.14312123 -0.12614118 0.045773093 0.119241774 -0.048892274 -0.045832798 0.0014577839 -0.0473929
0.09332652 -0.08416887 -0.0636672 -0.050037976 -0.053618867 -0.08071409 -0.1420585 -0.1642512
0.02516716 -0.09714745 0.11224059 -0.003326887 0.06781278 -0.016730297 0.02120602 0.03592331
0.025965324 0.030180495 0.019700456 0.011627368 0.020069731 -0.0074406364 -0.022624178 -0.059010997
0.028084848 -0.10904311 -0.0402742 0.11646055 -0.058971033 0.0030359214 -0.03884673 0.106463075
-0.020955695 -0.108986735 -0.045580458 0.025680589 0.082274325 -0.013554783 0.019728553 -0.013227896
0.008592176 -0.016613856 -0.08413024 -0.12203861 -0.08076156 -0.02214869 -0.010012552 -0.03638742
-0.036250465 0.020237917 0.09694369 0.0949153 0.007998159 -0.1605317 0.09871091 0.047970653
-0.065608725 0.046489436 -0.06599016 -0.10206546 -0.008876259 -0.07384288 -0.10170827 -0.055320572
-0.16050379 0.0908372 0.023868686 -0.06654388 0.038444083 -0.011655269 -0.025224976 -0.022473065
-0.072800145 -0.07415032 -0.078372836 -0.092000805 -0.050695293 0.05653432 -0.047347587 -0.0629491
-0.18990752 -0.082307704 -0.010000477 0.020269785 -0.02452957 -0.006493954 -0.05601166 0.020199796
0.052895594 -0.041642733 0.03850714 0.010114691 -0.11751796 0.059482563 -0.024949247 0.13205698
0.04926255 0.06856474 -0.07895805 -0.010172155 0.10909635 -0.079387836 -0.044509627 0.015018869

network_body._body_endoder.seq_layers.4.bias f4 [256]
00000000: 473c 0fbd a8cd 06bd 980d 56bd c969 f1bc
00000010: ecd2 71bd 5447 153d d3c1 45bd 0995 2b3d
00000020: e5eb 7a3d f6f9 6c3d a5b4 26bd de9a 36bd
00000030: bc67 6d3d 3c22 0d3d 5787 37bd 3c65 613d
00000040: e77d 403d 2a5e 50bd 09f5 9ebc c803 383d
00000050: 2f46 383d ee8e 69bd 266e 74bd 83df 613d
00000060: 123c 7d3b 1844 813d 46c4 64bd 70ce 683d
00000070: cf17 97bb 0be4 203d 427c 2a3d b2b7 73bd
00000080: b8e9 d9bb 5a79 573d e3b4 783d 2630 203d
00000090: 3831 6f3d 184e 72bd f055 81bd 42d3 233d
000000a0: bf3d 58bd f5f7 82bd 6f8c 65bc 5408 5a3d
000000b0: 8418 823d 9b09 3a3c 1ef5 a7bc c0c7 623d
000000c0: 959f 3b3d ece2 1e3d 8f79 583d 4439 353d
000000d0: 58ef 08bd 7373 633d b17a 45bd c1f4 2cbd
000000e0: 5114 873a 8b75 163d af4b 663d e2a6 38bd
000000f0: 8e01 0ebc 9e8f 70bd 07b8 313d 765b f03c
00000100: 4bc2 433d 5f74 e23c 5507 293d 06f3 463d
00000110: 5e7b bfbc a303 7abd 7cbe 58bd 1fb9 55bd
00000120: 4634 363c c6f8 68bd 5e37 92bc 1019 2b3d
00000130: dfc5 ebbc 5dbb 5d3d 4110 af3c e28d 053d
00000140: b290 323d a7bb 68bd 06cf cdbc bebb 78bd
00000150: 3d03 7dbd 2e6a 3fbd f1fc f9bb 386a 493d
00000160: 3763 3ebd e74f b73c 3daf 6b3d cbd6 4ebd
00000170: 3265 5d3a 19b4 6e3d a28e 3dbd 71be 493d
00000180: 1b07 22bd 3de0 0c3d 89cf 663b 1d45 03bd
00000190: 4290 b63c 5e02 653d be70 c0bc 0031 0abd
000001a0: de37 67bd 2b7c c53c 01c7 613d 99f6 5abd
000001b0: 89cb 813d 083b 1c3b 2edc 3e3d e836 41bd
000001c0: c8c5 54bd 71c0 433c 991d 573d 379c fd3c
000001d0: 13f9 37bc 30c6 4bbd 85a4 25bd 6052 2c3d
000001e0: bb91 233d 9732 ae3c b8ef 433d ac2f 4bbd
000001f0: 8370 05bc b119 14bd 74af 5ebd 03d4 6bbd
00000200: 7f85 df3c b8a8 0d3d 8b58 43bd f853 493d
00000210: d764 023d e24b 4fbd 3a0f 643d 97ab e9bc
00000220: 0aac 18bd 027f 58bd 02f0 ebbb 121e 133d
00000230: db16 27bd de32 703d d23d 123d 1f7b d7bc
00000240: 7318 5cbd 6af8 05bd 876c 613d e757 cf3a
00000250: 1914 37bd 5704 b33c 9a42 84bd 8ca1 283c
00000260: 219b 61bd 1d1d 743d 7255 2f3d 30ba 5bbd
00000270: bbc5 3e3d e88e 4c3d 50e1 193d 40ad 1d3d
00000280: 4636 30bd eeaa 6c3d a05c 1d3d d021 103d
00000290: f70a 3a3d 7816 62bd ffee 63bd 4fce 5a3d
000002a0: 6823 323d a0ab 5e3d e662 803d 7a8c 543d
000002b0: 2e1f 50bd beac 5f3d 73fa 5dbd 431d c8bc
000002c0: 06e2 3b3d e8c7 243d f22e 783b fbb3 773d
000002d0: d2c3 11bd 3b75 74bc 5aa1 013d e6f5 2b3d
000002e0: 8e3e 233d bc35 06bd c8f8 6d3d 2356 7d3d
000002f0: a143 2c3d 6388 673d 5369 adbc e326 40bd
00000300: 968b 153d 2171 66bd d4f9 65bd 083a 073d
00000310: c4af 323d d52e 553d 35c6 373d 9ae2 30bd
00000320: 96a9 f53c 6ba8 42bc d4ad febc 8427 7e3d
00000330: 8cbf 3a3d 2a28 1b3d ece3 a03c e6fc 87bc
00000340: f989 5db9 d3d8 803d a15f 71bd 857a 283d
00000350: 3b9a 35bd 1275 3e3d 27d0 623d cd95 71bd
00000360: 1b59 b1bc be67 39bd 1414 21bd 42ed 303d
00000370: 4703 17bd aad4 773d 7559 623d 3047 2c3d
00000380: c0da e63c bd15 bcbc b643 073d cf72 433d
00000390: d106 133d 41c6 853b 788e c9bc 12e4 68bc
000003a0: 69ec 12bc c1c7 7d3d 3877 873d 2699 ea3b
000003b0: 9b2d 723d ab95 fbbc 450a 873c eaf4 42bd
000003c0: 2bbd 293d 6f65 58bd 0bee 693d dd22 54bd
000003d0: bc52 853d c345 40bd 52ee cd3c 612e aaba
000003e0: 03bd 6d3c 02d9 363d 900d 313d 22a9 073d
000003f0: 213f f5bc d7ee 03bd 43a7 16bd b889 58bd
-0.034969594 -0.032910973 -0.052259058 -0.029469388 -0.05903904 0.036444977 -0.04828055 0.041890178
0.061260123 0.05785557 -0.04069962 -0.044581287 0.057960257 0.034456477 -0.044806805 0.055028185
0.04699507 -0.05087105 -0.019403951 0.04492548 0.044988807 -0.057021074 -0.05967536 0.055144798
0.003864054 0.06311816 -0.055851243 0.0568375 -0.0046109925 0.03927998 0.041622408 -0.059501357
-0.006650176 0.052605964 0.060719382 0.039108418 0.058396548 -0.059156507 -0.063152194 0.039996393
-0.05279326 -0.0639495 -0.014010533 0.0532306 0.06352332 0.011354829 -0.020502623 0.055366278
0.045806486 0.03879063 0.052850302 0.044244066 -0.03343138 0.055530023 -0.04821271 -0.042225603
0.0010305737 0.03673319 0.05622452 -0.045081027 -0.008667363 -0.058730714 0.043388393 0.029340487
0.047792714 0.02764338 0.041266758 0.04857161 -0.023374256 -0.061038624 -0.052916035 -0.0521785
0.011120861 -0.056877874 -0.017848667 0.04177195 -0.028780876 0.05413376 0.021370055 0.032606013
0.043595023 -0.056819584 -0.02512313 -0.06072592 -0.061770666 -0.04673212 -0.00762903 0.049173564
-0.046481337 0.022376968 0.057540167 -0.05049781 0.000844556 0.058277223 -0.046278603 0.049253885
-0.039557558 0.034393538 0.0035218915 -0.032048333 0.022285584 0.05591046 -0.02349126 -0.033738136
-0.056449763 0.02410706 0.055121426 -0.05345783 0.063376494 0.0023838896 0.0465967 -0.047171503
-0.05194643 0.011947737 0.05251846 0.030958278 -0.0112288175 -0.049749553 -0.0404401 0.042070746
0.0399339 0.021264357 0.047836035 -0.04960601 -0.008144501 -0.036157314 -0.054366544 -0.057575237
0.027285336 0.03458473 -0.047691863 0.049152344 0.03183445 -0.050609477 0.055678584 -0.028524203
-0.037273444 -0.0528555 -0.007200242 0.03591735 -0.04079328 0.05864226 0.035703488 -0.026303826
-0.053734254 -0.03270761 0.05503514 0.0015819044 -0.0446969 0.021852655 -0.06458016 0.010292422
-0.055079583 0.059598077 0.042806096 -0.05364436 0.04657529 0.049940974 0.03756839 0.038495302
-0.04302051 0.0577802 0.038418412 0.035188496 0.045420613 -0.05519721 -0.055647846 0.053419407
0.043490797 0.054362893 0.062688634 0.05189178 -0.050810985 0.0546081 -0.054193925 -0.024428016
0.04586985 0.040229708 0.0037869778 0.060474377 -0.03558714 -0.014920528 0.031648017 0.041982554
0.03985458 -0.03276609 0.058098584 0.061849725 0.042056683 0.056526553 -0.021168387 -0.046912085
0.036510073 -0.056260232 -0.056146458 0.033014327 0.043624654 0.052046616 0.04486676 -0.043184854
0.029988091 -0.011880974 -0.031088747 0.062049404 0.04559283 0.0378801 0.019639932 -0.016600084
-0.00021127601 0.06291356 -0.05892909 0.04113247 -0.04433654 0.046498366 0.05537429 -0.05898075
-0.021648934 -0.045264952 -0.03932579 0.043195017 -0.03686836 0.060505547 0.055261094 0.042060077
0.02818048 -0.022959584 0.03302356 0.047716912 0.035895173 0.0040824716 -0.024604067 -0.014214532
-0.008967497 0.06195808 0.06614536 0.00715937 0.059125524 -0.030711016 0.01648439 -0.04759685
0.04144017 -0.05283111 0.05711178 -0.05179106 0.06509921 -0.04694153 0.025138054 -0.0012983793
0.014510396 0.04464055 0.043225825 0.033120282 -0.029937329 -0.032210197 -0.036780607 -0.052865714

network_body._body_endoder.seq_layers.4.weight f4 [256, 256]
00000000: dca5 8abd 2ea1 143c 0b64 23bd 738a 1e3d
00000010: 0a82 093e f761 723d fffc c4bd 6d99 1bbd
00000020: c8f5 96bc 6d57 d53c 9610 023d 8173 803d
00000030: b730 fd3c b9c1 efbd aa2c 0a3c 6c12 70bc
00000040: bd0b 6ebd 2c53 a6bc 87cc a13d 9590 ae3c
00000050: 0382 cdbd 9423 d9bd 93d5 b33c 3690 b0bd
00000060: 94ec e33b 1b74 43bc 2b58 a3bd f18a 433d
00000070: fe9d 97bc 4e39 003d 4b0b 013d 7aa8 233d
00000080: 1cb1 21bc 12dc d8bd f328 e7bc 1310 d1bd
00000090: 23bd 633d d1e5 a0bd 5495 773d 4d19 073e
000000a0: f751 0fbe ba33 49bb e9b0 8b3d 43b3 f03d
000000b0: 91aa 5bbd f7bc 82bc ec00 f13c f647 1c3d
000000c0: 16fd ef3d caf7 a3bb ab0c eebd d793 abba
000000d0: e050 7ebd cb96 c03c 426c a23c 201c 19bd
000000e0: abc3 053a e9a6 2f3d f1a1 e1bc a26b 2f3b
000000f0: 2f40 973d 1b19 d1bc 31bc 20be 410c 3bbd
00000100: b5d4 ff3c e9db e33c 1265 e8bd e080 1e3d
00000110: 2927 923d 6e7d acbd b663 7bbd 04c2 4e3d
00000120: 24b9 ddbd 1651 813d 3576 7e3c a5ec b53d
00000130: d52a a2bc 4c9b 853d fc2c 4ebc 7587 17bd
00000140: 497c 6ebd 618f d0bc 0808 03be 490c 03bd
00000150: d8a2 cebb a795 8d3d 61b8 813c 1e70 90bd
00000160: cd9c 0e3d 3e2d cf3d 234a 463c baee e93b
00000170: 4dbb 653d 7ad7 26bd c8c5 ee3a ddc5 02bd
00000180: f424 7cbd 195c fa3d 9c16 0f3d 085a 493c
00000190: e9bc b7bc a3ff 1dbd feae 1e3d c82c 793d
000001a0: 18e0 dbbd 5915 d23d 16f8 393d 7641 1bbd
000001b0: 87bd 15bc c726 97ba 8aff cfbc d229 ffbb
000001c0: 21c3 0ebe 324f f3bd e599 bc3b dd2a de3d
000001d0: 8cfc 4a3d 3b00 fa3c 19fd 4c3d 00a1 5d3d
000001e0: e13d b93c e688 be3c 345a 5c3d 07be f7bb
000001f0: bbb5 cdbd 0700 0e3d b730 aebc 28b8 c43d
00000200: 481f a4bd 97b2 17bd 960d e9bd 98a3 fdbd
00000210: babb ccbd 52c3 663d aa3e f43d 964c 0b3d
00000220: 548a e23b cef4 913c eae2 933d 1efa de3d
00000230: 3236 64bc fa8b 673c 37de e3bc 4ec2 4a3d
00000240: 4251 2bbc 053b 85bd c23a 4ebd a1a1 7cbd
00000250: 5e2d 0bbd 9482 e3bc e7ac 983c 73f8 a63c
00000260: 0f59 6d3c d24e cfbb ebed 1dbc 5bd9 f63d
00000270: d549 133e 27f9 5a3c 1b4c 27bc 4d5c 313c
00000280: 1f65 233d cb0d 5f3d e905 8a3a 92b2 fd3d
00000290: c4ed 983d c9e6 4fbc 689b a3bd d351 be3b
000002a0: 4fe4 fcbd 23c2 463c 1ccd 9e3d 5bec 903d
000002b0: b478 093d 477c 92bd 8f4a 78bd b1f5 363d
000002c0: f4cc 433d 71fa c03c 74b7 a73d 0a7a 01bc
000002d0: 9b8a f63c ca36 b83d 41e4 97bc 7ee5 2e3d
000002e0: 6caa 42bd c5c0 463c f803 0a3c 1fb5 19be
000002f0: 2367 6fbd 3fd7 76bd cc7c 3bbe 1a3e 803d
00000300: 3fb5 34bd 6922 acbc 3905 c33c fe4a c9bc
00000310: 7df9 123d 782d 093c 58a0 22bc 0d28 873c
00000320: 6b7d 553d d0ad 28bb 710d dfbd 6ce1 ff3c
00000330: 92a2 3f3d f928 b3ba 5ce7 2b3e 1639 c13b
00000340: 227d 61be edde 4cbe 7ed6 c1bd 2a53 5bbc
00000350: 93ad aa3c 8297 643b 9cfe 9abd d3e8 073e
00000360: 919b 06bc a3df 4d3b b7ac 853d 9e3a f23a
00000370: a824 d4bc ec60 a0bd c62d 1dbd fe15 e83d
00000380: c8f2 f2bd 6aa4 28bd 3233 5c38 7d70 9b3d
00000390: 5e73 62bd d753 153d b560 eabc 4a5c 84bd
000003a0: 9964 19bd bb55 ab3d a9b5 dfbc 8b14 2c3c
000003b0: 2e08 febc c877 08bc b955 413c 6644 a23d
000003c0: cc53 e13d c694 5cbc 3935 afbc 07fa 893d
000003d0: 0eeb 1a3d 6766 07bc 0820 0b3e 826a adbd
000003e0: b784 ab3c d1c0 1c3d 45c9 38be 2dfb 083d
000003f0: 5c3c 4d3c 6f70 313d 0d84 bfbb 90bd 623c
-0.067699164 0.009071631 -0.03989033 0.038706254 0.13428512 0.059175458 -0.09618568 -0.037988115
-0.018427745 0.026042664 0.0317541 0.062720306 0.030907018 -0.117068715 0.0084335 -0.01465283
-0.058116663 -0.020303331 0.079003386 0.021309176 -0.100345634 -0.10602489 0.021952426 -0.08621256
0.0069556925 -0.011929537 -0.07975801 0.047739927 -0.018507954 0.03130465 0.03150491 0.039955594
-0.009868886 -0.1058885 -0.028217768 -0.10208144 0.055600297 -0.07856334 0.060445145 0.13193245
-0.13996111 -0.0030700997 0.06820852 0.117529415 -0.05362946 -0.015959246 0.029419385 0.038154565
0.11718194 -0.005003904 -0.1162351 -0.0013090324 -0.062088847 0.023509404 0.019827012 -0.037380338
0.0005102704 0.042883787 -0.02754304 0.0026767035 0.07385289 -0.025524667 -0.1569679 -0.045665983
0.031229356 0.027814822 -0.11347403 0.038697124 0.071363755 -0.08422361 -0.06137439 0.050477996
-0.108263284 0.06314294 0.015531112 0.08883027 -0.019795815 0.06523761 -0.012583967 -0.036994416
-0.058223996 -0.025458993 -0.12796032 -0.031994138 -0.0063060336 0.069133095 0.015834989 -0.07052635
0.034817506 0.10116051 0.0121026365 0.007139054 0.056086827 -0.04073284 0.0018216902 -0.03192698
-0.06155868 0.122245975 0.03493367 0.0122895315 -0.022428947 -0.038573872 0.038741104 0.060833722
-0.10736102 0.10257978 0.04540261 -0.037904225 -0.009139425 -0.0011531942 -0.025390405 -0.007786968
-0.13941623 -0.1188034 0.0057556503 0.10848019 0.049557254 0.030517688 0.05004606 0.05410862
0.022612514 0.023258638 0.053796962 -0.007560495 -0.10044428 0.034667995 -0.021263463 0.096054375
-0.08013779 -0.03703555 -0.113795444 -0.12384719 -0.099967435 0.056338616 0.11926015 0.034008585
0.0069134627 0.017816927 0.07221015 0.1088755 -0.013928937 0.014132494 -0.027815921 0.04950171
-0.010456385 -0.06505398 -0.050349005 -0.06167758 -0.033978812 -0.027772225 0.018637134 0.020382142
0.014486565 -0.006326535 -0.009639244 0.12053176 0.14383633 0.013365067 -0.010211016 0.010825229
0.03989136 0.054456513 0.0010530326 0.12387575 0.07467225 -0.012689301 -0.07988626 0.005808094
-0.12348234 0.012131247 0.07753965 0.07076331 0.033562377 -0.0715261 -0.06061798 0.044667903
0.04780288 0.02355692 0.08189288 -0.007902632 0.03009539 0.08994825 -0.018541457 0.04269933
-0.04752581 0.012130921 0.008423798 -0.15010498 -0.05844797 -0.06026387 -0.18309325 0.06261845
-0.044118162 -0.021012502 0.023806201 -0.024571892 0.03588246 0.008372657 -0.009925924 0.01649859
0.05212156 -0.0025738366 -0.108912356 0.03123542 0.0467859 -0.0013668827 0.16787475 0.0058966978
-0.2202039 -0.20006914 -0.09464739 -0.013386527 0.02083472 0.0034880345 -0.07568094 0.13272409
-0.008215801 0.0031413815 0.06527083 0.0018480604 -0.025896385 -0.078309864 -0.03837373 0.1133232
-0.11862713 -0.041172422 5.2499767e-05 0.07589815 -0.055285804 0.03645691 -0.028610567 -0.06462915
-0.037449453 0.08365961 -0.027308302 0.010502945 -0.03100976 -0.008329339 0.011800223 0.07923202
0.11002311 -0.013463205 -0.021387683 0.06737142 0.037821822 -0.008264161 0.13586438 -0.084675804
0.020937307 0.03826982 -0.18045528 0.033442665 0.012526598 0.043320116 -0.005844599 0.013839141

network_body.observation_encoder.processors.0.normalizer.running_mean f4 [6]
00000000: 229e f8bd 0992 f241 3524 ad41 451f 01c2
00000010: c631 b33f df50 8ec2
-0.121395364 30.321306 21.64268 -32.280537 1.3999565 -71.15795
