Assets/Training/results/learn_v1_4/MarsTaxi/MarsTaxi-1499939.onnx (onnx, 542464 bytes, 10 tensors)

54 f4 [6]
000000 ed d2 15 42 73 1e 7e 41 3e 49 39 42 22 4c d8 3c
       37.455982 15.882434 46.321526 0.02640349
000010 52 47 b8 3a dd 41 6e 3d
       0.0014059341 0.05816828

action_model._discrete_distribution.branches.0.bias f4 [6]
000000 44 7b 1e 3d d3 e8 b6 3b e4 0d d3 bc 31 a7 27 bd
       0.038691774 0.005581954 -0.02576346 -0.04093093
000010 79 f2 d0 bc c7 1a 91 bc
       -0.025506245 -0.017712964

action_model._discrete_distribution.branches.0.weight f4 [6, 256]
000000 92 5c a2 bc ac 11 7e bc 0a 12 a7 bd a6 d6 30 bc
       -0.019819532 -0.015507143 -0.081577376 -0.010793364
000010 dc 99 7f bd c3 bc 0c 3d 03 0d 52 bd f3 28 dd 3c
       -0.06240259 0.034359705 -0.05128194 0.026997065
000020 5e 37 bc 3d 91 41 76 3d c9 01 e7 bc 8a 4a 08 bd
       0.09190248 0.060121123 -0.028199093 -0.03327421
000030 a0 25 90 3d ed 2e 69 3d bf b6 3f bd 49 3d a7 3d
       0.070384264 0.056929518 -0.04680514 0.08165986
000040 08 b6 e3 3c ae e7 1d bd af ac 14 3b 4b aa 0c 3d
       0.02779676 -0.038551025 0.0022685935 0.03434209
000050 c6 89 df 3c c2 0b 6f bd 03 46 9b bd 2c b7 1b 3d
       0.027287375 -0.058360822 -0.07581713 0.038016483
000060 83 08 92 bb df 5a c6 3d 6b b3 91 bd 03 2c de 3c
       -0.004456581 0.09685301 -0.071142994 0.027120596
000070 fa 33 d8 bc c9 a9 e9 3c f1 33 a4 3c 00 a1 87 bd
       -0.026391972 0.028523343 0.020044299 -0.06622505
000080 11 1e f1 bb df 55 a6 3d d4 ae 85 3d 40 03 10 3d
       -0.0073583205 0.08121847 0.065274864 0.03515935
000090 17 6f bc 3c 90 de 80 bd 0a 93 56 bd 6e 1f 59 3c
       0.02300219 -0.062924504 -0.05238632 0.013252122
0000a0 bc 30 8d bd a2 1b 91 bd ef 76 7e bc b1 e3 45 3d
       -0.06894061 -0.07085349 -0.015531286 0.048312847
0000b0 e1 09 b8 3d 63 a4 83 bc ff f7 97 bc 28 91 97 3d
       0.08986259 -0.016069597 -0.018550871 0.07400733
0000c0 61 8a 0f 3d 27 d2 a3 3c c0 5c 3a 3d 23 28 54 3d
       0.035044078 0.01999767 0.04549861 0.05179609
0000d0 29 de 9a bc c7 8a 94 3d 4d 36 7d bd e5 81 6b bd
       -0.018904762 0.07253032 -0.061819363 -0.057496924
0000e0 bc 0c 83 bb 97 d5 dc 3c cc e5 9a 3d 08 1b 99 bd
       -0.003999321 0.026957316 0.075633615 -0.07475859
0000f0 b3 4c 06 bd 47 5b 99 bd d6 92 3d 3c c5 33 de bb
       -0.03278799 -0.07488113 0.011570653 -0.0067810738
000100 04 58 2c 3c dd 24 10 3c 6e 95 d6 3c 8f 25 3b 3d
       0.010519031 0.008797851 0.0261943 0.045690116
000110 db af 8e bc 87 8b 64 bd 80 2a 83 bd f3 8a 92 bd
       -0.017417839 -0.055797126 -0.064045906 -0.07155409
000120 8a a7 c4 3b 6e 6f 6a bd 45 cc 61 bc 6c 72 d2 3c
       0.0060014175 -0.057235174 -0.013781612 0.025689326
000130 eb a5 1f bd 48 60 8f 3c fd a5 80 3c ec 69 70 3c
       -0.03897659 0.017501965 0.01570415 0.014673691
000140 8d e4 bb 3c 7c f9 81 bd b3 69 30 bd 48 d2 8d bd
       0.02293613 -0.063464135 -0.043069553 -0.069248736
000150 fe 7e 92 bd b4 6e 7d bd 1c 16 04 bc 42 51 8d 3d
       -0.07153128 -0.061873153 -0.008061912 0.06900264
000160 ca f0 a5 bc a0 f1 40 3c 30 c9 8c 3d 58 b2 96 bd
       -0.020256419 0.011776358 0.06874311 -0.07358235
000170 1d dd 60 3c d2 f6 d2 3c 16 95 ac bd e1 41 58 3d
       0.0137245925 0.025752459 -0.084268734 0.052797202
000180 11 ea 36 bd 8e 98 aa 3b 64 49 40 3c e0 ee 8c bd
       -0.044656817 0.005206174 0.011736248 -0.06881499
000190 3d 0c e8 3c f1 71 25 3d bb 61 af bc 96 b6 d3 bc
       0.028326148 0.040391866 -0.021408906 -0.0258439
0001a0 7a c9 83 bd de c7 1d 3c 7f eb 56 3d 91 47 9f bd
       -0.06434913 0.009630172 0.05247068 -0.07777322
0001b0 9f d5 b3 3d 2e 09 2f b9 b3 cc c4 3c 3d e9 58 bd
       0.08780979 -0.0001669272 0.02402339 -0.05295681
0001c0 1e 21 62 bd f5 29 2c 3c 02 df 34 3d 45 7e 29 3c
       -0.055207364 0.01050805 0.04415799 0.010345046
0001d0 df 9e 9d 3c 0d eb 8e bd 8c 56 19 bd f5 3e f6 3c
       0.019240795 -0.06978426 -0.037436053 0.030059317
0001e0 d3 3a e8 3c 8a 5f 3d 3c 37 e1 4c 3c 61 61 5f bd
       0.028348362 0.011558423 0.012504867 -0.054536227
0001f0 2e 9b d3 bc 5d 57 06 bd 8b fa 91 bd 4f 08 9e bd
       -0.025830831 -0.03279816 -0.071278654 -0.077164285
000200 df 3f 8a 3c b3 a7 97 3d 80 a2 1a bd 54 68 03 3d
       0.01687616 0.07405033 -0.03775263 0.032081917
000210 51 8f c9 3c 5f d8 b1 bc 25 d3 f7 3c dc cf 92 3b
       0.024604471 -0.02170962 0.030252049 0.004480345
000220 a6 cb 97 bc 0b a9 8e bd b0 e8 01 bd f3 e2 c3 3c
       -0.018529724 -0.06965836 -0.03171605 0.023911929
000230 62 fe 12 bd e0 10 cd 3d 72 5a ca 3c 55 e9 00 bd
       -0.03588713 0.10012984 0.02470133 -0.031472523
000240 6e d3 63 bd 13 d2 19 bd e7 f9 5c 3d 5e e5 5b 3b
       -0.055621557 -0.037553858 0.053949263 0.0033553462
000250 e7 5b 64 bd 90 8b 34 bc 3b 72 ad bd d1 b7 28 3a
       -0.055751707 -0.011019602 -0.08469053 0.0006436082
000260 fb aa 62 bd 9f 9c 4a 3d 4a 8c ff 3c fc 0b 97 bd
       -0.05533884 0.04946577 0.031194825 -0.07375333
000270 f3 d6 fd 3c 6d c3 d0 3c 78 9e fe 3c c7 19 12 3d
       0.030986285 0.025483811 0.031081423 0.035669114
000280 c7 52 40 bd 9e f1 a0 3d c5 f4 82 ba 8a d8 37 3d
       -0.046953943 0.07858585 -0.000999116 0.044884242
000290 66 cc a0 b9 07 0c 80 bd 7b 51 51 bd 6c 25 73 3d
       -0.00030669867 -0.06252294 -0.051103096 0.05936186
0002a0 56 b6 e4 3c 04 26 62 3d b7 45 66 3d f2 b9 60 3d
       0.027918976 0.055212036 0.05621883 0.05486483
0002b0 28 59 8c bd 2e cd 46 3d c2 76 a2 bd 90 d3 67 bd
       -0.06852943 0.04853552 -0.079328075 -0.056598246
0002c0 67 77 89 3d e9 2d 14 3d 62 bb 11 bb 6c e1 68 3d
       0.06712227 0.036176596 -0.0022236933 0.056855604
0002d0 eb eb 15 bd a2 39 53 bc d2 32 97 bb 00 9f b6 3c
       -0.036601942 -0.012892159 -0.0046142126 0.022292614
0002e0 d6 fc 2a 3d 53 a7 eb bc 2d 26 7c 3d a6 38 d2 3d
       0.04174503 -0.02876631 0.061559845 0.10264711
0002f0 cb f0 11 3d a7 c9 74 3d bb 26 c1 bc 46 02 87 bd
       0.03563003 0.059762623 -0.023578038 -0.065922305
000300 b9 20 f0 3c 57 0c 1d bd 21 8c 70 bd 41 74 b5 3c
       0.029312478 -0.038341846 -0.058727387 0.02215016
000310 93 61 81 3c e5 2c 5b 3d 04 f2 f7 ba 88 9b 5a bd
       0.015793597 0.05350961 -0.0018916731 -0.053370982
000320 57 cd d5 3c c2 4c 2d 3a 52 8a 29 bd ba 35 b8 3d
       0.02609889 0.0006610864 -0.04139168 0.089946225
000330 14 a3 e0 3c 0b d4 d6 3c 6a f2 a4 bb e2 c9 90 bc
       0.027421512 0.026224157 -0.005033781 -0.01767439
000340 ed 60 31 bc 47 24 ae 3d 6f 4e 86 bd e2 42 9f 3b
       -0.010826332 0.08503013 -0.06557929 0.004860268
000350 a1 d7 19 bd 5c 44 3f 3d ec 62 3c 3d 6a 32 aa bd
       -0.037559155 0.046696052 0.045992777 -0.08310397
000360 e7 e0 8e bc 31 b8 18 bd ba 27 0d bd 95 e8 4f b9
       -0.017441226 -0.037285034 -0.034461714 -0.00019827702
000370 1b 31 e9 bb ab 42 c3 3d cb 78 78 3d a7 a7 26 bc
       -0.0071164495 0.095342 0.060662072 -0.010171807
000380 51 96 3e 3c 7e 25 cd bc 95 2d 02 3b 5c d6 6a 3d
       0.011632518 -0.025042292 0.0019863595 0.057333335
000390 e1 9f da 3c 2c d0 d1 bc 3f 89 a4 bc 24 61 6b 3c
       0.026687564 -0.02561196 -0.020084975 0.014366422
0003a0 95 d0 6f bc 53 2a 90 3d 0b 65 db 3d 79 b1 fa 3b
       -0.014637132 0.07039323 0.10712632 0.007650551
0003b0 78 65 5c 3d 3d 74 24 bd 61 ca 81 3a ee 45 9e bd
       0.053807706 -0.040149916 0.0009902233 -0.07728182
0003c0 69 a5 10 bc 9b 7e 3a bd 32 65 47 3d 96 b5 50 bd
       -0.008828499 -0.045530897 0.04868049 -0.050954424
0003d0 74 f2 a0 3d de b8 27 bd 1b a3 93 3b a9 ca 92 3c
       0.07858744 -0.040947787 0.0045055277 0.017918902
0003e0 0f 9d 1b bb 19 fb d2 3c d8 f9 01 3d 0b d1 e5 3b
       -0.0023744737 0.025754498 0.03173241 0.0070134453
0003f0 9f 53 39 bb 3d 4f 25 bd 7d d8 0c bd 7d 6f 84 bd
       -0.0028278602 -0.04035877 -0.034386147 -0.06466577

network_body._body_endoder.seq_layers.0.bias f4 [256]
000000 39 39 c3 3c 17 26 87 3c 8b 00 01 3d 58 2c 0e bc
       0.023830997 0.016497655 0.03149466 -0.008677565
000010 bb 5b b9 3c 61 f2 f5 3b 38 f7 21 bd f2 7e 72 3d
       0.022626748 0.0075057005 -0.039542407 0.059203096
000020 ea 24 8a 3d ca 0a 05 3d 98 62 61 3d 9d e2 f5 3c
       0.06745322 0.032480992 0.055025667 0.030015284
000030 2f e1 91 3d f7 0d 21 bd 33 41 a3 bd 41 ab 6c 3c
       0.071230285 -0.03931996 -0.0797142 0.014445127
000040 9b 04 5d 3d 52 06 99 bd 92 55 4f 3d 78 5f 78 3d
       0.05395947 -0.07471909 0.050618716 0.06063792
000050 db f1 a5 3d 6b 8a 28 3d 23 4c a6 ba 50 5b 92 3d
       0.08102771 0.04114763 -0.0012687485 0.07146323
000060 85 28 63 bc 0d eb 4a 3d 1f 8e 9e 3d 47 46 e1 3c
       -0.013864641 0.04954057 0.07741951 0.027499331
000070 15 60 b0 3d 77 01 91 3d 3c 66 89 3d 65 f1 15 3d
       0.08612076 0.070803575 0.06708953 0.036607165
000080 8e 2b 40 bd 4d a6 88 bd b6 10 1d 3d bf 5a 82 3d
       -0.046916537 -0.06672344 0.038346015 0.06364965
000090 d6 38 98 3d de 61 9f bd 2b 54 95 3d 35 8d 8d 3d
       0.074327156 -0.077823386 0.072914444 0.06911699
0000a0 11 37 b8 ba f1 74 07 3d 27 54 61 bc 43 b8 83 3c
       -0.0014054497 0.03307051 -0.013752974 0.016079074
0000b0 28 0e ee bc 54 d4 ba ba 0b 6e 5c 3d 1f b7 91 3d
       -0.029059485 -0.0014253953 0.053815883 0.07115006
0000c0 ce 99 40 3d 52 b7 9f 3d 50 b4 87 3d 95 f1 8f 3d
       0.04702168 0.077986374 0.06626189 0.070285
0000d0 97 d2 6a 3d 6d aa 8d 3d e3 99 96 3d b7 1f 8f 3d
       0.05732974 0.06917272 0.0735357 0.06988471
0000e0 b7 ef 8b bc d0 1f 6e 3d a4 20 82 bd 9f 55 92 3d
       -0.017082078 0.058135808 -0.06353882 0.07145237
0000f0 71 17 91 bd 26 9e 8f 3d 59 d5 ab 3d 6f f4 54 bd
       -0.07084549 0.07012586 0.08390302 -0.051990923
000100 28 95 ac bd 82 ca a7 bc 41 39 6a 3d c4 07 9c 3d
       -0.08426887 -0.020482305 0.057183508 0.07618669
000110 24 20 bb bc 7c 4e 7c 3d 0b 5d 92 3d 18 3d b6 bd
       -0.022842474 0.061598286 0.07146653 -0.088983715
000120 d4 00 0a 3c 31 40 0f 3d 55 5b 7a 3d db 2c 17 3d
       0.008423049 0.034973327 0.061122257 0.036908012
000130 f6 b5 82 3d a6 a5 92 3d 0b 65 92 3c 07 38 74 bd
       0.063823625 0.07160501 0.017870447 -0.059623744
000140 93 5b 86 bc fd 24 64 bc c1 b2 86 3d 70 7c dc 3b
       -0.016401088 -0.013924834 0.06577063 0.0067287013
000150 7f 90 61 bd 0f 97 5e 3d 0d 49 68 3d 75 0c a4 3d
       -0.055069443 0.05434328 0.05671029 0.080101885
000160 7a 0c 99 3d 5f 97 39 bd 9b 38 3c 3d 04 0c a6 bd
       0.07473083 -0.045310374 0.04595242 -0.081077605
000170 92 bb 85 3d 49 12 ea bc 5f f4 5b 3d 95 f4 9e bc
       0.06529917 -0.028573172 0.053699847 -0.019403735
000180 4d 5a 78 3d 52 6c 88 3d 73 4a 6c 3d ee 99 1d bd
       0.060632993 0.066612855 0.057688188 -0.038476877
000190 65 cd 28 bd 8d 19 88 3d 5c fc 67 3d 9f 8e 93 3d
       -0.041211504 0.066454984 0.056637153 0.07204937
0001a0 16 ce ab 3d 24 f2 a5 3d d0 fc 9d 3d 6b 45 66 bc
       0.08388917 0.08102825 0.07714236 -0.0140546365
0001b0 b9 f1 3e bd c4 ed a2 3d 37 46 95 3d 41 50 39 3c
       -0.046617243 0.079555064 0.07288783 0.011310638
0001c0 30 17 93 3d b0 dc 67 3d 48 8c 85 bc 3a 8a da bc
       0.07182157 0.05660695 -0.016302243 -0.02667724
0001d0 37 fd 4d 3c c4 64 95 3d 61 0e 82 3d 5b 13 c7 bc
       0.012572578 0.0729461 0.06350399 -0.024301222
0001e0 b0 28 67 3d 67 9b 83 3d dc 66 d3 bc 18 1f 8c 3d
       0.056435287 0.06426125 -0.025805883 0.06841868
0001f0 89 5d 29 3d 9d 3c 26 bd 2a 93 87 3d c4 80 5a 3d
       0.041348968 -0.04058515 0.06619866 0.053345457
000200 cf 16 83 3d 4b dd 64 3d 75 74 8b bd 71 c3 6c bb
       0.06400835 0.055875104 -0.06809322 -0.0036127234
000210 be 2d a2 bd 1e 4c 47 bd a6 c6 98 3d d9 7d a0 3d
       -0.07918881 -0.048656575 0.07459764 0.078365035
000220 5b d9 32 3d b5 a9 11 bd 70 b0 5f 3d 34 f2 82 3d
       0.043664318 -0.035562236 0.054611623 0.06393853
000230 cf eb 94 3d b9 7d 5f 3d 04 18 84 3d 25 6e 6a 3d
       0.072715394 0.054563258 0.06449893 0.05723395
000240 f0 05 55 3d f0 c7 4e bc e9 a9 91 3d 23 cb 9c 3d
       0.052007616 -0.012620911 0.07112486 0.07655933
000250 b5 f6 88 3d a2 1f 96 3d e6 f3 62 3d 65 f4 59 3d
       0.06687681 0.07330252 0.05540838 0.05321159
000260 8c ca 8b bc 70 0c 86 3d 04 d4 93 3c e0 02 a9 bb
       -0.017064355 0.06545341 0.018045433 -0.0051578134
000270 dc e3 d6 3c ed 3c 5c bc 41 b5 92 3d 38 b8 a1 3d
       0.026231699 -0.01344226 0.07163478 0.07896465
000280 9d d7 28 bc 5e 1e 87 bc 35 c1 77 bd 9d 2b 8a bd
       -0.010305312 -0.016493972 -0.06048699 -0.067466
000290 ef 12 04 bc 70 ee 39 bd 0b 32 97 3d 99 fe 84 bc
       -0.008061155 -0.045393407 0.07382592 -0.016234683
0002a0 ff c1 2d 3c 9b de 63 3d b3 aa 4c 3d 78 2f 56 3d
       0.010605334 0.055632215 0.04996748 0.052291363
0002b0 b8 9d 17 3c ad 0e f2 bc b5 25 95 3d c9 dd 02 3c
       0.009253912 -0.029548014 0.07282583 0.007987448
0002c0 27 fe 92 bc 53 08 98 3d 60 9a 9d 3d 49 9c 9e 3d
       -0.017943455 0.07423463 0.0769546 0.07744653
0002d0 3e d8 1e 3c f6 53 9b 3d ea 6c 9e 3d 01 9e 58 bd
       0.009695111 0.07584374 0.077356175 -0.05288506
0002e0 d4 1c 35 3d 4e 66 86 3d 46 cf bb bc 79 b0 5c 3d
       0.044216946 0.06562482 -0.022925984 0.053879235
0002f0 b7 e4 6b bd b0 92 8d 3d e2 55 90 3d 0e 41 85 3d
       -0.057591166 0.06912744 0.07047631 0.06506549
000300 c6 5d 85 bd 45 d1 d0 3c cd 60 0a bd 96 82 68 3d
       -0.065120265 0.025490412 -0.033783723 0.05676516
000310 03 b8 4f bd 6f f7 33 3c d7 b2 80 3d 61 46 30 bd
       -0.050712597 0.010984286 0.06284111 -0.04303587
000320 92 e4 92 3c ad fe fd 3b 8e 96 c6 bc a7 2f e7 bc
       0.017931256 0.007751307 -0.024241712 -0.028220965
000330 ea 4c 02 3d 75 49 89 3d cb 4c 26 bd 73 89 09 bd
       0.031811632 0.06703464 -0.04060058 -0.033578347
000340 d4 e2 3c 3d c6 9c 8f 3d dc 8b 6d bd e1 0f 5f 3d
       0.046114758 0.07012324 -0.05799471 0.054458503
000350 3c a3 9b 3d 29 1b 48 3b 2f 84 5c 3d 0d 65 88 3d
       0.07599494 0.0030533767 0.053836998 0.06659899
000360 ee ac 7e 3d af e6 a8 3d 9e 81 8c bc d4 cd 8a 3d
       0.062176637 0.082471244 -0.01715165 0.0677754
000370 87 86 7d 3c c3 7b a0 3d e6 8d 37 3d 85 ae 9b 3d
       0.015473968 0.07836106 0.04481306 0.07601646
000380 3b 25 f2 3c 03 de 9b bb 42 1a 58 bd bd f1 cd bc
       0.029558768 -0.0047566905 -0.052759416 -0.025139684
000390 c5 8a 0b 3d 2a 93 8c 3d 76 10 9e 3d bb 57 92 3d
       0.034067888 0.06864007 0.077179834 0.071456395
0003a0 05 4e 57 3d 34 c9 16 3d 9d b8 1c 3c f0 b6 5f 3d
       0.05256464 0.036812976 0.0095655 0.054617822
0003b0 6d 8b 56 3d ac dd 85 3d 16 96 5c 3d 8c 54 81 3d
       0.05237906 0.06536421 0.05385407 0.06314954
0003c0 f7 cf 7f 3d dc b1 a2 bd b7 e4 8a bd bb a8 8f 3d
       0.06245419 -0.0794408 -0.06781905 0.07014605
0003d0 c9 b5 94 3d 63 86 91 3d 48 04 97 3d b0 39 7d bd
       0.07261235 0.0710571 0.073738635 -0.061822593
0003e0 88 8d 8f 3d bc ec 92 3d 93 6c 0c bc a9 76 86 3d
       0.07009417 0.0717406 -0.008570808 0.065656014
0003f0 7d 15 53 bd 1d c0 6b 3d cd 2a 7b bd 4f 3a 7e 3d
       -0.051534165 0.05755626 -0.061320115 0.062067326

network_body._body_endoder.seq_layers.0.weight f4 [256, 6]
000000 87 68 0a bf 5b c7 8a bf 93 71 d1 be 59 e8 dc be
       -0.54065746 -1.0842088 -0.40906963 -0.43146017
000010 75 64 ff be 82 8a 88 be d7 9b 16 3f 92 a6 86 be
       -0.4988133 -0.26668173 0.5883154 -0.26298958
000020 25 2a e5 3e 06 f9 b4 bd 3b 1f 14 3f 6e 3a 06 bf
       0.44758716 -0.0883656 0.57860154 -0.52432907
000030 ad 22 f5 3e 1d 17 b5 3e 87 16 4e 3e 55 c8 5b bf
       0.47878018 0.35369197 0.20125781 -0.8585256
000040 db fb c4 be 29 17 c4 3e f1 23 5b 3e 36 85 30 bf
       -0.384734 0.3829892 0.2140043 -0.68953264
000050 95 a2 5b bd 37 ff e3 3d a5 65 6a bf 2c cb ab be
       -0.053621847 0.11132663 -0.9156135 -0.33553445
000060 6f b2 ec bd eb 5d ca be d3 fe cc 3e 2e f7 1e bf
       -0.11557471 -0.3952478 0.40038165 -0.62095916
000070 61 6e b9 3e 0e ee 24 bf f1 b6 c6 3e d7 ec 22 3e
       0.36217025 -0.6442574 0.38811448 0.1591066
000080 b9 1f 7a 3e 84 ab 05 bd 4d 47 46 bd 27 45 88 3e
       0.24426164 -0.032634273 -0.04840784 0.2661526
000090 c3 30 f0 3e 84 50 17 3d 86 77 36 3f c8 3d 91 3e
       0.46912202 0.03694202 0.7127613 0.28367448
0000a0 4f 14 38 3e 0d 0a 94 bb 50 bc 4d bf cd f7 b2 3d
       0.17976497 -0.0045177997 -0.8036547 0.087386705
0000b0 bb dc 10 bf d9 0d 80 3f ad b5 8f 3e 9b b5 6d 3f
       -0.5658681 1.0004226 0.28068295 0.9285523
0000c0 c3 35 83 3d cf 56 ff be 87 c5 a4 be 56 3f c5 b9
       0.064067386 -0.49870917 -0.3218195 -0.00037621957
0000d0 49 66 8f be 6f 76 a6 be 5f ad 87 bc 87 b3 06 3f
       -0.28007725 -0.32512233 -0.016562162 0.52617687
0000e0 14 8e 82 3c af d2 42 3f 9b 93 6a 3e e3 9b 52 be
       0.015936889 0.7610273 0.2290787 -0.20567279
0000f0 f9 9c e8 3e 91 e4 96 bc a0 5d 38 be 79 2c 24 bf
       0.4543226 -0.018419536 -0.18004465 -0.6413036
000100 a8 1c e3 3e 4b b4 d5 3d ab 7c 95 be 74 d0 a7 be
       0.443578 0.10434779 -0.29196677 -0.32776225
000110 94 e3 c1 bd 2b c6 02 be 8e 31 0f 3f f9 59 dc bd
       -0.09467235 -0.12770908 0.5593499 -0.107593484
000120 dd aa 4c be b0 65 22 bf 1d 2a 81 be 32 49 07 3e
       -0.19987054 -0.6343641 -0.25227442 0.13211516
000130 0a 5b 0d bf b0 6c 5b be 5d 34 ba 3e 32 79 e9 be
       -0.5521704 -0.2142818 0.36368075 -0.45600277
000140 a6 9b bf 3e ef 7d 82 3e 91 d4 9c be 6d 4f 5f be
       0.37423438 0.25486705 -0.30630925 -0.21807642
000150 4d 72 89 3e e5 7c 4d 3e 10 96 2d 3e 3a 77 c3 be
       0.26845017 0.20067175 0.16951776 -0.381769
000160 1d 3d 35 bf a6 8b 1a 3e fa e1 35 3f 4c 70 4d 3e
       -0.70796376 0.15092334 0.7104794 0.20062369
000170 e9 d1 70 3e 71 f7 d1 3e 57 91 18 3f e7 bc 2d be
       0.23517574 0.41009095 0.5959677 -0.16966592
000180 65 39 13 3e 8c 54 f0 bd 5c 0e 20 bf c0 a2 65 3d
       0.14377363 -0.11734876 -0.6252191 0.056063414
000190 a6 1f 10 3e c9 26 7a 3e 25 eb aa 3d bf b0 e0 3e
       0.14074573 0.24428858 0.083456315 0.43884847
0001a0 c8 8c f5 bd ba da 40 3f 12 dc ed 3c ff 75 80 3d
       -0.119897425 0.7533375 0.029035602 0.06272506
0001b0 6c 06 13 3e 14 c0 59 3f ac e0 cc be 04 c2 d7 be
       0.14357919 0.8505871 -0.4001516 -0.4214021
0001c0 fc 4a 41 3e 38 0e db be 4a 1b 31 bf 39 08 f7 3d
       0.1887626 -0.42784286 -0.69182265 0.12062115
0001d0 02 3e bb be d0 96 82 3f 8f 85 ca 3d c9 fb b9 be
       -0.36570746 1.0202274 0.098887555 -0.3632491
0001e0 06 73 1b be b3 8d 09 bf 62 c9 92 be f1 5a 4b be
       -0.15180597 -0.5373184 -0.28669268 -0.1985891
0001f0 cd 39 92 3e 6a 16 fd be 78 b2 21 3d 39 00 17 bf
       0.28559723 -0.49431163 0.03947684 -0.58984715
000200 49 78 3a 3e 22 fc 20 bf fa a1 49 3d 70 db 02 be
       0.18209948 -0.62884724 0.04922674 -0.12779021
000210 3b 3f 7e 3e a2 2c 2a be d1 1a 5c 3f d7 a9 32 bf
       0.24828808 -0.16618589 0.8597842 -0.69790405
000220 9b 40 f6 bd d5 9f 7b bc ae f4 34 bf 03 38 22 bd
       -0.12024041 -0.015357931 -0.7068585 -0.0396042
000230 92 5d c3 be 3a 75 59 bf 18 81 52 3f a8 0c 60 be
       -0.38157326 -0.849445 0.8222823 -0.21879828
000240 14 5e 33 3f 65 9f 06 3f 87 f6 70 3f 00 1d 81 3e
       0.70065427 0.52586967 0.9412617 0.25217438
000250 3c 71 92 be ef 81 a6 be a0 a8 1e 3f bd aa 7c be
       -0.28602016 -0.32521006 0.6197605 -0.24674506
000260 aa 7f 34 be 97 9d 98 ba 1a 63 20 3f 65 34 f1 3e
       -0.17626825 -0.0011643645 0.62651217 0.47110286
000270 69 72 1f bf 13 7e 9e 3d db 64 1c 3e 02 58 41 bf
       -0.6228395 0.077388905 0.15272848 -0.75524914
000280 f2 3f aa be 5f 33 47 3f 78 47 6e 3e e3 f2 aa be
       -0.3325191 0.7781276 0.2326945 -0.33388433
000290 21 e2 f6 3d 8b 9e 9e bd 15 4b 6e bd eb de cc bd
       0.120548494 -0.077450834 -0.058177073 -0.10003456
0002a0 0e 8a 46 be cb e5 4d be c6 75 c3 be 32 ff a6 be
       -0.19388601 -0.2010719 -0.38175792 -0.32616574
0002b0 81 7e e9 bd c7 fa 0e 3e 21 04 17 bf 0e 44 ad bd
       -0.11401082 0.13962851 -0.58990675 -0.08460246
0002c0 59 8c 4d 3e bb 89 31 bf 75 6c 67 3e 36 fa c7 3e
       0.2007307 -0.69350785 0.22599967 0.39058083
0002d0 3c 23 22 be f8 57 e7 be a1 79 24 3e f0 cb d4 3e
       -0.15833753 -0.45184302 0.16062023 0.41561842
0002e0 3e 1d 85 3e 1a 7c 92 be e7 e0 62 bc 99 46 e3 be
       0.25998873 -0.28610307 -0.013847566 -0.443898
0002f0 1a a8 82 be 6a ea b5 3e cd 42 a7 be 04 44 f6 be
       -0.25518876 0.35530406 -0.32668152 -0.48098767
000300 03 19 21 be b5 1f 4f bc e5 e1 0d 3f 68 79 29 3f
       -0.15732197 -0.012641837 0.5542281 0.66200876
000310 e7 1b cc 3d d0 df 63 be 02 47 54 bb 28 2c 25 3f
       0.099662594 -0.22253346 -0.0032390957 0.645205
000320 56 79 78 3e 79 02 b3 bd 80 fe 71 be ff c1 9c 3e
       0.24265036 -0.08740706 -0.2363224 0.30616757
000330 e1 ff b3 be a1 16 07 bf 90 56 b0 3f bd 20 02 be
       -0.35156158 -0.52768904 1.3776417 -0.12707801
000340 ef 49 85 be ce 8e 8a be 62 55 f8 be 09 90 a2 3e
       -0.2603297 -0.27062076 -0.48502642 0.31750515
000350 85 f6 8a bd a9 44 0a bf 3e 54 d7 be c6 48 10 bf
       -0.06785301 -0.5401102 -0.4205646 -0.56361043
000360 26 e5 c2 be 25 ce 6c be 86 e4 26 bf a5 a6 78 be
       -0.3806545 -0.23125513 -0.6519245 -0.2428232
000370 3a b9 26 3f 50 a1 27 3f 9b e4 f4 3e 1e 60 86 3e
       0.65126383 0.6548052 0.47830662 0.26245207
000380 7e 00 85 3e 38 97 8c 3e 3d 3a 8a be ca 66 12 3f
       0.25976938 0.2745912 -0.26997557 0.57188094
000390 06 8c 92 be f2 1e 30 bf eb 63 f7 be 9c fb 42 bf
       -0.28622454 -0.6879722 -0.4831842 -0.76165175
0003a0 e2 ed 00 bf 4e a9 af bd a3 cc db 3e 4f 29 79 be
       -0.5036298 -0.08577214 0.42929563 -0.24332164
0003b0 bf 39 03 bf 00 1a 50 be e8 bc dd be c4 ab a7 3b
       -0.5125999 -0.20322418 -0.43308187 0.0051169116
0003c0 f9 3d 97 3d 53 cc d6 be af 49 ca be 56 a8 9a bd
       0.07384867 -0.41952762 -0.3950934 -0.07551639
0003d0 24 eb 86 be 5f 94 f0 bd 07 7c 24 bf 8d 9d 3a 3f
       -0.26351273 -0.117470495 -0.6425175 0.72896653
0003e0 3b 80 07 be fc c0 42 be 28 3e 7d be fd ec e3 be
       -0.1323251 -0.1901893 -0.24730742 -0.44516745
0003f0 40 0a 8e 3e eb e7 ae 3d b7 fa 04 3f fb 94 4a bd
       0.27742195 0.085403286 0.5194506 -0.049458485

network_body._body_endoder.seq_layers.2.bias f4 [256]
000000 ef b8 52 bd 9a 9a 57 bd 86 e6 1c 3d 72 6a 53 3d
       -0.051445898 -0.052637674 0.03830578 0.051615186
000010 c9 55 3d bd d2 c2 fd 3c 92 5b 2c 3d be bc 89 bd
       -0.04622439 0.030976687 0.042079516 -0.06725453
000020 9f 15 f2 3c 5e 10 8b 3d 5a 66 83 bd 9c fe 81 bd
       0.029551325 0.06790231 -0.064160064 -0.06347391
000030 f0 97 c2 3c 0c 2a 5f 3d e7 03 09 bc 18 dc c3 3c
       0.02375409 0.05448346 -0.008362747 0.02390866
000040 bf c7 fb 3c 85 f8 58 bb 71 9f 80 bd 48 70 d9 3c
       0.030734895 -0.0033107114 -0.06280411 0.026542798
000050 24 9a 91 3d f7 4e 82 3d 0e 4a 88 3d 6d dc 4f bd
       0.07109478 0.063627176 0.0665475 -0.050747324
000060 6f f1 36 3d 84 23 cb 3c e9 16 92 3d 02 06 7c bd
       0.044663843 0.024797209 0.07133276 -0.061529167
000070 8e f0 80 bd 8d 57 68 bd a6 ac 34 3d 82 68 51 3d
       -0.06295882 -0.05672412 0.044109963 0.051125057
000080 71 8a 8e 3d 01 71 89 ba 11 c6 27 bd 45 6f 5c 3d
       0.06959999 -0.0010485948 -0.040960375 0.053817052
000090 69 58 84 bd 3a f0 38 3d ee 87 07 3d 12 aa 69 bd
       -0.064621754 0.045150973 0.033088617 -0.057046957
0000a0 07 e8 93 3d 68 71 28 3d 6a c9 79 bd 9e e2 2b 3c
       0.0722199 0.041123778 -0.0609831 0.0104910415
0000b0 92 dc 14 bd 37 fe 5a bc 32 3f 45 3d 32 aa 5b 3d
       -0.036343165 -0.013366274 0.04815597 0.053629108
0000c0 9e 65 a1 3d 2b cb 85 3d bf 22 19 3d 07 05 89 bd
       0.0788071 0.06532892 0.037386652 -0.06690412
0000d0 1f 29 be ba 0c 36 6a bd 9b 28 83 bd d1 d7 66 3d
       -0.0014508105 -0.05718045 -0.06404229 0.056358162
0000e0 a8 1a 8e 3d 76 62 85 bd 3b 64 5d bd 53 c7 6d bc
       0.06938678 -0.065129206 -0.054050665 -0.014512855
0000f0 89 0d 6f bd cd f1 8b bd 96 12 e8 3b 28 b0 05 3d
       -0.058362518 -0.06833229 0.0070822937 0.0326387
000100 a3 44 3d bd 91 3a 94 bd c7 c6 83 bd 0d ae 92 3d
       -0.046208035 -0.07237733 -0.06434398 0.07162104
000110 41 af 68 3d 68 b8 9f 3d d8 85 9a 3d 20 c7 3d 3d
       0.05680776 0.077988446 0.0754506 0.04633248
000120 ea 6c 83 3d bd 3d 06 3d 9c 2e 70 3d f5 46 28 3c
       0.06417258 0.032773722 0.0586382 0.010270824
000130 1c ce 70 3d 28 12 54 3d b3 d1 5c bd 7b ee 6c 3d
       0.05879031 0.051775128 -0.053910922 0.05784462
000140 f4 11 19 bd 75 aa 7c bd fa c4 96 3c 22 42 7c bd
       -0.037370637 -0.061685998 0.018404473 -0.061586507
000150 d5 9d 30 bd e6 0e 0a bd bd 05 d9 3b e6 f8 26 3d
       -0.04311927 -0.033705615 0.0066229985 0.04076471
000160 d2 35 4d 3d 63 9a 93 3d e4 fe 17 b7 a2 ca 40 3d
       0.050100155 0.07207181 -9.059648e-06 0.047068246
000170 90 b4 85 bd 2b 78 13 bd 2d 64 cf 3c 84 ed 7a 3d
       -0.0652858 -0.036003273 0.025316322 0.06126167
000180 46 1c a4 bc fd c6 58 3c 8a c8 0e 3d 1b 30 95 3c
       -0.020033013 0.013231036 0.034859218 0.018211415
000190 f2 8f 29 bd d5 c3 3e 3d 8f 41 78 bd 98 6c 2c bd
       -0.041397043 0.04657348 -0.060609397 -0.04209575
0001a0 50 8b 4e 3d a8 fb 45 bd a3 94 85 3d 46 a4 b0 3c
       0.050425828 -0.0483357 0.06522491 0.021562707
0001b0 7d d4 68 3d be 31 1b 3b a7 2b 3c 3d 6c 19 10 3d
       0.05684327 0.0023680772 0.045940068 0.035180494
0001c0 70 b3 1f 3d 40 f1 55 3d b3 9f 38 3d 6f 13 b4 bc
       0.038989484 0.052232027 0.045074176 -0.021981923
0001d0 e4 3c 94 3d 36 8b d2 ba 34 01 91 3c c1 a5 dc 3c
       0.072381765 -0.0016063217 0.017700769 0.026934506
0001e0 33 c4 7b bd b6 ff 6b bd 8f 1a c1 3c b8 b9 81 bd
       -0.061466407 -0.05761691 0.023572234 -0.06334251
0001f0 08 d8 52 bd fc 68 b2 3c 0a 27 4d bd a2 29 8d bd
       -0.051475555 0.021778576 -0.05008606 -0.068927065
000200 43 06 7a 3d ac fe 00 bd be da 97 3d 29 eb 84 3d
       0.061041128 -0.031492874 0.07414769 0.06490166
000210 a1 b0 82 3d 95 3d 72 bd e4 c1 17 3d 98 68 58 bd
       0.063813455 -0.05914076 0.037050143 -0.052834123
000220 2a 22 96 bc aa 45 4b bd 0a 92 a2 3c d6 bf 19 3d
       -0.018326838 -0.049626984 0.019845027 0.037536465
000230 58 88 4e 3d f9 f3 69 3d 9c 82 3a bd ef 26 90 bd
       0.050422996 0.057117436 -0.045534715 -0.07038676
000240 e7 56 80 3d 2f 52 cb bb 4f 2a 76 bd 61 97 2d 3d
       0.06266575 -0.0062048654 -0.060098942 0.042380694
000250 42 23 c8 bc d5 6b 7f bd 89 53 02 3d 0e d9 d9 bc
       -0.024430875 -0.062358696 0.031817947 -0.026592758
000260 0d 3b 4d 3c 80 4a 39 3d 4c 9a 2a 3d 05 5d 8c bc
       0.012526286 0.045237064 0.041651055 -0.017134199
000270 08 63 c9 3b e9 45 6e 3d ac d9 97 bd c2 24 95 3d
       0.0061458386 0.05817214 -0.074145645 0.072824016
000280 7b 70 5e bd 7b 2f 99 bd 2c 3f 38 3d 07 08 17 3d
       -0.05430649 -0.07479759 0.04498212 0.03687289
000290 d5 fc 51 bc a0 d2 22 bd 82 22 56 bd 13 b0 2c 3d
       -0.0128166275 -0.03975165 -0.052279003 0.042160105
0002a0 a6 bc 10 3d ba da 35 bd 0f 03 8b 3d 11 d7 d4 ba
       0.03533616 -0.044398047 0.06787693 -0.0016238411
0002b0 2a cc 87 bd 1a fe b9 3a a9 10 35 3d b2 59 83 3d
       -0.06630738 0.0014190108 0.04420534 0.064135924
0002c0 99 5b 69 bd f2 9e f0 3c 33 a6 6e bd 36 87 25 bd
       -0.05697212 0.029372666 -0.05826397 -0.04041215
0002d0 1f 35 a1 bc 41 fa 7d bd 04 6c 9d 3d f8 40 9e 3d
       -0.01967865 -0.06200624 0.07686618 0.077272356
0002e0 a9 57 b4 3d b2 f0 9a bd 42 61 79 3d e8 04 18 37
       0.08805782 -0.0756544 0.060883768 9.061048e-06
0002f0 23 af 16 3c 8b e6 83 3d f0 1c 94 3d 60 d3 86 3b
       0.009197029 0.06440457 0.07232082 0.0041145533
000300 a4 c7 00 bd 9c 10 cc 3b 3e a1 1a 3d 79 62 50 bd
       -0.031440392 0.006227566 0.03775143 -0.05087516
000310 f2 79 7d 3d cc 72 84 bd 15 e9 0e 3d e5 52 16 3d
       0.061883874 -0.06467208 0.034890253 0.036700148
000320 c1 84 52 3c 59 15 b0 3c fb aa 37 bd 37 21 1b 3d
       0.012849034 0.021494554 -0.044840794 0.037873473
000330 89 92 ab bc b5 fe 4d 3d 56 e7 8f 3c 1c 72 81 3d
       -0.020943897 0.050291736 0.017566364 0.06320593
000340 cf 9f 8e bd 2d 33 60 3d aa d1 02 3d c6 c6 72 3c
       -0.06964075 0.054736305 0.031938232 0.014817899
000350 7e b6 9b 3d 3a 14 08 3d 17 e5 8c 3c 6c 98 6b 3d
       0.07603167 0.033222415 0.017199082 0.057518408
000360 e6 41 4b 3d f2 0c 1a bd df d4 24 bd c6 d4 05 bc
       0.049623393 -0.03761 -0.040242072 -0.008168405
000370 71 55 44 bd 4f 05 00 3d 42 e9 6f bb 50 82 36 3d
       -0.047933046 0.031255063 -0.0036607538 0.04455787
000380 73 3e 89 bd f7 c0 8a bd f1 89 9b bc d8 9d 56 bd
       -0.06701364 -0.067750864 -0.018986674 -0.052396625
000390 4d af 39 bc 42 72 89 bd b0 99 a1 3d bb 65 19 3c
       -0.011333299 -0.06711246 0.07890642 0.009362633
0003a0 58 30 ed 3c 6e 33 33 bd ee 10 58 bd f6 ce 75 bd
       0.028953716 -0.04375022 -0.05275052 -0.060011826
0003b0 3b 2c 5b 3d 7d 25 87 bd 79 de 5a bd 5f 23 a6 bc
       0.05350898 -0.06598947 -0.053434823 -0.020280538
0003c0 28 27 46 bd 2f 9d 81 bc 97 63 db 3c 95 60 81 3d
       -0.048377186 -0.015822021 0.026780887 0.0631725
0003d0 03 6f 58 3d b0 24 79 3d e2 bf 54 bd a3 9a e3 bc
       0.052840244 0.060826004 -0.051940806 -0.027783697
0003e0 f3 25 06 3c 10 f7 7d bd c4 9e ac bc d3 11 8e 3d
       0.008187759 -0.062003195 -0.0210718 0.069369934
0003f0 03 85 07 bd a3 15 13 bd 15 14 54 bd 9f ca 8f bd
       -0.033085834 -0.035909306 -0.051776964 -0.07021069

network_body._body_endoder.seq_layers.2.weight f4 [256, 256]
000000 7f f3 e2 bc 12 80 46 bd 43 0c 6d bd 0a 89 80 3d
       -0.027703999 -0.04846198 -0.05787302 0.06276138
000010 c1 e5 f6 bc 27 bb e7 3c 84 f5 1d bc 09 a2 97 bd
       -0.030138852 0.028287483 -0.009641055 -0.07403953
000020 61 df 91 3c 78 4a a8 bd 86 f0 97 3c a5 c3 70 3d
       0.01780671 -0.08217329 0.018547308 0.05878033
000030 f8 b2 97 bd 41 10 25 3c 74 6e 37 bd 9c 25 ba bc
       -0.074071825 0.010074676 -0.04478307 -0.022723012
000040 75 76 63 bd 5c 94 31 3d a2 cf d1 39 c3 48 33 be
       -0.05553289 0.043354377 0.00040018285 -0.17508225
000050 05 3a 63 3d 30 36 23 bd 1a ff 3d 3c 71 96 2a bd
       0.055475254 -0.0398466 0.0115964655 -0.04164738
000060 2a b0 7e 3d c1 fc 10 3d 27 82 83 bd 69 6c b4 bc
       0.062179722 0.035397295 -0.06421309 -0.02202435
000070 d2 8a 5c bd 5f 71 a4 bd bb f6 bf bb e8 13 00 be
       -0.053843327 -0.08029436 -0.00585827 -0.12507594
000080 c2 d4 d0 bd bd 64 92 bd 47 dc d9 bd 57 6e ad bd
       -0.1019683 -0.071481206 -0.10637718 -0.08468311
000090 28 3e 5b bd e4 28 72 bd 08 5b 92 3c ad 33 94 bd
       -0.053526074 -0.059121028 0.017865673 -0.07236419
0000a0 d8 75 81 bd 0a 0f d8 bd 54 6c 95 bd 6c aa a8 bd
       -0.06321305 -0.105497435 -0.072960526 -0.082356304
0000b0 dd 0a 62 3c 63 ee 82 bd 36 5f 06 3d 05 f3 b2 bd
       0.013796535 -0.06393125 0.032805644 -0.087377585
0000c0 da 6b cb 3c 1d 33 03 be 9c 77 fd 3c 14 25 df bd
       0.024831701 -0.12812467 0.030940823 -0.10895744
0000d0 bd ff 96 bd 54 97 80 be f0 51 a6 bd 2a 44 29 3d
       -0.07372997 -0.25115454 -0.08121097 0.041324772
0000e0 26 79 01 be 8b 7e c3 bc 80 1e 98 bb e4 8a d8 bd
       -0.1264387 -0.023864051 -0.0046423078 -0.10573366
0000f0 e1 b8 0c bd 17 95 ee 39 b4 3b 30 3d 3b d7 4d bd
       -0.034356 0.00045505978 0.043025687 -0.050254088
000100 06 4f c3 bd 0a 90 0a bd e6 d3 b7 3d bc 80 39 bd
       -0.09536557 -0.033828773 0.08975963 -0.045288786
000110 cf 4e 42 3d 63 f3 ba 3c b3 36 24 be 3d 3c b4 bd
       0.04743844 0.022821134 -0.16036491 -0.08800552
000120 b8 7d 3b 3d 5d 93 33 bd 03 81 ad bd 1a 2a ca bd
       0.04577419 -0.04384171 -0.08471873 -0.098713115
000130 49 41 73 bd 0a 22 8d bd 4a a9 b1 3d 8a ba 4a bd
       -0.059388433 -0.06891258 0.086748675 -0.049494304
000140 4d f9 69 bd 18 96 f1 bc ad 96 21 be f1 85 d9 bd
       -0.057122517 -0.029490516 -0.15780134 -0.106212504
000150 80 63 46 bc 89 6d cc bc ba 09 76 3d 41 56 9d bd
       -0.012108684 -0.024954574 0.06006787 -0.07682467
000160 24 f3 9a bc 41 3e a5 3b f0 06 c9 bd 55 c0 30 be
       -0.018914767 0.0050428216 -0.09815776 -0.17260869
000170 bd 08 a7 3d 5c b5 07 3a a1 0e da 3c 7d 7f ca bd
       0.081559636 0.0005176866 0.026618304 -0.09887598
000180 19 bb 79 bd c8 f1 25 3c 14 75 47 bd 7c 32 c0 3b
       -0.060969446 0.010128446 -0.04869564 0.005865393
000190 f9 ff fa 3d 5b 55 be bc f2 6d 61 bd 78 99 83 3c
       0.12255854 -0.02323406 -0.055036493 0.01606439
0001a0 6e 7e 0e be d7 e9 43 bd 6d ea aa 3c 9b d8 34 bd
       -0.13915417 -0.04783043 0.020863736 -0.044151884
0001b0 d8 6f ff 3d 29 72 d7 bb de 44 81 bd fc c3 8c 3c
       0.124725044 -0.0065748882 -0.063119635 0.017183296
0001c0 75 8b e1 bd 56 53 8b bd a4 70 1a 3b 99 5d 8e bd
       -0.110129274 -0.068030044 0.0023565674 -0.06951446
0001d0 01 59 07 3c b7 ed ed 3d c3 fc f3 bd e3 31 19 bd
       0.008260966 0.11617606 -0.11913445 -0.03740109
0001e0 d8 fe 04 be 46 c6 e7 bc 55 ed 5b 3c 58 38 9f 3d
       -0.1298784 -0.028292786 0.013423284 0.077744186
0001f0 cd 13 ed bc 47 e6 36 bd 30 54 2b be b4 e1 41 3d
       -0.028940106 -0.044653203 -0.16731334 0.047334388
000200 c5 c7 ae 3d d1 6e 36 bd 44 5e 4c bc bf 75 4c bc
       0.08534197 -0.044539277 -0.012473647 -0.012479245
000210 3c 24 06 be 98 1a 49 3d 93 15 14 bd b4 65 d8 bd
       -0.1309976 0.049097627 -0.036153387 -0.10566273
000220 89 01 1b bd e8 1a 8a bd 98 a6 73 bd e8 fc 3d bd
       -0.03784326 -0.06743413 -0.059485048 -0.04638377
000230 2d ff 01 be 61 c2 d9 bd 07 a8 e3 bd 91 8a b1 bd
       -0.12694998 -0.10632778 -0.11116033 -0.086690076
000240 16 e6 31 be 9d 1e 10 be 1e 36 bc 3c 1d f4 c2 3d
       -0.17372927 -0.14074178 0.022975024 0.09519217
000250 41 bb 87 bd ac c3 69 bd 6a 7f 2a 3c 78 f3 96 bd
       -0.06627513 -0.057071373 0.010406354 -0.07370657
000260 a1 a0 c5 3d 03 2a de bd 95 59 42 bd 99 c2 96 bd
       0.09649778 -0.10847857 -0.047448713 -0.07361335
000270 3a dc 95 bd 6b 51 ab bd 12 44 18 be e1 c9 32 be
       -0.073173955 -0.083651386 -0.14869717 -0.17459823
000280 d7 4e 8f bb 17 fd df bd 82 e3 c4 3d c8 46 5a bc
       -0.004373412 -0.10936945 0.09613706 -0.01332254
000290 ab 0d 1b 3d 38 4d 59 bb 9d 52 ef 3b 4d c7 03 3d
       0.03785483 -0.0033157598 0.0073035494 0.03217249
0002a0 e3 20 10 3d c8 7f 71 3b 5b 35 5e 3b d7 91 a2 bc
       0.035187613 0.0036849845 0.0033906314 -0.019844932
0002b0 eb 92 9f 3b 51 6c 10 bd 6d 6b 0d bd f0 97 83 bd
       0.004869809 -0.03525955 -0.034526277 -0.06425464
0002c0 7d db 94 3b 35 0b fe bd 32 b9 37 bd 6a a8 ca 3d
       0.0045427666 -0.12404481 -0.04485435 0.09895404
0002d0 7f dd 36 bd 3d 6c c5 bc 27 10 46 bd 29 e8 9f 3d
       -0.04464483 -0.024099464 -0.048355248 0.07807953
0002e0 60 b2 ea bc 47 18 0a be ce 4d 15 bd 84 62 1e 3d
       -0.028649509 -0.13485824 -0.036451153 0.03866817
0002f0 78 9a a4 3d 24 4b e0 bb 9c 3f 1f 3c 73 09 bc bb
       0.08037275 -0.006844895 0.0097197555 -0.005738431
000300 1f ba 81 bc 61 08 1c bd e4 36 b7 bd e7 fc 05 be
       -0.01583582 -0.03809393 -0.089460164 -0.13084756
000310 f1 1d e2 bd 00 03 bc bc 8c 90 a5 bc b6 78 26 bd
       -0.11040867 -0.02295065 -0.020210527 -0.040642463
000320 67 05 87 bd c5 fb f1 3c 63 e2 cd 3d f5 7e e1 3d
       -0.06592827 0.029538998 0.100529455 0.11010543
000330 40 99 2c 3c 14 35 37 be fc 43 d3 3d 9a 57 35 3d
       0.0105345845 -0.17891341 0.10315701 0.044272996
000340 1e 4e af bd 6c ff e0 3c 7e 30 68 bd 02 cc a4 bd
       -0.085598215 0.027465545 -0.05668687 -0.08046724
000350 c3 07 c8 bc cc 8c 9e bd 55 f1 07 be df f2 98 bd
       -0.024417764 -0.077416986 -0.13275655 -0.07468199
000360 b8 1c 3f be ad 30 9a 3d c8 cb cf 3c 34 2d c2 bd
       -0.18663299 0.075288154 0.025365725 -0.09481278
000370 11 70 15 3d 88 73 05 bd 9e eb 26 bb 4c dd 37 bd
       0.036483828 -0.032580882 -0.0025470029 -0.04488878
000380 9c bd b5 bd 08 44 9b bd b8 3f 8b bd b0 a4 d0 bd
       -0.08874056 -0.07581335 -0.06799263 -0.10187662
000390 47 e6 4f bd d4 80 f6 3c f5 08 8b bd 3b 92 60 bd
       -0.05075672 0.030090727 -0.06788818 -0.054826956
0003a0 6e 89 27 be 80 3f ad bd aa 15 3e bc 36 a1 a8 bb
       -0.16361019 -0.08459377 -0.011601845 -0.005146171
0003b0 24 ed 1e bd 9d af 14 bc 05 f4 ae bd ab 15 e4 3c
       -0.038800374 -0.009075073 -0.08542637 0.027842363
0003c0 2c 02 d4 3c 65 f3 fc bc 30 44 64 3c 14 41 c9 3c
       0.025879942 -0.030877778 0.013932273 0.024567164
0003d0 7d fe 0b be 96 02 18 3d 22 e1 2d bd b2 79 0e 3e
       -0.13671298 0.03711184 -0.04245103 0.1391361
0003e0 f0 2b 28 3d ec ab 13 3d e8 d6 b7 bd 85 c3 aa bc
       0.041057527 0.03605263 -0.08976537 -0.020845184
0003f0 9b 78 b8 3d 6d 79 e1 bd 1d a1 03 bd c7 95 f7 ba
       0.09007379 -0.11009488 -0.03213607 -0.0018889242

network_body._body_endoder.seq_layers.4.bias f4 [256]
000000 78 9d c5 bc d5 2d fe bc d2 eb 25 bd 00 4e 86 bc
       -0.024122939 -0.031027714 -0.0405081 -0.016394615
000010 39 0f f7 bc 5d d5 25 3d ef 90 9d bc d3 90 1e 3d
       -0.030158626 0.040486682 -0.019234149 0.038712334
000020 64 03 a5 3d 1e 08 8f 3d 12 25 ea bc 75 32 06 bd
       0.08057287 0.0698397 -0.02858213 -0.032762963
000030 ad b9 97 3d 04 4d 72 3d cd bd a0 bc d2 e5 94 3d
       0.07408462 0.05915548 -0.019621754 0.07270397
000040 8d 2d 78 3d 77 f5 13 bd 8f 3b 21 bc 27 a2 5b 3d
       0.060590316 -0.036122765 -0.00984086 0.053621437
000050 a8 f7 57 3d 78 c3 e8 bc 85 2e c8 bc 8b 0c 93 3d
       0.052726418 -0.02841352 -0.024436245 0.07180127
000060 90 cf 82 3c 41 61 a9 3d 5d fa 17 bd f9 d2 88 3d
       0.015968114 0.08270503 -0.037104 0.06680865
000070 4c 4d 6d ba d8 d8 42 3d fc 93 52 3d ed 96 f7 bc
       -0.00090523507 0.04757008 0.05141066 -0.030223334
000080 f0 7e 6b bb 3f 10 84 3d d0 eb a0 3d 54 45 4b 3d
       -0.0035933815 0.06448411 0.07857478 0.049626663
000090 3f 59 8e 3d d0 eb e0 bc f0 f2 09 bd 9e 33 69 3d
       0.06950616 -0.027456194 -0.03367895 0.05693399
0000a0 a4 d0 bf bc 0d 51 0e bd 18 97 09 3c b6 16 85 3d
       -0.023414917 -0.034745265 0.00839784 0.064984724
0000b0 a8 d8 a7 3d 2b ab 9d 3c 6a e1 5d bc 57 66 8d 3d
       0.08195621 0.019246658 -0.013542512 0.069042854
0000c0 41 ce 53 3d a7 3b 3a 3d fd ed 7c 3d 7a 87 5b 3d
       0.05171037 0.045467045 0.0617504 0.053595997
0000d0 50 0c ea bc ae b2 94 3d 91 80 e1 bc 88 18 e1 bc
       -0.028570324 0.07260643 -0.027527126 -0.027477518
0000e0 9f 7b b8 3c e7 6b 2c 3d f1 f4 92 3d 5b 93 bb bc
       0.022519885 0.04209509 0.07175625 -0.022897413
0000f0 5d 93 09 bc 59 56 d9 bc 86 e1 80 3d 4a 5e e5 3c
       -0.008396951 -0.026530432 0.06293015 0.027999062
000100 5b cf 78 3d 01 a8 bb 3c ef 8f 31 3d d9 8c 69 3d
       0.060744625 0.022907259 0.043350156 0.05701909
000110 50 cd 4f bc 5b 16 f2 bc 8a d7 09 bd e5 79 10 bd
       -0.012683228 -0.029551676 -0.03365282 -0.035272498
000120 5c 76 a8 3b c6 28 e6 bc 3b 1b fc bb a2 69 42 3d
       0.0051410627 -0.028095614 -0.007693676 0.04746402
000130 b1 4b d4 bc 8f e8 8c 3d e8 5f e5 3c 12 d3 f3 3c
       -0.025914999 0.068802945 0.027999833 0.029763732
000140 26 84 3b 3d 4b ce c9 bc e0 09 8b bb 27 35 a8 bc
       0.045780323 -0.024634501 -0.0042431206 -0.020533158
000150 3c 9d 1b bd 9d 95 e4 bc 7b a8 a6 3c 38 98 80 3d
       -0.037991747 -0.027903372 0.02034401 0.062790334
000160 1f f9 20 bd 87 df c1 3c a3 d8 8b 3d a5 5f 0b bd
       -0.03930008 0.023666156 0.068284295 -0.03402676
000170 53 4b a2 3c 67 8e 90 3d 2d 84 fa bc 45 a8 7e 3d
       0.019811308 0.07058411 -0.030580604 0.062172193
000180 e5 9a ff bc fd 6e 08 3d 27 ec 7e 3c 18 a4 c9 bc
       -0.03120179 0.03330897 0.015559233 -0.024614379
000190 ae d5 cc 3c 38 3b 97 3d 55 be 57 bc 4b ac ab bb
       0.025004234 0.07384342 -0.013167937 -0.005239045
0001a0 8d e5 fd bc d9 0d 0c 3d d0 c9 87 3d 70 b5 97 bc
       -0.030993247 0.034192894 0.066302896 -0.018519133
0001b0 bb a2 ac 3d d2 82 ce 3c cd 01 51 3d 1f 81 a2 bc
       0.08429476 0.025208864 0.051027108 -0.01983696
0001c0 a9 93 c1 bc e7 47 a8 3b 54 13 82 3d f1 73 38 3d
       -0.02362998 0.0051355246 0.06351343 0.045032445
0001d0 93 e7 a3 bb 54 e0 0f bd 01 3d 1e bd 03 99 53 3d
       -0.005001971 -0.035126045 -0.038632397 0.051659595
0001e0 28 15 20 3d b0 24 a0 3c 70 5a 5a 3d 40 e0 fc bc
       0.039082676 0.019548744 0.053308904 -0.03086865
0001f0 9b 71 91 3c 5e 1b c7 bc 9c 5d cb bc f5 23 fc bc
       0.017754367 -0.024305042 -0.02482491 -0.030778864
000200 36 2c d2 3c e6 83 82 3d f8 b1 04 bd 62 b3 71 3d
       0.025655847 0.06372814 -0.032396287 0.059008963
000210 e0 18 f8 3c bf c7 40 bd 3b 70 83 3d 66 dc 04 bd
       0.030285299 -0.047065493 0.06417891 -0.03243675
000220 10 8a b7 bc 56 bb c9 bc 5a 96 8a bb 80 a4 32 3d
       -0.0224047 -0.024625462 -0.004229349 0.04361391
000230 74 7a c1 bc de 2c 98 3d 17 55 25 3d d7 f9 65 3b
       -0.02361796 0.07430433 0.04036435 0.0035091543
000240 10 66 07 bd 65 da 66 bc e9 86 88 3d 94 60 90 3c
       -0.03305632 -0.014090155 0.06666357 0.017624177
000250 d2 f3 c8 bc 31 3e 46 3d 6d 0c f5 bc 40 e5 5d 3c
       -0.024530325 0.048399154 -0.029913152 0.013543427
000260 c1 04 ed bc 1e 3b 9a 3d 3a 00 53 3d d5 19 67 bc
       -0.02893293 0.07530807 0.051513888 -0.01410528
000270 53 18 5c 3d df 0e 88 3d 8e 9d 0d 3d 73 0f 4a 3d
       0.053734135 0.066434614 0.034574084 0.04933114
000280 97 e9 b1 bc fd be 97 3d 92 d3 30 3d 78 41 33 3d
       -0.02171783 0.07409475 0.04317052 0.043763608
000290 fa db 4e 3d 8f b3 1a bd 6b 1c 0b bd 70 7f 87 3d
       0.050502755 -0.037768897 -0.03396265 0.06616104
0002a0 57 8e 64 3d d5 7f 95 3d 30 a6 a3 3d 3f d4 7c 3d
       0.05579981 0.07299773 0.07990682 0.06172585
0002b0 b8 b0 00 bd 85 e7 8c 3d 1d 28 07 bd f5 92 18 bb
       -0.031418532 0.06880096 -0.03299724 -0.0023280953
0002c0 27 27 7a 3d 19 a0 32 3d 6d 99 27 3b 91 67 96 3d
       0.061072495 0.043609712 0.0025573627 0.073439725
0002d0 58 fd e6 bc d1 60 19 3b 16 b9 02 3d 77 2d 37 3d
       -0.028196976 0.0023403654 0.031914793 0.044721093
0002e0 2b 61 5b 3d 5a 5e c2 bc e1 a2 a7 3d a9 5a a3 3d
       0.053559463 -0.023726631 0.081853636 0.079762764
0002f0 aa 5b 65 3d 09 99 8e 3d 5d c8 c9 bb e1 31 ef bc
       0.05599562 0.06962783 -0.0061579184 -0.029198589
000300 5e b0 23 3d be 54 3e bd 9e bc 02 bd 60 e0 02 3d
       0.03996312 -0.046467535 -0.03191816 0.031952262
000310 00 10 40 3d c1 e1 8c 3d a1 0d 42 3d 1c fe 94 bc
       0.04689026 0.06878997 0.04737628 -0.018187575
000320 ea 5e 2e 3d 9e d1 a2 ba d7 20 9f ba 36 b3 a1 3d
       0.042570986 -0.001242209 -0.0012140524 0.0789551
000330 79 23 4e 3d c2 97 1b 3d 57 a3 cd 3c 4d 6d 9d bb
       0.050326798 0.037986524 0.0251023 -0.0048042894
000340 32 a7 60 ba 78 3d a8 3d 13 ca e5 bc 0c ef 66 3d
       -0.0008569836 0.08214849 -0.028050458 0.056380317
000350 93 b1 13 bd 92 e9 6f 3d 45 f8 8c 3d 27 9e d7 bc
       -0.03605802 0.05857236 0.06883291 -0.02632053
000360 bf 19 ae bc cd 5e cc bc e5 81 59 bc da aa 3d 3d
       -0.021252511 -0.024947548 -0.013275598 0.046305515
000370 3f e7 04 bd 0d b1 a2 3d 71 88 93 3d b2 97 42 3d
       -0.032447096 0.07943926 0.072037585 0.04750795
000380 f0 93 23 3d 1b 6a 56 bc 6c 9a 1a 3d d3 17 9b 3d
       0.039936006 -0.013086821 0.037744924 0.075729035
000390 d6 6b 21 3d 8e b7 34 3b 25 bf 19 bc 67 53 eb bb
       0.03940948 0.0027575227 -0.009383951 -0.007181573
0003a0 0a c2 ad bb da ee ad 3d 10 90 b2 3d 2c 68 86 39
       -0.0053026723 0.08492823 0.08718884 0.00025636086
0003b0 26 70 8c 3d 36 ec ac bb 71 31 63 3c d7 2f f2 bc
       0.06857328 -0.005277182 0.013866768 -0.029563827
0003c0 ec 28 56 3d c9 7b 31 bd ff 05 8c 3d e5 85 27 bd
       0.05228512 -0.04333094 0.06837081 -0.040899176
0003d0 20 f5 bf 3d 87 4e f5 bc 1b 87 e8 3c 00 ad 48 b8
       0.09372926 -0.029944671 0.028384736 -4.7844835e-05
0003e0 c5 66 9d 3c 82 8c 41 3d ea 0f 94 3d 7e 90 0c 3d
       0.019214043 0.04725314 0.07229598 0.034317486
0003f0 3d 26 a4 bc 86 c4 39 bc bd d1 a4 bb c0 a3 0d bd
       -0.020037765 -0.011338359 -0.0050298856 -0.034579992

network_body._body_endoder.seq_layers.4.weight f4 [256, 256]
000000 c8 48 65 bd 14 ff c2 3c f7 d9 62 bd 18 00 3a 3d
       -0.055977613 0.023803271 -0.05538365 0.045410246
000010 1f cd 07 3e 74 98 8c 3d 79 1e b3 bd 6f 1e 1b bd
       0.13261841 0.068650156 -0.087460466 -0.03787082
000020 84 1f 2b bc e0 0f 20 3d 98 b3 ea 3c e0 c6 86 3d
       -0.010444526 0.03907764 0.02865009 0.06580901
000030 3b 99 27 3d d0 d5 fa bd 4e 50 0d bc d5 db 08 bd
       0.040917616 -0.12247813 -0.008625103 -0.033412773
000040 e6 81 84 bd 21 69 ed bc 9f 09 a9 3d 61 d8 a0 3c
       -0.06470089 -0.028980793 0.08253788 0.019634428
000050 8d 1c b4 bd f3 5d 08 be 52 d8 6f 3c f3 00 9e bd
       -0.08794508 -0.13317089 0.014638977 -0.07715025
000060 2d bd 25 bc e7 57 0c 3b 77 00 d2 bd 00 11 7c 3d
       -0.010115904 0.0021414699 -0.10253995 0.06153965
000070 87 a8 a5 bc db 9a 11 3d c5 48 1e 3d e8 11 5a 3d
       -0.020221962 0.035548072 0.038643617 0.053239733
000080 5c d0 ea bb 3d 71 ca bd de dc 0e bd ee 94 b2 bd
       -0.0071659517 -0.0988488 -0.034878604 -0.08719812
000090 ff 5f aa 3d 93 62 d3 bd c0 2a 35 3d 66 ac 0d 3e
       0.08319091 -0.10321536 0.044230223 0.13835296
0000a0 9d 6e 2a be 18 87 d6 bc f2 49 97 3d e3 cc d1 3d
       -0.16643758 -0.026187465 0.07387151 0.10244157
0000b0 c2 31 26 bd a6 03 d9 bc be a6 e4 3c 2e c4 fa 3c
       -0.040574796 -0.026490998 0.02791154 0.030611124
0000c0 1c 44 16 3e 9f 40 e2 bc 84 ee 06 be 34 96 95 bc
       0.14674419 -0.027618704 -0.13176924 -0.018260099
0000d0 8a 5a 98 bd 3e 30 b8 3c 4c 79 32 3d 0b 2e b4 ba
       -0.07439144 0.022483941 0.04357271 -0.0013746632
0000e0 93 d7 54 bc b9 b1 44 3d 9a 37 26 bc f5 70 4b ba
       -0.01299085 0.048021052 -0.010145092 -0.00077606674
0000f0 2f 66 a7 3d b1 83 df bc bc 92 21 be 49 ac 1a bd
       0.08173787 -0.027284475 -0.15778631 -0.03776196
000100 41 09 0b 3d 5c 83 c3 3c 74 2a fb bd 1f 18 35 3d
       0.033944372 0.023866348 -0.12263957 0.044212457
000110 2f 8f d5 3d c2 45 4d bd 01 c3 a4 bd 38 27 da 3c
       0.10427701 -0.050115354 -0.080450065 0.02663003
000120 19 db df bd 42 eb 93 3d 96 38 fb 3c c1 fa a1 3d
       -0.109304614 0.07222606 0.03066663 0.07909156
000130 d5 fb 8e bc fa 4c d6 3d 83 cb 23 bc 48 98 37 bd
       -0.017454067 0.10463901 -0.009997251 -0.04482296
000140 ec 31 73 bd 74 18 a6 bc b7 94 f4 bd 60 e3 51 bd
       -0.05937378 -0.020275332 -0.119424276 -0.051242232
000150 11 0b f2 3b 4f be 23 3d d4 8e f6 3c a9 32 cb bd
       0.007386573 0.039976414 0.030097403 -0.09921772
000160 01 0f 7a 3c be eb ca 3d a2 d8 91 3c 7c 03 59 3c
       0.015262366 0.099082455 0.017803494 0.01324546
000170 af 02 64 3d 99 81 da bc 41 a7 81 3c c2 84 71 bb
       0.05566662 -0.026673125 0.015826823 -0.0036852811
000180 49 2f 96 bd a2 60 0f 3e 16 f6 37 3d e1 05 72 3b
       -0.07333238 0.14001706 0.04491242 0.0036929774
000190 2e f6 c5 bb 33 46 5b bd 2b e1 d9 3c 6d 62 83 3d
       -0.00604131 -0.053533744 0.026596626 0.064152576
0001a0 d8 45 d1 bd 35 6d e2 3d d6 1a 0a 3d 94 76 4f bc
       -0.102184 0.11055986 0.033717 -0.012662549
0001b0 0a 0c ef bc e2 27 5a bc d9 2a 3c bd 2e cd 98 3b
       -0.029180545 -0.013315173 -0.0459393 0.004663131
0001c0 44 cc 25 be 90 60 dc bd 7b a4 17 3d c3 63 fe 3d
       -0.16191202 -0.10760605 0.037022095 0.12421372
0001d0 5a 30 5d 3d 31 b3 10 3d 49 be 40 3d be 06 8c 3d
       0.05400119 0.03532714 0.04705647 0.068372235
0001e0 6c 64 98 3c 64 4f 90 3c 56 12 8c 3d fd 5b 1e bc
       0.018602572 0.017615981 0.06839435 -0.009665486
0001f0 57 93 c6 bd 80 63 1f 3d 97 27 f6 bc c3 35 c5 3d
       -0.096960716 0.03891325 -0.030048175 0.09629395
000200 bc 8e 6b bd 11 ca 2b bd e7 8e 12 be 83 9c 1a be
       -0.05750917 -0.041940752 -0.14312325 -0.15098767
000210 5a 7a 07 be 50 3a 3b 3d 6a bd f7 3d 0f b2 1d 3d
       -0.13230267 0.045709908 0.12096675 0.038499888
000220 06 e8 93 3c 8c 02 54 3c 30 6f a2 3d 6a f4 e4 3d
       0.018054973 0.01294006 0.079313636 0.11179431
000230 fd 4f 03 bc c8 cf 92 3c 2e 6e 15 bc 4a 20 90 3d
       -0.008014676 0.017921343 -0.009120507 0.07037409
000240 85 7e ac 3b 76 75 91 bd eb 26 41 bd 7b 41 63 bd
       0.0052641057 -0.07102482 -0.047156256 -0.05548237
000250 19 94 c8 bc d1 24 1f bd 52 3b e4 3c 49 ea 08 3d
       -0.024484681 -0.03885347 0.027860317 0.033426557
000260 16 a2 04 3d e4 6c 65 bc 1b a2 66 3c 3d 3d 02 3e
       0.03238114 -0.014003012 0.014076735 0.12718673
000270 32 ec 14 3e e5 d4 f8 3c 36 2f 7f bc 2f 0a b2 3c
       0.14543226 0.030374954 -0.015575221 0.021733372
000280 80 7e 65 3d 54 24 46 3d 28 09 17 3c c4 b1 0e 3e
       0.056028843 0.04837449 0.009218492 0.13935
000290 95 ed b1 3d 92 bb 9f bc 12 4f 8e bd cc c7 45 3b
       0.08687893 -0.01949862 -0.06948675 0.0030178903
0002a0 05 54 04 be 7a 3d a4 ba 18 fd b3 3d 26 ec af 3d
       -0.12922676 -0.0012530528 0.08788508 0.085899636
0002b0 50 4d b9 3c cc 7a 6a bd 95 a2 94 bd 20 41 16 3d
       0.022619873 -0.057246014 -0.072575726 0.0366832
0002c0 91 c7 5e 3d 5e 19 ce 3b 1f cc b6 3d 9b 1c c8 ba
       0.05438954 0.006289645 0.08925652 -0.0015267314
0002d0 f9 20 12 3d 21 5a a2 3d 47 2e 32 bb 91 a0 bf 3c
       0.035675976 0.07927347 -0.0027188228 0.023391994
0002e0 06 8a 59 bd ab fc 01 3d d7 7f 65 bc 62 77 0c be
       -0.053110145 0.031735104 -0.01400753 -0.13717416
0002f0 bd d6 88 bd 6d 1c a1 bd a6 49 44 be 73 90 83 3d
       -0.06681583 -0.0786675 -0.1916872 0.06424036
000300 45 cb 19 bd 5d f7 1e 3c 05 fa 39 bc a5 ea b4 bc
       -0.03754737 0.009702531 -0.011351113 -0.022084543
000310 7e a3 8c 3d 91 a4 69 3c 60 89 3b 3c 20 fb c0 3c
       0.06867121 0.014260427 0.011446327 0.023557246
000320 00 8e ac 3d 6d ee 10 bc 2c 00 e1 bd 17 67 43 3d
       0.08425522 -0.008845908 -0.10986361 0.047705736
000330 38 ae 78 3d 78 e6 9c 3c 0f fc 35 3e 12 0d 80 3c
       0.060713023 0.019152865 0.17771934 0.015631232
000340 28 9f 51 be e3 ec 60 be 75 1e c5 bd 98 8b de bc
       -0.2047087 -0.21965365 -0.0962495 -0.027166173
000350 b7 89 db 3a 69 ce 53 3c 95 f5 b3 bd e0 0c 10 3e
       0.0016749416 0.01292763 -0.087870754 0.14067411
000360 c8 0c 39 bc 31 6f bc bb 75 da 85 3d ee c0 91 bc
       -0.011294551 -0.0057505597 0.06535808 -0.017792191
000370 59 7a b0 bc 8b 53 8d bd 6a e1 19 bd 23 4a fa 3d
       -0.021542715 -0.069007 -0.037568487 0.12221172
000380 da 00 f8 bd 3a 0c 4f bd 18 9d 21 bb 65 cd 90 3d
       -0.121095374 -0.05054877 -0.0024660286 0.07070426
000390 ad 1c 82 bd c8 96 0e 3d 11 98 fc 3b 6f 73 90 bd
       -0.06353126 0.034811765 0.0077085574 -0.07053267
0003a0 25 93 4e bd a8 2e a3 3d ea 74 a5 bc da da 85 3c
       -0.050433297 0.07967883 -0.02019735 0.016339708
0003b0 fe 1c 3e bd 0e 6a 8e bc ba cf 35 bb 45 33 81 3d
       -0.046414368 -0.017384555 -0.0027742223 0.06308607
0003c0 dc cb 01 3e db 61 aa bc 78 f9 29 bc 90 a2 f9 3c
       0.12675422 -0.020798614 -0.010374419 0.030473024
0003d0 fc 34 40 3d 07 b0 98 bc cf bd 12 3e fd 70 95 bd
       0.04692553 -0.018638624 0.14330219 -0.072969414
0003e0 ac 9f d8 3a df 9b 3b 3d ec 1f 34 be ab 6e 4e 3d
       0.0016527078 0.045802947 -0.17590302 0.05039851
0003f0 18 88 a8 bb 00 4e 0f 3d bd 0f 56 3c 7e 4c 17 3c
       -0.0051431768 0.034986496 0.013065276 0.009234546

network_body.observation_encoder.processors.0.normalizer.running_mean f4 [6]
000000 a6 fa 11 c2 97 56 2f 42 81 9e a6 c1 45 1f 01 c2
       -36.494774 43.83456 -20.827394 -32.280537
000010 c6 31 b3 3f df 50 8e c2
       1.3999565 -71.15795
