Assets/Training/results/learn_v1_4/MarsTaxi/MarsTaxi-999945.onnx (onnx, 542464 bytes, 10 tensors)

54 f4 [6]
38.881664 17.19399 49.467415 0.03232345 0.0017213979 0.0712158
00000000: d386 1b42 4b8d 8941 a2de 4542 9865 043d
00000010: 87a0 e13a 97d9 913d

action_model._discrete_distribution.branches.0.bias f4 [6]
0.037206676 0.0045934184 -0.025133826 -0.035547648 -0.024773603 -0.022513993
00000000: 0766 183d 6384 963b 74e5 cdbc 699a 11bd
00000010: 03f2 cabc 446f b8bc

action_model._discrete_distribution.branches.0.weight f4 [6, 256]
-0.013395729 -0.014376714 -0.0655164 -0.004256086 -0.04903359 0.019814745 -0.03800369 0.022652155
0.066726685 0.051326696 -0.01808675 -0.023460543 0.056977764 0.042315383 -0.039533693 0.0641571
0.018280014 -0.024576068 0.0001330835 0.023786716 0.018744346 -0.052152753 -0.055216998 0.032025438
-0.008939837 0.07310337 -0.056214556 0.02725723 -0.020277215 0.017039284 0.011216672 -0.047169454
-0.0018761114 0.057823278 0.05156416 0.018743623 0.017254839 -0.051048424 -0.0357641 0.006251623
-0.054042023 -0.04376537 -0.009359396 0.04111517 0.06715491 -0.013160538 -0.016871689 0.059397448
0.023531152 0.011271294 0.037304047 0.040380366 -0.016604865 0.04960103 -0.04464515 -0.04468522
-0.00044997456 0.011357868 0.05501859 -0.0638398 -0.026414184 -0.05545946 0.015720706 -0.0057191444
0.011323976 0.004600258 0.017839843 0.03334236 -0.0124507435 -0.039178543 -0.049344596 -0.059214626
0.0069999755 -0.04509081 -0.007871347 0.01866631 -0.02802098 0.012746286 0.005436764 0.009041894
0.01655895 -0.045419913 -0.0338681 -0.05104254 -0.044025857 -0.04462765 -0.0022653402 0.04799049
-0.012094238 0.008386655 0.052128483 -0.058921058 0.007888134 0.021671383 -0.07417075 0.036592383
-0.03785304 0.005946197 0.005326659 -0.054659124 0.016036136 0.026985705 -0.012587114 -0.01769141
-0.04524947 0.0122532 0.038693216 -0.06225528 0.06426565 -0.006628117 0.014598989 -0.042937018
-0.045049556 0.011376059 0.031112038 0.0069685513 0.01025829 -0.056618676 -0.02747782 0.02364859
0.02171784 0.006620402 0.016422242 -0.046128858 -0.018568998 -0.017731633 -0.056786153 -0.05731755
0.008356162 0.05606116 -0.024541559 0.028109424 0.019969605 -0.011483865 0.025872372 0.005927543
-0.010752587 -0.055406783 -0.02326645 0.019018298 -0.026573295 0.07817781 0.013196322 -0.023498727
-0.040493865 -0.030326538 0.047385585 -0.00091307703 -0.047019392 -0.0067251176 -0.054847587 -0.0004506325
-0.042150993 0.0400628 0.020934755 -0.056969795 0.023572033 0.025009127 0.024729135 0.021132393
-0.034892816 0.06091021 -0.00022509616 0.026792148 0.0021288174 -0.043186806 -0.033215117 0.047704842
0.021027831 0.036198013 0.046693545 0.040639263 -0.055036437 0.031540394 -0.059404157 -0.03671726
0.042541854 0.02822057 -0.001988025 0.047860283 -0.030045094 -0.014299368 -0.0018802829 0.018519994
0.03208237 -0.021668952 0.04534984 0.07882144 0.02136744 0.047037605 -0.021939939 -0.053215854
0.020674035 -0.020242985 -0.049956653 0.012618107 0.012916632 0.042616185 -0.0005443365 -0.03834764
0.009387652 -0.0032002132 -0.03268819 0.070273824 0.022208668 0.016100666 -0.006181382 -0.015296974
-0.0033937802 0.06890019 -0.039393988 0.0019556205 -0.027671631 0.036652733 0.029814554 -0.05379572
-0.011070302 -0.026461232 -0.02068988 0.0030773904 -0.009508196 0.073426664 0.051129382 -0.0051253526
0.005544983 -0.016668113 0.0045571956 0.03747586 0.016196402 -0.02100273 -0.016040377 0.0057079555
-0.00697774 0.053433985 0.08317937 0.007019787 0.041831054 -0.028546497 0.0059100627 -0.06932819
-0.009535984 -0.031087147 0.038191434 -0.03937659 0.04827611 -0.02971236 -0.0016228324 0.011944426
-0.0037217082 0.017397303 0.024459999 0.0021335497 -0.0056067253 -0.03272318 -0.02643742 -0.04426114
00000000: c279 5bbc 4f8c 6bbc 762d 86bd a376 8bbb
00000010: 72d7 48bd 8852 a23c c2a9 1bbd 0391 b93c
00000020: 00a8 883d f13b 523d aa2a 94bc 5330 c0bc
00000030: 8461 693d e552 2d3d 15ee 21bd cc64 833d
00000040: f8bf 953c c053 c9bc 548c 0b39 5cdc c23c
00000050: be8d 993c 209e 55bd 382b 62bd 1b2d 033d
00000060: 6578 12bc 38b7 953d 3c41 66bd 8e4a df3c
00000070: 671c a6bc f895 8b3c 22c6 373c c234 41bd
00000080: dae7 f5ba 1ad8 6c3d f134 533d 3a8c 993c
00000090: 055a 8d3c 2718 51bd 607d 12bd 6ada cc3b
000000a0: 2b5b 5dbd 5143 33bd 2758 19bc 6168 283d
000000b0: 8388 893d 4c9f 57bc 7f36 8abc bd4a 733d
000000c0: 67c4 c03c 3cab 383c 21cc 183d e265 253d
000000d0: ed06 88bc 732a 4b3d d5dd 36bd d907 37bd
000000e0: 90ea ebb9 5a16 3a3c 2c5b 613d 71be 82bd
000000f0: 8f62 d8bc 7529 63bd b6c8 803c a967 bbbb
00000100: 3388 393c c3bd 963b dd24 923c 0092 083d
00000110: 34fe 4bbc ae79 20bd 8f1d 4abd 098b 72bd
00000120: 0d60 e53b 24b1 38bd d2f6 00bc 17ea 983c
00000130: 418c e5bc ccd5 503c e226 b23b 7424 143c
00000140: a3a6 873c 3b0a 3abd 47b9 0abd fc11 51bd
00000150: 7554 34bd 7ccb 36bd 1a76 14bb ad91 443d
00000160: e926 46bc 2e68 093c ad84 553d 3557 71bd
00000170: 3b3d 013c 2f88 b13c d6e6 97bd e5e1 153d
00000180: ca0b 1bbd 51d8 c23b 418b ae3b 3fe2 5fbd
00000190: 375e 833c 2011 dd3c 2f3a 4ebc 93ed 90bc
000001a0: 8257 39bd a5c1 483c c77c 1e3d 64ff 7ebd
000001b0: b69d 833d ad30 d9bb 9930 6f3c bade 2fbd
000001c0: e285 38bd a662 3a3c acde fe3c 7258 e43b
000001d0: 6312 283c fce8 67bd 2a19 e1bc b0ba c13c
000001e0: 9de9 b13c f5ef d83b f087 863c 9df1 3cbd
000001f0: 031e 98bc ee41 91bc 9998 68bd cfc5 6abd
00000200: 49e8 083c 63a0 653d 610b c9bc bc45 e63c
00000210: 4c97 a33c d226 3cbc 4cf2 d33c d63b c23b
00000220: 9e2b 30bc 39f2 62bd 4899 bebc 43cc 9b3c
00000230: 3db0 d9bc b01b a03d 6335 583c 6780 c0bc
00000240: e5dc 25bd 5c6f f8bc 6317 423d 905b 6fba
00000250: 6897 40bd 605e dcbb dda7 60bd df42 ecb9
00000260: 85a6 2cbd e418 243d 5d7f ab3c 2959 69bd
00000270: 231a c13c f1df cc3c c194 ca3c d71d ad3c
00000280: c5eb 0ebd fc7c 793d ca07 6cb9 357b db3c
00000290: a183 0b3b a6e4 30bd 930c 08bd 2766 433d
000002a0: 8f42 ac3c 5e44 143d bb41 3f3d 5b75 263d
000002b0: e36d 61bd 8030 013d c651 73bd d664 16bd
000002c0: 5e40 2e3d d32e e73c 8649 02bb 2509 443d
000002d0: 2121 f6bc e547 6abc d373 f6ba 3eb7 973c
000002e0: ce68 033d 1683 b1bc c1c0 393d 236d a13d
000002f0: c50a af3c 81aa 403d 63bb b3bc def8 59bd
00000300: 985c a93c 9ed4 a5bc 599f 4cbd 2dbc 4e3c
00000310: 48a0 533c 4f8e 2e3d ceb1 0eba 6a12 1dbd
00000320: abce 193c abba 51bb 0de4 05bd b9eb 8f3d
00000330: f4ee b53c 8be5 833c 318d cabb 29a0 7abc
00000340: 2f6a 5ebb 8b1b 8d3d 975b 21bd de29 003b
00000350: 9eaf e2bc 2d21 163d a73d f43c e758 5cbd
00000360: 3660 35bc 3ac5 d8bc d37d a9bc 0bae 493b
00000370: 44c8 1bbc b860 963d 0b6d 513d 93f2 a7bb
00000380: b0b2 b53b 918b 88bc 8754 953b 4a80 193d
00000390: 51ae 843c eb0d acbc 1c67 83bc cd09 bb3b
000003a0: 87a5 e4bb 98dd 5a3d f259 aa3d 3e06 e63b
000003b0: 0a57 2b3d 58da e9bc 33a9 c13b f0fb 8dbd
000003c0: d13c 1cbc 79aa febc 9f6e 1c3d 5949 21bd
000003d0: 2cbd 453d 5667 f3bc 38b5 d4ba 8eb2 433c
000003e0: e7e7 73bb ca84 8e3c 5660 c83c 06d3 0b3b
000003f0: 9fb8 b7bb be08 06bd 4a93 d8bc 2b4b 35bd

network_body._body_endoder.seq_layers.0.bias f4 [256]
0.010057088 0.02937416 0.03806818 -0.011297806 0.02167867 0.017932924 -0.011169108 0.058527283
0.058840614 0.041321192 0.05215982 0.021330146 0.060628492 -0.021668945 -0.071156144 0.02717979
0.04937022 -0.06844325 0.05544153 0.06221509 0.06685868 0.030436816 0.014448881 0.065357216
0.012287439 0.04354356 0.07544983 0.031195078 0.07085307 0.0693233 0.058463592 0.029469183
-0.040020917 -0.057750866 0.043796282 0.0689397 0.062010024 -0.061158706 0.064982936 0.0646161
-0.008082455 0.037705623 0.0071534757 0.018118175 -0.035366334 0.01559318 0.04811881 0.06862769
0.0403766 0.074961066 0.058077537 0.067888096 0.059070993 0.06686568 0.06681875 0.068136774
-0.019218683 0.052837964 -0.058348406 0.066542014 -0.05433624 0.06835447 0.069102116 -0.01970037
-0.071518175 0.0073650214 0.052129723 0.07136762 -0.023785792 0.06440157 0.063440785 -0.07992395
0.00603617 0.039345164 0.06072269 0.04117705 0.052466474 0.064979546 0.029272942 -0.048104443
-0.014168238 -0.0022336608 0.06005088 0.025622485 -0.046685908 0.041833155 0.062231246 0.06748992
0.062277444 -0.035206378 0.048859537 -0.06807397 0.06862889 -0.0042244554 0.05026311 -0.014104479
0.05324904 0.058355033 0.060304005 -0.033296257 -0.034590177 0.06057389 0.06011362 0.06336016
0.0731055 0.0687452 0.070922054 -0.006997727 -0.042919815 0.076313846 0.06486988 0.016753722
0.06400498 0.053920254 -0.010339463 -0.022644214 0.03245717 0.06650056 0.06372455 -0.014476749
0.0591063 0.053346254 -0.03694512 0.06760284 0.030104917 -0.036252968 0.06588497 0.053668834
0.05730533 0.050944503 -0.061563063 -0.0005734813 -0.06927984 -0.054062247 0.064292304 0.069249235
0.046804402 -0.03398552 0.04876377 0.06713177 0.066760845 0.059968673 0.06383391 0.05504029
0.0556574 -0.020928144 0.060403187 0.06358612 0.05941754 0.06284717 0.052938152 0.052609272
-0.009181021 0.06544723 0.021186264 -0.017188685 0.027098263 0.0014794937 0.06749688 0.066450454
-0.010676373 -0.035534956 -0.05556837 -0.058228362 -0.013430579 -0.04819278 0.06700867 -0.02006915
0.022131449 0.054454304 0.056861103 0.0491643 -0.0007585296 -0.031659994 0.059173707 0.004414835
-0.012717382 0.06405244 0.06282141 0.07393843 0.012705911 0.068285376 0.062162727 -0.051484983
0.03828812 0.06214748 -0.016619269 0.06095895 -0.045475464 0.06671646 0.06631673 0.05930457
-0.056775026 0.030638322 -0.02636405 0.04824104 -0.047934342 -0.0032303217 0.067234516 -0.021586074
0.021351485 0.010989803 -0.028593251 -0.0127013 0.03123841 0.06227048 -0.029741151 -0.027438471
0.037611477 0.06260813 -0.04291121 0.05634461 0.06570555 0.013770179 0.054866113 0.06403998
0.060491677 0.06953854 0.009142437 0.052213654 0.033434693 0.07457731 0.046458013 0.06576137
0.030384833 0.011419582 -0.046174776 -0.032502975 0.040196054 0.06806301 0.06473529 0.06232721
0.048864346 0.043874457 0.019886935 0.05918087 0.0417242 0.056628972 0.054912787 0.055208445
0.059485283 -0.067811884 -0.06185713 0.06800832 0.069015965 0.06392637 0.062472288 -0.054008707
0.057620116 0.061916366 -0.014788546 0.056715887 -0.057816543 0.060555734 -0.057528164 0.066461146
00000000: 7cc6 243c 14a2 f03c 61ed 1b3d 6f1a 39bc
00000010: 7797 b13c 11e8 923c a2fe 36bc 4eba 6f3d
00000020: db02 713d 6940 293d 89a5 553d 8fbc ae3c
00000030: 9555 783d 1283 b1bc 50ba 91bd 27a8 de3c
00000040: 6e38 4a3d fa2b 8cbd a816 633d 40d5 7e3d
00000050: 34ed 883d a156 f93c 00bb 6c3c 01da 853d
00000060: 4151 493c bb5a 323d 7185 9a3d d28c ff3c
00000070: 6a1b 913d 60f9 8d3d 8577 6f3d 5b69 f13c
00000080: f9ec 23bd 2c8c 6cbd bb63 333d 4230 8d3d
00000090: 39fe 7d3d 8d81 7abd c615 853d 7255 843d
000000a0: 466c 04bc 3671 1a3d b467 ea3b 916c 943c
000000b0: 4adc 10bd 8a7a 7f3c 3b18 453d ad8c 8c3d
000000c0: ef61 253d 3085 993d b6e2 6d3d ea08 8b3d
000000d0: 6df4 713d e0f0 883d 45d8 883d 4b8b 8b3d
000000e0: 8070 9dbc 9f6c 583d bdfe 6ebd 2e47 883d
000000f0: ad8f 5ebd 6efd 8b3d 6985 8d3d ac62 a1bc
00000100: 1f78 92bd 4756 f13b fa85 553d 3029 923d
00000110: 6cda c2bc f8e4 833d 3eed 813d 2baf a3bd
00000120: 10cb c53b 6528 213d 5bb8 783d 44a9 283d
00000130: 16e7 563d ff13 853d cfcd ef3c 2a09 45bd
00000140: e621 68bc 9c62 12bb e9f7 753d 3fe6 d13c
00000150: b939 3fbd 3e59 2b3d 31e6 7e3d 2838 8a3d
00000160: a216 7f3d 9034 10bd f020 483d 5e6a 8bbd
00000170: 4e8d 8c3d 4d6d 8abb b1e0 4d3d 7916 67bc
00000180: aa1b 5a3d b005 6f3d 5501 773d a861 08bd
00000190: 6eae 0dbd 541c 783d b339 763d f9c2 813d
000001a0: 56b8 953d 49ca 8c3d 953f 913d 304d e5bb
000001b0: b0cc 2fbd 6f4a 9c3d 80da 843d 1a3f 893c
000001c0: 0b15 833d 7cdb 5c3d da66 29bc 5c80 b9bc
000001d0: cff1 043d 7231 883d 0482 823d e32f 6dbc
000001e0: 7319 723d 9a81 5a3d c453 17bd 5c73 8a3d
000001f0: 969e f63c fe7d 14bd b3ee 863d dad3 5b3d
00000200: feb8 6a3d 2fab 503d 8d29 7cbd ae55 16ba
00000210: 97e2 8dbd 6070 5dbd afab 833d 8bd2 8d3d
00000220: f9b5 3f3d 6734 0bbd 85bc 473d 627c 893d
00000230: e9b9 883d b6a1 753d 5abb 823d ed71 613d
00000240: 04f9 633d 8071 abbc 5569 773d 7139 823d
00000250: ce5f 733d 04b6 803d add5 583d d27c 573d
00000260: fe6b 16bc 3309 863d d18e ad3c 49cf 8cbc
00000270: 2dfd dd3c 92eb c13a ce3b 8a3d 2d17 883d
00000280: f4eb 2ebc 1a8d 11bd a99b 63bd dd80 6ebd
00000290: ee0b 5cbc cb65 45bd d73b 893d 0f68 a4bc
000002a0: 034d b53c 7a0b 5f3d 30e7 683d 8160 493d
000002b0: 0fd8 46ba e9ad 01bd 2160 723d 52aa 903b
000002c0: 915c 50bc ed2d 833d 83a8 803d 086d 973d
000002d0: 742c 503c 34d9 8b3d 589e 7e3d ebe1 52bd
000002e0: 01d4 1c3d 5b8e 7e3d 2225 88bc 18b0 793d
000002f0: 7b44 3abd a4a2 883d 11d1 873d 59e9 723d
00000300: ee8c 68bd 38fd fa3c 6cf9 d7bc 6698 453d
00000310: cd56 44bd ceb3 53bb 40b2 893d 47d5 b0bc
00000320: 4fe9 ae3c 930e 343c 653c eabc 1d19 50bc
00000330: b2e7 ff3c 550f 7f3d b7a3 f3bc a5c6 e0bc
00000340: 7e0e 1a3d b138 803d aac3 2fbd 9bc9 663d
00000350: a290 863d 519c 613c 4abb 603d 6527 833d
00000360: 1fc6 773d 396a 8e3d 29ca 153c fcdd 553d
00000370: d1f2 083d fdbb 983d c24a 3e3d e6ad 863d
00000380: 9de9 f83c 3319 3b3c c321 3dbd d721 05bd
00000390: 9ea4 243d 9f64 8b3d f093 843d d14a 7f3d
000003a0: fb25 483d b4b5 333d ede9 a23c a467 723d
000003b0: ffe6 2a3d c8f3 673d 3bec 603d 4022 623d
000003c0: d7a6 733d f5e0 8abd e75d 7dbd f247 8b3d
000003d0: 3e58 8d3d d4eb 823d f1e2 7f3d 3c38 5dbd
000003e0: 1203 6c3d 049c 7d3d a84b 72bc eb4e 683d
000003f0: 0ad1 6cbd 4a09 783d a7a2 6bbd c81c 883d

network_body._body_endoder.seq_layers.0.weight f4 [256, 6]
-0.5382599 -1.0816432 -0.41034323 -0.41625166 -0.51401985 -0.2514732 0.58172244 -0.25928462
0.44371608 -0.10506195 0.5952955 -0.5410255 0.4743652 0.34705886 0.20266797 -0.86604995
-0.37721178 0.3754648 0.2174902 -0.69399124 -0.048347574 0.1144635 -0.9187493 -0.33239764
-0.111440964 -0.38904247 0.39743426 -0.61993414 0.3611454 -0.6432324 0.38311428 0.15657862
0.24456234 -0.044741515 -0.03630298 0.25404513 0.455345 0.044668153 0.70445603 0.2489185
0.21450801 -0.039273083 -0.7889314 0.06979525 -0.55222696 1.0010837 0.28002125 0.9292136
0.06465868 -0.5026081 -0.31871858 0.009330408 -0.2897833 -0.31541544 -0.014393574 0.52229923
0.02122072 0.75148547 0.23861942 -0.2152144 0.45343152 -0.026002327 -0.1760332 -0.63812846
0.4404034 0.1075227 -0.28796828 -0.32588685 -0.09682319 -0.11829116 0.5499329 -0.09817548
-0.19533283 -0.6341065 -0.2519181 0.14373104 -0.56378466 -0.20266584 0.3604321 -0.45238665
0.37422276 0.2339296 -0.28538 -0.23901336 0.26431504 0.19711597 0.17193763 -0.39109468
-0.6986397 0.1415976 0.7031665 0.19795707 0.23388545 0.39513314 0.610922 -0.18462361
0.14645289 -0.12467489 -0.61861914 0.06101035 0.13579926 0.24923517 0.080711395 0.43809003
-0.11796878 0.7465759 0.035797104 0.05596307 0.14922808 0.8437248 -0.39214993 -0.42661905
0.19397917 -0.43305984 -0.68106616 0.110075645 -0.3564092 1.0185316 0.10058273 -0.36494452
-0.14806251 -0.5376838 -0.28599152 -0.18227251 0.2692818 -0.47799474 0.04433949 -0.5867405
0.18340038 -0.61604196 0.03642685 -0.114985384 0.22873065 -0.14539647 0.84084034 -0.71907693
-0.099076904 -0.036530245 -0.6938109 -0.046174858 -0.37444785 -0.8427773 0.815615 -0.21213111
0.68610746 0.5380604 0.9301836 0.2193309 -0.25318688 -0.35805324 0.6212651 -0.2550521
-0.17099762 0.005857562 0.61949134 0.47812498 -0.61463284 0.075264946 0.15534946 -0.75303864
-0.33472958 0.78033817 0.23119472 -0.33698457 0.12307165 -0.08192193 -0.053707033 -0.10450562
-0.17884724 -0.21048628 -0.37172565 -0.30867654 -0.13149615 0.15711784 -0.58235174 -0.085564286
0.20260239 -0.6918414 0.22433332 0.39224714 -0.1520014 -0.44956988 0.16024743 0.4252697
0.25033835 -0.27645165 -0.011512769 -0.4478741 -0.25134113 0.3632758 -0.334652 -0.47301587
-0.1555474 -0.005760793 0.5510037 0.65436035 0.10730957 -0.23018141 -0.003954801 0.6474794
0.24463283 -0.09717055 -0.22655945 0.2964039 -0.35631493 -0.51334566 1.3697901 -0.13421807
-0.25319064 -0.27776143 -0.47247308 0.30963477 -0.057844073 -0.5460961 -0.41458112 -0.56959605
-0.367838 -0.24374923 -0.6411564 -0.22882609 0.6372686 0.66880214 0.46975884 0.2610826
0.25955954 0.25607535 -0.2514647 0.5533653 -0.2825208 -0.68719494 -0.48262537 -0.7527553
-0.51252556 -0.07687605 0.42947772 -0.24848782 -0.5081894 -0.1983097 -0.43799603 0.010031392
0.0730815 -0.42315188 -0.3930082 -0.068227574 -0.2708007 -0.11018165 -0.63508844 0.72212887
-0.12517019 -0.19516782 -0.24232924 -0.45014608 0.27563924 0.092134975 0.51534885 -0.07508556
00000000: 67cb 09bf 4973 8abf 8218 d2be f01e d5be
00000010: ce96 03bf 18c1 80be c3eb 143f f4c0 84be
00000020: c12e e33e b82a d7bd 4965 183f a680 0abf
00000030: ffdf f23e b3b1 b13e 3188 4f3e 73b5 5dbf
00000040: e721 c1be ec3c c03e c0b5 5e3e 69a9 31bf
00000050: 1b08 46bd d76b ea3d 2733 6bbf 0630 aabe
00000060: 293b e4bd 9330 c7be 817c cb3e 01b4 1ebf
00000070: 0de8 b83e e1aa 24bf 8e27 c43e 2556 203e
00000080: 8d6e 7a3e e142 37bd 6fb2 14bd 3412 823e
00000090: fb22 e93e f4f5 363d 3b57 343f 7ee4 7e3e
000000a0: fda7 5b3e d0dc 20bd 69f7 49bf d0f0 8e3d
000000b0: bf5e 0dbf 8323 803f f25e 8f3e f1e0 6d3f
000000c0: c56b 843d edaa 00bf 152f a3be 91de 183c
000000d0: 7a5e 94be 227e a1be 06d3 6bbc 67b5 053f
000000e0: 13d7 ad3c 5a61 403f a658 743e 2a61 5cbe
000000f0: 2d28 e83e d502 d5bc 0c42 34be 635c 23bf
00000100: 8e7c e13e dd34 dc3d 9470 93be a4da a6be
00000110: 3d4b c6bd a342 f2bd 67c8 0c3f 3a10 c9bd
00000120: 5405 48be ce54 22bf 69fb 80be 3b2e 133e
00000130: 3154 10bf a287 4fbe 8e8a b83e 399f e7be
00000140: 209a bf3e 3e8b 6f3e 541d 92be ebbf 74be
00000150: 4d54 873e c5d8 493e 6b10 303e 903d c8be
00000160: 0dda 32bf f6fe 103e b802 343f 42b5 4a3e
00000170: ab7f 6f3e e44e ca3e 6265 1c3f f90d 3dbe
00000180: bff7 153e 8c55 ffbd d35d 1ebf fde5 793d
00000190: f60e 0b3e 8137 7f3e 044c a53d 564d e03e
000001a0: 9e99 f1bd 991f 3f3f fc9f 123d 8839 653d
000001b0: 3fcf 183e 59fe 573f e0c7 c8be d06d dabe
000001c0: 7aa2 463e 05ba ddbe 5a5a 2ebf 576f e13d
000001d0: 447b b6be 3e5f 823f 51fe cd3d 02da babe
000001e0: b39d 17be a5a5 09bf 7b6d 92be a5a5 3abe
000001f0: 4edf 893e babb f4be 539d 353d a034 16bf
00000200: 4fcd 3b3e edb4 1dbf 5234 153d 757d ebbd
00000210: 5e38 6a3e d0e2 14be 5041 573f 6d15 38bf
00000220: d5e8 cabd bda0 15bd 979d 31bf d921 3dbd
00000230: a1b7 bfbe 41c0 57bf 25cc 503f e638 59be
00000240: bda4 2f3f 54be 093f 8320 6e3f 4898 603e
00000250: b6a1 81be c152 b7be 3b0b 1f3f 3096 82be
00000260: 001a 2fbe cbf0 bf3b fc96 1e3f cccc f43e
00000270: 9458 1dbf 8224 9a3d ee13 1f3e 24c7 40bf
00000280: ad61 abbe 3ec4 473f 4fbe 6c3e 3e89 acbe
00000290: fd0c fc3d afc6 a7bd e8fb 5bbd 0b07 d6bd
000002a0: bb23 37be b789 57be d352 bebe da0a 9ebe
000002b0: eda6 06be 80e3 203e 0115 15bf 543c afbd
000002c0: 0077 4f3e 851c 31bf a2b7 653e 9ed4 c83e
000002d0: 41a6 1bbe 062e e6be e717 243e f3bc d93e
000002e0: 592c 803e 128b 8dbe 0ea0 3cbc c14f e5be
000002f0: c9af 80be 49ff b93e 8257 abbe 232f f2be
00000300: d147 1fbe 09c5 bcbb 940e 0d3f 2984 273f
00000310: 1fc5 db3d adb4 6bbe 4697 81bb 36c1 253f
00000320: 0781 7a3e 5a01 c7bd 33ff 67be 41c2 973e
00000330: e96e b6be 9f6a 03bf 4855 af3f 7670 09be
00000340: 34a2 81be bf36 8ebe fee7 f1be 7388 9e3e
00000350: e8ed 6cbd f4cc 0bbf fa43 d4be 0cd1 11bf
00000360: 4355 bcbe 6699 79be d322 24bf 6351 6abe
00000370: 0924 233f 9e36 2b3f 3b84 f03e 9eac 853e
00000380: fde4 843e 4f1c 833e fbbf 80be 59a9 0d3f
00000390: 91a6 90be 02ec 2fbf ac1a f7be 92b4 40bf
000003a0: e034 03bf 3171 9dbd 81e4 db3e 9773 7ebe
000003b0: b318 02bf b311 4bbe 0441 e0be b55a 243c
000003c0: c1ab 953d 5da7 d8be 5f38 c9be e6ba 8bbd
000003d0: 64a6 8abe eba6 e1bd 2895 22bf 70dd 383f
000003e0: 9d2c 00be 13da 47be 2825 78be 8c79 e6be
000003f0: 9620 8d3e 43b1 bc3d e7ed 033f 75c6 99bd

network_body._body_endoder.seq_layers.2.bias f4 [256]
-0.056516487 -0.05151525 0.03896967 0.05171769 -0.030601142 0.03660948 0.046107132 -0.05988245
0.038348053 0.061236918 -0.046948347 -0.053542368 0.012124432 0.047765624 0.0042488496 0.02407448
0.035402138 0.013675453 -0.05389863 0.035443414 0.064114496 0.055546578 0.058632255 -0.050959576
0.040880617 0.036868423 0.057756104 -0.053164683 -0.06032887 -0.05800678 0.050900903 0.05312965
0.06289182 -0.0022503987 -0.04579059 0.055467885 -0.058393996 0.045255482 0.037602723 -0.060577564
0.062915325 0.03756729 -0.0572091 0.018576091 -0.024144376 0.005359337 0.04897858 0.046279013
0.07153184 0.053936202 0.04162295 -0.054360867 0.01897911 -0.05143131 -0.058251522 0.056184176
0.054612167 -0.061622266 -0.043938555 -0.01490242 -0.05804338 -0.057226565 0.009454653 0.040733077
-0.053733565 -0.061564013 -0.049086113 0.06354551 0.05522558 0.07120989 0.06562955 0.042194527
0.062091395 0.040199835 0.057420526 0.0267057 0.055244535 0.048499282 -0.05750929 0.050193913
-0.034349214 -0.05946153 0.03273655 -0.051727284 -0.034308225 -0.04337581 0.01697527 0.030722523
0.040082637 0.06549122 0.014190172 0.03783987 -0.061790243 -0.034784123 0.036462016 0.056467365
-0.0027621258 0.02651677 0.047389228 0.0008684129 -0.033832897 0.05142028 -0.048895504 -0.048912052
0.048410974 -0.05188482 0.05992172 0.019831726 0.05648657 0.011875622 0.0381868 0.037846707
0.03639319 0.051409185 0.043246407 -0.012058364 0.06774476 0.003749776 0.024169058 0.034841504
-0.05226542 -0.035717178 0.037137777 -0.05661132 -0.05366748 0.040543325 -0.058229923 -0.060975526
0.056072686 -0.02444513 0.06803623 0.057037923 0.05732052 -0.037896536 0.046547063 -0.05468233
0.0014115828 -0.038030397 0.020467093 0.042136032 0.05082219 0.055827234 -0.040711027 -0.062757164
0.05988556 0.014233301 -0.058536563 0.04860182 -0.020236177 -0.053744543 0.036923274 -0.015855452
0.025632404 0.04529918 0.046652276 -0.02820935 0.006208359 0.05552156 -0.058889546 0.0657075
-0.05783873 -0.059157908 0.049216025 0.046350908 -0.008072691 -0.027853696 -0.05317883 0.04056324
0.030894596 -0.029172685 0.06317182 0.012925062 -0.053716496 0.00898088 0.039246146 0.04454973
-0.046556782 0.026442276 -0.05785262 -0.042980097 -0.017780008 -0.05051566 0.06829442 0.06817197
0.075551726 -0.0671858 0.05350746 0.012187272 0.025567135 0.061951794 0.067698345 -0.0061320113
-0.027945457 0.0013678148 0.037508976 -0.044921517 0.050392188 -0.05820277 0.040523883 0.04517506
0.02061629 0.03257427 -0.041277766 0.04412759 -0.011269437 0.051763546 0.029102352 0.06058981
-0.0593088 0.05000394 0.04682623 0.018159786 0.06285421 0.04259156 0.02045017 0.057320263
0.045263153 -0.01721658 -0.05318573 -0.012578436 -0.032621708 0.023051394 -0.005998152 0.04750988
-0.05934255 -0.051757045 -0.013085876 -0.033366766 0.0026272621 -0.05986466 0.072107695 0.026100101
0.036554597 -0.026211 -0.056471474 -0.055009395 0.051786073 -0.059601143 -0.05195461 -0.011011243
-0.038195986 -0.012015092 0.030844819 0.05638698 0.0531658 0.051922873 -0.04401739 -0.018892799
0.0012494217 -0.058126997 -0.018091088 0.059702437 -0.036694366 -0.045139436 -0.04734046 -0.056587286
00000000: d57d 67bd a801 53bd a99e 1f3d eed5 533d
00000010: 3faf fabc d2f3 153d d5da 3c3d 4d47 75bd
00000020: d912 1d3d 90d3 7a3d e94c 40bd 3e4f 5bbd
00000030: 8ea5 463c e3a5 433d ef39 8b3b d837 c53c
00000040: d501 113d 020f 603c cfc4 5cbd 1d2d 113d
00000050: 764e 833d cf84 633d 6028 703d fdba 50bd
00000060: 6f72 273d 5803 173d aa91 6c3d 36c3 59bd
00000070: 681b 77bd 8498 6dbd 777d 503d 7a9e 593d
00000080: 6dcd 803d 6d7b 13bb ea8e 3bbd 4b32 633d
00000090: 8b2e 6fbd d05d 393d 5005 1a3d 2e20 78bd
000000a0: c0d9 803d 29e0 193d 1754 6abd e32c 983c
000000b0: 6dca c5bc 619d af3b c39d 483d 108f 3d3d
000000c0: 497f 923d 35ec 5c3d d47c 2a3d 80a9 5ebd
000000d0: 147a 9b3c a3a9 52bd 2699 6ebd 6121 663d
000000e0: 02b1 5f3d a167 7cbd eaf8 33bd 4829 74bc
000000f0: e5be 6dbd 6766 6abd b0e7 1a3c bad7 263d
00000100: ba17 5cbd 8c2a 7cbd 850e 49bd 2624 823d
00000110: 3834 623d 7ed6 913d c968 863d 2bd4 2c3d
00000120: 8c53 7e3d 95a8 243d c931 6b3d eac5 da3c
00000130: 1848 623d 2fa7 463d dc8e 6bbd 2298 4d3d
00000140: c3b1 0cbd ef8d 73bd c316 063d fddf 53bd
00000150: c886 0cbd d5aa 31bd b90f 8b3c cdad fb3c
00000160: b12d 243d 4320 863d e57d 683c fbfd 1a3d
00000170: c417 7dbd cc79 0ebd 3259 153d 534a 673d
00000180: c804 35bb b239 d93c 351b 423d 34a6 633a
00000190: 5d94 0abd 129e 523d a746 48bd 0158 48bd
000001a0: 964a 463d 2d85 54bd 7a70 753d 2576 a23c
000001b0: 765e 673d f891 423c c369 1c3d 2605 1b3d
000001c0: 0711 153d 7092 523d 2523 313d 7290 45bc
000001d0: c4bd 8a3d cdbe 753b 30fe c53c f7b5 0e3d
000001e0: 4414 56bd 2d4c 12bd c81d 183d 45e1 67bd
000001f0: 6ed2 5bbd c210 263d 8082 6ebd 79c1 79bd
00000200: 79ac 653d 2741 c8bc 9456 8b3d 99a0 693d
00000210: ecc8 6a3d 6639 1bbd 22a8 3e3d 94fa 5fbd
00000220: dc04 b93a c3c5 1bbd 9baa a73c d596 2c3d
00000230: ee2a 503d 19ab 643d 9bc0 26bd d486 80bd
00000240: 904a 753d cb32 693c 09c4 6fbd b412 473d
00000250: 57c6 a5bc 3d23 5cbd dc3c 173d 4be3 81bc
00000260: 0cfb d13c a28b 393d 7516 3f3d 4b17 e7bc
00000270: 7d6f cb3b 936a 633d 2a36 71bd a791 863d
00000280: 4ee8 6cbd 904f 72bd be96 493d 73da 3d3d
00000290: 5243 04bc 6f2d e4bc 0bd2 59bd a425 263d
000002a0: aa16 fd3c 8efb eebc 3a60 813d a4c3 533c
000002b0: d405 5cbd 8a24 133c 91c0 203d c779 363d
000002c0: 53b2 3ebd 799d d83c def6 6cbd e60b 30bd
000002d0: 61a7 91bc 82e9 4ebd f2dd 8b3d bf9d 8b3d
000002e0: ddba 9a3d b598 89bd a32a 5b3d 20ad 473c
000002f0: 2b72 d13c 2ac1 7d3d 6ea5 8a3d 0aef c8bb
00000300: dfed e4bc 4048 b33a 03a3 193d a0ff 37bd
00000310: 0a68 4e3d 0766 6ebd 5ffc 253d 7c09 393d
00000320: 7ee3 a83c 996c 053d e012 29bd 22bf 343d
00000330: 72a3 38bc 0306 543d 0e68 ee3c 052d 783d
00000340: c9ed 72bd eed0 4c3d dccc 3f3d d5c3 943c
00000350: b5b9 803d 7d74 2e3d 1d87 a73c a7c8 6a3d
00000360: db65 393d c909 8dbc 48d9 59bd c915 4ebc
00000370: 579e 05bd 47d6 bc3c 258c c4bb b899 423d
00000380: 2c11 73bd 32ff 53bd 2466 56bc 97ab 08bd
00000390: 252e 2c3b a534 75bd 33ad 933d e1cf d53c
000003a0: 46ba 153d 73b8 d6bc a24e 67bd 8851 61bd
000003b0: a21d 543d 5420 74bd 5bce 54bd 8068 34bc
000003c0: 6573 1cbd f3da 44bc 46ae fc3c 09f6 663d
000003d0: 62c4 593d 14ad 543d 944b 34bd 12c5 9abc
000003e0: a3c3 a33a 9316 6ebd c333 94bc 8b8a 743d
000003f0: d54c 16bd 21e4 38bd 12e8 41bd 12c8 67bd

network_body._body_endoder.seq_layers.2.weight f4 [256, 256]
-0.015168533 -0.049654238 -0.06630342 0.067823775 -0.03306175 0.020262722 -0.012619728 -0.052934494
0.023528453 -0.07231346 0.010210793 0.070818 -0.065240405 0.012005815 -0.052755456 -0.02872979
-0.040610813 0.05612116 0.019173067 -0.15461753 0.063789696 -0.038554095 0.009139192 -0.023055037
0.057304185 0.033470806 -0.048040215 -0.024057409 -0.038848255 -0.06780869 -0.0057811 -0.118036464
-0.10927124 -0.06814834 -0.106416315 -0.06638064 -0.035816573 -0.065385126 0.030153858 -0.0694021
-0.05384989 -0.08245481 -0.07956741 -0.05977462 0.01320501 -0.06283503 0.046694472 -0.069824934
0.02889589 -0.11010087 0.032683395 -0.09190819 -0.050209202 -0.23270912 -0.08681614 0.05675463
-0.13037561 -0.02066753 -0.01012398 -0.08982899 -0.040816847 0.011640615 0.058673836 -0.046919804
-0.102813765 -0.03573833 0.09348748 -0.04179385 0.066302635 0.03249053 -0.15668896 -0.08821085
0.05189495 -0.05485491 -0.06432432 -0.10452237 -0.048784535 -0.05051015 0.08618746 -0.044161998
-0.06102877 -0.03012277 -0.14060116 -0.11287025 -0.0017534088 -0.008398291 0.08015866 -0.060294818
-0.018287683 -0.0017342264 -0.10336669 -0.1703068 0.09887358 -0.0071186014 0.016928744 -0.08811678
-0.041385066 0.018836502 -0.029099084 0.0266193 0.123703934 -0.01997961 -0.034176964 0.035175648
-0.13420239 -0.039044913 0.03174951 -0.03311005 0.13365604 0.0076904343 -0.05623405 0.015098113
-0.10055841 -0.07838814 0.0031011691 -0.07491348 0.003746635 0.110960275 -0.09912388 -0.031780593
-0.10687061 -0.014470356 0.02227727 0.094761215 -0.013067117 -0.021910034 -0.1484258 0.037031356
0.085732795 -0.038862497 -0.001994019 -0.0037003146 -0.13868825 0.049018566 -0.035354238 -0.09171995
-0.04636393 -0.062312722 -0.06574693 -0.026855804 -0.13235594 -0.08469673 -0.09271722 -0.09133906
-0.15184775 -0.13701324 0.035242766 0.109004565 -0.052238 -0.050981574 0.014200476 -0.055025388
0.09218969 -0.0896171 -0.056463093 -0.06416723 -0.05609108 -0.08369309 -0.14233917 -0.1696278
0.015522328 -0.10548757 0.11026545 -0.0077051544 0.054469313 -0.011353556 0.016988346 0.03219062
0.028200774 0.022122243 0.019583989 -0.0016657283 0.012066642 -0.021596646 -0.027951743 -0.06350252
0.025521379 -0.11376533 -0.04420447 0.11160041 -0.04656532 -0.008934354 -0.043014847 0.09231583
-0.025505679 -0.119604684 -0.042750955 0.03735079 0.0774117 -0.003934984 0.020725772 -0.01058657
-0.0043001724 -0.017066143 -0.08214927 -0.12601861 -0.091850854 -0.027208552 -0.0050436407 -0.040426783
-0.042409487 0.02747464 0.09404539 0.10228476 0.007423672 -0.16804782 0.10547306 0.053038195
-0.07030133 0.03893808 -0.06479126 -0.08759141 -0.015486937 -0.07784172 -0.11197373 -0.06032695
-0.1677429 0.08453887 0.022555368 -0.078683734 0.036138628 -0.01826755 -0.011660924 -0.03251024
-0.07077656 -0.07717157 -0.073254175 -0.099771015 -0.0431518 0.051079337 -0.056488708 -0.0597558
-0.17453152 -0.08420395 -0.012662734 0.0172983 -0.032029584 -0.007520659 -0.064072445 0.035618708
0.04246686 -0.038203508 0.029872574 0.020724274 -0.12177284 0.049960986 -0.031303972 0.1341989
0.045800842 0.0541183 -0.08785919 -0.012747681 0.092608705 -0.08904249 -0.040003903 0.015873546
00000000: 7085 78bc 3e62 4bbd 16ca 87bd 31e7 8a3d
00000010: c26b 07bd 02fe a53c fac2 4ebc d7d1 58bd
00000020: bebe c03c 1419 94bd 2c4b 273c 0709 913d
00000030: c39c 85bd 0ab4 443c 1b16 58bd bd5a ebbc
00000040: 8657 26bd 4ddf 653d d610 9d3c 0f54 1ebe
00000050: 2ca4 823d e6ea 1dbd 8dbc 153c ebdd bcbc
00000060: cbb7 6a3d af18 093d d1c5 44bd 0b14 c5bc
00000070: 591f 1fbd 48df 8abd 626f bdbb 1abd f1bd
00000080: 9ac9 dfbd 5b91 8bbd ccf0 d9bd 93f2 87bd
00000090: 66b4 12bd a3e8 85bd 3905 f73c b022 8ebd
000000a0: b491 5cbd 11de a8bd 3df4 a2bd 3bd6 74bd
000000b0: d459 583c a7af 80bd b442 3f3d 6000 8fbd
000000c0: 13b7 ec3c 917c e1bd 06df 053d 5c3a bcbd
000000d0: 2aa8 4dbd 4d4b 6ebe a9cc b1bd 8b77 683d
000000e0: 2f81 05be f44e a9bc 0ddf 25bc 43f8 b7bd
000000f0: 912f 27bd 47b8 3e3c fa53 703d fb2e 40bd
00000100: 0690 d2bd 5b62 12bd 5d76 bf3d 0730 2bbd
00000110: adc9 873d ca14 053d 1273 20be e4a7 b4bd
00000120: cd8f 543d 8baf 60bd 78bc 83bd d30f d6bd
00000130: 4bd2 47bd bbe3 4ebd 0d83 b03d 36e3 34bd
00000140: 4ef9 79bd 07c4 f6bc c0f9 0fbe 8528 e7bd
00000150: a3d2 e5ba fc98 09bc 392a a43d b3f7 76bd
00000160: 0dd0 95bc fb4e e3ba eab1 d3bd e864 2ebe
00000170: 3b7e ca3d 2843 e9bb 26ae 8a3c 9276 b4bd
00000180: 6383 29bd 024f 9a3c 3461 eebc b810 da3c
00000190: 7d58 fd3d 47ac a3bc 25fd 0bbd 5714 103d
000001a0: 5a6c 09be 8fed 1fbd c60b 023d 679e 07bd
000001b0: 21dd 083e 0a00 fc3b ad55 66bd 135e 773c
000001c0: 91f1 cdbd f689 a0bd fc3c 4b3b 3d6c 99bd
000001d0: 1b8a 753b 243f e33d 7601 cbbd 5e2c 02bd
000001e0: fade dabd 1215 6dbc d27e b63c 2b12 c23d
000001f0: 7617 56bc ac7c b3bc effc 17be 31ae 173d
00000200: ad94 af3d 482e 1fbd 16ae 02bb fa80 72bb
00000210: 4b04 0ebe b1c7 483d 9bcf 10bd abd7 bbbd
00000220: 1be8 3dbd a03b 7fbd 54a6 86bd b400 dcbc
00000230: 5188 07be 7b75 adbd 87e2 bdbd f90f bbbd
00000240: fa7d 1bbe 334d 0cbe b85a 103d c93d df3d
00000250: 83f7 55bd 0ed2 50bd 1da9 683c 4d62 61bd
00000260: f3cd bc3d 2c89 b7bd d845 67bd 1c6a 83bd
00000270: c3bf 65bd 4867 abbd 5cc1 11be e9b2 2dbe
00000280: 5d51 7e3c de09 d8bd dad2 e13d 857b fcbb
00000290: 371b 5f3d 4404 3abc 252b 8b3c 50da 033d
000002a0: 4f05 e73c b539 b53c 9a6e a03c 9154 daba
000002b0: 2ab3 453c 73eb b0bc 0efb e4bc 9c0d 82bd
000002c0: 3612 d13c ccfd e8bd bf0f 35bd c18e e43d
000002d0: 47bb 3ebd 6661 12bc 5630 30bd 1510 bd3d
000002e0: 49f1 d0bc 4df3 f4bd a01b 2fbd 24fd 183d
000002f0: 068a 9e3d 0af1 80bb 18c9 a93c 4b73 2dbc
00000300: 76e8 8cbb 4cce 8bbc e03d a8bd 060b 01be
00000310: 4d1c bcbd 78e4 debc 2045 a5bb 8e96 25bd
00000320: 92b5 2dbd 7f12 e13c df9a c03d ac7a d13d
00000330: 4642 f33b ba14 2cbe 4202 d83d 943e 593d
00000340: 25fa 8fbd 897d 1f3d 48b1 84bd 2063 b3bd
00000350: ecbc 7dbc 7b6b 9fbd 7c52 e5bd 6419 77bd
00000360: cbc4 2bbe b722 ad3d 09c6 b83c f024 a1bd
00000370: 1906 143d d4a5 95bc 760d 3fbc 7529 05bd
00000380: 4df3 90bd 210c 9ebd 4906 96bd bf54 ccbd
00000390: f1bf 30bd 9138 513d b460 67bd 7fc2 74bd
000003a0: 64b8 32be 1f73 acbd 5b77 4fbc 2ab5 8d3c
000003b0: 7431 03bd dc6f f6bb 6a38 83bd ece4 113d
000003c0: bbf1 2d3d 487b 1cbd 54b7 f43c f4c5 a93c
000003d0: 0a64 f9bd e4a3 4c3d 9838 00bd 706b 093e
000003e0: aa99 3b3d 27ab 5d3d 85ef b3bd a6db 50bc
000003f0: a2a9 bd3d e95b b6bd 22db 23bd 3d09 823c

network_body._body_endoder.seq_layers.4.bias f4 [256]
-0.02387267 -0.025524888 -0.04016255 -0.025366167 -0.050807826 0.04095722 -0.043282613 0.0372163
0.06568892 0.060709376 -0.032299418 -0.029208194 0.062240496 0.04904348 -0.042771757 0.06277011
0.048518237 -0.040728226 -0.010182636 0.047917057 0.04673384 -0.043056693 -0.044341356 0.059224177
0.009798147 0.0735387 -0.039555356 0.058744356 0.0028607647 0.0410423 0.043213855 -0.04728343
-0.015590781 0.05852079 0.07080992 0.041532233 0.059779305 -0.048255987 -0.050238222 0.04562505
-0.04239228 -0.045559857 -0.020647105 0.056285024 0.06975597 0.014609463 -0.0070780874 0.06090861
0.046251386 0.03780089 0.05272102 0.04894946 -0.023995634 0.059862264 -0.02847786 -0.03248582
-0.0051926197 0.042991947 0.062222023 -0.026476238 -0.00422803 -0.042267703 0.034717325 0.028214315
0.05178221 0.02148392 0.040810253 0.049231917 -0.012631886 -0.051159594 -0.042295232 -0.033013627
0.0077123083 -0.036271926 -0.009152127 0.042193856 -0.024074715 0.057899103 0.027852869 0.031152405
0.041330926 -0.046452966 -0.008554711 -0.047707308 -0.046647295 -0.033239223 -0.010248706 0.053440712
-0.037234236 0.026135087 0.05930659 -0.03578419 0.017819548 0.06126908 -0.03174709 0.053607125
-0.029547062 0.03151329 0.0066174995 -0.027417194 0.023762198 0.053366207 -0.028584264 -0.03421836
-0.041584324 0.017012898 0.055432767 -0.03851224 0.07210148 0.013343773 0.04568159 -0.041928753
-0.047620606 0.011209093 0.053546123 0.037032302 -0.0071557756 -0.033917073 -0.038334634 0.04633103
0.038751453 0.024574963 0.038392667 -0.04729736 0.0059804684 -0.024526274 -0.04265886 -0.04740894
0.02646738 0.053452 -0.037802823 0.039793257 0.03186502 -0.044331234 0.056600865 -0.027635794
-0.032235347 -0.039997198 -0.0061808475 0.03935178 -0.023075517 0.06302507 0.034589563 -0.02883335
-0.047993973 -0.03612577 0.057056364 0.025535304 -0.044341613 0.016275765 -0.04617028 0.019316195
-0.046407115 0.061628275 0.04248026 -0.03880025 0.036423467 0.046154063 0.034144565 0.044443555
-0.027222574 0.06210899 0.03814061 0.042657245 0.04439768 -0.04381108 -0.04108214 0.056659874
0.052219395 0.05871611 0.06825241 0.051525984 -0.04499131 0.05911091 -0.045677584 -0.012050407
0.054900564 0.041335315 0.007861033 0.06268246 -0.022289453 0.0020215681 0.03029913 0.03984809
0.04333144 -0.022262387 0.073192224 0.069958165 0.052680038 0.057656057 -0.00365409 -0.034297917
0.03823773 -0.048570395 -0.050673634 0.030705001 0.041926097 0.060725197 0.04473627 -0.02464756
0.043694958 -0.009483759 -0.028304825 0.06778064 0.044248715 0.03418163 0.021650823 -0.008149499
-0.009423185 0.06963982 -0.04320883 0.046108637 -0.03516324 0.052463315 0.05764612 -0.042234845
-0.020152984 -0.040217567 -0.02456344 0.041089896 -0.025026966 0.06960463 0.060993023 0.04158137
0.03255939 -0.0148097435 0.02522093 0.048096295 0.037901778 0.0073280735 -0.009513158 -0.0037606666
-0.016174544 0.07509335 0.07632849 0.00405952 0.059118178 -0.028041322 0.0021405988 -0.029586852
0.046142317 -0.044622745 0.056828123 -0.03998953 0.06875513 -0.027773619 0.031347573 0.0028365315
0.023888746 0.040989686 0.04534833 0.028556142 -0.024850579 -0.011596958 -0.035139624 -0.040047515
00000000: 9e90 c3bc 9219 d1bc 7c81 24bd b5cc cfbc
00000010: de1b 50bd c2c2 273d 1c49 31bd 1e70 183d
00000020: ea87 863d 65aa 783d 654c 04bd 0646 efbc
00000030: e4ef 7e3d d1e1 483d 7031 2fbd 9e8d 803d
00000040: 0fbb 463d a4d2 26bd 12d5 26bc ad44 443d
00000050: fc6b 3f3d 375c 30bd 489f 35bd 0d95 723d
00000060: 6888 203c 759b 963d cc04 22bd ec9d 703d
00000070: ab7b 3b3b f91b 283d 0301 313d 45ac 41bd
00000080: 7a70 7fbc 7fb3 6f3d cb04 913d b41d 2a3d
00000090: 25db 743d 12a8 45bd 98c6 4dbd 55e1 3a3d
000000a0: 87a3 2dbd f99c 3abd 1e24 a9bc 208b 663d
000000b0: 38dc 8e3d 875c 6f3c 4def e7bb 4e7b 793d
000000c0: 1872 3d3d 1bd5 1a3d fff1 573d 3b7f 483d
000000d0: 7e92 c4bc 2232 753d 674a e9bc da0f 05bd
000000e0: da26 aabb 5318 303d 85dc 7e3d b2e4 d8bc
000000f0: 498b 8abb e620 2dbd c133 0e3d b521 e73c
00000100: 9519 543d 0cff af3c a728 273d 68a7 493d
00000110: f8f5 4ebc b98c 51bd c43d 2dbd 4c39 07bd
00000120: 88b7 fc3b df91 14bd cef2 15bc 77d3 2c3d
00000130: 5638 c5bc 9c27 6d3d b32b e43c 5433 ff3c
00000140: 9e4a 293d 7745 3ebd 0f29 0cbc bd68 43bd
00000150: 3c11 3fbd da25 08bd 30ea 27bc a6e4 5a3d
00000160: ed82 18bd 4019 d63c 78eb 723d 7192 12bd
00000170: 4dfa 913c 49f5 7a3d 3d09 02bd 2593 5b3d
00000180: ae0c f2bc 1414 013d 9cd7 d83b 069a e0bc
00000190: f1a8 c23c 8696 5a3d 8c29 eabc 8d28 0cbd
000001a0: 5354 2abd a25e 8b3c 780d 633d 03bf 1dbd
000001b0: f1a9 933d d79f 5a3c 9e1c 3b3d 7cbd 2bbd
000001c0: d30d 43bd 58a6 373c 2e53 5b3d 2faf 173d
000001d0: ff7a eabb a1ec 0abd c704 1dbd 9bc5 3d3d
000001e0: d8b9 1e3d 6f51 c93c a141 1d3d e0ba 41bd
000001f0: cef7 c33b 53eb c8bc 0fbb 2ebd e02f 42bd
00000200: 1ed2 d83c 7cf0 5a3d 22d7 1abd 41fe 223d
00000210: e584 023d ab94 35bd 4fd6 673d 7664 e2bc
00000220: 3609 04bd 1ad4 23bd b588 cabb 552f 213d
00000230: de08 bdbc 4a13 813d c9ad 0d3d eb33 ecbc
00000240: 5495 44bd 9ef8 13bd efb3 693d 6a2f d13c
00000250: 8d9f 35bd c154 853c 0c1d 3dbd ff3c 9e3c
00000260: 6315 3ebd ee6d 7c3d c8ff 2d3d 03ed 1ebd
00000270: c630 153d 0b0c 3d3d 2cdb 0b3d 720a 363d
00000280: e001 dfbc ff65 7e3d 5439 1c3d 5db9 2e3d
00000290: 57da 353d 3f73 33bd bf45 28bd 2f14 683d
000002a0: 01e4 553d 4e80 703d ebc7 8b3d e90c 533d
000002b0: cf48 38bd 481e 723d 6b18 3bbd 126f 45bc
000002c0: 6adf 603d 384f 293d 90cb 003c a95f 803d
000002d0: 5f98 b6bc 497c 043b e235 f83c c037 233d
000002e0: 4f7c 313d 9c5f b6bc cee5 953d 3a46 8f3d
000002f0: 06c7 573d c228 6c3d 7579 6fbb f97b 0cbd
00000300: 2a9f 1c3d c0f1 46bd 288f 4fbd 0e89 fb3c
00000310: b3ba 2b3d fcba 783d 613d 373d aee9 c9bc
00000320: 7cf9 323d c561 1bbc 85df e7bc 94d0 8a3d
00000330: 243e 353d 0902 0c3d 115d b13c 7a85 05bc
00000340: b463 1abc 529f 8e3d befb 30bd 69dc 3c3d
00000350: 5407 10bd c6e3 563d 571e 6c3d 72fe 2cbd
00000360: df17 a5bc 2dbb 24bd 4439 c9bc e14d 283d
00000370: 5a05 cdbc df8c 8e3d d2d3 793d 3a51 2a3d
00000380: ff5c 053d 91a4 72bc 209c ce3c 9f00 453d
00000390: e53e 1b3d 5620 f03b 14dd 1bbc 8475 76bb
000003a0: 7a80 84bc 8bca 993d 1d52 9c3d b905 853b
000003b0: e725 723d eab6 e5bc 4a49 0c3b 2060 f2bc
000003c0: baff 3c3d 57c6 36bd 9bc4 683d 10cc 23bd
000003d0: 7dcf 8c3d 8085 e3bc 5066 003d 1ae5 393b
000003e0: 55b2 c33c cde4 273d 2cbf 393d 92ee e93c
000003f0: 7193 cbbc 2b01 3ebc 91ee 0fbd dd08 24bd

network_body._body_endoder.seq_layers.4.weight f4 [256, 256]
-0.06812406 0.016340448 -0.048660677 0.039322123 0.1312518 0.06589861 -0.09364803 -0.041567165
-0.016109187 0.030076154 0.037177093 0.060207054 0.037397493 -0.12028562 0.00017683534 -0.025233038
-0.065707244 -0.022783779 0.08273486 0.020930853 -0.09551748 -0.1323172 0.016304424 -0.08587662
-0.001762187 -0.005437392 -0.0959318 0.05234498 -0.024663866 0.029261962 0.03376322 0.045119133
-0.012927523 -0.105084255 -0.035259258 -0.09627853 0.071660064 -0.09717219 0.051112268 0.12722367
-0.1601239 -0.01995165 0.06442577 0.108718544 -0.049401354 -0.01723259 0.026209235 0.038060687
0.13579984 -0.021099115 -0.12881972 -0.0054539954 -0.06783792 0.019093558 0.03636474 -0.014534757
-0.009719314 0.038416557 -0.013516606 -0.0028202073 0.07032879 -0.02821417 -0.16078718 -0.04549323
0.02619593 0.023489865 -0.11929216 0.036480404 0.09103317 -0.06304094 -0.07821062 0.035151657
-0.11147417 0.068630934 0.021699235 0.08402502 -0.021759687 0.091277406 -0.017195463 -0.04338818
-0.06212741 -0.029653937 -0.125586 -0.041428875 -0.0012021983 0.0469506 0.023267724 -0.09583952
0.019457141 0.09565933 0.012231052 0.007373924 0.05186393 -0.037751984 0.0068586944 -0.017119871
-0.06790417 0.13126323 0.03711368 0.0029708392 -0.014329903 -0.05072585 0.031998504 0.054209396
-0.10908997 0.09945786 0.03367849 -0.02400529 -0.025901083 -0.008747008 -0.040799968 -0.0032750901
-0.16010301 -0.11579242 0.0259948 0.11572582 0.048020598 0.036190197 0.050550118 0.059856072
0.022203568 0.018758675 0.059356924 -0.015487922 -0.10727338 0.034859158 -0.028421387 0.092061415
-0.06228311 -0.040450342 -0.13929346 -0.14825669 -0.12445952 0.050959863 0.11930173 0.029040758
0.01079984 0.015242046 0.07139837 0.10674502 -0.013373547 0.012018969 -0.0077971737 0.061243504
-0.003205536 -0.06864851 -0.057118434 -0.060181204 -0.03201667 -0.03529567 0.021251224 0.026024852
0.0229015 -0.01209429 0.0036945404 0.11564277 0.14197418 0.025188843 -0.016717823 0.014482966
0.041240413 0.045868486 0.0029131814 0.13063523 0.07922882 -0.016085861 -0.080290414 0.0021105816
-0.12806827 0.010155009 0.08087305 0.07669629 0.025414528 -0.060763795 -0.06888326 0.03756819
0.049575634 0.007933831 0.07864625 -0.011475794 0.030367637 0.08327893 -0.011724955 0.025897663
-0.05298414 0.022075403 -0.00541817 -0.14493987 -0.06152162 -0.07950249 -0.19239764 0.059738085
-0.04441395 -0.0013164064 -0.0004563104 -0.025953673 0.057842776 0.006001533 0.0012314529 0.01880247
0.074659765 -0.007055202 -0.11306775 0.03740338 0.054454386 0.011445568 0.16890004 0.008680698
-0.21317178 -0.21089478 -0.09712909 -0.027747266 0.00513382 0.0055908537 -0.083904356 0.13454227
-0.014163726 -0.0012223314 0.05737056 -0.009079009 -0.02944315 -0.07999797 -0.0411158 0.118038125
-0.12374177 -0.048461106 -0.00819012 0.072707854 -0.0605417 0.027627971 -0.006050164 -0.06501319
-0.04428136 0.08062123 -0.0316745 0.0076583666 -0.044914532 -0.015467039 0.0016581621 0.06947096
0.11801301 -0.019799761 -0.017431546 0.039543428 0.039202325 -0.020971246 0.13504216 -0.08089371
0.005964054 0.035300665 -0.18269931 0.040043123 0.00084622996 0.03556031 0.006994833 0.00944205
00000000: a184 8bbd 67dc 853c 6b50 47bd 3c10 213d
00000010: df66 063e daf5 863d 8aca bfbd 5542 2abd
00000020: 6af7 83bc 4462 f63c 0247 183d ac9b 763d
00000030: 1d2e 193d 4f58 f6bd e06c 3939 84b5 cebc
00000040: 8591 86bd 0ca5 babc e570 a93d 2e77 ab3c
00000050: ab9e c3bd 297e 07be db90 853c 15e0 afbd
00000060: 2ff9 e6ba 262c b2bb e477 c4bd b167 563d
00000070: e00b cabc c8b6 ef3c 4d4b 0a3d d7ce 383d
00000080: f6cd 53bc 6a36 d7bd 036c 10bd ae2d c5bd
00000090: 83c2 923d 3702 c7bd 195b 513d ec46 023e
000000a0: 85f7 23be a571 a3bc a8f1 833d d4a7 de3d
000000b0: 1359 4abd 5c2b 8dbc c0b4 d63c 86e5 1b3d
000000c0: 1d0f 0b3e 0dd8 acbc 51e9 03be 6eb7 b2bb
000000d0: 9bee 8abd 186a 9c3c 32f3 143d 3023 6ebc
000000e0: c23d 1fbc ae5a 1d3d c174 5dbc 3ad3 38bb
000000f0: 8a08 903d 6721 e7bc 65a5 24be 1c57 3abd
00000100: d998 d63c d16d c03c 734f f4bd 7a6c 153d
00000110: 996f ba3d 9c1b 81bd e42c a0bd 2ffb 0f3d
00000120: 924c e4bd 608e 8c3d 98c2 b13c 4f15 ac3d
00000130: 5f41 b2bc a6ef ba3d 80dd 8cbc ceb7 31bd
00000140: 5079 7ebd d0ec f2bc 9e99 00be 53b1 29bd
00000150: 1593 9dba 464f 403d f49b be3c 8347 c4bd
00000160: 9564 9f3c 0ae9 c33d c064 483c f5a0 f13b
00000170: 466f 543d d3a1 1abd e6be e03b f93e 8cbc
00000180: 5711 8bbd de69 063e 8404 183d 69b2 423b
00000190: f8c7 6abc e9c5 4fbd dd10 033d ac0a 5e3d
000001a0: 906a dfbd 90b0 cb3d 75f2 093d bea6 c4bc
000001b0: 822e d4bc 9c4f 0fbc de1d 27bd e5a2 56bb
000001c0: 0bf2 23be 9424 edbd 0cf3 d43c a901 ed3d
000001d0: 3fb1 443d 2c3c 143d a40d 4f3d a42b 753d
000001e0: 42e4 b53c cbab 993c 3f20 733d 0ec1 7dbc
000001f0: 25b2 dbbd 7ac8 0e3d f8d3 e8bc b28a bc3d
00000200: 931c 7fbd 42af 25bd f2a2 0ebe 9ad0 17be
00000210: a2e4 febd 4abb 503d 7754 f43d e2e6 ed3c
00000220: d0f1 303c c6b9 793c 4f39 923d 229d da3d
00000230: b91c 5bbc 36eb 443c 6f7f ffbb 78da 7a3d
00000240: f813 52bb 9797 8cbd 05f5 69bd 9180 76bd
00000250: e923 03bd 3192 10bd 0c17 ae3c 1232 d53c
00000260: ed9b bb3c 2127 46bc 1a20 723b 1ed6 ec3d
00000270: ae61 113e d558 ce3c d1f3 88bc f649 6d3c
00000280: b5eb 283d 98e0 3b3d 13eb 3e3b 3ec5 053e
00000290: b842 a23d 7fc6 83bc 4d6f a4bd af51 0a3b
000002a0: 5424 03be 3261 263c c5a0 a53d f212 9d3d
000002b0: 2132 d03c 75e3 78bd ab12 8dbd 1ae1 193d
000002c0: d20f 4b3d e6fc 013c 4911 a13d f804 3cbc
000002d0: 8dc5 f83c 258e aa3d 071a 40bc 5627 d43c
000002e0: e605 59bd 7ad7 b43c e78a b1bb 1e6b 14be
000002f0: 18fe 7bbd 34d2 a2bd e303 45be ecaf 743d
00000300: 67eb 35bd 458b acba f23c efb9 cc9c d4bc
00000310: 8cec 6c3d 82a8 c43b b468 a13a a307 9a3c
00000320: 38e7 983d 532f e7bb 1190 e7bd 4934 193d
00000330: 900b 5f3d 3186 3b3c 22f4 2c3e 7d39 0e3c
00000340: b449 5abe cdf4 57be 9eeb c6bd 3c4e e3bc
00000350: 9b39 a83b 7b33 b73b 0cd6 abbd 73c5 093e
00000360: f90e 68bc a336 a0ba 64fd 6a3d 20c0 14bc
00000370: c332 f1bc fad5 a3bd 0b69 28bd f9bd f13d
00000380: 536c fdbd 277f 46bd da2f 06bc dbe7 943d
00000390: 93fa 77bd 0e54 e23c 7440 c6bb a325 85bd
000003a0: 5f60 35bd be1c a53d 1fbd 01bd 09f3 fa3b
000003b0: 4df8 37bd 7769 7dbc b056 d93a ca46 8e3d
000003c0: ceb0 f13d 1c33 a2bc 9acc 8ebc 4af8 213d
000003d0: 9e92 203d e4cb abbc 7e48 0a3e 9aab a5bd
000003e0: 1c6e c33b 6e97 103d 8715 3bbe 4204 243d
000003f0: 88d5 5d3a b0a7 113d e934 e53b d4b2 1a3c

network_body.observation_encoder.processors.0.normalizer.running_mean f4 [6]
-25.516283 39.55722 -9.297569 -32.280537 1.3999565 -71.15795
00000000: 5921 ccc1 983a 1e42 d8c2 14c1 451f 01c2
00000010: c631 b33f df50 8ec2
