Assets/Training/results/learn_v5_teszt2/MarsTaxi.onnx (onnx, 542464 bytes, 10 tensors)

54 f4 [6]
000000 30 a1 4e 40 54 22 87 40 cb 6b 57 40 96 3a fc 3c
       3.228588 4.2229404 3.3659542 0.030789655
000010 8f fa d6 3a 63 0d 8b 3d
       0.0016401577 0.06789663

action_model._discrete_distribution.branches.0.bias f4 [6]
000000 83 77 9a 3c 50 34 27 bc 44 5d 86 bc f4 45 58 3c
       0.018855816 -0.010205343 -0.016401894 0.013200272
000010 b6 02 dc ba dc 5e 07 bd
       -0.0016785476 -0.03304945

action_model._discrete_distribution.branches.0.weight f4 [6, 256]
000000 c8 2c 19 bd 2c 57 10 bd 94 64 1e 3d 90 23 53 3a
       -0.037396222 -0.035239384 0.038670138 0.00080543105
000010 77 c9 04 bd f6 83 41 3d 85 0e 85 bc 3a 56 4a 3c
       -0.032418694 0.04724499 -0.016242275 0.01234966
000020 b8 60 49 bc c3 2c 14 bd 30 dd 65 bc 6c ee 18 bd
       -0.012291126 -0.0361755 -0.014029786 -0.03733675
000030 25 86 02 3d f8 b0 fe 3b 4f d1 4d bd 4b 76 49 bc
       0.03186621 0.007772561 -0.05024844 -0.01229627
000040 f6 02 63 3a f2 50 c3 bc 7f 3a 10 3d 5d a6 84 3c
       0.0008659804 -0.023842309 0.035212036 0.01619261
000050 a8 7f 79 3b a9 c4 50 3c 8a 81 80 bc ae f8 00 3d
       0.0038070474 0.0127422 -0.015686769 0.03148716
000060 1e 33 bc 3c 03 0a df 3c 31 38 c1 3c f0 83 c3 3c
       0.022973593 0.027226454 0.023586364 0.023866624
000070 aa c4 5b 3b a6 21 21 bd ec 3e 26 bd f6 b7 ad bc
       0.003353397 -0.03933873 -0.04058735 -0.021205883
000080 f9 2a 3c 3d 25 34 05 3d 47 70 ed bb c4 db 36 bc
       0.04593942 0.032520432 -0.0072460505 -0.011160795
000090 30 f1 8b ba db 51 b8 bc c9 ea 1e bd 8b f5 30 bd
       -0.0010676738 -0.02249997 -0.038798127 -0.043202918
0000a0 69 0f 38 3d 31 e4 45 3c 7a 88 d9 3c 64 15 1c bd
       0.04493657 0.012078331 0.026554335 -0.038106337
0000b0 36 64 02 3c 8a d9 71 bc 5a ab 07 3c 24 6e 3a bd
       0.007958462 -0.014761338 0.0082805995 -0.045515195
0000c0 0b 6e 94 3c 76 73 58 bd 19 18 99 bc 7a 3d 17 bd
       0.018118879 -0.052844487 -0.018688248 -0.036923863
0000d0 96 d0 1b bd 32 90 8e 3c bd dd aa 3b 60 91 c5 3c
       -0.03804072 0.017402742 0.0052144215 0.024117172
0000e0 2e 5e 13 bd 47 c3 db 3c 3f 9b 5d 3b e9 fd ca 3c
       -0.03597849 0.026826514 0.0033814458 0.024779277
0000f0 c1 ba f5 3b fc 6e a5 3c 27 a6 05 3d e7 1d f3 3c
       0.0074990694 0.020194523 0.03262916 0.029677344
000100 81 5e 17 3d 85 7d d4 3c db d8 9c 3a b4 5d 39 bd
       0.03695536 0.025938759 0.0011966483 -0.045255378
000110 b6 b3 1a bd c1 92 04 3d 06 bb a2 bc bf 2c 13 3a
       -0.037769042 0.032366518 -0.01986457 0.00056142727
000120 06 f2 37 bc 0d 1a 0a bd 5c 15 1d 3d 5d 41 27 3c
       -0.0112271365 -0.03371625 0.038350448 0.010208455
000130 f1 49 23 bc b0 b5 1f bd a7 15 5c 3c 90 09 4f 3d
       -0.0099663595 -0.03899163 0.013432897 0.05054623
000140 7b 43 ab 3c 55 54 cd 3c a4 65 45 bb 28 4b da bc
       0.0209062 0.025064627 -0.0030120397 -0.026647165
000150 4a 0c e4 bb ca d3 6a 3c 85 92 22 3d 0f 48 cf 3c
       -0.006959473 0.014332721 0.039690513 0.025302915
000160 69 79 8b bc f7 30 43 3d 1b 3c 44 bd 6f 77 37 bd
       -0.017025666 0.04765412 -0.047908884 -0.044791635
000170 d2 15 ea 3b 0b 68 1c 3d bd 40 98 bc 1a ac 27 bd
       0.0071437145 0.03818516 -0.018585557 -0.040935613
000180 32 ad 0a bd b0 32 20 3d d8 b8 0e 3c 08 e0 0d bd
       -0.03385658 0.03911084 0.008711062 -0.03463748
000190 1a a0 64 bc 2a 65 a9 3b 73 1c 64 3c 4d 95 af 3c
       -0.013954187 0.0051695304 0.013922798 0.021433497
0001a0 08 2a 7b bc 8d f0 c2 3c ed 98 ab 3c 10 8b 89 3c
       -0.015329845 0.023796344 0.020946944 0.016789943
0001b0 82 33 94 3c 7e 2d 2f bd 9a eb 55 bd 5f 85 1d 3d
       0.018090967 -0.042767994 -0.05222664 0.03845727
0001c0 ae 5e b3 bb 20 be 74 3c 87 f3 10 3d a1 e0 81 bc
       -0.005473933 0.014937907 0.035388496 -0.015854182
0001d0 de d2 fb bc b7 30 cc 3b ac cf 31 3d 0e cc 1b bc
       -0.030740198 0.006231393 0.043410942 -0.0095091
0001e0 12 ec 87 bb cd 85 3e bc 07 f1 8f 3c d1 4c c3 3c
       -0.004148015 -0.01162858 0.017570985 0.02384034
0001f0 c7 6b 11 3c d5 67 fb 3c c1 02 0f bd 50 4e 7f 3c
       0.008875794 0.03068916 -0.034914736 0.015582636
000200 c2 a3 fb 3c 14 9c a3 bb 87 eb 35 3c 0c 10 10 3d
       0.030717734 -0.004992971 0.011103517 0.035171553
000210 4e 5a 03 bd 88 e3 30 3d 94 9b 7e bc 14 14 8f 3b
       -0.032068543 0.04318574 -0.015540022 0.004366407
000220 b8 4e 13 3c f0 7a 5b 3c ee ec cf 3c 71 4b f0 3c
       0.008990936 0.01339601 0.025381532 0.029332848
000230 c8 6c b9 bb 17 fa 27 bd d0 25 65 3c b1 eb 46 3c
       -0.0056587197 -0.04100999 0.013986066 0.012141154
000240 87 cd f4 3c 74 31 88 3c cd 69 b1 3c 94 9c 91 bb
       0.02988316 0.016625144 0.021656895 -0.0044437144
000250 46 53 1a 3d 2a a1 81 bb ec cc 9f bc 5e 65 05 bb
       0.037677072 -0.00395598 -0.019506894 -0.002035461
000260 8e 95 8a 3c e8 32 17 bc 49 a5 21 bc 31 78 c5 bc
       0.016917016 -0.009228446 -0.009866067 -0.024105163
000270 a2 0a b8 3c b8 82 3f 3c d4 a3 96 bb e5 b4 a8 bc
       0.022466008 0.011688881 -0.0045971666 -0.02059407
000280 76 79 47 bd 5f c2 db 3c 2e b7 a9 3c a9 06 22 bb
       -0.04869982 0.026826082 0.02071723 -0.0024723208
000290 71 d2 a3 bc a3 10 15 bc c5 5c 63 3b 31 7c 37 3d
       -0.019997807 -0.009098205 0.0034692746 0.044796173
0002a0 87 a2 3d 3c d2 7a ee 3c 5d 14 29 bc f4 84 5e bc
       0.011574394 0.0291113 -0.010319796 -0.013581503
0002b0 56 ca c1 3b 68 21 9b 3c 3e af 89 bc f2 30 e0 bc
       0.005914013 0.018936828 -0.016807195 -0.027367089
0002c0 81 fe 12 bc 3d 92 06 bd a2 8c 12 3d 6f 45 eb bb
       -0.008971811 -0.032854307 0.03577865 -0.007179908
0002d0 dc 83 48 3c 98 57 2d 3c cf 9f 08 3d 46 09 22 bd
       0.012238469 0.010579966 0.03335553 -0.039559625
0002e0 eb b1 b6 3b 2c 6f 04 3d 1c 79 19 3d 6e 25 ac bc
       0.0055754087 0.032332584 0.037469015 -0.021013942
0002f0 85 4c 1d bd db 8c e3 bc 1a 16 1d bd 60 2f 2b bd
       -0.038403053 -0.027777126 -0.038351156 -0.041793227
000300 64 4d 0d bd ca 7e 48 bd f9 d7 d1 bc 37 cc 06 3d
       -0.034497634 -0.04894904 -0.02561568 0.0329096
000310 8d 4f 42 bd 56 68 89 3c 2f ba 08 3c 3f e4 0a 3d
       -0.047439147 0.016773384 0.008345171 0.03390908
000320 9b 93 45 bd a2 46 f5 3c 56 d8 01 3d a9 05 5f bd
       -0.04823647 0.029940907 0.031700455 -0.054448757
000330 25 eb a7 3c 6a aa e1 bc e8 61 17 bd 69 f3 0c 3d
       0.020497868 -0.02754708 -0.036958605 0.03441182
000340 b4 03 23 bc a0 f9 96 ba a4 05 50 bc 2a a3 51 3c
       -0.009949613 -0.0011518486 -0.012696657 0.012795249
000350 e8 6c fb 3b 7b 88 90 3c 93 cb a6 3c bf af c5 3c
       0.0076728947 0.017643204 0.020360744 0.024131654
000360 42 2d fe 3c 1a 22 54 3c b5 eb 18 bd 03 42 31 bd
       0.03102744 0.012947584 -0.037334163 -0.043275844
000370 55 e5 24 3d 77 0b 2c bd ed 0b 29 bd 8d 56 fa 3c
       0.04025777 -0.04200312 -0.04127114 0.030558849
000380 34 dc 02 bd 11 f6 26 3d 9a 62 8c 3c 50 0d 0f bd
       -0.031948283 0.04076201 0.01713686 -0.034924805
000390 7e 0d 1f bc 66 fa c1 3c b1 31 1e bc c8 25 09 3d
       -0.009707807 0.02367897 -0.009655402 0.033483297
0003a0 a7 23 b4 bc 3f ff e8 bc 60 25 3c bc 13 9a 0b 3d
       -0.021989657 -0.028442023 -0.01148352 0.034082484
0003b0 0f 36 32 bd 78 ed 20 3d 39 6e e4 bc 77 8a e7 bb
       -0.043508586 0.039288968 -0.02788459 -0.007066067
0003c0 50 ca 03 bd 7c 1c 00 3d 12 c4 a8 3c 5b ce 2e bd
       -0.032175362 0.031277165 0.020601306 -0.042677265
0003d0 4f e5 d3 3c 40 cc 1d bc 46 91 5e bd 5a f0 99 bc
       0.025866179 -0.0096312165 -0.054337762 -0.018791366
0003e0 15 44 24 bd 59 61 f4 bc 9c d5 1f 3c 93 d2 fe bc
       -0.04010399 -0.029831575 0.009755518 -0.031106269
0003f0 d7 05 06 3c 4e e9 ea 3c 25 19 fc 3c af e3 e7 3b
       0.008180103 0.028675701 0.030773709 0.0070767025

network_body._body_endoder.seq_layers.0.bias f4 [256]
000000 28 cb a3 3c 34 d7 40 bd 8a b6 81 3d 26 28 44 bd
       0.019994333 -0.047080234 0.06333645 -0.04788985
000010 0b 04 f2 bc 37 53 46 3d 74 4f d6 bc a0 00 39 bb
       -0.029542943 0.048419204 -0.026160933 -0.0028229132
000020 85 29 ca bc 36 4a 7b 3d e0 20 6f 3d bc 89 47 3c
       -0.024678001 0.06135007 0.05838096 0.0121788345
000030 73 ef 80 3d 0c e5 78 3b 65 67 6e 3d 59 05 02 bd
       0.06295671 0.003797832 0.058204073 -0.03174338
000040 df a5 de 3b 6b 91 71 3d ca bb 32 bc ad 4b c1 3b
       0.0067946757 0.058976572 -0.01090903 0.005898914
000050 61 b1 6c 3c 85 2b 82 3b 24 af 41 3d f2 fc 97 3b
       0.014446587 0.003972473 0.047286168 0.0046383077
000060 46 1a 7e bd b1 fd 5f 3d 7e 07 33 bd 40 7a 31 3c
       -0.062036775 0.0546853 -0.043708317 0.010832369
000070 e0 3f 61 3d fc a6 5d 3d 67 0b 56 bb 7b 34 51 3d
       0.054992557 0.054114327 -0.0032660605 0.05107544
000080 e7 37 1a bd 5d ef 55 bd c1 54 6c bd e3 4f 42 bd
       -0.03765097 -0.052230228 -0.057698015 -0.047439467
000090 5a b3 5d 3d 48 d9 77 3d 97 56 42 3d 78 f1 75 3d
       0.05412612 0.06050995 0.04744586 0.060044736
0000a0 99 af 67 bd a9 9f 27 bd a0 a9 13 bb ac d2 89 3d
       -0.056563947 -0.04092375 -0.0022531524 0.067296356
0000b0 21 90 6e 3d 7a 20 62 3d 62 b3 f8 3c 73 a8 6e 3d
       0.05824292 0.055206753 0.030358974 0.058266114
0000c0 89 58 61 3d fa b9 05 3d 10 ab 91 3c eb 60 63 3d
       0.055016074 0.032648064 0.017781764 0.05551235
0000d0 29 29 ad bc 2f 2b 32 3d 15 62 6c 3d bc 08 cd 3c
       -0.02113779 0.043498214 0.057710726 0.025028579
0000e0 99 86 6d 3d 4f 9b 19 bd a6 2d ad 3c aa 1b 0b 3c
       0.05798969 -0.03750163 0.021139931 0.008490482
0000f0 bc 17 99 3b f1 59 5d 3d 4f ee 66 3d 2a 00 5a 3d
       0.004672019 0.054040853 0.056379613 0.053222813
000100 17 12 87 3d 5d c4 2d 3d 2b da 58 bc 61 a7 bf 3c
       0.06595247 0.042423595 -0.013235609 0.023395242
000110 72 e2 2e 3d 13 6b 4e bd fa 15 35 3d 5b 4d 84 3d
       0.042696424 -0.050395083 0.04421041 0.06460067
000120 43 cc 76 3d 27 bc d4 bb 5d 94 72 3d c5 cd 41 3d
       0.060253393 -0.006492156 0.05922352 0.047315378
000130 35 ab 80 3d a4 38 6b 3d 1a 41 4a 3d 52 50 20 3c
       0.06282655 0.057427064 0.049378492 0.009784775
000140 3f f5 51 3d ab 77 82 3d 8e 38 e8 bc fe 65 06 3d
       0.051259276 0.06370481 -0.02834728 0.03281211
000150 9f 3c 46 3d f0 c9 d9 3c 5d 54 bb 3c fd c2 54 3d
       0.048397657 0.02658555 0.022867376 0.051943768
000160 a2 06 85 3d 63 f6 22 bd 93 d8 52 3d 52 e7 83 3c
       0.06495406 -0.039785754 0.051476073 0.016101513
000170 40 6f 3c bd 18 83 6f bd 17 43 3c bd f3 0f 82 3d
       -0.046004534 -0.05847463 -0.04596242 0.06350698
000180 41 59 38 bd 8a 86 f3 bc 55 e1 63 3d c4 ef 96 bb
       -0.045006994 -0.02972724 0.055634815 -0.004606219
000190 bc 3f 6b 3c 15 ef a7 bc 10 af 83 3d 89 e3 4b 3d
       0.014358457 -0.020499745 0.06429875 0.04977754
0001a0 6b 36 9f 3c 4f 97 05 3c 62 03 25 3d 84 a4 d2 3c
       0.019435128 0.008153751 0.04028643 0.025713213
0001b0 d6 d3 80 3d 37 be f0 3c b8 c5 64 ba 6c 3d 35 3c
       0.062904045 0.029387577 -0.0008726972 0.011062007
0001c0 da 63 b2 3b 72 ff 33 3c 90 e9 6c 3d d5 f9 5d 3d
       0.005444032 0.010986196 0.05783993 0.054193337
0001d0 3f 4d 80 3d 85 bd 9c 3c 08 be a5 b9 3c 58 9a bc
       0.062647335 0.019133339 -0.00031612837 -0.018840902
0001e0 0f ac 8c 3c f4 1e 90 ba b6 97 c4 bc 4a ad 00 bd
       0.017171888 -0.0010995553 -0.023998123 -0.03141526
0001f0 ca 76 b1 3b 47 86 3a bd 32 b5 82 3d 68 02 24 3d
       0.005415772 -0.045538213 0.063822165 0.040041357
000200 c7 a4 51 3d e6 3b 7d bc 17 20 70 3d e4 f9 19 3d
       0.051182535 -0.015456175 0.058624353 0.03759183
000210 d7 cb bd 3c fe b5 2f 3c 34 e4 86 bc 6a 62 60 3d
       0.023168487 0.010724543 -0.016466238 0.054781355
000220 4f 48 a9 3b da 51 15 bd f3 b5 73 3d 66 0f 54 3d
       0.0051660906 -0.036455013 0.059499692 0.051772498
000230 6b b1 a7 ba c6 1c 6d bd 61 0f cd bc 12 af 4a bd
       -0.0012793964 -0.05788877 -0.025031747 -0.049483366
000240 51 c6 80 3d c0 26 1c 3d 8d 0b 4c 3d a5 cd c9 bc
       0.06287826 0.038122892 0.049815703 -0.024634192
000250 fb d1 04 3d 3f 25 e4 3b 2d 44 1f bd c3 b3 1d 3c
       0.032426815 0.006962448 -0.038883377 0.009625378
000260 94 92 7a 3d ea cf 63 bd 57 64 86 3d d2 38 85 3d
       0.061174944 -0.055618204 0.06562107 0.06504978
000270 cf e5 87 3d af cc 66 3d 82 c8 81 3d dc fa 8f 3c
       0.066356294 0.056347545 0.06337072 0.017575674
000280 8e 22 72 3d 25 ac 01 3d f9 c3 01 3c 39 cc 6b bd
       0.059114985 0.03165831 0.007920259 -0.05756781
000290 c9 ad f3 3c 93 2e fa 3b 56 46 52 3c 25 1f 57 bd
       0.029745953 0.0076349466 0.012834152 -0.052519936
0002a0 e0 dc 43 3b e5 79 42 3d da 62 de 3c 76 25 90 3c
       0.002988629 0.04747953 0.027146745 0.017595988
0002b0 18 45 3b bd ee cf 57 3d eb fb 3b 3d be b9 34 bb
       -0.04572019 0.05268853 0.045894545 -0.0027576531
0002c0 40 e2 74 bd 26 fc 29 3d 9e 83 50 3d 7a 18 02 3d
       -0.05978608 0.041500233 0.05090677 0.031761624
0002d0 bc 1b 37 3b 09 f3 78 3d 2c 27 b0 bb 8a fd a4 3c
       0.0027940115 0.06077865 -0.0053757634 0.020140428
0002e0 b6 66 3b bc fd 7e 86 3d 25 31 60 bd 55 9d 6d 3d
       -0.011438062 0.0656719 -0.054734368 0.05801137
0002f0 83 fb 24 3d 1c 47 c8 bc 26 a5 7c bd 9a 63 52 3d
       0.040278923 -0.02444797 -0.061680935 0.05136452
000300 b9 42 2f 3c dc d8 c6 3a 94 ec 37 3d 01 28 9e bb
       0.01069706 0.001517083 0.044903353 -0.004826546
000310 08 c5 05 bd 93 cb 82 bc 5b 02 7d 3d 74 94 58 bd
       -0.032658607 -0.015966212 0.061769824 -0.05287595
000320 01 54 2e bd 9e e3 76 bd e4 ca 65 3d 50 58 39 3c
       -0.04256058 -0.060275666 0.056101695 0.011312559
000330 17 0e 73 3d c3 96 8d 3a ca 33 78 3d b4 b6 9b 3c
       0.05933961 0.0010802377 0.060596265 0.019008018
000340 43 c0 70 3d cd 3e 27 3d ec b6 84 3d 39 6a fe bc
       0.058777105 0.040831376 0.06480202 -0.03105651
000350 82 e9 33 3c d5 cb 88 3d 48 f5 78 3d 53 bb 6b bd
       0.010980966 0.06679503 0.060780793 -0.057551693
000360 29 e4 2c 3d 1e d9 27 3d 1d 51 83 3d 29 db 40 3d
       0.042209778 0.040978543 0.064119555 0.047084007
000370 dc 00 77 3d 16 6c 86 3d bc 9d 1a bd 67 70 49 bd
       0.060303554 0.065635845 -0.037748083 -0.04917946
000380 b3 43 3c bd 49 08 25 3c ff 73 7d 3d a2 7e 54 bd
       -0.045963 0.010072776 0.0618782 -0.05187858
000390 ad a3 6e 3d 20 cd 46 3b b4 6e 50 3d 04 12 ee 3c
       0.058261562 0.0030334666 0.050886825 0.029061325
0003a0 8a 82 c6 3a 56 f8 7c 3d 51 7a 26 3c 6d 11 1a 3d
       0.0015145105 0.06176027 0.010160998 0.037614275
0003b0 47 21 df 3c 51 0f 76 bd 2f 32 87 3d a9 29 5d 3d
       0.027237548 -0.0600732 0.06601369 0.05399481
0003c0 ee 89 06 3d 78 99 79 bd 8c a3 4b 3d a0 8d 88 3d
       0.032846384 -0.060937375 0.049716517 0.06667638
0003d0 7b 54 6c bc 9e 77 5e bd 7a 19 83 3d 27 f6 58 3c
       -0.014424439 -0.054313295 0.06401344 0.013242281
0003e0 6b f7 97 bc 5d 7b a6 3c 48 7b 5a 3d 67 fd a0 3c
       -0.018550595 0.020322496 0.053340226 0.019652082
0003f0 7b 18 86 bd eb 4f 8a ba d4 e1 f5 bb 60 08 47 bd
       -0.06547638 -0.0010552382 -0.0075037275 -0.04859197

network_body._body_endoder.seq_layers.0.weight f4 [256, 6]
000000 dc 8d e3 3d 1e 13 61 bf 22 66 1f bf ba e8 07 bc
       0.11111042 -0.87919796 -0.6226522 -0.008295232
000010 de 89 85 3e f1 45 38 bf 73 a9 f9 bd 03 c4 c3 3e
       0.26081747 -0.7198172 -0.12190523 0.38235483
000020 c4 0c b2 bc ac ce 3d 3f 3b e6 bf be 47 e8 10 3f
       -0.021734603 0.7414348 -0.3748034 0.5660443
000030 7b b3 86 3e 46 52 16 3d f2 7f d6 bb b8 42 a9 be
       0.26308808 0.036699556 -0.006546014 -0.33058715
000040 3d b7 cc bd 9d 6d 1c bf a9 23 05 3d 6a 2c ed bc
       -0.099958874 -0.61104757 0.03250471 -0.028951842
000050 82 ae 06 be 24 15 ea 3d 18 66 de be 14 19 cf 3e
       -0.13152507 0.114298135 -0.43437266 0.4044882
000060 8b 74 ab bd 14 89 42 3e 1c 9b df be 61 9b b3 3f
       -0.08371838 0.18997604 -0.43673027 1.4031793
000070 3a 30 29 bf 83 a6 5c bf 15 ec 84 bc f3 73 cd be
       -0.6608921 -0.86191577 -0.016225854 -0.40127525
000080 4f 6e 04 3e 10 8d c3 3e 0f 15 86 3f 68 50 0d 3d
       0.12932704 0.3819356 1.0475177 0.03450051
000090 4f f3 d7 be 98 75 65 be 7d 5f 53 bb d2 34 76 3d
       -0.42177817 -0.2240814 -0.003225296 0.060108967
0000a0 4a 2c 4c 3e bc 14 aa be cd e0 46 3c fd ed 22 3f
       0.1993877 -0.33218944 0.012138558 0.6364439
0000b0 49 bb f6 3d 57 50 3a be f3 10 a3 3d ab e5 07 3f
       0.120474406 -0.1819471 0.07962217 0.5308482
0000c0 53 91 09 3d 22 e2 f8 bc ec 50 46 be de 11 2e 3e
       0.033585858 -0.030381266 -0.19366807 0.16999003
0000d0 0f ff 67 3b 2c f6 08 be 90 a1 21 be fd 09 37 be
       0.003539983 -0.13375157 -0.15784287 -0.17874904
0000e0 44 1a cf 3e 15 1b bf bd f5 3f e6 be a6 5c a9 be
       0.40449727 -0.09331337 -0.4497067 -0.33078498
0000f0 00 f9 09 bf db c1 15 3f 73 15 db 3e fe 47 5a be
       -0.5389557 0.58498925 0.42789802 -0.21316525
000100 26 ab 38 3f eb 33 8c 3e d3 7e 67 3d 86 46 c0 be
       0.7213615 0.2738336 0.056517433 -0.37553805
000110 5e 92 5c bf f1 6a 8f 3e 42 d2 eb bd cb db fb 3d
       -0.8616084 0.28011277 -0.11514713 0.122977816
000120 eb 7e 52 3e 23 9c aa 3e 76 ec 6a 3e 9e 3d 07 bf
       0.20556228 0.33322248 0.22941765 -0.52828395
000130 36 6c 95 bd 43 10 83 bf a8 b6 32 be d7 26 a9 bd
       -0.0729603 -1.0239338 -0.1745249 -0.08259361
000140 fe e9 5c bf f1 51 a6 3d 37 29 16 3e d0 28 e1 be
       -0.86294544 0.08121098 0.1466416 -0.4397645
000150 9e 90 e6 3e 5b 0e 0f 3f 80 6a 97 3e a1 6f 4d be
       0.4503221 0.5588128 0.2957344 -0.20062114
000160 2c 6d 91 be 59 62 71 be 62 27 5d 3e 22 b0 ed 3e
       -0.28403604 -0.23572673 0.21597055 0.4642344
000170 1c 81 98 bc 57 6f 2c 3f 5d e0 02 3f a5 4e 90 be
       -0.018616252 0.6735739 0.511236 -0.28185
000180 a3 6d 65 3b 7b d0 60 3f e6 24 7a bd a5 94 83 be
       0.0035007976 0.87818116 -0.061070345 -0.25699344
000190 d7 9b 5c 3f 52 36 1f 3e 9e 9f 0b 3f 10 b5 ca be
       0.8617529 0.15548065 0.5454043 -0.39591265
0001a0 e4 e9 3e 3e f7 0c f4 3e 7b 1f 20 3d 6d 83 7c 3e
       0.1864391 0.4766614 0.039092522 0.2465951
0001b0 66 87 75 3e 2c d4 f3 bd 40 25 78 3e 42 43 2e 3f
       0.23977432 -0.11905703 0.2423296 0.6807138
0001c0 9a 5c a8 be 81 c9 2e 3f f7 d6 8b bd 22 af 00 bf
       -0.3288315 0.6827622 -0.06828111 -0.5026723
0001d0 51 1e 10 bf 48 9d 0e 3e 43 9a 13 be b0 e4 1f be
       -0.5629626 0.13927186 -0.14414315 -0.15614581
0001e0 a0 d5 51 be 4f 1e e9 3e 77 aa d6 3e 6a 35 1c 3f
       -0.20491648 0.45530936 0.4192693 0.61019003
0001f0 c7 6e 13 be db 66 97 bd 3b ac 81 be 1a 52 fc be
       -0.14397727 -0.07392665 -0.25326714 -0.4928139
000200 85 9d a1 be d0 42 96 3e 52 b5 14 bf e1 67 5a 3c
       -0.3156549 0.2934785 -0.5808917 0.013330431
000210 77 fd 0c be a8 54 ac 3e 58 b0 19 3e f3 26 aa 3e
       -0.13768564 0.33658338 0.15008676 0.3323284
000220 46 14 be be 02 58 0c bf 91 16 4b be 6f bd 9e be
       -0.37124842 -0.5482179 -0.19832827 -0.310039
000230 2f 44 af bd b5 4e 46 3f 83 4a c3 3d 93 dc 9b 3d
       -0.08557927 0.7746385 0.09535696 0.076104306
000240 7e 57 ab be 3b db 9a 3d 20 0b d0 be b3 96 17 3e
       -0.3346519 0.07561346 -0.40633488 0.14803581
000250 00 f4 99 3e 1a a8 68 be 55 1a f0 3e 57 e3 65 3e
       0.3006897 -0.22720376 0.4689509 0.22450005
000260 1c b5 3f 3d 74 43 50 3f d8 9d 35 3d 61 d8 fc bd
       0.04680358 0.81352925 0.044339985 -0.123459585
000270 e0 cb 17 bf 82 ec d3 3e 5d a4 04 bd 25 c2 5d 3e
       -0.59295464 0.4139138 -0.03238331 0.21656092
000280 d6 57 b6 be cd 62 8a 3e c5 68 cb 3e bb 5a 62 be
       -0.35613889 0.27028504 0.3972837 -0.22104923
000290 55 e8 d9 be 84 3b 1d bf f7 c8 63 bd 91 33 79 3e
       -0.42560068 -0.6141894 -0.055611577 0.24336077
0002a0 f0 1d ac be 10 28 20 3f 3f 57 0b 3f 5b a7 9e 3e
       -0.3361659 0.6256113 0.5443 0.30987057
0002b0 ff f8 2c bd 98 df 26 3f 18 bf af 3e fa 97 39 3e
       -0.04222965 0.65184927 0.3432548 0.1812438
0002c0 d0 1e 43 3f 22 96 b5 3d eb fc 38 3e 16 05 be bd
       0.7621889 0.08866526 0.1806523 -0.09278314
0002d0 01 fd 3b 3e bf 9d f5 3d 05 a5 dd 3e 5a 2f 7c 3e
       0.18358232 0.11992978 0.43289962 0.24627438
0002e0 ce d6 17 bd 0c ed 99 3d 36 3f 8f 3f d9 17 54 3e
       -0.037070088 0.07515916 1.1191165 0.20712222
0002f0 1b 32 2a be 6b b3 a9 be cf ca bf 3e b1 7b a6 be
       -0.16620676 -0.33144698 0.37459418 -0.32516244
000300 e9 8b e8 bd c4 6a 33 be 62 25 0c bf 4a b3 01 bf
       -0.11354811 -0.17521197 -0.5474454 -0.506642
000310 3c 68 d5 3d a4 f5 ad 3e 53 5e b1 be a6 1c bf 3c
       0.10420272 0.3397647 -0.34642276 0.02332909
000320 ec 41 df be 16 5a 1b bf fa fe a0 bb 06 51 34 3d
       -0.43604982 -0.60684335 -0.004913208 0.044022582
000330 d0 55 3f 3e 65 d8 9f 3e 76 70 52 bf bf 7d 2f 3f
       0.18685079 0.31219783 -0.8220285 0.6855125
000340 44 e9 d5 bd 59 11 72 bd 02 b5 f5 3d e8 16 16 3f
       -0.104448825 -0.059098575 0.11997415 0.586287
000350 ee 36 f3 be 78 c4 af 3e 1f 53 48 3d 40 cd ce 3e
       -0.47502846 0.3432958 0.048907395 0.40390968
000360 c8 d1 27 bf e4 71 8c 3d 0c a1 2d 3f 1a e2 ed bc
       -0.65554476 0.068576604 0.67823863 -0.029038478
000370 a2 5d d6 3e b7 dd c1 be 29 03 09 3f d4 b0 74 3d
       0.4186831 -0.37864468 0.53520447 0.05973895
000380 2e 92 c8 3e 2f 53 05 3f b0 0a da bd 39 15 c3 bc
       0.39174026 0.52080053 -0.1064657 -0.02381383
000390 9b bb 78 be 36 ec 77 bf 03 42 1e 3e 97 ea 27 3f
       -0.24290316 -0.96844804 0.15454869 0.6559233
0003a0 bf e4 c3 be 15 d0 ae 3e 29 29 52 3e 02 b3 cb be
       -0.38260457 0.3414313 0.20523514 -0.3978501
0003b0 1c cc 34 3e 4d 0b 9f be 81 9d ca be d4 dd 8e be
       0.17655987 -0.3106331 -0.3957329 -0.27903616
0003c0 fa b1 71 bd 01 21 3f 3d 77 0b 46 be 1d a5 65 bf
       -0.059007622 0.046662334 -0.19340311 -0.8970507
0003d0 fc 34 71 3e 24 7d 2c 3e 37 c7 9e be 61 ce a3 3e
       0.23555368 0.16844612 -0.31011364 0.31993392
0003e0 ef 57 a6 bc 48 75 11 3d 55 c0 b9 bd d4 9e 4d 3e
       -0.020305602 0.03551224 -0.090698875 0.2008012
0003f0 f0 73 28 bf db 25 4d 3e 52 e0 bb be 02 53 6b be
       -0.65801907 0.20033972 -0.3669458 -0.22980884

network_body._body_endoder.seq_layers.2.bias f4 [256]
000000 33 e1 55 bd 4c d4 2e 3d 8f 18 14 3d 01 c5 32 bd
       -0.05221672 0.04268293 0.036156233 -0.04364491
000010 eb 98 43 3d 9e 16 5b 3c dd 04 38 bb f0 cb 4d 3d
       0.047753256 0.013372092 -0.002807907 0.050243318
000020 d7 b8 6c 3d 40 bf 41 3c 6e cc 62 3c 7e ad ad bc
       0.057793465 0.011825383 0.013842685 -0.021200892
000030 3c c1 54 3d 51 6a e0 bc 52 10 06 bd 1b 2a 8d bc
       0.051942095 -0.027394446 -0.032730408 -0.017231992
000040 37 87 66 3d e1 5b 41 bd a4 66 a0 3c 02 5c b3 3c
       0.056281295 -0.047206763 0.019580193 0.021894459
000050 e5 c6 7c bc 56 52 94 ba cb d9 5f 3b e2 02 a7 3b
       -0.0154282795 -0.0011316042 0.0034156914 0.005096779
000060 4c 91 25 3d 19 04 4d 3d e8 8d f6 3c e3 91 11 3d
       0.04042177 0.050052736 0.030096963 0.03553952
000070 50 b9 3e 3d f2 cf 4e 3b 93 d1 9e bc 7b bf 48 bd
       0.046563447 0.003155705 -0.019387042 -0.049010735
000080 5f d8 7c 3c 32 32 62 3d cd e9 55 3d 20 9a fb 3c
       0.015432446 0.05522365 0.052224923 0.030713141
000090 d8 b6 cc 3c f5 11 81 3d 51 ed e2 3c 4e 53 c0 bc
       0.02498953 0.06302253 0.027701052 -0.023477223
0000a0 3a 33 03 3c 0b dc 9a bc 4e 34 7c 3c 1d eb 4d 3d
       0.008007819 -0.018903753 0.01539333 0.05027305
0000b0 79 9d dd 3c 6a b3 0b 3d 77 b9 3a bd fa 97 57 3d
       0.027052628 0.03410665 -0.04558703 0.05263517
0000c0 86 9b 60 3d f8 c6 55 bd 52 39 60 3d 92 1d 6d bd
       0.05483582 -0.052191705 0.054742165 -0.05788953
0000d0 59 03 0d 3d df 7e 02 3d 96 10 4a 3d 21 64 e1 3c
       0.03442702 0.031859275 0.049332224 0.027513565
0000e0 dd 27 00 3d 89 4d 2d 3d c2 1e 1d 3d 8f 0a 43 3d
       0.031288017 0.04231027 0.03835941 0.04761749
0000f0 4d 4f 4e 3d 04 69 45 bd 46 2b 27 3d f0 26 52 bd
       0.050368596 -0.048195854 0.040812753 -0.051306665
000100 53 c4 42 3d 1d 67 38 39 4c 51 63 bd 30 a4 38 bd
       0.04755051 0.0001758602 -0.055497453 -0.045078456
000110 e0 85 10 bd 42 98 f7 3c d9 bf 3c bc a4 3a 39 3d
       -0.035283923 0.03022397 -0.011520349 0.04522194
000120 da f6 3d bd e9 18 55 3d a8 bf 6f 3a 07 8f 40 3d
       -0.046377994 0.05202571 0.00091456855 0.0470114
000130 95 07 6e 3d 27 22 14 bd d4 22 4d 3d 41 d4 8a bc
       0.0581127 -0.036165383 0.050082043 -0.016946914
000140 ff c1 76 3c 7c d0 46 3b 3a f3 3e bd d7 82 f2 3c
       0.015060901 0.0030336669 -0.046618678 0.029603405
000150 8e 5a 5e bd fc 89 5a 3d 5d a0 f5 bc 7a 40 41 bd
       -0.05428558 0.05335425 -0.029983694 -0.04718063
000160 d1 0b 89 3b 35 47 24 3d 50 03 24 3d 22 3b 29 bd
       0.004182317 0.04010697 0.04004222 -0.04131616
000170 ed 62 8f bb 23 7a 13 3d a0 bb 6a 3d 65 21 22 bd
       -0.0043758065 0.03600515 0.05730784 -0.03958263
000180 3f 93 3a 3b 36 c2 66 3d c6 ef d7 bc ab 6a 51 bd
       0.0028469113 0.056337558 -0.02635945 -0.051127117
000190 36 79 fb 3c 24 d6 55 3c e3 64 2d 3d 9b 3c 93 3c
       0.030697446 0.013051543 0.04233254 0.017973235
0001a0 6d 9e ac ba 87 ab 2e bc a9 29 3c bd b7 e4 16 3c
       -0.0013169773 -0.0106610125 -0.045938168 0.009209803
0001b0 f9 a7 98 3c 7b 11 45 3d 65 1e 0e bc 78 a9 f9 3c
       0.018634783 0.048112374 -0.008674239 0.030476317
0001c0 01 82 57 bd 73 65 24 bd 56 a2 91 3c 78 8e 00 bd
       -0.052614216 -0.040135812 0.017777603 -0.03138587
0001d0 f6 ee c9 bb 8f 6d e8 3a f3 ef fa bc 7b 2b 88 bc
       -0.0061625196 0.0017732846 -0.030631995 -0.016622296
0001e0 be 0f 11 3d 89 b7 85 3d 7f b0 85 3c 8d 7d 25 bd
       0.035415404 0.06529147 0.016319511 -0.040402938
0001f0 12 d0 16 3d ad 75 de bc 89 9b 54 bd 90 d3 11 bd
       0.036819525 -0.027155722 -0.051906142 -0.035602152
000200 8c 20 41 bd e3 d1 08 3d 3f cf 38 3d 56 5b 43 bd
       -0.04715018 0.03340329 0.04511952 -0.047694527
000210 f4 13 10 3c 89 ee b3 bc 2d 85 36 bd 2b 87 4e 3d
       0.00879382 -0.021964328 -0.0445606 0.050421875
000220 4a 9e 1d 3d 97 8a 09 3d cd 1a 29 3d 7d a1 29 3d
       0.038481034 0.033579435 0.041285325 0.041413773
000230 65 17 17 bd bc 19 76 bc 5d 5a c9 bb 3e d4 77 3d
       -0.036887545 -0.015020784 -0.0061448053 0.060505144
000240 3b cf 71 3d 4f dc 42 3d 1b 67 5b 3d 80 ec f9 3c
       0.05903552 0.047573384 0.053565126 0.03050828
000250 78 84 28 3d 7c 57 8d 3c d8 ba 1b bc c5 f4 4e 3d
       0.041141957 0.01725363 -0.009504996 0.0505264
000260 f4 6f 10 3d 2c d9 9f 3c 89 f1 41 3d 83 5e d2 bc
       0.035263017 0.019512735 0.047349487 -0.025679832
000270 bc 9b e2 bc 73 22 b6 3c 6a 5a a4 3c 7c 1e 11 bd
       -0.02766215 0.022233224 0.020062644 -0.035429463
000280 80 bd a9 bc 85 73 ca 3c da 26 66 3d 4b 93 c4 3c
       -0.020720243 0.024713287 0.056189395 0.023996016
000290 bd c1 82 3d e1 6b 99 3c 80 44 5c 3c 38 46 95 bc
       0.06384609 0.018728198 0.013444066 -0.01822196
0002a0 26 78 b1 bc a6 5d 19 bc 36 9d 4a 3d a7 3a 66 3d
       -0.021663737 -0.009360706 0.049466334 0.05620828
0002b0 b2 ec 90 3c 50 6b 34 3d fe cf cf b7 0f 25 36 bd
       0.01769099 0.044047654 -2.4773177e-05 -0.044468936
0002c0 77 5b 69 bd 2d 91 74 3d 64 d5 eb 38 a2 4a 4b 3d
       -0.056971993 0.059708763 0.0001124542 0.049631722
0002d0 a2 cd 89 bc 84 e8 fd 3b b1 1f 32 3c 71 3a 69 bc
       -0.016821686 0.0077486653 0.010871814 -0.014235125
0002e0 fd 8b 62 3d db af d3 3c cd 12 56 3d 27 34 fc bb
       0.055309284 0.02584069 0.052264024 -0.0076966467
0002f0 4e 02 cc 3c c0 01 16 3d 2f 28 c4 3c 14 c0 16 3d
       0.024903443 0.036622763 0.023944942 0.036804274
000300 98 4d 19 3d 21 4e 48 3d 2b 7e d6 bc 83 06 1c bd
       0.037427515 0.048902635 -0.026183208 -0.038092148
000310 dd cf 61 3d 57 89 fc 3c 4b 10 6a bd 43 7f 00 bd
       0.055129874 0.030827207 -0.057144444 -0.031371366
000320 b7 3d 50 ba 54 ab 72 3d 4e 8f 4c 3d 5b 2c f1 3b
       -0.00079437665 0.059245422 0.049941353 0.007360024
000330 38 9e 25 3b 1c 26 35 3d a9 cb 2c bd 8e f5 14 3d
       0.0025271308 0.044225797 -0.042186413 0.03636699
000340 ce b9 7f bb 84 a4 07 bd 17 a6 60 bd 1c b2 40 bd
       -0.003902066 -0.03311588 -0.054845896 -0.04704486
000350 43 f5 82 3b 50 4a 7d 3d ca 6a d1 bc 68 81 2d bd
       0.0039965226 0.061838448 -0.025563616 -0.04235974
000360 78 cd 33 bb ca 6d 3a 3d 7e 9f 44 3d d5 d4 c8 bc
       -0.0027435701 0.04551486 0.048003666 -0.024515549
000370 2e 1d 0f bd 2c b9 29 3d 1d 38 eb 3c 26 65 74 3d
       -0.034939937 0.04143636 0.02871328 0.059666775
000380 f3 77 ea 3c 6c f9 5e 3d 03 7f 3f 3d 77 71 a4 bc
       0.02862165 0.054437086 0.046751987 -0.020073636
000390 59 02 08 3d f8 63 63 3d 08 fe a9 3b c9 ab 2b 3d
       0.033205364 0.05551526 0.0051877536 0.041911874
0003a0 1b 57 85 bc 7b f8 30 3d 71 20 10 3d e3 d0 d8 bc
       -0.016276887 0.04320572 0.03518719 -0.026466792
0003b0 77 90 58 3d ce 48 6b 3d 17 97 95 3c fc 08 1b 3d
       0.052872147 0.05744248 0.018260522 0.037850365
0003c0 74 9b 31 3d e1 be 50 3c 9a cc c8 bc ca 41 05 bd
       0.043361142 0.012740822 -0.024511624 -0.032533444
0003d0 11 d0 e4 3c c0 db 04 bc fb f5 9b 3c 6b 57 23 3d
       0.027931245 -0.008109033 0.019038191 0.03987829
0003e0 f9 a4 54 3d 41 03 ba 3c 3b 37 47 3d bb b4 dc 3c
       0.051915143 0.02270663 0.048636656 0.026941648
0003f0 cf 88 5b bd 78 60 ef bc 87 5e 35 bd 98 a5 47 3d
       -0.053597268 -0.029220805 -0.0442796 0.048741907

network_body._body_endoder.seq_layers.2.weight f4 [256, 256]
000000 e6 47 1d 3d a8 d5 e6 bc 72 32 13 be fb 51 6f 3d
       0.038398646 -0.028178051 -0.14374712 0.058427792
000010 4e 12 87 bb 33 ea e1 bd 9d 95 ff 3c 1d 41 c3 bd
       -0.004122055 -0.11030998 0.03119927 -0.09533904
000020 91 56 39 bd ac b4 bb 3a 5a 06 c0 3c 55 e5 d4 3c
       -0.04524857 0.0014320812 0.023440529 0.02598826
000030 1d 22 9a bd 86 0a 3d 3b 07 82 c9 bd 46 fc 49 bc
       -0.07526038 0.0028845384 -0.09839254 -0.012328213
000040 9a a1 01 bd a2 4b 41 bd 2b 07 db bc 22 17 b9 3b
       -0.031648256 -0.04719127 -0.026736816 0.0056485096
000050 2c 56 9a bc a3 5e 9e 3d dd aa 58 bd 77 10 85 bd
       -0.018839918 0.07732894 -0.052897323 -0.06497281
000060 67 71 41 3e 24 d1 1e bd 41 5d d9 bd 52 84 ff 3c
       0.18890916 -0.03877367 -0.1061349 0.031191025
000070 9c 7e 70 bd c0 f5 01 bd 3f 21 d5 bd fd 81 88 3c
       -0.058714494 -0.031728506 -0.10406732 0.016663546
000080 a2 29 8a bb fd 46 73 3d be aa 5b 3d 7a 15 8f 3d
       -0.004216389 0.05939387 0.05362963 0.06986518
000090 8f 0e 5d 3d 55 b0 2d be b5 8c bf 3d dc e2 a8 bd
       0.053968962 -0.16961797 0.093530096 -0.08246395
0000a0 8e 27 97 bd 60 31 f0 3c 96 c5 97 3c 98 56 ee bd
       -0.07380591 0.029320419 0.018526834 -0.1163761
0000b0 64 61 9c bd 92 69 3f bc 50 60 7e bd 4e fd 97 bd
       -0.07635763 -0.011682885 -0.06210357 -0.07421361
0000c0 ef a4 91 bc fe f9 90 3c 90 c5 0c 3d be 52 8d bd
       -0.017778842 0.01769733 0.034368098 -0.069005474
0000d0 96 0b 07 bc b1 35 db bd 20 75 5a bd 91 d6 d1 bc
       -0.008242508 -0.107036 -0.053334355 -0.025615009
0000e0 d4 16 05 be 52 e1 0d 3e 10 f8 de bd 8d f5 30 bd
       -0.1299699 0.13855484 -0.10887158 -0.043202925
0000f0 1e fc bb bc 50 53 49 bd 0e be de bd 81 f1 6a bc
       -0.022947367 -0.04915172 -0.10876094 -0.014339806
000100 b2 a2 5a bd e7 ee 4a bd c1 d4 01 3d c8 d6 f0 3d
       -0.053377815 -0.04954424 0.03169704 0.11759716
000110 a4 09 5d bd ae 3f cd 3b 20 eb c5 3c bc 91 25 bd
       -0.053964272 0.0062636947 0.024159968 -0.040422186
000120 15 25 2f 3b 0c a0 28 3e 83 a7 27 3d d0 99 5e bd
       0.0026724983 0.16467303 0.040931236 -0.054345906
000130 c9 a3 fd 3b 82 a0 2c 3d a2 c6 10 bd 63 74 62 3d
       0.007740472 0.04214526 -0.03534568 0.055286776
000140 2c 31 f3 bb 17 bf cf bd 00 8e 41 3d a7 13 da 3c
       -0.007421633 -0.10143869 0.047254562 0.0266207
000150 f1 b1 e1 bc 2b f9 58 bc ca a7 8e 3c 21 02 34 3c
       -0.02755067 -0.013243 0.017413992 0.010986836
000160 2b 2d e1 bd 6c 49 c6 3b 85 cf 88 bd ea ee 02 bd
       -0.10994943 0.006051233 -0.06680206 -0.031966127
000170 0a 0e 6f 3d 71 85 d5 bd f7 02 8d 3d a0 41 16 3b
       0.058362998 -0.104258426 0.06885331 0.00229273
000180 99 73 17 bd e8 b9 95 3c 72 d0 4b 3c 94 0c 39 3d
       -0.036975477 0.018277124 0.012439834 0.04517801
000190 2c a0 47 3e 58 bb af 3d 14 28 33 3d 34 6b 55 3c
       0.19494694 0.08580655 0.043739393 0.0130260475
0001a0 0e 2e bd bd 5e ff 13 be f3 4c 55 bd 66 4a 74 bc
       -0.092373 -0.14452884 -0.052075338 -0.014910316
0001b0 e8 1c 5f bd a3 cb 51 3d 7e 67 f8 bd 7a 52 6c 3d
       -0.054470927 0.051219594 -0.121291146 0.057695843
0001c0 9d ee 3d bd 6f d7 0e bc 09 ed 97 bd 50 8b 2b be
       -0.046370137 -0.008718356 -0.07418258 -0.16752362
0001d0 2d d5 18 bc 56 2d c4 3d be c0 89 bd 70 2e d3 3d
       -0.009328169 0.0957896 -0.06726216 0.103115916
0001e0 f9 be 4f bc 7d 0e bd bd 53 04 49 bd 67 1a 96 bd
       -0.012679809 -0.09231279 -0.04907639 -0.073292546
0001f0 9e 0f 9c 3c 1b e4 7a bd f7 7f cd 3c ce e0 19 3e
       0.019050416 -0.061252695 0.025085432 0.15027162
000200 dd 8a 96 bd a9 9d 63 bc 89 65 c7 bd c1 d0 c3 3c
       -0.07350705 -0.01389257 -0.09736163 0.023903253
000210 c1 e3 82 bd 50 81 d8 3c 78 14 dc 3d 55 d4 f0 bc
       -0.06391097 0.026428849 0.107460916 -0.029398123
000220 78 9a 8c 3c c9 c3 72 bd 04 33 b8 bd c6 a6 d2 bc
       0.0171635 -0.059268747 -0.089941055 -0.02571429
000230 1b 08 40 bc 0d 46 94 3d 23 75 74 3c 9b 81 1f 3d
       -0.0117206825 0.072399236 0.014920506 0.03894196
000240 4f 64 20 3b aa 58 0c bd 14 87 18 bd a7 fe 84 3d
       0.002447385 -0.034264244 -0.037238196 0.064938836
000250 a9 7a af 3c be c2 df bc b8 e1 80 bc 6d f0 4d bd
       0.021420794 -0.02731454 -0.015732631 -0.050278116
000260 ac 4b 0b be da 53 36 bd 92 05 0e 3c 8c dd 8a bd
       -0.13603085 -0.04451356 0.00866832 -0.06780538
000270 98 71 e7 bd a6 fc 34 bb 38 9e e5 bd 11 45 10 be
       -0.11300963 -0.002761641 -0.112118185 -0.14088847
000280 97 53 3d 3d 93 7a 2c bd 7a cf cf bb 46 69 af 3d
       0.046222296 -0.042109083 -0.006341872 0.08565001
000290 93 50 c8 3c 8f 50 39 bc fa e3 8e bb 62 9e f6 bc
       0.024452483 -0.011310711 -0.004360673 -0.03010482
0002a0 39 d0 cf bd 7a 81 ba bd ce db 3f bd 81 37 02 3c
       -0.10147137 -0.09106727 -0.04684048 0.0079478035
0002b0 57 a8 2e 3d 7d 79 13 3d 49 8b 19 be 11 79 00 3d
       0.04264101 0.036004532 -0.1499454 0.031365458
0002c0 d3 a6 39 3d 0d 74 8a bc 0f 44 b4 bd 93 e5 a9 bd
       0.04532511 -0.01690104 -0.08802044 -0.08295741
0002d0 ba 42 58 3d ba dc 01 bd e9 1e 8d bc da df a6 bb
       0.05279801 -0.031704642 -0.017226653 -0.005092603
0002e0 17 df 0f be eb a3 c8 bb 16 d8 1d 3d d4 e2 ed bc
       -0.14049946 -0.006123056 0.038536154 -0.029038824
0002f0 f4 5e f6 bd 77 0d d5 bc 4b 43 1b bd 34 2a d2 bd
       -0.120298296 -0.026007397 -0.037905972 -0.10261956
000300 54 99 0c 3d 42 df 5e bb 85 f0 ba bd c7 30 06 3e
       0.034325913 -0.0034007584 -0.09127907 0.13104545
000310 8c b8 78 bc e2 87 ff 3d db 9b d3 3c 1d 81 a6 bc
       -0.015180718 0.124770895 0.025831154 -0.020325238
000320 2e 8e 44 3c 42 19 a1 3d 82 57 8b bd 7e af 97 bc
       0.011996789 0.07866146 -0.068038 -0.018516298
000330 02 63 ef bd 5d f3 8d 3d 9c ef 77 3c 98 97 4c 3d
       -0.11688806 0.069311835 0.015132811 0.04994926
000340 7e e1 8d bd ca 09 16 3d 57 9a f0 bd 2f 95 3f 3d
       -0.06927775 0.03663043 -0.11748188 0.046773132
000350 6d ad a0 bd 4c 67 f7 bd 97 7c d6 bc 2e dc c5 bc
       -0.07845578 -0.12080249 -0.026182456 -0.024152841
000360 00 76 9c bd 09 bf 88 bc 2c 11 47 bd 11 6d 39 3d
       -0.07639694 -0.016692655 -0.04860036 0.04527003
000370 ba 89 ed 3d 17 c9 37 3d da 50 33 bb b9 29 4a be
       0.11598535 0.04486951 -0.0027361424 -0.19742478
000380 8e ed 5f 3d c0 34 a0 ba 8f 69 88 bd 16 61 a1 3d
       0.05466991 -0.0012222752 -0.06660759 0.07879846
000390 0e 15 28 3b d3 60 a0 3c 23 46 ef bd 44 df e2 bd
       0.0025647315 0.01957742 -0.116832994 -0.11077741
0003a0 83 c1 34 bc 39 99 c6 bd e7 f5 f4 bc 39 83 9e bd
       -0.011032465 -0.09697194 -0.029902412 -0.077398725
0003b0 43 97 02 3d 99 4d 5f 3d b1 3b 0e 3d 95 ad 5a 3d
       0.031882536 0.054517362 0.034724895 0.053388197
0003c0 67 c9 6a 3d 39 ed cf 3d 16 a3 54 3d 56 e9 f6 bd
       0.05732098 0.101526685 0.051913343 -0.12056224
0003d0 21 b4 23 3d e1 27 6a bc 73 ac c1 bc 29 ab 01 3c
       0.039966706 -0.014291734 -0.0236418 0.007914343
0003e0 7d 81 d8 3d 3c ad 0c bb 66 de fb 3c 9b 8c 0b be
       0.10571573 -0.002146556 0.030745696 -0.13627855
0003f0 38 9d aa 3c e1 9a 82 bc 40 9a a4 3d 45 a0 21 3e
       0.02082692 -0.015942993 0.08037233 0.15783794

network_body._body_endoder.seq_layers.4.bias f4 [256]
000000 a7 08 04 3c b4 b2 64 bc 32 74 11 3d 54 94 f2 bc
       0.0080587035 -0.013958622 0.035511203 -0.029611744
000010 7f 2a 42 bc 89 9a e5 3c 62 7e 9d bc 0d ac a9 bc
       -0.011850952 0.02802779 -0.019225303 -0.020711923
000020 85 53 0e bd 77 b0 e7 bc ca da 00 3d fc 28 67 3c
       -0.03474762 -0.028282387 0.031458654 0.0141088925
000030 4c b1 40 3d 7b 15 41 3d 52 ae 48 3c 45 31 dc bc
       0.047044083 0.047139626 0.012248592 -0.026878962
000040 66 c1 30 3d 41 bc 7b bc 7c 53 04 3d a8 3c 50 3d
       0.04315319 -0.015364707 0.03230618 0.050839096
000050 99 0a 3f 3d 73 46 18 3d bf 63 15 3d 84 56 01 3d
       0.046640966 0.03717656 0.03647208 0.03157665
000060 1d 13 0b 3d 65 1c e9 3c 89 43 ff 3c 45 45 1a 3d
       0.033953775 0.028455922 0.031160133 0.037663717
000070 0e d9 8f bc 65 79 09 bd 1e fe d5 bb 11 7b 0b 3d
       -0.017559554 -0.033563036 -0.0065305373 0.034052912
000080 6b 5f 2a 3d 15 7c 3f 3d 23 46 53 bc 7d a6 f6 bc
       0.041594904 0.046749193 -0.01289514 -0.030108685
000090 cc f7 0a 3d f5 1f 28 3d e5 36 66 bc 5a ac 28 3c
       0.033927724 0.0410461 -0.014051174 0.010294998
0000a0 96 4c 04 3d 80 35 2a 3d ef 5b f2 3c 9d 99 ba bc
       0.0322996 0.041554928 0.029584853 -0.022778327
0000b0 21 25 7c bc f6 d0 85 3c 68 e5 43 3d 78 a2 4e bb
       -0.015389712 0.016334992 0.0478262 -0.0031529944
0000c0 af b1 b5 3c 74 d2 4c b8 a8 88 55 bc 67 93 5a 3c
       0.022179453 -4.883339e-05 -0.01303307 0.0133408075
0000d0 a9 6e f2 bc 47 d4 25 3d 49 de 07 bc 09 0b 59 3d
       -0.029593782 0.040485647 -0.008292743 0.05298904
0000e0 20 90 d5 bc 00 65 e6 3c e3 82 37 3d 8f 61 3f 3d
       -0.0260697 0.028124332 0.044802558 0.0467239
0000f0 e5 63 32 3d ec 03 22 3d 57 92 08 3d 50 b1 35 3d
       0.043552298 0.03955452 0.033342686 0.04435855
000100 05 a9 ba 3c ca b8 a0 bb cc e0 b3 bc 3e c0 78 bc
       0.022785673 -0.004904841 -0.021957777 -0.015182553
000110 83 bc 9c bc 04 ae 08 3c 9b 62 c8 bc 5a a0 17 3d
       -0.019132858 0.00834227 -0.024461081 0.037018158
000120 4a e7 cc bc 5b 5f fb bb 4a f1 31 3d 75 f3 be 3c
       -0.025012631 -0.0076712794 0.043443 0.023309449
000130 82 94 9c bb 25 7d 5f 3c af a3 a0 3b 38 95 00 3d
       -0.0047784457 0.013640677 0.004902325 0.031392306
000140 a9 b7 24 3d 75 29 0a 3d 08 c5 87 bc cb 19 c3 3b
       0.040214214 0.033730943 -0.016573444 0.0059540025
000150 04 e6 a4 3c fc 32 ac 3b b1 d1 f9 3c 7a 5b 3a 3d
       0.020129211 0.0052551012 0.030495496 0.045497395
000160 49 f9 c1 bc e0 1b ea 3c 7e 3a f4 3b 79 4d 80 bc
       -0.023678439 0.028577745 0.007453262 -0.015661942
000170 54 70 36 3d 40 1b 40 3d 0a 8a d8 3b 8c 6e 7a 3b
       0.04454072 0.046900988 0.0066082524 0.0038212864
000180 62 aa 50 bc 6e bd c8 3c a2 bf eb 3c 35 ce cf 3c
       -0.012735935 0.02450439 0.028777901 0.025366882
000190 f1 ca f0 bc d1 2b 48 3d 83 86 69 3c 24 c6 34 3d
       -0.029393645 0.04886991 0.0142532615 0.044134274
0001a0 6b 9a db bc 47 cb 0c 3d 8a b8 e2 3c 4d 9d 83 3c
       -0.02680703 0.034373548 0.027675886 0.016066218
0001b0 eb 38 a9 ba a3 ad d7 3b 96 7b db bb 0d 9e 4d 3c
       -0.001291064 0.0065819784 -0.006698082 0.012549889
0001c0 62 66 17 bd 4d 34 45 3d b3 85 b6 3c 2b e6 48 3c
       -0.036962874 0.04814558 0.02228055 0.012261908
0001d0 57 88 12 3d c0 b8 23 3d 32 bd 27 3d 71 77 9c 3c
       0.035774555 0.039971113 0.040951915 0.019099923
0001e0 44 e3 58 3d c0 b8 a1 bc bf 57 ec 3c 54 e7 0f bc
       0.052951112 -0.019741416 0.028850434 -0.00878318
0001f0 5b 33 1c 3d 4f 9a 75 3c 32 1a 16 ba 6d 64 24 3d
       0.038134914 0.014990403 -0.00057259493 0.040134836
000200 14 bf 5e 3d c8 01 4f 3d 56 c8 8a 3c 74 31 44 3d
       0.054381445 0.050538808 0.01694123 0.047898725
000210 8f c7 46 3c 25 82 0c 3d 79 f9 db 3c 10 80 85 bc
       0.012132539 0.034303803 0.026852356 -0.016296417
000220 43 f2 88 bc 7f c2 42 3d dd 74 45 3d 50 78 1e 3c
       -0.016717082 0.047548767 0.048207153 0.009672239
000230 89 aa 13 bd 72 ba b1 3b e0 74 13 bb 1d f1 4a bc
       -0.036051307 0.0054238373 -0.0022500083 -0.012386587
000240 62 20 20 3b 32 96 13 bc c5 b0 9b 3c ab b7 5a 3c
       0.0024433364 -0.009007977 0.019005189 0.013349454
000250 b3 fb c7 3c c8 c4 37 3d 8c 13 d5 bc 23 28 c5 3c
       0.024412012 0.0448654 -0.026010297 0.02406699
000260 6f e5 c7 3c 72 38 20 3d 3e 4c 02 3d 02 d1 1e bd
       0.024401395 0.03911633 0.03181099 -0.038773544
000270 a0 68 53 3d 4b 7c 30 3d 68 25 8c 3b 83 9a 9e 3b
       0.05161345 0.043087285 0.00427692 0.0048401966
000280 25 d6 d0 3a 7e 18 82 3c d2 9a 12 3d 58 72 31 3d
       0.0015932961 0.01588082 0.03579218 0.043321937
000290 db f0 3a 3d d1 22 1d bd 17 9d 21 3d 13 83 2f 3d
       0.045639854 -0.03836328 0.039456453 0.04284961
0002a0 07 99 47 bb 7b ba f8 3c 42 66 51 bb d3 eb 0a 3c
       -0.0030456202 0.030362358 -0.003195182 0.008479076
0002b0 60 73 10 3d 30 cd 50 3d 09 1d 34 bc 08 8b 07 bd
       0.03526628 0.050976932 -0.010993251 -0.033091575
0002c0 97 8b 48 3d 8e 78 04 bd e7 e2 ac 3c f6 61 cc 3c
       0.04896125 -0.032341532 0.02110429 0.024949055
0002d0 f4 e9 04 3d 45 a8 07 bc 60 a9 68 3c 3b b0 90 3b
       0.032449678 -0.008279865 0.014200538 0.0044155396
0002e0 90 0e 44 3d ea 23 ae 3c ff ec ad 3c d8 9e d8 bc
       0.04786545 0.02125736 0.021231173 -0.02644293
0002f0 86 bf ad ba 54 86 ea 3b f9 6d 34 3c 49 07 88 bb
       -0.0013255931 0.0071571264 0.011012548 -0.004151259
000300 0a a0 15 3c 1e 16 bf ba 18 e8 1a bd e5 20 e5 3c
       0.009132395 -0.0014578735 -0.037818998 0.027969787
000310 a4 cb 9a bc b6 37 1f 3b 45 2b 4a 3d 7c a9 d7 3c
       -0.018895932 0.002429468 0.04935767 0.026325934
000320 95 48 d7 bc bc 9b bb 3c 2e d4 36 3c 63 3b 99 bc
       -0.026279727 0.022901408 0.011158986 -0.018705076
000330 20 03 52 3d 05 d5 1c bd e1 55 b7 bc ec bb 81 3c
       0.05127251 -0.03828909 -0.022379817 0.015836678
000340 59 b2 de 3c ed cf 30 3d 1d 8e bb 3b 9a fe 57 3d
       0.027184652 0.043167043 0.0057237283 0.05273304
000350 b2 86 9f bc a5 d8 21 3d d9 86 11 3d de de 35 3d
       -0.019473407 0.03951325 0.03552899 0.044401996
000360 13 4a 3c 3d 66 04 50 3d 99 5d 50 3c 7d b8 96 bc
       0.04596908 0.050785445 0.012717628 -0.018398518
000370 f9 67 03 3d a3 dc 77 bb e9 fd 9d bc 7a 3b 21 3d
       0.032081578 -0.0037820719 -0.019286113 0.039363362
000380 21 56 15 3c 7b e8 2d 3d cb 19 25 3d 19 1a 9f bb
       0.009114773 0.04245804 0.0403078 -0.004855406
000390 5b 7a 12 3d 30 69 68 3c 04 7a df 3c 2d ca 04 3d
       0.03576122 0.014185235 0.027279861 0.032419372
0003a0 f9 bf fa bb 51 a1 97 bc db 4a e4 bc 77 b3 ef 3c
       -0.0076522795 -0.018509539 -0.027867725 0.02926038
0003b0 26 2d f5 bc 04 30 f7 3c fb 31 11 bd 9a 99 ed 3c
       -0.029928755 0.030174263 -0.035448056 0.029003907
0003c0 8d cc f7 bc 2f b3 40 3d 8b f4 34 3d 03 14 82 bb
       -0.030248905 0.047045883 0.044178527 -0.0039696707
0003d0 a7 5b 32 3d b8 79 11 bd de d9 5d 3b 98 91 b5 3c
       0.043544438 -0.03551647 0.0033851783 0.022164151
0003e0 72 f2 bd bb 7d 2e 96 bc c8 14 51 3d c6 c4 cb 3c
       -0.005796724 -0.018332714 0.05104521 0.024874102
0003f0 a1 b2 3e 3d 1f 34 42 3d 8a 45 25 3d 2a c0 0e 3d
       0.046557073 0.047412988 0.04034952 0.03485123

network_body._body_endoder.seq_layers.4.weight f4 [256, 256]
000000 2f a6 8d 3d 4b 50 d4 bc 15 27 26 bd a2 20 25 3b
       0.06916463 -0.025917193 -0.040564615 0.0025196453
000010 bc 6f 90 3c 7a 0b f5 3c 7b 70 e7 3d 4e 9a 81 3d
       0.017631404 0.029912699 0.11300751 0.063282594
000020 79 9c 03 3c ca 3f 38 be b9 85 3f 3c b1 d3 df 3c
       0.008032911 -0.17993084 0.011689597 0.027322622
000030 8a e7 7d 3c 47 ed aa 3c a5 94 a2 3c 9e ab d9 3d
       0.015497098 0.020865096 0.01984627 0.106284365
000040 79 3f ba 39 bc e9 ad 39 1b 99 f5 bb 29 5e 0d 3e
       0.00035523975 0.00033171277 -0.0074950582 0.1380545
000050 39 3c fc 3c 10 13 9e bd 9e f0 7c bd 04 e8 ea 3c
       0.030790435 -0.0771848 -0.061752908 0.028675087
000060 0f d2 4c 3d 97 2b 9c 3c 39 2f d1 3c 65 37 02 3c
       0.050005015 0.019063754 0.025535213 0.007947777
000070 87 bc d5 3c 0c e2 16 3d d3 18 be 3d cf 99 66 3d
       0.026090873 0.03683667 0.092820786 0.056299027
000080 4e a7 d8 bc 1a 60 f9 bc 40 7d 6c bd c7 f5 68 3e
       -0.026446965 -0.030441333 -0.057736635 0.22750007
000090 f3 c2 3f 3c 11 30 b2 3b 82 57 da 39 3b f9 0b 3d
       0.011704194 0.005437859 0.000416454 0.03417323
0000a0 db bd 95 bc 56 f0 da 3d c2 b9 1a bd d2 2f 91 3d
       -0.018279007 0.10690372 -0.03777481 0.07089199
0000b0 a8 3a db 3b ac 95 b6 bd 84 64 69 3d a3 1c 19 3e
       0.006690342 -0.089152664 0.056980625 0.1495233
0000c0 c7 d5 14 bd 0c 19 e3 3b 2a 7e cf bc 85 d9 2c 3e
       -0.036336686 0.006930476 -0.025328714 0.16879852
0000d0 14 4f aa bd de b6 e1 3d b4 1c 30 3d ef ef f9 bc
       -0.08315864 0.11021207 0.042996123 -0.030509917
0000e0 da d6 6e bb 16 1c bc 3d 73 b3 a0 3d 12 ba df bd
       -0.003644398 0.091850445 0.07846727 -0.10924162
0000f0 39 0f 82 bd b1 70 b8 bd 19 94 be 39 0e 15 bb 39
       -0.0635056 -0.09005869 0.00036349965 0.00035683106
000100 cc a1 30 be 2d 80 02 3e f2 f8 d1 3b 37 01 4d bd
       -0.1724922 0.12744208 0.0064078504 -0.050049987
000110 74 da c5 3d 37 d3 b7 bd e2 04 7b 3d 86 ea 69 bd
       0.09660807 -0.08975833 0.061283953 -0.057108425
000120 f9 5d de 3c 65 48 54 bc 19 06 82 bd ea 20 83 3d
       0.027144419 -0.012956713 -0.06348819 0.06402762
000130 e1 19 fa bd 59 dc fa bc e3 87 99 bc 3e 21 57 bd
       -0.12211967 -0.030622648 -0.018741554 -0.052521937
000140 78 94 10 3d 86 1d b8 3d b3 9f 19 bc 5b 5b f0 bc
       0.03529784 0.08990006 -0.009376454 -0.029340437
000150 5c 86 e3 bd 6d 48 75 bd b7 ae 6e 3d 7a 03 62 3d
       -0.111096114 -0.059883524 0.05827209 0.055179097
000160 99 11 a4 3d 36 b3 b2 3d fe ca 09 bc 5d 1f a2 3d
       0.08011169 0.08725588 -0.0084102135 0.07916138
000170 92 cc 44 3d 65 86 2f 3c dd 19 1e bc 53 13 86 3b
       0.048046656 0.0107131945 -0.009649721 0.004091659
000180 e9 6b 52 bd 89 2f a4 3c 7e cf 77 bc f6 9e 5c bd
       -0.051372442 0.020042198 -0.015125154 -0.053862534
000190 95 77 ef 3d f5 64 1e be 3c bd 22 3d 46 a1 2e be
       0.1169273 -0.154682 0.03973125 -0.17053708
0001a0 f2 bb d6 3c 28 82 2b 3d c1 dd 9a bc 5b bf 2f 3d
       0.026212666 0.041872174 -0.018904569 0.0429071
0001b0 a9 06 df bb 5c c5 30 bd da ae a1 bc 41 c0 47 bd
       -0.006806214 -0.043156967 -0.019736696 -0.048767332
0001c0 1e e4 99 3c d3 f6 a5 bc 7b 20 af bd d4 e9 a9 3d
       0.018785533 -0.020259297 -0.08551117 0.08296552
0001d0 a0 f3 a0 3c f6 05 8e 3d 13 16 2d 3e 1a 61 b3 3d
       0.01964742 0.06934731 0.16902952 0.08758755
0001e0 ce 29 2d ba cb bc 00 3d 5c 94 6a bd 4a 41 e6 bd
       -0.00066056557 0.031430047 -0.057270393 -0.11242922
0001f0 e6 6a 26 3d f1 e7 5d 3d b4 e2 57 bc 6c c3 9f bc
       0.04062929 0.054176275 -0.013176609 -0.019502364
000200 25 12 33 3d b0 c9 e7 bb 29 fa d1 bc da bf 90 bc
       0.043718476 -0.0070736036 -0.025631981 -0.017669607
000210 60 29 91 bc 9e 4a ee bc 76 b4 57 bd ec 30 30 3d
       -0.017719924 -0.029088315 -0.052662335 0.043015406
000220 ca df fc 3d b4 27 d0 3c 04 6f 0b 3e b2 49 26 bd
       0.12347372 0.025409557 0.13616568 -0.040597625
000230 05 f0 a3 bd 1f 3c a2 3c 74 12 31 3d 80 85 e9 3d
       -0.080047645 0.019804059 0.04323049 0.11402416
000240 da ae 8b 3c d2 53 e2 3c 2b cf be 3d a4 98 02 3e
       0.01705115 0.02762786 0.09316858 0.1275354
000250 f0 b8 30 bd a7 e6 26 be 62 63 ab 3b a3 b7 e6 bc
       -0.04314512 -0.16298924 0.005230353 -0.028163737
000260 d7 bc 0a 3e b5 cd b2 bd 6e e2 2f 3e c0 e7 3d 3d
       0.13548599 -0.08730642 0.1717622 0.046363592
000270 9d bf be 3c 5d 52 ae bd 50 e1 0c be dc 27 9e bc
       0.023284728 -0.08511803 -0.13757825 -0.019306116
000280 fe a9 1e be 92 12 e9 3d e1 17 83 3c 81 bb 95 bd
       -0.15494534 0.11380495 0.016002597 -0.07311154
000290 b6 84 5e 3d a2 8d bb 3d 45 3c 12 be 1f 0c 50 bd
       0.05432578 0.09157874 -0.14280804 -0.05079281
0002a0 ac e1 3c bd 3c 78 f2 3d da 64 c2 3b 2e e4 4e 3c
       -0.046113655 0.11839339 0.0059324326 0.012627644
0002b0 c8 fd 2f 3c 0c b2 3e bc 08 77 5b bd e9 79 66 bd
       0.0107416585 -0.011639129 -0.053580314 -0.056268606
0002c0 a1 7c 21 be 55 2f cf 3c 77 1a a8 bc df 59 e0 3b
       -0.15770198 0.025291124 -0.020520432 0.006846651
0002d0 a0 e3 c0 bc 5b a7 85 3d 70 07 ab bd 41 f3 5d 3d
       -0.02354604 0.06526061 -0.08351028 0.054187063
0002e0 19 85 54 bd 5d 14 79 3b 67 6e 89 3d 4b 33 0b bd
       -0.051884744 0.0038006522 0.06710511 -0.033984464
0002f0 93 bc df 3d ff c3 7a bd 4f 48 8c bd d1 76 77 be
       0.109246396 -0.061222073 -0.06849729 -0.24166419
000300 95 9f 50 3b a6 81 c1 bc 00 27 ce bd 14 ba a1 3d
       0.00318334 -0.023621392 -0.100660324 0.0789682
000310 22 e9 99 bc 6a b9 46 bd 69 6c 98 bd aa bc 4a 3d
       -0.018787924 -0.04851667 -0.074425526 0.04949633
000320 56 f4 67 bc 41 ae ba 3d 91 dc 7b bd 82 be 22 3d
       -0.014157375 0.091152675 -0.061489645 0.039732464
000330 69 bb 90 3d 04 da 05 bd 69 d3 74 bd bc 4d 28 3d
       0.07066996 -0.03267862 -0.05977193 0.04108976
000340 2f b2 a4 bd a2 97 c8 bc f0 27 d6 3c ba 21 fc bd
       -0.08041798 -0.024486367 0.02614209 -0.1231112
000350 d4 5e eb 3c 2b ed f9 3c 50 f1 73 3d 6f 5f 11 3d
       0.028731741 0.030508598 0.059556305 0.035491403
000360 56 1b f4 3d 98 59 9e 3c bf ce cc bd b6 18 23 3d
       0.119192764 0.019329831 -0.10000371 0.039818488
000370 48 54 7e 3d e9 98 23 be 8e 8a 18 bd c2 23 8a 3d
       0.062092096 -0.159763 -0.03724151 0.067451015
000380 f1 9a 37 bc 8b fd 81 3d 10 6f e0 bd ed 9e 19 be
       -0.0112063745 0.063471876 -0.109586835 -0.15002032
000390 a8 4d 03 bd 27 a6 92 3d db 30 92 3b 69 3c 5d bc
       -0.03205648 0.07160597 0.0044613904 -0.013503172
0003a0 bf 3c 3e 3c 63 fa 71 bb 1a a0 29 3c cf 0e 39 3d
       0.011611163 -0.0036922924 0.010353113 0.04518014
0003b0 4e 43 bd 3c 00 1b 88 3b 3b e5 83 bd b6 e3 96 3c
       0.023103382 0.0041536093 -0.064402066 0.018419128
0003c0 c4 98 a0 3d cd 3f ef 3d 11 bc ca 3d 15 52 a9 3a
       0.07841638 0.11682091 0.09899152 0.0012918139
0003d0 22 2f 9c bd d3 14 10 3d ee 7b 9b bd 79 17 2c bd
       -0.07626177 0.03517611 -0.07591997 -0.042014573
0003e0 6a 80 e4 bb 6d 94 9e 3b 5c d0 0c bc e3 a0 b9 bd
       -0.006973316 0.004839471 -0.008594599 -0.0906389
0003f0 f0 6f 9a 3d df 9e 98 3d e4 66 fc 3b 85 0a 60 bd
       0.07540882 0.07452177 0.007702695 -0.054697532

network_body.observation_encoder.processors.0.normalizer.running_mean f4 [6]
000000 40 2f 0a 42 b9 ed ae 40 87 ca 68 42 80 1f 01 c2
       34.546143 5.466519 58.19778 -32.28076
000010 0d 32 b3 3f 1c 51 8e c2
       1.3999649 -71.15842
