Assets/Training/results/learn_v5_teszt2/MarsTaxi/MarsTaxi-499960.onnx (onnx, 542464 bytes, 10 tensors)

54 f4 [6]
0	0x4093c9f0	4.6184006
1	0x40c44808	6.133793
2	0x40989bf8	4.769039
3	0x3d3b1729	0.045676384
4	0x3b1f75d3	0.0024331703
5	0x3dce31c1	0.100680836

action_model._discrete_distribution.branches.0.bias f4 [6]
0	0x3c91c045	0.017791877
1	0xbc278791	-0.010225193
2	0xbc476dd7	-0.012172184
3	0xbc04f6be	-0.008115469
4	0xbb4f0bdf	-0.003159277
5	0xbc429384	-0.011875991

action_model._discrete_distribution.branches.0.weight f4 [6, 256]
0	0xbc2b9f93	-0.010475057
1	0xbc52c8d5	-0.012865265
2	0x3cebfae8	0.028806165
3	0xbb5e9745	-0.0033964675
4	0xbc969c94	-0.01838521
5	0x3ce82105	0.028336057
6	0xbb80a298	-0.0039256327
7	0x3b78388d	0.0037875504
8	0xbba881f9	-0.005142447
9	0xbca767bc	-0.020435207
10	0xbb9dcdaf	-0.004815779
11	0xbc858730	-0.016299814
12	0x3ca50b1f	0.020146905
13	0x3b50f833	0.003188622
14	0xbce0de7d	-0.02744984
15	0xbbe5fe08	-0.0070188083
16	0x3b21573d	0.0024618648
17	0xbc25d43e	-0.010121403
18	0x3ca9d45b	0.020731142
19	0x3c3565f7	0.011071674
20	0x3c131c62	0.008978935
21	0x3b9be1b7	0.004757132
22	0xbba72b1e	-0.0051015755
23	0x3c941e9c	0.018081002
24	0x3c78f3ae	0.0151948165
25	0x3c4a4288	0.012344964
26	0x3bcf8de5	0.006334054
27	0x3c5fe030	0.01366429
28	0x3b67ce1f	0.003537066
29	0xbccc3488	-0.024927393
30	0xbca8beff	-0.020598887
31	0xbb9c9133	-0.0047780513
32	0x3cee267d	0.029071087
33	0x3ca09898	0.019604012
34	0xbb43632e	-0.0029813754
35	0xbba69c74	-0.0050845686
36	0x3b2dfee2	0.0026549627
37	0xbb45b276	-0.0030166185
38	0xbc9476c9	-0.018123047
39	0xbca5bcf2	-0.020231698
40	0x3cdee806	0.027210247
41	0x3b773d5a	0.0037725777
42	0x3c8912ac	0.016732536
43	0xbc9b9ac2	-0.018994693
44	0xba36a479	-0.00069672574
45	0xbbcee613	-0.006314048
46	0x3be2b4fe	0.0069185486
47	0xbcaaab65	-0.02083368
48	0x3bce28e0	0.006291494
49	0xbd04800d	-0.03234868
50	0xbc2cee25	-0.010554825
51	0xbc65a4ba	-0.014016325
52	0xbc9d1c23	-0.019178456
53	0x3bf97612	0.007612952
54	0x3a3233e5	0.0006797894
55	0x3ca08057	0.019592447
56	0xbc82c884	-0.015964754
57	0x3c1b61f2	0.009483801
58	0x3a9b3b26	0.0011843189
59	0x3c8386ad	0.01605543
60	0x3be05487	0.006846014
61	0x3c5f2d94	0.0136217065
62	0x3cb188c4	0.02167166
63	0x3c5618ad	0.013067407
64	0x3c9a90b8	0.018867835
65	0x3c565166	0.01308093
66	0x398fb0b5	0.00027406742
67	0xbcc2ecd2	-0.023794565
68	0xbc912715	-0.017718831
69	0x3c968b12	0.01837686
70	0xbc519d6e	-0.012793882
71	0x3a63def0	0.0008692583
72	0xbbb37bd7	-0.0054774093
73	0xbc7ed9e5	-0.01555488
74	0x3cad7809	0.021175401
75	0x3bbc9a92	0.005755731
76	0xbb44fb94	-0.0030057179
77	0xbc89737a	-0.016778696
78	0x3ba76988	0.005109016
79	0x3d09d4ad	0.03365009
80	0x3c0475a9	0.008084693
81	0x3c5eeb47	0.013605899
82	0xbb356766	-0.0027680038
83	0xbbdbcf64	-0.0067080725
84	0x3b4331ad	0.0029784248
85	0x3c2e089f	0.010622173
86	0x3cbdbd34	0.023161508
87	0x3c968019	0.018371629
88	0xbc143afe	-0.009047268
89	0x3cf316e9	0.02967401
90	0xbcce2fd3	-0.025169289
91	0xbcc0e4c6	-0.023546588
92	0x3bfe1938	0.007754471
93	0x3c9b6d77	0.018973095
94	0xbc05321c	-0.008129623
95	0xbc96db6e	-0.01841518
96	0xbc8b235c	-0.016984634
97	0x3cc90ee0	0.024543226
98	0x3bff4d40	0.0077911913
99	0xbc29bd1c	-0.010360029
100	0xbc1b32dc	-0.009472575
101	0x3bdef3ac	0.0068039503
102	0x3b2673eb	0.0025398682
103	0x3c522747	0.012826747
104	0xbbc9aa64	-0.0061543453
105	0x3c137eb2	0.0090023745
106	0x3c58a6d2	0.013223367
107	0x3c0bda02	0.008535864
108	0x3bae50d7	0.0053196955
109	0xbcba3a6f	-0.022732941
110	0xbcfa6515	-0.030565778
111	0x3c9bd504	0.019022472
112	0xbac873f7	-0.0015293349
113	0x3c209379	0.009800785
114	0x3c9ff4d0	0.019525915
115	0xbb908b13	-0.00441111
116	0xbc57feef	-0.0131833395
117	0x3c406ece	0.011745168
118	0x3cc5c8fd	0.02414369
119	0xbb81fc3e	-0.003966837
120	0x38053624	3.1760093e-05
121	0xbbeda62b	-0.007252475
122	0x3c3108d0	0.010805324
123	0x3c506180	0.012718558
124	0x3bcf4940	0.0063258708
125	0x3c97c1e6	0.018525075
126	0xbc7d66b2	-0.015466379
127	0x3c33787a	0.010954017
128	0x3c89db51	0.016828211
129	0x3b46c93b	0.0030332345
130	0x3c341904	0.010992292
131	0x3cae118c	0.021248601
132	0xbc12099c	-0.008913424
133	0x3cd27a4d	0.025693083
134	0xbbe8dac4	-0.007106157
135	0x3b9da748	0.0048112012
136	0x3a63f336	0.0008695604
137	0x3c3fe0ea	0.011711339
138	0x3c40b39b	0.011761571
139	0x3c8e4589	0.017367141
140	0xbbb0534f	-0.005381025
141	0xbc8df622	-0.01732928
142	0x3b62cf1d	0.0034608312
143	0x3be2f543	0.00692621
144	0x3c602ba3	0.013682279
145	0x3bf64187	0.0075151357
146	0x3c0282fb	0.0079657985
147	0xbb45a7b9	-0.0030159785
148	0x3cb0cfe3	0.021583503
149	0x3aeb75f8	0.0017964235
150	0xbc44358a	-0.011975655
151	0xbb6e1f40	-0.0036334544
152	0x3b7d2c20	0.0038631037
153	0xbaba8b18	-0.0014232127
154	0x3b879b4d	0.0041383863
155	0xbc8e952f	-0.01740512
156	0x3c58705d	0.013210383
157	0x3ba96a1d	0.0051701204
158	0xbb498a35	-0.0030752544
159	0xbbedfdcc	-0.007262921
160	0xbccf04ce	-0.025270846
161	0x3c802b19	0.01564555
162	0x3c49ad5e	0.0123094
163	0x3b6bf7c7	0.003600584
164	0xbbad35c3	-0.00528595
165	0xbc11f210	-0.00890781
166	0x3a62e5b4	0.0008655444
167	0x3cf86091	0.030319484
168	0x3af4d267	0.0018678427
169	0x3c7ecea8	0.0155522
170	0xbbc90889	-0.0061350507
171	0xbbe9ad66	-0.0071312664
172	0x3b434d07	0.002980055
173	0x3c93a259	0.01802175
174	0xbc1a130a	-0.009403953
175	0xbc16b66a	-0.009198764
176	0xbb3b4bf2	-0.0028579202
177	0xbc9058f6	-0.017620545
178	0x3cb37c1a	0.021909762
179	0xbb18ff2c	-0.0023345454
180	0x3b2ce2ab	0.0026380222
181	0x3b620f4e	0.0034493986
182	0x3cc51b0d	0.02406075
183	0xbc971a09	-0.018445032
184	0x3bda9256	0.0066702766
185	0x3c84cdeb	0.01621147
186	0x3cb5b8a7	0.022182776
187	0xbc22a3bb	-0.009926732
188	0xbc95728f	-0.018243102
189	0xbc3926d0	-0.0113007575
190	0xbc67adee	-0.014140589
191	0xbca18dd7	-0.019720955
192	0xbc4bd200	-0.012440205
193	0xbcd3d36d	-0.025857652
194	0xbc84f0f6	-0.01622818
195	0x3c7c74ba	0.015408689
196	0xbcf3de9f	-0.02976924
197	0x3bb6a04b	0.0055733076
198	0x3c300e4b	0.010745595
199	0x3c72d8b6	0.014822176
200	0xbd003dda	-0.031308986
201	0x3c6fdb38	0.014639668
202	0x3c93b5cc	0.018031023
203	0xbd146153	-0.036225628
204	0x3c1679cf	0.009184315
205	0xbc479b42	-0.012183012
206	0xbc8f1eb5	-0.017470697
207	0x3cb1e42e	0.02171525
208	0xbb9d5121	-0.004800931
209	0x3bac9d43	0.0052677705
210	0xbb996a25	-0.004681843
211	0x3bd6bc77	0.0065532285
212	0x3b02e5b7	0.0019973346
213	0x3c1b0940	0.009462655
214	0x3bcc48ed	0.0062342794
215	0x3c3bd860	0.011465162
216	0x3c85c813	0.016330754
217	0x3c009b67	0.007849551
218	0xbc8fb0d2	-0.01754037
219	0xbca27efa	-0.019835938
220	0x3cc19ba7	0.023633791
221	0xbcc34783	-0.02383781
222	0xbcb772e7	-0.022393657
223	0x3cb383bb	0.0219134
224	0xbc223ada	-0.009901727
225	0x3cda9c2d	0.026685799
226	0x3bd8d489	0.006617133
227	0xbca6bee2	-0.020354692
228	0x3b8e4cb6	0.0043426408
229	0x3c63c0e4	0.013900969
230	0xb93b29bb	-0.00017849256
231	0x3cb1f091	0.021721156
232	0xbc11c730	-0.008897588
233	0xbc713876	-0.014722934
234	0xbb5b8577	-0.00334963
235	0x3c90e8f9	0.017689215
236	0xbcdad4eb	-0.026712855
237	0x3cc73dc6	0.024321448
238	0xbc1007d8	-0.008790933
239	0xba8bfd71	-0.001068039
240	0xbc6b7647	-0.014371461
241	0x3ccc3274	0.024926402
242	0x3c838744	0.01605571
243	0xbca45b4d	-0.020063067
244	0x3c6c6307	0.014427907
245	0xbc452005	-0.01203156
246	0xbd020a3f	-0.031748053
247	0xbbc3ed0b	-0.0059791855
248	0xbcb10234	-0.021607496
249	0xbc999fd2	-0.018752966
250	0x3c1bc4ca	0.009507367
251	0xbc05cf72	-0.008167135
252	0x3bdd8d28	0.006761212
253	0x3c888371	0.016664239
254	0x3c9bdb80	0.019025564
255	0x3bb56f5f	0.005536958

network_body._body_endoder.seq_layers.0.bias f4 [256]
0	0x3cb9c55f	0.022677122
1	0xbc775bda	-0.015097583
2	0x3cb59c05	0.022169122
3	0xbb1af479	-0.0023644252
4	0x3c21554a	0.009846995
5	0x3c80e629	0.015734749
6	0x3b1e5048	0.0024156738
7	0xbcaebace	-0.02132931
8	0x3c1f0220	0.0097050965
9	0x3cd13026	0.025535654
10	0x3c981e55	0.018569151
11	0x3ce65030	0.028114408
12	0x3c9ef919	0.019405888
13	0x3cc45e4c	0.023970746
14	0x3c883bb5	0.016630033
15	0xbcb5dd32	-0.0222002
16	0xbc3dab68	-0.011576511
17	0x3cca5ab2	0.02470145
18	0xbca23d8e	-0.019804742
19	0x3cc6dcd4	0.02427522
20	0xbc158851	-0.009126739
21	0x3c97f0bd	0.01854741
22	0x3bf5c90e	0.007500774
23	0x3cd059f5	0.02543352
24	0xbc8def68	-0.017326072
25	0x3ca56c28	0.020193174
26	0xbc65078a	-0.013978848
27	0x3cb6b874	0.022304751
28	0x3c89a66c	0.016802989
29	0x3c17a3d1	0.0092553655
30	0xbcbe35c5	-0.023218999
31	0x3cac3c78	0.021024927
32	0xbac98bdc	-0.0015376764
33	0xbc76d611	-0.015065686
34	0xbc957a42	-0.018246774
35	0xbbf23892	-0.0073919976
36	0x3c824976	0.01590417
37	0x3c9a7b61	0.01885766
38	0x3cf4765f	0.0298416
39	0x3ccb7fba	0.024841178
40	0xbc8001b3	-0.01562581
41	0xbcd55a82	-0.026044134
42	0x3c94c63a	0.018160928
43	0x3cc1479a	0.023593713
44	0x3cb2b2b4	0.021813728
45	0x3ccb2cc0	0.024801612
46	0x3bc770e4	0.0060864557
47	0x3cd9cb93	0.02658633
48	0x3cc5cd59	0.024145769
49	0x3bb7e3d9	0.0056118784
50	0x3c57e4ac	0.013177078
51	0x3ce11672	0.027476523
52	0xbcaaf7b3	-0.020870065
53	0x3c9b5596	0.018961709
54	0x3c641078	0.013919942
55	0xbc3c4557	-0.011491141
56	0x3c8c0ab8	0.017094955
57	0xbc615fe6	-0.013755774
58	0x3cba8d8a	0.02277257
59	0x3cd8f8e4	0.026485868
60	0xbc77c38d	-0.0151223065
61	0x3c43cc2c	0.011950534
62	0x3ca9c660	0.020724475
63	0x3c9bc881	0.019016506
64	0x3c9cf749	0.019160884
65	0x3cbd78ac	0.02312883
66	0x3ca24910	0.01981023
67	0x3cdb8072	0.026794646
68	0x3cc512c6	0.024056803
69	0xbcc89b85	-0.02448822
70	0x3ccbcf1f	0.024879036
71	0x3cb67ee6	0.022277307
72	0x3c8bfa87	0.017087234
73	0x3c0a9b35	0.008459856
74	0x3ce630be	0.028099414
75	0x3be2243f	0.0069012935
76	0x3cf8b71c	0.03036075
77	0x3c70eb91	0.014704601
78	0x3cb744a8	0.022371605
79	0x3cd52887	0.026020302
80	0x3c0ad957	0.008474669
81	0x3cd9c46e	0.026582923
82	0xbcc80f71	-0.024421426
83	0x3cbcff2a	0.02307089
84	0x3c6bb6b9	0.014386826
85	0x3cd6ee0b	0.026236555
86	0x3cdbc3d9	0.026826786
87	0x3ce51f72	0.027969096
88	0x3c962ba4	0.018331356
89	0xbad1bedf	-0.0016002319
90	0x3caf93de	0.021432813
91	0x3bfedc26	0.0077777086
92	0xbcc679de	-0.024228033
93	0xbca3dd08	-0.020002857
94	0xbc01e4e2	-0.007928105
95	0x3cd96363	0.02653665
96	0xbc2a10bc	-0.010379966
97	0xbb6b9f24	-0.003595301
98	0x3c8c316a	0.017113406
99	0x3ca90825	0.020633766
100	0x3cce2398	0.025163457
101	0x3b83d291	0.004022904
102	0x3cb15e5b	0.021651438
103	0x3bf7b0ce	0.0075589186
104	0x3cdc02b1	0.026856752
105	0xbcaa7cf4	-0.020811535
106	0x3cd92112	0.026505027
107	0xbc2c1af0	-0.010504469
108	0x3cb49d78	0.022047743
109	0x3b0569b8	0.0020357203
110	0x3c85e4a4	0.016344376
111	0x3c9e00a9	0.019287424
112	0x3ccb7896	0.024837773
113	0x3cd62181	0.026139023
114	0x3ce1f4bb	0.027582517
115	0x3ce40d62	0.027838413
116	0x3cccb57e	0.024988886
117	0x3cdbeb5b	0.026845625
118	0x3cbb87a4	0.022891827
119	0xbca3498d	-0.019932533
120	0x3c824453	0.01590172
121	0x3c7db90f	0.015486016
122	0xbcc3d643	-0.023905879
123	0xbc845bea	-0.01615711
124	0x3ccd69cc	0.025074862
125	0xbcca2491	-0.02467564
126	0x3cc891ae	0.024483528
127	0x3cac2c38	0.021017179
128	0x3cbcb6f2	0.023036454
129	0xbcae9984	-0.021313436
130	0x3cdee268	0.027207568
131	0x3c8a6007	0.016891493
132	0x3c458f38	0.012058072
133	0x3cbe8638	0.02325736
134	0x3c4505a2	0.012025269
135	0x3c374f12	0.011188285
136	0x3cb8cab2	0.02255759
137	0xbcd11181	-0.025521042
138	0x3cd9d4a0	0.026590645
139	0x3c54d075	0.012989153
140	0xbca30f6e	-0.019904818
141	0xbc8f1b67	-0.017469121
142	0x3c25fdd1	0.010131315
143	0xbccb2731	-0.024798961
144	0x3cd89356	0.026437443
145	0x3cd52a3a	0.026021112
146	0x3c5d58d1	0.013509945
147	0xbc5c038f	-0.013428583
148	0x3ccb8313	0.024842774
149	0x3c94a27f	0.01814389
150	0xbca7abcb	-0.02046766
151	0xbc59d52c	-0.013295453
152	0x3cd5ba38	0.026089773
153	0xbc9b7ca0	-0.018980324
154	0x3cc339e3	0.023831313
155	0x3cc65558	0.024210617
156	0x3cc43010	0.0239487
157	0x3cc5dd1a	0.024153281
158	0x3ca99e3c	0.020705335
159	0xbbf6172b	-0.007510086
160	0x3ce02a8b	0.027364036
161	0x3cf19922	0.029491965
162	0x3cd6b94f	0.026211409
163	0xbc8addb1	-0.016951414
164	0x3ce5a4f2	0.028032754
165	0xbc2511ac	-0.010075014
166	0xbc681890	-0.014166012
167	0xbc9472a7	-0.018121077
168	0x3ca3b701	0.019984724
169	0x3c6c50cd	0.014423561
170	0x3ce7b10c	0.028282665
171	0x3c1b8e2f	0.009494348
172	0xbc107d1a	-0.008818889
173	0x3ce37bf9	0.027769076
174	0x3b9923d1	0.004673459
175	0x3c9fdc67	0.019514276
176	0xbca0341d	-0.0195561
177	0x3cd855cf	0.026408104
178	0x3cf1af13	0.029502427
179	0x3c27a012	0.010231035
180	0x3c96e36c	0.01841899
181	0x3cd1f9b8	0.02563177
182	0xbcd1bead	-0.025603617
183	0xbab103de	-0.0013505181
184	0xbbb3ca3b	-0.0054867542
185	0x3cbf5ee8	0.023360685
186	0xbcc4cbd0	-0.024022967
187	0x3cc64286	0.024201643
188	0xbb5231f2	-0.0032073227
189	0x3c6970a3	0.014248046
190	0xbc992ddd	-0.018698627
191	0x3c2744c7	0.010209269
192	0x3cba280d	0.022724176
193	0xbc1ebbec	-0.009688359
194	0x3ce22250	0.027604252
195	0x3c93a160	0.018021286
196	0xbc3fcb6f	-0.011706217
197	0x3c07d7bf	0.008291184
198	0x3ce5fbba	0.028074134
199	0xbcd1e6f0	-0.025622815
200	0xbc5b13b0	-0.013371393
201	0xbcd031c6	-0.025414359
202	0x3ca32a04	0.019917496
203	0x3c9e6cb5	0.019338945
204	0x3ce4a56a	0.027910907
205	0x3cb574d5	0.022150436
206	0x3cda63ad	0.026658857
207	0x3ce70077	0.028198464
208	0x3cc545cf	0.024081139
209	0x3c8bdb5d	0.017072374
210	0x3ce43fd2	0.027862463
211	0xbc6b3119	-0.0143549675
212	0x3cd5ea62	0.026112739
213	0x3cd53d83	0.026030308
214	0x3ca48fe0	0.020088136
215	0xbc73c827	-0.014879263
216	0x3c1ca768	0.009561397
217	0x3c1711b7	0.009220532
218	0x3cb2b28b	0.021813652
219	0x3c723d36	0.014785102
220	0x3cc546d4	0.024081625
221	0x3cb65c5b	0.022260835
222	0xbc0d4907	-0.008623368
223	0xbca7f5f1	-0.020503016
224	0xbcbc3918	-0.022976443
225	0xbc6f6c6e	-0.014613254
226	0x3ce1caa8	0.027562454
227	0xbc3e8f52	-0.01163085
228	0x3ce760b2	0.02824435
229	0x3c567831	0.013090179
230	0x3c803ad8	0.015653059
231	0xbb8179eb	-0.0039513013
232	0x3a81bbc2	0.0009897875
233	0x3c9c5a16	0.019085925
234	0xbc8e9a3a	-0.017407525
235	0x3ce62cdc	0.028097562
236	0x3cc7432b	0.02432402
237	0xbcb19ac1	-0.021680238
238	0x3cb662eb	0.022263965
239	0x3cd786bc	0.026309364
240	0x3ceefee8	0.029174283
241	0xbc8fda8b	-0.017560264
242	0x3cab48a1	0.020908656
243	0x3cd21512	0.025644813
244	0x3b9a5086	0.004709306
245	0xbc96645b	-0.0183584
246	0x3cb49ca4	0.022047348
247	0xbc8ac1f6	-0.01693819
248	0x3c340351	0.010987119
249	0xbc7c940e	-0.015416158
250	0x3ca80464	0.020509906
251	0x3cc8594c	0.024456643
252	0xbcc2e603	-0.023791319
253	0x3caff651	0.021479758
254	0x3c824e7f	0.01590657
255	0xbcafd51b	-0.021463921

network_body._body_endoder.seq_layers.0.weight f4 [256, 6]
0	0x3dfb3e89	0.12267787
1	0xbf5944d2	-0.84870636
2	0xbf1e7e50	-0.6191149
3	0xbc3d2e87	-0.0115467375
4	0x3e87344c	0.26407087
5	0xbf391b06	-0.7230686
6	0xbdf48585	-0.11939529
7	0x3ebb9860	0.3663969
8	0xbc2f1ffe	-0.01068878
9	0x3f34fd02	0.7069856
10	0xbeae461c	-0.34037864
11	0x3f0816f6	0.53160036
12	0x3e7753f3	0.24153118
13	0x3d03cef8	0.032179803
14	0xbc5a403b	-0.013320978
15	0xbe92d9a0	-0.2868166
16	0xbe1327be	-0.14370629
17	0xbf11396a	-0.5672823
18	0x3d2129ee	0.039346628
19	0xbc5bf488	-0.013425
20	0xbe00d590	-0.12581468
21	0x3d880bef	0.06642901
22	0xbec5e7db	-0.38653454
23	0x3eb6979b	0.3566254
24	0xbd8cd4b1	-0.06876505
25	0x3e52b5bc	0.20577139
26	0xbeddcefc	-0.4332198
27	0x3fae439b	1.3614382
28	0xbf1e829c	-0.61918044
29	0xbf6755c4	-0.9036524
30	0xbce4c0f6	-0.027924042
31	0xbebfa27f	-0.37428662
32	0x3df24dd7	0.11831253
33	0x3ed59ba9	0.41720322
34	0x3f81920f	1.0122699
35	0x3d8ee010	0.0697633
36	0xbecf91b6	-0.40540856
37	0xbe4a01a4	-0.19727188
38	0x3bed1e96	0.007236312
39	0x3cf45331	0.029824825
40	0x3e6b2c74	0.22966176
41	0xbeb995b8	-0.3624704
42	0x3b348ed2	0.0027550948
43	0x3f1c4e10	0.61056614
44	0x3def5b93	0.11687388
45	0xbe25e5b7	-0.1620091
46	0x3d747a79	0.05968711
47	0x3f0d003c	0.5507848
48	0x3d421c5b	0.047390323
49	0xbbeb8593	-0.007187554
50	0xbe3dad99	-0.18523254
51	0x3e08d6c8	0.13363183
52	0x3d235c4c	0.039882943
53	0xbe2e302e	-0.17010567
54	0xbe1b91ae	-0.15192291
55	0xbe2c7e2e	-0.16845009
56	0x3eca3d08	0.39499688
57	0xbd5eb789	-0.05437425
58	0xbefa2dda	-0.48863107
59	0xbe956d6c	-0.29185045
60	0xbf06755f	-0.52522844
61	0x3f118139	0.56837803
62	0x3ed7928f	0.42104003
63	0xbe2e7850	-0.17038083
64	0x3f2db903	0.6786043
65	0x3ea21b01	0.31661227
66	0x3d833228	0.06406051
67	0xbeb37bf5	-0.3505551
68	0xbf5bed8a	-0.8590933
69	0x3e8683f2	0.2627254
70	0xbdc8374e	-0.097761735
71	0x3dd840c9	0.10559232
72	0x3e3d5ddd	0.18492837
73	0x3e9d6fc0	0.3074932
74	0x3e62d256	0.2215055
75	0xbef6e668	-0.4822266
76	0xbdf3b47a	-0.118996575
77	0xbf7a5678	-0.9778819
78	0xbe23a55b	-0.15981047
79	0xbd70f131	-0.058823768
80	0xbf5bf411	-0.8591929
81	0x3d737f5e	0.05944764
82	0x3e2c716d	0.16840144
83	0xbeec4d0f	-0.4615254
84	0x3edcd6a1	0.431325
85	0x3f08f30b	0.53495854
86	0x3e93b1e1	0.28846648
87	0xbe2040eb	-0.15649764
88	0xbea8023d	-0.32814208
89	0xbe4434bf	-0.19160746
90	0x3e536728	0.2064482
91	0x3ee06ca3	0.43832883
92	0xbc54802d	-0.012970013
93	0x3f29da85	0.6634906
94	0x3f057486	0.52130926
95	0xbe9577f8	-0.2919309
96	0xbbaf99e9	-0.0053589237
97	0x3f5ab948	0.85438967
98	0xbd71287b	-0.058876496
99	0xbe732e69	-0.23748173
100	0x3f579d3e	0.8422431
101	0x3e3330b9	0.17499055
102	0x3f07e790	0.5308771
103	0xbec1e512	-0.3787008
104	0x3e34079f	0.17581032
105	0x3f038f5d	0.5139063
106	0x3af40537	0.0018617277
107	0x3e9152da	0.28383523
108	0x3e61813c	0.22021955
109	0xbe135905	-0.14389427
110	0x3e669fc4	0.22521883
111	0x3f30ab4e	0.6901139
112	0xbead2cb2	-0.33823162
113	0x3f313190	0.6921625
114	0xbd5b84d2	-0.053593464
115	0xbef20961	-0.4727278
116	0xbf0f276c	-0.5591953
117	0x3df4b08f	0.119477384
118	0xbdfeabc5	-0.12435106
119	0xbe342931	-0.17593838
120	0xbe47b91c	-0.19504207
121	0x3edccaf6	0.43123597
122	0x3ed5950d	0.4171528
123	0x3f228c62	0.6349546
124	0xbe2cc8ac	-0.16873425
125	0xbd496130	-0.04916495
126	0xbe75602f	-0.23962472
127	0xbeeaf0e2	-0.45886904
128	0xbe9e40ea	-0.309089
129	0x3e8e3701	0.2777634
130	0xbf10af62	-0.5651761
131	0xbb1c3602	-0.0023835902
132	0xbe1209d6	-0.14261565
133	0x3e9db79a	0.3080414
134	0x3e127017	0.14300571
135	0x3ebf9f2b	0.37426123
136	0xbed38905	-0.41315475
137	0xbf019c4e	-0.5062913
138	0xbe38098e	-0.17972395
139	0xbe8d1c5b	-0.27560696
140	0xbd9fd126	-0.07803564
141	0x3f40a1bf	0.75246805
142	0x3df0b146	0.11752562
143	0x3d5ceb23	0.05393518
144	0xbea4bb12	-0.32173973
145	0x3dbcb8d5	0.092149414
146	0xbecb5ef0	-0.3972087
147	0x3dce4a14	0.10072723
148	0x3eb22714	0.3479544
149	0xbe8c8bd6	-0.27450436
150	0x3ee4d926	0.4469692
151	0x3e4fa118	0.20276296
152	0x3d383608	0.044973403
153	0x3f59a965	0.850241
154	0x3bfab415	0.007650862
155	0xbdb1ab28	-0.086752236
156	0xbf14b6c7	-0.58091396
157	0x3ecf1d7b	0.4045218
158	0xbd081548	-0.03322342
159	0x3e3c7a4a	0.18406025
160	0xbea5b72b	-0.3236631
161	0x3e737f4c	0.23779029
162	0x3ec63516	0.38712376
163	0xbe5042dd	-0.20338006
164	0xbed8887e	-0.42291635
165	0xbf206e24	-0.6266806
166	0xbd30a0a0	-0.043121934
167	0x3e6c697a	0.23087111
168	0xbea96c1e	-0.330903
169	0x3f1bae3c	0.60812736
170	0x3f097b95	0.53704196
171	0x3eb3d93c	0.35126674
172	0xbdab3220	-0.0835917
173	0x3f317821	0.6932393
174	0x3eab2c7c	0.33432376
175	0x3e205ef3	0.1566122
176	0x3f3f6060	0.7475643
177	0x3e0b3dde	0.13597819
178	0x3e08904c	0.13336295
179	0xbd3a447c	-0.045475468
180	0x3e311387	0.17292605
181	0x3db2c58e	0.08729087
182	0x3ed8787c	0.42279422
183	0x3e88f569	0.26749733
184	0xbd6ebfd9	-0.05828843
185	0x3dc56293	0.09637942
186	0x3f8cccd7	1.1000012
187	0x3e4ec9ed	0.20194216
188	0xbe255963	-0.1614738
189	0xbe98e78e	-0.29864162
190	0x3eaf012e	0.34180588
191	0xbe95b077	-0.29236194
192	0xbdd92b80	-0.10604
193	0xbe1ea953	-0.1549428
194	0xbf0b19cd	-0.54336244
195	0xbf0b76ba	-0.5447804
196	0x3e11bceb	0.14232223
197	0x3e9a6f50	0.3016305
198	0xbea98c32	-0.33114773
199	0x3d0b06c1	0.033941988
200	0xbed979f9	-0.4247587
201	0xbf258927	-0.646624
202	0x3d0eacba	0.034832694
203	0x3b8b3097	0.0042477357
204	0x3e43891e	0.19095275
205	0x3ea2397f	0.3168449
206	0xbf51f38b	-0.8201224
207	0x3f24a538	0.64314604
208	0xbd7e6c31	-0.062114898
209	0xbdcfc931	-0.10145796
210	0x3e055ef6	0.13024506
211	0x3f1858a7	0.5951027
212	0xbeef4dac	-0.46738946
213	0x3e99f343	0.30068406
214	0x3dbb5e1e	0.09148811
215	0x3eb8fce7	0.3613045
216	0xbf256a2e	-0.6461514
217	0x3d8963d6	0.06708495
218	0x3f2af1d9	0.6677528
219	0x3c4890fb	0.012241597
220	0x3ec13e81	0.37743
221	0xbeacbbd8	-0.33737063
222	0x3f03aa21	0.5143147
223	0x3d238f8d	0.039931823
224	0x3ec3367a	0.381275
225	0x3f10a2e9	0.5649858
226	0xbe1a3fa2	-0.15063336
227	0x3ca6d797	0.020366473
228	0xbe71b16f	-0.23602842
229	0xbf70d706	-0.940781
230	0x3e1f414b	0.15552251
231	0x3f2cde9d	0.6752718
232	0xbecdcc00	-0.40194702
233	0x3eb8b7bf	0.36077687
234	0x3e453a5e	0.19260547
235	0xbec09826	-0.3761608
236	0x3e28fb3b	0.16502087
237	0xbe8b8eb4	-0.2725731
238	0xbede18b2	-0.43378216
239	0xbe76c39b	-0.24098055
240	0xbd3e7ecb	-0.046507638
241	0x3d6faf16	0.058516584
242	0xbe3e5a03	-0.18589024
243	0xbf70d5a5	-0.94075996
244	0x3e8ef7c4	0.27923405
245	0x3dff796d	0.12474332
246	0xbe9caccd	-0.30600587
247	0x3e99738e	0.29970974
248	0xbc94b7d6	-0.018154066
249	0x3c9beea9	0.0190347
250	0xbd98082e	-0.07423435
251	0x3e3cc01e	0.18432662
252	0xbf24aa93	-0.64322776
253	0x3e5d6ca8	0.2162348
254	0xbeb8974a	-0.36052924
255	0xbe80e719	-0.25176314

network_body._body_endoder.seq_layers.2.bias f4 [256]
0	0xbc8fd521	-0.017557682
1	0x3cc80949	0.02441849
2	0x3cd86b3f	0.026418326
3	0xbc02ae36	-0.007976105
4	0x3cc554a7	0.024088217
5	0xbbcaf758	-0.0061940365
6	0xbcc1eb49	-0.023671763
7	0x3c97b6f3	0.018519854
8	0x3cbd9b68	0.023145393
9	0x3cb368ee	0.02190062
10	0xbc5886d9	-0.013215744
11	0xbcc173c4	-0.023614772
12	0x3c7ae739	0.015313917
13	0x3a93460b	0.0011236084
14	0xbba0c332	-0.0049060816
15	0xbccbce9e	-0.024878796
16	0x3c662fdc	0.0140494965
17	0xbcc8332a	-0.02443846
18	0x3cd26672	0.025683615
19	0xbc88028f	-0.016602783
20	0xbcb66375	-0.022264222
21	0xbc881acc	-0.01661434
22	0x3cabc269	0.020966725
23	0x3c8d322d	0.01723584
24	0x3b86a298	0.004108738
25	0x3cd5752f	0.026056854
26	0xbb91ffdb	-0.004455549
27	0xbc13d06d	-0.009021861
28	0x3c10a115	0.008827467
29	0xbc8f2bfe	-0.017477032
30	0xbc324f2a	-0.010883132
31	0xbccf01da	-0.025269438
32	0x3c989994	0.01862792
33	0x3c9ccb0a	0.019139785
34	0x3ca6cd89	0.020361679
35	0xbb74c144	-0.003734664
36	0x3cc77331	0.02434692
37	0x3cc57384	0.024102934
38	0x3c6bfa9c	0.014403012
39	0xbb930869	-0.0044870866
40	0x3caf0a90	0.021367341
41	0xbcc30357	-0.023805303
42	0x3c4dcf1c	0.012561586
43	0x3c50829c	0.012726452
44	0x3caddb4d	0.021222735
45	0x3c87ec6a	0.016592223
46	0xbc2fb5b4	-0.010724474
47	0x3c608f10	0.013705984
48	0x3ca1e541	0.019762637
49	0xbcc82334	-0.024430849
50	0x3cd7b720	0.026332438
51	0xbcabbff7	-0.02096556
52	0x3cc34940	0.02383864
53	0x3c793e02	0.015212538
54	0x3cb55cc4	0.02213896
55	0x3c9d33e1	0.019189777
56	0x3ccfcf10	0.02536729
57	0xbaa18672	-0.0012323393
58	0xbb64cf5c	-0.0034913635
59	0x3cd1ec50	0.025625378
60	0x3caae700	0.020862103
61	0xbcbb082f	-0.02283105
62	0x3cb0251a	0.021502066
63	0xbcd5304f	-0.026024012
64	0x3cb793bd	0.022409314
65	0xbc8bffd4	-0.017089762
66	0xbce6b549	-0.028162615
67	0xbcdbde64	-0.026839443
68	0xbcceff01	-0.02526808
69	0x3cdbe6a5	0.026843378
70	0xbca34473	-0.0199301
71	0x3ca877c3	0.02056492
72	0xbc8dd657	-0.01731412
73	0x3c6db694	0.014508862
74	0x3c2c28d2	0.010507779
75	0x3ccba973	0.024861073
76	0x3ccadc98	0.02476339
77	0xbc6220f8	-0.013801806
78	0x3c7b357b	0.015332575
79	0xbca89b17	-0.020581765
80	0xbc862d39	-0.016378986
81	0xbcb7389d	-0.022365863
82	0xbc648e99	-0.013950014
83	0x3ca9d40a	0.02073099
84	0xbca95818	-0.02067189
85	0x3cc41216	0.023934405
86	0xbcc0d75d	-0.023540193
87	0xbcaaabfe	-0.020833965
88	0xbcace901	-0.021107199
89	0x3cb718e6	0.02235074
90	0x3cbecbaf	0.023290483
91	0xbc881e94	-0.016616143
92	0x3c4384d4	0.011933524
93	0x3cbbfa77	0.02294658
94	0x3c9be906	0.019032013
95	0xbca69f6d	-0.020339692
96	0xbc410c77	-0.011782757
97	0x3cd4fc63	0.025999254
98	0xbcdcf346	-0.02697147
99	0xbc8fad7a	-0.017538775
100	0xbc248c62	-0.0100432355
101	0x3ccb20e8	0.024795964
102	0x3cbedb3a	0.023297895
103	0x3c9a0252	0.018799935
104	0x3c6f1c65	0.014594172
105	0x3b6c090d	0.0036016137
106	0xbc62d2bd	-0.013844189
107	0x3cadae64	0.02120132
108	0x3c31cd40	0.010852158
109	0x3cbb4bf8	0.022863373
110	0xbc4e6068	-0.012596227
111	0x3cc6d9b0	0.024273723
112	0xbcbf09c8	-0.023320094
113	0xbb801d9c	-0.0039097797
114	0x3cbb93f0	0.02289769
115	0xbb795dae	-0.0038050222
116	0x3be82f4e	0.0070857173
117	0x3cbbcd4f	0.022925047
118	0xbc5abe99	-0.013351106
119	0xbccba684	-0.024859674
120	0x3c8b14bc	0.01697766
121	0x3cc81bf5	0.024427393
122	0xbac89b25	-0.0015305026
123	0xbbc65cf4	-0.0060535613
124	0x3c8cd15f	0.01718968
125	0xbca64829	-0.02029808
126	0xbc818dea	-0.01581474
127	0xbcdbaaa8	-0.026814774
128	0xbcc39926	-0.023876738
129	0x3c7f0105	0.015564208
130	0x3cd84e8d	0.026404643
131	0xbcd56140	-0.026047349
132	0x3c50b74c	0.012739014
133	0xbcd38766	-0.025821399
134	0xbcdec573	-0.02719376
135	0x3c6b12c1	0.014347733
136	0x3cd55ea9	0.026046114
137	0x3cac7cd7	0.021055622
138	0x3c401b55	0.011725266
139	0x3cb607e9	0.022220569
140	0xbcad0607	-0.021121038
141	0x3c37efc8	0.011226602
142	0xbcaa21fb	-0.020768156
143	0x3cb38141	0.021912219
144	0x3cc546d1	0.02408162
145	0x3be59c22	0.007007138
146	0x3ca2e027	0.019882275
147	0xbb619f0c	-0.0034427075
148	0x3cb73d21	0.022368016
149	0x3c9dc79d	0.019260222
150	0xbc85e09c	-0.016342454
151	0x3c4d5687	0.012532837
152	0x3bc97de0	0.0061490387
153	0x3c8e0803	0.017337805
154	0x3c860f36	0.016364675
155	0xbcccb2b0	-0.024987549
156	0xbcadb13e	-0.02120268
157	0x3ca14fbe	0.019691344
158	0x3a3003c7	0.000671443
159	0xbcce85b7	-0.025210245
160	0x3bbd956b	0.0057856343
161	0xbc67e820	-0.014154464
162	0x3ca38b3a	0.01996385
163	0x3ccfc64e	0.025363114
164	0x3cce4f08	0.02518417
165	0xbc152a8e	-0.009104384
166	0x3cb2014c	0.021729134
167	0xbcaa8f28	-0.020820215
168	0xbcc44458	-0.02395837
169	0xbcbfd092	-0.023414884
170	0x3c608456	0.013703426
171	0x3cad5e81	0.021163227
172	0x3cb6032a	0.022218306
173	0x3cbb888b	0.022892257
174	0xbc8e14a3	-0.017343825
175	0xbc4e61d8	-0.01259657
176	0xbcbc1ddb	-0.022963455
177	0x3cb53520	0.022120059
178	0xbc46e78a	-0.012140164
179	0x3c94ce8e	0.0181649
180	0xbc96f7fb	-0.018428793
181	0xbc5e99c5	-0.013586466
182	0xbca8b4f4	-0.020594098
183	0xbccbe15d	-0.024887735
184	0x3c9fbf96	0.019500535
185	0x3ca2675d	0.019824678
186	0x3c697b71	0.014250622
187	0x3c887dc9	0.016661542
188	0xbc24e3af	-0.01006405
189	0x3cd0693b	0.025440803
190	0x3cbe56d3	0.02323476
191	0x3cd6ebf8	0.026235566
192	0x3cd69953	0.026196158
193	0x3c60b871	0.013715849
194	0xb9c7f315	-0.00038137348
195	0xbcb3d819	-0.02195363
196	0x3ca32da8	0.019919232
197	0x3c8947d3	0.016757881
198	0xbccf762a	-0.0253249
199	0xbcab937e	-0.020944353
200	0x3c7d0d28	0.015445031
201	0x3ccf2319	0.02528529
202	0x3c050292	0.008118289
203	0xbc57a302	-0.013161423
204	0xbc87edd3	-0.016592896
205	0x3c42f0ee	0.011898262
206	0xbc21cd5a	-0.00987562
207	0x3bdb4284	0.006691279
208	0x3be82844	0.007084878
209	0xbcc72600	-0.024310112
210	0xbcb3dff2	-0.021957371
211	0xbc40d8b3	-0.011770415
212	0xbc824e09	-0.01590635
213	0x3cba882b	0.022770008
214	0xbc7aa0d1	-0.015297131
215	0xbca5c2f7	-0.020234568
216	0xbc08bbe2	-0.008345576
217	0x3ca3c96a	0.019993503
218	0x3ccb1e52	0.024794731
219	0xbcc0fa73	-0.023556923
220	0xbc5a3776	-0.013318887
221	0x3cbfcddc	0.023413591
222	0x3ace396c	0.0015733666
223	0x3c99cc6b	0.018774232
224	0x3c5b397b	0.013380404
225	0x3c828ac9	0.015935319
226	0x3ca8c5bd	0.020602101
227	0xbc8524a1	-0.016252818
228	0x3cc0b531	0.023523899
229	0x3c9e14fd	0.019297117
230	0xbcafd955	-0.021465937
231	0x3c9dd845	0.019268164
232	0xba5d0e30	-0.0008432595
233	0x3cc5d9a8	0.024151638
234	0x3ca6f653	0.020381128
235	0x3b76f0ef	0.0037680229
236	0x3cca2ce2	0.024679605
237	0x3cd58f8a	0.026069421
238	0x3b1ce194	0.0023938166
239	0x3cc67755	0.024226824
240	0x3c6e192c	0.014532369
241	0xbc3ad71c	-0.011403825
242	0xbc4292d9	-0.0118758315
243	0x3a9aa15b	0.0011797355
244	0xba6d43a4	-0.0009050912
245	0xbcc59ed2	-0.024123583
246	0x3c9d70e9	0.019218879
247	0x3be7a962	0.0070697526
248	0x3c4e1629	0.012578526
249	0x3c94001d	0.01806646
250	0x3ca5dd56	0.020247143
251	0x3ce432d8	0.027856275
252	0xbcd84dcf	-0.02640429
253	0x39bb7eb3	0.00035761818
254	0xbc849b61	-0.016187372
255	0x3cd4d0bb	0.025978437

network_body._body_endoder.seq_layers.2.weight f4 [256, 256]
0	0x3d1e8854	0.03870423
1	0xbd44b4c4	-0.048023954
2	0xbde833c6	-0.11338
3	0x3ce48025	0.027893135
4	0xbc7244db	-0.014786924
5	0xbdc0380a	-0.093856886
6	0x3cae6ba8	0.021291569
7	0xbdbb487f	-0.09144687
8	0xbd5f6ac8	-0.054545194
9	0x3c828005	0.015930185
10	0x3d1d3e01	0.03838921
11	0x3caf5c47	0.021406306
12	0xbd30fa77	-0.043207612
13	0xbaf9e51e	-0.0019065475
14	0xbd98191d	-0.07426665
15	0xbc4609c3	-0.012087288
16	0xbcd17c81	-0.025572063
17	0xbd007933	-0.031365585
18	0xbcf3dc89	-0.029768245
19	0x39c62d21	0.00037799127
20	0xbc4f04e5	-0.012635444
21	0x3d877d39	0.06615681
22	0xbd17d4bd	-0.037068117
23	0xbd9fa605	-0.077953376
24	0x3e33f01e	0.17572066
25	0xbc97cb06	-0.018529426
26	0xbdefb19c	-0.11703798
27	0x3d0cd039	0.034378264
28	0xbd3e86cb	-0.046515267
29	0xbc7e8f6f	-0.015537127
30	0xbdc9c224	-0.098514825
31	0x3d09a914	0.03360851
32	0xbc5a3b65	-0.013319825
33	0x3d454d7f	0.04816961
34	0x3d3f2186	0.04666283
35	0x3d83f59a	0.06443329
36	0x3d891352	0.06693138
37	0xbe1a93e7	-0.15095483
38	0x3dc39987	0.095507674
39	0xbd7eb48a	-0.062183894
40	0xbdb0083e	-0.08595322
41	0x3c78a604	0.0151763
42	0x3c6cdb01	0.0144565115
43	0xbdb4f1de	-0.08835195
44	0xbd7e9bd7	-0.06216034
45	0x3aae7cda	0.0013312355
46	0xbd68e3fa	-0.05685804
47	0xbd691529	-0.056904946
48	0x3acefe1f	0.0015792287
49	0x3ce8422b	0.028351864
50	0x3cf2ac9b	0.02962332
51	0xbd5dfd9b	-0.054196935
52	0xbc3ce4ea	-0.011529187
53	0xbdcdf4a8	-0.1005643
54	0xbd05e194	-0.03268583
55	0x39327673	0.00017019529
56	0xbde97ebf	-0.11401128
57	0x3e087e87	0.13329516
58	0xbdea4803	-0.114395164
59	0xbd4e400a	-0.05035404
60	0xbc46c55c	-0.012132015
61	0xbcc268d7	-0.023731632
62	0xbdc51e67	-0.096249394
63	0xbaf27086	-0.0018496669
64	0xbce6075f	-0.028079687
65	0xbd1ec2b0	-0.038759887
66	0x3c8d2f28	0.0172344
67	0x3df3e649	0.11909158
68	0xbd532ded	-0.05155747
69	0xbc89e821	-0.01683432
70	0x3cf797a4	0.030223675
71	0xbc316e0c	-0.01082946
72	0x3ca6ba42	0.020352487
73	0x3e22b8bf	0.15890788
74	0x3d5fe85d	0.05466496
75	0xbd0ddebf	-0.034636255
76	0x3cd57d8b	0.02606084
77	0x3d76f297	0.060289945
78	0xbcdbdfa6	-0.026840042
79	0x3d4bab46	0.049723886
80	0x3c712f1e	0.014720706
81	0xbdb2cbe1	-0.08730293
82	0x3d3db617	0.046316233
83	0x3cf4b146	0.029869687
84	0xbc85b826	-0.01632316
85	0xbc2d4162	-0.0105746705
86	0x3c9e946d	0.019357884
87	0x3c82cee6	0.015967797
88	0xbd9b83a7	-0.0759347
89	0x3a764137	0.0009393873
90	0xbd758096	-0.059937082
91	0xbce1ab43	-0.027547484
92	0x3d5668dd	0.0523461
93	0xbde30378	-0.11084646
94	0x3d88b379	0.06674857
95	0x3d0d371a	0.034476377
96	0xbd513340	-0.051074266
97	0x3c7780e7	0.015106416
98	0x3d08e1e9	0.03341857
99	0x3d0ba3b9	0.034091685
100	0x3e470f41	0.19439413
101	0x3da997af	0.082808845
102	0x3d94f138	0.07272571
103	0x3cd6d19b	0.026222995
104	0xbdc17b16	-0.09447305
105	0xbe101224	-0.1406942
106	0xbd5c6afe	-0.053812973
107	0xbb419642	-0.0029539024
108	0xbd198c38	-0.03748724
109	0x3d981c14	0.074272305
110	0xbdf2539d	-0.11832354
111	0x3d787ba5	0.06066479
112	0xbd4d5214	-0.050127104
113	0xbc849a99	-0.016187
114	0xbd6da46f	-0.058018144
115	0xbe247f79	-0.16064252
116	0x3c6c351a	0.014416957
117	0x3dc210bf	0.0947585
118	0xbd986ad3	-0.0744225
119	0x3dd828a6	0.10554628
120	0xbc4dfb71	-0.012572155
121	0xbdc4627a	-0.095890954
122	0xbd54f6dc	-0.051993236
123	0xbd989bdc	-0.07451603
124	0x3c40fed2	0.011779504
125	0xbd8814a8	-0.06644565
126	0x3d1330ee	0.035935335
127	0x3e17f5b0	0.14839816
128	0xbd828471	-0.063729174
129	0xbc77436c	-0.015091758
130	0xbdafabe0	-0.085777044
131	0x3ce5d69b	0.028056433
132	0xbd641cf8	-0.05569169
133	0x3c98f2d8	0.018670484
134	0x3dcd6c87	0.100304656
135	0xbc1940ca	-0.009353826
136	0x3c613fb7	0.013748101
137	0xbd801146	-0.06253295
138	0xbd9aca5f	-0.075581305
139	0xbb492e8a	-0.0030697905
140	0xbc44e060	-0.012016386
141	0x3d75d6c2	0.060019262
142	0x3bf45b0a	0.0074571418
143	0x3cf74a36	0.030186754
144	0x3caf2f7f	0.021384953
145	0xbcf495a9	-0.02985652
146	0xbc862d3c	-0.016378991
147	0x3d81ee5d	0.06344292
148	0x3ca81d52	0.020521794
149	0xbd178d65	-0.03700008
150	0xbc9ad75c	-0.01890152
151	0xbd435072	-0.04768414
152	0xbdf6db69	-0.12053568
153	0xbd804dab	-0.06264814
154	0x3d04c7cb	0.0324171
155	0xbd3f62ff	-0.04672527
156	0xbdc29138	-0.095003545
157	0x3c48499e	0.012224583
158	0xbdc6ce88	-0.097073615
159	0xbe01bc1e	-0.12669417
160	0x3d883bdc	0.06652042
161	0xbd3f18fb	-0.046654683
162	0xbc351787	-0.011052973
163	0x3d9ba740	0.0760026
164	0x3c8e4d55	0.01737086
165	0xbc1077e1	-0.008817644
166	0x3c3ce848	0.01152999
167	0xbd29ae70	-0.041426122
168	0xbdd9a325	-0.106268205
169	0xbd9c7bb7	-0.07640784
170	0xbd2aaac3	-0.041666757
171	0x3c0f011f	0.008728295
172	0x3d11bcd1	0.03558046
173	0x3d4c5b66	0.04989185
174	0xbe046cd2	-0.12932137
175	0x3cd9a3f8	0.026567444
176	0x3d179662	0.03700865
177	0xbb26ec8f	-0.002547059
178	0xbd9f5a18	-0.07780856
179	0xbd9d7806	-0.07688908
180	0x3d5023c9	0.050815377
181	0xbc9eb6e1	-0.019374313
182	0x3c0ccc10	0.008593574
183	0xbc0fd546	-0.008778876
184	0xbe0e780d	-0.13912983
185	0x3c3a0c5c	0.011355486
186	0x3c9fa0c5	0.01948584
187	0xbbfb811d	-0.0076753036
188	0xbdd079a2	-0.101794496
189	0xbd0abb33	-0.033869933
190	0xbd71174a	-0.0588601
191	0xbdbe3ecb	-0.092893206
192	0x3ccfe470	0.025377482
193	0xbab890b5	-0.0014081212
194	0xbdafeb98	-0.08589858
195	0x3e0255d6	0.12728056
196	0xbc81e001	-0.015853884
197	0x3ddfd44f	0.109291665
198	0x3d13c362	0.036075003
199	0xbcfe3770	-0.031032294
200	0x3b59aeec	0.0033215834
201	0x3d5f86dc	0.05457197
202	0xbd496237	-0.04916593
203	0xbc9da835	-0.019245246
204	0xbdc0aace	-0.094075784
205	0x3d7d50c7	0.061844613
206	0x3cde9a58	0.027173206
207	0x3d2fb9be	0.042901747
208	0xbd6c26f9	-0.057654355
209	0x3d092395	0.0334812
210	0xbdc30bd0	-0.095237374
211	0x3d3d5ed6	0.04623302
212	0xbdae9918	-0.08525294
213	0xbdd225f1	-0.10261143
214	0xbcac6ae9	-0.021047072
215	0xbd1fda25	-0.0390264
216	0xbd6783d6	-0.056522213
217	0xbbd4ead1	-0.006497719
218	0xbd00c52d	-0.03143804
219	0x3d975f28	0.073911965
220	0x3e076943	0.13223748
221	0x3d85c3f8	0.06531519
222	0xbbaa5170	-0.0051976964
223	0xbe4e8133	-0.20166473
224	0x3d401240	0.046892405
225	0x3c65be6e	0.014022453
226	0xbd5ef705	-0.054434795
227	0x3d933c4f	0.07189237
228	0x3d1ac129	0.037781868
229	0x3c9205d4	0.017825045
230	0xbdc3ef87	-0.095671706
231	0xbdce4306	-0.100713775
232	0xbc4ee8dd	-0.012628761
233	0xbd9fd939	-0.07805104
234	0xbc95cb92	-0.018285546
235	0xbd8fb3b6	-0.07016699
236	0x3d0dc4f9	0.034611676
237	0x3d331fd2	0.043731518
238	0x3d6540d3	0.055970024
239	0x3d8770d9	0.06613321
240	0x3d51768e	0.051138453
241	0x3daa85cd	0.08326302
242	0x3d85d175	0.065340914
243	0xbdd039ce	-0.10167275
244	0x3d0b393d	0.033990134
245	0xbcd115a3	-0.025523013
246	0x3a8caf7c	0.0010733451
247	0x3c9e7f5b	0.019347837
248	0x3dcb9d18	0.09942073
249	0x3b5b4214	0.0033456134
250	0x3d2e7146	0.042588495
251	0xbe10faa5	-0.14158113
252	0x3ab16584	0.0013534282
253	0xbcbd2142	-0.023087148
254	0x3d9c3072	0.07626428
255	0x3e1d28cf	0.15347598

network_body._body_endoder.seq_layers.4.bias f4 [256]
0	0xbc8bd570	-0.017069548
1	0xbc733efd	-0.014846561
2	0x3caceed7	0.021109981
3	0xbc0485a5	-0.008088504
4	0xbc965639	-0.018351661
5	0x3cb78624	0.02240283
6	0xb9589e6f	-0.00020658386
7	0xbaaba285	-0.0013094699
8	0xbc31615e	-0.010826437
9	0xbca8519c	-0.020546727
10	0xbbaa1f51	-0.0051917215
11	0xbc7de677	-0.015496842
12	0x3cb1fa31	0.021725746
13	0x3c3bb86a	0.011457542
14	0xbc8162f2	-0.015794251
15	0xbc5be644	-0.013421599
16	0x3c561855	0.013067325
17	0xbc8f10b8	-0.017464027
18	0x3ca6d96f	0.020367352
19	0x3c9c9c77	0.019117577
20	0x3c943c4e	0.018095162
21	0x3c846855	0.01616303
22	0x3b9a401c	0.0047073495
23	0x3cb0656e	0.02153274
24	0x3c978f4d	0.018500948
25	0x3c9c0358	0.019044563
26	0x3c4e815b	0.012604083
27	0x3ca08281	0.01959348
28	0x3b49fb9b	0.0030820135
29	0xbc978424	-0.018495627
30	0xbcb171d6	-0.021660727
31	0xb9de5e4e	-0.00042413402
32	0x3ca75bd1	0.020429524
33	0x3cb17d12	0.021666083
34	0xbb98bbe6	-0.004661071
35	0xbad4c16c	-0.0016231961
36	0xbac9fb5f	-0.0015409997
37	0x3bc11cce	0.0058933264
38	0xbcbaeea0	-0.022818863
39	0xbc811c43	-0.015760547
40	0x3cc984b7	0.024599416
41	0x3c6525f5	0.0139861
42	0x3cbc1fdc	0.02296441
43	0xbc735269	-0.014851191
44	0x3bbddb4c	0.0057939645
45	0xbbcec367	-0.006309915
46	0x3c7ce3f5	0.015435209
47	0xbc9e578a	-0.019328851
48	0x3c78d4aa	0.015187422
49	0xbca2b854	-0.019863285
50	0xbc82b2db	-0.015954426
51	0xbc0e168d	-0.008672369
52	0xbcb22126	-0.021744322
53	0x3c6911d7	0.014225445
54	0x3bc94ea6	0.006143409
55	0x3cc29d4d	0.023756647
56	0xbc91a2d4	-0.017777838
57	0x3cbb4e95	0.02286462
58	0x3c1ecaa9	0.009691873
59	0x3cac4e38	0.021033391
60	0x3c9322c0	0.017960906
61	0x3cb19c83	0.021681076
62	0x3cb0db0f	0.02158883
63	0x3c8c6e70	0.017142504
64	0x3ca3b9bb	0.019986024
65	0x3bb655d8	0.0055644326
66	0xbb092b6f	-0.002093043
67	0xbcafb50e	-0.021448638
68	0xbca9f529	-0.020746784
69	0x3c5fa593	0.013650316
70	0xbc6929fe	-0.014231203
71	0x3c575fd0	0.013145402
72	0xbb50d25c	-0.0031863665
73	0xbc8351d6	-0.016030233
74	0x3cc4cadd	0.024022514
75	0x3c86f3fd	0.016473765
76	0xbc6676c2	-0.0140664
77	0xbc6d9332	-0.014500426
78	0x3bebe7d0	0.007199265
79	0x3cbc339c	0.022973828
80	0x3c281e8f	0.010261192
81	0x3c799279	0.015232676
82	0x3b18a842	0.002329365
83	0xbc7e563a	-0.015523488
84	0xbaafc942	-0.001341142
85	0x3c69486c	0.014238458
86	0x3cb0d507	0.021585954
87	0x3ca9f078	0.020744547
88	0xbc82afc8	-0.01595296
89	0x3cc47159	0.02397983
90	0xbc9906d5	-0.018680016
91	0xbc9a9787	-0.018871082
92	0x3c648d71	0.013949738
93	0x3cb3c06e	0.021942344
94	0xbc4ee863	-0.0126286475
95	0xbc88ca68	-0.016698077
96	0xbca3a675	-0.019976834
97	0x3cb5e426	0.022203516
98	0x3c80cac7	0.015721692
99	0xbbad09e4	-0.00528072
100	0xbc6981ad	-0.0142521085
101	0x3c9349b0	0.017979473
102	0x3bce48c2	0.0062952945
103	0x3ca01766	0.019542407
104	0xbc6cb8d1	-0.014448361
105	0x3c8aa0d4	0.016922392
106	0x3c859158	0.016304657
107	0x3c8be0df	0.017075
108	0x3aa44436	0.0012532535
109	0xbca2f3b3	-0.019891595
110	0xbca6293e	-0.020283338
111	0x3c802f19	0.015647458
112	0xbc324be0	-0.010882348
113	0x3ca07f06	0.01959182
114	0x3cbdaa12	0.023152385
115	0xbc2ef659	-0.010678851
116	0xbac9906f	-0.0015378128
117	0x3c6d3233	0.0144773
118	0x3cb68ed2	0.022284899
119	0x3bea247f	0.007145464
120	0x3c943a56	0.018094223
121	0xbbcb6fbc	-0.006208388
122	0x3cad55b0	0.021159023
123	0x3c34b790	0.011030093
124	0x3c4e76c8	0.012601562
125	0x3c9ec47a	0.019380797
126	0xbc81f2ac	-0.015862785
127	0x3c9bda28	0.019024923
128	0x3cd6efa3	0.026237315
129	0x3c80f911	0.015743764
130	0x3c7d9ea9	0.015479722
131	0x3cb0f8eb	0.021603068
132	0xbc97022e	-0.018433657
133	0x3cafd93d	0.021465892
134	0xbb1f28c8	-0.0024285782
135	0x3c264c08	0.010149963
136	0xbb019997	-0.0019775385
137	0x3cabcf1f	0.020972786
138	0x3ccb8937	0.024845703
139	0x3c9f2c9a	0.019430447
140	0xbc514368	-0.012772419
141	0xbc9aeabd	-0.01891076
142	0xbb68178f	-0.0035414433
143	0x3b8baccb	0.004262542
144	0x3c220320	0.00988844
145	0x3ba491ca	0.005022262
146	0x3c83f6d4	0.016108908
147	0xbb685cfe	-0.0035455818
148	0x3caabd65	0.020842263
149	0x3c1a8761	0.009431691
150	0xbc2a2104	-0.010383848
151	0xba3b1423	-0.00071364845
152	0x3bf1dd92	0.0073811496
153	0x3b269ede	0.0025424282
154	0xbb0f22f7	-0.002184091
155	0xbc8fb599	-0.017542647
156	0x3c901999	0.01759033
157	0x3bf41efb	0.007449982
158	0xba199040	-0.0005857982
159	0xbc7f3dca	-0.0155786965
160	0xbca0904f	-0.019600062
161	0x3cc21bd9	0.02369492
162	0x3ca068a5	0.019581148
163	0x3c704045	0.014663761
164	0x3c209b81	0.0098027
165	0xbc769936	-0.015051177
166	0x3bbb8994	0.0057231877
167	0x3caed1d2	0.021340284
168	0x3b1f2807	0.0024285333
169	0x3cd2adf9	0.025717722
170	0xbc67d7cc	-0.014150571
171	0xbc4c99a7	-0.012487805
172	0x3c22020f	0.009888186
173	0x3cb2af30	0.021812052
174	0xbc2dc423	-0.010605845
175	0xbc8a602a	-0.016891558
176	0x3c64440e	0.013932241
177	0xbca16b55	-0.0197045
178	0x3cd4a4ad	0.02595743
179	0xbb8e1cef	-0.0043369452
180	0x3a72437d	0.0009241624
181	0x3c2187e4	0.009859059
182	0x3cb174dd	0.02166217
183	0xbc8908d1	-0.016727837
184	0x3c947084	0.018120058
185	0x3cb36d3f	0.021902679
186	0x3c9ce742	0.019153241
187	0xbc8fd86e	-0.017559256
188	0xbc8312dd	-0.016000206
189	0xbc866b5b	-0.016408613
190	0xbc8b5477	-0.01700805
191	0xbca72b90	-0.020406514
192	0xbca9a768	-0.020709708
193	0xbc999b57	-0.01875083
194	0xbc68a41c	-0.014199283
195	0x3c8ab8b8	0.016933784
196	0xbcb1bec3	-0.021697408
197	0x3c3924d1	0.011300282
198	0x3ca1633c	0.019700639
199	0x3cadbad4	0.02120725
200	0xbc9e96ef	-0.01935908
201	0x3c8b363c	0.016993634
202	0x3c850e2c	0.01624211
203	0xbc9f64cb	-0.019457242
204	0x3cb366db	0.021899631
205	0xbc9d818d	-0.019226814
206	0xbc8cedb0	-0.017203182
207	0x3cb75688	0.022380129
208	0xbaccc263	-0.0015621897
209	0x3c179ffd	0.009254453
210	0xbc0fc80e	-0.008775724
211	0x3c8d8e96	0.017279904
212	0x3b0c4fb7	0.0021409818
213	0x3c9e105e	0.019294914
214	0x3c7aff4d	0.0153196575
215	0x3c9927a5	0.018695662
216	0x3ccc4a8d	0.024937892
217	0x3c8e0535	0.017336467
218	0xbc788882	-0.015169265
219	0xbc7523b8	-0.014962129
220	0x3caa6ae2	0.020802919
221	0xbc8b0436	-0.016969781
222	0xbc9f7cef	-0.019468753
223	0x3ca56442	0.020189408
224	0xbbc6781d	-0.006056799
225	0x3cb92107	0.022598756
226	0x3c522ec1	0.01282853
227	0xbc924488	-0.017854944
228	0x3c0a6ee5	0.008449291
229	0x3c7d0de2	0.015445204
230	0x3b5ec877	0.0033993998
231	0x3c93ddc8	0.01805009
232	0xbc833e34	-0.016020872
233	0xbc898bda	-0.01679032
234	0xbc82b0a9	-0.015953379
235	0x3ca23863	0.019802278
236	0xbc9b0e41	-0.018927695
237	0x3cc3a775	0.02388356
238	0xbc4ed776	-0.012624612
239	0xbb25270c	-0.0025200276
240	0xbc904d57	-0.017615004
241	0x3cb9daf5	0.022687415
242	0x3ca36e70	0.019950122
243	0xbc9fa4b7	-0.019487722
244	0x3c9f801a	0.019470263
245	0xbc85bc73	-0.016325211
246	0xbca628e4	-0.02028317
247	0xbae6ceac	-0.00176092
248	0xbc9ff2fd	-0.019525046
249	0xbc88ad47	-0.016684188
250	0x3c92d0c0	0.017921805
251	0xbbde8940	-0.006791264
252	0x3c7218ca	0.014776418
253	0x3c8a1905	0.016857633
254	0x3caf9eb1	0.021437975
255	0x3b876f8c	0.0041331705

network_body._body_endoder.seq_layers.4.weight f4 [256, 256]
0	0x3db9c18a	0.09070118
1	0xbb6e3355	-0.0036346514
2	0xbba471f1	-0.0050184657
3	0x3c8fd813	0.017559087
4	0x3d189fdb	0.037261825
5	0xbba3ac20	-0.004994884
6	0x3da78438	0.081795156
7	0x3d3b7810	0.045768797
8	0xbc380375	-0.011231293
9	0xbe1f861e	-0.15578505
10	0xbc3099b5	-0.010778834
11	0xbb50909f	-0.0031824482
12	0xbb57d084	-0.0032930681
13	0x3c931539	0.017954456
14	0x3d02a78a	0.03189806
15	0x3d92cea9	0.071683235
16	0xbcc37371	-0.023858758
17	0xbb9bfba2	-0.0047602216
18	0x3c85d529	0.016336994
19	0x3ddff968	0.10936242
20	0xbbae4e13	-0.0053193658
21	0xbdd5d414	-0.10440841
22	0xbd09e25a	-0.03366313
23	0x3d7aa73c	0.061194643
24	0x3cc6682e	0.024219599
25	0x3c6413f1	0.01392077
26	0xbc04640b	-0.008080493
27	0xbc87c324	-0.016572542
28	0x3b9a2a6b	0.0047047636
29	0x3c89f16f	0.016838757
30	0x3da61c2e	0.081108436
31	0x3d77b836	0.06047841
32	0x3b8d5f7b	0.0043143607
33	0xbd1c2c94	-0.03812845
34	0xbd35ca14	-0.04438217
35	0x3e4d0bf4	0.20024091
36	0x3d2e64b3	0.042576503
37	0xbc3087ce	-0.010774566
38	0x3d1298f0	0.035790384
39	0x3d1dfa0a	0.038568534
40	0x3abe554a	0.0014521268
41	0x3d97b772	0.07408036
42	0xbd4f8d44	-0.05067183
43	0x3d4804d6	0.048832737
44	0x3d10356a	0.03520719
45	0xbd84f99d	-0.064929225
46	0x3d5a3549	0.053273473
47	0x3df8a8ea	0.12141593
48	0xbd300927	-0.04297748
49	0x3c0788cf	0.008272364
50	0xbcc4fb37	-0.02404557
51	0x3e3c97f2	0.18417338
52	0xbd82a634	-0.06379357
53	0x3dd05213	0.101719044
54	0x3cb6bb9a	0.022306252
55	0xbd219fe6	-0.03945913
56	0x3cd17585	0.025568733
57	0x3d8a2891	0.06746019
58	0x3d3a5611	0.045492236
59	0xbdbdadde	-0.09261678
60	0xbd874b7a	-0.06606193
61	0xbdd43d67	-0.10363274
62	0x3be1621a	0.0068781497
63	0xbc5a1378	-0.013310306
64	0xbe264c63	-0.16240077
65	0x3dce0ea6	0.10061388
66	0x3a89ae46	0.0010504208
67	0xbd727218	-0.05919084
68	0x3d8f79af	0.07005631
69	0xbd7dc8cb	-0.06195907
70	0x3d4366b5	0.04770537
71	0xbd28975e	-0.04115998
72	0x3d40142c	0.046894237
73	0xbcd1769d	-0.025569255
74	0xbd7a4103	-0.061097156
75	0x3d5c7da8	0.053830773
76	0xbde074db	-0.109597884
77	0xbcc7a516	-0.024370711
78	0xbd125030	-0.035721004
79	0xbd7b664b	-0.06137685
80	0x3a84bf56	0.0010127823
81	0x3d60277c	0.054725155
82	0x3b8541bf	0.0040666754
83	0x3badd3e3	0.0053048
84	0xbdbbf5f4	-0.09177771
85	0xbd8caea4	-0.068692476
86	0x3d155b32	0.036463924
87	0x3d2fe105	0.042939205
88	0x3d345a48	0.04403141
89	0x3de547a0	0.11195302
90	0x39dfc8f7	0.00042683605
91	0x3da791e9	0.08182127
92	0x3d82fd5d	0.063959815
93	0x3d38b95e	0.045098655
94	0xbd277baa	-0.04088942
95	0xbc1bead5	-0.009516438
96	0xbd6ff814	-0.058586195
97	0x3b825b3b	0.0039781607
98	0xbd17d629	-0.037069473
99	0xbd5c8249	-0.053835187
100	0x3dab0f58	0.08352536
101	0xbdfd8756	-0.12379329
102	0x3ccf0e0b	0.02527525
103	0xbe2f29f0	-0.17105842
104	0x3d2db2c4	0.042406812
105	0x3d978b49	0.073996134
106	0x3b860886	0.0040903715
107	0x3d2d3573	0.0422873
108	0x3bcb5a63	0.0062058433
109	0xbc5c777e	-0.0134562235
110	0xbbfe32df	-0.007757529
111	0xbc8d775f	-0.017268835
112	0x3d0bd190	0.0341354
113	0x3a59dd19	0.0008310839
114	0xbd793bc5	-0.060848016
115	0x3da884f0	0.08228481
116	0x3b316fbd	0.0027074658
117	0x3dc6308b	0.096772276
118	0x3e1a2428	0.15052855
119	0x3d6318ee	0.055443697
120	0x3c04f311	0.008114592
121	0x3c1ae3ab	0.009453694
122	0xbcdcd2dc	-0.026956014
123	0xbda3c441	-0.07996417
124	0x3d4b4fb4	0.049636558
125	0x3d2d3746	0.04228904
126	0x3c7f2c29	0.015574493
127	0xbd41e955	-0.047341663
128	0x3cdf8bcb	0.027288338
129	0x3bc10b22	0.0058912197
130	0xbcc56261	-0.024094762
131	0xbd0db547	-0.034596708
132	0xbc2ffd27	-0.010741509
133	0xbd814d6a	-0.06313594
134	0xbda5ce0b	-0.0809594
135	0x3ca9def0	0.020736188
136	0x3e208f20	0.15679598
137	0x3d3b5356	0.045733772
138	0x3dde6856	0.10859744
139	0xbd0362c8	-0.032076627
140	0xbdc440e4	-0.095826894
141	0x3d4ae90c	0.049538657
142	0x3cc5e513	0.024157083
143	0x3dba6608	0.09101492
144	0xbbf5de48	-0.0075033046
145	0x3ad756e4	0.0016429094
146	0x3d9e0f50	0.077177644
147	0x3dcc91e6	0.099887654
148	0xbd529438	-0.051410884
149	0xbe28ba37	-0.16477285
150	0xbc7a905a	-0.015293205
151	0xbd03e1dd	-0.032197822
152	0x3e155cb4	0.14586145
153	0xbd81f504	-0.06345561
154	0x3e200619	0.15627326
155	0x3c34256a	0.010995248
156	0x3b7fc05f	0.0039024574
157	0xbd5ed788	-0.054404765
158	0xbe03d491	-0.12874056
159	0xbd042aec	-0.032267496
160	0xbdfdcdce	-0.1239277
161	0x3da372e4	0.07980898
162	0xbb3b2dc4	-0.0028561214
163	0xbd433938	-0.04766199
164	0x3d154bf3	0.036449384
165	0x3d72a4a7	0.059239056
166	0xbdea0bb1	-0.11428011
167	0xbd8ef1b2	-0.069796935
168	0xbda3cb5e	-0.079977736
169	0x3daebe8e	0.08532439
170	0xbc8aea06	-0.016957294
171	0xbc878613	-0.016543424
172	0x3cb0cf54	0.021583237
173	0xbcaab06c	-0.020836078
174	0xbd9dba02	-0.07701494
175	0xbd77a921	-0.06046403
176	0xbe1e814d	-0.15479012
177	0x3c7b825e	0.015350906
178	0xbd3af28f	-0.04564148
179	0xba8bdc9f	-0.0010670609
180	0xbd340f10	-0.043959677
181	0x3cf8140b	0.030282995
182	0xbdf0f671	-0.11765755
183	0x3cb00639	0.021487342
184	0xbd90caf0	-0.07069957
185	0x3cd0a12e	0.025467481
186	0x3d2c5e67	0.042082217
187	0xbc1059e5	-0.008810495
188	0x3da099d0	0.078418374
189	0xbd14ca2c	-0.03632562
190	0xbd89f6db	-0.06736537
191	0xbe554c24	-0.20829827
192	0x3b9e3111	0.0048276265
193	0xbd1a52a0	-0.037676454
194	0xbd9daee4	-0.07699373
195	0x3d8fba89	0.07018001
196	0xbd24ac00	-0.040203094
197	0xbcbab5db	-0.022791794
198	0xbd84a0df	-0.06475996
199	0x3d270b3f	0.04078221
200	0x3c385309	0.011250266
201	0x3db4597a	0.08806129
202	0xbdaed36b	-0.085364185
203	0x3cde3718	0.02712588
204	0x3d67a63a	0.05655501
205	0xbcbb86c8	-0.022891417
206	0xbd040b62	-0.032237418
207	0x3cadd865	0.021221349
208	0xbd382225	-0.044954438
209	0xbd68242d	-0.056675125
210	0x3d08c6a2	0.033392556
211	0xbdd414e9	-0.10355551
212	0x3ca2794c	0.01983323
213	0x3c36b3f3	0.011151302
214	0x3ce8452e	0.0283533
215	0x3cb7dad6	0.022443216
216	0x3dc8f104	0.09811595
217	0x3d43c33d	0.047793616
218	0xbd95eb67	-0.0732029
219	0x3c929179	0.017891632
220	0x3da3bd56	0.07995097
221	0xbe06137f	-0.13093375
222	0xbd7f599b	-0.062341314
223	0x3d1ffa12	0.039056845
224	0xbd11fbb7	-0.035640445
225	0x3d28db8d	0.041225005
226	0xbdfda0d1	-0.12384189
227	0xbe255fd5	-0.16149838
228	0x3ae7c0b7	0.0017681335
229	0x3d4fca81	0.050730232
230	0xbcfe7147	-0.031059874
231	0xbd0fe0e2	-0.035126574
232	0x3c6b6b22	0.014368804
233	0x3c335f72	0.010948049
234	0xbc665231	-0.014057682
235	0x3d5f10d1	0.054459397
236	0x3ad4f233	0.0016246497
237	0xbbba3a07	-0.005683187
238	0xbd656e81	-0.056013588
239	0x3d4d2696	0.050085627
240	0x3d8eaa8b	0.06966122
241	0x3dbbfdc3	0.091792606
242	0x3db4137e	0.0879278
243	0x3c8a318b	0.016869327
244	0xbdcf8b55	-0.10133997
245	0xba6c7999	-0.0009020805
246	0xbdb40248	-0.087894976
247	0xbd7e8f42	-0.06214834
248	0xbd09bb53	-0.033625912
249	0x3d1da3f9	0.038486455
250	0x3cb0836e	0.021547046
251	0xbd827f2a	-0.06371911
252	0x3da40d0f	0.08010303
253	0x3d968267	0.07349091
254	0xbc36b044	-0.011150423
255	0xbcfdcdff	-0.030982016

network_body.observation_encoder.processors.0.normalizer.running_mean f4 [6]
0	0x420a4db3	34.57588
1	0x40a8f182	5.279481
2	0x426a8599	58.630466
3	0xc2011f80	-32.28076
4	0x3fb3320d	1.3999649
5	0xc28e511c	-71.15842
