Assets/Training/results/learn_v5_teszt2/MarsTaxi/MarsTaxi-999952.onnx (onnx, 542464 bytes, 10 tensors)

54 f4 [6]
000000 5a ef 57 40 fb 83 8d 40 cd 11 60 40 78 4a 04 3d
       3.3739839 4.422361 3.5010865 0.03229758
000010 e2 81 e1 3a 10 da 91 3d
       0.0017204846 0.0712167

action_model._discrete_distribution.branches.0.bias f4 [6]
000000 a6 0a 9e 3c ee 7f 3e bc 00 04 8b bc d7 51 16 3c
       0.019292187 -0.0116271805 -0.01696968 0.009174786
000010 58 00 86 ba ac 68 ec bc
       -0.0010223491 -0.028858505

action_model._discrete_distribution.branches.0.weight f4 [6, 256]
000000 d3 36 0c bd c3 49 01 bd 06 ec 1b 3d 5c ec de 39
       -0.034231972 -0.031564485 0.038066886 0.0004251924
000010 67 16 fd bc eb 8b 39 3d 57 6b 5e bc 0d 9a 43 3c
       -0.030894471 0.04529945 -0.0135753965 0.011938584
000020 93 ba 29 bc 36 6c 10 bd 0b 63 51 bc 2f 57 0e bd
       -0.010359424 -0.035259448 -0.012779961 -0.034751114
000030 da c9 fb 3c 96 2e dc 3b 8a 68 44 bd be 81 35 bc
       0.030735899 0.0067194207 -0.04795126 -0.011078296
000040 c8 bb 65 3a be 40 b7 bc 0e 9d 07 3d fa 18 7d 3c
       0.00087636383 -0.022369739 0.033108763 0.015447849
000050 f8 f1 a6 3b ba bc 48 3c 4d 69 5d bc e5 a9 f7 3c
       0.005094763 0.012252027 -0.013513875 0.03023238
000060 bd 31 b2 3c e4 85 ce 3c f5 45 ab 3c dc 2a b7 3c
       0.021752233 0.025210328 0.020907382 0.022359304
000070 6a de a3 3b 8c 12 1d bd 00 0a 1e bd 6b 2d 9d bc
       0.005000879 -0.038347766 -0.038583755 -0.019186696
000080 43 2d 33 3d bf 77 fb 3c aa 3f c8 bb f5 aa 22 bc
       0.043744337 0.030696748 -0.006111105 -0.009928455
000090 14 ee 0d b9 f8 e6 a2 bc 4d 7b 16 bd 4e 09 24 bd
       -0.00013535499 -0.019885525 -0.036738683 -0.040047936
0000a0 8f 40 2f 3d fe 2b 2b 3c 84 ce d8 3c d8 b2 0c bd
       0.042786177 0.0104475 0.026465662 -0.034350246
0000b0 02 68 e6 3b 2d 1e 5a bc b1 fb fd 3b ea 3b 2c bd
       0.0070314417 -0.0133128585 0.007750951 -0.042049326
0000c0 87 ce 81 3c a7 d8 4f bd f7 83 92 bc cc 58 09 bd
       0.01584555 -0.050743725 -0.017885191 -0.03353195
0000d0 bb f2 13 bd 36 95 7f 3c 21 c9 81 3b 60 a9 c2 3c
       -0.036120158 0.0155995395 0.003960744 0.023762405
0000e0 d0 55 06 bd fc c2 cc 3c f9 01 33 3b 0e 23 be 3c
       -0.03279668 0.02499532 0.0027314408 0.023210075
0000f0 2d 5a eb 3b 54 fb a7 3c 53 5b fd 3c b3 f0 de 3c
       0.0071823807 0.020505585 0.030927336 0.027214384
000100 81 8d 10 3d b0 6c c8 3c 60 73 1d 3b 26 34 2e bd
       0.0352912 0.024465889 0.0024025068 -0.0425302
000110 63 90 15 bd d6 cb fb 3c 71 ee a1 bc 12 5d 96 38
       -0.03651465 0.030736845 -0.019767018 7.169893e-05
000120 cf 21 18 bc 6a 7b 03 bd ea 0d 13 3d da d0 1c 3c
       -0.009285404 -0.03210012 0.03590194 0.0095712785
000130 fc dc 19 bc b4 7a 16 bd 01 96 45 3c d7 ad 46 3d
       -0.009391066 -0.036738113 0.0120596895 0.04850563
000140 41 82 95 3c 16 46 bb 3c ba fe 03 bb 2a fb cd bc
       0.018250586 0.022860568 -0.0020140843 -0.025144178
000150 ce 15 8c bb 33 ab 5b 3c 4d 53 19 3d d1 9f cb 3c
       -0.0042750603 0.013407516 0.037432957 0.02485648
000160 a4 42 8d bc 89 62 3b 3d 50 5a 3b bd 47 09 2c bd
       -0.01724369 0.045748267 -0.045740426 -0.042001035
000170 08 81 e4 3b bf 43 11 3d 3d f1 8d bc 8d ca 1e bd
       0.0069733895 0.035465 -0.017326945 -0.038767386
000180 30 c0 06 bd f8 65 19 3d 33 64 fa 3b 8a ea 01 bd
       -0.032898128 0.03745076 0.007641339 -0.031717815
000190 75 fe 73 bc fd 63 b4 3b 6b 7e 44 3c be 10 a4 3c
       -0.01489221 0.0055050836 0.011993031 0.020027515
0001a0 6c 09 81 bc 51 ff ae 3c b0 70 9d 3c 40 52 80 3c
       -0.015751563 0.021361979 0.019218773 0.01566422
0001b0 c7 06 86 3c 12 27 26 bd 2e 9c 4b bd ef 7c 13 3d
       0.016360654 -0.040564604 -0.04970949 0.036007818
0001c0 d5 52 90 bb 8c ec 6d 3c af f2 08 3d e1 d4 75 bc
       -0.0044044056 0.014521729 0.033434566 -0.015004368
0001d0 02 19 ea bc c6 18 f3 3b c8 51 29 3d 56 0e ec bb
       -0.028576378 0.0074187247 0.04133776 -0.0072038574
0001e0 8e 47 79 bb ee 50 19 bc 5a 89 8f 3c 23 29 bb 3c
       -0.0038037035 -0.009357674 0.017521549 0.022846764
0001f0 b9 df 01 3c b8 91 f0 3c 28 d1 03 bd 36 03 78 3c
       0.007926875 0.02936636 -0.03218189 0.015137484
000200 4d 8e eb 3c 64 77 71 bb 08 0d 46 3c a6 d8 08 3d
       0.028754378 -0.0036844844 0.012088068 0.033409737
000210 7c ca f0 bc d6 b7 26 3d fa 3e 6e bc 55 57 87 3b
       -0.029393427 0.040702663 -0.014541382 0.004130284
000220 5a f7 f5 3b 45 10 66 3c c0 32 c8 3c 14 38 ea 3c
       0.0075062932 0.014041965 0.024438262 0.028591193
000230 8a 61 a8 bb a8 8f 1c bd b4 a7 45 3c fe 03 51 3c
       -0.0051385807 -0.03822294 0.012063909 0.0127572995
000240 0b 19 e7 3c 29 41 87 3c 9a 79 a0 3c 1a f7 94 bb
       0.028210184 0.016510563 0.019589234 -0.0045460584
000250 5b aa 11 3d 15 b3 5a bb 66 d1 8c bc fb b6 46 bb
       0.035562854 -0.0033370901 -0.017189693 -0.0030321467
000260 f1 09 70 3c a7 bd 05 bc c9 b9 e4 bb bc 03 c2 bc
       0.014650808 -0.008162892 -0.006980155 -0.023683421
000270 23 22 af 3c 60 2c 2f 3c e3 d6 86 bb f8 5b 9b bc
       0.021378582 0.010691732 -0.004114972 -0.018964753
000280 b1 54 3c bd 36 e3 d7 3c 10 09 a6 3c b3 3a eb ba
       -0.045979206 0.02635346 0.020267993 -0.0017946571
000290 d7 6c 91 bc 27 3f 1b bc 4a d5 31 3b 8d 3f 2f 3d
       -0.017752094 -0.009475506 0.0027135187 0.042785216
0002a0 7a be 21 3c 01 99 e8 3c 99 27 14 bc 00 32 54 bc
       0.009872073 0.02839327 -0.009042644 -0.012951374
0002b0 18 e8 b0 3b a5 63 9d 3c 0b 46 7c bc a9 a4 c8 bc
       0.0053987615 0.019212553 -0.015397559 -0.024492579
0002c0 9a e9 fe bb 0b 68 02 bd 04 6f 0e 3d 15 07 d1 bb
       -0.0077793123 -0.031837504 0.03477384 -0.006379018
0002d0 8d 1c 2a 3c 20 86 1b 3c 37 81 07 3d 6a 07 19 bd
       0.010382784 0.009492427 0.033082213 -0.037360586
0002e0 f0 6b c2 3b 3c e1 fc 3c 2c 13 11 3d 20 55 a9 bc
       0.0059332773 0.030869119 0.035418674 -0.020670474
0002f0 cd 84 12 bd a0 df d6 bc 65 1d 10 bd 06 1f 20 bd
       -0.03577118 -0.02622968 -0.035184283 -0.039092086
000300 fc e2 03 bd 19 6c 3e bd 25 28 c3 bc 77 a2 f8 3c
       -0.03219889 -0.04648981 -0.023822853 0.030350907
000310 13 b6 3c bd 5a 41 87 3c 8c 80 16 3c e9 07 02 3d
       -0.046072077 0.016510654 0.009185921 0.031745825
000320 36 dc 3e bd c4 f2 e2 3c c9 01 f8 3c ff 4f 58 bd
       -0.04659673 0.02770365 0.030274289 -0.052810665
000330 38 a1 96 3c b1 12 d8 bc d7 7d 0c bd 62 87 06 3d
       0.018387422 -0.0263761 -0.034299698 0.032843955
000340 6b cd 17 bc af 21 ea 39 e9 a2 4c bc 24 07 40 3c
       -0.009265284 0.00044657054 -0.012490013 0.011720452
000350 dc 58 ee 3b 43 a1 83 3c c6 c7 92 3c db 51 b4 3c
       0.0072737765 0.016068107 0.017917525 0.022011688
000360 ec 3e f3 3c ac a0 50 3c d7 9c 11 bd 5f cc 21 bd
       0.02969309 0.01273362 -0.035549965 -0.039501544
000370 fd 35 1b 3d 2a e1 22 bd 8a 01 20 bd bc e5 ee 3c
       0.037893284 -0.039765514 -0.039063968 0.02916228
000380 cb 05 e7 bc 03 8a 21 3d a9 28 7f 3c 00 09 08 bd
       -0.028201004 0.03943826 0.015573659 -0.033211708
000390 15 a3 e4 bb 0c d1 b3 3c 82 7e 01 bc c7 2e 01 3d
       -0.0069774487 0.021950267 -0.007903697 0.03153875
0003a0 2f a8 a8 bc 25 d6 e4 bc 11 a7 44 bc f6 9f 02 3d
       -0.020588009 -0.027934143 -0.012002722 0.031890832
0003b0 73 e6 2c bd 0f fc 18 3d 9d e9 ca bc 80 a2 ad bb
       -0.04221196 0.037349757 -0.024769599 -0.0052989125
0003c0 ec 6c f9 bc 19 85 fb 3c fe 92 aa 3c 1b 31 25 bd
       -0.030447446 0.030703114 0.020822044 -0.040330034
0003d0 49 17 c3 3c 5f 35 2b bc 7a 77 54 bd 53 36 88 bc
       0.023814814 -0.010449736 -0.051871754 -0.016627466
0003e0 60 c0 1d bd b2 fd e6 bc 02 3f 21 3c 70 4e e7 bc
       -0.03851354 -0.028197143 0.009841682 -0.028235644
0003f0 63 04 04 3c 86 3c dc 3c a8 99 f3 3c be 96 d8 3b
       0.0080576865 0.026884329 0.029736355 0.0066097667

network_body._body_endoder.seq_layers.0.bias f4 [256]
000000 88 1f c2 3c ff 98 2b bd 0c 25 69 3d 71 c5 27 bd
       0.023696676 -0.041893955 0.056920096 -0.04095978
000010 69 50 c4 bc bb 4f 35 3d 94 66 ab bc b6 69 08 bc
       -0.023964124 0.04426549 -0.020922936 -0.008325985
000020 a4 97 99 bc 71 be 63 3d 88 29 54 3d 1b dd 92 3c
       -0.018749066 0.05560154 0.05179742 0.017927697
000030 d9 e2 68 3d b5 ca 15 3c 22 87 56 3d cb 32 03 bd
       0.056856964 0.009142567 0.052374966 -0.03203086
000040 d2 c7 c7 3a 8e c2 5e 3d fd d4 0f bc c7 1e 36 3c
       0.0015242046 0.05438476 -0.008778808 0.011115736
000050 c1 52 18 3c 94 75 10 3c 1b 2c 27 3d 22 ef 20 3c
       0.009297074 0.008817095 0.040813547 0.009822639
000060 ac c3 65 bd c1 00 4b 3d 0d 2c 23 bd 8b 56 79 3c
       -0.05609481 0.049561266 -0.039836932 0.015218387
000070 a2 00 47 3d 9e a1 46 3d 17 bd fd bb 41 3e 40 3d
       0.048584588 0.048493974 -0.0077434885 0.04693437
000080 66 76 01 bd ac 22 3e bd ad 32 54 bd b7 99 2c bd
       -0.031607054 -0.046419784 -0.05180614 -0.04213878
000090 8d c7 43 3d 3d ee 60 3d 2e 6a 3e 3d 00 44 61 3d
       0.04779773 0.0549147 0.04648798 0.05499649
0000a0 2c 35 4e bd 70 0e 23 bd 91 f2 74 3a 7b 13 7a 3d
       -0.050343677 -0.03980869 0.00093440065 0.061053734
0000b0 ee 58 57 3d 85 74 4e 3d 95 75 ca 3c 11 8d 5c 3d
       0.052575044 0.05040409 0.02471427 0.05384547
0000c0 fa d8 49 3d d9 c0 ed 3c 64 2e 50 3c 3d 5d 51 3d
       0.04927919 0.029022621 0.012706373 0.05111431
0000d0 94 34 c5 bc 8c e8 22 3d 67 66 53 3d 2a bb 9b 3c
       -0.024072923 0.039772555 0.05161133 0.019010145
0000e0 3d 8a 53 3d ca 8e 13 bd 54 7b b3 3c fa 0b 64 3c
       0.051645506 -0.036024846 0.021909393 0.013918871
0000f0 3c b6 ca ba db 1b 44 3d c5 bc 4f 3d 94 b0 48 3d
       -0.0015465687 0.047878128 0.050717134 0.048996523
000100 50 c3 72 3d 0c 20 26 3d fb ca ef bb a4 16 df 3c
       0.059268296 0.040557906 -0.0073178983 0.027232476
000110 e5 5d 25 3d 24 17 3b bd 6b 22 30 3d ad 1f 6e 3d
       0.040372748 -0.045676365 0.043001574 0.058135677
000120 ab 94 5d 3d 55 39 1c bb 7b bd 60 3d 21 8d 28 3d
       0.05409686 -0.0023837883 0.054868203 0.041150216
000130 bd 83 6f 3d c4 05 4e 3d 11 e1 33 3d 93 24 71 3c
       0.058475245 0.050298467 0.043915812 0.014718193
000140 2b 6f 3a 3d 53 c4 70 3d 6f 02 f7 bc 05 9c ff 3c
       0.045516174 0.05878098 -0.030152528 0.031202326
000150 d4 0c 24 3d 0d bf f8 3c 55 9e d0 3c 5e 8c 4d 3d
       0.040051296 0.030364538 0.025466124 0.050182693
000160 4b 0d 70 3d bf 80 0b bd 89 b1 3c 3d 49 b0 8e 3c
       0.058606427 -0.03405833 0.04606775 0.017418044
000170 04 4d 31 bd 0a 26 5a bd ba 41 2b bd d4 3e 6b 3d
       -0.04328634 -0.053258933 -0.04181073 0.057432964
000180 0b e6 1a bd 21 fd f1 bc 2e 17 4f 3d eb 23 18 3a
       -0.037817042 -0.029539647 0.050559215 0.0005803692
000190 d4 fa 90 3c 8e 84 67 bc 9a 26 6e 3d ed d7 35 3d
       0.01769773 -0.014130725 0.058142282 0.044395376
0001a0 25 16 c7 3c 9b 33 76 3b 02 d9 20 3d 5d 51 af 3c
       0.024302552 0.003756738 0.039269455 0.021401102
0001b0 a4 3a 68 3d 5d f9 c0 3c ee c5 c0 ba 65 7d 4c 3c
       0.05669655 0.023556406 -0.0014707425 0.012481068
0001c0 cc 3e 2a 3c 91 1d 7b 3c 6d 97 5a 3d 3d 2d 50 3d
       0.0103909485 0.015326873 0.053367067 0.050824393
0001d0 f7 ad 6a 3d f3 90 bf 3c 1e 05 9b 3b 9d f6 b6 bc
       0.057294812 0.023384547 0.0047308346 -0.022334391
0001e0 d7 cc 97 3c fd 3b 0f 3b 88 2e de bc b5 46 00 bd
       0.018530292 0.0021855824 -0.027121797 -0.03131743
0001f0 9d 30 25 3c 84 72 31 bd 06 b6 6e 3d f4 cb 16 3d
       0.010082391 -0.0433221 0.05827906 0.0368156
000200 a0 44 40 3d a6 f9 92 bc 13 07 5c 3d d1 69 09 3d
       0.046940446 -0.017941307 0.053717684 0.03354818
000210 43 88 c5 3c c1 49 77 3c b5 b0 48 bc 1a 2a 48 3d
       0.024112826 0.015093268 -0.0122491615 0.048868276
000220 52 5e 27 3c b2 8b 19 bd dd 9c 62 3d 6c c7 3a 3d
       0.010215359 -0.03748674 0.055325378 0.04560034
000230 4c 66 c9 bb f7 81 54 bd bd 34 a2 bc d8 a5 3d bd
       -0.006146228 -0.051881757 -0.019800538 -0.04630074
000240 3b c6 68 3d a2 81 1d 3d 6d 99 39 3d f0 9f d6 bc
       0.056829672 0.038453706 0.045312334 -0.026199311
000250 1c 32 0b 3d 47 d9 39 3c 3f 4c 1f bd 68 e5 83 3b
       0.033983335 0.011343307 -0.038891073 0.00402515
000260 75 79 66 3d 35 16 4f bd 51 b9 75 3d c7 29 74 3d
       0.056268174 -0.050558288 0.059991185 0.059610154
000270 53 7e 77 3d 27 37 53 3d 31 c5 6c 3d 53 6d 41 3c
       0.060423207 0.05156627 0.057805244 0.01180585
000280 8e 6f 60 3d a0 a8 0b 3d 4c 20 56 3c 85 bb 52 bd
       0.054793887 0.03409636 0.013069224 -0.051448364
000290 23 ef 03 3d ed f4 03 3b 69 db ea 3b c2 ec 40 bd
       0.03221048 0.0020135 0.007167269 -0.04710079
0002a0 4c 14 ed 3b a7 e0 2b 3d 54 d4 f6 3c d7 d4 3c 3c
       0.0072350856 0.041962292 0.030130543 0.011525354
0002b0 65 36 24 bd 22 0f 4b 3d b0 1c 25 3d 93 95 db 3a
       -0.040090937 0.04957498 0.04031056 0.0016752951
0002c0 34 33 5f bd 29 5b 23 3d 0c 30 4a 3d 9e 04 f6 3c
       -0.05449219 0.03988186 0.049362227 0.030031499
0002d0 89 c4 0e 3c 0c 80 62 3d ee c4 40 bc 11 1f 87 3c
       0.00871385 0.055297896 -0.011765702 0.016494306
0002e0 89 5f 0f bc c9 5e 6e 3d ef 42 47 bd 38 a7 5a 3d
       -0.008750805 0.058195863 -0.048647817 0.05338213
0002f0 c7 a6 0d 3d ca 38 9d bc 76 92 63 bd a4 fd 37 3d
       0.03458288 -0.019192118 -0.055559598 0.044919625
000300 2b 52 7a 3c d7 fb 5c bb e8 9f 33 3d 12 2a 4e 3a
       0.015278379 -0.0033719444 0.04385367 0.00078645453
000310 7b 1c 05 bd a8 1c 2f bc b9 25 6a 3d 32 42 48 bd
       -0.032497864 -0.0106879845 0.05716488 -0.048891254
000320 1d da 1e bd 10 bf 5e bd d3 69 48 3d 8b 93 6b 3c
       -0.038782228 -0.05438143 0.048929047 0.014378439
000330 06 39 60 3d dd 4d d7 3b 5c ea 64 3d 5a f7 bc 3c
       0.05474188 0.0065705613 0.055887565 0.023067165
000340 60 69 58 3d be 03 11 3d 74 3a 73 3d 30 9c d1 bc
       0.05283487 0.03540396 0.059381917 -0.025587171
000350 7c e4 84 3c 10 fd 7b 3d 6a cb 5a 3d a0 c4 4f bd
       0.016222231 0.061520636 0.053416647 -0.050724626
000360 a3 84 15 3d a1 e9 0d 3d 7c c5 6b 3d 10 df 2a 3d
       0.036503445 0.034646634 0.057561383 0.041716635
000370 72 8b 5d 3d 2a de 74 3d 8a f8 12 bd 49 9e 33 bd
       0.054088064 0.059782185 -0.035881557 -0.043852124
000380 ed 8e 31 bd 3b e6 92 3b a9 17 6c 3d 29 cd 3d bd
       -0.043349195 0.004483012 0.05763975 -0.046338234
000390 64 a7 56 3d e9 28 09 3c 14 38 3c 3d 26 aa bb 3c
       0.05240573 0.00837157 0.045951918 0.022908282
0003a0 1b 62 a4 b9 6b f8 62 3d ea 65 90 3b d7 2e 1a 3d
       -0.00031353612 0.05541269 0.0044066804 0.037642326
0003b0 44 39 f0 3c ed bc 5e bd 9b 23 76 3d 9c 8e 4a 3d
       0.029324181 -0.054379392 0.06009255 0.04945241
0003c0 d9 dc 0d 3d 63 07 60 bd 70 75 2f 3d 62 00 7a 3d
       0.034634445 -0.054694545 0.042836607 0.06103552
0003d0 f3 bb 17 bc 23 8f 49 bd 2b 96 6d 3d e7 13 f9 3b
       -0.009261119 -0.04920877 0.05800454 0.0076012495
0003e0 20 20 77 bc 43 7c 7b 3c 83 be 3f 3d 8c e3 b2 3c
       -0.015083343 0.0153494505 0.046812546 0.021837018
0003f0 03 18 73 bd 0d ea 91 3b d7 36 de ba 5b b6 3a bd
       -0.05934907 0.00445295 -0.0016953599 -0.045584064

network_body._body_endoder.seq_layers.0.weight f4 [256, 6]
000000 ea dc e8 3d 4b 0f 60 bf 28 30 20 bf 54 14 4a bc
       0.11370261 -0.87523335 -0.6257348 -0.012333948
000010 21 9b 87 3e 95 4e 39 bf 4c cb fd bd 76 1f c3 3e
       0.2648554 -0.7238553 -0.123922914 0.3810994
000020 f4 a1 b5 bc 9f 5d 3c 3f 5a 04 bd be 46 77 0f 3f
       -0.022171952 0.73580354 -0.36917382 0.5604137
000030 00 cb 86 3e 76 73 04 3d 59 2d 8b bb 3f c4 a5 be
       0.26326752 0.032336675 -0.004247349 -0.32376286
000040 90 b0 da bd 72 ae 1a bf 8e eb 06 3d 74 c5 c9 bc
       -0.10678208 -0.6042243 0.032939486 -0.024630286
000050 0d f5 0b be 8c 1d db 3d 4c a8 da be 42 5b cb 3e
       -0.13667698 0.10698995 -0.42706525 0.39718062
000060 9a 9b aa bd ae 8d 45 3e 6a 3c e1 be 53 d7 b2 3f
       -0.0833046 0.19292328 -0.43991405 1.3971962
000070 32 a8 27 bf 93 2e 5e bf e1 e5 6c bc cc 46 cc be
       -0.6549102 -0.86789817 -0.014459104 -0.39897764
000080 7e 2c 04 3e 1b e6 c5 3e dd 7e 85 3f 0e 18 20 3d
       0.12907597 0.3865212 1.0429341 0.03908544
000090 d9 03 d8 be 46 f2 60 be 16 98 90 bb 9b 35 5f 3d
       -0.42190436 -0.2196742 -0.0044126613 0.05449448
0000a0 d7 eb 51 3e 8d f4 ac be 2d 91 37 3c 92 db 21 3f
       0.20500122 -0.33780327 0.011204046 0.6322566
0000b0 8d ee fc 3d 92 4d 34 be f2 0b 97 3d 55 66 09 3f
       0.123501875 -0.17607716 0.07375325 0.5367177
0000c0 28 80 0b 3d 0a 64 d8 bc e9 cb 49 be 18 99 27 3e
       0.034057766 -0.02641489 -0.19706692 0.16366994
0000d0 f0 87 21 3c c8 6e 0f be 41 68 20 be bb 8a 37 be
       0.00985907 -0.14007103 -0.1566477 -0.17924015
0000e0 f6 bd d0 3e f0 54 b2 bd 59 71 e9 be 3a 2b a6 be
       0.4076993 -0.08707607 -0.4559429 -0.32454854
0000f0 17 9c 09 bf 8b ba 14 3f a6 47 dd 3e 03 23 53 be
       -0.537538 0.5809714 0.43218726 -0.20618825
000100 fb e1 36 3f 57 c6 8f 3e 72 4c 73 3d 6a 51 be be
       0.7143857 0.2808101 0.059399076 -0.3717149
000110 8c bc 5d bf bd 42 8c 3e fc 31 df bd 5f 3b ef 3d
       -0.86615825 0.27394667 -0.10898206 0.11681246
000120 31 27 52 3e 03 33 a8 3e 5c 85 6e 3e 4c 94 05 bf
       0.20522763 0.3285142 0.2329306 -0.5217941
000130 71 b6 a2 bd 9d 3b 82 bf 9e e0 30 be ed ec a1 bd
       -0.07944954 -1.0174443 -0.17273185 -0.07906518
000140 7a dd 5d bf 44 90 9a 3d cb 09 1c 3e 24 19 e4 be
       -0.8666607 0.07547048 0.1523811 -0.4455043
000150 13 32 e6 3e 2e f4 0d 3f 91 34 99 3e c8 11 47 be
       0.4496008 0.55450714 0.29922917 -0.19440377
000160 fe 9b 94 be a5 04 6b be fc 7d 5b 3e a8 c0 eb 3e
       -0.29025263 -0.2295099 0.21434778 0.46045423
000170 85 9d 93 bc 66 84 2c 3f 51 cb 02 3f 82 24 90 be
       -0.018019447 0.67389524 0.51091486 -0.28152853
000180 3f 2a 17 3b 68 b8 5f 3f d7 e2 71 bd 59 b7 80 be
       0.0023065952 0.87390757 -0.059054222 -0.25139883
000190 50 2d 5b 3f be f0 24 3e 1d ec 0b 3f 2c 6d ca be
       0.85616016 0.16107461 0.54657155 -0.39536417
0001a0 a0 5e 3f 3e 81 a4 f6 3e 3b 64 0b 3d 25 d9 80 3e
       0.1868844 0.48172382 0.034031134 0.25165668
0001b0 73 fc 75 3e ec 02 f6 bd 35 57 75 3e 15 a4 2d 3f
       0.24022083 -0.12012276 0.23959048 0.67828494
0001c0 71 1e a7 be 61 2a 2e 3f d7 b2 87 bd f3 33 ff be
       -0.32640412 0.68033415 -0.06625908 -0.49844322
0001d0 21 01 11 bf fc e7 08 3e 2e e5 0d be d9 99 25 be
       -0.5664235 0.13369745 -0.13856956 -0.1617197
0001e0 02 e7 51 be 9c 16 e7 3e df 8c d8 3e 68 9c 1d 3f
       -0.20498279 0.45134437 0.42294976 0.6156678
0001f0 1f 0a 19 be 60 2f 8c bd fb 12 81 be 32 06 fa be
       -0.14945267 -0.068449736 -0.25209793 -0.48832852
000200 03 d2 a2 be 58 9e 93 3e 24 63 13 bf 9e da 05 3c
       -0.3180085 0.28831744 -0.5757315 0.008169798
000210 f6 c3 0d be 57 dd a9 3e c2 50 1e 3e 6a a7 ad 3e
       -0.13844284 0.3317668 0.15460494 0.3391679
000220 90 94 c1 be d8 97 0a bf 34 4c 4a be a7 70 9c be
       -0.37808657 -0.54137945 -0.19755632 -0.30554697
000230 62 26 b4 bd 75 e4 44 3f 40 9c ce 3d ad 8a 90 3d
       -0.087963834 0.769111 0.10088396 0.070577
000240 37 aa ab be 42 73 a2 3d 34 82 d1 be 3d 19 11 3e
       -0.335283 0.0793214 -0.4091965 0.14169784
000250 91 32 9d 3e 65 25 6f be d7 eb ef 3e cb 7a 61 3e
       0.30702642 -0.23354109 0.4685962 0.22019498
000260 ce 52 43 3d e0 aa 51 3f e1 27 1f 3d 2f 9d f1 bd
       0.04768639 0.8190136 0.03885639 -0.117975585
000270 e0 30 18 bf f9 ba d3 3e 5d 27 00 bd 0d 5c 59 3e
       -0.5944958 0.41353586 -0.03128754 0.21226521
000280 01 25 b4 be dd 2f 88 3e ae 70 cc 3e 51 c6 5f be
       -0.35184482 0.26599017 0.39929718 -0.21852995
000290 ef 31 dc be 39 75 1e bf 14 2f 50 bd ea 4c 74 3e
       -0.43006846 -0.6189762 -0.050826147 0.23857465
0002a0 88 a3 ab be 6f 10 1f 3f bd 41 0c 3f 3e 21 a2 3e
       -0.33523202 0.6213445 0.5478781 0.31665987
0002b0 54 c6 48 bd 7e 9c 28 3f ad 1f b0 3e 67 30 35 3e
       -0.049017265 0.6586379 0.34399167 0.17694245
0002c0 41 eb 43 3f a2 f0 c1 3d d5 cf 32 3e ec aa b1 bd
       0.76530844 0.09469725 0.17462094 -0.08675179
0002d0 b8 07 3b 3e ac ac ed 3d 85 50 df 3e 4b 8e 80 3e
       0.18264663 0.116052 0.4361612 0.2510856
0002e0 04 8a 2b bd 32 c7 a3 3d ec 42 8f 3f 73 02 51 3e
       -0.04187967 0.07996978 1.1192298 0.2041109
0002f0 ae f0 2a be b1 5f a7 be 34 77 bd 3e 0b 28 a4 be
       -0.16693375 -0.32690194 0.37005007 -0.320618
000300 48 32 e6 bd 87 4b 2f be 83 43 0d bf b1 57 03 bf
       -0.11240059 -0.17118655 -0.5518114 -0.5130568
000310 f7 8a e2 3d e4 ac aa 3e 88 cf b1 be 9d c0 da 3c
       0.11061662 0.3333503 -0.34728646 0.026703173
000320 85 db df be df ee 1c bf 88 64 a5 3a 36 05 1b 3d
       -0.43722168 -0.6130199 0.0012618462 0.037846766
000330 ac a1 3f 3e 8a 94 a0 3e 5f 9b 53 bf 42 e1 2d 3f
       0.18714017 0.31363326 -0.8265895 0.6792184
000340 1c 06 c9 bd 34 ec 85 bd b0 bb f3 3d 02 7b 16 3f
       -0.098156184 -0.06539193 0.11901033 0.58781445
000350 9c 71 f4 be 1d d7 ac 3e d4 bc 5f 3d fb df cb 3e
       -0.47742927 0.33757868 0.05462344 0.3981932
000360 ad 3b 27 bf 4e 38 86 3d 59 56 2e 3f 2e 32 b6 bc
       -0.65325433 0.06553708 0.68100506 -0.022240724
000370 d9 e2 d2 3e d5 62 be be 5d e9 08 3f f4 18 64 3d
       0.41188696 -0.37184778 0.53481084 0.05568786
000380 5a 39 ca 3e 80 dc 06 3f d4 54 e6 bd 92 ec 91 bc
       0.3949688 0.52680206 -0.112466484 -0.017813
000390 ce 0a 78 be ee 0e 77 bf 28 60 1e 3e 4b 32 28 3f
       -0.24222872 -0.96507156 0.15466368 0.6570174
0003a0 18 74 c4 be 6f 5f af 3e 86 4a 53 3e 20 39 cb be
       -0.38369823 0.34252498 0.20633897 -0.3969202
0003b0 be 3b 36 3e 77 36 9c be 41 72 cd be 16 09 8c be
       0.17796227 -0.30510303 -0.4012623 -0.27350682
0003c0 46 29 71 bd 40 2a 4d 3d 60 f0 49 be be 56 67 bf
       -0.058877252 0.05008912 -0.19720602 -0.90366733
0003d0 42 fb 77 3e bf b6 25 3e a9 ac 9f be e3 7a a2 3e
       0.24216941 0.16182993 -0.31186417 0.3173438
0003e0 bd fc 95 bc 79 45 0c 3d b7 28 b7 bd ed 52 4c 3e
       -0.018308992 0.03424594 -0.089433126 0.19953509
0003f0 8e 80 28 bf 4f 9b 4f 3e ee 33 bb be 2d ee 6e be
       -0.6582116 0.2027409 -0.36563057 -0.23333044

network_body._body_endoder.seq_layers.2.bias f4 [256]
000000 d2 d0 3c bd b6 f7 23 3d 6b 74 17 3d 85 64 1c bd
       -0.046097584 0.040031157 0.03697626 -0.0381818
000010 2a 9c 32 3d 27 08 11 3c a1 78 06 bc 71 10 37 3d
       0.04360596 0.008852041 -0.008207471 0.044693414
000020 ac e1 58 3d fb 29 80 3c 77 d7 00 3c 5f f7 ba bc
       0.052949592 0.015645018 0.007863871 -0.022823034
000030 84 3c 3d 3d 1c 0a ad bc 9a f3 ed bc 82 79 a4 bc
       0.04620029 -0.021122985 -0.029046822 -0.02007747
000040 63 66 51 3d 06 85 31 bd 44 28 c4 3c d6 dc 88 3c
       0.051123034 -0.04333975 0.023944981 0.016706865
000050 7e 40 98 bc 41 ec be bb 3e fd 16 3c 9c ed 17 3c
       -0.01858544 -0.0058265035 0.009215651 0.009272959
000060 09 b7 0d 3d 64 cb 42 3d e3 f9 cc 3c 8b 2e f1 3c
       0.034598384 0.04755725 0.025021499 0.029441139
000070 73 76 26 3d 36 70 26 bb 3e a6 a8 bc 48 5c 3a bd
       0.040640306 -0.0025396473 -0.020587083 -0.045498163
000080 ad 10 9a 3c 61 f4 4d 3d 5a 8b 41 3d 94 b5 da 3c
       0.01880678 0.050281886 0.047252037 0.026697911
000090 ae 61 dd 3c ba bc 6d 3d 32 bc d7 3c c7 44 bb bc
       0.027024116 0.05804131 0.026334856 -0.022859944
0000a0 bc 03 50 3c 65 ba b1 bc 72 9c 9c 3c 1b ad 38 3d
       0.012696203 -0.021695325 0.019117568 0.04508696
0000b0 e1 2d e0 3c 57 14 fe 3c 02 48 26 bd c3 21 43 3d
       0.027365627 0.031015558 -0.040596016 0.04763962
0000c0 71 04 4c 3d 3c a4 3f bd 0e 45 52 3d e1 73 54 bd
       0.049808923 -0.046787485 0.051335387 -0.051868323
0000d0 09 38 0d 3d 3c 8d 02 3d 39 50 3f 3d 0d f5 eb 3c
       0.034477267 0.031872973 0.046707366 0.028803373
0000e0 2c 14 00 3d c5 b0 15 3d a2 55 07 3d d4 34 3b 3d
       0.031269237 0.036545534 0.03304065 0.045704678
0000f0 ad 8a 38 3d 49 f3 31 bd 8a c1 17 3d 6d 2d 40 bd
       0.045054127 -0.043444905 0.037049808 -0.04691832
000100 f1 a1 30 3d 65 cc aa bb c3 8c 50 bd 20 0c 2b bd
       0.04312319 -0.005212354 -0.05091549 -0.04175961
000110 27 82 0c bd 52 c3 02 3d 00 73 7c bc 5e f3 2c 3d
       -0.03430381 0.031924553 -0.0154082775 0.04222428
000120 c7 63 26 bd 77 6d 3d 3d ec 17 4b 3b 05 46 3b 3d
       -0.0406225 0.046246972 0.00309896 0.045721073
000130 85 24 59 3d 95 02 02 bd 43 9d 35 3d 96 d3 a0 bc
       0.053013343 -0.031740744 0.04433943 -0.019632142
000140 10 37 24 3c 27 4c 10 bb 1b 04 29 bd 1f 65 f1 3c
       0.010022894 -0.0022018047 -0.04126368 0.029467164
000150 1b 37 48 bd 24 68 47 3d 66 fa f4 bc 8e 91 2a bd
       -0.048880678 0.0486833 -0.029904556 -0.041642718
000160 08 0c 2e ba 6f 1d 1d 3d 76 b4 1a 3d cc 25 15 bd
       -0.0006639366 0.03835815 0.037769757 -0.036413
000170 33 c6 de 3a 05 f4 0b 3d 69 93 56 3d b4 68 16 bd
       0.0016996324 0.034168262 0.052386675 -0.036720946
000180 22 dd ef b9 10 94 59 3d 52 e7 e5 bc c3 7f 3d bd
       -0.0004575039 0.05311972 -0.028064404 -0.04626442
000190 02 88 ce 3c 9f a7 93 3c 8d b4 23 3d cd b9 b2 3c
       0.025211338 0.018024264 0.03996711 0.021817112
0001a0 74 80 83 3b 41 b1 c3 bb 27 f6 24 bd ce 21 7b 3c
       0.0040131155 -0.005972058 -0.04027381 0.015327884
0001b0 41 21 7b 3c f9 b9 33 3d bf d9 02 bc ec 2b fb 3c
       0.015327753 0.04387853 -0.007986485 0.030660592
0001c0 75 87 41 bd 71 6d 0c bd d5 a9 a9 3c 45 1e d5 bc
       -0.047248323 -0.03428406 0.020710865 -0.02601541
0001d0 2f 56 6e ba cf 14 f2 3b e4 94 ce bc 89 89 a1 bc
       -0.0009091822 0.0073877345 -0.025217481 -0.019718902
0001e0 07 bd 0a 3d 9b 61 76 3d 49 23 77 3c 67 29 10 bd
       0.033871677 0.060151678 0.015084096 -0.035195734
0001f0 8d 4e 03 3d 9b 7f dd bc 72 f2 3c bd 9e 69 0d bd
       0.032057334 -0.027038386 -0.04612965 -0.034524553
000200 42 6a 31 bd 41 24 e6 3c 29 f2 34 3d 4e a1 31 bd
       -0.043314226 0.02809346 0.044176254 -0.043366723
000210 2d d0 07 3c b0 88 c8 bc 17 b7 2b bd 8e 10 36 3d
       0.008289379 -0.02447924 -0.041922655 0.04444938
000220 14 08 1a 3d 86 46 04 3d c8 80 17 3d 2f f0 1f 3d
       0.03760536 0.03229382 0.03698805 0.039047416
000230 e5 06 0e bd 1a c1 15 bc 8f 98 2a bc 4b 3a 62 3d
       -0.034674544 -0.009140277 -0.010412349 0.055231374
000240 87 9d 5d 3d 66 de 2a 3d 86 97 44 3d 5c 77 d9 3c
       0.054105308 0.041716002 0.047996067 0.026546173
000250 9f 53 18 3d ae 83 99 3c 0b 77 65 bc 8a 32 37 3d
       0.037189122 0.018739548 -0.014005433 0.044725932
000260 f7 26 05 3d 18 79 a9 3c bd 50 2a 3d 36 cb de bc
       0.032507863 0.020687625 0.041580904 -0.027196508
000270 68 7b e4 bc 32 f1 b9 3c a6 fa 81 3c 96 e4 0a bd
       -0.027890876 0.022698019 0.015866589 -0.033909403
000280 2a f9 7b bc 72 fd a0 3c 58 f7 53 3d 66 ee d6 3c
       -0.01537923 0.019652102 0.051749557 0.026236724
000290 b0 56 70 3d 4b 3d 5e 3c 5e 39 8b 3c 53 bf a1 bc
       0.05867642 0.013564418 0.016995128 -0.01974455
0002a0 3b fc ba bc d3 23 56 bc 7f ab 33 3d 2f 02 51 3d
       -0.022825351 -0.013070065 0.043864723 0.051027473
0002b0 0a e6 a2 3c 97 31 28 3d dc 13 a4 bb f3 fa 20 bd
       0.019885082 0.041062918 -0.0050072502 -0.039301824
0002c0 a9 fe 52 bd 36 c6 5d 3d ae 5e 96 bb 6b 06 36 3d
       -0.051512394 0.054144107 -0.0045889234 0.044439714
0002d0 42 df 96 bc 78 a4 15 3b 70 57 bb 3b 39 2a 92 bc
       -0.018417004 0.0022833627 0.0057172105 -0.017842399
0002e0 96 28 4b 3d 59 df d1 3c 42 ee 41 3d 11 80 05 bb
       0.049599253 0.025619196 0.04734636 -0.0020370523
0002f0 59 12 a2 3c c2 8f 11 3d 21 29 e8 3c 7d ea 16 3d
       0.01978414 0.03553749 0.028339924 0.03684472
000300 23 1f 1a 3d 75 75 33 3d 3c f2 a6 bc 8b 80 12 bd
       0.03762735 0.043813188 -0.020379178 -0.03576712
000310 44 a6 49 3d 85 97 e9 3c bd ce 53 bd 32 cc 03 bd
       0.04923083 0.028514633 -0.051710833 -0.032177158
000320 64 6e 12 3b 30 63 60 3d 14 aa 34 3d 63 c5 88 3b
       0.002234363 0.054782093 0.04410751 0.004173921
000330 c4 19 15 bb 09 b7 20 3d ef 2b 12 bd 4b b7 02 3d
       -0.0022750953 0.039237056 -0.03568643 0.031913083
000340 d8 35 2e 36 88 32 01 bd 68 99 49 bd 8a d4 28 bd
       2.5959362e-06 -0.03154233 -0.049218565 -0.041218318
000350 12 9e 53 ba 6f 69 67 3d ec d4 b6 bc 42 3b 1d bd
       -0.00080725655 0.056497034 -0.022318326 -0.03838659
000360 a2 bc dc bb 7a 55 29 3d 86 8d 36 3d c5 91 cb bc
       -0.006736354 0.041341282 0.04456856 -0.024849782
000370 ba b6 00 bd df 58 1e 3d 4e 35 d4 3c a7 39 5c 3d
       -0.03142426 0.038658973 0.025904324 0.05376592
000380 5c 87 d4 3c 86 75 49 3d dd f3 27 3d 35 de a5 bc
       0.02594345 0.049184345 0.04100405 -0.020247558
000390 1e 86 07 3d 93 50 4b 3d f7 61 25 39 4f f3 20 3d
       0.03308689 0.04963739 0.00015772121 0.039294537
0003a0 18 b6 5c bc d7 76 26 3d 78 3e 0f 3d e3 93 a5 bc
       -0.013471149 0.04064068 0.034971684 -0.02021212
0003b0 a0 6b 4b 3d 4e 15 5a 3d d1 e8 89 3c 70 06 14 3d
       0.049663186 0.053242974 0.016834648 0.03613895
0003c0 12 3b 15 3d 48 06 ef 3b b3 c3 c5 bc 37 65 d8 bc
       0.036433287 0.00729445 -0.024141168 -0.02641545
0003d0 f0 56 b6 3c 24 ab 50 bc 00 3c bc 3c 21 23 09 3d
       0.022258252 -0.012736116 0.022977829 0.033480767
0003e0 3f 58 3d 3d 30 3a ce 3c 59 57 36 3d 56 d3 f5 3c
       0.046226736 0.02517423 0.044516895 0.030008
0003f0 5e da 46 bd a2 ab bf bc 3f e9 1e bd ae 71 38 3d
       -0.048548095 -0.02339727 -0.03879666 0.04503029

network_body._body_endoder.seq_layers.2.weight f4 [256, 256]
000000 1c 2b 29 3d 6c 5d 04 bd 23 90 0d be 96 ca 58 3d
       0.041300878 -0.032315657 -0.13824515 0.052927576
000010 65 aa 31 bb fc f6 e0 bd c8 f2 f0 3c fa d8 c0 bd
       -0.002710962 -0.109846085 0.029412642 -0.09416385
000020 7b 0f 35 bd 72 b9 06 3a db 76 d5 3c 7b 8f ec 3c
       -0.044204216 0.0005139328 0.026057651 0.02887701
000030 5a ce 90 bd 20 64 cc 3b 59 64 c4 bd 22 6e 42 bc
       -0.070706084 0.006237522 -0.09589452 -0.011867078
000040 f4 da e6 bc bf b9 44 bd fe 92 04 bd 04 f3 05 3c
       -0.028180577 -0.048028704 -0.032366745 0.008175615
000050 7e 2e a8 bc c8 4b 9f 3d c4 b9 48 bd f4 df 89 bd
       -0.020529982 0.07778126 -0.049005285 -0.06732169
000060 b9 b3 42 3e d7 cb 13 bd 0e 65 da bd bb ce 0c 3d
       0.19013871 -0.03608307 -0.10663806 0.03437684
000070 13 ee 6f bd 2b fd 08 bd 5d 2f dd bd 7e 9a a2 3c
       -0.058576655 -0.033444565 -0.108000495 0.019849058
000080 a0 f0 06 bb 7c 48 7b 3d 0f 14 64 3d 23 df 92 3d
       -0.00205902 0.061348423 0.055683192 0.07171466
000090 ab 43 5c 3d fb 8a 2e be f4 0d b9 3d 87 8f a7 bd
       0.05377547 -0.17045204 0.090358645 -0.081816725
0000a0 ce c4 94 bd d2 2f e6 3c af 4d b4 3c 41 5c e8 bd
       -0.072641 0.028098974 0.022009699 -0.11345721
0000b0 ab 30 9e bd 86 6e 5b bc 4b 51 6e bd 97 62 98 bd
       -0.077241264 -0.01339305 -0.058182996 -0.074406795
0000c0 f5 dc 4b bc b7 98 a0 3c 49 98 18 3d 54 79 8e bd
       -0.012442817 0.01960407 0.037254605 -0.06956735
0000d0 09 aa d7 bb 26 8d d3 bd b0 98 55 bd 48 71 a9 bc
       -0.006581549 -0.10329656 -0.052147567 -0.0206839
0000e0 97 a9 05 be b9 cd 0e 3e cb 51 db bd 16 d4 24 bd
       -0.13052975 0.13945664 -0.1070896 -0.040241323
0000f0 a1 a8 c5 bc 18 5c 3e bd d2 e1 e1 bd d3 1a 88 bc
       -0.02412826 -0.046474546 -0.110294 -0.016614353
000100 f7 7c 4c bd 2a b9 49 bd 0a 37 04 3d 26 b0 f3 3d
       -0.049923863 -0.04924885 0.03227905 0.11898832
000110 b8 2c 5e bd 69 d0 20 3a 47 51 b2 3c a8 7a 17 bd
       -0.054241866 0.0006134571 0.021767272 -0.03698221
000120 e9 11 fd 3a 1d b2 26 3e 74 1a 22 3d b1 cf 59 bd
       0.0019307706 0.16278882 0.03957601 -0.053176586
000130 4e 1a fc 3b 9b 51 36 3d 5d 62 0f bd ef 6a 6d 3d
       0.0076935655 0.04451142 -0.035005916 0.057963308
000140 2c 48 e9 bb 71 cb d4 bd bc 10 4a 3d c1 24 f7 3c
       -0.0071191993 -0.10390366 0.049332365 0.030168893
000150 db e3 b5 bc 89 ae 2f bc e7 13 b0 3c 9e ae 2a 3c
       -0.022203377 -0.010722765 0.021493865 0.010417609
000160 72 5b d6 bd 07 ce 04 3c 40 a8 88 bd 93 e7 03 bd
       -0.104666606 0.008105761 -0.06672716 -0.03220327
000170 4a 26 77 3d 7e cf d1 bd 3a 53 90 3d 24 e0 fa 3b
       0.06033925 -0.10244654 0.07047124 0.007656114
000180 a1 f0 1c bd ce 26 aa 3c 3b e5 5c 3c 84 e0 3e 3d
       -0.03831542 0.020770457 0.013482387 0.046600834
000190 56 3f 4c 3e 5c c0 b1 3d 20 a1 42 3d c8 9f 30 3c
       0.19946036 0.08679268 0.047516942 0.010780282
0001a0 23 e6 b7 bd 31 26 18 be 6a da 5d bd 8d dd 84 bc
       -0.08979442 -0.14858319 -0.054163374 -0.016218925
0001b0 81 fa 60 bd eb 4d 5c 3d 77 74 f1 bd 03 37 77 3d
       -0.0549264 0.053785246 -0.11789792 0.060355198
0001c0 be d8 30 bd ed a8 e8 bb ca 4b 94 bd da 32 2e be
       -0.04317545 -0.0071002156 -0.07241018 -0.17011586
0001d0 75 ce d2 bb 27 1f c9 3d a3 2c 85 bd 6f 5d d3 3d
       -0.006433303 0.09820395 -0.065026544 0.103205554
0001e0 5b f2 4b bc f7 48 b9 bd 67 c0 3e bd 63 93 90 bd
       -0.012447919 -0.0904712 -0.046570208 -0.07059362
0001f0 bd 10 b4 3c 84 92 82 bd 2c e9 b4 3c cd 93 1d 3e
       0.021980638 -0.06375602 0.022083841 0.15388413
000200 ed 96 92 bd 59 0b 65 bc 74 50 cb bd 14 e5 c8 3c
       -0.07157693 -0.013979756 -0.099274546 0.024523295
000210 79 aa 7d bd 69 dd d3 3c 20 7d dc 3d e9 28 f1 bc
       -0.061930154 0.025862413 0.10766053 -0.029438453
000220 01 40 9a 3c 8d ee 68 bd f5 96 bc bd 6f 41 b5 bc
       0.018829348 -0.056868125 -0.0920848 -0.022125928
000230 3d d9 67 bc 46 90 97 3d bb 0e 8e 3c 50 bd 26 3d
       -0.014150915 0.07400565 0.017341008 0.040707886
000240 78 8e 1e 3b f1 e7 14 bd c1 b3 0f bd 4f eb 8a 3d
       0.0024193805 -0.03635401 -0.035083536 0.06783163
000250 e9 0f af 3c ca a2 d4 bc 02 47 65 bc 12 7c 51 bd
       0.021369891 -0.02595653 -0.01399398 -0.051143713
000260 54 c3 0b be 95 f1 41 bd 44 79 37 3c db 03 8b bd
       -0.1364873 -0.04734953 0.011198346 -0.06787845
000270 cf 42 e7 bd 71 6c a7 39 16 52 ea bd bc 81 0d be
       -0.112920396 0.00031933517 -0.11441438 -0.13819021
000280 ea 33 45 3d 39 54 23 bd 7c 48 3b bb dc 29 b3 3d
       0.048145212 -0.039875243 -0.002857714 0.087482184
000290 17 e5 d5 3c 1d 25 0b bc 3f 17 a6 ba ea f8 f2 bc
       0.026110215 -0.008492735 -0.0012671723 -0.029659707
0002a0 6d 8e c9 bd 4d 76 b3 bd 43 c8 36 bd b4 43 45 3c
       -0.09841619 -0.087627985 -0.04462458 0.012040067
0002b0 46 c9 34 3d ff 94 20 3d 47 2a 19 be c4 f3 0b 3d
       0.04413726 0.039204594 -0.14957534 0.03416802
0002c0 76 10 43 3d bc 9c 6f bc 7e dd b7 bd df 00 af bd
       0.04762312 -0.014624771 -0.08977793 -0.08545088
0002d0 c2 ce 63 3d b9 39 06 bd dd 70 4d bc 80 8e 26 bc
       0.0556171 -0.032769892 -0.012539116 -0.010165811
0002e0 f5 3b 12 be b0 c0 08 3a 5f 7f 05 3d f2 bd e0 bc
       -0.14280684 0.0005216701 0.032592174 -0.027434323
0002f0 ec cc f7 bd d6 5f c8 bc ae 92 21 bd 92 e6 cb bd
       -0.120996326 -0.02445976 -0.039446525 -0.09956087
000300 9c 48 16 3d ac 8b a0 bb 46 9f b3 bd c8 9a 09 3e
       0.03669034 -0.0048994627 -0.08770613 0.1343795
000310 39 5f 4e bc 93 5e fa 3d a0 6c b7 3c dc 8c c8 bc
       -0.012595945 0.1222507 0.022390664 -0.02448123
000320 a0 5a 52 3c 3b f3 99 3d 26 c7 82 bd 94 ec 85 bc
       0.0128389895 0.07517096 -0.06385641 -0.01634816
000330 b6 4f e9 bd 48 e8 93 3d 41 6c 4b 3c a2 e8 4c 3d
       -0.11392157 0.072220385 0.012415946 0.050026543
000340 7e ea 84 bd b4 de 23 3d 03 6e ef bd 30 f7 47 3d
       -0.06490038 0.040007308 -0.11690905 0.04881972
000350 d5 bc 9a bd 6d 54 f8 bd 1b 81 b1 bc 5f f7 d1 bc
       -0.07555548 -0.12125478 -0.021668008 -0.025630651
000360 6d 7e 99 bd ba 66 64 bc 89 f4 44 bd bb eb 4e 3d
       -0.07494817 -0.013940508 -0.04808477 0.05051778
000370 9b bb ed 3d 79 4f 37 3d 4d 1e 33 bb 87 4c 48 be
       0.116080485 0.044753525 -0.0027331293 -0.19560443
000380 67 13 6a 3d c9 47 19 3a cb 4b 8e bd ba a7 a5 3d
       0.05714741 0.00058471836 -0.0694805 0.08088632
000390 1d c0 14 3c 24 fa a3 3c cc 59 e8 bd de 7b dd bd
       0.0090790065 0.020016737 -0.113452524 -0.108146414
0003a0 16 d8 22 bc e8 d4 c4 bd 9e c0 e9 bc 16 27 97 bd
       -0.009939214 -0.09610921 -0.02853423 -0.07380502
0003b0 f5 f2 0f 3d 54 f1 66 3d f7 2b 0f 3d 95 e7 70 3d
       0.03514381 0.056382492 0.034954038 0.058814604
0003c0 43 fc 70 3d 5b e8 ce 3d 52 02 57 3d 45 81 f8 bd
       0.058834326 0.10102912 0.052492447 -0.12134031
0003d0 0f 40 28 3d 7b 8a 51 bc e4 33 b3 bc bb 38 ea 3b
       0.041076716 -0.012789364 -0.02187533 0.007147876
0003e0 e9 22 d8 3d 37 d3 c9 bb 33 50 0b 3d 9e 47 09 be
       0.105535336 -0.006159212 0.03401203 -0.13406226
0003f0 28 fb a2 3c a0 c2 54 bc 30 04 ab 3d e5 d8 23 3e
       0.019895151 -0.012985855 0.08350408 0.16000707

network_body._body_endoder.seq_layers.4.bias f4 [256]
000000 77 92 54 3b 74 00 56 bc ce 5f 0c 3d b0 2e cb bc
       0.0032435933 -0.0130616315 0.034271054 -0.024802536
000010 1d 91 60 bc e7 82 e9 3c c9 34 63 bc 6a 67 76 bc
       -0.013706473 0.028504802 -0.013867565 -0.015039304
000020 de f8 ed bc 1a d5 da bc 88 7a d9 3c 6b 98 1c 3c
       -0.029049333 -0.026712943 0.026547685 0.009557824
000030 96 f7 32 3d 8e 5f 2c 3d 1d 52 00 3c 77 4c bf bc
       0.043693148 0.042083316 0.007832077 -0.023351891
000040 60 eb 1d 3d 36 b3 83 bc 34 73 fc 3c 14 ce 3d 3d
       0.03855455 -0.016076665 0.030816652 0.04633911
000050 54 2b 30 3d 58 bc 0b 3d cf 86 01 3d 9a 9f ff 3c
       0.04301007 0.034115165 0.031622704 0.031204034
000060 ef b0 ff 3c b3 1c dc 3c ff 07 e0 3c 35 59 0c 3d
       0.031212298 0.026869154 0.027347563 0.034264762
000070 7a 7f 3d bc 60 c6 f5 bc 09 6d 25 bc d6 80 ea 3c
       -0.011566037 -0.03000182 -0.010096797 0.028625887
000080 f8 58 1c 3d 6f 96 2f 3d d0 3a 29 bc 54 c4 cb bc
       0.038170785 0.042868074 -0.010328963 -0.02487389
000090 1d 76 f3 3c 27 59 17 3d 80 35 85 bc 59 0f d9 3b
       0.029719407 0.036950257 -0.016260862 0.006624144
0000a0 9b d9 02 3d 7d ce 15 3d e5 a2 01 3d 25 5e a0 bc
       0.031945806 0.036573876 0.03164949 -0.019576142
0000b0 ad e7 25 bc 74 8f 47 3c a0 8a 30 3d 54 84 c8 bb
       -0.010126037 0.012180198 0.043100953 -0.0061192904
0000c0 29 ef a7 3c c9 c5 8d bb 9d 9f 62 bc b7 a1 1f 3c
       0.020499783 -0.0043265563 -0.013832 0.009743146
0000d0 6b 65 e6 bc 3a 70 15 3d 5f 7d 8f bb 44 4f 4a 3d
       -0.028124532 0.03648398 -0.004378959 0.049392
0000e0 44 cf be bc 17 94 ee 3c 64 92 22 3d 2b ad 2f 3d
       -0.023292191 0.02912335 0.03969039 0.042889755
0000f0 b0 d4 20 3d e8 56 1d 3d fa 2c 02 3d d8 89 22 3d
       0.039265335 0.03841296 0.031781174 0.03968224
000100 5b d3 ca 3c 86 fc 30 ba 43 ca 83 bc 37 17 88 bc
       0.024758985 -0.0006751496 -0.016087657 -0.016612632
000110 48 09 a5 bc 5f d0 3e 3c 74 bd b7 bc b4 5c 07 3d
       -0.020146027 0.011646359 -0.022429205 0.033047393
000120 a3 9a 9c bc 60 fa 21 bc a2 5f 24 3d fa 03 bd 3c
       -0.019116705 -0.009886354 0.040130265 0.023073185
000130 b5 3b f3 bb 9e f2 0c 3c a8 f3 fa 3b d4 38 fb 3c
       -0.007422889 0.008602766 0.0076584406 0.030666746
000140 b4 3f 10 3d 9e 54 fb 3c 24 c9 2d bc 4e 12 df 3a
       0.035217002 0.030679997 -0.010607038 0.0017019005
000150 6e 41 99 3c c6 00 00 3c dc a9 f4 3c ad e1 2d 3d
       0.018707957 0.007812684 0.029866152 0.04245155
000160 2b 7d b6 bc 9e f8 f0 3c ba 91 41 3b 49 18 80 bc
       -0.022276482 0.029415425 0.0029536323 -0.01563658
000170 55 67 23 3d d8 92 2c 3d 48 9f fa 3a 0e a8 ef b9
       0.039893467 0.04213223 0.0019120956 -0.00045710843
000180 ea 94 6a bc 51 e8 d3 3c 0f 44 d2 3c 2d ff a9 3c
       -0.01431773 0.025867613 0.025667218 0.02075156
000190 57 fb d3 bc 1a 2b 37 3d be 41 62 3c 0d 8d 23 3d
       -0.025876684 0.04471884 0.0138096195 0.03992944
0001a0 e1 76 c3 bc 1e e3 01 3d 34 38 cf 3c 43 cf 8a 3c
       -0.023860397 0.031710736 0.025295354 0.016944533
0001b0 87 a2 94 3a 13 14 05 3b 70 64 26 bc 2c 4b 70 3c
       0.0011339941 0.0020306155 -0.010155782 0.01466636
0001c0 fd f5 ff bc 49 49 34 3d f4 76 c4 3c dd 4c f5 3b
       -0.031245226 0.044015203 0.023982503 0.0074859695
0001d0 83 36 01 3d ea a9 10 3d a8 a5 1c 3d e5 70 a1 3c
       0.031546127 0.035318293 0.03824392 0.019707153
0001e0 76 75 45 3d 37 21 6d bc 62 65 f6 3c 3a 01 6b bb
       0.048207723 -0.014473251 0.03007764 -0.0035858885
0001f0 cc 99 08 3d 9e 0f 93 3c d7 90 61 bb a4 66 17 3d
       0.033349797 0.017951783 -0.0034418607 0.03696312
000200 b1 dd 4d 3d 26 03 3c 3d 9c 7c 99 3c 15 90 33 3d
       0.05026025 0.04590144 0.018736176 0.04383858
000210 6e a2 f4 3b 52 57 03 3d 29 48 b6 3c c6 c3 33 bc
       0.007465652 0.032065697 0.022251206 -0.010971969
000220 e5 aa 4f bc e3 35 37 3d 72 ea 3b 3d 48 a0 6d 3c
       -0.012675022 0.044729125 0.04587788 0.014503546
000230 3e 5e f9 bc df 52 5f 3a 94 f9 43 ba ae 3a cf bb
       -0.030440446 0.00085191237 -0.00074758497 -0.006324134
000240 c7 26 bf 3b 80 36 64 bb 29 a1 99 3c e8 7c 25 3c
       0.00583348 -0.0034822524 0.018753605 0.010100581
000250 22 57 ce 3c cb de 23 3d 15 13 a8 bc f8 48 a3 3c
       0.025188033 0.040007394 -0.020516912 0.019932255
000260 50 30 a7 3c fb e2 0d 3d 89 cf df 3c db ad 0a bd
       0.02040878 0.034640294 0.02732064 -0.033857208
000270 44 a0 3f 3d be 95 1d 3d 13 cb 9b 3b ca eb 9c 39
       0.0467837 0.038472883 0.004754433 0.00029930315
000280 4c 33 2d bb e7 fa a9 3c 2a fe 0c 3d e4 5e 1e 3d
       -0.002642828 0.020749522 0.034422077 0.038664714
000290 bc e1 29 3d 76 13 0b bd e5 65 0c 3d a7 c2 20 3d
       0.041475043 -0.033954106 0.03427686 0.039248135
0002a0 82 5b 92 b9 63 7f 07 3d c1 5a ce bb ce 81 87 3b
       -0.0002791547 0.03308047 -0.00629744 0.004135347
0002b0 ad 45 fc 3c a1 e7 42 3d d2 59 40 bc 4f c2 f0 bc
       0.030794943 0.04758418 -0.011740165 -0.029389529
0002c0 89 2d 35 3d 5a 94 f1 bc fa d3 ce 3c 0f e5 a1 3c
       0.04423288 -0.029489685 0.025247563 0.019762544
0002d0 46 ba e4 3c 4e a7 59 bb 2a bf 98 3c d1 5b 9f b9
       0.027920853 -0.0033211294 0.018645842 -0.00030395252
0002e0 d9 d0 33 3d 92 f4 c4 3c eb 83 b2 3c b1 af c8 bc
       0.043900345 0.024042401 0.021791419 -0.024497839
0002f0 2e 45 9f bb fa 72 46 3b 14 ab dc 3b b1 da f5 bb
       -0.004860542 0.0030280934 0.0067342613 -0.0075028767
000300 8d 86 89 3b 4e 01 b1 bb 4a 89 06 bd 94 68 d8 3c
       0.004196948 -0.005401767 -0.032845773 0.026417054
000310 2b 64 9c bc a9 14 f7 3b ec db 3b 3d 4f a5 d9 3c
       -0.019090733 0.0075403047 0.04586403 0.026568083
000320 72 d9 c9 bc d5 c1 b7 3c eb 4d 6f 3c d7 74 9a bc
       -0.024639819 0.022431294 0.014605979 -0.018854542
000330 c8 0b 3f 3d 75 02 0d bd 52 c0 aa bc 92 ac 9b 3c
       0.046642095 -0.03442617 -0.020843659 0.019003186
000340 e3 3c b3 3c 1f 8c 1a 3d 7b b0 4a 3b e6 e2 43 3d
       0.021879619 0.037731286 0.0030927944 0.04782381
000350 cb c1 69 bc 6f fe 13 3d 3c c3 01 3d f1 38 23 3d
       -0.014267395 0.03613132 0.03168033 0.039849225
000360 78 78 32 3d 7b ba 3f 3d 4a bb 08 3c 52 f3 80 bc
       0.04357192 0.0468087 0.008345434 -0.015741024
000370 16 2f f7 3c 92 dc f8 bb 28 7b 9f bc f5 55 14 3d
       0.03017382 -0.0075946534 -0.019467905 0.036214788
000380 c2 5d 03 3c ca b4 22 3d b9 2f 11 3d 51 e3 09 bc
       0.008017959 0.039723195 0.035445902 -0.008416013
000390 e4 16 ff 3c 0d e7 79 3c c4 21 bc 3c 4d c2 f6 3c
       0.031138845 0.015252841 0.02296532 0.030121947
0003a0 45 77 27 bc 90 46 93 bc 3b ba cb bc 0f 44 e8 3c
       -0.010221307 -0.017977983 -0.024869075 0.028352765
0003b0 6f 85 de bc 6d 6a f5 3c ac 76 fa bc 27 28 cf 3c
       -0.027163235 0.029957974 -0.030574165 0.0252877
0003c0 0d e5 e1 bc e7 5f 33 3d ff 8d 2b 3d dd 5e 00 bc
       -0.02757504 0.04379263 0.041883465 -0.007835117
0003d0 7c 02 22 3d 0c db 00 bd 66 c6 a5 ba 42 8c 97 3c
       0.03955315 -0.0314589 -0.0012647628 0.018499497
0003e0 29 fc 0f bc 14 2f 97 bc 62 56 3d 3d 65 59 ab 3c
       -0.008788147 -0.018455066 0.04622496 0.02091665
0003f0 39 22 2b 3d d7 38 30 3d e1 06 1c 3d 9a 1e f3 3c
       0.041780684 0.043022957 0.038092498 0.029677678

network_body._body_endoder.seq_layers.4.weight f4 [256, 256]
000000 c0 a5 91 3d 80 a1 c3 bc 85 d9 18 bd 1f a2 a8 3b
       0.071116924 -0.02388072 -0.037316818 0.0051462795
000010 ba 92 9e 3c ca eb d3 3c ba a9 e0 3d 34 d3 75 3d
       0.019357074 0.025869269 0.10969873 0.060015872
000020 f1 44 cf 3b 3e 5f 36 be 37 17 03 3c 37 6c c3 3c
       0.006325357 -0.1780977 0.00800114 0.023855312
000030 8c 7f 55 3c fd ee 9d 3c 31 e0 b7 3c ab a3 d2 3d
       0.013030898 0.019278998 0.02244577 0.102851234
000040 d5 f0 20 bb c3 54 65 b9 78 11 c7 bb 1f 76 0a 3e
       -0.002455761 -0.00021870718 -0.0060750805 0.13521622
000050 94 8d de 3c 7d 5a a5 bd 0c 50 75 bd ad 44 01 3d
       0.02716712 -0.080739 -0.05989079 0.031559635
000060 e0 18 3e 3d cf fd 92 3c dc dd b4 3c ce 3a 84 3b
       0.04641044 0.017943291 0.022078447 0.0040353304
000070 85 90 b8 3c 09 03 07 3d e0 64 b9 3d b9 a7 69 3d
       0.02252985 0.03296188 0.090524435 0.05704472
000080 02 8d c3 bc 9c 65 fa bc 4f 95 65 bd 12 c4 65 3e
       -0.023870949 -0.03056603 -0.056050595 0.22438076
000090 06 eb 6c 3c 9e dd 84 3b 56 5b 87 3b 51 fe 0f 3d
       0.014460331 0.004054739 0.004130761 0.035154644
0000a0 9e b7 88 bc 2c f0 d2 3d be db 27 bd c5 ab 8b 3d
       -0.016689118 0.102997154 -0.040981047 0.06819872
0000b0 ff 6b 21 3c 74 38 b2 bd 93 21 67 3d b9 d8 15 3e
       0.009852408 -0.08702174 0.056428503 0.14633454
0000c0 2a 74 14 bd 6d 1b ea 3b 79 04 cc bc 95 47 31 3e
       -0.036243595 0.0071443827 -0.024904476 0.17312463
0000d0 af 09 a7 bd d8 62 dc 3d 22 68 24 3d 04 3d 03 bd
       -0.08156144 0.107610404 0.04013837 -0.03204061
0000e0 06 26 7e ba 77 e7 b5 3d 2b 68 99 3d ee a5 dd bd
       -0.0009694997 0.08882039 0.074905716 -0.10822664
0000f0 8f 25 83 bd ad 7d bc bd 85 c7 01 3b f3 6c 14 b9
       -0.06403648 -0.09203658 0.001980276 -0.00014154967
000100 2e 30 30 be 54 4a fe 3d e2 99 d2 3b e4 55 4f bd
       -0.17205879 0.12416521 0.0064270357 -0.05061902
000110 b5 86 c0 3d 8e 29 b3 bd 8c 8e 6f 3d cd d8 62 bd
       0.09400693 -0.0874816 0.058485553 -0.05538254
000120 e3 27 fa 3c 74 a4 65 bc 34 59 80 bd f2 04 7f 3d
       0.030536598 -0.014016259 -0.06267014 0.062260576
000130 92 e4 f5 bd 8c c9 f9 bc f8 94 ae bc b9 d5 5d bd
       -0.12006487 -0.030491613 -0.021311268 -0.0541589
000140 7d 0e 02 3d a8 f9 b0 3d f8 ce f8 bb db 7e d4 bc
       0.0317521 0.08641368 -0.007593032 -0.025939396
000150 93 11 dd bd db 72 76 bd 7c 09 63 3d 61 b3 59 3d
       -0.10794368 -0.06016813 0.055428967 0.053149585
000160 53 57 9c 3d af ca b7 3d c3 e0 13 bc 26 e7 a1 3d
       0.07633843 0.08974206 -0.009025755 0.07905416
000170 7d 8b 42 3d 0a 27 67 3c 93 e2 52 bc 1e dc e6 3a
       0.047496308 0.014108429 -0.012871402 0.0017613207
000180 3d 1b 59 bd e7 42 91 3c 00 02 90 bc 64 83 5c bd
       -0.053004492 0.017732097 -0.017579079 -0.05383624
000190 c9 f0 e7 3d 8d db 1b be 71 31 18 3d 4c 37 2f be
       0.11325223 -0.1522047 0.037156526 -0.17110938
0001a0 28 6f db 3c 3c 32 37 3d d6 64 86 bc d3 a8 28 3d
       0.026786402 0.04472564 -0.016405504 0.04117663
0001b0 79 e3 9b bb 37 cc 24 bd a7 c7 98 bc 92 05 3a bd
       -0.0047573415 -0.040233817 -0.01864989 -0.04541547
0001c0 ec ef a9 3c 72 33 96 bc c9 66 a9 bd 74 26 a8 3d
       0.020744286 -0.018335078 -0.08271558 0.08210459
0001d0 58 d9 88 3c f4 11 92 3d 4c c8 29 3e 8b d7 ac 3d
       0.0167052 0.071323305 0.16580313 0.08439549
0001e0 9b 4b 05 bb 9a 91 eb 3c ec 88 5c bd e2 d2 dd bd
       -0.0020339254 0.028755952 -0.053841516 -0.10831238
0001f0 64 85 2d 3d 3d 7f 58 3d 2f df 27 bc 41 1e bb bc
       0.04236354 0.05285572 -0.010246082 -0.022841575
000200 44 18 28 3d 24 68 b0 bb 47 54 d2 bc c8 95 9f bc
       0.041038767 -0.0053835083 -0.025674952 -0.019480601
000210 ce f6 82 bc 1c 81 06 bd 27 a2 63 bd 75 c8 22 3d
       -0.015986826 -0.032837972 -0.055574562 0.039741952
000220 47 ba 01 3e 49 78 df 3c 88 10 08 3e 7b 4b 25 bd
       0.12668715 0.027279036 0.13287556 -0.040355187
000230 6c 51 aa bd 0f 96 b8 3c 90 76 23 3d da d3 e1 3d
       -0.08316311 0.022532491 0.039907992 0.110267356
000240 4e f1 69 3c 3b 13 c3 3c f8 3e b9 3d a3 d9 fe 3d
       0.014278723 0.02381288 0.090452135 0.12443855
000250 10 b6 39 bd f2 7e 28 be e0 a1 cb 3a 82 eb ed bc
       -0.045339644 -0.16454676 0.0015535913 -0.029042963
000260 07 39 0c 3e a7 59 ae bd 70 d0 2c 3e b4 15 2e 3d
       0.13693629 -0.085131936 0.16876388 0.042501166
000270 eb 95 a7 3c 85 0e a7 bd 7d 1f 0b be b7 0b ab bc
       0.020457229 -0.08157066 -0.1358623 -0.02087961
000280 f1 56 1b be 1a 8e e2 3d 44 81 6b 3c 10 32 92 bd
       -0.15169884 0.1106226 0.014374081 -0.07138455
000290 bb 1a 57 3d 15 d2 b3 3d a6 0a 10 be 3f b7 5a bd
       0.052515727 0.08780304 -0.14066562 -0.053397413
0002a0 68 64 4b bd df 0d eb 3d ee 86 28 3b bc fe 1b 3c
       -0.0496563 0.11477255 0.002571519 0.009521183
0002b0 e1 12 36 3c 4f 6c 4d bc 68 88 68 bd 9b e1 68 bd
       0.0111128995 -0.01253803 -0.056770712 -0.05685578
0002c0 98 58 20 be 70 6f c9 3c 0d d5 c2 bc 08 38 86 3b
       -0.15658796 0.02458927 -0.023783231 0.004096035
0002d0 3e 03 dd bc 00 82 7b 3d 0a 96 b1 bd b2 c0 50 3d
       -0.026979085 0.061403275 -0.08671196 0.05096502
0002e0 72 0b 5d bd 61 fb ce 3b 64 80 83 3d 80 b7 03 bd
       -0.053965993 0.006316588 0.06420973 -0.03215742
0002f0 ea ae d9 3d 8b d6 70 bd ca dd 8e bd 8c 7b 74 be
       0.10629065 -0.058798354 -0.06975897 -0.23875254
000300 26 74 07 3b da 4d d1 bc fc df ca bd cd 56 9f 3d
       0.0020668595 -0.025549818 -0.09906003 0.07780228
000310 f3 e6 b0 bc 7c c0 3a bd 74 f3 94 bd 17 7a 43 3d
       -0.0215945 -0.045593724 -0.072729975 0.047723856
000320 18 2b 37 bc f0 07 bb 3d f5 f7 85 bd 12 0c 1c 3d
       -0.011179708 0.09132373 -0.06541435 0.03809745
000330 58 4e 8c 3d b0 28 00 bd 85 e8 67 bd 03 2c 1a 3d
       0.068508804 -0.031288803 -0.056618232 0.03763963
000340 0a a1 9c bd 06 fc e4 bc f2 41 da 3c 04 27 f9 bd
       -0.07647903 -0.027952205 0.026642773 -0.12165645
000350 d3 27 dc 3c ec 36 ea 3c ba 9c 65 3d b8 38 0b 3d
       0.026874458 0.028590642 0.05605767 0.033989638
000360 7f df ec 3d 49 da af 3c b4 07 c6 bd 3d fd 18 3d
       0.11566066 0.021466391 -0.09669438 0.03735088
000370 c6 05 84 3d 03 b4 20 be c7 20 27 bd 21 16 83 3d
       0.06446414 -0.15693669 -0.040802743 0.06400705
000380 11 4e 75 bc bb 6f 79 3d 27 c6 e5 bd 77 04 1c be
       -0.014972226 0.06089757 -0.11219435 -0.15236078
000390 c6 96 eb bc 5c 3f 8b 3d e4 04 78 3a 23 23 8c bc
       -0.028758418 0.06799194 0.0009461178 -0.017106598
0003a0 68 70 4b 3c 10 04 17 bb 53 c3 e7 3b 5a 01 38 3d
       0.012416936 -0.0023043193 0.007072845 0.044923164
0003b0 0e ba a5 3c f9 3e 72 3b 76 0b 86 bd 28 70 b1 3c
       0.02023032 0.0036963804 -0.06545155 0.021659926
0003c0 22 aa 9a 3d b1 ee e8 3d 5f 66 c5 3d 27 d7 1b 3b
       0.075519815 0.11373652 0.09638666 0.0023779364
0003d0 79 17 a3 bd a9 67 fe 3c a3 b0 a1 bd f7 7d 37 bd
       -0.079634614 0.031055288 -0.07895019 -0.044797864
0003e0 a1 92 2d bc e4 66 00 3c 6b 20 a4 bb ab 0b b6 bd
       -0.010594041 0.007837031 -0.0050087473 -0.08888944
0003f0 3a ea 9c 3d 8f c3 94 3d 60 2d a3 3b 52 50 52 bd
       0.07661863 0.07263862 0.0049797744 -0.05134613

network_body.observation_encoder.processors.0.normalizer.running_mean f4 [6]
000000 7a 29 0a 42 ed c5 ad 40 63 34 69 42 80 1f 01 c2
       34.540504 5.430411 58.30116 -32.28076
000010 0d 32 b3 3f 1c 51 8e c2
       1.3999649 -71.15842
