Assets/Training/results/learn_v1_3/MarsTaxi/MarsTaxi-499997.onnx (onnx, 542464 bytes, 10 tensors)

54 f4 [6]
00000000: 9be8 f440 3ead 1041 bb51 1d41 4f35 3b3d
00000010: 3974 1f3b c63c ce3d
7.653394 9.042295 9.832454 0.045705136 0.0024330749 0.10070185

action_model._discrete_distribution.branches.0.bias f4 [6]
00000000: feb5 b53c f4fa bdbb caf4 3cbc d302 e1bc
00000010: 80e5 8fbc 4a14 bc3a
0.022181507 -0.005797738 -0.011532972 -0.027467167 -0.017565489 0.0014349308

action_model._discrete_distribution.branches.0.weight f4 [6, 256]
00000000: 64be 473c 2b67 ecbc 710c a43c 955e cbbc
00000010: be6d c7bc 02c4 8c3c 11e8 efbc e893 f5bc
00000020: 47cb 10bd 0cae d33c 6d16 b03c 330f d83b
00000030: 8472 04bc d04f ba3c 209f 943c a87c 893c
00000040: e310 1a3c ebc9 623b 1572 b9bb 1707 e9bc
00000050: 919f c5bb a627 f9bc 908b 9dbc 23cb f9bc
00000060: 6db3 b43c 9a49 073c 2735 d33c ca9d c93c
00000070: 9549 d73c da60 923c d22a 91bc b854 a73b
00000080: 99f1 af3c c723 f7bc a191 763c 0686 3b3c
00000090: aafd e43c f8c6 8dbc 5459 c53c 9bb9 e13c
000000a0: e60d ed3c 074f ef3c 8519 553c 1483 823c
000000b0: f6b7 d9bc 0ceb 003d 651f 103c 0b7f 07bd
000000c0: 0bc1 753c 4867 413c 9636 8b3b 69f4 4cbc
000000d0: 8794 913c 5d22 b1bb 0852 b8bc b780 303c
000000e0: aef3 6b3c 970a b3bb df8f cebc 73d4 b63c
000000f0: 761d 8c3c bad2 3a3c 1059 c03c 835e a63c
00000100: 116e 823c a88e d83a fc8d b9bc 4a72 ccbc
00000110: 186c ad3c 63cf 55bb 57f2 6b3c 6cf2 8f3c
00000120: 11a4 c1bc fcd8 873c fa1d 4fbc fb03 3d3c
00000130: 414f f2bc db26 913c 8729 e53c 8967 7c3c
00000140: d5dd adbc d2e1 e53c d251 e53b 066c acbc
00000150: 5a6c 88bc a15f 433c 3a12 20bc 6523 d0bc
00000160: ed83 4fbc a217 bebc f2f9 a33c c277 10bd
00000170: bd94 a0b9 8d29 d0bc 3628 743b 3544 ae3c
00000180: c258 92bb 7d03 6c3c e271 a63c 1e60 823b
00000190: e07d a0bc 5ed1 b7bc 523b bc3c 529a e23c
000001a0: d6f7 05bd 808d b3bc 51df a03c 57b6 533c
000001b0: 2b7e 133b 419f ddbc 0564 f3bc 9206 9d3c
000001c0: b6b9 16bd adef 1cbb 6626 383c 028a a4bc
000001d0: 18c1 d4bc 6a71 dfbc 479a bb3c a747 01bd
000001e0: 2580 c63c 3204 873c 5228 e43c d561 cc3c
000001f0: 053c ed3c 5359 fcbc c11a 913c f76e 07bd
00000200: 93e2 e3bc 6f86 04bd 07f3 a63c 6c26 983c
00000210: 9661 2d3c 7a24 343c 16ac 90b9 b48e 87bc
00000220: d38c 313c f3af bd3c 4ec4 493c 29e5 e03b
00000230: 6789 a13c 2528 863c 18b9 d53b 5515 b33a
00000240: ff4e b9bc 56de 4c3c e4e4 3b3c f2b5 053d
00000250: 2dd2 943b e2a9 0abd c359 00bd 0372 3d3c
00000260: 5e80 c33c c364 623c 6ed5 22bc da1e 21bd
00000270: c86e d2bc d553 033d 38dd 4bbc 4da8 bdbc
00000280: 4f42 61ba df34 d73c 03f5 93bc 09de 8f3c
00000290: af89 a13c 5df5 ffbc 4659 5abc f663 bebc
000002a0: 6cbd a4bc 4721 9e3c 513d dc3b 6fd5 efbb
000002b0: 3419 de3b d50a b33c fe67 193c c1e0 d33c
000002c0: 60bf d13c 043d 8d3c 9830 a23c c405 653c
000002d0: 607e 00bd 592a 843c d01d e8bc b8b9 173c
000002e0: f145 ab3c b940 84bb ddee 923c ba25 e4ba
000002f0: 1641 913c 151c 89bb 6763 963c 12a2 c33a
00000300: 0be4 1b38 96ab 523c d603 3ebc 0f55 17bc
00000310: 9b5d f7bc 832a b1bc a6ca 6d3c a823 6e3c
00000320: 982b d63c 7c94 cc3c 6cb8 e5bc eba4 0dbd
00000330: d665 fc3c 6daa 913c 0326 0cbd 5977 f9bc
00000340: 4b1d 64bc eea2 be3c 8810 f2bc 1019 703c
00000350: 4c78 d4bc 699d 033c f270 3b3c ced3 19bc
00000360: e1c4 103c 82f1 4f3c 25b7 b23b 377f 8a3c
00000370: 2325 c5bc 3ce4 b83b c49a 64bc 01dd c2bc
00000380: dd9f 2b3c 5f1e 043c 6001 b2bc 6706 e1bc
00000390: 6df1 4e3c 6a2d 2bbc 83ff 8f3c ad03 c9bc
000003a0: 0c3d 84bc ba7c 573c d462 f7bb 744a e43c
000003b0: a6ea 563c aaec eabc 74bc b43b 9ade a8bc
000003c0: 3535 0a3c 6f91 d9bc 72cd 1abc 04d7 9c3c
000003d0: d07f 213c f6bd 88bb ce7f 023c 8e8c fb3c
000003e0: 33d0 7d3c 65d7 693a cfb8 8e3c 2fb6 cd3b
000003f0: cde5 4fbc da8a ad3c bd05 a7bc 6763 cb3c
0.012191389 -0.028857788 0.020025464 -0.024825374 -0.024344321 0.017183308 -0.029285463 -0.029977754
-0.03535011 0.025839828 0.021495068 0.0065936088 -0.008083943 0.022743136 0.018142283 0.016783074
0.00940344 0.0034605216 -0.0056593516 -0.028445764 -0.0060309847 -0.030414414 -0.019231588 -0.030492371
0.022058213 0.008257294 0.025782181 0.024611373 0.026280204 0.017868448 -0.017720614 0.005106535
0.021477507 -0.030168427 0.015049369 0.011445528 0.027952988 -0.01730679 0.024090447 0.027554324
0.028937291 0.029212488 0.013006573 0.015931644 -0.026576977 0.03147416 0.008796548 -0.033080142
0.014999638 0.011804409 0.0042484505 -0.012509444 0.017771019 -0.0054057078 -0.022500053 0.0107728755
0.0144013595 -0.005463909 -0.025215087 0.0223181 0.017103892 0.01140278 0.023479968 0.020308739
0.015921624 0.0016522007 -0.022650711 -0.024956841 0.021169707 -0.0032624833 0.01440104 0.01757165
-0.023637803 0.016582958 -0.012641424 0.011536594 -0.029578807 0.017718723 0.027973903 0.015405544
-0.021223942 0.028061781 0.006998279 -0.021047603 -0.016653229 0.011924655 -0.009769971 -0.025407502
-0.012665731 -0.023204628 0.020016644 -0.03527046 -0.00030628397 -0.025410438 0.0037255413 0.021272758
-0.004466147 0.014405129 0.020317975 0.003978743 -0.019591272 -0.022438701 0.022977505 0.027661476
-0.032707058 -0.021918058 0.019637736 0.012921891 0.0022505622 -0.027053477 -0.029710779 0.019168172
-0.0367982 -0.0023946569 0.011239624 -0.020085339 -0.02597098 -0.02727576 0.022900714 -0.031562474
0.024231026 0.016481493 0.027851257 0.024948994 0.028959284 -0.030804312 0.017712953 -0.03306481
-0.027818 -0.03235477 0.020379556 0.018573008 0.010582348 0.010995025 -0.00027594034 -0.016547538
0.010836798 0.023155188 0.012314869 0.0068632555 0.019718839 0.016376564 0.006522309 0.0013662974
-0.022620676 0.012504181 0.011468146 0.03264422 0.0045416565 -0.03385342 -0.031335603 0.011562827
0.023864921 0.013817969 -0.009938581 -0.039336063 -0.02568759 0.03206237 -0.012442879 -0.023151541
-0.00085929496 0.026270328 -0.018061167 0.01756193 0.019718973 -0.031244928 -0.0133269485 -0.023241024
-0.020109855 0.019302977 0.0067211767 -0.0073191444 0.006777907 0.021855751 0.009363173 0.025864007
0.02560395 0.017241009 0.019798562 0.013978425 -0.03137052 0.016133474 -0.028334528 0.009260587
0.020907374 -0.004036036 0.017936165 -0.0017406263 0.01773123 -0.004184256 0.018357946 0.001492562
3.716726e-05 0.012858292 -0.011597594 -0.009236588 -0.030196002 -0.021626716 0.014513647 0.014534868
0.026143834 0.024973147 -0.02804204 -0.034581106 0.030810278 0.01778146 -0.03421594 -0.030452417
-0.013923 0.02327105 -0.029548898 0.014654413 -0.025936268 0.008033135 0.0114405025 -0.009388877
0.008836002 0.012691857 0.0054539614 0.016906364 -0.02406556 0.005642442 -0.013952915 -0.023787023
0.010475126 0.008063882 -0.021729171 -0.027468873 0.012630803 -0.010447839 0.017577892 -0.024537886
-0.01614239 0.013152296 -0.007549623 0.027867533 0.013117468 -0.028677303 0.0055156294 -0.020613957
0.008435537 -0.026558606 -0.009448396 0.019145496 0.009857133 -0.0041730357 0.007965041 0.03070667
0.015491533 0.0008920341 0.017422108 0.0062778215 -0.012689066 0.021184374 -0.020388478 0.024827672

network_body._body_endoder.seq_layers.0.bias f4 [256]
00000000: 7db5 c53c e79d 28bd b8d3 1f3d 1c7d 083b
00000010: c376 85bc c8ac 8a3c 9088 1a3d 2e5d 1fbd
00000020: b5d1 d6bb 48d8 1a3d 03c9 fb3c 4132 f53c
00000030: 84f1 763c be6c 09bc e054 ca3c 4981 0a3d
00000040: 3959 533c 644a 48bc bd2a 263d 6a9d 283c
00000050: a6e2 903c 3564 b23c 6dab c53b ea01 eabc
00000060: bfa2 0bbd 8898 c53c cf7b 003c 2e45 23bd
00000070: a64a 20bd a2b0 15bc cb8e 123d cece 15bd
00000080: 3d09 ac3c 594f e43b 7b48 6a3a e41e 0bbd
00000090: 443e fe3c 1936 0e3d 578b 1d3d 927b a9ba
000000a0: 7d66 343c 4821 b73c df41 803c f0fb 123d
000000b0: 5359 9c3c be01 9dbb da95 953a 48a0 9abc
000000c0: a2c5 df3c 50ad 0a3d 891b 0f3d 897a 2e3d
000000d0: 3d14 053d 68b7 dfbb 5938 193d cb94 983b
000000e0: a1d3 0d3d 048e 0abd d331 173a e292 243d
000000f0: 7363 49bc 88a3 a83c 6d89 0e3d 10c1 d83c
00000100: 25e4 073d 0ade f8bc e61b 033d 98b7 b43a
00000110: 865a dbbc ffa3 15bd 1bb4 a2bc c4f8 343c
00000120: d244 98bc 4644 1f3d 14b2 b03c 061c 1b3d
00000130: 4449 0a3d e297 203d 9d84 c03c 35b0 0b3d
00000140: 3a1b 9a3c 38a7 203d 2c32 2e3d 49c9 e83c
00000150: 0301 b73c c329 1abd 2cf9 76bc e689 4e3c
00000160: e885 223d f72b 2b3d 8bc3 cc3c 7742 293d
00000170: ec28 1bbd fec3 fc3c faaf 813c c333 293d
00000180: bd12 093d 79cc 233d 53ff 003d 0377 ea3c
00000190: 18f4 22bc 41a0 673c 8996 1e3d 3e38 a53c
000001a0: ec75 233d c413 103d dfea 013d 5a7b 023d
000001b0: ec39 b13c 217e ad3c 67cb 95bb b6c2 d23c
000001c0: 46d0 323d 8ab2 02bd be10 b93c 7af8 a43c
000001d0: 4e85 e03c d08d fe3c 2592 ee3c 945b 803a
000001e0: 585a bd3c ce23 c93c 84d0 a63c 0df3 f33c
000001f0: 3bd1 1abd 8bab 11bd 6921 d43c ea57 d2bb
00000200: 20b6 243d 7558 243d 221b 9cbb 87ab fdbc
00000210: 8fdd 13bd 17cd 123d 6f4c 563c 565c 2d3d
00000220: 86b2 433c bd9f b43c c2b9 1f3d d206 203c
00000230: db3a f3bc 4d0d af3c 9765 16bd 136f c63c
00000240: 90ac 12bd c148 e93c 92d2 303d 5c66 253d
00000250: d1ae 153d 0024 033d 9fc6 e73c 3d6a d13c
00000260: 8352 143d 40ca 1e3d 06b6 2e3d 1b8a 223d
00000270: e19e e03c 9d65 c2bb d325 23bd 9637 34bb
00000280: 8598 563c d789 e7bb e15d 283d 01e9 f8bb
00000290: b00e 2e3d f723 29bc 9cc2 b23c 957f 1a3d
000002a0: e35e 2f3d c114 8f3c 0012 06bd af9c 1dbd
000002b0: 0582 1e3c 24bd f83c 9d58 0abd 7907 99bc
000002c0: 9703 09bd 401d bb3c 9a83 8a3c 425a 203d
000002d0: 2e49 69bc 774d 243d 5185 f9bb 96e1 323c
000002e0: aaec 273d c85a 2a3d 2b87 d3bb 3f28 7d3c
000002f0: 7815 2dbc 2fbc 2bbd 446c 02bd 52eb 81bb
00000300: 1730 08bd 7ed0 fbbc 7328 f23c 2e4e ca3c
00000310: b515 483c 0099 fdbc adc6 e4bc 6efb aa3c
00000320: eb57 fe3c da6e 463c 241c ebbc 93e0 153d
00000330: 6d89 2b3d f552 763c 737d bf3c 9b7f d13c
00000340: d7b8 703b d593 c03c 80e4 ed3c 4938 17bd
00000350: e79f 023d df3e 8b3c 7dd4 1e3d ae74 2c3d
00000360: 85f3 cdbc 3c45 193d c994 4a3b 81a2 bdbb
00000370: 386c 983c 6318 a53c 7ef4 1b3d 8b6f 20bc
00000380: 1960 083d 95fc 2dbc 4bc4 8f3c 6ace acbc
00000390: 9803 593c a250 073d 0797 143d 3c45 033b
000003a0: e73a 6f3c 8f70 353c 8242 123d 1d96 c8bc
000003b0: 4b5d efbc 1a75 30ba 7c16 ab3c 2499 8f3c
000003c0: 0089 0f3d 8ac5 2a3d 42a0 123d a444 04bd
000003d0: 1b97 1f3d 00b6 e83c e084 253d 556c 4dbc
000003e0: 413b 1abd 71e3 82bb 3a58 1fbd b5c5 00bd
000003f0: c901 0b3d 8a29 123d 61e6 e33c e429 23bd
0.024134392 -0.041166212 0.03902027 0.0020826524 -0.016291982 0.016928092 0.037727892 -0.038907222
-0.0065557607 0.037803918 0.030735498 0.02993119 0.01507223 -0.008387743 0.024698675 0.033814702
0.01289969 -0.012224767 0.040568102 0.010291437 0.0176862 0.021776298 0.0060323984 -0.028565366
-0.034090754 0.024120584 0.007842018 -0.039860897 -0.03913369 -0.009136351 0.03578071 -0.036574177
0.021000499 0.006967467 0.0008937192 -0.033965006 0.03103555 0.03471956 0.038462963 -0.0012930504
0.011010763 0.022354737 0.01565641 0.035884798 0.019085562 -0.0047914675 0.0011412457 -0.018875256
0.027315918 0.03385669 0.03493837 0.042597327 0.032490004 -0.0068272837 0.037407253 0.0046564094
0.034625653 -0.033826843 0.0005767617 0.04017914 -0.012291777 0.02058579 0.03479903 0.026459247
0.03317656 -0.030379314 0.032009028 0.0013787625 -0.026776563 -0.036533352 -0.019861272 0.0110456385
-0.018587504 0.03888347 0.02156929 0.037868522 0.033761278 0.039207347 0.023500735 0.03410359
0.01881181 0.039221972 0.042528316 0.028416293 0.02233935 -0.037637483 -0.015074056 0.01260612
0.039678484 0.041789975 0.024995586 0.04132315 -0.037880823 0.030855175 0.015830982 0.04130913
0.033465136 0.039989922 0.031493496 0.028621202 -0.009945892 0.014137329 0.03871778 0.02016842
0.03990738 0.0351751 0.03171813 0.03185592 0.021634065 0.021178307 -0.0045713666 0.025727611
0.043655656 -0.03190855 0.022590991 0.020138014 0.027407315 0.03107348 0.029122422 0.0009792917
0.023114368 0.024553206 0.0203631 0.029778982 -0.037797194 -0.035563987 0.025894837 -0.0064191716
0.04021275 0.04012342 -0.0047639767 -0.03096558 -0.036099967 0.03584012 0.013079747 0.042324387
0.011944419 0.022048825 0.03899551 0.009767251 -0.02969115 0.021368647 -0.036717977 0.024222886
-0.0358091 0.028477075 0.043169565 0.04038082 0.03654367 0.032016754 0.028292952 0.025563354
0.0362115 0.0387671 0.04265406 0.03968249 0.02741951 -0.0059325234 -0.039830994 -0.0027498952
0.013097887 -0.0070659923 0.041105155 -0.0075961356 0.042494476 -0.010323516 0.021821313 0.037719328
0.0428151 0.01746595 -0.03273201 -0.038479503 0.009674554 0.030363627 -0.033775914 -0.018680321
-0.03345069 0.022841096 0.016908456 0.039148577 -0.014238639 0.04011294 -0.0076147695 0.010918042
0.040997185 0.041590482 -0.0064553223 0.01545149 -0.010564201 -0.041927513 -0.03184153 -0.00396482
-0.033248987 -0.030739065 0.029560303 0.024695482 0.012212207 -0.030956745 -0.027926767 0.020871844
0.031047782 0.01211139 -0.028699942 0.036591124 0.041879106 0.015034427 0.023375249 0.025573542
0.0036731267 0.023507992 0.029039621 -0.036918912 0.031890776 0.016997753 0.038776863 0.042103462
-0.025140533 0.037419543 0.0030911437 -0.0057871942 0.01860629 0.02015323 0.038074963 -0.009792219
0.03329477 -0.010619302 0.017549654 -0.02109452 0.013245486 0.03303588 0.036276843 0.002003028
0.014601446 0.011074199 0.035707958 -0.024485642 -0.02921929 -0.00067313167 0.020884745 0.017529078
0.035042763 0.041692294 0.035797365 -0.032292023 0.038962465 0.028407097 0.040409923 -0.012538035
-0.037654165 -0.0039943983 -0.0389025 -0.031438548 0.03393725 0.035684146 0.027819814 -0.039834872

network_body._body_endoder.seq_layers.0.weight f4 [256, 6]
00000000: 4fdb e93e 5c3f d3be 027d e53e 5e75 eb3e
00000010: b0af f3bd 0472 203c b67b 34bf 14fa 7e3f
00000020: 6034 0b3d 83af af3f 669a 29bd be2e 413e
00000030: 7364 453e 9f97 b0be 46da b3bc 39ec 15bf
00000040: 4487 d1be f686 73be 2f93 183f 89d3 313f
00000050: 0fa3 8ebd 33cd 85be 5a85 70b8 9b34 65be
00000060: 7872 eabe 9d88 7e3e bacd be3e f7e2 acbe
00000070: c014 9cbe db60 b53d 35e2 113f 441e b9be
00000080: ab67 ca3e 173d 14bf 970c 18be 4e2b 213f
00000090: b12d a13e bd82 02bf 9c2d 5cbf a065 c1bd
000000a0: 4665 683e bebb 2f3f bf26 403e 1726 563f
000000b0: 5da3 0abe 114a 163e 06a9 253e 596a 9b3d
000000c0: 38b0 e9bd f136 993e 53ea a0be c77b 6bbd
000000d0: 67c6 ffbe 7466 dcbe aa33 59be 2756 19bf
000000e0: 3364 27be 9ead 003f 00b1 ec3d 5a3f 333f
000000f0: 21b8 183f a156 2a3e f030 3b3d 5d8c fcbc
00000100: 337d 8ebe 0a69 6a3e 8d0d 293d 1069 eabd
00000110: 2a6e cbbe f38a b03e 55da 03bf e02b 39bf
00000120: 29b2 8ebe 030e 233e bede 20be 478e 0e3f
00000130: cecb 3dbd 82c7 0bbe cc83 3a3d 3485 903e
00000140: d7b1 b3bd 9867 e83e c3b4 77be 5330 a83e
00000150: e59d b0be aca9 0abf 0716 f0bd cfc7 a5bd
00000160: 6496 ddbd 81a0 3b3d 9f00 4a3f f411 7f3e
00000170: c114 0bbf b860 87be c186 3ebf 3171 c63e
00000180: feb7 d0be 80e3 a23e 8bfd a93e 191b 3d3e
00000190: 85f3 56be 1eba b9bc 9704 d3bd 3572 223e
000001a0: f312 a53e 7050 5a3e 1a75 d83e d830 cebc
000001b0: bbb0 ebbe fab1 6c3c 694e ccbe 89c4 3fbe
000001c0: 2ceb 523e 0307 ebbd 78b2 2a3e ae4f 91be
000001d0: afbb 323e 3f1f d93e 62bb b3be 1b49 a93e
000001e0: 338e 65be 2bbb d9be bf08 6ebd 7005 76bd
000001f0: dcfd 843e dc97 793e 1375 c13e 1053 68bf
00000200: 338e 893e cc57 01be 71c0 8dbe dbeb 2e3e
00000210: 96de 163f ec00 613e d5e8 9f3e cdff d53e
00000220: f2e3 843e c172 893d c521 993e 8fb0 763f
00000230: 99d9 99be 8efd 80bd aeec b13e bf27 39be
00000240: 25e8 1a3e f3f3 5c3e 7038 5ebb 9588 ea3e
00000250: b1fc 393e a4c6 083e db23 fe3d 2991 c4bd
00000260: 5e08 293f a981 0ebf 53a2 273d 19c9 e8be
00000270: 2cd6 d23e 302c a33e cb85 8dbe 3459 afbe
00000280: d5f9 90be 1f56 df3c bf74 44bd 2566 a43e
00000290: b80b c83e 1148 1e3f 34af d6be d3d9 dbbd
000002a0: 4eb7 36be af6e dd3e c316 5dbb 2f91 343f
000002b0: 00af 62be 3808 96be 7279 2ebf daa8 7e3f
000002c0: 9abe 61bd ea45 3c3d 54f6 80be b87b 683e
000002d0: e32a 0e3f 06b9 c73c c4a1 45be ae72 d9be
000002e0: 61c5 193e 6764 92bd 5f3e 1f3e a098 ff3e
000002f0: 76a1 93be 04f0 e63d 7d51 a73e e078 83ba
00000300: c497 673f 5992 81bb 5627 043f df8e e53e
00000310: 1e9b acbc 9e1e eebe 39c5 9d3d cf2b 583e
00000320: 4d31 563f 0e22 f53d 064a 813f 03dd 303d
00000330: 243a 94bc 1b72 163e 44e9 853e 020a 0a3f
00000340: bf03 3e3e e562 a03e 0aa6 df3d 40e1 b2bc
00000350: b1cb 153e c2df ecbb c7a2 513e ec92 423d
00000360: 5d61 3f3f cacc 893c bdd4 273e 9d37 49bd
00000370: 6936 0c3e 4282 163f 985c 9e3e 8bfc 273f
00000380: d504 47bf 2a4d 2abf b903 933c 247d 093f
00000390: 29a8 ee3e c11c 943e 6177 86be bf03 5a3e
000003a0: cefc edbd c677 83be 8439 d53e 0608 ae3e
000003b0: bc3d 0d3f 0b43 8fbe b7ab 8a3e 25fb 1b3d
000003c0: 06d3 a03e f1cc 5e3e 0616 a53e 93c2 ad3e
000003d0: 5d24 26bf 756c 46bf 49cb 35be 1d91 00bf
000003e0: 702f aebe d24c f0be 2040 09bf 4cf0 453e
000003f0: 4b18 19bf 30be c1be 1ddc 28bd 6d6b 143e
0.45675132 -0.41259277 0.44821936 0.45987982 -0.11898744 0.009792808 -0.7050127 0.9960034
0.033985496 1.3725437 -0.04140701 0.18865487 0.192766 -0.34490678 -0.021954667 -0.5856357
-0.40923512 -0.23781952 0.59599584 0.694634 -0.06964695 -0.26133117 -5.7344652e-05 -0.22383349
-0.45790458 0.24856801 0.37266332 -0.3376691 -0.3048458 0.08856364 0.5698579 -0.36155903
0.39532217 -0.57905716 -0.14848553 0.629567 0.31480172 -0.5098074 -0.86007094 -0.094432116
0.22694883 0.68645847 0.1876478 0.8365187 -0.1353888 0.14676692 0.16177759 0.075886436
-0.11410564 0.2992473 -0.31428775 -0.05749109 -0.49956056 -0.43046916 -0.21211115 -0.59897083
-0.16346817 0.5026492 0.115571976 0.7001854 0.5965596 0.16634609 0.045700967 -0.03082865
-0.27829894 0.22891632 0.04127269 -0.1144582 -0.39732486 0.3448101 -0.51505023 -0.7233257
-0.278703 0.15923314 -0.1570997 0.5568585 -0.04633694 -0.13650325 0.045535848 0.28226626
-0.08774155 0.45391536 -0.24190049 0.32849368 -0.34495464 -0.5416515 -0.117229514 -0.08094751
-0.108197 0.045807365 0.789072 0.24909192 -0.5432854 -0.26440978 -0.7442437 0.38758233
-0.40765375 0.31814194 0.3320125 0.18467368 -0.20991333 -0.022671755 -0.1030361 0.15863879
0.3224102 0.21319747 0.4227684 -0.025169775 -0.46033272 0.01444673 -0.39903572 -0.18727316
0.20597523 -0.11475947 0.16669643 -0.28381103 0.17454408 0.4240665 -0.351039 0.33063588
-0.22417526 -0.4252561 -0.05811381 -0.06006378 0.2597493 0.24374336 0.37784633 -0.90751743
0.26866302 -0.12631148 -0.27685884 0.17082159 0.5893339 0.21973008 0.31232324 0.41796723
0.25955158 0.06711341 0.29908577 0.9636316 -0.30048826 -0.06298362 0.34750885 -0.18081568
0.15127619 0.21577434 -0.003390815 0.4580733 0.181628 0.13357025 0.12409183 -0.095979996
0.6602839 -0.55666596 0.04092629 -0.45465925 0.41179025 0.3186965 -0.27641138 -0.34247744
-0.28315607 0.027262745 -0.0479629 0.3210918 0.3907144 0.61828715 -0.41930544 -0.10734906
-0.17843363 0.43248507 -0.003373549 0.7053403 -0.2213707 -0.29303145 -0.6815406 0.994764
-0.055113412 0.045965113 -0.25187933 0.22703445 0.5553419 0.024380218 -0.1929999 -0.42470306
0.150167 -0.071480565 0.15551136 0.4992113 -0.28834122 0.11276248 0.32679358 -0.001003053
0.9046595 -0.0039542136 0.5162252 0.44835564 -0.02107006 -0.46507734 0.07703633 0.21110462
0.8366898 0.11969386 1.0100715 0.043179523 -0.01809413 0.14691965 0.2615453 0.5392152
0.18556117 0.3132545 0.10920341 -0.021835923 0.14628483 -0.0072288224 0.20472251 0.047503397
0.7475794 0.016821284 0.16389747 -0.049125303 0.13692631 0.5879251 0.30930018 0.65619725
-0.7774175 -0.66523993 0.017946111 0.53706574 0.4661267 0.28928187 -0.26262954 0.21290492
-0.11620484 -0.25677317 0.41645443 0.33990496 0.55172324 -0.27980837 0.27084133 0.038081307
0.31410998 0.21757866 0.32243365 0.3393751 -0.64899236 -0.7750924 -0.17753328 -0.50221425
-0.34020567 -0.4693361 -0.5361347 0.19329947 -0.59802693 -0.37840414 -0.04122554 0.14494105

network_body._body_endoder.seq_layers.2.bias f4 [256]
00000000: 7298 1ebd 9000 003d 9d09 a7bc 6a3a 10bd
00000010: 8a13 193d 24e3 f2bc a7a7 d2bc 3378 1f3d
00000020: a361 f0bc 5662 e3bc 9d48 1c3a a8ea 33bc
00000030: 3952 f33c 92d4 083d 1ab5 bcbc d547 d43c
00000040: 0818 d93c d8c4 c93c 820c 1b3d 8e24 1abc
00000050: 7ac2 b83c 48e0 ee3c 4fae eb3c e2ca 2ebc
00000060: e944 ff3c c07d e1bb 8095 04bd c7b9 05bd
00000070: 5932 00bd a996 14bd 5320 0e3d 8406 87bc
00000080: 0b73 1b3d ce7d 0cbd 4a0b 563c 8b55 9e3c
00000090: e651 643c 7ffe a3bc 0758 03bd e36c 0bbd
000000a0: 7809 e5ba 8041 0a3d c0ce b5bc 6401 14bd
000000b0: cf70 f43c a53a 1f3d 2d83 b7bc 9b89 b73c
000000c0: 40e2 193d 67f4 113d ee30 0ebd 0c7d fb3c
000000d0: c796 00bd 6540 11bd 520c 013d 0587 01bc
000000e0: 478f 1bbd a461 053d a0cc 6a3b f2c9 013d
000000f0: 0d96 123d 0bbe fbbc 3b37 5c3c 98bf 15bc
00000100: 6593 ca3c e82f 9eba f757 febc 4fef ae3c
00000110: dd5e 073d 0ec4 05bd df1a 863b 5f53 823c
00000120: 467f 963a 87f9 0e3d d5b3 ed3c 3b06 b23b
00000130: 7b3c 0b3d 7417 ce3c 4eef aabc ade7 8a3b
00000140: b5f7 113d 7e51 1d3d 9243 d63c d2c7 d03c
00000150: d788 573c 8678 07bd cbbd 13bd 8156 f93c
00000160: f1a3 7b3c 219b 9e3c 3b11 0cbd 2448 d3bc
00000170: 1970 e4bb 7fcb 0d3d 2abc f83c 72d1 093d
00000180: 235d 0bbd 8689 07bd 7456 0bbd ad72 cc3c
00000190: dc76 273d 29ed 1a3d e6d4 06bd 7303 cb3c
000001a0: 1a44 103d ad7f 03bd 71c7 0a3d d267 1c3d
000001b0: 3f63 a33c d76c c63c e5ba 263d e731 963c
000001c0: 5cc6 903c 1c8d 0d3d e95d 17bd 0ab7 a43c
000001d0: d553 453c 5e57 19bd 0cb3 f83c 3396 223d
000001e0: 04b0 db3c 4f37 f33c f4ef 0abd 6c87 04bc
000001f0: ec59 1a3d aa37 1e3d 80e1 013d 4600 06bd
00000200: 548c 9d3c ef94 cf3c 423b 053d 383f a53c
00000210: 08f2 18bd 23ba e63c 130d 9a3a e4a8 e93c
00000220: 2527 14bd d18f ef3c 0710 903c 55b0 0f3d
00000230: 1353 11bd 68fd 0dbd 6e89 a9bb 1e69 b13a
00000240: 71d9 4dbc 7b0f 0cbd 0505 e93b ce1a 153d
00000250: ba38 d4bc 0c0c f93c e622 063d e558 15bd
00000260: 53b2 093d d8fe e43c 1f71 b73c 5ef5 003d
00000270: 1d84 f53c ea63 e3bc 67b3 fa3c 9346 0f3c
00000280: b1db ca3c d85c 0fbd 1b92 c13c 15d6 bebc
00000290: 4fdd ed3c d8ab 0bbd ec26 013d 76a2 c2bc
000002a0: 3639 19bd 32b1 303c 3f55 f5bc bd60 8c3a
000002b0: f34f 32bc 8ec3 003d e523 a03c fe54 393c
000002c0: 8054 1a3d 1c45 f43c e450 a93b 2e7a bc3c
000002d0: 5b53 bd3c bf17 8f3c 949e 663b d9b0 06bd
000002e0: 6c29 0ebd abdb ff3c 4dd5 7d3c f67a 1b3d
000002f0: c4a6 853b 9756 0fbd 3d22 e2bb 38c4 e23c
00000300: c48a 213b fb37 823c a04a 8abb 6f23 0dbc
00000310: 5308 ef3c f61b 283d ea63 b6bc 6bc2 e4bc
00000320: b678 b83c c1d1 db3c 9495 d53c 1489 d83c
00000330: 1be8 ed3c 243d d13c fa4b a03c 7143 043d
00000340: f869 b03c ea82 b83c c408 df3c 4d19 133d
00000350: 8976 e63c d124 91bb f914 07bd 097b 0b3d
00000360: b4f5 cf3c 4ca2 993b 1628 a1bc 3bbd 94bc
00000370: dead 17bd 2402 e93c 59cd cd3c b768 923c
00000380: 96ed 1abd 8801 003d 12eb 6fbc 3a39 043d
00000390: ba7b bcbc f0a8 06bd 813a 08bd e9bc dc3c
000003a0: ff29 093d f9df e83c 890a 07bd cee2 243d
000003b0: cbec a93b d953 1a3d 4e50 223c 07f9 223c
000003c0: d892 febc c9d1 48bc 575c dd3c 64d6 ddbc
000003d0: f492 cdbc f4aa 10bd 802d d13c a23c 8abc
000003e0: 3353 e43c 1dcf 0abd 486d 013d 1b86 1d3d
000003f0: 8768 5d3c f9b5 e0bc b476 56bc afb7 14bd
-0.038719602 0.031250536 -0.020390326 -0.035211958 0.03737215 -0.029649325 -0.025714708 0.03893299
-0.029343432 -0.027756851 0.0005961748 -0.010981239 0.029702293 0.033405848 -0.023035575 0.025913158
0.026500717 0.024629995 0.037853725 -0.009408129 0.022553671 0.02915968 0.02876964 -0.010668488
0.031160789 -0.0068814456 -0.032369137 -0.032647874 -0.031298015 -0.036276493 0.034698796 -0.0164826
0.03795151 -0.034299664 0.013064215 0.0193279 0.013935542 -0.020018814 -0.03206637 -0.03403939
-0.0017474135 0.033753872 -0.022193313 -0.03613414 0.029838948 0.038874287 -0.022401417 0.022404483
0.037569284 0.03563347 -0.03471463 0.030699275 -0.031393792 -0.035461802 0.03150589 -0.007905726
-0.037978437 0.03256382 0.0035827532 0.03168673 0.03578763 -0.030730268 0.013440902 -0.009139918
0.024728486 -0.001206872 -0.031047804 0.021354346 0.033049453 -0.032657675 0.0040925588 0.015908895
0.0011482022 0.034905937 0.029016415 0.0054328716 0.033993226 0.025157668 -0.020866062 0.0042390437
0.035636622 0.038407795 0.026155267 0.025485907 0.013155184 -0.033073924 -0.036069673 0.030436756
0.015358911 0.01936108 -0.03419612 -0.025791235 -0.006971371 0.034617897 0.030363161 0.03364701
-0.03402437 -0.033090137 -0.034017995 0.024957025 0.040884838 0.03782383 -0.03291788 0.024781918
0.035221197 -0.032104183 0.03388161 0.03818495 0.019944785 0.02422182 0.04070558 0.018334342
0.01767271 0.0345584 -0.036954794 0.020106811 0.012043913 -0.037436835 0.030358814 0.039694022
0.02681733 0.02968946 -0.033920243 -0.008088928 0.037683412 0.038627304 0.031709194 -0.032715105
0.019231953 0.025339572 0.032527216 0.020171747 -0.037340194 0.028164929 0.0011753164 0.028522916
-0.036170144 0.029243382 0.017585767 0.035080273 -0.035479616 -0.034665495 -0.0051738536 0.0013535356
-0.012564049 -0.03419445 0.007111194 0.036402516 -0.025905956 0.030401252 0.032748125 -0.03646173
0.03361733 0.02795355 0.022392808 0.031484 0.029970223 -0.027757604 0.030603124 0.008744854
0.02476296 -0.035000652 0.023629239 -0.023295442 0.029036192 -0.03409943 0.03153126 -0.023759108
-0.037408076 0.010784434 -0.029947875 0.0010709983 -0.010883319 0.031436495 0.019548366 0.011311768
0.03767824 0.02981811 0.0051671136 0.023007479 0.023111036 0.017467378 0.0035189735 -0.0328835
-0.03470747 0.031232676 0.015492749 0.03795906 0.004078718 -0.034994688 -0.006901054 0.027681455
0.002464936 0.015895834 -0.004220322 -0.008614405 0.029178774 0.04104229 -0.02226444 -0.027924737
0.022518497 0.026833417 0.026072301 0.026432551 0.02904134 0.02554185 0.019567478 0.03229088
0.021534905 0.022523362 0.02722586 0.0359128 0.028132694 -0.0044294377 -0.032978985 0.034052882
0.025385715 0.0046885367 -0.019672435 -0.018156638 -0.037031047 0.028443404 0.025122331 0.017872198
-0.037824236 0.03125146 -0.0146434475 0.032281138 -0.023008216 -0.032875955 -0.03325892 0.026945548
0.033487316 0.028427111 -0.03296903 0.04025536 0.0051856986 0.03767762 0.009906841 0.009947068
-0.03107588 -0.012257048 0.02702157 -0.027079768 -0.025094487 -0.035319284 0.025534391 -0.016874615
0.027871704 -0.033888925 0.03159836 0.03845797 0.013513691 -0.027430521 -0.0130898245 -0.036307987

network_body._body_endoder.seq_layers.2.weight f4 [256, 256]
00000000: 1364 233d 3e2c 443d b7ad 14bd 137b f13d
00000010: 6915 29bd 0650 77bd 5cfb 8fbd 9521 94bc
00000020: 8e40 383d a2cc f2bc aab3 423d 9fa0 0b3c
00000030: 4d9d 72bd 762b 92bb 9a40 a1bc 41bd 77bc
00000040: a6e9 fcbc c826 26bd 66df b9bd 360e c8bd
00000050: 0084 95bd 8ce5 99bd cab2 3e3d 233c 14bd
00000060: 1128 e1bc 76f4 edbc d4a5 edbc 918f 2a3d
00000070: abaa fe3d 4b56 093d 56c3 88bd 1770 9e3c
00000080: 7e41 b23b cbb3 f53d feda e53d 03c4 ad3c
00000090: 3f96 24bd 63c6 513c f3f7 d73c dc06 773d
000000a0: cb7c 15bd fada a2bd d309 ef3c 940c a6bd
000000b0: cc0e d439 1bfa e3bc 009a 353d 2900 053b
000000c0: 60d3 09ba d8c9 03be d03f 473d 5b5f f1bc
000000d0: 527d 313c d0d9 3bbd b056 cbbd 4a2a 23bc
000000e0: 4b59 923d cff1 11bc 9f78 003d 905b b5bd
000000f0: 2b1d 99bd be56 c83c 0a88 25bd cd2b 66bd
00000100: 6e4f 0b3d 8265 91bd 7f63 8fbd 7456 56bb
00000110: 35a5 3b3d 88ca c43d 7027 a6bc 4bfc bebd
00000120: 0bdc 98bc 1adf 86bd 86bb f93d 88a5 7ebd
00000130: 384f 213d bc7c 853d 8fd1 8bbd 9eea 193c
00000140: c105 32bd ef23 1ebd ff40 13bd 2662 75bd
00000150: 9ffa 9ebd f45b 0d3b c027 c2bc 9137 33bd
00000160: 8863 d4bc 475d 3ebd 25c3 62bd 0d52 a63c
00000170: 129d 9d3d d111 5c3d 89af 1abd 2978 98bb
00000180: 69da e33d 4619 4abd d25f 03be e342 a1bd
00000190: 4915 83bd 2a9f 803d 885d 83bd 1027 77bd
000001a0: d1f0 53bb 530b 173d 179e cb3d 9806 793a
000001b0: 09e4 3e3d bca1 11ba e6b0 b8bc c6a5 f6bc
000001c0: b477 1dbd 4ae4 533d b97d 273d d14c 3c3d
000001d0: 876b 073d 8131 443d dc5f 82bc 62f1 3b3d
000001e0: 7366 bfbc ee69 3f3d def8 d5bd 951d 263d
000001f0: 1aac 9dbd 4b2a e53b 9d98 863b 598e 84bd
00000200: 38f5 7d3d a886 bbbd 51b2 93bd bc0e 13bd
00000210: 6351 953d 5aae 84bd c882 d6bb 4dc5 e93c
00000220: e1a6 9fbd 5ba1 3e3d d316 3dbd 269c 8e3c
00000230: 8144 10bc fd83 3d3c 6944 083e 00b3 d8bc
00000240: 2f83 6a3c 2466 ee3c ac45 633c 41ea 14be
00000250: 52d4 9ebc 6bc9 153e 0576 693d 2f84 183c
00000260: bd56 a2bc cc19 07be 555b a7bd a12a 93bd
00000270: 1c0f 31bd 355e d1bc 647f fa3d 65d1 163d
00000280: f7b3 c33c dd5b a03c 30c7 89bd 8958 0ebe
00000290: c866 343b ddf3 53bd cd50 2dbd fbb3 f9bd
000002a0: ab18 b8bd c0fe 983d b248 f83d 6592 643d
000002b0: caaa 573d 97d5 acbd 67ea 18bc 2011 8a3b
000002c0: da5f 9e3d a555 383d 319d c2bb c51b 523d
000002d0: be87 063d ac47 173d 6d72 8cbd c25c 003e
000002e0: 3b05 15bd 8058 0ebe 76d0 75bd ff28 03bb
000002f0: 9d7a c23d 92ec d0bc ef37 863d 7811 d13d
00000300: 696f 6a3d 95d2 eb3c 1ee7 91bd cc80 a3bd
00000310: 4ba2 12bd 838a 63bb 1775 2e3b b2f3 9cbd
00000320: dcf1 67be 43d7 11bd 8fc9 f9bc 41db b8bd
00000330: e461 c8bc 14b9 cbbb e3ab bbbc cae5 dabd
00000340: 7ef1 463c e3f6 833d ba18 b13c ebe4 56bc
00000350: a78e 07bd 8616 7ebd e64f 25bd 5346 2fbd
00000360: 5372 dfbd 5649 43bc eacf a6bc d295 1b3d
00000370: feca b9bd 81bd 21bc cbe5 d93c 0baa 06bd
00000380: 66ab 173d 91bf 90bd a28c c8bd 6e88 d43d
00000390: 16af 9dbd 8513 14bd a13a 6a3d 5d48 05bd
000003a0: f34c 3bbd 8401 02bd e268 e0bd fe81 1cbd
000003b0: 83a1 813c 3af3 033d 450a 18bd 32f1 e3bd
000003c0: 5a38 463c 84ad 83bb a5cb a9bc 7fd2 a5bd
000003d0: 10aa 9e3b f1df 0bbd d9ad 8abd ad71 933d
000003e0: f0d5 a13d 82d8 ce3d 0533 8c3c 1839 a2bd
000003f0: 7497 63be db99 acbd 1458 63bc 8424 373e
0.03989036 0.047893755 -0.03629848 0.11791053 -0.041280184 -0.06037905 -0.07030365 -0.01808242
0.04498344 -0.029638592 0.047534622 0.008522182 -0.059232045 -0.0044607474 -0.019684125 -0.015120805
-0.030873131 -0.04056433 -0.09075813 -0.097683355 -0.073005676 -0.07514486 0.046557225 -0.036190163
-0.027484925 -0.029047232 -0.029009737 0.04164082 0.12434896 0.03352956 -0.066778824 0.019340558
0.005439936 0.119971834 0.1122341 0.02121163 -0.04018235 0.012803647 0.026363349 0.060309276
-0.036495965 -0.07951923 0.02917949 -0.08107868 0.00040446816 -0.02782922 0.04433632 0.0020294285
-0.00052576326 -0.12869966 0.04864484 -0.029464414 0.010833101 -0.04586202 -0.09928644 -0.009958813
0.071459375 -0.008907749 0.031365033 -0.08855355 -0.074762665 0.024455424 -0.04041294 -0.056194115
0.034011297 -0.07099439 -0.07001399 -0.0032705339 0.04581185 0.09608942 -0.020282477 -0.09325465
-0.018659612 -0.06585522 0.121939704 -0.06216958 0.03938219 0.06517932 -0.068270795 0.009394316
-0.04346252 -0.038608488 -0.035950657 -0.059908055 -0.07762646 0.00215697 -0.023700595 -0.043754164
-0.025926366 -0.046475675 -0.055361886 0.020302797 0.076959744 0.05372793 -0.03776506 -0.004652996
0.11125643 -0.04934051 -0.12829521 -0.07874086 -0.06400544 0.06280358 -0.06414324 -0.060339987
-0.0032339583 0.036876034 0.099422626 0.0009499579 0.04660419 -0.00055554113 -0.02254529 -0.030108344
-0.038444236 0.051731385 0.040891383 0.045971695 0.03306153 0.047898773 -0.01591485 0.045884497
-0.023364281 0.04673188 -0.10447858 0.040555555 -0.076988414 0.006993567 0.0041075484 -0.06472463
0.062001437 -0.09156543 -0.072117455 -0.035902724 0.07290914 -0.064785674 -0.006546352 0.028536463
-0.077955015 0.0465406 -0.046164345 0.017408442 -0.008805395 0.011567113 0.13307346 -0.026452541
0.014313503 0.029101439 0.013871592 -0.14542486 -0.019388352 0.14627616 0.056997318 0.009308859
-0.01981675 -0.13193434 -0.08171717 -0.07185865 -0.0432273 -0.025557617 0.12231329 0.036820788
0.023889525 0.019575054 -0.06727445 -0.13900961 0.0027527083 -0.051746238 -0.042313386 -0.12192532
-0.0898908 0.07470465 0.121232405 0.055803675 0.05265311 -0.084391765 -0.00933323 0.0042134672
0.07733126 0.045003552 -0.005939149 0.051296014 0.032844298 0.036933586 -0.068577625 0.12535384
-0.03638194 -0.13900948 -0.060013257 -0.002001345 0.09496043 -0.02550343 0.06553637 0.1020841
0.057235155 0.028786937 -0.0712416 -0.079835504 -0.035799306 -0.003472001 0.0026620084 -0.07663669
-0.22650856 -0.03560568 -0.030491618 -0.09026194 -0.02446074 -0.0062171314 -0.02290911 -0.1068836
0.012142537 0.06443574 0.021618236 -0.013116102 -0.03309503 -0.0620332 -0.0403594 -0.042791676
-0.109104775 -0.01191934 -0.020362813 0.037984677 -0.09071921 -0.009871841 0.026598832 -0.03287701
0.037028693 -0.070677884 -0.097924486 0.103775844 -0.076994106 -0.036151428 0.05718482 -0.032539714
-0.04572768 -0.031739727 -0.10957505 -0.038209908 0.015824085 0.03221438 -0.03711917 -0.11129989
0.012098396 -0.0040184874 -0.020726988 -0.080967896 0.0048420504 -0.034149114 -0.0677144 0.07199416
0.079021335 0.10099889 0.017114172 -0.07921046 -0.22225744 -0.08427783 -0.01387598 0.17885023

network_body._body_endoder.seq_layers.4.bias f4 [256]
00000000: 400a 0b3d 3afb e6bc be39 133d afeb a5bc
00000010: 240a 92bc 39e3 c83c e0b0 b8bc 3fc9 a2bc
00000020: bc8b e3bc 0c34 133d 5a97 bb3c b22c 70ba
00000030: 0a47 a2bc 5426 b53c 534f ae3c c6e4 093d
00000040: 10d1 033c 162d a53c a676 9cbc ac3b e2bc
00000050: 45e8 d9bc 794b e1bc 465e d6bc 157b eebc
00000060: 692d 0d3d 608b 04bb 02ba a13c 1373 ff3c
00000070: 61a6 003d f0ef ab3c e45f 46bc 0eda 8f3b
00000080: 65e7 073d 64f5 eebc deae 833c 3601 ec3c
00000090: 71be 853c f295 39bc 1dfb fd3c 1be8 f53c
000000a0: 9aa6 d43c 8f23 073d 7fc6 953b 0dc6 803c
000000b0: 2591 dabc 55bd c33c 1c38 be3c d647 f0bc
000000c0: 1345 b03b 8392 2d3a 6cc0 e23c 8572 e5bb
000000d0: c2d5 a23c 01af 7fbc 0b3e 83bc a663 f43c
000000e0: b59f f93c 6062 e73a 3589 c6bc 9874 dd3c
000000f0: 3609 ca3c 5e1b 9e3c 5a7d c73c e859 fa3c
00000100: faef a03c de38 78bc 2306 f6bc 42e0 c9bc
00000110: f815 d43c dbf1 debc b14a 3a3c e1fd 093d
00000120: f7da eebc f067 9e3c 6868 b4bc dcce 233c
00000130: 7dc6 e1bc 2a43 0c3d 90ab 063d 0271 6a3c
00000140: 1fdf debc b21a 143d 9497 133d ee2d f0bc
00000150: e18e eebc dbb7 b23c 852e d1bc ff3a e8bc
00000160: 7409 8cbc 7b8b d5bc 1369 053d 2ff9 d9bc
00000170: 91b4 573c 0e84 bcbc 0f40 b1bc 7f86 1d3d
00000180: d514 80bc 0813 cc3c 2b2c 113d 6c90 72bc
00000190: 6dd4 e8bc abbf ddbc 272d 153d 9b9d 083d
000001a0: 4491 d7bc 7b53 cdbb bf5a 0e3d b38a a83c
000001b0: bf39 09bc 4c06 e6bc 8352 bfbc 8406 e53c
000001c0: 3eef c5bc 9fb9 173c d966 f03c 19b6 90bc
000001d0: a6d0 e9bc 1837 d0bc ba19 103d c8d2 dcbc
000001e0: 7923 fb3c 23b3 fa3b 8c8d 173d 2fcd 023d
000001f0: 1154 ff3c 407f debc 11e4 bb3c 268d cdbc
00000200: 29e1 f0bc 8a6f eabc d727 083d 6b9d af3c
00000210: a621 083d c3f1 c13c 7b6c bb3a 942e fcbc
00000220: 8c1b 703c ccb8 c53c 9c4a ae3c 9d1d 6c3c
00000230: 4e19 893c 94b9 a03c d3eb 2a3c c0ae 6fbb
00000240: 5393 fdbc c9cf 803c 52d2 32bc 05af f73c
00000250: a481 6abc 2405 e9bc e80a edbc 6af2 083d
00000260: 70b4 c63c 214e fb3c c546 a6bc 1020 e0bc
00000270: acb9 bebc feec 093d c5fc f33b 89ac abbc
00000280: ca96 813c ca10 f33c d287 ccbc 8f1b 9a3c
00000290: c7a3 983c a9a2 f2bc eeb4 e9bc 25e8 bebc
000002a0: ff1f 83bc f529 0a3d 7de2 0abc df12 75bc
000002b0: 4945 64bb 7025 c63c 22ea bc3b 939c be3c
000002c0: 2507 093d 7644 d43c 38ff ce3c 0205 a03c
000002d0: e086 d3bc f86e 183d 70cf e4bc 5a51 67bb
000002e0: 8d25 0c3d 45cb 9bbb 267c f93c fe69 cb3b
000002f0: c092 ae3c cadc 1c3c 8a6f 843c 375d 78bc
00000300: 56b8 c9bc dd14 6c3c 2ad7 cc3b 78ad f7bc
00000310: 886c d7bc b180 e8bc 2969 543c 6a11 583c
00000320: 899f 053d a740 b93c 6f37 c6bc 3f23 d9bc
00000330: 4a7e c13c 7872 bd3c 3042 ddbc ac64 b6bc
00000340: ba6f b3bc 7e49 0c3d aeb0 cebc 4b0d e73c
00000350: a934 d3bc 6b36 9b3b b6f1 553c d28a 36bc
00000360: 7dd9 8e3b 1cf4 b13c 0dec ca3c 37df 0c3d
00000370: f77a f6bc 4274 b03b 2eec f63b 0eff fbbc
00000380: dffa e53c 8085 8a3b 2566 97bc 867d f8bc
00000390: 07f0 fd3c 292e 29bc 14e4 993c 28e9 cbbc
000003a0: acaa 6abc dac6 9c3c dcb0 4f3c 30ba 0e3d
000003b0: a7ad c53c 8a69 efbc 964b 6c3c 349c fbbc
000003c0: 9859 003c 2c5d c5bc 85aa bb3a 4c89 f43c
000003d0: 32b9 9a3b 00d4 9dbc 09c7 743c b205 0a3d
000003e0: 5ece 873c 205f 1c3c 9fb4 ff3c f5da b7bc
000003f0: df20 c5bc 28da c03c 1e50 d3bc 541a a43c
0.033945322 -0.028195966 0.03594374 -0.020253984 -0.017827101 0.02452241 -0.022545278 -0.019871352
-0.027776591 0.035938308 0.022899318 -0.00091619336 -0.019809265 0.022113003 0.02127806 0.03366544
0.00804545 0.0201631 -0.019099545 -0.027616344 -0.026600013 -0.027501808 -0.026168 -0.029111424
0.034467135 -0.0020224676 0.019742016 0.031182801 0.03140867 0.020988435 -0.012107823 0.004390008
0.03317966 -0.029169746 0.016074594 0.028809171 0.016326161 -0.011327254 0.03100353 0.030017903
0.025958348 0.032992896 0.0045707817 0.015719438 -0.026680538 0.023893991 0.023220114 -0.029331129
0.005379328 0.0006621258 0.027679645 -0.007002177 0.019877318 -0.015605689 -0.016020795 0.029832672
0.030471662 0.0017653219 -0.024235347 0.027033135 0.024662595 0.019300159 0.024351764 0.030560449
0.01964568 -0.015150277 -0.030032223 -0.024643067 0.025889382 -0.027214935 0.011370347 0.033689383
-0.029157145 0.01933667 -0.022022441 0.00999805 -0.027560467 0.03424374 0.03287846 0.01430917
-0.027206002 0.03615827 0.036033228 -0.029318776 -0.029120864 0.021816185 -0.025534878 -0.028348444
-0.017094351 -0.026067486 0.03257091 -0.026608078 0.013165609 -0.023012187 -0.02163699 0.038458344
-0.015634933 0.024911419 0.035442512 -0.014804941 -0.028421605 -0.027068933 0.036420014 0.03335343
-0.026314385 -0.006266055 0.03475451 0.02057395 -0.008375584 -0.028079174 -0.023354774 0.027957208
-0.024161931 0.009260564 0.029345917 -0.017664956 -0.028541874 -0.025416896 0.035180785 -0.026955977
0.030656563 0.0076507493 0.037000224 0.03193396 0.031168016 -0.027160287 0.022935899 -0.025091719
-0.02940424 -0.02861764 0.03324112 0.021437367 0.033235215 0.023674851 0.0014299297 -0.030783929
0.014655005 0.02413597 0.02127581 0.014411357 0.016735699 0.01961974 0.010432201 -0.0036572665
-0.030954039 0.01572408 -0.010914402 0.030234823 -0.014313135 -0.028444834 -0.028935865 0.03343431
0.024255961 0.030676903 -0.020297417 -0.027359039 -0.023281895 0.03367328 0.007445904 -0.020956295
0.015818972 0.029671092 -0.024967108 0.01881197 0.018632783 -0.029618578 -0.028528657 -0.023304055
-0.016006468 0.03373142 -0.008476851 -0.0149581125 -0.0034831336 0.024187773 0.0057652155 0.02326802
0.03345408 0.025911551 0.025268182 0.019533638 -0.02582115 0.037215203 -0.027930945 -0.0035296292
0.0342155 -0.004754456 0.030454706 0.0062077036 0.02131021 0.009574125 0.016166467 -0.015158943
-0.024624031 0.014409271 0.0062512355 -0.030234084 -0.026296869 -0.028381677 0.012964525 0.013187746
0.032622848 0.022613836 -0.024196355 -0.026506064 0.02361979 0.023125872 -0.0270091 -0.022264801
-0.021903861 0.034249775 -0.025230732 0.02820458 -0.025781946 0.0047367117 0.013058117 -0.011141496
0.0043594227 0.021722846 0.02477076 0.03439256 -0.030087931 0.0053849528 0.007535479 -0.030761268
0.028073726 0.00422734 -0.018481323 -0.030333292 0.030998243 -0.010325947 0.018785514 -0.024891451
-0.014322918 0.019137789 0.012676444 0.03484553 0.024130655 -0.02922513 0.014422318 -0.030714132
0.007833861 -0.02409228 0.0014317787 0.029850625 0.004721784 -0.019266129 0.014940032 0.033696838
0.016577896 0.009544164 0.031214057 -0.022443274 -0.024063526 0.023541525 -0.025795039 0.020032085

network_body._body_endoder.seq_layers.4.weight f4 [256, 256]
00000000: 5745 42bd e7e6 3e3d b51e a7bd e768 693d
00000010: 7c8b 0ab7 7f5a 27bc c5e4 30bd 9da7 663d
00000020: 48df a1bd 5af0 c73a 6219 acbc 1108 cc3c
00000030: 740c 18bd e513 923d d4e4 623d 73de 8c3d
00000040: 0b4a 1a3d 7341 6c3d f5bf bb3d 2967 5cbd
00000050: 1701 c0bc ed7d 8f3d 57ad 9e3d c58f c6bc
00000060: 34eb 993c e944 d83d ce5d d8bc 6747 e8bd
00000070: 8c80 1e3c 107f 6abd 5af6 0b3e c2c6 0c3d
00000080: 78dd 183d 19be 143d 6389 febd 2808 833d
00000090: a38f 253d a443 5ebd fac6 bd3c 920c 0d3b
000000a0: 0b5e f83c 6631 a73d 523e 84bd a469 18be
000000b0: 7558 92bd 6454 873d 50c9 50bd b79d 5dba
000000c0: c11e 0f3b 7b09 cb3d 61f5 5c3d 817d d7bd
000000d0: 29ed 22bd 57a9 d3bc 3540 e6bc abcc 2b3d
000000e0: 4783 a23d 161d 623d 9581 b33d ac66 013d
000000f0: 7f9e 573d 58e0 5d3d 951d 3b3b 3ccb 95bd
00000100: 66da 9e3d bbd5 183e f424 763d 3730 203d
00000110: 5058 08bd cea3 c5bd 5cc7 a83d 24f8 a4bd
00000120: 2fb7 ecbd 266a ac3d f917 91bd d34a bfbd
00000130: fc30 933d be1b e63a 63da d9bb 16a2 bdbd
00000140: db9f 85bd 35d4 95bc 86eb 643c 9c4f c9bc
00000150: 2a7f e3bd e38a d93c 4ac3 293c 2ceb 5fbd
00000160: 6da3 5fbd 782e cfbb 9f2c bb3d 55f8 953d
00000170: cb66 e9bc c4ca 523d 5dfb 143d 007c 663d
00000180: a7e7 25bc 00e2 2fbe e741 493d 86f3 89bd
00000190: f728 8abd 12ad 32bd 9243 1f3d 9551 07bd
000001a0: 7c30 4ebb 804c e3bc 1994 f63d e569 06be
000001b0: a55c 05bc 7882 6abd 8f82 18bd e137 ccbd
000001c0: f5b7 e8bc 721c 103e abfc 84bc b8ca 713e
000001d0: 0144 003c 571a 51bd f82b 0d3d c15b b23d
000001e0: 2f86 1f3e 5dfa ab3d e71d 75bd a41b 8fbd
000001f0: acb4 6ebd 41e5 e83a b5f7 593d 915f 0e3d
00000200: c0ab 0bbd 1e0b ccbb b64b 5bbd 4e44 c3bc
00000210: e905 b23b 65cd 9dbb 8b8d a8bd 7eb7 23be
00000220: 42ca 303e 1484 d03d 2674 f2bd 4323 e9bc
00000230: 5d0a 9ebc 9cf6 eebc 7c86 0abd 412c 2cbd
00000240: dd20 c83b 5206 5abd e01b 0f3d 3809 173d
00000250: a805 b0bd e742 29bd 9d36 433c e9e6 36bc
00000260: 1ecb 453c 397d c1bc 9fad 5abd 4b96 9cbc
00000270: ef2e 2d3b 4dfc a4bd 3180 d03c c8d8 c73d
00000280: e4e5 7b3d 8b6f 403d 1fdf 22bc 417b e9bd
00000290: 9e9c 833b a2b5 5bbd dbc2 303d 6c99 a2bb
000002a0: 0cde b9bd ec6a de3c 504d babd 350d 21bd
000002b0: 78ad 18be 3807 203d 9da2 4a3c 4fdb cebd
000002c0: 1089 1c3e 5efa a9bb 3761 613c 3ddb b3bd
000002d0: 61a6 05bc 6b5d ee3d b5a1 f0bc b843 9fbd
000002e0: f3cc fdbd 39b8 553d 5fc2 ad3c 5575 4abd
000002f0: 850b 913d e9fe 423d 88f4 06be 6c9e 00bc
00000300: 8c31 78bd 8aae 013d d984 85bd 7d68 7bbd
00000310: eed6 30bd 4ede be3d cd85 a9bd 83ca 24bd
00000320: 9245 a53d bd3f d43d 9e93 5f3d bddf 3b3c
00000330: e5e8 733d f2a1 abbd 0ad4 9cbd bab2 d53c
00000340: cef2 b0bd 4baf bdbb 19af 03bc ca64 373d
00000350: 7c9a 993d 936c b1bd 19b9 6d3c 7b99 e7bc
00000360: ffa5 31bd fcf0 f93c ccee 04bd 409a dd3c
00000370: e1eb bebc 58ea 1abd cf8c 023c 17bb 8d3d
00000380: 259e 77bd e3f8 5fbd 7962 ddbd ac1f 5c3d
00000390: 5c96 493c 0b87 33bd d67c 113c 7911 b5bd
000003a0: 8b34 033e 68ee 193c 185d e5bd 11af 9c3d
000003b0: b137 84bd 8eae 913c 9669 7a3d ad49 c23d
000003c0: 53de 5d3d b519 05bc fa40 adbd 9e56 453d
000003d0: 1c00 46bd c419 46bd 5273 0dbc 9a89 f7bd
000003e0: 08e1 68bd 8a4c 30bd 825d b2bc e6fe d7bc
000003f0: aee4 8f3c a9f8 c4bd 2efa 8cbc d691 94bd
-0.04742941 0.046606924 -0.08160154 0.05698481 -8.257917e-06 -0.010214447 -0.04318692 0.056312192
-0.07903916 0.0015254125 -0.021008197 0.02490619 -0.03712125 0.07132701 0.05539401 0.06878366
0.03766827 0.057679605 0.09167472 -0.05380932 -0.02343802 0.0700644 0.07747906 -0.024238477
0.018788911 0.105600186 -0.026411917 -0.11341744 0.009674203 -0.057250082 0.13668194 0.034369238
0.037320584 0.036314104 -0.12428548 0.0639804 0.040420186 -0.054263726 0.023166168 0.0021522385
0.03031828 0.08163719 -0.06457199 -0.14884049 -0.07145778 0.06607893 -0.050973237 -0.00084539823
0.00218384 0.09913918 0.05394495 -0.10521985 -0.039776955 -0.025837583 -0.028106788 0.041943233
0.079351954 0.05520352 0.0876495 0.031592056 0.052641388 0.05416903 0.0028551568 -0.073141545
0.077565 0.14925282 0.060093835 0.03910848 -0.033287346 -0.09650384 0.0824115 -0.080551416
-0.11558377 0.08418684 -0.070846505 -0.093404435 0.071870774 0.0017555875 -0.006648348 -0.09259431
-0.06524631 -0.018289665 0.013972169 -0.024574094 -0.11108239 0.026555484 0.010361502 -0.054667637
-0.054599214 -0.006322678 0.0913937 0.07322756 -0.028491398 0.051462904 0.03637253 0.0562706
-0.010126031 -0.17176056 0.049135115 -0.067359015 -0.06746095 -0.043622084 0.0388828 -0.033036787
-0.0031462004 -0.027746439 0.12039966 -0.13126333 -0.008139764 -0.05725333 -0.037233885 -0.099715956
-0.02840803 0.14073351 -0.016233763 0.23612487 0.007828713 -0.05105051 0.03446576 0.08708907
0.1557853 0.083973624 -0.05984297 -0.06987694 -0.05827777 0.0017768518 0.053214747 0.034759108
-0.03409934 -0.006226911 -0.053539 -0.023836281 0.0054328335 -0.0048157447 -0.08230122 -0.15987965
0.17264655 0.10181442 -0.1183856 -0.028459197 -0.019292051 -0.029170327 -0.03381966 -0.04203439
0.0061074332 -0.053228684 0.034938693 0.036874026 -0.08594829 -0.04132357 0.011914876 -0.011163452
0.012072353 -0.023619281 -0.053388234 -0.019114634 0.002642568 -0.08055935 0.025451751 0.097581446
0.061498538 0.046981376 -0.0099408915 -0.11400462 0.004016473 -0.053640015 0.04315458 -0.004962137
-0.09075555 0.027150594 -0.090967774 -0.039319236 -0.14909923 0.039069384 0.012367872 -0.101004235
0.1528666 -0.005187317 0.013756088 -0.08782051 -0.008157344 0.11638912 -0.029373983 -0.07776588
-0.123926066 0.05217764 0.021210847 -0.049428303 0.07082275 0.047606383 -0.13179219 -0.007850271
-0.060594127 0.031660594 -0.06519479 -0.061378945 -0.043173723 0.09319745 -0.082774736 -0.040232193
0.0806991 0.103637196 0.054584138 0.011466918 0.059548277 -0.08380498 -0.07657631 0.0260862
-0.08640061 -0.005788719 -0.008037352 0.044773854 0.07500169 -0.08663287 0.014509463 -0.028271427
-0.043371197 0.030510418 -0.032454297 0.027051091 -0.023305835 -0.037821144 0.007968142 0.0692045
-0.060453553 -0.054680716 -0.10809798 0.053741142 0.012303915 -0.04382996 0.008879861 -0.08841223
0.12813012 0.009395219 -0.11199397 0.07650579 -0.06455935 0.01778343 0.06113585 0.09486709
0.054167103 -0.008123805 -0.08459659 0.048178308 -0.048339948 -0.048364416 -0.008633452 -0.12086792
-0.05685523 -0.043041743 -0.021773104 -0.026366662 0.017565098 -0.09617741 -0.017209139 -0.072543785

network_body.observation_encoder.processors.0.normalizer.running_mean f4 [6]
00000000: c4f7 0442 9536 4641 43a6 6342 ff1e 01c2
00000010: 7a31 b33f 9650 8ec2
33.24196 12.388326 56.912365 -32.28027 1.3999474 -71.157394
