Assets/Training/results/learn_v1_3/MarsTaxi/MarsTaxi-619173.onnx (onnx, 542464 bytes, 10 tensors)

54 f4 [6]
00000000: 1b33 e140 f082 0541 cf6e 0f41 1b44 283d
00000010: 034a 0f3b dc5c b93d
7.0374885 8.344467 8.964553 0.041080575 0.0021864183 0.09050915

action_model._discrete_distribution.branches.0.bias f4 [6]
00000000: 83fd a73c 9067 c0ba 6f90 15bc c67a e8bc
00000010: dbf1 84bc 5c75 483b
0.020506626 -0.0014679302 -0.009128674 -0.028378855 -0.016228607 0.003058753

action_model._discrete_distribution.branches.0.weight f4 [6, 256]
00000000: d757 5a3c ce51 fdbc 68a3 b03c d470 e7bc
00000010: 831b d5bc 7de0 973c 68b7 01bd ef29 03bd
00000020: 5e89 1bbd 2609 e23c 15c6 c23c c75c f43b
00000030: 684c 29bc 19fe cd3c c58f 963c ea73 933c
00000040: c6e8 2c3c b9f8 1b3b c656 b5bb 85fe f7bc
00000050: 065e f3bb ab90 08bd 9c75 b7bc 6dd4 06bd
00000060: 48b7 c13c b73f 193c d85b e33c e026 dd3c
00000070: 83c4 e33c e7d1 8d3c 0fcb a6bc 4ccc df3b
00000080: b48d c73c f14a 06bd ca55 8c3c 36b9 2e3c
00000090: 739f f23c 90ab afbc 6ce2 c83c d545 f03c
000000a0: c11a 023d 2fa0 f53c 18f9 5a3c 4897 883c
000000b0: 5339 f8bc f49e 083d 30da 0d3c 37d8 11bd
000000c0: 2169 863c 638c 5d3c 4996 163b 619c 7ebc
000000d0: 911c 9e3c f1ad 00bc 6efc cabc a813 263c
000000e0: 7be2 633c 81b9 92bb 429c dcbc 190f cd3c
000000f0: a9ef a03c e60c 503c 35d3 cd3c cc64 b53c
00000100: 82ea 9a3c dc5f f03a 7b56 cfbc f3c7 e1bc
00000110: 3b64 bf3c 768c 8dbb a07f 723c 6292 a23c
00000120: 80af d9bc 990b 8e3c baaf 80bc b0ef 4b3c
00000130: 4bdf 01bd 5e40 a63c 52ed f23c dc86 933c
00000140: e1c9 c9bc db8c f63c 69ae 023c fd55 bcbc
00000150: 56ab 8abc 6a1c 333c 6bab 44bc c6b8 ebbc
00000160: fb97 6fbc 6e10 d4bc ca2f a13c 80a5 16bd
00000170: 4644 deb9 28bf e1bc 9553 a33b 3e3b b23c
00000180: 3191 c8bb e164 823c 4c6d b23c 4fe9 a63b
00000190: 3dfa adbc 4c96 cbbc 7c14 ca3c e296 f73c
000001a0: a7ec 0cbd 1707 d1bc 2697 b03c b0e6 6f3c
000001b0: 277c 553b f227 edbc 2d8e 03bd 897d b33c
000001c0: 3a1c 23bd 9115 87bb 98c9 513c e34b cebc
000001d0: af77 e9bc d2cd ecbc f47d c23c 70c4 0abd
000001e0: 03dd d13c 0532 8f3c 8acd f53c bdef d83c
000001f0: bd2b f13c ad51 06bd 41a7 953c c7e4 0fbd
00000200: fc30 f3bc c319 13bd f39a b13c d84a ab3c
00000210: 51f1 403c d9ee 3e3c 5636 e2ba edbe 9dbc
00000220: befb 493c d086 c63c 49ea 663c 441a 023c
00000230: 770d b03c 4918 963c 4e03 0b3c 25f9 263b
00000240: be9d cfbc ae2a 523c 09e3 483c 400a 113d
00000250: acca b33b 7991 13bd bf8f 0bbd f927 413c
00000260: 03db d13c 03a1 493c fac7 55bc 4698 28bd
00000270: 364a fbbc 3290 0c3d 9f8d 87bc 78c6 d6bc
00000280: 8fbf 2cbb 6b15 df3c 9a0e aebc ee88 ac3c
00000290: 3f9c aa3c 45d8 09bd 49dc 83bc 69fb d4bc
000002a0: 8e36 cabc 5b08 a53c 30c0 cf3b 0ecc 1fbc
000002b0: b30f 043c d8ed c93c 8a46 243c e053 d73c
000002c0: 7860 de3c 4d24 983c c8d6 b13c bf2d 7a3c
000002d0: f6fd 07bd 216d 903c ad37 febc f084 1c3c
000002e0: c5ed b43c a98e f2bb 2ea0 a63c d5c7 ecbb
000002f0: 7ced 9e3c 5970 97bb 9f41 ab3c 3dd7 3bba
00000300: 97e8 e8b9 8a77 593c ce2e 71bc 45cb 2dbc
00000310: 6cfd 00bd d180 bebc aac8 893c e2e6 863c
00000320: 37d1 dc3c 02cf d33c a664 f6bc 8547 16bd
00000330: da44 073d acce a53c 4c7b 14bd def7 07bd
00000340: 81d0 8fbc 9adc cf3c 4438 01bd 4ccb 823c
00000350: d2c9 e2bc 4fc4 143c 71ee 4a3c 6902 27bc
00000360: 6b82 263c 98cc 623c 2b0c 9b3b b479 923c
00000370: 991f d3bc 3aa5 d73b 8221 87bc de66 d3bc
00000380: 4802 203c 2c0f 183c 0b96 d2bc 0325 f6bc
00000390: a5eb 4a3c c132 3fbc 253b 983c 750c e7bc
000003a0: f17a 9cbc 9d2c 823c ac80 3dbc 028a fb3c
000003b0: 444b 513c e2eb f7bc 48db e53b 0995 b8bc
000003c0: 1be9 233c c364 f6bc 1027 6cbc ecda ac3c
000003d0: a2d7 0c3c b151 d5bb 3dc9 d13b c6f6 043d
000003e0: af8c 783c 8d3a 873a 8b9f 963c 36ee ed3b
000003f0: 8d0e 76bc 97a2 bf3c 7824 a9bc ce28 d83c
0.013326607 -0.030922797 0.021562293 -0.028252043 -0.026014095 0.018539662 -0.03166905 -0.032022413
-0.0379728 0.027592253 0.023776093 0.007457349 -0.010333158 0.025145577 0.018379102 0.017999608
0.010553544 0.0023799373 -0.005534026 -0.030272732 -0.00742698 -0.03334109 -0.022394948 -0.03291743
0.023646966 0.00935357 0.027753755 0.026996076 0.027803665 0.017312003 -0.020360498 0.006829774
0.024359562 -0.032786313 0.017130751 0.010664275 0.029617047 -0.021444112 0.024522029 0.029330174
0.031763796 0.029983608 0.013365053 0.016673699 -0.030300772 0.033354715 0.008657977 -0.03560659
0.016407551 0.01352224 0.002297776 -0.015540213 0.01930073 -0.007853971 -0.024778571 0.010136522
0.013908978 -0.00447768 -0.026929978 0.025031613 0.019645529 0.012698388 0.025125125 0.02214279
0.01891065 0.0018339115 -0.025309792 -0.027561164 0.023363223 -0.0043197228 0.014800936 0.019845191
-0.026572943 0.017339515 -0.015708793 0.012447283 -0.03170709 0.020294365 0.029654179 0.018008642
-0.024632396 0.030096462 0.007976153 -0.022990221 -0.016927402 0.010932067 -0.01200376 -0.02877463
-0.014623637 -0.02588674 0.019676108 -0.036778927 -0.00042394007 -0.02755697 0.004984329 0.021756765
-0.006120824 0.015917243 0.021780632 0.0050937305 -0.021237487 -0.02485194 0.02466797 0.030223314
-0.034405377 -0.025516076 0.021556448 0.0146424025 0.0032575221 -0.028949711 -0.03211801 0.021910446
-0.03982184 -0.004122444 0.012804411 -0.02518267 -0.028499452 -0.028906737 0.0237417 -0.033878744
0.025618082 0.017479906 0.030005235 0.026481504 0.029439801 -0.032792736 0.01826823 -0.03513029
-0.029686444 -0.03591324 0.02168033 0.020909712 0.011776284 0.011653625 -0.0017258625 -0.01925608
0.012328086 0.024234205 0.014093944 0.0079408325 0.021490796 0.018322127 0.008484675 0.0025478092
-0.025343772 0.012827558 0.012261161 0.035410166 0.005486807 -0.036027405 -0.034072634 0.011789315
0.025617128 0.012306455 -0.013048166 -0.041160844 -0.030675035 0.034317203 -0.016547022 -0.026217684
-0.0026359295 0.027231893 -0.021247197 0.021061387 0.020826457 -0.033653516 -0.016096251 -0.025998788
-0.024684217 0.020145586 0.006340049 -0.00975324 0.008060384 0.024649546 0.010026583 0.026285112
0.02714561 0.018571997 0.021708861 0.015269696 -0.03320118 0.017630162 -0.031032408 0.009553179
0.022086034 -0.0074022603 0.020340052 -0.0072259703 0.01940035 -0.004621547 0.020905314 -0.0007165557
-0.0004442378 0.013273129 -0.014720632 -0.010607545 -0.031491682 -0.023254784 0.016819317 0.016467515
0.02695523 0.025855545 -0.03007729 -0.0366893 0.033024646 0.02024015 -0.036250398 -0.03319537
-0.017555477 0.025373746 -0.0315478 0.01596608 -0.027684126 0.009080007 0.01238595 -0.010193446
0.01016293 0.013842724 0.004731675 0.017880298 -0.025771903 0.006580976 -0.01649547 -0.025805887
0.009766169 0.009280961 -0.025706312 -0.030046945 0.012385284 -0.0116698155 0.01858289 -0.028204182
-0.019101592 0.015890414 -0.011566322 0.030705456 0.012774292 -0.030263845 0.0070146658 -0.022532003
0.010004307 -0.030077344 -0.01441361 0.021100484 0.008596333 -0.0065099825 0.0064021633 0.032461904
0.01517026 0.0010317132 0.018386623 0.007261063 -0.015018118 0.023392959 -0.020647272 0.026386645

network_body._body_endoder.seq_layers.0.bias f4 [256]
00000000: 9da9 c43c db9f 09bd 89cd 153d 18ac 123c
00000010: 1e3c 52bc 8473 553c dbc0 143d e528 02bd
00000020: b4f8 e837 26c5 163d dc83 e93c 5a8e e23c
00000030: 8d68 b63c 20ce d0ba 72cd b83c 4264 033d
00000040: 4f08 a13c 7e3e 9fbb ed59 133d 03fc cb3b
00000050: 0f1f 893c 5a2f b03c 64eb 523c 4679 bbbc
00000060: 0371 f0bc 8a14 cd3c 6f0c 5b3c 8695 03bd
00000070: 2e1a 0bbd 74eb 04bb 3f76 0a3d 36dd 03bd
00000080: 792f a53c 27d6 4f3c ed52 143c 2eea dabc
00000090: 8dc2 ed3c 995a 0e3d d3d7 1e3d fce4 923b
000000a0: 2382 563c e09f a13c 4500 553c aff0 0b3d
000000b0: f20a 9d3c f1ce 2b3b 8128 77b9 7bc2 41bc
000000c0: 3730 c73c 3a19 053d 545d 093d 4095 223d
000000d0: 2de7 f73c e23c 0bbb 2ecb 0d3d af57 3f3c
000000e0: adbc 093d c349 efbc 6d02 a039 3e6b 183d
000000f0: 9302 07bc d388 923c 8ab1 033d b8d6 d23c
00000100: 6576 fe3c c065 19bd 0c34 073d 3091 db3b
00000110: b9bf d4bc dfb1 02bd 367f 40bc b19d fa3b
00000120: 325c 19bc 823c 173d 4f16 d93c 29f9 1a3d
00000130: 807f 063d 0cef 153d 4764 b73c a262 013d
00000140: a84a a13c 4da8 1f3d 2cdd 253d 14e4 e13c
00000150: 851f bc3c a578 02bd 72a9 75bc 0a3d 8c3c
00000160: 7d0b 213d 1350 1e3d 35e5 cf3c c648 2a3d
00000170: 2428 13bd 68f0 013d b465 853c 4b8d 263d
00000180: 1c25 003d fed7 183d e321 023d 2f46 f53c
00000190: ae36 b2bb 1349 4a3c 9e24 213d 9726 a03c
000001a0: 501b 173d 612b 083d 4b69 eb3c e26f fb3c
000001b0: 7143 c53c 62ba b43c ed82 3fba 9e50 e23c
000001c0: f249 273d 3eef eabc d3df c13c 2973 b33c
000001d0: 66b1 d93c fb35 f83c bcf3 f13c 4bec 0f3c
000001e0: 2b59 903c 5dcb c83c 840c 933c 3368 003d
000001f0: d83c 06bd 1316 f2bc 0759 bd3c 036b e43a
00000200: c5ea 2a3d 9bcf 183d fe6a 6dbb b97a f8bc
00000210: d855 f7bc a127 0d3d 8466 543c 3ca8 253d
00000220: cb3e 243c 79ec b73c f480 153d 8966 563c
00000230: afb5 dcbc 73c0 ad3c 701c f9bc 10b6 c03c
00000240: af5b 19bd ed4d e13c 9af5 263d 1c8d 263d
00000250: 08bb 0e3d 43d2 0a3d 2e21 e03c 09f2 cd3c
00000260: a7df 0e3d 74c5 233d fbdf 283d cfb4 113d
00000270: 5382 d33c 1c9f 283b 7ae0 0ebd d84f 9a3b
00000280: c204 283c 4194 2abc 3c0c 233d e801 98bb
00000290: e152 293d 9adf 29bc 5d64 a83c 42f9 193d
000002a0: 0ddd 2e3d d4a1 9d3c 2b2f e4bc 7aba 0dbd
000002b0: 5489 283c cdc5 e53c d3e3 eebc c9e0 43bc
000002c0: c9ee d2bc 6fb5 cc3c 4f29 2c3c d53e 163d
000002d0: dc64 0bbc 1ade 1f3d 6888 f338 c933 903c
000002e0: 69d9 203d 5192 193d 175d 07b9 5d76 8a3c
000002f0: 431f e5bb 6d8a 16bd 849b c4bc d9b2 b4bb
00000300: 3838 05bd c86d f3bc d9cc 0b3d aeda b03c
00000310: 540e 8c3c bdfe cebc e317 b2bc d6e1 b53c
00000320: 3864 f13c c208 633c ac65 c0bc 094c 0c3d
00000330: ab35 263d b58f 8c3c c239 af3c d291 d43c
00000340: 5fdf 853b 1bd8 aa3c 86a4 cd3c 697e 0abd
00000350: 1899 f73c ff9e 443c 964c 173d 5a58 1e3d
00000360: c7be a9bc 3441 113d 8d96 0c3b c307 553b
00000370: cad2 8e3c 66ce a63c 2037 1e3d 1d9e a5ba
00000380: cb22 fe3c 4ab3 dab9 494d 4b3c c9ab 83bc
00000390: 871a 3f3c c1e9 003d 1153 0c3d a93a cb3b
000003a0: 4321 923c 7884 863c 9222 083d 60f7 aabc
000003b0: 7be0 e7bc f93d 243b b017 e93c 8387 823c
000003c0: 8dd6 073d 4bb7 173d 0a7d 173d 2535 e8bc
000003d0: 0989 1f3d 699b cd3c 0069 233d 1c58 babb
000003e0: ae44 0bbd d1ea 3ebc 8766 febc 4253 d9bc
000003f0: 9f46 033d 67df 0a3d d189 de3c f9e0 16bd
0.02400666 -0.033599716 0.036572967 0.008952163 -0.012831716 0.013028029 0.036316734 -0.03177728
2.7772367e-05 0.03680911 0.028505258 0.02765577 0.02226665 -0.0015930571 0.022558901 0.032078035
0.019657282 -0.0048597446 0.03597443 0.0062251105 0.016738443 0.021506954 0.012873504 -0.022884976
-0.029350763 0.025034208 0.013369664 -0.03212502 -0.033960514 -0.0020281943 0.033804175 -0.032193385
0.020164238 0.012685335 0.009052974 -0.026722994 0.029023433 0.03475437 0.038780045 0.0044828635
0.01309255 0.019729555 0.013000553 0.03416508 0.019170258 0.0026215876 -0.00023570844 -0.011826153
0.024314983 0.03249476 0.03353627 0.039693117 0.0302616 -0.0021246006 0.034617595 0.01167862
0.0336272 -0.029209977 0.00030519385 0.03721165 -0.00824036 0.017887508 0.032151736 0.025737152
0.031062314 -0.037450552 0.03300862 0.0067006573 -0.025970327 -0.031907912 -0.011749079 0.007648193
-0.00936036 0.03692294 0.026499895 0.037835274 0.032836437 0.036604926 0.022386683 0.031588204
0.01968892 0.038978864 0.04049413 0.027574576 0.022964248 -0.031853337 -0.014994012 0.01711895
0.039317597 0.038650583 0.02537785 0.04157331 -0.035926953 0.03172341 0.016283847 0.04066209
0.03128539 0.03731536 0.0317706 0.029940693 -0.0054386472 0.012346524 0.03934156 0.019549651
0.03689128 0.033244494 0.028736731 0.030692998 0.02408001 0.02206153 -0.0007305581 0.027626332
0.040842004 -0.028678533 0.023666298 0.021905499 0.026573848 0.030299177 0.029535167 0.008784364
0.017620644 0.024511034 0.017950304 0.031349372 -0.03277287 -0.029551541 0.02311374 0.0017426912
0.0417278 0.037307363 -0.0036227102 -0.030331956 -0.0301923 0.03446162 0.012963895 0.040443644
0.010024737 0.022451626 0.036499932 0.01308597 -0.026942102 0.021209931 -0.030409068 0.023524314
-0.037440952 0.027502978 0.040761568 0.040661916 0.034846336 0.033891927 0.027359571 0.025139825
0.03488126 0.039983228 0.04122923 0.035572823 0.02581898 0.0025729602 -0.034882046 0.004709225
0.010255041 -0.010411323 0.03980659 -0.004638899 0.041338805 -0.010368252 0.02055567 0.037591226
0.04269128 0.019242205 -0.027854523 -0.034601666 0.010286648 0.02804842 -0.02916137 -0.011955448
-0.025748627 0.024988858 0.010507896 0.036681015 -0.0085079335 0.039030172 0.000116125506 0.017602818
0.03926984 0.037493054 -0.00012909282 0.016902143 -0.006992252 -0.036753107 -0.023999937 -0.0055144844
-0.032524318 -0.029715434 0.034130905 0.02158865 0.017096676 -0.025267953 -0.021739906 0.022202414
0.029466733 0.0138570685 -0.02348598 0.0342522 0.040578526 0.017158369 0.021389846 0.025948439
0.004085466 0.020855 0.025102865 -0.03381196 0.030224368 0.012000798 0.036938272 0.038658477
-0.020720853 0.035462573 0.002145204 0.0032505847 0.017434496 0.02036209 0.03862679 -0.0012635622
0.03102245 -0.0004171378 0.012408563 -0.016073124 0.011664039 0.031472925 0.034258906 0.006202061
0.017838126 0.016420588 0.033236094 -0.02086991 -0.028305283 0.0025061353 0.028453678 0.015933758
0.033163596 0.037040036 0.03698448 -0.028345654 0.038949046 0.02509852 0.039895058 -0.005686773
-0.034001045 -0.011652664 -0.031054748 -0.026528958 0.03204977 0.03390446 0.027165325 -0.036835644

network_body._body_endoder.seq_layers.0.weight f4 [256, 6]
00000000: dcca eb3e a6ae d5be 5d03 e73e 5e89 eb3e
00000010: bcff f3bd 78f2 223c 3986 35bf 864b 803f
00000020: b15c 1e3d d384 ae3f b544 04bd 36d9 373e
00000030: 74e6 493e 273c b4be b20f d2bc 6921 15bf
00000040: f31c d3be 9f5b 70be 835a 193f ede8 323f
00000050: d6c8 89bd 52d5 89be b8ff ff3b c444 6dbe
00000060: f46f ebbe 732c 813e d0f5 c13e e302 afbe
00000070: eef4 99be 40e1 ac3d 0e3d 133f 44a2 bcbe
00000080: dfd0 cb3e 460e 13bf 72c7 1cbe 1d5a 223f
00000090: 3380 a23e 5df2 03bf dc2b 5dbf f1b5 bdbd
000000a0: 608d 663e b531 303f e802 403e d0e0 573f
000000b0: 817f 06be 348e 0d3e 3e64 2e3e b8f2 893d
000000c0: 04c3 f1bd 1be6 9c3e 8635 a4be b49a 85bd
000000d0: a2cf fbbe a05d e0be becd 5bbe b9e9 1abf
000000e0: d534 2bbe 8600 013f a419 ea3d 4392 333f
000000f0: 2a1d 1a3f 54bb 283e c5bd 2e3d 87e6 e5bc
00000100: 65e7 8fbe bb3d 6d3e 3c5d 303d 5533 f2bd
00000110: a3be cebe 35f7 b13e 7490 04bf bf75 38bf
00000120: da19 91be 7abd 233e 7c40 21be 2886 0c3f
00000130: 7951 1dbd bfe7 13be f7e4 3d3d e1eb 953e
00000140: a5f9 b4bd ea70 e43e dec8 6fbe b939 a43e
00000150: 2ece b1be dc88 0cbf 3c2f f9bd e761 a0bd
00000160: 45fc e2bd 586c 463d 71c7 4a3f 437e 7a3e
00000170: 2129 0cbf c339 86be 371a 3fbf 2898 c73e
00000180: d6d0 d1be 97f1 a23e ae23 ad3e 710e 353e
00000190: d4e7 4ebe 871e fabc 36df d7bd d534 283e
000001a0: f648 a83e 8f91 513e 54d4 dc3e d213 0abd
000001b0: 26fd ebbe e322 093c 750c cfbe 0a13 3abe
000001c0: de39 4d3e faa3 dfbd 9a1c 303e 44fd 94be
000001d0: fbb6 363e a6aa db3e 7c46 b6be 7ad4 ab3e
000001e0: a73a 69be dd9b ddbe eac8 7fbd 3231 71bd
000001f0: 5763 843e f0cc 7a3e 5e52 c33e c389 69bf
00000200: ba9a 8a3e daff 00be 6aec 8dbe cc43 2f3e
00000210: 7af0 173f a366 643e d1d7 a13e 0316 d23e
00000220: 2fcd 883e aa97 733d b388 983e f79b 783f
00000230: 535c 98be aadc 8ebd 1b64 b53e 3c17 40be
00000240: bc18 1d3e 427c 633e e7f4 863a b79f e73e
00000250: 3bce 3f3e e7f4 023e c092 fe3d 1eaa cbbd
00000260: c310 2a3f e4d2 0ebf 12b6 2c3d 8e6b e9be
00000270: 2392 d43e eea4 a53e f0bb 8fbe d17b b2be
00000280: d9d7 8dbe 982d ad3c 7a0b 44bd 8e0d a83e
00000290: 5e10 cb3e 2bed 1b3f 73f9 d1be 01b1 eebd
000002a0: 7634 39be cd51 e13e 7e2a 663a 99ec 323f
000002b0: 8a1c 5cbe 6851 99be 834d 2fbf bad2 7f3f
000002c0: fa8d 56bd 8870 1a3d 5c78 79be 7a06 603e
000002d0: a448 0f3f 5e4d 9f3c 23b0 4bbe 522f d8be
000002e0: 9f3e 173e de56 8dbd 05b9 1e3e 76f9 013f
000002f0: 5371 94be 44ea db3d d612 aa3e d639 d1bb
00000300: 30b4 683f cf3e febb a1d7 043f d20e e63e
00000310: d799 b4bc aa9e edbe 9e83 a03d 9160 593e
00000320: 6bed 573f a93b e73d 5628 823f 7b10 153d
00000330: f96b 92bc dcc7 1b3e ce47 893e 209b 073f
00000340: 13be 473e 3285 9b3e 8c1e e63d 76c0 80bc
00000350: a4dd 1c3e 0d9d 7ebc 9924 5a3e 0f88 203d
00000360: eb49 403f 79a1 443c 2880 263e 3d66 3ebd
00000370: 0782 093e 5a2f 173f e51a 9f3e a988 283f
00000380: 7195 48bf 6d4b 2abf 4bcc 923c e17e 093f
00000390: 5bcb f03e b3a5 953e 9c85 89be 6bb1 593e
000003a0: 3858 edbd f6a0 83be a5ea d63e 1130 b03e
000003b0: 24a1 0e3f a3ca 92be 1b33 8e3e 587d ff3c
000003c0: 165e a23e 7713 603e 75df a73e 6b6a ac3e
000003d0: 6378 25bf 8318 47bf 22e4 36be bdcf 02bf
000003e0: efc0 b0be 6fa8 eebe 5212 0abf 1339 493e
000003f0: c7e7 19bf b593 c5be 6988 32bd 4490 173e
0.46053207 -0.4173481 0.45119753 0.4600324 -0.11914012 0.009945504 -0.7090793 1.0023048
0.038662616 1.3634285 -0.032292087 0.17953953 0.19716817 -0.35202143 -0.02564225 -0.58254105
-0.41233024 -0.2347245 0.59903735 0.69886667 -0.067277595 -0.26920563 0.0078124665 -0.23170763
-0.4598385 0.25229225 0.37882853 -0.3418189 -0.3006968 0.084414005 0.5751504 -0.3684255
0.39807793 -0.57443655 -0.15310457 0.6341875 0.31738433 -0.5154169 -0.8639505 -0.09263218
0.22514868 0.68825847 0.18751109 0.8432741 -0.13134576 0.13823777 0.17030427 0.06735748
-0.118047744 0.30644307 -0.32072085 -0.06523648 -0.4918185 -0.4382143 -0.21465203 -0.6051288
-0.16719373 0.50391424 0.11430672 0.7014505 0.6020075 0.1647771 0.042661447 -0.028064026
-0.28106228 0.2316808 0.043057665 -0.11826197 -0.4037982 0.34758916 -0.5178292 -0.72054666
-0.28340036 0.15990248 -0.15747255 0.54892206 -0.038407777 -0.14443873 0.046360936 0.29281524
-0.088366784 0.44617397 -0.23416469 0.3207529 -0.34727615 -0.5489633 -0.12167212 -0.078311734
-0.11083273 0.04844317 0.79210573 0.24462228 -0.5475026 -0.26215944 -0.74649376 0.38983274
-0.40979642 0.31824943 0.33816284 0.1768129 -0.20205623 -0.030532135 -0.10540621 0.16426404
0.32868165 0.20465682 0.43130744 -0.03371031 -0.46091574 0.008370134 -0.4043919 -0.18171325
0.20041606 -0.10919948 0.1719841 -0.29099476 0.17843239 0.42903632 -0.3560065 0.33560544
-0.2277628 -0.43282977 -0.062447466 -0.058884807 0.2585704 0.2449224 0.3814878 -0.9122583
0.27071172 -0.125976 -0.27719432 0.17115706 0.59351313 0.22304778 0.31609967 0.4103242
0.26719043 0.05947081 0.29791793 0.97112983 -0.29757938 -0.06975682 0.35427937 -0.18758863
0.15341467 0.2221537 0.0010296375 0.4523904 0.18731014 0.12788735 0.12430334 -0.09944557
0.66431826 -0.55790544 0.042165823 -0.4558987 0.41517743 0.32352394 -0.28073072 -0.3486009
-0.2770374 0.021139905 -0.047862507 0.3282284 0.39660925 0.60908765 -0.41010627 -0.116548546
-0.18086419 0.44007722 0.00087801355 0.6989227 -0.21495262 -0.2994492 -0.6847765 0.9993092
-0.052381493 0.037704974 -0.2436232 0.2187747 0.55970216 0.019446071 -0.1989141 -0.42223603
0.14769982 -0.06901334 0.15500267 0.5077127 -0.2899271 0.10738042 0.33217496 -0.0063850684
0.90899944 -0.007758952 0.51891524 0.44933182 -0.022046013 -0.46410114 0.07837604 0.21228243
0.84346646 0.11290676 1.016856 0.03639267 -0.017873751 0.15212959 0.26812595 0.52971077
0.19506101 0.30375057 0.11236295 -0.015716773 0.15318924 -0.0155403735 0.21303023 0.039192256
0.7511279 0.012001389 0.16259825 -0.04648422 0.13428508 0.5905663 0.31075206 0.65833527
-0.7835303 -0.6652134 0.01791968 0.53709227 0.47030148 0.2922798 -0.26859748 0.21259086
-0.11589092 -0.2570874 0.41975895 0.34411672 0.5571463 -0.28670225 0.27773365 0.031187698
0.31712407 0.21882425 0.32787672 0.3367494 -0.6463682 -0.77771777 -0.17860463 -0.51098233
-0.34522197 -0.4661288 -0.53934205 0.19650678 -0.6011929 -0.38589254 -0.043587122 0.14801127

network_body._body_endoder.seq_layers.2.bias f4 [256]
00000000: c5d6 03bd 4941 f93c fb2e b1bc 7954 e6bc
00000010: f089 243d 1e79 87bc 4333 ccbc 38a2 193d
00000020: e268 cdbc ef7f cabc 8f29 863b ad27 04bc
00000030: e67f ef3c 8481 083d 7369 c4bc 220c c13c
00000040: 7964 ad3c e9e0 d53c 6c76 203d 9e48 2bbb
00000050: c8fb c43c 4ec4 ea3c e2d1 db3c f233 0838
00000060: 1aa3 043d fa0e 5bba 8969 e6bc 102b d7bc
00000070: 7367 cbbc 4de6 0fbd e23d 073d bedf 45bc
00000080: e715 243d d5de d9bc 3002 853c 4624 553c
00000090: c59d 383c 1b4e b7bc cfc6 b8bc 47f5 d8bc
000000a0: 161c 7f3b dfb8 033d a9a3 adbc 6e03 f7bc
000000b0: 41cf 003d c139 1f3d 6ec1 92bc 25e3 a33c
000000c0: 3a73 1b3d 0d56 0c3d da26 d6bc b33a ef3c
000000d0: 1232 ddbc 418d 05bd 1596 f73c fc7b 7b3b
000000e0: 6e89 04bd 7cca 043d bd77 0b3c 73c7 083d
000000f0: 9961 0f3d aade b0bc 208f 7e3c 5a61 8bbb
00000100: 8a66 d53c 5128 ccba 8496 d3bc 77c2 993c
00000110: 9349 033d 2bef e2bc 18d0 573b 9a86 a53c
00000120: 2f4b b63b 96ff 133d e7e9 cc3c e419 c23b
00000130: 847f fa3c eed8 d13c 6501 6abc ea65 263b
00000140: 88b0 173d 2c61 1d3d f14d c33c fc1d bd3c
00000150: 193e 123c 2160 dcbc 4271 0fbd af72 d33c
00000160: a4e8 8b3c c435 a93c a813 03bd e8fb d5bc
00000170: c8ba 93bb 5263 1a3d 9400 d23c 919e 073d
00000180: 1b9a f1bc 4586 d4bc 71f1 f9bc 2188 dd3c
00000190: 7704 2d3d d0e6 1f3d ce9b e3bc d37d c33c
000001a0: d865 113d bcd1 c0bc 0aee 1c3d 2d1e 123d
000001b0: 80f1 693c 2e4c ae3c fc33 2a3d d8c4 553c
000001c0: 8164 8d3c 2ef8 063d 9d39 08bd f07e b63c
000001d0: 9da3 233c 84cb fcbc c051 f23c 6778 213d
000001e0: 53d0 b13c c4fa f03c beb8 edbc 2f5b 91ba
000001f0: 1edb 193d 64e4 223d 9477 f33c 19f0 b8bc
00000200: c730 a73c d199 c93c 1718 f93c 16e3 b93c
00000210: bb37 0bbd e1db e93c 036c 123b 2e4f e63c
00000220: 1ed4 f5bc bd3b df3c 743c 913c e5ab 093d
00000230: ea96 06bd e3a3 e8bc 7a12 59bb 2142 af3b
00000240: ec68 20bc a3c3 ecbc 974a 883c 59d2 073d
00000250: d1a9 95bc 1ab2 d83c 5da0 073d 5282 03bd
00000260: ae22 0b3d fdca df3c c4b5 9b3c e002 e73c
00000270: 33ec f13c 84b0 abbc fea0 f93c f61d bb3b
00000280: bf26 c23c a361 13bd 5c1c 9e3c fac3 9abc
00000290: 0221 f63c e003 cdbc d313 f03c b936 90bc
000002a0: 3f6c f9bc 8938 b53c 520a cbbc 960d 453b
000002b0: 4d29 9dbb 00cd ec3c 7e98 993c 1eaf 313c
000002c0: 9a7d 163d 95b6 f13c a401 923a dd19 a03c
000002d0: 05bb b43c 139d b53c baf0 ac3b 07ea ccbc
000002e0: da88 00bd 995a e53c 0fb3 923c 73aa 143d
000002f0: 1974 533c 0be3 ecbc 9518 0abc 564d e13c
00000300: dd7b 203c 74cc 933c ff40 bdbb 354a ce3a
00000310: 8444 e93c bf2a 273d 05ff 4abc 39fd c6bc
00000320: 5c13 7d3c 7f87 d93c f321 cf3c 759d dd3c
00000330: 4e86 cf3c 6ace cd3c 8eee a43c c99b f63c
00000340: 5dae b73c 8b1a b43c 31f3 ca3c d137 0f3d
00000350: 10ba d73c a7fd 5dbb 4452 e3bc 556c 0b3d
00000360: f32b b73c c723 9d39 0242 52bc c5c1 a7bc
00000370: 83b9 06bd 28cd 993c 0dd9 ce3c effd 683c
00000380: ab45 05bd 0069 fd3c 024d 28bc 2722 f73c
00000390: 9414 6bbc 1873 c9bc b5ea f5bc f863 dd3c
000003a0: 9493 0f3d 2e64 003d d22f d7bc 3af7 293d
000003b0: f414 f33b dab4 133d fcbc 523c 7133 4a3c
000003c0: 9bc6 cabc a867 84bc 7ea3 bf3c 11aa a4bc
000003d0: 905e 86bc 9b1a 01bd bf47 d03c 2db0 4bbc
000003e0: 2275 d43c 2520 cfbc ee26 123d 3baa 253d
000003f0: c6e4 533c fda1 c0bc c581 46bc bedc f4bc
-0.032187242 0.030426638 -0.021628847 -0.028116452 0.04017061 -0.016537245 -0.024926787 0.03750822
-0.025074426 -0.024719207 0.0040943096 -0.0080661 0.029235791 0.03332664 -0.023976063 0.023565356
0.021166073 0.026108222 0.039175436 -0.0026135813 0.02404584 0.028658058 0.026833478 3.2473305e-05
0.03238211 -0.00083564187 -0.028126495 -0.026265651 -0.024829602 -0.03513174 0.033018 -0.01207727
0.04005995 -0.026595512 0.016236395 0.013009137 0.011268084 -0.02237611 -0.022555737 -0.026484145
0.0038926653 0.03215873 -0.021196203 -0.030153003 0.031447653 0.038873438 -0.0179145 0.020005772
0.037951685 0.034261752 -0.026141573 0.029202795 -0.027001414 -0.032605413 0.030222932 0.003837346
-0.032357626 0.032419667 0.008512435 0.033393335 0.035005186 -0.02159055 0.015537053 -0.0042535486
0.026049871 -0.001557598 -0.025828607 0.018769486 0.032052588 -0.027701935 0.003293043 0.020205785
0.005563162 0.036132418 0.025013877 0.0059234966 0.030578382 0.025616135 -0.014282559 0.0025390335
0.037033588 0.03842275 0.023840876 0.023085587 0.008925938 -0.026901307 -0.03502012 0.025811521
0.017078705 0.02065552 -0.032001168 -0.026121095 -0.00450835 0.037692375 0.025635041 0.033110205
-0.029492429 -0.025942931 -0.030510636 0.02704245 0.042240586 0.03903848 -0.027784254 0.023863709
0.035497516 -0.02353751 0.03831295 0.03567331 0.0142787695 0.02127656 0.041553482 0.0130474195
0.017259838 0.032951526 -0.03325807 0.022277325 0.009987739 -0.030858763 0.029579997 0.039421465
0.021705782 0.02941645 -0.029018756 -0.0011089797 0.037562482 0.03976859 0.029720105 -0.022575425
0.020409001 0.024609478 0.030406995 0.02269129 -0.033988696 0.02854723 0.0022342212 0.028113928
-0.030008372 0.027250165 0.017729022 0.033611197 -0.032858767 -0.02839846 -0.0033122585 0.0053484594
-0.00979064 -0.02890188 0.01663713 0.033159588 -0.018269451 0.026452113 0.03311192 -0.032106705
0.03396862 0.027318472 0.019007571 0.028199613 0.029531574 -0.020958193 0.030472275 0.0057103587
0.023700116 -0.035981786 0.019300632 -0.018892277 0.030045036 -0.025026262 0.029306328 -0.017604219
-0.030447124 0.022121685 -0.024785195 0.0030067912 -0.004796183 0.028906345 0.018749472 0.010844974
0.036740877 0.029506007 0.0011139405 0.019543583 0.022061834 0.022169625 0.0052777203 -0.025013937
-0.03138051 0.027997302 0.017907647 0.036295366 0.012906098 -0.028916856 -0.008428712 0.027502697
0.009795156 0.018041827 -0.0057755704 0.0015738668 0.028475054 0.04081225 -0.012389903 -0.024290668
0.01544651 0.026553867 0.025284743 0.02705262 0.025332596 0.02512284 0.020133283 0.030103581
0.02242201 0.021985313 0.024774166 0.03496534 0.026333839 -0.0033873112 -0.027749188 0.03403886
0.022359824 0.0002997203 -0.01283312 -0.020478139 -0.03289176 0.018774584 0.025249982 0.014220699
-0.032537144 0.030933857 -0.010272266 0.030167652 -0.014348168 -0.024591014 -0.030019144 0.027025208
0.03505285 0.03134554 -0.02626792 0.04149554 0.0074182693 0.036061145 0.01286244 0.012341366
-0.024752906 -0.016162708 0.023393389 -0.020100625 -0.016402513 -0.031519514 0.025424836 -0.01243214
0.02593476 -0.025283882 0.035681657 0.040445548 0.012932962 -0.023514742 -0.0121159 -0.029890414

network_body._body_endoder.seq_layers.2.weight f4 [256, 256]
00000000: 5c74 1a3d 8231 5e3d 301e 28bd 79bf fd3d
00000010: 64a8 09bd ac7a 7dbd c466 9dbd 8557 4fbc
00000020: 7631 453d b4a8 1dbd 33c9 553d 856d 573b
00000030: d272 64bd b5e4 22b9 ef0e e1bc f88b 6bbc
00000040: a5f9 b4bc a57f 04bd 2a36 babd 88ac d5bd
00000050: ce0c a6bd 9235 a5bd 1424 583d 6a33 febc
00000060: 40fa c2bc eeed c3bc c51e d1bc 786a 443d
00000070: 42df 043e 42bb 253d b8e0 85bd 0d17 bd3c
00000080: d69a 1b3c fefc 023e 94ef f43d a41a aa3c
00000090: 7a7f 18bd 0b55 7d3c 2270 f73c 9c54 8c3d
000000a0: 9160 e9bc d5cb b3bd 03c7 c33c 812d 9fbd
000000b0: 8257 c73b 34fa 9dbc e4da 243d b1a8 c53b
000000c0: 2bcd 00bc 9a04 07be a6d7 2b3d 8527 e9bc
000000d0: 74a4 733c b221 31bd 93ec cebd 62a2 64ba
000000e0: ac97 863d 9e5b 3ebb 6fe9 153d e4e7 bdbd
000000f0: 198f 8abd 1c1c d23c 7909 22bd a75c 7ebd
00000100: 37e9 e53c c60a a3bd 2761 92bd 9b75 c03b
00000110: 5a37 473d 570a d23d df31 74bc 0d99 bbbd
00000120: 0d13 2fbc 9111 93bd a362 033e 033b 86bd
00000130: 2120 093d c827 823d 45e7 8ebd e3b6 5e3b
00000140: 137a 39bd 9579 32bd 26e4 27bd 9b48 85bd
00000150: 712a 91bd cb3a fb3b 432e f6bc c367 20bd
00000160: e1fd dabc ef1d 5abd 28bc 73bd a160 773c
00000170: bd94 9a3d dea1 6a3d c3ac 3fbd 8a92 29bc
00000180: 488c e63d 8130 50bd a371 04be d330 afbd
00000190: a5f5 77bd 66a7 7b3d 1afe 78bd eed1 5ebd
000001a0: fe1a 143b 4dd1 fd3c aba0 d83d 6c90 b93b
000001b0: 8422 4e3d c609 ae3b ade8 7fbc 490f 09bd
000001c0: bf37 2fbd fc50 413d c408 2d3d 10d2 563d
000001d0: 7ebd 003d 432f 313d 80ae a0bc 856a 573d
000001e0: 6b23 dfbc b763 553d 8d4a d7bd b7a9 433d
000001f0: 9df9 9dbd 7981 583c b9ff 6eba fc38 67bd
00000200: 725a 853d 83ac c4bd 0f5b a2bd a084 29bd
00000210: dd94 9f3d b7ac 89bd 40e4 7ebb 990e 023d
00000220: 3eee 96bd d88d 513d f3ce 3bbd 1acb d93c
00000230: 5b32 c8bb 172f 7d3c d43c 0f3e 8d31 c1bc
00000240: bba2 8b3c bd7d e33c c62b d23b 16fd 1bbe
00000250: dd25 9dbc e2fb 1c3e 6d11 813d 1399 653c
00000260: a76c 9abc 0fa5 01be 590b b2bd bfcd 8dbd
00000270: 5542 13bd 22a0 8bbc f51f 043e 50c7 253d
00000280: ad4d 8d3c b342 bd3c 9033 93bd 170b 0dbe
00000290: bf80 c9ba 47a2 46bd 5919 1cbd 2693 edbd
000002a0: b51b c5bd 08cf a23d 0e24 023e 9c88 683d
000002b0: 130d 543d 4de0 b3bd d260 cbbb c6d8 163c
000002c0: 7715 a93d 3a73 253d ac6d 77bc d887 4a3d
000002d0: ddc2 1a3d e214 2b3d faa1 76bd 0af4 093e
000002e0: e137 04bd 2c40 12be 2353 61bd aa70 5439
000002f0: 671c cb3d 8785 a4bc 2564 933d e69d be3d
00000300: a490 753d 725b f23c d948 83bd 9ee8 b3bd
00000310: c03e 14bd 1728 383b 6918 9f3b 7eb4 8fbd
00000320: 7d8d 6bbe 1129 21bd f831 d1bc 0c87 c4bd
00000330: d687 f2bc d71c fdb9 5a30 77bc 2eff c9bd
00000340: a80f 263c 6244 713d a8a6 a93c d45a 63bc
00000350: 0e55 18bd 4c34 84bd a869 39bd 1441 46bd
00000360: eb83 d7bd 0d2a 80bc b91d debc 110f 3f3d
00000370: 183b cbbd fa08 88bc 315a 9d3c e1f0 d1bc
00000380: 7b68 213d bc1a 82bd 373a d9bd f9fc df3d
00000390: 3f1d b2bd 82d6 11bd b65b 4e3d b4bc c3bc
000003a0: 8d4e 1cbd 6188 d2bc 6f34 ddbd 96aa 01bd
000003b0: 8697 753c 1433 183d c7b3 05bd 9c8a efbd
000003c0: c4b1 313c 0571 2bbc f7cb 70bc 246c 9fbd
000003d0: 07d2 3e3c 3a84 04bd 023b 95bd e454 9b3d
000003e0: e4b5 a73d a6ca c83d 6c4b c53c 778c 97bd
000003f0: afee 69be 73dc a3bd c6b6 82bc 5f3d 2e3e
0.037708625 0.054246433 -0.041044414 0.12390036 -0.033607855 -0.061884567 -0.076856166 -0.012655144
0.048142873 -0.038490966 0.05219383 0.0032871675 -0.055773564 -0.00015534724 -0.027472941 -0.014376633
-0.022091696 -0.032348294 -0.09092362 -0.10433298 -0.08107911 -0.08066858 0.05276878 -0.031030376
-0.02380097 -0.023917165 -0.025527367 0.0479531 0.12975791 0.040461786 -0.06537002 0.02308228
0.009497365 0.12791821 0.119597584 0.020764656 -0.037230946 0.01546217 0.030204836 0.068520755
-0.02848843 -0.08779112 0.023898607 -0.07772351 0.00608343 -0.019284345 0.040247813 0.0060320725
-0.007861416 -0.13185349 0.041953705 -0.028461227 0.014870752 -0.043245025 -0.10103717 -0.00087217067
0.06571898 -0.0029046307 0.036599573 -0.09272745 -0.06765575 0.02564817 -0.039559815 -0.06210008
0.028065307 -0.07961039 -0.071474366 0.0058733947 0.04863677 0.102558784 -0.014904468 -0.091600515
-0.010685694 -0.07181085 0.12830596 -0.06554224 0.033477906 0.06355244 -0.06977705 0.003398352
-0.045282435 -0.04357298 -0.040989064 -0.06507989 -0.07088173 0.007666921 -0.030051356 -0.039161455
-0.026732387 -0.053251203 -0.05950561 0.015098722 0.07547901 0.057283275 -0.046795618 -0.010349879
0.11257225 -0.050827507 -0.12933974 -0.08554234 -0.060537 0.06143894 -0.060789205 -0.054399423
0.0022599096 0.030983591 0.1057752 0.0056629684 0.050325885 0.0053112237 -0.015619439 -0.033461843
-0.042777773 0.047196373 0.042244688 0.052446425 0.031430714 0.043257963 -0.019614458 0.05259182
-0.027238568 0.05209705 -0.10512266 0.047769275 -0.077136256 0.013214462 -0.0009117085 -0.05645083
0.06511392 -0.096032165 -0.07927524 -0.041386247 0.07792065 -0.06722396 -0.0038893372 0.031752203
-0.0736966 0.051160663 -0.04585166 0.026586104 -0.0061095185 0.015453122 0.13988048 -0.023583198
0.01704537 0.027769918 0.0064139096 -0.15233263 -0.019183094 0.1533046 0.06302152 0.0140135465
-0.018850638 -0.12660621 -0.08693571 -0.069240086 -0.03595193 -0.01704413 0.12902816 0.040473282
0.017248953 0.023103094 -0.07187569 -0.13773762 -0.0015373452 -0.048494603 -0.03811011 -0.11600332
-0.09624425 0.07949644 0.12709066 0.056770906 0.05177028 -0.08783016 -0.0062066102 0.009206956
0.08256047 0.04039309 -0.015101831 0.049445957 0.037783492 0.041767962 -0.060213067 0.13472
-0.032279853 -0.14282292 -0.055010926 0.00020259866 0.09917527 -0.020083202 0.071968354 0.093074605
0.059952393 0.02958462 -0.06410379 -0.087846026 -0.036192656 0.0028100067 0.004855205 -0.07016848
-0.23003192 -0.039345805 -0.025536522 -0.09596071 -0.029605787 -0.00048277408 -0.0150872115 -0.09863125
0.010135569 0.058903106 0.02070935 -0.013876636 -0.03719049 -0.06455287 -0.045266777 -0.048401907
-0.10523208 -0.015645051 -0.027113782 0.046645228 -0.099233806 -0.016605843 0.019208046 -0.025627555
0.03940628 -0.063527554 -0.10606807 0.109369226 -0.086969845 -0.03560496 0.05038043 -0.023893692
-0.03816085 -0.025699796 -0.108010165 -0.031656824 0.014989739 0.037158087 -0.032642152 -0.116963595
0.010845605 -0.010463958 -0.0146970665 -0.07784298 0.011646754 -0.032352664 -0.072866455 0.07584551
0.0818899 0.09804277 0.024083816 -0.073998384 -0.22844957 -0.08001032 -0.015956294 0.17015599

network_body._body_endoder.seq_layers.4.bias f4 [256]
00000000: be71 143d d600 c4bc c0ab 173d 7ca2 61bc
00000010: 9952 27bc 6f9c de3c 8293 78bc 23ee 47bc
00000020: 0571 acbc 7e8b 1c3d c7c8 ae3c 7fda 8cb9
00000030: 5ff4 5fbc a409 ad3c 129a aa3c 26ec 103d
00000040: c7ea 043c 1521 ce3c 4100 62bc 284f 99bc
00000050: c6df c4bc e7ba adbc 4649 aabc 921a c9bc
00000060: 6eea 123d a6ed 1dbb 24cc a53c 3379 023d
00000070: 6a56 043d 05f6 ab3c b20d e4ba 0ef1 1b3c
00000080: 3c15 0a3d ed4d c5bc af1a 943c b4be fb3c
00000090: e0d0 853c 1fac 72ba a5db 023d 4491 003d
000000a0: 71fc d03c a1a9 0d3d 1d8f 7f3b 222f 7f3c
000000b0: d8fb a0bc bbfd c53c 00c7 d73c 2f8e bebc
000000c0: 1afd 913b fbb3 323a ff70 073d 1a80 a439
000000d0: a859 9d3c d3fb 3abc baf8 aabb d463 043d
000000e0: 1058 023d 40e4 ee3b 6783 99bc 5277 db3c
000000f0: 1256 c33c 5599 a73c 220d c03c eadb 013d
00000100: 53b4 963c a64a 50bc c24b cdbc 16fc 8ebc
00000110: a110 d13c d43a c9bc f086 3d3c 9d63 103d
00000120: 4484 d3bc e284 9e3c f35c 8bbc 14d0 203c
00000130: ed87 b1bc 3745 113d 54b5 093d b943 433c
00000140: 4b6f aebc 73e4 1b3d 50e9 233d 930a cdbc
00000150: 6db5 d2bc 6181 c23c db62 aebc 5387 bfbc
00000160: bd0a 2fbc 080d b3bc 7dab 093d 1529 9fbc
00000170: eeaf 9b3c 56a6 67bc dd25 abbc 12f3 283d
00000180: 6080 16bc 6ec5 d83c 1f31 163d 55de 34bc
00000190: 86bb b7bc d1a5 8ebc cd0c 1c3d 49ab 0a3d
000001a0: 3397 9bbc 8d94 973b de23 153d c11e c53c
000001b0: 3468 27bb ebe7 b5bc 753c 6fbc 7a68 e43c
000001c0: 97f6 96bc d2c5 883c 5f87 f93c 38c4 24bc
000001d0: 3728 a5bc ffdd a7bc 8bb8 153d 694b a4bc
000001e0: b265 003d 5ab0 fd3b 7669 1f3d 8ac9 063d
000001f0: c7b6 013d 5463 acbc 9e4f ba3c 4867 85bc
00000200: 144a b4bc 3386 babc a3ff 103d 4b09 ab3c
00000210: 5d63 113d d3a6 e73c 7079 ef3b cebd dbbc
00000220: 8c99 7c3c 955c c73c 7fd2 ba3c 8b4f 9b3c
00000230: 9a5d 813c 6da2 9c3c 4e4e 253c 0e19 13ba
00000240: 6584 d5bc 78f3 7b3c 2f1b 25bc a0ac f83c
00000250: fdc9 5ebc 6f63 adbc c231 c4bc edfa 163d
00000260: e5b9 ca3c ac35 073d b998 6ebc e987 a7bc
00000270: 33b9 79bc 1f37 0a3d 7697 773c c39f 53bc
00000280: 9f00 ac3c 163c f73c 4467 93bc 6e6e 8b3c
00000290: 6461 903c 554a c4bc 0cce c9bc a962 4dbc
000002a0: e02e e6bb ab41 143d 7cc9 f4bb e09f 1bbc
000002b0: 4e43 9d3a 0317 bb3c fdee e13b 0364 bd3c
000002c0: 97ab 0c3d b9f1 cb3c d8d7 d13c 184a 9f3c
000002d0: 50a0 8bbc e672 233d 326e bcbc 3138 faba
000002e0: 31ef 0e3d 4b03 493a 9054 033d cf34 8f3c
000002f0: 4bb5 ad3c 8b47 823c 9352 643c 3ecf 27bc
00000300: d3ee bbbc 50fc 673c 2efd 993c 91d1 debc
00000310: 72b9 98bc 13fd b2bc b6cc 2e3c eaad 323c
00000320: 8f7e 0d3d 48de be3c fb78 75bc 1935 a6bc
00000330: 0bc6 b63c 4dd9 b33c 10ec a5bc 247a 64bc
00000340: 876b 59bc a53d 0d3d 9548 8fbc ef37 ed3c
00000350: 918b 98bc 7010 b43a 13b8 4e3c fae7 aabb
00000360: 91b2 bc3b 45fc c43c 6fce ed3c b228 123d
00000370: 3f0a cdbc f2c8 9e3b 1832 853c ec36 d0bc
00000380: 7ecd f33c 2b5a 063c 1d30 36bc d6d6 d9bc
00000390: 905f 063d d4c4 73bb cf01 953c 3ce1 82bc
000003a0: cceb 76bb 616e 983c 1553 bd3c 890a 103d
000003b0: f490 e13c 4891 c5bc b7b3 563c 9bba d5bc
000003c0: ad27 9b3b 012c a0bc 6eb8 293c a105 f73c
000003d0: 65eb ef3b d6c9 72bc d04f 833c 87b9 0f3d
000003e0: 0021 8c3c a0c4 703c 423e 053d 9cbb 99bc
000003f0: f922 a4bc 838f c23c cda4 b4bc d513 9c3c
0.036241286 -0.02392618 0.037029028 -0.013771649 -0.010212564 0.027174203 -0.015171887 -0.012202772
-0.021049986 0.038218968 0.021335972 -0.00026865673 -0.013669102 0.021122761 0.02082542 0.03538146
0.008112616 0.02516226 -0.013794006 -0.018714502 -0.024032485 -0.021207286 -0.020786893 -0.024548803
0.0358681 -0.0024097948 0.020238943 0.031853866 0.032308973 0.020991335 -0.0017399101 0.009517921
0.033711657 -0.02408501 0.01807913 0.030730583 0.01633495 -0.00092572154 0.03194775 0.031388536
0.025510998 0.0345856 0.0038995214 0.015575202 -0.019651338 0.02416884 0.026340008 -0.023261158
0.004455221 0.00068169803 0.033066746 0.0003137596 0.01920779 -0.011412579 -0.005217639 0.032321766
0.031822264 0.007290393 -0.018739415 0.026790295 0.023844752 0.020458857 0.023443762 0.031703867
0.018396532 -0.01271311 -0.025060538 -0.017454188 0.025520625 -0.024564184 0.011567816 0.03525125
-0.025819905 0.019350473 -0.017012095 0.009815235 -0.02167126 0.0354664 0.033620194 0.011918002
-0.021293303 0.038059663 0.040017426 -0.025029456 -0.025721276 0.023743333 -0.021287372 -0.023379957
-0.010683713 -0.0218568 0.03361081 -0.01942877 0.019004788 -0.014138779 -0.020892078 0.041247435
-0.00918588 0.02646133 0.03666794 -0.011039336 -0.022428285 -0.017413052 0.038098145 0.033854757
-0.018992996 0.004625863 0.03641116 0.024062516 -0.0025544288 -0.022205314 -0.014601816 0.02788185
-0.01842813 0.01669589 0.030460058 -0.010056548 -0.020160777 -0.020491598 0.036552947 -0.02005549
0.031346984 0.00774197 0.038918935 0.032907046 0.03166845 -0.021043457 0.022743043 -0.0162846
-0.02200798 -0.02276907 0.035400044 0.020878455 0.03549515 0.02827779 0.0073081776 -0.026823904
0.015417468 0.024336139 0.02280545 0.018958827 0.015791703 0.01912042 0.01008947 -0.00056113384
-0.026064107 0.015377872 -0.010077282 0.030355752 -0.013597962 -0.021165578 -0.023949508 0.036860395
0.024746845 0.03301017 -0.014562779 -0.02045055 -0.015241909 0.033743974 0.015111795 -0.012916508
0.02099639 0.030180018 -0.017993577 0.01702043 0.017624564 -0.023961226 -0.024634384 -0.012535729
-0.007024631 0.03619544 -0.007470308 -0.009498566 0.0011998208 0.022838121 0.0068949447 0.023118978
0.03434333 0.024895536 0.025615618 0.01944451 -0.017044216 0.039904498 -0.023001764 -0.0019090233
0.03489608 0.0007668032 0.032063067 0.017481236 0.021204611 0.015903255 0.013935703 -0.0102422815
-0.022941029 0.014159277 0.018797483 -0.027199538 -0.018643115 -0.02184919 0.010668924 0.010905722
0.034544524 0.023299351 -0.014982457 -0.02028899 0.022311231 0.021954203 -0.020254165 -0.013945136
-0.013270265 0.034482617 -0.017490664 0.028957335 -0.018621238 0.0013737809 0.012617129 -0.005215642
0.0057585915 0.024046073 0.0290291 0.03568334 -0.0250293 0.004845732 0.016259238 -0.025416814
0.029761072 0.008200209 -0.01111987 -0.0265917 0.03280598 -0.0037196176 0.018189339 -0.01597654
-0.0037677167 0.01860732 0.023110906 0.035166297 0.02753494 -0.024117127 0.013104371 -0.026089957
0.0047349543 -0.019552233 0.010358913 0.030154051 0.0073217624 -0.014818629 0.016029269 0.035089042
0.01710558 0.014695317 0.032530077 -0.018766217 -0.020036208 0.023750072 -0.02205124 0.019052425

network_body._body_endoder.seq_layers.4.weight f4 [256, 256]
00000000: 8106 51bd f335 3e3d 91cf aebd 3859 633d
00000010: 595e 833b 9796 32bc 63a5 28bd 765c 733d
00000020: a714 abbd 8dcd 31bb f4ef d1bc 05cc c43c
00000030: b2c7 1abd bad1 953d 20ab 593d 280f 8d3d
00000040: be1a 223d bf6e 793d bd76 c43d 197d 4dbd
00000050: f6e2 c5bc 9bbb 903d 2391 9e3d ca99 e2bc
00000060: d405 983c e645 da3d 7b5b e3bc 52ea f3bd
00000070: 7132 153c 27c6 70bd 8fb9 0f3e 0a78 253d
00000080: 9f26 1e3d 6da5 063d e85c f9bd 3a81 843d
00000090: 55b7 163d 63dd 5ebd 9123 a93c bdca cbba
000000a0: 6f3b eb3c 6ad2 ad3d 1544 8cbd 791f 1dbe
000000b0: 017a 8bbd 71ae 8f3d 3eb4 62bd c932 6fbb
000000c0: 9661 c13b 5541 d23d 2c33 523d d772 d4bd
000000d0: 0bef 2dbd 1e8b fdbc 82ae d0bc e367 303d
000000e0: 2405 993d d635 643d fa3e be3d e5ba ff3c
000000f0: 6292 673d 2f42 5c3d b096 dd3b f13e 9fbd
00000100: ee99 a53d 3942 1a3e a655 683d a2cf 1c3d
00000110: 747f fbbc e44a c8bd 723e b33d c8ad 9cbd
00000120: d640 f6bd 8af2 ad3d e770 8cbd 4cae c7bd
00000130: d02d 983d 866d d43a fe5e 38bc 2127 c1bd
00000140: af67 80bd ef60 6ebc 1ed5 853c 0637 acbc
00000150: cf4e e6bd 11d1 d73c 934e b93b ab48 55bd
00000160: 1f89 6abd 25d9 19bc c5cb b33d 8e97 963d
00000170: 5350 08bd 3d36 533d 0f53 203d 59b7 733d
00000180: 1322 76bc 23b4 34be 098b 393d 7e2c 8fbd
00000190: 1b06 82bd 5247 1ebd 352d 193d a038 05bd
000001a0: c692 10bb 2c29 eabc f574 003e f932 02be
000001b0: e25b 07bc 1eae 6bbd fd7a 07bd 139c ccbd
000001c0: aade f5bc 1328 133e a919 abbc e0e7 6f3e
000001d0: b12e b93b 6fab 60bd 102f 113d d277 ba3d
000001e0: 85c1 213e 8319 b03d 6b1b 72bd d24a 99bd
000001f0: 9945 60bd c94d c93b 7f0b 643d b055 0c3d
00000200: 72c9 1abd 7429 d2bb b21d 58bd 6a4e 9ebc
00000210: 962e 083b 9e6b d0bb f5f5 afbd 485f 23be
00000220: a1c9 2c3e 9b03 d63d b0a3 f9bd af9a d1bc
00000230: c4bb bebc c0b7 f7bc 3ef3 1bbd bc0a 32bd
00000240: 9139 f63b 1210 68bd 02fb 1f3d 113e 243d
00000250: 91f6 b9bd 5bad 21bd d53e 6e3c 35f8 6cbc
00000260: 6931 703c b090 bbbc 8a75 5ebd 9b9e 8cbc
00000270: d9d5 803b ea20 afbd f7ea e13c 87a8 be3d
00000280: 857d 723d 9a07 403d 880b 23bc bd79 efbd
00000290: 0c69 0b3c 7812 5fbd 325d 3a3d bada e4bb
000002a0: 9f45 c2bd d25c bc3c 0e89 c0bd dc7c 30bd
000002b0: 9e30 1dbe cec1 2e3d 1f2a 1d3c a0ee d4bd
000002c0: 73b8 203e de00 4bbb 2ea4 863c 185d b4bd
000002d0: 4c81 21bc 4d26 f83d 4e71 0abd e3cd a2bd
000002e0: dd45 02be 7cba 5f3d 3eec d33c b3c7 3bbd
000002f0: ddd1 973d 3fcc 363d d1f3 0abe c814 16bc
00000300: 4470 66bd 8523 073d 6ecc 8cbd c687 85bd
00000310: 5338 29bd 25ac c83d 58b5 b1bd 745f 36bd
00000320: bbde a63d 498a d33d 0bcb 5f3d 16b3 4f3c
00000330: e2b7 713d 19fa afbd 12df 92bd 4007 da3c
00000340: 746e b8bd 97e8 16bc 803f 07bc d6ba 453d
00000350: cc5a 993d 4353 babd ea0f 333c fb6e d1bc
00000360: 29c1 19bd 28d9 f83c 48f1 0cbd d85d b93c
00000370: 6314 dfbc 61b0 0cbd fdde 0f3c 01c1 873d
00000380: 241e 83bd 4b34 59bd 8fd3 e7bd 1559 683d
00000390: 8b4c 3c3c 9287 3dbd 73de aa3b 962a b3bd
000003a0: d310 063e 37c9 0a3c 2b34 f0bd 302e a33d
000003b0: b91f 8cbd c46c ae3c 00f7 823d ae43 b93d
000003c0: e65f 583d daa3 00bc 51d6 aabd fdd6 4d3d
000003d0: 243d 3ebd bc48 4cbd 86b4 25bc 02c9 eabd
000003e0: 79f4 66bd 5c78 32bd d3f0 a8bc 1e98 c2bc
000003f0: c76c b53c ffec cabd ed67 98bc f5a3 9dbd
-0.051031593 0.04643817 -0.08535684 0.055505008 0.00400905 -0.010900161 -0.04117335 0.05941435
-0.083535485 -0.0027130574 -0.025627114 0.024023065 -0.0377881 0.07315393 0.053141713 0.068876565
0.039576285 0.06089663 0.0959296 -0.05016813 -0.024156075 0.07067033 0.077425264 -0.027661223
0.018557467 0.10657863 -0.027753582 -0.119099274 0.009106264 -0.058782723 0.14035629 0.04039768
0.03861105 0.032872606 -0.121759236 0.064699605 0.036795933 -0.05441035 0.020646842 -0.0015548092
0.028714864 0.08487399 -0.06848923 -0.15344037 -0.0681038 0.07015694 -0.055347674 -0.0036498776
0.0059015257 0.10266367 0.051318333 -0.103734665 -0.042464297 -0.030950125 -0.025473837 0.043067824
0.074716836 0.055715404 0.092893556 0.031217048 0.056536086 0.053774055 0.006762348 -0.07775677
0.080860004 0.15064324 0.056722306 0.03828395 -0.030700423 -0.09779909 0.08752145 -0.07650334
-0.12024085 0.08493526 -0.06857472 -0.09750041 0.07430613 0.0016206957 -0.011253117 -0.09431291
-0.06269776 -0.014549478 0.016336974 -0.021022331 -0.112455 0.026344808 0.0056551187 -0.052071255
-0.057259675 -0.00939015 0.087791 0.073531255 -0.03327973 0.051565398 0.03914171 0.059501026
-0.015022772 -0.17646842 0.04529861 -0.06990908 -0.06348821 -0.038642235 0.03739663 -0.032524705
-0.002206014 -0.028584085 0.12544616 -0.12714757 -0.008261653 -0.057539098 -0.033076275 -0.09990706
-0.030013401 0.14370756 -0.02088626 0.23428297 0.005651318 -0.05485099 0.035445273 0.09104885
0.15796478 0.08598616 -0.05910818 -0.07484974 -0.054753873 0.006143306 0.055675026 0.034261405
-0.03778977 -0.006413633 -0.052762695 -0.0193245 0.002077972 -0.006360485 -0.085918345 -0.15954316
0.1687379 0.104499064 -0.12189424 -0.025586454 -0.023282893 -0.030238986 -0.03807377 -0.04346727
0.0075141867 -0.05665595 0.03905774 0.040098254 -0.09080232 -0.039471965 0.0145413475 -0.014463474
0.014660218 -0.02289614 -0.054311313 -0.017165473 0.0039317426 -0.085512 0.02757786 0.09309488
0.059201736 0.04688225 -0.00995148 -0.116931416 0.008508932 -0.054460973 0.045499034 -0.006984082
-0.094859354 0.022993479 -0.09401141 -0.043087825 -0.15350577 0.042665295 0.009592562 -0.103970766
0.15695362 -0.0030975859 0.016435709 -0.08806819 -0.009857487 0.1211668 -0.033799462 -0.07949426
-0.12721963 0.054621205 0.025869485 -0.045844745 0.07413075 0.044628378 -0.13569571 -0.009160228
-0.05625941 0.03299286 -0.06874929 -0.06520037 -0.04131348 0.09798459 -0.08677167 -0.044524625
0.08147951 0.1032911 0.054636996 0.012676975 0.059013255 -0.08592624 -0.071714535 0.026614785
-0.09005442 -0.009210727 -0.008254886 0.048273884 0.07488021 -0.09097912 0.010929087 -0.025565615
-0.037537728 0.030376986 -0.03440979 0.022627756 -0.0272314 -0.034347896 0.008781192 0.066286094
-0.06402233 -0.053028386 -0.113196485 0.05672558 0.011492859 -0.046271868 0.0052145063 -0.08748357
0.13092355 0.008470825 -0.117287 0.07967794 -0.06841988 0.021292098 0.06394768 0.09046112
0.05282583 -0.007851565 -0.08341659 0.050253857 -0.046445027 -0.049874052 -0.010113841 -0.114641204
-0.05638549 -0.043571815 -0.020622646 -0.023754176 0.022146596 -0.09908485 -0.018604243 -0.07697288

network_body.observation_encoder.processors.0.normalizer.running_mean f4 [6]
00000000: 5169 0442 61fb 4b41 78f4 6342 ff1e 01c2
00000010: 7a31 b33f 9650 8ec2
33.102848 12.748872 56.98874 -32.28027 1.3999474 -71.157394
