Assets/Training/results/learn_v2/MarsTaxi/MarsTaxi-1999943.onnx (onnx, 542464 bytes, 10 tensors)

54 f4 [6]
00000000: 2a31 0d42 f301 8041 6886 6542 ac64 bb3c
00000010: f1a1 9f3a 0468 4e3d
35.29801 16.000952 57.381256 0.022875153 0.0012179 0.050392166

action_model._discrete_distribution.branches.0.bias f4 [6]
00000000: c781 b23c 687f 4b3c 579e 41bd 666e 883c
00000010: fe9d c73b b8dd 7dbd
0.021790398 0.012420513 -0.047270145 0.016654205 0.006091832 -0.061979026

action_model._discrete_distribution.branches.0.weight f4 [6, 256]
00000000: a7b1 363c bb2a e63c 479b 15bd f293 25bd
00000010: 45f3 183a 3e59 db3c dc59 ffbb 3d77 413c
00000020: a97e a0bc 36b2 b33c 3064 043d db39 af3c
00000030: 315d 363c 6cc4 913b c58f f53b a257 ce3c
00000040: 0031 4e3c 7c56 ea3b 059e a83c 3fee 88bd
00000050: f758 c43b bb53 1abd c998 6b3b cfc5 17bd
00000060: df1a 253c 6c15 633c 584f 68bd 4940 50bc
00000070: 6edf 04bc f60a 3cbd e958 323d 54e0 833c
00000080: 26d1 5cbd 149a f53c 07bc 953c 5857 4dbd
00000090: 7f86 e63b 0482 0abd 2c3e c53c d7c8 4dbd
000000a0: c7e7 0a3d 7b60 3f3c 0f1a 883c 07d5 d83c
000000b0: c5fb a83c bd1a 6cbc d840 d73c 946c 1ebd
000000c0: f8cc 16ba d0e9 2dbd 5c63 58bd 8da4 57bb
000000d0: e639 273c e0d7 65bc 91fc 4639 6a4c bc3c
000000e0: 2c9d b43c 4449 023c 7217 08bd 201f cf3c
000000f0: e4d0 c43c 773c 203d bdee c1bc 8d9f 353c
00000100: 3ccc 5bbc fb1a c53c fd93 843b cce8 89bb
00000110: 986c 2d3c 0464 0dbb 532d 433c 2a7e c2bc
00000120: bd06 f03c 33e3 10bd 1620 c03c 8bab 1d3b
00000130: 782a 04bd 5083 35bd aff3 30bd 75e5 103d
00000140: 6108 ea3c 0d49 073d c92f 1ebd c744 2f3d
00000150: 929a ccba 0236 c1bb 2e95 ef3b cb5b 54bd
00000160: c6a6 253d 84eb 0ebc 942f a83c 8949 84bc
00000170: 67bd 31bd f80b bebc 8bb4 bb3b 717d e93c
00000180: c7db 7a3c 0834 98bc 68a8 c8bb 1374 05bd
00000190: 9e1d 74bc ef3d 103d 97c9 9b3c b40b a8bc
000001a0: c2ff 29bd b9ce 593c a071 d63c 3aa7 df3c
000001b0: cc0e 95bd e5fb e3bc b3ca aa3c d9a0 0abd
000001c0: 4fd7 e6bc 5ca0 1f3c 610a c23c af11 5fbb
000001d0: 191c 733c 5ba8 03bd 1a33 ee3c eb62 3d3c
000001e0: 42c6 34bd 7b11 90bc e93b 12bd 1092 c03a
000001f0: e85c 1a3c 0ca0 7a3b d790 283d ef36 39bd
00000200: dd44 a93c c49d 2c3c a5f6 0cbd 0a2c fa3c
00000210: c9e1 23bc 0266 9b3c a444 063d aed7 0b3d
00000220: c9d7 b63c d48b c0bc adce a0bd 4335 c5bc
00000230: af40 4b3c 2b6e 1ebd 9898 33bb 92de f03c
00000240: 0b1f 423d e2d7 25bd b897 e6bc 2788 1c3d
00000250: 3d9a 86bc 1090 e33c 4741 733c a171 103d
00000260: e6af 5b3c e332 c1bc e4dc 5dbd 2bdb f53c
00000270: 7e96 c23c 9505 0d3c 8bc4 4c3c 5562 1b3d
00000280: b8af d23c 4aca 7c3c 5899 163c 6d2a ad3c
00000290: 9bc9 673c fa1b 453c 64b6 673c b7df bc3c
000002a0: 4f14 3bbd 99ab c53c e265 af3c f192 c53c
000002b0: 457b 423c 5a13 443c 5f98 8c3c e10b 06bd
000002c0: 2c5f 423d 8951 b93c e2a7 f53c badc 1bbd
000002d0: 79e6 013c 2b25 763b 4873 113c 059a ac3c
000002e0: 6bcf 84bc 0a5b fd3c 8f82 0fbb 9c9d a63c
000002f0: 9e48 15bc cf54 1d3d 19cc bb3c 73ed 863c
00000300: 5f5d d53c 6353 123d 8219 27bc 31ad 23bd
00000310: ce1b 45bd 2258 24bd 9ebd 203c 5c12 dd3b
00000320: def8 ca3c 807b d43c 3c3d 923c 231d 3bbd
00000330: 7746 8a3c 487a 423c f1bf 9f3c 9ff3 7c3c
00000340: 5021 51bd 984e 63bb e3ad 48bd ca7b da3c
00000350: 91ae b63c 061a 91bb 1d78 563c b1d9 cfba
00000360: 2bda ce3c 8b98 a639 80c0 c93c 264f adbc
00000370: 411a 42bb d26e 173d 9658 4bbd d4c4 f73b
00000380: 68c2 22bc 7af6 5cbd 5daf 0fbd 1232 88bc
00000390: 3494 c0bb cf9e ef3c 22f4 27bd 3f13 9d3c
000003a0: bc81 c03c 2456 52bd 2767 40bd b0e7 9a3c
000003b0: bbc6 803c 5fc9 d13a 04c0 883c 3ce4 383c
000003c0: 28d8 47bd 6ddf 9bbb b0b6 25bc 0f57 0b3c
000003d0: a20d e7bc 8f3d c2bb 6453 a33c 0468 b93c
000003e0: 92a9 2dbd d474 a0bc 317d e23c 82b3 9abb
000003f0: 47b1 153c d96b 903c a3f2 d73c 0cae deba
0.011150754 0.028096547 -0.036525037 -0.040424295 0.000583459 0.026775952 -0.0077926945 0.011808214
-0.019591646 0.021935564 0.03232211 0.021389892 0.011130617 0.004448464 0.0074939453 0.025188271
0.012584925 0.007151423 0.020583162 -0.06686067 0.0059920507 -0.037677508 0.0035949221 -0.03705388
0.010077207 0.013860088 -0.056716293 -0.012710639 -0.00810991 -0.04590889 0.043541823 0.016098179
-0.053910397 0.029980697 0.018278135 -0.050132126 0.007035076 -0.0338154 0.024077497 -0.050240364
0.033912446 0.011680718 0.016613988 0.026468767 0.020627866 -0.014410672 0.026276037 -0.038677767
-0.00057525886 -0.04245931 -0.05282913 -0.0032904476 0.010206675 -0.014028519 0.0001897684 0.022985656
0.022047602 0.007952038 -0.033225484 0.025283396 0.024025388 0.039120164 -0.02367341 0.011085403
-0.0134153925 0.024060717 0.004045962 -0.0042086598 0.010584973 -0.0021574507 0.011912662 -0.0237418
0.029300088 -0.035372924 0.0234528 0.0024058546 -0.032267064 -0.044314682 -0.043201145 0.035375077
0.028568448 0.03302865 -0.03861979 0.0427902 -0.001561003 -0.005896331 0.007311485 -0.051845353
0.04044225 -0.0087231435 0.0205305 -0.016148346 -0.04339352 -0.023199067 0.0057283095 0.028502198
0.015311188 -0.018579498 -0.006123591 -0.0325814 -0.014899639 0.035215314 0.019017024 -0.020513393
-0.041503675 0.013293915 0.026177227 0.02730142 -0.07278213 -0.027830074 0.020848608 -0.033844803
-0.028178839 0.0097428225 0.02368659 -0.003403764 0.014838242 -0.03214298 0.029077101 0.011559228
-0.044134386 -0.01758646 -0.035701666 0.0014691968 0.009421565 0.0038242368 0.041153755 -0.045218404
0.02066272 0.010535661 -0.034414906 0.030538578 -0.010002562 0.01896954 0.032780305 0.034141235
0.022319691 -0.023504175 -0.0785192 -0.024073249 0.0124055585 -0.038679283 -0.0027404185 0.029403005
0.047392886 -0.040489085 -0.028148517 0.038215782 -0.016430968 0.027778655 0.014847106 0.035264615
0.013408637 -0.023583835 -0.054165736 0.030011734 0.0237534 0.008607288 0.012498031 0.037935574
0.025718555 0.015429089 0.009191833 0.021138394 0.014147188 0.012030596 0.014142606 0.023055894
-0.045673665 0.024129676 0.021410886 0.024117919 0.01187021 0.011967504 0.0171625 -0.032726172
0.047454044 0.022621887 0.02998728 -0.038052298 0.007928484 0.0037558775 0.008877583 0.021069536
-0.016212186 0.0309272 -0.0021897887 0.020338826 -0.009111552 0.038410958 0.02292447 0.016470646
0.0260455 0.035724055 -0.010198953 -0.03996009 -0.04812222 -0.040123112 0.009810833 0.0067465734
0.024776872 0.025937796 0.017851464 -0.045682084 0.016879303 0.011869974 0.019500704 0.015438943
-0.05105716 -0.0034684297 -0.048993956 0.026670355 0.022300037 -0.004428151 0.013090161 -0.0015857724
0.025250515 0.0003177564 0.024627924 -0.021155905 -0.00296177 0.03697092 -0.04964503 0.0075613055
-0.009934045 -0.053945996 -0.03507935 -0.016625438 -0.005877042 0.02925053 -0.041004308 0.019174216
0.023499362 -0.05135168 -0.046973374 0.018909305 0.015719762 0.0016005448 0.016693123 0.011284884
-0.048790127 -0.004756859 -0.010114357 0.008504643 -0.028204743 -0.0059277485 0.019937225 0.022632606
-0.042398043 -0.019586958 0.027647587 -0.004721106 0.0091365045 0.01762955 0.026360815 -0.0016989126

network_body._body_endoder.seq_layers.0.bias f4 [256]
00000000: 2603 15bb 462a a13b 0518 9e3d 4023 013d
00000010: e7d7 a73c 5acd 563d 821e ab3d f66e 1f3b
00000020: ec8c a9bb ad9f 8b3d f035 763c e92e d93d
00000030: 93bc 373d 407f 823c 0f67 87bd 9103 cd3d
00000040: 89af 663c ab84 ba3c 988b 2036 5d3a d03d
00000050: e6c7 043d 951b c13d 39a8 b2bc 1985 913b
00000060: 84f2 063d 9b1b cf3d 5ada a83d 570b 083d
00000070: 5806 b73c e0d7 553c 90d6 56bd ab82 e43d
00000080: 6389 0d3b e3ae a2bb 30fb 853d f362 b93d
00000090: c752 a9bc d7c6 9c3c 4399 bf3c 432a ea3d
000000a0: c802 823d a337 223d 87df 503c 600c 633d
000000b0: f9e7 073d e91a 583d 00f1 b13c b1d5 ac3d
000000c0: ef65 673d 379d 583d 70c5 cc3d 5004 fe3c
000000d0: 3c23 b93d 9416 ef3c ece6 2d3d a34e 0fbd
000000e0: f503 173d fea6 97bc 9322 333c 3c6a 073d
000000f0: e44f 9abb 57e5 163d e4c5 a43d f76f 30bc
00000100: 96d9 093d c152 4e3d 7acf 9a3d 2f59 0f3d
00000110: e52c e5bc c6ad 8a3d 95fc d53d a92f 563d
00000120: a039 033d 5e79 363d 2c89 ae3d 911f fb3c
00000130: fd67 0b3c 14bd e9bb 6cd5 df3c 0b48 113d
00000140: 247e 183d 581c ca3c 95e0 59ba 50ca c73c
00000150: cdc9 c23c 14af 743c 5da1 7bbc f64a a03c
00000160: e251 253c f55b 2c3d 81bc ffba 26f9 193d
00000170: f5bf 24bc b7d2 09bb 5f5b 2d3d 79dd e7b9
00000180: 304e fbba 4b47 863d 8b5f af3c 8238 b93d
00000190: f2cb 473d 9df3 d83c 2c7f a53d e84f 733d
000001a0: 32fd e63c c5db c33d 1eb9 073d 4ce0 553d
000001b0: c062 4c3d 599a 853c 2d58 ca3d f1d4 b73d
000001c0: 3781 ee3d 2263 753d 4015 7a3d 7655 823d
000001d0: 3ca0 b63d 7177 943d 62e2 3a3d 11a9 933d
000001e0: 715e b03d 44a4 8b3d 56cb e0bc 5a47 af3d
000001f0: e896 bb3d d211 c13d 7988 da3d fcb7 513c
00000200: 1fa1 d13c d91c 433d 6a11 a43d 8be9 e43d
00000210: f2dc 463d ef4b 8f3c bd4e 0a3c 9415 a23d
00000220: af8a b13c f51a fbbc 4097 283d d9fe de3c
00000230: b46a aa3d 1687 b73d 5deb 883d 4e30 593c
00000240: 33a2 553d bb46 3e3b 9bbc b8bb c749 513d
00000250: efb8 9b3c 4014 b13d ee3d ad3c f54c bb3c
00000260: 176c b13d ec41 e93c 498e e8bc b428 673d
00000270: c5f6 a63d f1af 12bb 82f1 863c 32c5 813c
00000280: dac9 d73c 86bd 2a3c dedf 383d ada9 693d
00000290: 295b 393c 9648 313d 9d83 8e3c 01fc 9d3c
000002a0: da7f 77bb 2d93 4c3d 5010 6a3d d68a 0c3d
000002b0: fcfb 243d e2f4 2f3c bbab fa3b 333b 6cbc
000002c0: 322c bebb fd77 38bc 7271 713d e9ac 4b3c
000002d0: 1ec6 85bc 578d 703d 8f28 7f3d 26d8 b43d
000002e0: 16b6 903d 7f99 5e3c 14fa cb3c 13c0 d03c
000002f0: 8f74 8a3d da2b 4b3d f5bf 8e3c d9b8 533d
00000300: 0824 aebc 729a 96bc cff7 a33c ded2 c33d
00000310: 5994 5c3d 0600 4c3d 015c 573d 9e22 8fbc
00000320: 9584 e03c 48d5 3e3d ac24 51bb 8626 463c
00000330: beb4 cfbc e6eb 313d f9f3 823d f6bc 093d
00000340: 58e3 c03c 5eb7 de3d c7d9 7c3d f053 8abb
00000350: 419e 953c 3dd9 dd3d 7cc1 3dbc 928c 20bc
00000360: 03e2 783c 1548 d1bc a661 3e3c 7604 8fbd
00000370: ca15 94bb e73f 833d 66dd 4d3d 1c67 493d
00000380: 1bd8 5e3d 15d9 d9bc 27df 183c aa81 e83b
00000390: 1e05 1b3d 7a14 463a 45d1 a33d 0e0f 963d
000003a0: 13ca a73c b75b 533d 5301 6fbc 076b d33d
000003b0: 3fa4 2f3d 86c4 093c 650a 18bc 616a de3c
000003c0: caa3 a2bd 5c5a 063d daec 2bbb 1ce9 563d
000003d0: 00a2 843d d2f3 3a3c ce20 403d e855 bcbb
000003e0: 0342 cd3c ee8d 773d 7ecb 1dbc f531 653c
000003f0: 9af7 853c 4ef4 303d d4e5 073d 9c1b 22bd
-0.0022737472 0.0049183695 0.07719425 0.031527758 0.020488692 0.052441932 0.08355428 0.0024327612
-0.00517427 0.06817565 0.015027508 0.106046505 0.044857573 0.015929818 -0.06611454 0.10010446
0.014079937 0.02276834 2.3923112e-06 0.10167382 0.0324172 0.09429089 -0.02180873 0.0044409153
0.032946125 0.10112687 0.08244772 0.03321394 0.022341892 0.013051957 -0.052450716 0.111577354
0.0021596781 -0.004964696 0.06542051 0.09052076 -0.020669354 0.019137783 0.02338851 0.11433842
0.06348187 0.03960384 0.012748606 0.055431724 0.03318021 0.05276004 0.021721363 0.08439196
0.056493696 0.052884307 0.09998596 0.031007916 0.090399235 0.02918557 0.042456552 -0.034987103
0.036869008 -0.018512245 0.010933536 0.033060297 -0.0047092307 0.03683981 0.08045557 -0.010768882
0.03365477 0.05037189 0.07559104 0.03499716 -0.027975509 0.06771426 0.10448567 0.052291546
0.032037377 0.04454934 0.08522257 0.0306547 0.008508679 -0.0071331356 0.027323447 0.035469096
0.037229672 0.024671718 -0.00083113584 0.024388462 0.023777867 0.01493432 -0.015358296 0.019566994
0.010090323 0.042079885 -0.0019511135 0.037591122 -0.010055532 -0.0021030137 0.042323466 -0.00044224763
-0.0019173082 0.06556567 0.021407863 0.09043981 0.04877848 0.026483351 0.08080897 0.059402376
0.028196905 0.09563402 0.033135526 0.05221586 0.049898863 0.01630895 0.098800994 0.08976162
0.116457395 0.059908994 0.06105542 0.06363957 0.08917281 0.07249344 0.04562605 0.07209981
0.08611763 0.068184406 -0.027440708 0.08558531 0.091596425 0.09427227 0.10670561 0.012800213
0.025589524 0.047634933 0.08011134 0.11177357 0.048550554 0.017492263 0.008441624 0.07914272
0.021672575 -0.030652503 0.04115987 0.02722113 0.08321133 0.089613125 0.06685517 0.013256146
0.05215664 0.0029033858 -0.005637718 0.05109575 0.019009082 0.086464405 0.021147694 0.022863844
0.086631946 0.028473817 -0.02838816 0.056435302 0.08152536 -0.0022382701 0.016472582 0.0158411
0.026341368 0.0104211625 0.04513537 0.05704658 0.011313238 0.043282114 0.017396742 0.019285204
-0.0037765414 0.049945045 0.057144463 0.03431209 0.040279374 0.010739537 0.0076498664 -0.014418411
-0.0058036083 -0.011259076 0.05894608 0.012431362 -0.016329821 0.058728542 0.06229454 0.088302895
0.0706598 0.013586401 0.02489952 0.025482213 0.06760513 0.049602367 0.017425517 0.051689956
-0.021257415 -0.018384192 0.020015625 0.09561704 0.053852413 0.04980471 0.052577976 -0.017472561
0.02740697 0.04659012 -0.0031912727 0.012094146 -0.02535474 0.04343786 0.0639419 0.033627473
0.023545906 0.10874818 0.061731126 -0.004221432 0.018263938 0.108324505 -0.011581775 -0.00979914
0.015190604 -0.025547067 0.011619961 -0.06983273 -0.004519199 0.06408673 0.05025997 0.0491706
0.054405313 -0.02659277 0.009330547 0.0070955353 0.037846677 0.0007556152 0.07998899 0.0732709
0.020482099 0.051601138 -0.014587718 0.10323148 0.042881247 0.008408671 -0.009279822 0.027150335
-0.079413965 0.032801017 -0.0026233704 0.052468404 0.064762115 0.01141067 0.046906285 -0.0057475455
0.02505589 0.06043809 -0.009631036 0.013988961 0.016353417 0.043201737 0.033178166 -0.03957711

network_body._body_endoder.seq_layers.0.weight f4 [256, 6]
00000000: 7d64 dd3d 67a0 293c e55c 6abe ed26 2cbd
00000010: 19f6 82bf 5975 8abe 38b8 0fbf 8b2f 5cbe
00000020: 9e10 1fbf 35b2 513e 6d9f cc3e 83ef b6be
00000030: 7c57 053f 64b1 413f 98fa d03e 1571 283e
00000040: 3d87 0ebe d107 27bf 2cf8 fdbe 92a2 c83c
00000050: c564 5b3e 9f99 a03e f36d fc3c 5d80 33bf
00000060: 6584 9f3e d9bf ae3e e244 c8bb e371 40be
00000070: dba1 cb3e 46e8 283e e98c 783e 44b3 d53e
00000080: ad23 1b3e 1c0f e0be 10ee c9be ac3d dbbe
00000090: 2d89 1dbe 7b4c 8b3d 7660 683e 4f8c a1be
000000a0: f0e9 283e 40e1 70bf 34b9 693c f8ee eabe
000000b0: 52ba f6be 8fdb 58bf 428e 02bf 0ba9 a0be
000000c0: 5a94 3c3e 82fa 4f3e bcb2 bcbe b9ee bc3e
000000d0: 571a 3a3d de0e 89be 18a0 c33c 8831 c9bd
000000e0: 11c3 0e3f a2b1 073f ea22 a4bd 1972 553d
000000f0: be2a 96bd 724a 9fbe c314 c8bd 1508 51bf
00000100: 5dca b1bd 20c8 a3be acd0 663f 1b89 4e3e
00000110: 73e4 58be 40f8 24bf 9cb8 a8bc f7e3 173f
00000120: a620 1cbf cd09 923e 6c10 173e b175 183f
00000130: 0c6d 8f3e b8c0 573e 51cf 223f 8369 6a3f
00000140: af11 38be 1ceb a3be 681a 593e 8714 483b
00000150: 7062 5abe 8c66 703d ea17 abbe d538 3a3e
00000160: b6c8 5bbd bef8 5a3e c017 ce3e c6bd b33d
00000170: a351 fa3d b693 ddbe 8cf6 9e3e d4b6 febd
00000180: b6fd ccbe 668f 783f acb3 643e dcb7 4bbd
00000190: 96ab 83be 7e40 8a3b d420 8d3e a4bf 72bd
000001a0: e9a5 0cbf 7e90 83be 32eb e8be 27a8 f83d
000001b0: db42 2fbe aa23 be3d 5543 00bf 3724 d0bb
000001c0: 195d 5ebd 40f1 3b3e 72a4 5d3e 3cf0 2e3e
000001d0: 45d1 933e a8fa 7abf 17bb 18be c335 a73d
000001e0: de19 443d 5d98 c1be 3515 d2be 90e9 cabd
000001f0: 42e0 023f c467 91be 54ab 2e3e 34a1 91bd
00000200: 3523 233d bb1e 8c3e aa7a 753e 12f8 e1be
00000210: 0cd3 bcbd f68b 30be bd45 123e 8bda 9e3e
00000220: ec30 483f 59e8 033d 2bef 803e 4a90 073f
00000230: f97d 9abe c64a 4abe 6ae2 df3e 2c3f 323e
00000240: ae51 dabd ad67 f23e f35e 24bf 603e e0be
00000250: a777 abbe 45c5 aabe 8389 f13d 8723 413e
00000260: 3757 c1be 1aa3 99be 2d60 f8be 13ea a4bf
00000270: bee4 283f 1431 d33d 8f73 923f 78fb 623f
00000280: e373 55be 8f8d 47bd 3ee5 f7be d99c 373f
00000290: ed26 323f b960 94be 02ff 8e3e 25b7 953e
000002a0: d6e4 89be 4dfe 00be ab8c f63d 321b f23d
000002b0: 2d62 c53b 2f79 07bf 6154 c1be c525 fc3b
000002c0: e0fb 18be 2e5e 80be e42c 033f 89ac f23e
000002d0: 74da 4cbd ac35 d9be fabd acbc ef2b 4f3f
000002e0: 9d3f b4be 59a4 5c3e 8743 c3bc 9972 173f
000002f0: e21a 163f 0430 9ebf 67e8 213f a23b 1f3e
00000300: 30f3 2f3e 478c 2ebe 4911 8fbe 6ded 9e3e
00000310: 42f5 2dbf beb0 a13f 5a76 2bbd 150f 923e
00000320: cc10 c53d b856 95be b658 303e 7ae2 2f3f
00000330: 889a 423e bbf3 903e cea3 7dbc 410a d43e
00000340: 5558 41be 81fa 0e3f 6053 723e bc0a 293f
00000350: cd78 d0bd e6a2 f93c 26bb d43e 456e a2bd
00000360: c19d 7d3e 1dfe d5bd b367 08bf 70cb dbbe
00000370: acbc 4f3e 919c 5c3e 6529 81bd 6d42 7cbf
00000380: 278b 82be 3105 66be 9cb5 f53e ee9c 9c3e
00000390: 46c2 253d 7dbc 123e f372 c93d 3563 393f
000003a0: b089 0e3f 9d2d 5b3e c349 233f d2c2 8c3f
000003b0: 7e44 303f 3cea 3abe f581 6abe 6e8d d33d
000003c0: b2bd 513e ea57 b7be 3ebc c03d ab2d 6fbf
000003d0: 64aa dfbe 70f4 91bf b5bc 5abf bc8b 01be
000003e0: b428 b83e 8674 5abf b5f9 bbbc 0340 893e
000003f0: b4c1 183f fc94 e9be c6e3 6ebf a418 223e
0.10810182 0.010353184 -0.22886999 -0.04202931 -1.0231353 -0.27042654 -0.5614047 -0.21502511
-0.6213473 0.20478137 0.39965382 -0.35729608 0.52086616 0.756613 0.40816188 0.16449387
-0.13918777 -0.652463 -0.49603403 0.024491582 0.2142516 0.31367204 0.030814147 -0.7011774
0.31155697 0.34130743 -0.006111727 -0.18793444 0.39771923 0.16494855 0.24272503 0.4173833
0.15150328 -0.43761528 -0.3943944 -0.4282049 -0.1538436 0.06801697 0.22693047 -0.3155236
0.1649549 -0.94093704 0.014265347 -0.45885444 -0.48189026 -0.8471002 -0.5099832 -0.3137897
0.18415967 0.20310405 -0.36855114 0.3690088 0.045435276 -0.26769155 0.02388005 -0.098239005
0.557664 0.5300542 -0.08014472 0.052110765 -0.07332371 -0.31111485 -0.09769585 -0.8165296
-0.08681176 -0.3198862 0.9016216 0.20169489 -0.21180896 -0.644413 -0.020595841 0.5933222
-0.6098732 0.28523102 0.14752358 0.5955458 0.28012884 0.2106961 0.6359759 0.9156725
-0.17975496 -0.32015312 0.2120148 0.0030529813 -0.21326613 0.058691546 -0.33416682 0.18185742
-0.05365821 0.2138395 0.40252495 0.08776431 0.12222602 -0.43276757 0.31047475 -0.124372154
-0.40037316 0.9709381 0.22334164 -0.04973589 -0.25716847 0.004219114 0.27564108 -0.059264794
-0.5494066 -0.25696176 -0.4549194 0.121414475 -0.17115347 0.09284146 -0.5010274 -0.0063519734
-0.054288004 0.18353748 0.21644762 0.1708383 0.28870597 -0.9803872 -0.14915119 0.08164551
0.04787623 -0.37811556 -0.41031805 -0.0990783 0.5112344 -0.2839948 0.17057544 -0.07110825
0.039828498 0.27367195 0.23972574 -0.44134575 -0.092199415 -0.17240891 0.14284416 0.3102611
0.7819965 0.032204006 0.2518247 0.5295454 -0.30174235 -0.19755086 0.43727428 0.1740691
-0.106601104 0.47344723 -0.6420738 -0.43797588 -0.33489725 -0.3335363 0.117938064 0.18861209
-0.37761852 -0.3000725 -0.48510876 -1.2883934 0.6597403 0.10312095 1.1441516 0.8866496
-0.20844989 -0.048718985 -0.48417085 0.71723706 0.69590646 -0.28980044 0.2792893 0.2924129
-0.269324 -0.12597008 0.12038549 0.11821593 0.0060236664 -0.52919286 -0.37759688 0.007694932
-0.14939833 -0.25071853 0.5124037 0.4739726 -0.05001302 -0.4242376 -0.021086682 0.8092641
-0.35204783 0.21547069 -0.02383591 0.5915924 0.5863477 -1.2358403 0.6324524 0.15550092
0.17182612 -0.17045699 -0.27942875 0.31040516 -0.6795236 1.2632062 -0.041860916 0.28527132
0.096223444 -0.29167724 0.1722134 0.6870495 0.19004261 0.28310952 -0.015480949 0.41414073
-0.18881352 0.5585099 0.23664618 0.66032004 -0.10179291 0.030473184 0.41549033 -0.079311885
0.2476721 -0.10448859 -0.5328323 -0.42928648 0.20286816 0.215441 -0.063067235 -0.9853886
-0.2549679 -0.22462918 0.4799012 0.30588478 0.040468477 0.14329715 0.09836378 0.72417
0.55678844 0.21404119 0.63784426 1.0996954 0.6885451 -0.18253416 -0.22901137 0.1032971
0.2048252 -0.3580926 0.09410904 -0.9342906 -0.43684685 -1.1402721 -0.85444194 -0.1265096
0.35968554 -0.8533405 -0.022946218 0.2680665 0.5967057 -0.4562148 -0.93316305 0.15829712

network_body._body_endoder.seq_layers.2.bias f4 [256]
00000000: 1ab2 aa3c a7ea ac3d 99e7 cd3b 39bb a8bd
00000010: 9890 cfbd 73b9 d6bc 8d2a 4f3c 4f33 4ebd
00000020: 2872 943d 664c 933d 9201 633c 693a b23d
00000030: af0a b23d eed3 2b3d 469e 3c3d 4cf8 2f3d
00000040: 11af 943d 07a7 a7bd 84de ac3c e571 c8bd
00000050: 4927 c43b 37a3 44bd 750a 8c3d 68c3 a83d
00000060: 7ded 833c 9a7f 923d f6b8 1b3d feb0 433d
00000070: 9753 873d 35df 6f3d 29e7 55bc bb55 133c
00000080: 8778 393d 3809 233d 5cb1 bd3b c4c7 3abd
00000090: f70e df3c bf4a 97bd 875c da3d e1ad e83c
000000a0: b5e9 613c 83ea d6bd 2aad 163c dade c03c
000000b0: c86f b6bd 2912 383d 3d67 2a3b bdc0 8c3d
000000c0: 66fa 80bd 1fda 803d 3d13 99bd 9a65 05bd
000000d0: 5dc3 2f3d 88a5 89bc 3a4e 3bbc bd22 a5bc
000000e0: 9ede fbbb 373f efbc af9f 133d ae92 113d
000000f0: a655 dbbc 66b2 bf3d 0512 603d adb7 0c3d
00000100: 29c8 c53b 1a4a 143d 27e9 90bc 0085 b63d
00000110: 04e6 933c 2a7d 213d 185f 80bd e6ce 8b3d
00000120: 0e69 b33d 22e6 b23d 1cc1 c3bd 0d29 ccbd
00000130: 6212 883d bca5 bfbc 6bf2 283d 3107 983a
00000140: 2701 10bd 70bb 0a3d 49f1 e93c ad39 9f3c
00000150: 47a1 c63c 5267 533d b570 273d 5e8a 813c
00000160: 61cf 2b3c 39c1 7bbc af8b 343d 6936 853d
00000170: 2f40 4dbb b6f4 4e3d 40ae 833b 13be 783d
00000180: 83fd b43c c9a1 fb3c 64ed 50bc 1735 4b3c
00000190: 15ac 3e3d c527 513d f9e1 9cbd 3a0a dc3c
000001a0: 6f33 b73d 5e2c 953d f9af 8b3d 1406 563d
000001b0: 8aec 823c ec5f 01bd 08ce 893d 7bde 173d
000001c0: 30da 9abc 873e 7e3c d6a1 a3bd df5a 0a3d
000001d0: cb9d c03d 12f6 173d 030a 343c 1af0 fabc
000001e0: 7e57 aabc cd5c 81bd bd5a 773d abdb 553d
000001f0: b52b 883d 8db8 c1bd df68 ff3c 308e 143b
00000200: 7c3e ea3a 4ba4 333c 61f4 5a3d 0368 02bd
00000210: 2945 e43c b887 0939 6da8 363c cadc 1c3d
00000220: 8d9f a63d 2820 053d 5692 cc3c 67a3 d0bd
00000230: e975 d73c e3bc eebb c934 933c 76cb 8b3b
00000240: 43f1 47bd 53ba 5cb8 bcd2 fb3c 1ce8 483d
00000250: 344d b1bc a5dc 18bc 3527 183d 6d5d 433d
00000260: e848 c63c 6172 8abc 7c16 fe3b 3ac6 cc3c
00000270: 9843 1e3d 6096 393d 5cf6 a4bc 49a3 263d
00000280: 79c4 4a3d 4c79 433d 551e 09bc 42ab c93d
00000290: b2d0 fa3c a97a 673d a7f9 a6bd dfbf 54ba
000002a0: 4c00 c03c 284f 78bd d72e 563d 955c b33d
000002b0: 1067 263d 1a60 cebd 76b0 533d 14dd 18bd
000002c0: d329 09bc 1e88 723d 1aee 8f3c 934f 6c3d
000002d0: 3d88 a6bd fbe7 ad3d 4fe1 e7bb 2440 353d
000002e0: c463 2dba 5004 2d3d b26b 2a3c e19e 8f3d
000002f0: 633e 57bd fd35 6e3d 0b21 cb3b 6f24 7a3d
00000300: d34b 223b f950 703b d6d8 97bd 3e0a b3bc
00000310: 0516 2cbd d9bb 643d dce0 f3bc ca56 16bb
00000320: ad93 953d 6c1c 793d b9a4 a1ba bf8f 5e3c
00000330: 673b c83b b806 9c3d 55c7 b9bd 9371 2b3d
00000340: 096f 62bc 03b9 983c 660a 97bd 48d3 2c3b
00000350: fbe6 893d 8924 083d cff2 193d 2f0b 7c3c
00000360: 4ca4 3f3d 6aa0 09bd 7cc4 ab3d ebdc 1d3d
00000370: d7e9 483d 3f68 793d 9d09 5fbd 7b08 95bd
00000380: d229 013d a629 c1bd 9aca 1bbd 6a73 a4bd
00000390: 8c69 d83c 4f04 e33c 1447 2d3d 425f 6cbd
000003a0: ddb0 c1bd cc7f 3c3d 7856 ccbb e7d9 28bb
000003b0: e183 6e3d afd8 a43d de72 37bb 22c5 39bc
000003c0: a6dc 29bd 5d98 4c3d dae4 d0bd 7d67 26bd
000003d0: 926d a5bd d5bf 8ebc 517e c6bd 387e 453d
000003e0: 2cab df3a 42e3 3a3d b5c5 893c 925f 373c
000003f0: fc3d 503d 8c43 963d 8140 adbd 3695 bdbb
0.020836879 0.08443194 0.006283712 -0.08238835 -0.10135001 -0.026211476 0.012644422 -0.0503419
0.07248336 0.07192306 0.013855355 0.08702547 0.08693444 0.04195016 0.04604938 0.042961404
0.07259954 -0.08186155 0.021102197 -0.09787349 0.0059861285 -0.048007216 0.06837932 0.08240396
0.016104454 0.07153244 0.03801819 0.047776215 0.0660774 0.058562476 -0.013055601 0.008992608
0.04528096 0.039803714 0.005788965 -0.045600668 0.027228815 -0.073873036 0.106621794 0.028403224
0.01378863 -0.10493948 0.009196559 0.023543764 -0.08908039 0.044939194 0.0026001476 0.068726994
-0.0629776 0.06291603 -0.074743725 -0.032567598 0.042910922 -0.016802564 -0.011432225 -0.020158166
-0.00768645 -0.029204948 0.036040958 0.035540275 -0.026774239 0.09360199 0.054704685 0.034354854
0.006035824 0.03620348 -0.0176893 0.089120865 0.018054016 0.039426006 -0.06268138 0.06826572
0.08760272 0.087353006 -0.09558317 -0.09968767 0.06644131 -0.023394458 0.041246813 0.0011598823
-0.03515735 0.03387016 0.028557437 0.019436682 0.024246825 0.051612206 0.04087897 0.015813049
0.010486455 -0.015365892 0.044078525 0.065045185 -0.0031318774 0.050526343 0.004018575 0.060728144
0.02209354 0.030716794 -0.012751911 0.012402794 0.04655083 0.051063318 -0.07660288 0.026860345
0.08945357 0.07283853 0.068206735 0.05225189 0.015981931 -0.03158562 0.067287505 0.03707741
-0.018902868 0.015517837 -0.07989852 0.033778068 0.094050966 0.037099905 0.010988715 -0.030632067
-0.020793673 -0.063165285 0.06038927 0.052211445 0.066489615 -0.094590284 0.031177936 0.0022667758
0.0017871405 0.010964463 0.053455714 -0.031837475 0.02786501 0.00013115897 0.011148554 0.0382965
0.08135901 0.03250137 0.024972122 -0.101874165 0.026301341 -0.0072857006 0.017969506 0.004266198
-0.04881407 -5.2625615e-05 0.030740134 0.04904948 -0.021643259 -0.0093299495 0.037146766 0.04769652
0.024204686 -0.016900243 0.007754145 0.024996866 0.03863868 0.045309424 -0.020137005 0.040683065
0.049503777 0.0477231 -0.008369048 0.09847118 0.030617092 0.056513462 -0.08153086 -0.0008115749
0.023437642 -0.060622364 0.052290764 0.08757893 0.04062563 -0.10076924 0.05168196 -0.03732021
-0.008371788 0.059211843 0.01756959 0.057693075 -0.08131454 0.084915124 -0.0070764194 0.044250622
-0.00066142925 0.04224044 0.010401653 0.070127256 -0.05254973 0.058156956 0.0061990074 0.061069902
0.0024764433 0.0036669357 -0.07414405 -0.02185547 -0.042013187 0.055843208 -0.029770307 -0.0022939914
0.073035575 0.06081812 -0.0012332416 0.013584076 0.006110597 0.07618469 -0.09071223 0.04185636
-0.013820418 0.018642908 -0.0737503 0.002637105 0.06733509 0.033237968 0.037585076 0.015383526
0.046787545 -0.03360025 0.08387086 0.038540762 0.049051132 0.060890432 -0.054452527 -0.07277008
0.031534024 -0.09431772 -0.038035013 -0.08029826 0.026417516 0.027712015 0.042304114 -0.057708032
-0.09457562 0.046020314 -0.006235894 -0.0025764646 0.05823124 0.080491416 -0.002799205 -0.011338504
-0.041470192 0.049949992 -0.101999 -0.040626038 -0.080775395 -0.017425457 -0.09692062 0.048216075
0.0017064563 0.045626886 0.016817907 0.011192219 0.050840363 0.07337102 -0.08459569 -0.0057856096

network_body._body_endoder.seq_layers.2.weight f4 [256, 256]
00000000: bd24 a1bc b4d3 f43c 04d6 dfbd 2fb0 03bc
00000010: 5134 87bd 0124 d6bb 0ea3 adbc 760b f1b9
00000020: a783 3d3d b6bf f8bc fa31 de3c 34c1 923d
00000030: 39ea 303d 4d83 623c 6004 553d b753 b5bb
00000040: 8ebd a9bc 72b5 14bd 7897 80bc ed8b f4bc
00000050: b146 fd3d 7abf 58bd c93f 85bd ea24 edbb
00000060: 4c7b 87bd 362f 063d 7375 18bd 1979 243b
00000070: 4b88 743c cbd8 e53d d1a7 653c b9b2 b8bc
00000080: d039 ad3c a0d9 aabd dc09 a8bd f8c1 22be
00000090: 233c 3d3d 4fb5 843d 9a46 1ebd 2c5e 57bc
000000a0: 13fe 3a3d 7d48 c73d 3b76 4f3d dd1f 08bd
000000b0: 05e7 febc 0a36 63bd a031 f33d f24d 68bd
000000c0: 8a32 a7bd cedf 913d 6526 423c cbe5 d13c
000000d0: 5228 febc 803f 11bd 6e88 8cbd 76fe 843c
000000e0: 5a1a 133d 9139 5c3d 32fb 133c 64b1 113d
000000f0: 1715 983d b3ab aab9 d694 79bb a573 af3d
00000100: 4a69 cdbd 6f3e 4abd 9ce7 95bd f606 6ebe
00000110: 3fe2 adbc 9262 0dbe 2b54 24bc 9f2b 8f3d
00000120: 106d acbd af7d 3a3d a7cd 043e 9b01 943d
00000130: 3bb5 93bc 3724 143d 473b 243d a63b 773d
00000140: b405 6fbd 262e 57bc 8ab0 5dbd 5915 7e3d
00000150: 66e3 0b3d 6a2f 043e 7893 b53c 7665 7cbd
00000160: 2081 a0bd 1a9b 603c 713b d63d 489a 47bc
00000170: 72c6 3dbd 6767 9abd 6ea4 d7bd ffd2 ba3d
00000180: 1812 943d 268f 4f3c a026 0c3e 616e 40be
00000190: 644b 8a3d 8abb d33c d387 1f3e 304d c6bd
000001a0: 9a7e c23d fe3f bbbd 0d69 e03d c6d0 e63c
000001b0: a67c ccbd a7a1 13bd 10ce bebd 67b3 963d
000001c0: 007c 96bc 408e 10bd a404 fcbc 0eb5 413b
000001d0: c749 37bc 28ee 28bd e895 febc 504e 42bb
000001e0: 6bc0 2f3d db97 153d b9e7 d1bc 64a7 c73d
000001f0: 4649 f5bc 22c4 2bbd 07ac 893d 03c1 0c3d
00000200: feaa 2d3c 84ff 743d 6f22 dc3b 434c a43d
00000210: e93a 123d 2fd1 d8bd e689 843d 991c b6bd
00000220: 458b a2bd 1cf6 a0bd 6473 133e d015 eabc
00000230: 1db4 d53c cfd3 8e3c fe21 e33c 946c 32be
00000240: 925c 1dbc 90f6 0cbc 2ec2 e0bc 5ae6 bc3d
00000250: 4bdc c63d cdd2 78bc 095b b5bd 8f13 893d
00000260: ecf8 48bd 2d62 eebc 4e46 8abd 5487 b8bd
00000270: 57ba 953c b070 7c3d a547 9cbd c745 9bbb
00000280: 4d55 bebd 6fbb e2bd 8a40 20bd 207c 7f3d
00000290: 3f5b a63d 34b9 b83d 1ae8 ec3d 1c9a d13d
000002a0: 69eb a0bd 5a52 4d3d a729 ecbd 311c 4c3d
000002b0: dc2c bb3c 779b f03d 3161 423c 26ce 19bd
000002c0: 19db e43d 314c 703d fa8d 00be 3ead 503c
000002d0: c041 c4bd e0ed 8abc eb36 f03c 774d c1bd
000002e0: a505 cdbb d117 9bbc 7f4a 70bb 5d99 fd3d
000002f0: c67c a43d 6e97 eebc 4a0a 5ebd fd6a 01bd
00000300: 68e8 d03b 34ae b3bb d90e 46bc 9815 ecbb
00000310: 2bd3 833d 256e e13c 440b 573d 0bfe 1f3d
00000320: 809c 9b3d 0928 133d 24ff f63b a526 c53c
00000330: e52a c03b 5fc3 cc3c 6663 abbd d829 dc3c
00000340: 9810 2a3e 6afe 91bd c229 3b3d 4b35 4f3d
00000350: 1e92 f13d 4826 093d a828 43bd e39e 5cbd
00000360: cb58 883d 1213 d43d 6dde 973d 6e44 34be
00000370: df30 0a3e 67d7 9f3c 1dfe b0bd b433 553d
00000380: 356c 3abe 616f 93bd 09e5 a5bd eb10 803d
00000390: 9cdc f63d 95e1 653d 80d9 ec3c bb1a 15b9
000003a0: fe0e 953d 349c 823b d543 f73c b92b 02bd
000003b0: 0c44 013c de9d aebd c980 3c3d a665 943d
000003c0: d7e9 173d c255 683d f5f7 053e 6ee2 8c3d
000003d0: a217 49bc 0d50 a73b b44f 91bd 229f b13c
000003e0: 100b 8d3d 2957 85bd decf 3f3d 5f4b aebd
000003f0: daf7 f1bd f323 b2bc 6e30 a4bd e387 d6bd
-0.019670838 0.029886104 -0.10929492 -0.008037611 -0.066017754 -0.0065350537 -0.021195915 -0.0004597564
0.04626813 -0.030364852 0.02712344 0.07165757 0.043192122 0.01382525 0.052006125 -0.005533661
-0.02072027 -0.036305852 -0.015697226 -0.029851878 0.12366999 -0.05291698 -0.06506307 -0.0072370665
-0.06615314 0.032759868 -0.037221383 0.0025096594 0.014925073 0.112229906 0.014017061 -0.02254616
0.021145731 -0.0834229 -0.082050055 -0.15894306 0.04619993 0.06479894 -0.03864155 -0.013145011
0.04565246 0.09730623 0.050649863 -0.033233512 -0.031116018 -0.055471458 0.118746996 -0.05671496
-0.081639364 0.071227655 0.011849974 0.02562227 -0.031025086 -0.03546095 -0.068619594 0.016234618
0.035913803 0.053765837 0.009032058 0.035569564 0.074258976 -0.00032552853 -0.0038083098 0.08566979
-0.10029848 -0.049375948 -0.073195666 -0.23244843 -0.021226047 -0.13807133 -0.010029833 0.06990742
-0.084192395 0.045530017 0.12969075 0.07226869 -0.018030753 0.03616735 0.040095594 0.06035962
-0.05835505 -0.013133561 -0.05412344 0.062032077 0.03415241 0.12908712 0.022165045 -0.0616202
-0.07837129 0.013708854 0.10460556 -0.01218278 -0.04633183 -0.07539254 -0.10529409 0.091222756
0.072300136 0.012668407 0.1368661 -0.18792106 0.06752661 0.025846262 0.15579157 -0.09682691
0.094968036 -0.09143065 0.10957537 0.028175723 -0.09984712 -0.036042836 -0.09316647 0.07358437
-0.018369675 -0.03529191 -0.030763932 0.002955738 -0.0111870235 -0.04124275 -0.03107734 -0.0029648729
0.042908113 0.036521774 -0.02562319 0.09748724 -0.029942166 -0.041935094 0.06722265 0.034363758
0.01059985 0.05981399 0.006717972 0.08022358 0.035700712 -0.105867736 0.064716145 -0.08892173
-0.0793672 -0.07859442 0.14399487 -0.028574854 0.026086861 0.017434983 0.02772617 -0.17424232
-0.00960459 -0.008603707 -0.027436342 0.092236236 0.09709986 -0.015186978 -0.08855254 0.06693184
-0.049065515 -0.029099548 -0.06751691 -0.09010187 0.01827733 0.061630905 -0.076308526 -0.0047385427
-0.092936136 -0.11070906 -0.03912405 0.062374234 0.081228726 0.090197 0.11567707 0.10234472
-0.07857401 0.050127365 -0.11531382 0.049831573 0.022848539 0.117484026 0.011863993 -0.037550114
0.11174602 0.05866641 -0.1255416 0.012736617 -0.09582853 -0.01695913 0.029323062 -0.09438603
-0.0062567764 -0.018932255 -0.0036665497 0.12382767 0.08031611 -0.029124942 -0.05420903 -0.031596173
0.0063753612 -0.005483413 -0.012088501 -0.0072047226 0.064367615 0.027518341 0.052500978 0.039060634
0.075982094 0.035926852 0.0075377394 0.024066279 0.0058644884 0.024995504 -0.08368568 0.026875421
0.16607893 -0.07128604 0.04569412 0.050587934 0.11795448 0.033483773 -0.047646195 -0.053862464
0.06657561 0.103552 0.07415471 -0.17604229 0.13495205 0.019511892 -0.08642218 0.05205126
-0.1820534 -0.07198978 -0.081003256 0.06253227 0.12053797 0.056123335 0.028912306 -0.00014219705
0.0727825 0.003985906 0.030183712 -0.03177998 0.007889759 -0.085262045 0.046021257 0.072459504
0.03708824 0.05672241 0.1308287 0.068791255 -0.012273701 0.0051059783 -0.0709528 0.021682326
0.06886876 -0.06510765 0.046829097 -0.0851047 -0.11814852 -0.021745658 -0.0801705 -0.10475137

network_body._body_endoder.seq_layers.4.bias f4 [256]
00000000: df2f 2c3b c923 c23b c84b 84bd 5634 8c3c
00000010: 7e9c 4cbc 451b 6c3d 35be 6f3d 7948 c23d
00000020: 2534 8a3d 3c9c 3b3d 7c2d 48bb 2e9d 93bc
00000030: 079f 113c 408f 3d3d 3fea 07bd 32f2 9c3c
00000040: 3f38 c7ba 804a 573d a440 843d 111d 2e3d
00000050: 66df d03d 675f 6c3d e4c7 0bbb 4b01 01bd
00000060: 6e73 203d 81e0 4b3d 3490 a43c 1e82 8a3d
00000070: b59a 8fbc dec7 fe3c cc3e 883c 2fc0 9fbb
00000080: 2936 373d 943b 97bc 96ca ea3c f120 6cbc
00000090: 9ed4 a83d c08d 45bd 213d 183d 85a0 d4bc
000000a0: 508f f43c 7ee5 5a3c b436 aa3d 13ac 253d
000000b0: 2a67 5a3d fd9e 973d f102 943d 1b3d 25bd
000000c0: 055b a43d 7aff 46bd 912a c6bb 8497 cb3c
000000d0: 5dfb 4a3d ddae 65bd 074f d03d bc8d 183d
000000e0: 9d34 7c3d faa4 5cbd f6f3 e4bc 6335 cdbc
000000f0: 858a b93b 3f67 c23c f1d6 3fbc 4ad3 383d
00000100: 9f4e 54bd dbc7 0d3d 2391 3ebd 3f60 fd3c
00000110: e7d3 353d aff9 923d d3a7 363d 9df1 34bd
00000120: 4805 98bb 3423 013d e440 383d ebc6 453d
00000130: 176e 093b b848 05bb 715d f23c b788 c03c
00000140: 1547 343d 73f9 a83c 4d2b 63bc fda8 923c
00000150: 44ce 953d 603e 39bd 5621 8bbc 39b1 243d
00000160: 1628 6e3c e318 9cbd 5630 393d 577c 14bd
00000170: 7b5e 353c a829 a5bd 5f03 0c3d d3e4 953d
00000180: 7bd3 803d ece5 0c3d ea0f b23c 9c5d 27bd
00000190: ce8c 263b 1f4a eeb9 5fcb 973b 3b8b 37bd
000001a0: f21c 8c3c 6ce6 833d 7925 883c 67f6 c4bc
000001b0: f30c 773d 1c14 0fbb c2a5 55bc 133f 473b
000001c0: 1c46 453d d7c0 a53b 0c57 ad3c 57a0 97bc
000001d0: aa04 9d3c c88a 7dbb d8eb 3b3d 789c 6d3d
000001e0: 8b09 b93b e557 fabc 472e 52bd 10a3 7dbd
000001f0: bf44 45bd 00da 843c 23f8 4a3c f5f0 82bd
00000200: 968c 443d c34f a03d ee22 9bbd b2a7 ddbb
00000210: 1e9e 82bd d615 9d3d 7c31 093b 995b ed3c
00000220: 787e cb3c 827c 9dbd 8d9b c13c 9737 10bd
00000230: 9773 023d 87a8 c33b 51ed 99bc da43 ca3b
00000240: ab30 d13b 9a3f 973d aac1 a6bc 7c47 e23b
00000250: 53bc 9bbd ee69 0f3d 1547 3ebd f45a 1b3d
00000260: 326a b23d e826 bcba 662d 423d 9ada ea3c
00000270: cfeb 0d3d 5824 4cbd ace4 fc3c d482 a43c
00000280: dcc4 5b3c 2351 b73c 19cd 433d 87d2 5b3d
00000290: ba58 263c de95 40bd 772d 553d c94b 963b
000002a0: 0525 3dbd fa09 153b fa6e 253d 618b 603b
000002b0: 4926 ab3d 61a6 533d 55b4 d03c ef1d 2b3d
000002c0: 59aa 183c d1f7 df3c aee1 173c 622c 54bd
000002d0: db3c 823d 410c c93d 4c33 393d d661 933d
000002e0: ad25 d53d 059b 093d ff6b c53d 7eb6 5f3d
000002f0: 6212 b5bc 4d89 3fb9 5315 aa3b 59a5 33bd
00000300: 8fc9 1c3d ec08 ef3c 49b3 533c e4ec 49bd
00000310: 22fa c13c ea53 673c 4fa2 32bd 0761 a8bc
00000320: f9c0 613d 173c 6d3d 8d7c 083d e8c1 5dbd
00000330: 390a 4c3d b2a7 4a3d 40b6 253c 93b7 bb3c
00000340: 879c 923c 7bae d73c 9995 9d3d 58d6 033b
00000350: b791 2d3d c569 0bbc 08e5 413c 79d8 753d
00000360: 9284 1a3d 7c50 523d d50b e63c 6660 163c
00000370: 7e10 453d a4c7 7a3c 31ed dabc 0027 6e3d
00000380: 60ae 8ebd c1a9 3fbc ea67 93bd 2e09 92bd
00000390: 1c06 54bc 4506 fa3c d9fe 71bc e5ec 5dbd
000003a0: e25a 123d 3138 5c3d 46f3 893c 4bef ae3d
000003b0: 68a2 5a3d 0508 f53b a62d 3e3d 6fe8 9cbb
000003c0: a106 5e3d 4775 9c3d cd18 c13d 2bf7 9f3d
000003d0: b29b 7dbd 76a9 0abc 44bc e33c f415 0bbd
000003e0: 8d77 50bd e5d2 96bd de78 9d3c 46ed a03d
000003f0: 571f 1dbd 25f0 7e3d 5e40 92bc ea07 8cbd
0.002627365 0.005924676 -0.064597666 0.0171148 -0.0124884825 0.057643194 0.058531005 0.09486479
0.06748227 0.045803294 -0.003054469 -0.018019285 0.008888013 0.046279192 -0.03318238 0.019158456
-0.0015199258 0.052561283 0.06457642 0.04250819 0.1019886 0.05770817 -0.002132886 -0.031495374
0.039172582 0.04977465 0.020088293 0.06763099 -0.017529825 0.031101163 0.016631506 -0.004875205
0.044729386 -0.018461026 0.028661054 -0.014412151 0.082436785 -0.048230886 0.037167672 -0.025955448
0.029853493 0.013360379 0.08311215 0.040447306 0.05332104 0.074033715 0.072271235 -0.040341478
0.08025173 -0.048583485 -0.006047555 0.024852522 0.049556125 -0.056074966 0.10171323 0.037244543
0.061573613 -0.05386827 -0.02794836 -0.02504987 0.005662265 0.023730872 -0.011708961 0.045123376
-0.05183279 0.034614425 -0.046525132 0.030929683 0.04439154 0.071765296 0.044593643 -0.044175733
-0.0046393014 0.031527713 0.04498376 0.048285406 0.002097016 -0.0020337533 0.029585572 0.02350269
0.0440131 0.02062676 -0.013865304 0.017902846 0.07314733 -0.0452255 -0.01698367 0.040208075
0.014535924 -0.07621934 0.045212112 -0.036251392 0.011069889 -0.08064586 0.034182902 0.073190354
0.06290337 0.034398958 0.021736104 -0.040860757 0.0025413516 -0.00045450122 0.004632398 -0.044810515
0.017103646 0.06440434 0.01661943 -0.024043275 0.060315084 -0.0021832054 -0.013040008 0.0030402585
0.048162565 0.0050583887 0.021159671 -0.018509073 0.019167263 -0.0038687456 0.045879215 0.05801055
0.0056468896 -0.03055949 -0.051313665 -0.061923087 -0.048161265 0.016217232 0.012388262 -0.06393615
0.047985636 0.07827713 -0.07575022 -0.0067643756 -0.06377815 0.076701805 0.0020934036 0.028974341
0.024840578 -0.076897636 0.023633743 -0.035209265 0.031848516 0.0059710178 -0.01878992 0.0061726393
0.0063839755 0.07385178 -0.020356018 0.0069054943 -0.07604279 0.03501313 -0.046454508 0.037928537
0.087116614 -0.0014354857 0.047406577 0.02866869 0.034648713 -0.049839348 0.030870758 0.020081915
0.013413634 0.022377556 0.04780302 0.05366757 0.01015299 -0.047017924 0.05204531 0.004586671
-0.046177883 0.0022741542 0.04038904 0.0034262764 0.08356912 0.051672343 0.025476614 0.041776594
0.009317958 0.027339848 0.009270115 -0.05180014 0.063592635 0.0981679 0.045214936 0.07196395
0.10407577 0.033595104 0.09639739 0.054617397 -0.022103492 -0.00018266328 0.0051905303 -0.04385886
0.03827816 0.029179059 0.012921163 -0.049298182 0.023678843 0.014119128 -0.04361182 -0.020554079
0.055115674 0.057918634 0.033321906 -0.05414 0.049814437 0.049476333 0.010114253 0.022914683
0.017896904 0.026328316 0.07694549 0.0020116773 0.042375293 -0.008509104 0.01183439 0.060020898
0.037724085 0.051346287 0.028081814 0.009178257 0.04811143 0.015306387 -0.02672443 0.058142662
-0.06966853 -0.011698187 -0.071975544 -0.07130657 -0.01294091 0.030520568 -0.014770233 -0.054181
0.035731204 0.053764526 0.016839635 0.08541735 0.05337754 0.0074777626 0.046430252 -0.0047884504
0.05420554 0.076395564 0.094285585 0.078108154 -0.06191606 -0.008463254 0.027799733 -0.033956483
-0.050895263 -0.07364444 0.019222673 0.07857756 -0.038359966 0.06224074 -0.017852958 -0.06837447

network_body._body_endoder.seq_layers.4.weight f4 [256, 256]
00000000: 33cb 35bd c7fb 1c3d 3196 a7bd 3378 b83c
00000010: 6be9 343d 8b0b 1dbd bba1 243b 8665 8e3d
00000020: 7735 f4bc 7c80 9bbd e3a2 b3bd 9579 f23c
00000030: b0e8 ccbc 4b88 ddbb 65e6 e3bd 3b50 b1bc
00000040: 4696 1cbd 36b8 c03c 1d9b dabb 77d2 a43d
00000050: b5c4 0c3e 687c 2abd 7a03 b8bc 5323 07be
00000060: ce78 1c3e 2151 92bd 3bbe c2bc dd4a 5fbd
00000070: 2e18 e03d a0d0 19bd 9560 843d ab6d e7bd
00000080: 8285 b5bd 480a 1ebd bfb4 19be e367 8ebb
00000090: 816f b6bc 5713 3f3d cf36 6dbd e179 0cbc
000000a0: 3770 983d 6bba c03d 0a63 823b a7ec fcbc
000000b0: e9f8 f13d 3bbc 8abd 56fe 21bd 59c0 e1bb
000000c0: 6284 3c3d 3ad3 443d b34f a23d 7899 19bd
000000d0: f964 c0bd 4557 36bc b5f8 4a3d 7d78 883d
000000e0: 7785 3ebd ceb3 29bd 5da1 273d 7773 16bb
000000f0: 5e69 82bd 557c 1f3d 92e0 b1bd db17 f6ba
00000100: 0874 b1bd 126d 0ebd 06db 15be a43e c5bc
00000110: 0e36 6bbd b542 363d dd80 3a3d 0455 09bd
00000120: 8f0c 22bc 7644 53bb a977 0d3e d6b0 8c3c
00000130: 2160 073c 296e 01be a018 89bc e797 b73d
00000140: 6274 913d 9096 9e3c 0a82 88bd 1a7e 053d
00000150: 13d3 61bd a2df 45ba 7432 2e3d 6076 73bd
00000160: 2185 49bd 2f2a 9d3c 0602 593d 3398 773d
00000170: 91b7 49bd 4801 d23d 6b5a 27bc d5b5 ca3d
00000180: ccb9 9bbd 9403 093e b936 bd3d c2d4 a03d
00000190: 9b42 023e 7aae bd3d 7335 fe3d 0d45 0b3e
000001a0: ef53 053e 85e2 c4bd 288d b73d c84e 00bd
000001b0: ca43 0b3d 1b6c 6d3b ccc0 0bbe 6768 a5bd
000001c0: 06f8 02bd a8bb 78bd b8d8 de3d aa80 babb
000001d0: 64c5 44bd e5f1 82bc 20e2 d7bd 67db 61bd
000001e0: e714 a4bc 8069 cb3d ff8d adbd 472f 03be
000001f0: 6786 153c 622c 813b 62d4 013e d464 743d
00000200: 3aee 03be 77bc 27bd 3534 b4bd 4594 bdbc
00000210: 6425 7ebd 56a3 6d3c 7079 003e 84bb d83a
00000220: ff1a 6abb 02a3 aabc c0f5 ebbd 7639 b9bc
00000230: 717b 8ebd ba85 a4bd 51c0 103d 1ce5 223d
00000240: 54bf a2bd 0911 34bd 773a 07bd 3ca7 3a3d
00000250: c50e 2a3c 12ce fabc 95fe fcbb dc9e 943d
00000260: 9a20 013d ea3a 95bd 6ce4 48be a37c c33d
00000270: f21f 643d fcaa 5ebc dc10 54bd d754 a33d
00000280: 6260 d83c cf28 7ebd 7e7e 5cbd 10b3 1abd
00000290: ed75 c8bd c6b4 17be f3ef 6cbc 6949 3e3d
000002a0: 07c3 843c 3cb6 b1bd caab afbd c84e fc3b
000002b0: 032a 503d 1ceb 6cbc 856d 6fbc df5d ebbd
000002c0: 8eb5 73bc 016b a3bd d60e b03d 61b7 0c3d
000002d0: 3177 2dbd 2504 b73c 9aa2 7fbd b74b 17be
000002e0: 4675 203d 74b3 07bd fa51 8b3d 8aaf be3d
000002f0: 3616 333c 9cba 87bb 0a98 e03c 2d3f 71bd
00000300: 27b8 39bc 7290 b8bd c337 2d3d e5af d13c
00000310: 9551 f1bc 0d4d 73bb d648 96bd b5c2 ffbd
00000320: 9dff f5bd f428 dd3d 0c0e 5ebd f8b7 cd3b
00000330: 3402 043d 2f30 04bd 51b5 92bc 1124 cf3b
00000340: c3fb 02be 9f85 a5bd 06cb 0b3e 1c6f de3d
00000350: 0101 a73d ee86 c53d cc1e 97bd 9847 503b
00000360: b8a2 1fbc be7b c73d 1658 7a3c 1b0a 0f3c
00000370: 1b96 07bd 801a 893a 443f db3d 9842 c7bc
00000380: 97a2 703d 3494 0ebd 19cf 363d c614 d4bd
00000390: b448 873d 18c2 58bb bdcf 1d3c f3ec 60bd
000003a0: 7c40 b73c ee05 54bd c14d 66bd c40a 37bd
000003b0: 8ecd 40be 7e40 023b fc6b 28bd 781f 5d3d
000003c0: 73c9 063e 8f91 81bb 7ce8 963d d53f cc3d
000003d0: e703 d93c b367 833d a2ce 51be ffa7 a13d
000003e0: bc97 303d 4985 0bbe 02d5 8e3c 4ce9 8f3d
000003f0: 1614 04bd 311b b63c bc0c 6fbd 1678 893d
-0.04438324 0.03832605 -0.081829436 0.022518253 0.044167917 -0.038341086 0.0025120813 0.06952958
-0.02981065 -0.07592866 -0.087713026 0.02959899 -0.025013298 -0.006760632 -0.11127929 -0.021644702
-0.03822925 0.023525339 -0.006671323 0.080479555 0.13746913 -0.04162255 -0.022462595 -0.13197069
0.15280458 -0.0714438 -0.02377235 -0.054514755 0.10942112 -0.037552476 0.06463734 -0.113002144
-0.08863355 -0.038584024 -0.15010355 -0.0043458804 -0.022269966 0.046649303 -0.057913598 -0.00857398
0.07443278 0.094105564 0.0039790915 -0.030874563 0.11815054 -0.06774183 -0.039549194 -0.0068893847
0.046024688 0.048053004 0.07925358 -0.037499875 -0.09394259 -0.011129205 0.04955359 0.06663606
-0.046514 -0.04143124 0.040925372 -0.0022957006 -0.063677534 0.03893693 -0.086854115 -0.001877542
-0.08664709 -0.034771986 -0.14634332 -0.024077721 -0.057424597 0.04449721 0.04553305 -0.033528343
-0.0098906895 -0.003223685 0.13815178 0.017174166 0.008262665 -0.12639679 -0.016735375 0.0896452
0.071022764 0.019358903 -0.06665428 0.032590963 -0.055132937 -0.00075482775 0.042528585 -0.059439063
-0.049199227 0.019185154 0.052980445 0.060447883 -0.04924733 0.10254151 -0.010214428 0.09897963
-0.07603797 0.13380271 0.09238953 0.0785308 0.1272072 0.092617944 0.124125384 0.1360056
0.130203 -0.09613518 0.0896247 -0.03132513 0.034000196 0.0036227766 -0.13647765 -0.08076554
-0.031974815 -0.060725838 0.108811796 -0.0056916075 -0.04803981 -0.015984485 -0.10541177 -0.05514088
-0.020029498 0.09932232 -0.08474349 -0.12811004 0.009126282 0.0039420584 0.12678674 0.05966647
-0.12883845 -0.04095122 -0.0879902 -0.02314199 -0.062047377 0.014504274 0.12546325 0.0016535376
-0.0035721657 -0.020829681 -0.115214825 -0.022610407 -0.06957138 -0.08033319 0.035339657 0.039769277
-0.07946649 -0.04396156 -0.03301474 0.045569643 0.010379498 -0.03061584 -0.007720778 0.072568625
0.031525232 -0.072866276 -0.19618386 0.09545257 0.055694528 -0.013590571 -0.05177389 0.07975166
0.026413146 -0.062050637 -0.05383157 -0.037768424 -0.097881176 -0.14815053 -0.014461505 0.046456728
0.016206278 -0.086773366 -0.08577688 0.007699821 0.050821315 -0.014460351 -0.014613514 -0.11492514
-0.014874829 -0.07979394 0.0859658 0.03435457 -0.042349998 0.022340843 -0.06241093 -0.14774977
0.03917434 -0.033130124 0.06802745 0.09310825 0.0109305885 -0.0041421186 0.027416248 -0.05889814
-0.011335409 -0.09011926 0.042289507 0.025596568 -0.029457847 -0.0037124783 -0.07338111 -0.12488309
-0.12011645 0.10798827 -0.054212615 0.0062780343 0.032228664 -0.032272514 -0.017908724 0.006321438
-0.12791352 -0.08082127 0.13651666 0.10861036 0.08154488 0.096448764 -0.07378921 0.0031780954
-0.009743385 0.09740399 0.01527979 0.008730437 -0.033102136 0.0010460168 0.10705426 -0.024323747
0.058748808 -0.034809306 0.044631097 -0.10355525 0.06605664 -0.0033074673 0.009632048 -0.054913472
0.022369616 -0.051763467 -0.056226496 -0.044688 -0.18828413 0.0019874866 -0.041118607 0.05398509
0.13162784 -0.0039541195 0.073685616 0.099731125 0.026491119 0.064162634 -0.2048898 0.07893371
0.043113455 -0.13625063 0.017435554 0.0702692 -0.032245718 0.022229763 -0.058361754 0.06712358

network_body.observation_encoder.processors.0.normalizer.running_mean f4 [6]
00000000: b031 ecc0 c775 f641 e08b 343e 4d1f 01c2
00000010: c331 b33f de50 8ec2
-7.3810654 30.807508 0.17631483 -32.280567 1.3999561 -71.15794
