Assets/Training/results/learn_v2/MarsTaxi/MarsTaxi-2499949.onnx (onnx, 542464 bytes, 10 tensors)

54 f4 [6]
00000000: b441 0442 16d6 6941 cd13 6c42 8bae a73c
00000010: 64d2 8e3a 60ae 383d
33.064163 14.614767 59.019337 0.02046897 0.0010896442 0.045088172

action_model._discrete_distribution.branches.0.bias f4 [6]
00000000: f8af 8f3c df91 693c 8ec0 55bd c7fa af3c
00000010: 112d 833c cef2 84bd
0.017539963 0.01425597 -0.052185588 0.021481885 0.0160127 -0.06491624

action_model._discrete_distribution.branches.0.weight f4 [6, 256]
00000000: 2917 233c 2715 db3c 7fdb fbbc cf48 4ebd
00000010: 4eb7 dfba 7d6b fb3c 7548 49bc ddfa 843c
00000020: 7044 cfbc ae45 a03c 73cf 193d bc1f 9e3c
00000030: 9962 0d3c d905 b0ba 9f9b 533c 2089 c53c
00000040: 20dd 3e3c efe2 5e3b 57ce 903c cb2c a3bd
00000050: dc4c 32bb e298 32bd cea1 953a 8153 28bd
00000060: 37d6 003c dabf 353c df27 85bd 62e7 a2bc
00000070: 58dd 2dbc beeb 5dbd 27ac 3a3d 2b93 b03c
00000080: 7957 8abd 213d 0f3d 3c01 813c 81f2 5fbd
00000090: 2461 893b 7ac3 f3bc 4562 b03c 84d0 62bd
000000a0: 5db3 023d 5a37 1e3c ff04 763c c720 c63c
000000b0: 92ff a83c d50d 9bbc cdbd 023d 2b93 0abd
000000c0: f19c 01bc 9c84 1fbd 4c2a 7bbd 65d7 acbb
000000d0: bc23 e03b 6f9a 12bc 3ee9 d1ba 3db4 ad3c
000000e0: 8a6a c23c 62bd ad3b e12b 12bd 67b8 f93c
000000f0: 9885 b23c d6be 1a3d b972 eabc 201b c03b
00000100: 0fa9 84bc e386 b83c 383c 163c 61a3 34bc
00000110: dac0 2d3c 3515 dcbb f924 1e3c d978 d4bc
00000120: 885f 0b3d 8cdc 2bbd f8f2 b93c 36af a2b9
00000130: 5304 12bd 1916 57bd a7e7 48bd 14d6 073d
00000140: 602a 093d 4821 ff3c b919 35bd 037e 283d
00000150: c466 94bb 2f97 d837 dd51 a13b a734 89bd
00000160: e453 1d3d 538e 63bb 845b 973c dd12 9dbc
00000170: e958 52bd 107d 8ebc c801 083b f874 093d
00000180: db92 523c 5bd1 b7bc fcd9 16bc 613f e6bc
00000190: 0ab0 99bc 79c8 243d 77a7 8a3c a8b2 bdbc
000001a0: 0b8d 73bd 0996 253c ab35 cf3c 4a37 053d
000001b0: 53f4 aebd f1b8 00bd 4aa3 973c 9176 1cbd
000001c0: 4e89 0fbd 747b 193c 4110 bc3c d7aa c6bb
000001d0: b0b8 453c 7635 17bd 60d2 e73c 193c 0d3c
000001e0: 3f32 53bd 3aee 49bc c4ee 01bd 761a d93b
000001f0: 0f64 6c3c bd63 003b b3f3 223d 9132 21bd
00000200: af13 873c 9a8b d23b c6c4 ecbc 56c9 103d
00000210: 2d0e 98bb d7a1 bf3c 451b fd3c 1b13 073d
00000220: 30dd a23c 2fa8 8fbc 4d0a b1bd d007 9fbc
00000230: 2cb5 273c 9ad2 2ebd 4657 f33a dad1 e23c
00000240: ac21 5b3d 3338 67bd 80ad fcbc cfcd 153d
00000250: bc99 2fbc 0d27 cf3c d980 a13c 1c40 0e3d
00000260: fa8b 5e3c 8c0c f7bc a89c 81bd 013e e73c
00000270: a6e1 b73c b38a 513c a9c6 263c 22cc 193d
00000280: 74e6 c23c f78c 5a3c 3d31 ff3b 11a5 ad3c
00000290: b874 453c 740b 8b3c 6e8e 343c dcaa aa3c
000002a0: da3d 29bd be1a b53c ab17 9b3c 5df7 c53c
000002b0: 2551 393c 47cf 6a3c 47fc 7b3c c75b 1dbd
000002c0: af3b 563d b9a7 ec3c 8710 f03c f5a0 0abd
000002d0: 6b08 cc3b 3f8e 96bb 97f2 d23b 473e a53c
000002e0: f0b0 bdbc 85b7 f03c d05d 59bb c074 913c
000002f0: 17cd 46bc d6d3 323d bfa1 a93c 2edb af3c
00000300: 9b29 c43c a993 093d 5bb4 3ebc 3395 10bd
00000310: f741 58bd 9858 3dbd aca4 6a3c 6462 453c
00000320: 1fbd e53c cc32 ee3c 9f8a 773c be07 24bd
00000330: c50d 5e3c 3ddb 163c f694 8b3c 663f 563c
00000340: 7a99 78bd 3144 cebb 63b2 8bbd d4fc c93c
00000350: 2689 a53c 7339 37b9 7f27 423c 8ef5 9dbb
00000360: aca9 c23c 1487 73bb 533d bc3c 8f9b 9abc
00000370: d3e8 c7bb 8e52 123d c6d5 60bd 8b0c 903b
00000380: 64e2 7fbb befc 78bd cc1c f1bc 6f41 3ebc
00000390: fe5c 0dbc cdbf e63c 9931 38bd 7ac6 c83c
000003a0: 62ec ad3c 2835 84bd 53b1 55bd 9f5a b73c
000003b0: 21d7 563c 3370 6dba 8964 563c 043f 2e3c
000003c0: 4b47 8abd 64e9 08bc bb08 78bc 5fa1 b73a
000003d0: 7364 b7bc 9a92 15bb 3397 923c 52b9 e23c
000003e0: a3ef 1bbd ccc9 65bc 2eb8 d23c dc60 1cbc
000003f0: 5537 603c 043f 9f3c ef8e 003d 8c93 713b
0.009954252 0.026743485 -0.030744312 -0.050362404 -0.0017068179 0.030690903 -0.0122853415 0.016232902
-0.025301188 0.019564476 0.037551355 0.019302242 0.008629465 -0.0013429477 0.012915521 0.024113238
0.0116494 0.0034009775 0.017676516 -0.07967528 -0.0027206456 -0.04360283 0.0011416019 -0.04109526
0.007863573 0.011093104 -0.065017454 -0.019885723 -0.0106118545 -0.0541799 0.045574334 0.02155455
-0.06754965 0.034970406 0.015747659 -0.05467463 0.0041924883 -0.029756296 0.021531234 -0.055374637
0.031909335 0.0096567515 0.01501584 0.024185551 0.020629678 -0.018927494 0.03191929 -0.033831757
-0.007910953 -0.038944826 -0.061319634 -0.0052747005 0.0068401974 -0.008947953 -0.0016014946 0.021204108
0.023732442 0.005302117 -0.035686377 0.030483438 0.021792218 0.03777965 -0.028619157 0.0058626086
-0.016193895 0.022525256 0.009169631 -0.011025281 0.010605061 -0.0067163953 0.00965237 -0.02593653
0.034026653 -0.041958377 0.022698864 -0.0003102959 -0.035648655 -0.05251131 -0.049049046 0.033163145
0.033487678 0.0311438 -0.044213984 0.0411358 -0.004528852 2.5819607e-05 0.004923089 -0.06699496
0.038410082 -0.0034722283 0.018476255 -0.019174034 -0.051354323 -0.017393619 0.0020753015 0.033558816
0.012852396 -0.022438696 -0.009207245 -0.028106393 -0.0187607 0.040230248 0.016925557 -0.023156479
-0.05946068 0.010106572 0.025294146 0.03252343 -0.08542695 -0.031426374 0.01851048 -0.03819901
-0.035043053 0.009367812 0.02295697 -0.006062846 0.012067959 -0.03691622 0.028298557 0.008620285
-0.05156159 -0.012324864 -0.031721845 0.006625469 0.014428153 0.0019590699 0.03978319 -0.039354865
0.016488878 0.006425333 -0.028902423 0.03534826 -0.0046403618 0.023392601 0.030896792 0.032977205
0.019880861 -0.01753625 -0.08644543 -0.019412905 0.010236066 -0.042681314 0.0018565438 0.027687956
0.05349891 -0.05645008 -0.03084445 0.036573227 -0.0107178055 0.025287176 0.01971476 0.03472911
0.013583178 -0.03015735 -0.06328708 0.028227808 0.022446465 0.012789416 0.0101792 0.03754819
0.02379153 0.013339273 0.007787852 0.021196874 0.012051754 0.016973235 0.011020286 0.020833425
-0.041318752 0.022107478 0.018932184 0.024165804 0.01131085 0.014331645 0.015379972 -0.038417604
0.052303012 0.02888857 0.029304756 -0.033844907 0.0062265894 -0.004594594 0.0064376104 0.020171298
-0.02315566 0.029384384 -0.003316749 0.017755866 -0.012133858 0.043659054 0.02070701 0.021466818
0.02394562 0.033588085 -0.01163968 -0.035298537 -0.052797284 -0.046227068 0.014321487 0.012047384
0.028044282 0.029076956 0.015108733 -0.040046446 0.013553088 0.009207544 0.017038804 0.013076639
-0.06069324 -0.00629475 -0.06821134 0.02465669 0.020206999 -0.00017473641 0.011850237 -0.004820532
0.023762546 -0.003715937 0.02297846 -0.018873004 -0.006100753 0.03572326 -0.05489137 0.0043960265
-0.0039044851 -0.06078791 -0.029432677 -0.01161228 -0.008628128 0.02816763 -0.044969175 0.024508704
0.02123088 -0.06455451 -0.052171063 0.022382079 0.013112814 -0.00090575515 0.013085493 0.010635141
-0.06751879 -0.008356426 -0.0151388 0.0014009884 -0.022386765 -0.0022822977 0.017894363 0.027676258
-0.038070332 -0.014025163 0.02572259 -0.009544577 0.013685067 0.019439228 0.031386312 0.0036861626

network_body._body_endoder.seq_layers.0.bias f4 [256]
00000000: 0a75 8a3b b462 a33a eb58 b43d 2240 ff3c
00000010: 3760 f93c 0fa9 843d f616 c93d a480 ddba
00000020: dbc2 b33b ffb4 753d 76a8 2a3c 9ced ff3d
00000030: a7ae 403d c0a7 cc3c 6667 83bd 29cc f63d
00000040: 2676 af3c 8b7a c63c 431d 503b 36d4 ef3d
00000050: 29de 053d 382d de3d 505d 03bd 9eba 5b3c
00000060: c902 423d 377c 003e 6d20 b73d 93fd 243d
00000070: bcb8 9e3c 0ac7 163c 2d97 80bd 4cc9 023e
00000080: ad59 3cbb 51eb 9d3a 7673 953d 1238 d43d
00000090: 6fcc 88bc 2bbb 5a3c 9356 e33c b721 043e
000000a0: 21f1 803d 1735 1e3d de32 393c b1ae 543d
000000b0: 49ed 273d 79fc 753d 5921 9e3c 0563 c33d
000000c0: 7da3 8b3d 2f97 883d b0e1 ef3d db89 db3c
000000d0: 8baa c23d f33d 113d ac91 ff3c 819c 0abd
000000e0: 24dd 3d3d cc5d 39bc 1e00 a53c 0d0a f43c
000000f0: 68b2 1cbb 560a 2c3d c80e ae3d dfc4 8abc
00000100: 2d44 273d f1b6 663d 8408 953d 1106 2c3d
00000110: 685c 0dbd 26d7 863d a025 e73d 8499 863d
00000120: a89f e83c 7385 1d3d 968c b43d f5c3 973c
00000130: 7e51 173c 618e 48bc fbeb 053d a5f3 c13c
00000140: b7cd 313d 8e4c 883c 8dd1 9f3b 77b7 d83c
00000150: 1b4b b53c ff80 293c 0431 0fbc 7651 493c
00000160: 78a4 893c 4d94 4d3d 4f28 a8bb 12b3 ea3c
00000170: 5a44 85bb dad9 d53b a853 003d 517a 0dbc
00000180: 4c61 cdbb 29eb 9b3d 8dea 8d3c db90 d43d
00000190: e0d6 723d a582 9a3c f069 bb3d 9393 5c3d
000001a0: 4417 0f3d afe4 ed3d 7d02 b73c 3f2e 6c3d
000001b0: 64c5 6f3d 9ca0 ba3c b43e e03d a7f3 b93d
000001c0: f196 0c3e 045e 633d 73f2 8f3d ca23 773d
000001d0: ad4a d53d ae32 a43d 14cc 043d e56c 903d
000001e0: 1a9d c23d eb53 a43d 5429 1bbd 48df b13d
000001f0: 14ce db3d 2dde d23d b65f 013e 0c0b 053c
00000200: a686 a63c 1bb1 0c3d e870 b03d 866a 003e
00000210: 549a 393d 44d8 343c ed26 ae3b 2650 b13d
00000220: cb98 033d 4197 bdbc 39b0 353d fe3a 0f3d
00000230: 9bb1 a13d 04ae d83d 791b 773d 5725 aa3c
00000240: 9728 663d a3e1 1abb 3d17 e13a 4d95 703d
00000250: 2572 5a3c 9f2d d43d fac3 f13c bd53 823c
00000260: 0ab3 c93d 9114 1a3d 2d10 2fbd dae3 903d
00000270: 07a6 a03d 3edc 40bb 06a1 763c a0bc a73c
00000280: 34fe 133d a162 0a3b dd0f 6d3d a548 8e3d
00000290: 746e 933c c8f9 0f3d fe6c 5a3c dba5 483c
000002a0: 7c28 ed37 cbfc 893d f09c 7e3d a12a 0a3d
000002b0: cfc5 503d 1107 903a 9726 4d3b 3900 0abc
000002c0: afdb cebb 7cb1 e8bb 7ff6 933d be23 f73b
000002d0: ff5f 1cbc e765 843d 14ec 653d 9f30 d23d
000002e0: b40b 993d ee6c d63b 0024 073d cd29 e43c
000002f0: ed5f 853d ccd6 3c3d 1244 e63c 0e58 873d
00000300: 7308 edbc 2bfc f3bc 0728 783c 0a2b e63d
00000310: 0cb2 383d d244 893d 6d2b 3a3d 91fe e3bc
00000320: 3406 9c3c 0c67 2a3d c21a a63b 8049 a43c
00000330: b3a9 bebc 5479 2f3d 9a61 713d cb77 f93c
00000340: 16af d93c 7455 023e 89ef 693d 04fa 03bc
00000350: 7f08 7f3c adcf f23d 7a81 adbb fd19 8bbc
00000360: bbf9 3d3c 61f5 64bc 5d6a 173c 2de2 95bd
00000370: aa81 7bbc d623 983d f95a 363d f35c 7a3d
00000380: 54bf 7c3d ab8b bdbc 45a1 8d3c 2d78 743c
00000390: 67d6 d33c c94d fb3b 6509 ab3d 74fb 9f3d
000003a0: da75 463c 3a44 2f3d 739c 8bbc e846 ec3d
000003b0: 1eed 383d d44a 773c 461e 81bc d744 903c
000003c0: 2917 b5bd 1491 013d 739e 0bbc e8ab 293d
000003d0: d3bd 6e3d 436d 783c 34b5 3f3d 5221 05bc
000003e0: 4c75 bf3c 3b1f 693d 2bb5 9cbc 6e20 223c
000003f0: 0aef bc3c 1ea8 1a3d adff 2e3d 8d00 03bd
0.004225378 0.0012465329 0.08806022 0.03115851 0.030441387 0.06477558 0.098188326 -0.00168993
0.005485875 0.059987064 0.010416141 0.12496492 0.04704156 0.024982333 -0.06416206 0.12050659
0.021418642 0.024228355 0.0031755723 0.11710398 0.03268257 0.108484685 -0.03207141 0.013411192
0.047365937 0.12547384 0.089417316 0.04028089 0.019375198 0.009202728 -0.062788345 0.12772101
-0.0028739974 0.0012048279 0.07297413 0.10362257 -0.016699044 0.013350288 0.027751243 0.12903486
0.06295992 0.03862485 0.011303632 0.05192441 0.040997777 0.06005523 0.01930301 0.09540371
0.06818292 0.06669461 0.11712968 0.026799133 0.09505185 0.03545947 0.031197391 -0.03384066
0.046353474 -0.011313867 0.020141657 0.029789949 -0.002391005 0.042002045 0.08498913 -0.016939579
0.040836502 0.05632681 0.07277015 0.041997973 -0.034511954 0.06584005 0.11286473 0.065722495
0.028396443 0.038457345 0.08815877 0.018526057 0.009235738 -0.012240977 0.03269575 0.02367575
0.043409076 0.016638067 0.0048772753 0.02645467 0.02213054 0.0103456965 -0.008739714 0.012287488
0.016802058 0.05019026 -0.0051317583 0.02864984 -0.004066986 0.006526214 0.03132978 -0.00863512
-0.006267702 0.076132126 0.017323757 0.103791915 0.059286952 0.018861124 0.09151065 0.053851675
0.034934297 0.116158836 0.022340054 0.05766129 0.058537856 0.022781663 0.1094946 0.09079676
0.13729455 0.055509582 0.070286654 0.060336865 0.10414634 0.08017479 0.032421187 0.0705202
0.09502621 0.080238186 -0.03788121 0.08685166 0.10732666 0.10296283 0.12634167 0.00812031
0.020327877 0.03434859 0.08615285 0.12540635 0.045313194 0.01103789 0.005314699 0.08657865
0.032128137 -0.023143413 0.044357512 0.03496837 0.07895204 0.10580066 0.060328934 0.020769758
0.056191053 -0.0023633025 0.0017173063 0.058736134 0.013332878 0.10360264 0.029512394 0.01590907
0.09848602 0.03761727 -0.042740036 0.07074709 0.07844167 -0.002942815 0.015053039 0.020475686
0.0361311 0.0021115916 0.057876457 0.069474496 0.017997004 0.03515032 0.01333165 0.012246574
2.8271454e-05 0.067376696 0.062161386 0.03373206 0.050969895 0.0010988434 0.003130352 -0.008422905
-0.0063128094 -0.007101236 0.0722475 0.0075421026 -0.009544372 0.06464749 0.056133345 0.1026318
0.07472935 0.006543747 0.032993317 0.027851963 0.06512437 0.046103284 0.02810863 0.06608592
-0.028934693 -0.029783329 0.015146262 0.11238678 0.045091674 0.067025796 0.04545157 -0.027831348
0.019045927 0.04160218 0.0050691077 0.020054579 -0.023274278 0.042840317 0.05893097 0.03045263
0.026572745 0.1272791 0.057113204 -0.008055214 0.0155659905 0.11856017 -0.005294976 -0.016980166
0.011595185 -0.0139745185 0.009241668 -0.0731853 -0.015350739 0.0742871 0.044520352 0.0611238
0.061705902 -0.023137888 0.017288813 0.01492123 0.025859071 0.007669185 0.08351401 0.07811633
0.012113059 0.042789675 -0.017042374 0.11536962 0.045148008 0.015093524 -0.015761506 0.01761095
-0.08842308 0.031632498 -0.008521664 0.04142371 0.0582865 0.015162769 0.04680367 -0.00812562
0.023371361 0.05691455 -0.019129356 0.009895427 0.023063201 0.037757985 0.0427243 -0.031982947

network_body._body_endoder.seq_layers.0.weight f4 [256, 6]
00000000: ebab d93d 5bb7 593c 04d1 70be e888 48bd
00000010: 0f13 82bf a701 8ebe 96fe 10bf 5fdb 5fbe
00000020: e3c1 1fbf 70b0 553e 55a0 ca3e 6cf0 b4be
00000030: e775 053f ce9b 403f 434a cf3e d81c 1c3e
00000040: 4533 02be e81c 2abf acf1 00bf ea39 8c3c
00000050: 1203 5a3e 3acd a03e 4f34 f93c 8766 33bf
00000060: f3df 9d3e 6ce7 ad3e d617 24bc f972 4bbe
00000070: 7c22 d13e 17e7 1d3e b6ab 743e d406 d43e
00000080: 61c1 163e a1da e6be 7f22 c3be 4409 e2be
00000090: 54e4 25be 2fdd 6c3d 9f63 653e 2172 a9be
000000a0: 8eb5 383e 2fd4 74bf cd20 873c 459a eabe
000000b0: 9748 f6be 8cb9 57bf 48b0 03bf f764 9ebe
000000c0: 8490 363e f2cc 503e 99cb c0be 212a b73e
000000d0: ee3e 683d 7dd3 8ebe 3a52 e83c 6a96 ccbd
000000e0: 0d8e 103f 96e9 093f 54e2 b5bd d4f1 783d
000000f0: 7df3 91bd 1c59 9fbe fcfc c5bd f8c3 4fbf
00000100: 82eb bbbd d93f a1be 7f65 663f e0e9 4f3e
00000110: 61cd 5fbe 251c 2abf fb8b 07ba 07c0 123f
00000120: dd83 1ebf c060 8e3e 4150 133e 60db 173f
00000130: b2a1 903e 6957 553e 61fb 213f 18d4 693f
00000140: 5cab 3bbe fb0a a9be 4b5a 633e 9bef e3bb
00000150: 3cfb 60be b9e1 6f3d bea2 aebe 7b0e 383e
00000160: 0f1f 53bd 59ce 583e a579 cf3e 13fc af3d
00000170: 0a3f f23d 01c0 e8be b622 aa3e 35b4 15be
00000180: 0c34 cfbe dba7 773f 8257 613e f0d2 6cbd
00000190: 3710 7fbe d836 7dbb a4fb 8c3e 9ce9 6bbd
000001a0: 0075 0dbf 8264 84be 2417 e8be 0658 f53d
000001b0: 563b 37be 797d bc3d 3d63 02bf d61a 20bc
000001c0: d25a 50bd b170 383e c949 583e 468d 2a3e
000001d0: cafa 903e 3435 7fbf 01d1 07be 2d61 853d
000001e0: 4ac6 473d 039a c1be 9880 d2be 6183 cbbd
000001f0: 76f3 023f 3c8e 91be 5c6e 343e c174 91bd
00000200: 70d4 1e3d 8f6b 843e 6470 823e 45ab e9be
00000210: e15c afbd 3497 2fbe b27b 183e 395e a43e
00000220: 186f 453f 3606 303d 3050 7d3e eb31 073f
00000230: 30e1 9cbe 1e33 54be a6d6 e43e c156 283e
00000240: 9358 ecbd 67d1 f13e edfa 26bf abf1 e7be
00000250: 72c4 a3be 9d78 b2be 5f38 db3d d584 3a3e
00000260: 8e54 c8be 02e9 a6be 5f1a ebbe 8f3b a8bf
00000270: 126a 293f 5f28 d13d b52f 923f 39e2 603f
00000280: 6a0f 4dbe 4421 69bd 7c84 fabe c1ca 363f
00000290: ba10 313f 6664 98be b602 933e 6ab3 913e
000002a0: 82ba 8cbe 3dbe 07be 3cab f73d d298 f83d
000002b0: 6b0e 3b3b 7ea9 06bf c7ee c1be ccbc bd3b
000002c0: a9bf 18be be7c 7cbe ef1c 023f 61cc f43e
000002d0: 8741 34bd 5367 d8be f088 84bc e1f1 513f
000002e0: 77cb b9be 13bc 673e 8d9a ffbc 1456 153f
000002f0: 6652 143f 466d a0bf d962 263f 9b51 0d3e
00000300: fe9d 333e ec91 2bbe b78a 8ebe e1af a13e
00000310: 7d56 2fbf 5f61 a23f f330 3cbd 38f1 903e
00000320: 963e bf3d d6bb 98be ff22 373e ef2f 2e3f
00000330: 189d 3f3e 23a6 903e 11db 9dbc 7cde cf3e
00000340: a500 39be 92e4 0c3f 506e 6d3e 3805 283f
00000350: a354 dbbd f603 853c 2d05 dc3e 5196 bfbd
00000360: a501 7c3e a452 d1bd 7a96 09bf 2b02 debe
00000370: 302a 543e 0f2f 583e 4a43 72bd f428 7cbf
00000380: 6a49 81be d9c0 5fbe 6393 f23e 25bf 9f3e
00000390: 2225 2c3d ee8b 133e a3b9 cb3d a42e 383f
000003a0: 3ebe 0f3f 5a5b 563e 600c 223f d431 8c3f
000003b0: b9bd 2d3f 6482 4cbe fce9 58be 965c b03d
000003c0: be71 563e bb5c b8be dd93 c63d a407 6fbf
000003d0: 6ef6 dfbe 6de1 91bf d161 5cbf b2ed 07be
000003e0: ec8a b73e 862f 5abf 3b99 c4bc fbc9 893e
000003f0: 651e 193f c15e e8be 2d32 6fbf ecae 233e
0.10628494 0.013288344 -0.23517233 -0.04895869 -1.0162066 -0.27735636 -0.5663847 -0.21861027
-0.6240522 0.20868087 0.3957545 -0.35339677 0.5213303 0.7523774 0.40486345 0.15245378
-0.1271487 -0.6645036 -0.5036876 0.01711746 0.21290234 0.31406575 0.03042045 -0.7007832
0.30834922 0.33965623 -0.010015449 -0.19868077 0.40846622 0.15420185 0.23893628 0.4141146
0.14722206 -0.45088676 -0.38112256 -0.44147694 -0.16200382 0.057828125 0.22401284 -0.33094886
0.18038008 -0.95636266 0.016495133 -0.45820823 -0.48102257 -0.842675 -0.5144086 -0.30936405
0.17828566 0.2039068 -0.37655333 0.3577433 0.05670064 -0.27895728 0.028359521 -0.09989627
0.5646675 0.5387205 -0.08881059 0.0607775 -0.0712652 -0.31122673 -0.096673936 -0.811584
-0.09175779 -0.31494024 0.8999862 0.2030406 -0.2185569 -0.66449195 -0.00051707 0.5732426
-0.6191996 0.2780819 0.14386083 0.59319115 0.28248364 0.20834126 0.632742 0.91339254
-0.18327087 -0.3301619 0.22202413 -0.0069560534 -0.21970838 0.058564875 -0.34108537 0.17974274
-0.05154329 0.21172465 0.40522495 0.08593001 0.1182843 -0.45458987 0.33229607 -0.14619525
-0.40469396 0.967405 0.22006038 -0.057818353 -0.24908529 -0.0038637426 0.27535737 -0.057595834
-0.5525665 -0.2585793 -0.45330155 0.1197968 -0.17893729 0.092036195 -0.50932676 -0.009772023
-0.050867863 0.18011738 0.21121897 0.16655454 0.28316337 -0.99690557 -0.13263322 0.065126754
0.048773088 -0.37812814 -0.41113734 -0.09937168 0.5115274 -0.2842883 0.17620224 -0.07102347
0.038776815 0.2586331 0.25476372 -0.4563848 -0.08562637 -0.17147523 0.14890936 0.32103136
0.7712264 0.042974673 0.2473762 0.52810544 -0.30640554 -0.20722625 0.44695014 0.16439344
-0.11540332 0.47230074 -0.6522663 -0.45301566 -0.31985813 -0.34857646 0.10704111 0.18214734
-0.3912701 -0.32599646 -0.45918557 -1.3143176 0.66177475 0.10212778 1.1420809 0.8784519
-0.20025411 -0.05691649 -0.48929203 0.7140313 0.6916615 -0.29764098 0.28713006 0.28457195
-0.27486044 -0.13256164 0.12093207 0.12138523 0.002854253 -0.52602375 -0.37877485 0.0057903286
-0.14916863 -0.2465696 0.508254 0.4781218 -0.044007804 -0.4226633 -0.016178578 0.820097
-0.36288044 0.22630338 -0.031201625 0.5833447 0.5793823 -1.2533348 0.6499458 0.13800661
0.17540738 -0.16754884 -0.27840206 0.31579497 -0.68491346 1.2685965 -0.04594512 0.28309035
0.09338109 -0.29830807 0.17884444 0.6804189 0.1871227 0.28251752 -0.019269498 0.4059943
-0.18066652 0.5503627 0.23186612 0.65632963 -0.107095025 0.01623724 0.429727 -0.093548425
0.24610002 -0.102208406 -0.53745234 -0.4336103 0.20719218 0.21111701 -0.059146203 -0.9849999
-0.25251323 -0.2185091 0.47378072 0.3120052 0.0420276 0.14408848 0.09947517 0.7194617
0.5614966 0.20933285 0.6330013 1.0952706 0.6786762 -0.19971615 -0.21183008 0.08611409
0.20941827 -0.36008248 0.096961714 -0.93371034 -0.43742698 -1.139692 -0.86086756 -0.13274267
0.35848176 -0.85228765 -0.023998847 0.2691191 0.59812003 -0.45384791 -0.9343594 0.15984696

network_body._body_endoder.seq_layers.2.bias f4 [256]
00000000: 7de5 743c 904c d53d 7837 c238 ac22 c0bd
00000010: 0e30 e6bd 3c02 65bd fc81 043c 319d 2cbd
00000020: f0b8 973d d7b0 853d 8f7d ab3c 18db cd3d
00000030: 6cbf c33d a8b9 1a3d ce82 373d e907 263d
00000040: 5365 aa3d 0925 c3bd fe70 4abb a376 e6bd
00000050: a500 4e3b 91a9 50bd 1caa 8a3d 56fd cb3d
00000060: 79ce bf3c 2a97 713d f3a3 073d ece9 2a3d
00000070: 8135 973d 3b85 6a3d c10e a2bc 96e0 fc3a
00000080: 4ce8 823d 2e75 3b3d ce2c b1bb 7e58 30bd
00000090: 0a64 a93c c81a 9dbd 1558 043e 211c ad3c
000000a0: 38e9 103c efc9 e5bd e07f f23b 6dd1 783c
000000b0: 20d3 debd a8a3 2f3d f646 a2bb 3456 953d
000000c0: 49be 9ebd 5131 653d 554a b7bd bdd5 e9bc
000000d0: c39e 153d 706a dbbc f4df f9bc 6841 96bc
000000e0: f2ba 67bc e94c e2bc f6fe 113d a222 273d
000000f0: f051 bebc 7b9c d03d 260b 263d 6ce3 e43c
00000100: 883a 163b 9952 033d b7cb cebc ab71 cb3d
00000110: 2a81 4c3c 89e7 0f3d 35a6 85bd 296b 863d
00000120: b651 c93d 6699 c03d f3e7 eebd dbd2 efbd
00000130: 9a9a 953d f203 03bd 44d0 3f3d dc8d b9bb
00000140: 93fe 03bd 3b01 193d bd9f 0e3d 2bef 513c
00000150: 157a fe3c e5a5 483d 6806 453d a293 013c
00000160: d1ea 973b c0dd 37bc a438 113d b104 913d
00000170: b05c 4abc 994a 643d bea8 8fbb 555d 8d3d
00000180: 532f f13c a751 da3c 4e78 a4bc c417 993c
00000190: bec9 663d f355 8f3d 8450 b4bd 97ec 063d
000001a0: 36ed d83d 9a0a a23d 0fee ae3d a9f1 433d
000001b0: 3f58 273c a0e1 09bd d66e 833d bef6 023d
000001c0: efc4 72bc 06b3 b83c e3ab c7bd bd11 eb3c
000001d0: 998c d03d 51f6 053d 22ff e33b 3a7d d4bc
000001e0: f897 d0bc 5c01 86bd 2f43 993d fc16 4a3d
000001f0: e335 a53d 5baf debd ff30 e23c 6982 56bb
00000200: 46f4 dcbb 4972 893b 1e00 6c3d f58f e2bc
00000210: 1fb6 0d3d c38d eebb dea0 8f3b a9c7 4d3d
00000220: aa43 d03d f70b e63c 1e12 5f3c c363 ebbd
00000230: 5567 aa3c 5ff0 7dbc e67b 733c e26f 58bb
00000240: eab3 31bd e87d 9b3b 25b1 983c 30a3 5e3d
00000250: 8181 67bc a22d 87bc 570e 293d 0cd3 5a3d
00000260: f8fb bb3c 67e1 26bc 32a1 9dbc eee6 a13c
00000270: 4110 0f3d f91f 293d c347 f1bc 076c 5b3d
00000280: d580 793d 69a5 5f3d 08bd c2ba 29d6 de3d
00000290: b55a d23c 0ff0 663d bc4b c5bd d75e 88bb
000002a0: 197a a13c 8b05 92bd 1be5 733d 6681 c83d
000002b0: e7de 3e3d b312 fbbd 1a40 7c3d cfc8 3cbd
000002c0: bea4 79bc 260f 833d 0983 7d3c fa67 6c3d
000002d0: 76d8 dabd 6d31 c13d 70fe 8ebc ec4d 653d
000002e0: 6739 11bc 86d4 3b3d 4040 ef3b d801 9a3d
000002f0: 21b3 4cbd 2fe5 363d 38a8 653a 012b 533d
00000300: a811 8dbb baaa 263c 4e32 b8bd 19f8 dcbc
00000310: 54ac 52bd 63c2 833d 2e32 c7bc 6fe6 573b
00000320: 5e49 7b3d 1869 8d3d 1a79 92bc a83e dd3c
00000330: a77a 2b3c bf1f b23d 1a0b d2bd 9926 5a3d
00000340: 4900 5fbc d8e0 5a3c d863 c2bd be06 1237
00000350: 2e7b 983d 5fa6 f23c d39e 763c 8a34 ad3c
00000360: 8005 1e3d 02eb e6bc 7e42 c43d fc86 0a3d
00000370: e638 6c3d 0259 833d 34cc 6cbd a99a b8bd
00000380: 330f 833c 9964 ddbd 1605 44bd 0c26 d7bd
00000390: 25fe b43c a830 043d 4b56 a63c 938a 6cbd
000003a0: 37d2 e5bd 4408 313d dc95 63bc 8c39 febc
000003b0: dd2d 423d 4be1 d13d df6b c93b b91f 9bbc
000003c0: 3893 2fbd 1763 3d3d 8f15 f0bd 9774 42bd
000003d0: 0ee3 cfbd 267b cfbc bb47 f5bd 9e4c 513d
000003e0: aed9 a2bb 71b6 e63c 4268 333c 7d12 9b3c
000003f0: 82e9 683d a000 be3d 7463 b5bd 0442 433a
0.014947292 0.10414994 9.260973e-05 -0.09381613 -0.112396345 -0.055910334 0.008087631 -0.042142097
0.07408321 0.0652787 0.020933894 0.100515544 0.09557995 0.03777471 0.04480248 0.040534887
0.08320107 -0.09528548 -0.0030890102 -0.11253097 0.003143349 -0.05094296 0.06770727 0.09960429
0.023413884 0.058982052 0.03311534 0.04172699 0.07383252 0.057255965 -0.019782426 0.0019293006
0.06391963 0.045766048 -0.0054069525 -0.043053143 0.020677585 -0.07671124 0.12924226 0.021131577
0.008844666 -0.112201564 0.007400498 0.01518665 -0.10880113 0.042880684 -0.004952307 0.072918326
-0.07751138 0.055955235 -0.089497246 -0.028544301 0.03652836 -0.026784152 -0.030502297 -0.018341735
-0.014143692 -0.027624564 0.03564354 0.040804513 -0.02323243 0.10186096 0.040537976 0.027940474
0.002292307 0.032061193 -0.025243623 0.0993379 0.012481967 0.03513292 -0.06525842 0.06563408
0.09830038 0.094042584 -0.116653346 -0.11710139 0.073048785 -0.031986184 0.046829477 -0.005662663
-0.032225203 0.03735469 0.034820307 0.01281337 0.031064073 0.048986334 0.048101813 0.007908734
0.0046361466 -0.011222303 0.035454407 0.07080973 -0.0123512 0.055735204 -0.0043841293 0.06902567
0.029441511 0.026650263 -0.020076897 0.01868809 0.05634474 0.069988154 -0.0880442 0.032940473
0.105921194 0.07912178 0.085415 0.047837887 0.010213911 -0.03366244 0.06417625 0.031973593
-0.01481746 0.022546303 -0.09749582 0.028694982 0.10183067 0.03270561 0.0069579044 -0.025938619
-0.02546309 -0.06543228 0.074835174 0.049338326 0.08066919 -0.1087329 0.027611254 -0.003273154
-0.006742987 0.004194532 0.0576173 -0.027656535 0.034597512 -0.007280083 0.0043831905 0.05023924
0.10169156 0.028081877 0.013615159 -0.114936374 0.020801226 -0.0154992035 0.014861083 -0.0033025672
-0.04338447 0.004745234 0.018639157 0.054354846 -0.014129997 -0.016501252 0.04127344 0.053423926
0.022947297 -0.010185576 -0.019241903 0.019763436 0.03492761 0.041290257 -0.029453164 0.05356982
0.06091388 0.054601107 -0.0014857361 0.108806916 0.025678018 0.05638128 -0.09633586 -0.0041616964
0.019711541 -0.071299635 0.059544664 0.09790306 0.046599295 -0.12259426 0.06158457 -0.046089943
-0.0152370315 0.06399374 0.015473136 0.057716347 -0.10685818 0.09433255 -0.01745531 0.055982515
-0.008863783 0.045856975 0.0073013604 0.07519883 -0.049975518 0.04465216 0.0008760723 0.051554684
-0.0043050833 0.01017254 -0.0899397 -0.026973771 -0.051433876 0.06433561 -0.02431592 0.0032943746
0.061349265 0.06904811 -0.017880011 0.027007416 0.010466254 0.08697461 -0.10256024 0.053259466
-0.013610908 0.013359271 -0.094917 8.703848e-06 0.0744537 0.029620348 0.015052515 0.021143217
0.038579464 -0.028188232 0.09582995 0.033820137 0.05767145 0.06413461 -0.05781193 -0.09013874
0.015998458 -0.10810203 -0.047856413 -0.10505304 0.022093842 0.032272965 0.02030482 -0.057749342
-0.11221736 0.043220773 -0.01389071 -0.0310333 0.04740702 0.10248049 0.0061468924 -0.018936025
-0.042865008 0.046237078 -0.11722862 -0.04747447 -0.10150729 -0.025327276 -0.11976572 0.05109846
-0.004969797 0.028163167 0.01095015 0.018929714 0.056863315 0.09277463 -0.0885686 0.0007448497

network_body._body_endoder.seq_layers.2.weight f4 [256, 256]
00000000: aa81 b1bc 2f98 e23c 5410 d8bd 299c 4fbc
00000010: f186 82bd f3dd 8bbb cdfa e3bc c23b 2fbb
00000020: 79ed 343d c8bc d9bc 150d c53c fb57 963d
00000030: ba25 263d cb4f 823c 71ef 4d3d dea9 81bb
00000040: a5cf 9fbc e564 1dbd d7d4 91bc af07 e4bc
00000050: a038 f83d 4307 62bd d158 7dbd 267a 11bc
00000060: 9afd 8bbd d822 f13c 5289 fabc 7231 cb3b
00000070: 4cfe 2b3c eb98 e03d 551f a23c 97a4 a2bc
00000080: 0de0 ad3c a6cd a4bd f616 a3bd 477c 24be
00000090: 88c2 343d 6ab4 813d ea31 12bd e5b4 07bc
000000a0: ba66 393d 80a3 be3d da2d 483d 4976 01bd
000000b0: f23d ecbc 41be 6abd 75a0 ee3d dbca 85bd
000000c0: e779 abbd 83ce 963d a93b 613c 389b e93c
000000d0: 6355 dfbc c6dc 1abd 959a 83bd 0860 6b3c
000000e0: 9c29 223d 16ec 563d 4de7 dc3b 7979 203d
000000f0: b5c0 933d c478 3bbb bcc5 80bb d617 ab3d
00000100: 5960 d2bd f641 53bd da8a 8dbd c554 6bbe
00000110: 70b0 abbc 7af1 09be 87fe eabb 0e8a 983d
00000120: d98e b2bd 1eb2 403d 6dd0 063e 6468 9b3d
00000130: 28d0 a8bc dc5f 0e3d 07cf 1c3d 66c8 813d
00000140: f6fc 76bd fbff 47bc b439 4ebd 56c8 753d
00000150: b42a 023d 8995 013e e5a3 9d3c 0fec 72bd
00000160: 57ce 9cbd 8390 473c 147c d13d a868 07bc
00000170: 3785 43bd 3810 97bd 401e d2bd f57b c03d
00000180: f897 8f3d 722c 2b3c 370d 093e 9320 41be
00000190: 1cf5 853d 9658 e93c a545 1e3e 885f bebd
000001a0: 29eb bd3d d700 c2bd f53a e83d d0e9 cf3c
000001b0: 281d d1bd 8781 02bd 22a2 b8bd ab05 9d3d
000001c0: 7078 a9bc 642e 04bd 0365 07bd ed4b b93b
000001d0: 2b9b 93bc 3df4 34bd 17c4 dbbc d86d 31ba
000001e0: 11d8 3f3d b3fd 0c3d faea 51bc c758 cf3d
000001f0: ef50 cbbc bb9f 1abd 3610 8d3d 154f 023d
00000200: 4426 513c 6ba6 823d 8c24 1d3c 8a07 aa3d
00000210: aca8 1e3d 6fc1 dabd 6841 803d 346f b5bd
00000220: 5c8f 9dbd 5100 a5bd f7d9 0f3e 0f23 fbbc
00000230: b79a ea3c 1d84 ad3c 3728 fe3c 15dd 2fbe
00000240: 6406 5bbc 16bf 2ebc 929a c6bc d52c b83d
00000250: 94ce c53d 7cba 61bc 5b0a b2bd be03 8b3d
00000260: 423f 5fbd 879c dabc a6e1 81bd 48f7 bcbd
00000270: f839 a83c 7652 733d db78 a1bd eab9 e0bb
00000280: 90a4 b6bd e5de debd 4f53 28bd b51e 743d
00000290: f0dc a73d ae41 c03d b7d3 e73d 77dc cd3d
000002a0: 9457 9cbd ab26 3c3d 91e4 e3bd 6b12 443d
000002b0: dcd4 a63c f185 f73d 3d0d 233c 0e24 0ebd
000002c0: 44ee e03d 80cf 673d fefe 02be 7a4c 293c
000002d0: 663a bcbd 8867 63bc 8223 0a3d fdcf cabd
000002e0: 1653 5ebb 046c 87bc cb9b b2bb 3bef f93d
000002f0: 5310 b13d 992d d2bc 1dd6 65bd 42bf 0abd
00000300: c06e 233c a440 57ba d578 6abc d5ed 7abb
00000310: fd3d 8b3d c7e3 c13c 4b69 6c3d 05ca 2b3d
00000320: 327d 9f3d 5c61 193d 59e9 be3b 92b7 b03c
00000330: 0f66 0f3c 137b b13c bb70 a3bd baa6 c23c
00000340: db6a 253e 305e 8bbd 14fb 4b3d beed 463d
00000350: 1b22 f63d 1927 0f3d 79d9 44bd 05ce 4abd
00000360: 91b8 813d 8cba d03d 8e45 933d c3da 31be
00000370: 703e 0c3e 28ca 8c3c d6a9 a6bd 119e 4d3d
00000380: 4cae 36be 4f8b 97bd faa2 a6bd 8941 793d
00000390: c02b ff3d 1436 5f3d b065 073d 2935 9b3b
000003a0: da6a 993d 0c50 fb3b 8915 e63c e25c 0ebd
000003b0: 1387 843b d9cf aabd 7e81 383d 2051 9b3d
000003c0: 48ef 223d a9ab 5e3d c02c 033e 5f01 973d
000003d0: 9612 f1bb f718 8e3b 93ba 8bbd bad5 a03c
000003e0: 8b4f 873d 0101 7dbd 46e6 4a3d e8b6 b0bd
000003f0: afb3 f6bd ded9 aebc 65dc a4bd b996 dabd
-0.021668274 0.027660457 -0.10549989 -0.012671509 -0.06373394 -0.004268402 -0.027829552 -0.00267385
0.044171784 -0.026579276 0.02405409 0.07341 0.040563323 0.015907189 0.050277177 -0.0039570173
-0.019508192 -0.0384263 -0.017801685 -0.027835695 0.12120175 -0.055182707 -0.06185228 -0.00887922
-0.0683548 0.02943556 -0.030583058 0.0062009627 0.010497641 0.10966667 0.01979033 -0.019853873
0.021225 -0.08047037 -0.07963364 -0.16063033 0.044130832 0.063332394 -0.035692133 -0.008282875
0.045263983 0.09308529 0.048871852 -0.031606946 -0.028838132 -0.057310347 0.116516985 -0.06532832
-0.083728604 0.07363608 0.013747134 0.028516397 -0.027262395 -0.037808202 -0.064259686 0.014366157
0.039590463 0.052471243 0.0067414404 0.039178345 0.0721449 -0.0028605917 -0.003929822 0.08354156
-0.10272283 -0.051576577 -0.069112495 -0.22981556 -0.020958155 -0.13471022 -0.0071714553 0.07448207
-0.08718652 0.047044866 0.13165446 0.0758827 -0.02060707 0.034759387 0.038283374 0.06337051
-0.060299836 -0.012207027 -0.050348 0.06000551 0.031779006 0.126547 0.01924319 -0.059307154
-0.07656544 0.01218045 0.10228744 -0.008264698 -0.047734465 -0.0737614 -0.10259676 0.09398643
0.070114076 0.010447608 0.13383947 -0.18860082 0.065408915 0.028484624 0.15456255 -0.09295565
0.09273369 -0.094728164 0.1133937 0.025380045 -0.10210639 -0.03186181 -0.090152994 0.07667097
-0.020687312 -0.032270804 -0.033055317 0.005654803 -0.018018326 -0.044178236 -0.026826901 -0.0006768382
0.046836916 0.034421634 -0.01281237 0.10124355 -0.024818866 -0.037749987 0.068878576 0.0318137
0.012765471 0.06379398 0.009591233 0.08302219 0.038735077 -0.10681426 0.06262475 -0.08859101
-0.07693359 -0.08056701 0.1404799 -0.030656366 0.028638227 0.02118116 0.031025035 -0.1717418
-0.013368223 -0.010665676 -0.024243627 0.08992926 0.09658542 -0.0137773715 -0.086933814 0.06787823
-0.054503687 -0.026685966 -0.06341867 -0.09226853 0.020535454 0.059404813 -0.078843795 -0.0068581
-0.089181066 -0.108823575 -0.041095074 0.059599597 0.08196437 0.093875274 0.11319678 0.10051816
-0.07633892 0.045935314 -0.1112758 0.047869127 0.020365171 0.12086094 0.009951887 -0.034702353
0.109829456 0.05659437 -0.12792584 0.010333175 -0.09190826 -0.013879664 0.03372527 -0.09902952
-0.0033924035 -0.016530998 -0.005450701 0.12203833 0.08645692 -0.025656508 -0.056112397 -0.033873804
0.009975135 -0.00082112313 -0.014311035 -0.0038288732 0.06798933 0.023668183 0.057717603 0.041940708
0.07787551 0.037446365 0.005826157 0.021571908 0.00875236 0.021665132 -0.07980486 0.023761142
0.16154043 -0.06805074 0.049799994 0.048566572 0.12018224 0.034949396 -0.04805896 -0.04951288
0.063340314 0.10191831 0.07191001 -0.17368607 0.13695693 0.01718624 -0.081378624 0.050199572
-0.17839926 -0.07399618 -0.08136554 0.060853515 0.124595165 0.054494932 0.03305596 0.004736562
0.074910834 0.0076694544 0.02808644 -0.03475655 0.0040444224 -0.08340425 0.04504537 0.07583833
0.039778978 0.054362927 0.1281004 0.073733084 -0.007356952 0.004336472 -0.068226956 0.019633163
0.066069685 -0.061768536 0.049536012 -0.086286366 -0.12045991 -0.021344122 -0.080498494 -0.10673279

network_body._body_endoder.seq_layers.4.bias f4 [256]
00000000: 010d 2b3c 5caf 72b9 d165 7cbd 1dd0 e63c
00000010: e38a 90bc 56d6 733d d099 7e3d 60c3 e93d
00000020: 5cb4 923d 9b14 2c3d 4424 35bc aad6 d7bc
00000030: 5d8d e8b8 c6f9 3c3d a31e 2cbd b27b 7a3c
00000040: 40c6 f7ba a143 513d 4195 963d b293 563d
00000050: 6646 fe3d 5878 843d 6278 7ebb e948 d8bc
00000060: b7b0 3f3d fac1 493d 4362 e33c 79f0 b53d
00000070: e6e5 85bc 8d4a 1e3d 415f 603c 72b6 cebc
00000080: 5699 5d3d 1a40 e1bc 9aaa a93c 7493 17bc
00000090: 8403 d23d b1dd 47bd 84b6 0c3d 9fca bcbc
000000a0: e86b ca3c 283d 233c 3f82 cb3d 85a2 273d
000000b0: 4f10 673d 3d9a b93d 0431 ad3d bc9f f1bc
000000c0: 1a0b cb3d 37fd 3cbd 278b e73a 0088 163d
000000d0: f6c5 443d 3f6a 38bd f084 013e b037 1b3d
000000e0: 05e5 883d 3983 83bd bd74 b9bc 46c9 07bd
000000f0: d63f 0fbb 14b0 933c a348 0dbc 132c 2f3d
00000100: 5c9d 53bd ad5b fb3c bf1d 52bd 43f1 e33c
00000110: 552c 263d 274f b83d d292 553d 8434 1abd
00000120: 2868 04bc 7b46 193d 7da3 3e3d 411e 543d
00000130: 4874 c43b b107 503b dae1 113d 3c81 973c
00000140: 7b8d 233d 9214 7a3c dade 23ba a419 453c
00000150: 7091 a63d c586 60bd ce81 c9bc 66d3 5c3d
00000160: 0834 fc3b d397 9ebd 1431 463d 92b8 0cbd
00000170: adf5 843c b19f 9ebd 2477 f73c 0c53 ad3d
00000180: 9e78 973d affc 253d 1aea 023d a270 3ebd
00000190: 1828 c43b 8d7c 22bc 0bf6 45bb 83be 2cbd
000001a0: c1c3 f23c 0e44 8a3d 01c8 503c f27b 02bd
000001b0: 5bf1 933d 7fbc e53a 9b0d 9ebc af22 dd3b
000001c0: b9c8 633d 0d13 d33b e0fc a93c 19c1 98bc
000001d0: dcef 6c3c 9f0d 7139 678c 383d 9744 863d
000001e0: b127 373c ff66 74bc e694 5fbd 56ce 89bd
000001f0: d02e 4cbd ec89 403c bd2f eb3b a256 78bd
00000200: 8ad9 3f3d 7688 be3d eb14 9cbd 76e1 6bbc
00000210: 1b4d 70bd 62a1 b83d 4719 a6bb 8c3b d33c
00000220: d626 9b3c 0901 97bd 2ba7 003d 3767 adbc
00000230: 39aa ee3c 93a8 283c b14c 94bb f3e4 6339
00000240: beb6 8fbb afe6 c13d fb7e 8bbc a820 e939
00000250: 9aa7 90bd 0609 f13c 2b84 50bd 2cfe 1a3d
00000260: 1761 dd3d aadc 96bc c3ed 663d a8cb d63c
00000270: c8c6 1c3d 29eb 57bd 6243 043d 5f25 763c
00000280: 7387 003c 26c9 e53c f6dd 073d 1295 753d
00000290: 8c23 593b 7c13 55bd 220f 4e3d 7214 62bb
000002a0: b883 43bd 3c0f f5bb 003b 313d 554a b9ba
000002b0: a07d ce3d 1b0b 643d a611 e23c 81ae 423d
000002c0: ac5a 533b 36b0 b53c 7e27 a13b e1b5 56bd
000002d0: db4f 903d 4a2d f23d 67c4 4b3d c224 ab3d
000002e0: f166 fc3d 2464 e83c 4738 f33d 2874 703d
000002f0: 6124 3ebc 33af eabb f6eb 99bb 760a 4ebd
00000300: e008 313d 9e4e c13c 8240 f13c ef7c 3cbd
00000310: 7fda fa3c 6b09 a53c 610f 52bd f2ca 9abc
00000320: 988e 763d b9c1 7a3d 9efa d73c 2553 3abd
00000330: f5c0 3e3d e86f 4e3d 1a5a bb39 d999 b23c
00000340: 7dbf e03c c51d fd3c 01c4 c13d 4176 cebb
00000350: 906f 1e3d 27d1 c2bb 1239 4e3c faad 903d
00000360: dfde 0e3d ac86 423d 47ed da3c cb81 533c
00000370: 40a6 0a3d e27e 193c c939 02bd 4095 813d
00000380: 2e28 93bd 28c7 85bc 5857 8cbd ce2e 92bd
00000390: 4406 6fbc 6795 db3c a53b 1fbc 54a1 83bd
000003a0: 6cd2 163d e83e 853d 2e19 273c a3b8 d43d
000003b0: fb35 723d 3e35 f23b 4873 343d 60fe 6bbb
000003c0: e2df 8e3d b06e ab3d 1ba6 cd3d 6bdf bc3d
000003d0: 13ef 57bd 3ea3 c3bc fa10 c03c ca86 1cbd
000003e0: b57d 54bd 119c 9cbd d2ba 523c ee54 b23d
000003f0: 83d9 20bd bf83 893d a1e5 bbbc e0f2 90bd
0.010440112 -0.00023144245 -0.061620537 0.028175408 -0.017644351 0.05953058 0.062158406 0.11414218
0.07163307 0.04201184 -0.01105601 -0.026347477 -0.00011088953 0.04613664 -0.042021405 0.01528828
-0.0018903688 0.051089887 0.07352687 0.052386947 0.12415771 0.06468266 -0.0038829078 -0.026401954
0.046799388 0.049257256 0.027756816 0.08883757 -0.016344976 0.038645316 0.013694585 -0.025233481
0.05410131 -0.027496386 0.020711232 -0.009251464 0.10254577 -0.048795406 0.034353748 -0.023045836
0.024709657 0.009963311 0.09936952 0.040926475 0.056412037 0.09062622 0.084566146 -0.029495113
0.09914227 -0.046139922 0.0017665372 0.036750793 0.048040353 -0.0450232 0.12648368 0.037894905
0.06684307 -0.06421513 -0.022638673 -0.033150934 -0.0021858118 0.018028297 -0.008623275 0.04276664
-0.05166374 0.030683363 -0.0512979 0.027825003 0.040569622 0.08999472 0.052141972 -0.03764774
-0.008081473 0.03742073 0.046542633 0.051786665 0.005995307 0.0031742866 0.03561578 0.018494241
0.03992985 0.015263693 -0.0006251164 0.012030039 0.08133209 -0.054816026 -0.024598029 0.053912543
0.0076966323 -0.07743802 0.04838665 -0.034355707 0.016230429 -0.077453025 0.030208178 0.084631056
0.07396053 0.04052418 0.031961538 -0.046494134 0.005986225 -0.0099173905 -0.0030206467 -0.042173874
0.029634358 0.06751262 0.012742997 -0.031856485 0.07223769 0.001752749 -0.019293597 0.0067485194
0.055611346 0.00644148 0.020750463 -0.018646764 0.014461484 0.00022988625 0.045055773 0.06556051
0.011178897 -0.014917134 -0.05458536 -0.067288086 -0.04984933 0.011751633 0.0071773217 -0.060629494
0.04683832 0.093033716 -0.07621177 -0.014397016 -0.058667284 0.09015156 -0.0050689313 0.02578523
0.018939417 -0.07373244 0.031409424 -0.02116738 0.029133903 0.0102940975 -0.004525744 0.00021733697
-0.0043857982 0.094678275 -0.017028322 0.00044465554 -0.070632175 0.029423248 -0.050907295 0.037840053
0.10809534 -0.018415768 0.05637909 0.026220158 0.03827551 -0.0527145 0.032290824 0.015023558
0.007844794 0.028050017 0.033170663 0.059956618 0.003313276 -0.052020535 0.0503074 -0.003449705
-0.04773304 -0.0074786227 0.043269157 -0.0014136533 0.10082555 0.055674654 0.027596306 0.0475297
0.003225009 0.02217875 0.004918038 -0.052419547 0.07046481 0.118250445 0.04974785 0.0835662
0.12324322 0.028368063 0.118759684 0.058704525 -0.011605353 -0.0071619987 -0.004697318 -0.050302945
0.043221354 0.023597058 0.029449705 -0.046017583 0.030621765 0.020146092 -0.051284198 -0.0188956
0.06019458 0.061219905 0.02636462 -0.04548945 0.046570737 0.05039969 0.0003573455 0.021801876
0.027435059 0.030897984 0.09461213 -0.006300718 0.038680613 -0.005945343 0.012586849 0.070644334
0.034880515 0.047491714 0.02672447 0.012909363 0.033849955 0.00936863 -0.03179339 0.06327295
-0.07185398 -0.016330317 -0.06852597 -0.071378335 -0.014588896 0.026804639 -0.00971881 -0.06427255
0.036821768 0.06506139 0.010198874 0.10386779 0.05913351 0.007391601 0.044055253 -0.0036009774
0.06976296 0.08370721 0.10041448 0.09222301 -0.052718233 -0.02388155 0.023445595 -0.038214482
-0.051877696 -0.07646955 0.012861924 0.08707605 -0.039269935 0.06714582 -0.022936644 -0.07077575

network_body._body_endoder.seq_layers.4.weight f4 [256, 256]
00000000: 71a7 3ebd b4e9 843d 4898 9bbd e8a3 b13c
00000010: 7ed3 303d dbc6 20bd 281d 743b 541d c13d
00000020: fc10 c9bc 5b94 9bbd e970 a1bd 8854 223d
00000030: 7202 83bc ecc4 96bc f319 f3bd be75 46bd
00000040: ecf3 c5bc 0d07 d43c e45b eabb 6720 a23d
00000050: 39bb 0e3e a5ed 23bd 8e7d babc b2df fdbd
00000060: 01da 1f3e ed05 8fbd df42 c5bc 4df4 87bd
00000070: 6003 eb3d 87a0 30bd 7817 893d 329a fabd
00000080: eba7 7fbd 892b 10bd 6629 1abe 2363 faba
00000090: 3439 e7bc ad4b 433d ff38 45bd 8311 97bc
000000a0: fd81 9f3d 673c bf3d c0c4 123c eda0 03bd
000000b0: ca8d ee3d 33db 82bd a447 28bd c907 91bb
000000c0: 2390 3a3d 9399 493d 0faa a43d 29d7 34bd
000000d0: 4032 c8bd 2974 08bc 1a02 513d 964c 973d
000000e0: cc9f 56bd 9d74 2fbd 67b6 313d 821b 483b
000000f0: e7c7 6bbd 368e dc3c 0ef4 acbd 816b 2abb
00000100: 0daa e8bd 934d 17bd ad77 1dbe e11c 54bc
00000110: 32a7 62bd 70c9 ab3c eff3 413d dfc0 fdbc
00000120: f78e 86bb 0dd5 5abc 4b9d 0c3e f320 873c
00000130: 1ddc 1f3c d8c5 07be a276 fdbb b021 ba3d
00000140: 9092 973d 15e5 bf3c e94d 83bd 85bf f13c
00000150: 50e3 4dbd d73e e13a 46d7 2e3d 5441 7bbd
00000160: 9f87 82bd 0395 c33c a35e 573d 3fbf 893d
00000170: 1172 54bd fe5a f43d 5420 1bbc 19c4 eb3d
00000180: f495 8fbd 7ffe 0c3e 8928 c33d 88e3 af3d
00000190: c139 123e 2d33 c53d 8b20 fe3d 38d2 0f3e
000001a0: e82a 0d3e 51b8 bfbd 2e31 d73d 86a6 0dbd
000001b0: 57fa 1c3d 5cf3 ae3b e657 0abe 53f6 b2bd
000001c0: 2810 eebc 8668 5cbd dde6 d83d f42b cbbc
000001d0: 483f 33bd 0aff 92bc c785 d2bd 6b4a 6dbd
000001e0: 12bc 4bbc 99c8 de3d 17d6 9ebd 1311 11be
000001f0: 5c7a 023d f61b 8e3b 1a4a 073e 3e48 863d
00000200: 3370 23be 72f4 51bd aa28 b0bd 6f63 95bc
00000210: 51e7 73bd 4dba 493c 0285 043e 8aac 74bc
00000220: 2ae9 f83a ec56 c3bc 46ca f2bd 60d5 c9bc
00000230: d0fd 90bd 9226 a5bd 941d 263d cd84 233d
00000240: f301 adbd 46bb 24bd f18b 0dbd 4fd0 633d
00000250: ee38 b43c 7203 04bd 7552 903a b45a a83d
00000260: 86de 213d 5a25 82bd 8e1f 49be 89d3 c43d
00000270: c875 5f3d 8df6 0abd e700 45bd ba02 d53d
00000280: 50b8 313d aa8f 5cbd fc78 45bd 60bf 24bd
00000290: 244f 00be 412e 2fbe 2068 80bc 4dc6 4c3d
000002a0: 53ef a03c f992 b9bd cb75 b1bd 56b5 443c
000002b0: 6222 573d ab29 adbc a399 50b9 a339 e9bd
000002c0: f1a5 31bc 52f0 a1bd 861d c13d 8c6e 103d
000002d0: f1e7 31bd 1e16 183d 4a6f 81bd 1e5c 21be
000002e0: c251 293d c40a bfbc 81bd 973d d0af c33d
000002f0: f8c2 b53c 3a52 51bb cf18 043d 8485 6fbd
00000300: ee56 68bc df59 aabd 31d3 2f3d d945 fe3c
00000310: 9f86 fcbc e232 633b f716 88bd 6791 f3bd
00000320: 8b76 efbd b2c5 e33d 983b 56bd 9e06 513c
00000330: 7da5 8d3c e021 16bd ea49 fdbc 96bf 1a3c
00000340: 2909 02be 89c9 a0bd 5a6e 0a3e a70c ee3d
00000350: f519 a93d a699 bc3d 8aba 98bd 9b37 223c
00000360: d6eb 64bc dc95 c83d f685 af3c c58f d0bb
00000370: 078a b2bc 946b 083c c0e8 e43d 92f3 cabc
00000380: e036 723d ef03 11bd 01dd 163d b84d d6bd
00000390: 7c41 923d dab4 51bb d6a2 283c 5c0c 3abd
000003a0: 5639 aa3c d90d 83bd bf7f 5dbd aba4 40bd
000003b0: c5ef 43be 8f37 873c d124 78bd 3eae 553d
000003c0: c514 063e 70f8 b4bc 74f4 933d 11ef cc3d
000003d0: d66c cf3c 2d7a 833d a632 54be 9c84 a23d
000003e0: 5ea4 2f3d 8a9a 0ebe c5a1 7c3c 4316 9c3d
000003f0: 2b82 9fbc 51a3 513d cb7e 70bd dc48 9d3d
-0.046546403 0.06489888 -0.07597405 0.021684602 0.043170445 -0.039252143 0.0037248824 0.09429422
-0.024544232 -0.07596656 -0.07882864 0.039631397 -0.015992377 -0.018404447 -0.11870184 -0.04845213
-0.024164163 0.025882268 -0.0071520675 0.079163365 0.13938607 -0.040021557 -0.022764947 -0.12396182
0.15610506 -0.06983552 -0.024079738 -0.066383936 0.11475253 -0.04312184 0.066939294 -0.12236442
-0.062416 -0.03519777 -0.15054855 -0.0019103031 -0.028225519 0.047679592 -0.04815006 -0.018440967
0.07788465 0.09337693 0.008958042 -0.032135893 0.11648138 -0.06389465 -0.041083947 -0.004425977
0.045547616 0.049218725 0.080402486 -0.044150505 -0.097752094 -0.008328476 0.051027395 0.073876545
-0.052398488 -0.04283582 0.043386843 0.0030533974 -0.05756369 0.02692328 -0.08444987 -0.0026004019
-0.113605596 -0.036939215 -0.15377684 -0.012946338 -0.05533523 0.020970076 0.047351774 -0.030975757
-0.004106398 -0.013356459 0.13731878 0.016495204 0.009757069 -0.13259065 -0.0077350894 0.09088457
0.074010015 0.023424665 -0.064113446 0.029510269 -0.05026561 0.0017184865 0.04268577 -0.0613416
-0.06373524 0.023874765 0.052580487 0.067259304 -0.051866595 0.11931418 -0.009468157 0.11512012
-0.07011023 0.13768958 0.09529216 0.0858832 0.14279844 0.09628902 0.12408551 0.14045036
0.13785899 -0.093613274 0.10507427 -0.034582637 0.03832468 0.0053390693 -0.13510093 -0.08738389
-0.029060438 -0.05381062 0.10590909 -0.024801232 -0.04376152 -0.017943878 -0.10279422 -0.0579323
-0.012434976 0.10878105 -0.07755678 -0.1416667 0.031854972 0.0043368293 0.13211861 0.06556748
-0.1596077 -0.05125851 -0.08601506 -0.01823589 -0.059546772 0.012312484 0.12941363 -0.014933715
0.0018990387 -0.023845159 -0.11854987 -0.024637878 -0.07079661 -0.08063997 0.04055555 0.03992157
-0.084476374 -0.04021766 -0.034557287 0.05561858 0.021999802 -0.03222985 0.0011010902 0.08220425
0.039518856 -0.063547805 -0.19640943 0.0961066 0.054555684 -0.033926535 -0.048096564 0.10400911
0.043388665 -0.053847946 -0.048211083 -0.040221572 -0.1253019 -0.17107488 -0.01567465 0.0499938
0.019645369 -0.09061236 -0.08665045 0.0120061245 0.052523024 -0.021138033 -0.0001989366 -0.113879465
-0.010842786 -0.079071656 0.09429459 0.035261676 -0.043434087 0.037130468 -0.06320055 -0.15757796
0.041337736 -0.023320563 0.07409192 0.09555018 0.022187695 -0.003193988 0.03225022 -0.05847694
-0.014180882 -0.08317923 0.042926017 0.031039165 -0.030825911 0.003466778 -0.06645005 -0.11892968
-0.11692532 0.11121692 -0.052302927 0.012757925 0.017290825 -0.0366534 -0.030919034 0.009445092
-0.12698807 -0.0785094 0.13518658 0.11623507 0.08256904 0.092089936 -0.074574545 0.009900953
-0.013972243 0.097942084 0.021426182 -0.006364795 -0.021794332 0.00832643 0.11177206 -0.024774347
0.059134364 -0.035404142 0.03683186 -0.104640424 0.071413964 -0.0031998665 0.010292729 -0.045421943
0.020779293 -0.063991256 -0.054076906 -0.04703204 -0.19134434 0.016505985 -0.060581986 0.052168123
0.1309386 -0.02209112 0.0722436 0.10006536 0.025320452 0.064197876 -0.20722446 0.079354495
0.042881362 -0.1392614 0.015419428 0.076214336 -0.019471249 0.05118114 -0.05871467 0.076799124

network_body.observation_encoder.processors.0.normalizer.running_mean f4 [6]
00000000: 0ad4 38c1 134e ed41 67f1 56c1 4d1f 01c2
00000010: c331 b33f de50 8ec2
-11.551767 29.663122 -13.433936 -32.280567 1.3999561 -71.15794
