Assets/Training/results/learn_v2/MarsTaxi/MarsTaxi-2999968.onnx (onnx, 542464 bytes, 10 tensors)

54 f4 [6]
0	0x41f94ea1	31.163393
1	0x41640214	14.250507
2	0x426a701e	58.60949
3	0x3c992338	0.018693551
4	0x3a826a90	0.0009949971
5	0x3d28a653	0.041174244

action_model._discrete_distribution.branches.0.bias f4 [6]
0	0x3c73183e	0.014837323
1	0x3c89acd8	0.016806051
2	0xbd62749f	-0.055287
3	0x3ca96612	0.020678554
4	0x3cb6dd58	0.022322342
5	0xbd885967	-0.06657677

action_model._discrete_distribution.branches.0.weight f4 [6, 256]
0	0x3c30a503	0.010781529
1	0x3cd5de40	0.026106954
2	0xbcddc717	-0.027072472
3	0xbd60375f	-0.054740306
4	0xbb497699	-0.0030740856
5	0x3d0561f6	0.032564126
6	0xbc80334e	-0.015649464
7	0x3cb49a7f	0.022046326
8	0xbcddf976	-0.027096491
9	0x3c89256c	0.016741477
10	0x3d274246	0.040834688
11	0x3c941ee8	0.018081143
12	0x3becbafa	0.007224438
13	0xbbda9f93	-0.0066718548
14	0x3c863dd0	0.016386896
15	0x3cc27671	0.023738118
16	0x3c46bc0d	0.012129796
17	0x3b1b53f0	0.0023701154
18	0x3c826090	0.015915185
19	0xbdb4fac4	-0.08836892
20	0xbc057dc8	-0.008147664
21	0xbd428e85	-0.0474992
22	0xb9aaff28	-0.00032615033
23	0xbd2fee21	-0.042951707
24	0x3c054625	0.0081344
25	0x3c1af768	0.0094584
26	0xbd8f667f	-0.070019715
27	0xbcab0851	-0.020877989
28	0xbc42ea84	-0.011896733
29	0xbd71d53d	-0.05904125
30	0x3d3d9d42	0.04629255
31	0x3cd226a5	0.025653193
32	0xbd9cb131	-0.07650984
33	0x3d1c71e6	0.03819456
34	0x3c60e446	0.0137263
35	0xbd67ab5b	-0.0565599
36	0x3b8d7f9e	0.0043181917
37	0xbcd87099	-0.026420878
38	0x3c88051d	0.016604
39	0xbd6aa68d	-0.05728774
40	0x3cf48941	0.029850604
41	0x3c10ca2b	0.008837263
42	0x3c669cc9	0.014075466
43	0x3cbe639b	0.023240855
44	0x3cac4423	0.021028584
45	0xbca08663	-0.01959533
46	0x3d188b63	0.037242305
47	0xbcfc1da6	-0.030775856
48	0xbc441671	-0.011968241
49	0xbd15b7bd	-0.03655218
50	0xbd83bb06	-0.06432156
51	0xbb9d6fa6	-0.0048045693
52	0x3b94e623	0.004544036
53	0xbbc2c5d3	-0.0059439926
54	0xbae278c7	-0.0017278426
55	0x3ca9eb14	0.020741977
56	0x3cd0d6fe	0.025493141
57	0x3b77991e	0.0037780474
58	0xbd14e222	-0.03634847
59	0x3d0abc13	0.033870768
60	0x3ca3e7a2	0.020007912
61	0x3d152a5c	0.03641735
62	0xbd0605dc	-0.03272043
63	0x3a74abf2	0.0009333483
64	0xbc90eb8f	-0.017690448
65	0x3cacd2a4	0.021096535
66	0x3c496d87	0.01229418
67	0xbc9148fb	-0.017734995
68	0x3c1d6d19	0.00960853
69	0xbbe11d1d	-0.0068699257
70	0x3c1f3c58	0.009718977
71	0xbcd43776	-0.025905352
72	0x3d1781e3	0.036989104
73	0xbd3dcd7e	-0.04633855
74	0x3cbc926e	0.023019042
75	0xbad53c87	-0.0016268649
76	0xbd1b4c40	-0.037914515
77	0xbd6bbadd	-0.057551254
78	0xbd501f50	-0.050811112
79	0x3cff113f	0.031136153
80	0x3d0c73af	0.034290012
81	0x3cf53ca6	0.029936146
82	0xbd41dc6b	-0.047329348
83	0x3d23d45f	0.039997455
84	0xbbbe981e	-0.0058164736
85	0x3b810a64	0.0039380062
86	0x3b5d2538	0.0033744108
87	0xbd9a8a5d	-0.07545922
88	0x3d168eea	0.036757387
89	0xb9630170	-0.00021648942
90	0x3c945afd	0.018109793
91	0xbcabc5ac	-0.02096828
92	0xbd70e59c	-0.058812723
93	0xbc6494f7	-0.013951532
94	0xba914aeb	-0.0011084949
95	0x3d1e5bfb	0.03866194
96	0x3c5867ab	0.01320831
97	0xbccd51bf	-0.025063394
98	0xbc23b208	-0.009991176
99	0xbcce7df4	-0.025206544
100	0xbcaee5b5	-0.021349767
101	0x3d31d80a	0.04341892
102	0x3c80aa42	0.015706185
103	0xbcc77a8f	-0.024350433
104	0xbd93dfe9	-0.07220442
105	0x3be7b993	0.0070716827
106	0x3cccd670	0.025004596
107	0x3d12ac96	0.035809122
108	0xbdc2373e	-0.09483193
109	0xbd0a93ed	-0.03383248
110	0x3c884d93	0.016638553
111	0xbd281dbd	-0.041043986
112	0xbd2438eb	-0.040093344
113	0x3c2c57c0	0.010518968
114	0x3cbea1b5	0.023270467
115	0xbbf80723	-0.00756921
116	0x3c2bf6f0	0.010495886
117	0xbd251b12	-0.04030902
118	0x3ce6dbd8	0.028181002
119	0x3bf8c396	0.007591675
120	0xbd68bbad	-0.056819607
121	0xbc199f86	-0.009376412
122	0xbce563e2	-0.02800173
123	0x3c1f7381	0.009732128
124	0x3c9003fe	0.017580029
125	0xbb6c8ade	-0.0036093513
126	0x3d1eb050	0.038742363
127	0xbd12d282	-0.035845287
128	0x3c3ccd34	0.011523534
129	0x3b955854	0.0045576487
130	0xbcd114fd	-0.025522703
131	0x3d1d28bf	0.038368937
132	0xbad7cc21	-0.0016464033
133	0x3cea91f3	0.028634047
134	0x3cf24552	0.02957407
135	0x3d02062c	0.031744167
136	0x3c8fb1f1	0.017540904
137	0xbc63b7e0	-0.01389882
138	0xbdba28f1	-0.0908984
139	0xbc8888fe	-0.016666885
140	0x3c14d0a8	0.009082951
141	0xbd396079	-0.04525802
142	0x3b979118	0.004625451
143	0x3cdb63fa	0.026781071
144	0x3d69c484	0.057072178
145	0xbd8c1769	-0.06840403
146	0xbd04f101	-0.0324564
147	0x3d1050c8	0.03523329
148	0xbbec36a4	-0.007208662
149	0x3cbc44d0	0.022982031
150	0x3cba14f3	0.022715067
151	0x3d0e5aa7	0.03475442
152	0x3c78dea8	0.015189804
153	0xbd07ff93	-0.03320272
154	0xbd8d54bb	-0.06900927
155	0x3ce0a295	0.027421275
156	0x3cb93f4d	0.022613192
157	0x3c7da37c	0.015480872
158	0x3c1a0c69	0.009402373
159	0x3d13a154	0.036042526
160	0x3cbafbe2	0.022825185
161	0x3c614863	0.0137501685
162	0x3c09b12a	0.008404056
163	0x3cb03a78	0.021512255
164	0x3c30323b	0.010754163
165	0x3ca42ab5	0.020039896
166	0x3c125627	0.008931673
167	0x3c9f506c	0.019447528
168	0xbd1ccbb1	-0.038280193
169	0x3caa2b3b	0.020772567
170	0x3c93e982	0.018055681
171	0x3cc1ce63	0.023657983
172	0x3c46ac3f	0.012126028
173	0x3c452eb8	0.012035064
174	0x3c7a5d73	0.015281069
175	0xbd2d679b	-0.042335134
176	0x3d57a3f9	0.05264661
177	0x3cd1c334	0.025605775
178	0x3cebdf3a	0.028792966
179	0xbcfab60e	-0.030604389
180	0x3bda67ac	0.0066651907
181	0xbc3fdebd	-0.01171082
182	0x3bbb1e41	0.0057103937
183	0x3c9d598f	0.019207744
184	0xbcd5b24d	-0.026085997
185	0x3ce286f2	0.027652238
186	0xbb7a713d	-0.0038214468
187	0x3c807f10	0.015685588
188	0xbc49d770	-0.012319431
189	0x3d404d8e	0.046948962
190	0x3c9cea8b	0.019154808
191	0x3ccad130	0.024757951
192	0x3cc397db	0.023876121
193	0x3d01670e	0.03159242
194	0xbc1e1137	-0.009647659
195	0xbd03cc75	-0.032177407
196	0xbd617393	-0.05504186
197	0xbd512bee	-0.051067285
198	0x3c8dad5b	0.017294576
199	0x3c90f04a	0.017692704
200	0x3ceb6eaa	0.028739292
201	0x3d002465	0.03128471
202	0x3c56652b	0.013085644
203	0xbd164dcc	-0.036695287
204	0x3c2ea471	0.010659323
205	0x3bd9e11f	0.006649151
206	0x3c7e2cbc	0.015513595
207	0x3c46081b	0.012086893
208	0xbd86ed57	-0.06588238
209	0xbbeda179	-0.007251915
210	0xbda2f4ce	-0.07956849
211	0x3cbe158b	0.023203632
212	0x3c90bce2	0.017668191
213	0x3b67abc4	0.0035350183
214	0x3c46ac4e	0.012126042
215	0xbbb5df63	-0.0055503114
216	0x3cb9bded	0.022673571
217	0xbbf05f27	-0.007335562
218	0x3cb9684d	0.022632742
219	0xbc87fa7c	-0.016598932
220	0xbbeb3c8d	-0.007178849
221	0x3d0e3ba3	0.034724843
222	0xbd677080	-0.056503773
223	0x3b6607a2	0.0035099764
224	0xb998b3de	-0.0002912571
225	0xbd81ebe8	-0.06343824
226	0xbcd5a7ae	-0.026080932
227	0xbc0a583c	-0.008443888
228	0xbc2966fa	-0.010339493
229	0x3cdf5f76	0.027267199
230	0xbd4007ad	-0.04688232
231	0x3ce5485c	0.027988605
232	0x3ca6e8c2	0.02037466
233	0xbd9617c6	-0.07328753
234	0xbd5c8965	-0.053841967
235	0x3cd771f3	0.026299452
236	0x3c484449	0.012223312
237	0xbb0cd1ed	-0.002148743
238	0x3c264dd8	0.010150395
239	0x3c3dcd2e	0.011584563
240	0xbda4c4a9	-0.080453224
241	0xbc2783c8	-0.01022429
242	0xbc9a909e	-0.018867787
243	0xbb8fc5f5	-0.004387612
244	0xbc9a0aa7	-0.018803908
245	0x3a6a62c5	0.00089411094
246	0x3c800737	0.01562844
247	0x3cfc7460	0.03081721
248	0xbd10528c	-0.035234973
249	0xbc2eb302	-0.010662796
250	0x3cc84be7	0.024450256
251	0xbc592ae6	-0.013254857
252	0x3c86cd7e	0.016455408
253	0x3cac3df4	0.021025635
254	0x3d0d633b	0.03451846
255	0x3beb8e8e	0.0071886247

network_body._body_endoder.seq_layers.0.bias f4 [256]
0	0x3c38a10d	0.011268866
1	0xb849e3f1	-4.813442e-05
2	0x3db43ce6	0.08800678
3	0x3cf070ad	0.029350603
4	0x3d16fa80	0.03685999
5	0x3d934afc	0.071920365
6	0x3dd756e3	0.10514619
7	0xbb5c60ed	-0.0033627108
8	0x3c557f1b	0.013030793
9	0x3d5172c0	0.051134825
10	0x3c0b9cc2	0.008521261
11	0x3e0b9b38	0.1363343
12	0x3d396ba2	0.045268662
13	0x3cfbd906	0.030743133
14	0xbd744307	-0.059634235
15	0x3e064b42	0.13114646
16	0x3ccb3ebe	0.024810191
17	0x3cf913e7	0.030404998
18	0x3c091376	0.008366456
19	0x3dffb7a1	0.12486196
20	0x3d145b2d	0.036219765
21	0x3df0c361	0.117560156
22	0xbd1ed0a4	-0.038773194
23	0x3ca5243c	0.02015888
24	0x3d646724	0.055762425
25	0x3e0ef490	0.1396048
26	0x3db54436	0.08850901
27	0x3d1de8f1	0.03855223
28	0x3c832588	0.016009107
29	0x3bdd62b4	0.006756151
30	0xbd8c9a0c	-0.068653196
31	0x3e079bf4	0.13243085
32	0xbba0a90f	-0.004902966
33	0x3b803f48	0.0039137937
34	0x3d9f0df5	0.07766334
35	0x3de6d095	0.112702526
36	0xbbf8a505	-0.0075880312
37	0x3c273d26	0.01020745
38	0x3cd35637	0.025797946
39	0x3e07e98e	0.13272688
40	0x3d7facc1	0.06242061
41	0x3d15f837	0.03661367
42	0x3c5bb2b7	0.013409308
43	0x3d4bc117	0.04974469
44	0x3d333a20	0.043756604
45	0x3d83d4aa	0.06437047
46	0x3ca4ed7a	0.020132769
47	0x3dd1b786	0.102400824
48	0x3d9b9102	0.075960174
49	0x3d98ef42	0.0746751
50	0x3e010182	0.12598231
51	0x3cca2df4	0.024680115
52	0x3db0bd4a	0.08629854
53	0x3d1d203e	0.038360827
54	0x3cc95b5c	0.024579696
55	0xbce20f86	-0.027595293
56	0x3d3bda38	0.045862406
57	0xbbb21bac	-0.0054354277
58	0x3cdde7d2	0.02708808
59	0x3ce4d0ce	0.027931597
60	0x3b8ba96e	0.004262141
61	0x3d4ca6f6	0.049963914
62	0x3da5d974	0.080981165
63	0xbca77fb3	-0.020446634
64	0x3d33b5b4	0.043874457
65	0x3d8349c6	0.064105555
66	0x3d8ac419	0.06775684
67	0x3d3a907b	0.045547944
68	0xbd1b7362	-0.037951834
69	0x3d7dc63b	0.061956625
70	0x3de44011	0.11145032
71	0x3d87b8c3	0.066270374
72	0x3cc9d2c8	0.024636641
73	0x3d08f58e	0.033437304
74	0x3daa0e34	0.0830349
75	0x3c2c7e61	0.010528178
76	0x3c5825ef	0.013192638
77	0xbc70e110	-0.014702097
78	0x3d2676ab	0.040640514
79	0x3c734a0b	0.014849196
80	0x3d51af13	0.051192354
81	0x3c3dc138	0.0115817115
82	0x3bde20e7	0.0067788246
83	0x3cf15973	0.029461598
84	0x3cb82a20	0.022481024
85	0x3bfdc9ef	0.0077450196
86	0xbbbf4914	-0.005837569
87	0x3bd8d2ad	0.0066169114
88	0x3c9f11c8	0.019417658
89	0x3d66b987	0.056329276
90	0xbba73fd3	-0.005104044
91	0x3cbada7e	0.022809263
92	0xba6a94d0	-0.00089485664
93	0x3c3f582b	0.011678736
94	0x3cc2dce6	0.023786973
95	0xbc84fdd8	-0.016234323
96	0xbbf66953	-0.00751988
97	0x3daaa4eb	0.08332237
98	0x3c6ebc1b	0.014571215
99	0x3de614ca	0.11234434
100	0x3d875ed3	0.06609883
101	0x3c2a7c5d	0.010405627
102	0x3dc7e05a	0.097595885
103	0x3d47db36	0.04879304
104	0x3d29568c	0.041342303
105	0x3e030f16	0.12798724
106	0x3c7ad239	0.01530891
107	0x3d6c3a5c	0.057672843
108	0x3d83bbde	0.06432317
109	0x3cc4ddf1	0.024031611
110	0x3dde946b	0.10868152
111	0x3da83e46	0.08215003
112	0x3e17980e	0.14804098
113	0x3d4d2206	0.050081275
114	0x3d98f460	0.07468486
115	0x3d669fed	0.05630486
116	0x3de8d58f	0.11368858
117	0x3da5a880	0.080887794
118	0x3cb87cff	0.02252054
119	0x3d7a85d1	0.061162774
120	0x3dc60518	0.0966894
121	0x3db3f94e	0.087877855
122	0xbd3545f4	-0.044256166
123	0x3da713b5	0.08158056
124	0x3dee5e19	0.116390415
125	0x3dce697e	0.10078715
126	0x3e0df797	0.1386398
127	0x3bb82b37	0.005620386
128	0x3c913bfa	0.017728794
129	0x3ccd4141	0.02505553
130	0x3db19ef4	0.08672896
131	0x3dfb4760	0.12269473
132	0x3d2fa4ce	0.04288178
133	0x3bf693ab	0.0075249276
134	0x3ba54167	0.005043197
135	0x3db63908	0.088975966
136	0x3d1f848c	0.038944766
137	0xbc902ff0	-0.017600983
138	0x3d4a83e9	0.049442206
139	0x3d262fbd	0.04057287
140	0x3d8f5c70	0.07000053
141	0x3de4e565	0.11176566
142	0x3d5cac32	0.053875156
143	0x3cc9ac51	0.0246183
144	0x3d6c3221	0.057664994
145	0xbba1d781	-0.00493902
146	0x3bc6b2c7	0.0060637924
147	0x3d843b69	0.06456644
148	0x3c351699	0.011052751
149	0x3de89265	0.113560475
150	0x3d0bc29c	0.03412114
151	0x3c3f8137	0.011688522
152	0x3dd88505	0.105722465
153	0x3d29be1d	0.04144107
154	0xbd52167c	-0.051290974
155	0x3da31dd8	0.079646766
156	0x3d94b7c9	0.07261617
157	0xb86565ba	-5.4692595e-05
158	0x3c80564b	0.015666148
159	0x3cc86acf	0.024464993
160	0x3d23cd01	0.03999043
161	0xbb8ff5af	-0.0043933014
162	0x3d896294	0.067082554
163	0x3da0fc21	0.0786059
164	0x3cae4260	0.021271884
165	0x3cec51ea	0.028847653
166	0x3c3f0c1d	0.011660603
167	0x3bfc0be0	0.0076918453
168	0xb9b45f0b	-0.00034403088
169	0x3d9faf29	0.07797081
170	0x3d86875d	0.06568787
171	0x3d10529a	0.035235025
172	0x3d7803d9	0.060550544
173	0xbba12947	-0.0049182507
174	0x3ad4b63c	0.0016228626
175	0xbb90c964	-0.004418539
176	0xbb47d147	-0.003048973
177	0xba271911	-0.00063742796
178	0x3da5ebe2	0.08101632
179	0x3b89cbdf	0.0042052115
180	0xbbbd3db3	-0.0057751774
181	0x3d8044db	0.06263133
182	0x3d549d5c	0.051907882
183	0x3de48c8e	0.11159621
184	0x3d8cdc62	0.06877972
185	0x3b20ed45	0.0024555486
186	0x3d1d2e56	0.038374268
187	0x3d0d94cb	0.03456573
188	0x3d69a826	0.057045124
189	0x3d30ca71	0.043161813
190	0x3d123348	0.035693437
191	0x3d9a736f	0.075415485
192	0xbd0b2836	-0.033973895
193	0xbd14e4ae	-0.0363509
194	0x3c448784	0.0119952
195	0x3df310ef	0.11868464
196	0x3d152d73	0.036420297
197	0x3d9ecf70	0.07754409
198	0x3d22c035	0.039734084
199	0xbd0db1b8	-0.034593314
200	0x3c58a106	0.013221985
201	0x3d1c60bb	0.038178187
202	0x3c2d3beb	0.010573368
203	0x3ccf133d	0.025277728
204	0xbcccde39	-0.025008308
205	0x3d27973d	0.040915716
206	0x3d465783	0.0484233
207	0x3ce36045	0.027755866
208	0x3cc9f45f	0.024652658
209	0x3e0ca2fd	0.1373405
210	0x3d5a3a41	0.05327821
211	0xbbf3e74f	-0.0074433456
212	0x3c853b1f	0.016263543
213	0x3dee34b8	0.11631149
214	0xbad015ee	-0.0015875676
215	0xbcac86f0	-0.021060437
216	0x3c1f8569	0.009736397
217	0xbbc117b4	-0.005892718
218	0x3c05b89f	0.008161693
219	0xbd90ea44	-0.070759326
220	0xbcb87752	-0.022517834
221	0x3da55899	0.08073539
222	0x3d294352	0.041323967
223	0x3d8e45d6	0.06946914
224	0x3d831da5	0.064021386
225	0xbcaadc45	-0.020856986
226	0x3cafba2e	0.021451082
227	0x3ca4a282	0.020097021
228	0x3c933dd6	0.017973822
229	0x3c4a79b5	0.012358119
230	0x3da2e8fb	0.07954594
231	0x3da03014	0.0782167
232	0x3be47fe0	0.0069732517
233	0x3d157902	0.036492355
234	0xbc8a4e7e	-0.016883131
235	0x3df7bc96	0.12096517
236	0x3d3e8e00	0.04652214
237	0x3c8d754f	0.017267851
238	0xbc9b4bcf	-0.018957047
239	0x3c3ab602	0.011395933
240	0xbdbf01cf	-0.09326517
241	0x3d0aaa2f	0.033853706
242	0xbc4989f2	-0.012300955
243	0x3d0aec30	0.033916652
244	0x3d3a45fd	0.045476902
245	0x3cae5e59	0.021285223
246	0x3d44137a	0.047870137
247	0xbbf04344	-0.0073322374
248	0x3cc95b0e	0.024579551
249	0x3d5951a5	0.053056378
250	0xbcccfc52	-0.02502266
251	0x3c1471e2	0.009060355
252	0x3d04a83b	0.032387
253	0x3d04d421	0.032428864
254	0x3d4882bc	0.048952803
255	0xbcd45b41	-0.02592242

network_body._body_endoder.seq_layers.0.weight f4 [256, 6]
0	0x3dd38e90	0.10329926
1	0x3c35f33b	0.011105354
2	0xbe74f556	-0.23921713
3	0xbd67017a	-0.056397893
4	0xbf811f4a	-1.0087674
5	0xbe91d0c7	-0.28479597
6	0xbf11f393	-0.5701229
7	0xbe63fee4	-0.22265202
8	0xbf1fe18d	-0.6245354
9	0x3e57206d	0.21008463
10	0x3ec9e857	0.39435074
11	0xbeb4386e	-0.35199302
12	0x3f0676c9	0.52525
13	0x3f3fe4ac	0.749583
14	0x3ecf846e	0.40530723
15	0x3e1c2306	0.15247735
16	0xbe02396c	-0.12717217
17	0xbf2a1b5e	-0.6644801
18	0xbf0245bb	-0.5088765
19	0x3c514863	0.012773606
20	0x3e599987	0.21249972
21	0x3ea1c9cb	0.31599268
22	0x3ce96b49	0.02849354
23	0xbf32e840	-0.69885635
24	0x3e9cd9cf	0.30634925
25	0x3eabda1d	0.33564845
26	0xbc4fbce8	-0.012679316
27	0xbe52c25d	-0.20581956
28	0x3ed4ca3c	0.41560543
29	0x3e169790	0.14706254
30	0x3e728725	0.23684366
31	0x3ed1d9ad	0.40986386
32	0x3e141232	0.14460066
33	0xbeeaf370	-0.45888853
34	0xbebf099e	-0.37312025
35	0xbee62222	-0.44947916
36	0xbe29448e	-0.16530058
37	0x3d576afb	0.05259226
38	0x3e634c12	0.22196987
39	0xbead5c35	-0.3385941
40	0x3e4089dd	0.1880259
41	0xbf76c944	-0.96400857
42	0x3c92ee1f	0.01793581
43	0xbeea1150	-0.45716333
44	0xbef5d50e	-0.4801411
45	0xbf573e9c	-0.8407991
46	0xbf042b43	-0.5162851
47	0xbe9d6f1a	-0.30748826
48	0x3e31da91	0.17368533
49	0x3e4d5874	0.20053273
50	0xbec3169f	-0.38103196
51	0x3eb31bc3	0.34982118
52	0x3d845923	0.06462314
53	0xbe92e1e8	-0.28687978
54	0x3d0d9a14	0.03457077
55	0xbdc5b0e8	-0.09652883
56	0x3f11f24c	0.5701034
57	0x3f0c46bf	0.5479545
58	0xbdc8cb91	-0.09804452
59	0x3d8f624f	0.07001173
60	0xbd8fee97	-0.07027929
61	0xbe9f289c	-0.3108567
62	0xbdc474ab	-0.09592565
63	0xbf4f39bc	-0.8094747
64	0xbdc03da3	-0.09386756
65	0xbea02b4e	-0.3128304
66	0x3f660be4	0.89861894
67	0x3e4cbb01	0.19993211
68	0xbe6407d8	-0.22268617
69	0xbf2d385f	-0.6766414
70	0x3c3e974d	0.011632753
71	0x3f0fa3ca	0.561093
72	0xbf1fe946	-0.6246532
73	0x3e8bb8f9	0.2728956
74	0x3e1204bb	0.14259617
75	0x3f185891	0.5951014
76	0x3e8fa741	0.28057292
77	0x3e574c42	0.21025184
78	0x3f217615	0.63070804
79	0x3f689255	0.90848285
80	0xbe3de319	-0.18543662
81	0xbeac7bac	-0.33688104
82	0x3e6a3be2	0.22874406
83	0xbc601011	-0.0136757055
84	0xbe65c177	-0.22437082
85	0x3d61de93	0.055143904
86	0xbeb0452f	-0.34427783
87	0x3e3324dd	0.17494531
88	0xbd3f788b	-0.046745818
89	0x3e53e4b0	0.20692706
90	0x3ed06e81	0.40709308
91	0x3daee50b	0.0853978
92	0x3dee03f2	0.11621846
93	0xbeee92cf	-0.4659638
94	0x3eaff58b	0.34367022
95	0xbe2159fa	-0.1575698
96	0xbed06099	-0.40698698
97	0x3f7677c7	0.96276516
98	0x3e5f78da	0.21823445
99	0xbd7d33e8	-0.06181708
100	0xbe7af7cf	-0.24508594
101	0xbc00d356	-0.007862886
102	0x3e8c0c22	0.27353007
103	0xbd784468	-0.060612112
104	0xbf0e33ce	-0.555478
105	0xbe87f960	-0.26557446
106	0xbee48227	-0.44630548
107	0x3de70444	0.112801105
108	0xbe3d1053	-0.18463258
109	0x3db3dd69	0.08782465
110	0xbf036f20	-0.5134144
111	0xbc7a84b6	-0.01529043
112	0xbd39c024	-0.045349255
113	0x3e32ca08	0.17459881
114	0x3e56cb9f	0.20976113
115	0x3e264f5a	0.16241208
116	0x3e8f8528	0.28031278
117	0xbf80b38b	-1.0054792
118	0xbdfe12fa	-0.12405963
119	0x3d67a441	0.05655313
120	0x3d452dd4	0.04813941
121	0xbec29052	-0.38000733
122	0xbed32ad8	-0.41243625
123	0xbdd3d4e6	-0.103433415
124	0x3f03fdae	0.5155896
125	0xbe93a2b7	-0.2883508
126	0x3e369938	0.17831886
127	0xbd900e46	-0.070339724
128	0x3d15515c	0.036454543
129	0x3e7f09c5	0.2490607
130	0x3e875713	0.2643362
131	0xbeee91f9	-0.46595743
132	0xbda55ce3	-0.08074357
133	0xbe2c1e32	-0.16808394
134	0x3e1cd0f0	0.15314078
135	0x3ea7fd62	0.32810503
136	0x3f439f7f	0.76415247
137	0x3d4cff98	0.05004844
138	0x3e79b627	0.24385892
139	0x3f060f0f	0.5236673
140	0xbe9e9b3e	-0.30977815
141	0xbe5bc2bd	-0.21461006
142	0x3ee89e8e	0.45433468
143	0x3e20c705	0.1570092
144	0xbdf6a063	-0.1204231
145	0x3eefa8dc	0.46808517
146	0xbf284502	-0.657303
147	0xbeec6e9c	-0.46178138
148	0xbe9f477e	-0.31109232
149	0xbeb6f594	-0.35734236
150	0x3dce5a68	0.100758374
151	0x3e331a0e	0.17490408
152	0xbecc1562	-0.39860064
153	0xbeae88e7	-0.34088823
154	0xbee37a6f	-0.44429347
155	0xbfaa2391	-1.3292104
156	0x3f2a5834	0.6654084
157	0x3dcd962c	0.10038409
158	0x3f924530	1.1427364
159	0x3f612460	0.8794613
160	0xbe4e17e0	-0.20126295
161	0xbd64ff36	-0.05590745
162	0xbefb942b	-0.4913648
163	0x3f3659f4	0.7123101
164	0x3f30af73	0.69017714
165	0xbe975ccd	-0.2956299
166	0x3e91fb13	0.28511867
167	0x3e92bb0d	0.28658333
168	0xbe8e5c9a	-0.27805024
169	0xbe0aabef	-0.1354215
170	0x3df95bda	0.121757224
171	0x3dfff7c5	0.1249843
172	0xba43491a	-0.00074495526
173	0xbf05bda2	-0.5224248
174	0xbec2571e	-0.3795709
175	0x3b996987	0.0046817693
176	0xbe1805b0	-0.1484592
177	0xbe79bb33	-0.24387817
178	0x3f016c98	0.50556326
179	0x3ef62d2a	0.48081332
180	0xbd241aee	-0.040064745
181	0xbed70cba	-0.42001897
182	0xbc5162d4	-0.01277991
183	0x3f538974	0.8263161
184	0xbebcfabb	-0.36910042
185	0x3e6e1a88	0.23252308
186	0xbd05d08b	-0.032669585
187	0x3f142b49	0.5787855
188	0x3f13c4f2	0.5772239
189	0xbfa11f2d	-1.2587639
190	0x3f27c6a7	0.65537494
191	0x3e07c249	0.13257708
192	0x3e35e4fa	0.17763129
193	0xbe28986d	-0.16464396
194	0xbe8e07e3	-0.27740392
195	0x3ea2de68	0.31810308
196	0xbf2fedce	-0.68722236
197	0x3fa2acfd	1.2709042
198	0xbd4736f6	-0.0486364
199	0x3e8f7fe7	0.2802727
200	0x3dbb2025	0.091369905
201	0xbe9a47d9	-0.3013294
202	0x3e3a3b33	0.18186645
203	0x3f2d69e2	0.6773969
204	0x3e3dca9b	0.18534319
205	0x3e8f0d6c	0.27939928
206	0xbcb252a3	-0.02176792
207	0x3ecd3233	0.4007736
208	0xbe33a7e4	-0.17544514
209	0x3f0b8e5e	0.5451411
210	0x3e6a3d9d	0.22875066
211	0x3f266b23	0.6500723
212	0xbde28c1a	-0.110618785
213	0x3bc838ae	0.0061102724
214	0x3ee134a4	0.43985474
215	0xbdd45425	-0.10367612
216	0x3e784fea	0.24249235
217	0xbdd8e749	-0.10590989
218	0xbf0ab091	-0.5417567
219	0xbee31515	-0.44352022
220	0x3e5e5027	0.21710263
221	0x3e4e0916	0.20120654
222	0xbd679743	-0.05654074
223	0xbf7baac0	-0.9830742
224	0xbe804872	-0.2505527
225	0xbe5c42bd	-0.21509834
226	0x3ef0d448	0.47036958
227	0x3ea17e3c	0.31541622
228	0x3d390f0e	0.045180373
229	0x3e18094a	0.14847293
230	0x3dceeaac	0.10103354
231	0x3f38bfc6	0.72167623
232	0x3f0f2d17	0.55928177
233	0x3e589fe7	0.21154748
234	0x3f22a68b	0.63535374
235	0x3f8bb9a4	1.0916028
236	0x3f2d97f8	0.6781001
237	0xbe511b19	-0.20420493
238	0xbe54513c	-0.20734113
239	0x3da72ae9	0.08162481
240	0x3e59c871	0.21267869
241	0xbeb74a5c	-0.3579892
242	0x3dca6cc1	0.098840244
243	0xbf6ee118	-0.93312216
244	0xbee04385	-0.43801513
245	0xbf91ce31	-1.139105
246	0xbf5d8cf8	-0.86543226
247	0xbe0c41fb	-0.13697045
248	0x3eb76574	0.3581959
249	0xbf59a2ca	-0.8501402
250	0xbcd63205	-0.026146898
251	0x3e8ae382	0.271267
252	0x3f1915f2	0.5979911
253	0xbee800fa	-0.45313245
254	0xbf6f84c5	-0.93561965
255	0x3e213aae	0.15745041

network_body._body_endoder.seq_layers.2.bias f4 [256]
0	0x3c3551f8	0.011066906
1	0x3df0e7a6	0.117629334
2	0x3a2f67ee	0.0006691207
3	0xbdcabf5c	-0.0989978
4	0xbdee7ed5	-0.11645285
5	0xbd956084	-0.072937995
6	0x3bc45ade	0.0059922775
7	0xbd094dbe	-0.033521406
8	0x3d93ab71	0.07210434
9	0x3d679f91	0.05654866
10	0x3cc66dc9	0.024222272
11	0x3dde2a08	0.108478606
12	0x3dd0bbda	0.1019208
13	0x3d0ad4e8	0.03389445
14	0x3d2dc450	0.042423546
15	0x3d179bca	0.037013806
16	0x3db799cf	0.089648835
17	0xbdcf7396	-0.10129468
18	0xbca52737	-0.0201603
19	0xbdef1816	-0.11674516
20	0xbadfb9bd	-0.0017068904
21	0xbd69dfe0	-0.05709827
22	0x3d76010a	0.060059585
23	0x3ddb5397	0.10709303
24	0x3ce74d0c	0.028234981
25	0x3d3acb36	0.045603953
26	0x3cf63296	0.030053418
27	0x3d0eda44	0.034876123
28	0x3da42938	0.08015674
29	0x3d596861	0.05307806
30	0xbcbeeecc	-0.023307227
31	0xbb3982b5	-0.0028306667
32	0x3d9959f9	0.07487864
33	0x3d4f0484	0.050541416
34	0xbc9b7533	-0.018976783
35	0xbd256e5c	-0.04038845
36	0x3c860457	0.016359491
37	0xbd9fbd18	-0.07799739
38	0x3e0f7916	0.14011034
39	0x3c87cbd2	0.016576681
40	0x3c0cf713	0.008603829
41	0xbde6e9bd	-0.11275051
42	0x3c28b70f	0.010297551
43	0x3c37bf8a	0.0112151
44	0xbdf187df	-0.117934935
45	0x3d306a89	0.04307035
46	0xbc1c0f18	-0.009525083
47	0x3d8fda5b	0.0702407
48	0xbda71f45	-0.08160261
49	0x3d40b94d	0.047051717
50	0xbdcd25ae	-0.100169525
51	0xbcd62de2	-0.026144926
52	0x3cd0a4c5	0.025469193
53	0xbceb9494	-0.028757371
54	0xbd317aac	-0.04332988
55	0xbc712408	-0.014718063
56	0xbc9770d2	-0.018486414
57	0xbcd7dee4	-0.0263514
58	0x3d1d7fc9	0.038451944
59	0x3d38a083	0.04507495
60	0xbcac50d6	-0.02103464
61	0x3dd5e6ca	0.1044441
62	0x3cffee42	0.03124154
63	0x3cc27b3d	0.023740405
64	0xba8296e4	-0.0009963182
65	0x3cf081b6	0.029358726
66	0xbcf7d715	-0.030253926
67	0x3dd9f7e3	0.10642984
68	0x3c28023a	0.010254437
69	0x3cfd5300	0.030923367
70	0xbd80a056	-0.06280582
71	0x3d761d96	0.06008681
72	0x3dd6da84	0.10490897
73	0x3dbab12d	0.09115825
74	0xbe0214b5	-0.12703212
75	0xbe01af5a	-0.12664548
76	0x3d9bf5df	0.076152556
77	0xbd15a3ed	-0.036533285
78	0x3d5944f1	0.053044263
79	0xbc110a58	-0.008852564
80	0xbcf0c245	-0.02938951
81	0x3d2c5ed7	0.042082634
82	0x3d208d62	0.039197333
83	0x3c0929a0	0.008371741
84	0x3d10a040	0.035309076
85	0x3d42b5cf	0.047536667
86	0x3d57b5da	0.05266366
87	0x3b54e409	0.0032484552
88	0x380288b2	3.1121723e-05
89	0xbc00c593	-0.007859605
90	0x3cce71ef	0.025200812
91	0x3d96d440	0.07364702
92	0xbc8cff48	-0.017211571
93	0x3d7bd2db	0.061480384
94	0xbc035c5e	-0.0080176275
95	0x3d9d56e9	0.076825924
96	0x3d090c0a	0.033458747
97	0x3cd3efec	0.02587124
98	0xbcb76a30	-0.022389501
99	0x3ccaf130	0.02477321
100	0x3d86224d	0.06549511
101	0x3daf7344	0.08566907
102	0xbdb85862	-0.09001233
103	0x3d240b64	0.040049925
104	0x3dea3555	0.114359535
105	0x3d9f514d	0.07779179
106	0x3dc4e29e	0.09613536
107	0x3d2f2965	0.042764086
108	0x3bfcb16c	0.00771158
109	0xbcf09911	-0.029369863
110	0x3d6b9711	0.057517115
111	0x3ce8b984	0.028408773
112	0xbc3cb097	-0.011516712
113	0x3cdeedb9	0.027212964
114	0xbdd6e044	-0.10491994
115	0x3cbde9b6	0.023182731
116	0x3ddb2f6f	0.107024066
117	0x3cf194fd	0.029489988
118	0x3bfc1214	0.007692585
119	0xbcbba922	-0.022907797
120	0xbcd4cddd	-0.02597707
121	0xbd81fc91	-0.06347001
122	0x3da6c542	0.08143093
123	0x3d37277c	0.04471539
124	0x3dbcb012	0.0921327
125	0xbded0dc3	-0.115748905
126	0x3cea2c67	0.028585626
127	0xbb95b0b5	-0.0045681843
128	0xbc4a0e1f	-0.012332468
129	0xb98f1b58	-0.00027295458
130	0x3d77f76b	0.06053869
131	0xbccb0ed5	-0.024787346
132	0x3d1f9737	0.03896257
133	0xbc3d137e	-0.011540292
134	0x3b95ec2d	0.0045752735
135	0x3d62de93	0.055388045
136	0x3dea2de6	0.11434536
137	0x3cc9c38b	0.024629375
138	0xb9b8764a	-0.00035183347
139	0xbdf3e659	-0.1190917
140	0x3c8d2515	0.017229596
141	0xbca1f654	-0.019770779
142	0x3c620600	0.013795376
143	0xbbe9cfad	-0.0071353526
144	0xbd218741	-0.03943563
145	0x3c0b1fec	0.0084914975
146	0x3c38e485	0.011284952
147	0x3d7cba3c	0.061701044
148	0xbc17b34a	-0.009259054
149	0xbce2f216	-0.027703326
150	0x3d412561	0.047154788
151	0x3d77527a	0.06038139
152	0x3cc5ddb1	0.024153562
153	0xbb9877bf	-0.0046529467
154	0xbd0d17b7	-0.034446444
155	0x3c88f95e	0.01672047
156	0x3d04d08f	0.03242546
157	0x3d12db59	0.035853717
158	0xbd09912e	-0.03358572
159	0x3d7cba46	0.06170108
160	0x3d8b9c59	0.0681693
161	0x3d7434ab	0.05962054
162	0x3b0d69a9	0.002157787
163	0x3deb2cc9	0.114831515
164	0x3caf4447	0.021394862
165	0x3d57c597	0.05267867
166	0xbdcc1e65	-0.09966735
167	0xbb9f3107	-0.0048581394
168	0x3cb2bfea	0.021820027
169	0xbd9bbf62	-0.07604863
170	0x3d81b185	0.06332687
171	0x3dd4671c	0.10371229
172	0x3d4f5628	0.050619274
173	0xbe0a2173	-0.13489322
174	0x3d8ea269	0.06964571
175	0xbd4f2fdc	-0.05058275
176	0xbc7b1e35	-0.015327026
177	0x3d81d711	0.06339849
178	0x3c900353	0.01757971
179	0x3d69fb15	0.057124216
180	0xbdf809a6	-0.12111215
181	0x3dcec035	0.10095254
182	0xbcb9e44a	-0.022691865
183	0x3d7f555e	0.062337272
184	0xbc517c9d	-0.012786058
185	0x3d51352d	0.051076103
186	0x3c092870	0.008371457
187	0x3d9a7191	0.07541192
188	0xbd3a8293	-0.04553468
189	0x3cfd8cd9	0.03095095
190	0x3a8e224e	0.0010843964
191	0x3d1d9cd4	0.03847964
192	0xbc008ec0	-0.007846534
193	0x3c6ba00a	0.014381418
194	0xbdd10418	-0.10205859
195	0xbcea2812	-0.02858356
196	0xbd64c4a8	-0.05585161
197	0x3d907277	0.070530824
198	0xbcae0605	-0.021243105
199	0x3be0aa6a	0.0068562524
200	0x3d4eeabb	0.050516825
201	0x3d98de84	0.074643165
202	0xbcf4893f	-0.0298506
203	0x3d099f7a	0.033599354
204	0x3c37f786	0.011228448
205	0x3dbef873	0.09324732
206	0xbdddb668	-0.10825807
207	0x3d733cdc	0.059384212
208	0xbc01689d	-0.007898477
209	0x3c32af7b	0.010906096
210	0xbdd390e5	-0.10330371
211	0x3a30f9a7	0.0006751068
212	0x3d9851b6	0.0743746
213	0x3cdaaa2b	0.02669247
214	0x3a979044	0.001156338
215	0x3ccec71e	0.02524143
216	0x3d047d2b	0.032345932
217	0xbcb71586	-0.02234913
218	0x3dd2bf21	0.10290361
219	0x3cf1fa00	0.029538155
220	0x3d84652c	0.064646095
221	0x3d8701c5	0.065921344
222	0xbd6c99ca	-0.057763852
223	0xbdc62809	-0.09675605
224	0x3b1151e7	0.0022174062
225	0xbded60b6	-0.11590712
226	0xbd55bc4c	-0.052181527
227	0xbded283a	-0.11579938
228	0x3ca3229a	0.01991396
229	0x3d1087d1	0.035285775
230	0x3b87dc8e	0.004146165
231	0xbd625f78	-0.055266827
232	0xbdf11982	-0.11772443
233	0x3d237a5a	0.039911605
234	0xbc954ed0	-0.018226057
235	0xbd44e874	-0.048073247
236	0x3d26a128	0.040681034
237	0x3decfeeb	0.11572059
238	0x3c2d2964	0.01056895
239	0xbcb8f3ea	-0.022577245
240	0xbd45d911	-0.048302714
241	0x3d2958c0	0.041344404
242	0xbdfa017a	-0.12207313
243	0xbd6d1e3e	-0.05789017
244	0xbde41fdb	-0.111388884
245	0xbcf119b2	-0.029431198
246	0xbe070290	-0.13184571
247	0x3d58c33e	0.052920572
248	0xbc0af87c	-0.008482095
249	0x3c808c9b	0.015692046
250	0x3be4cdcd	0.006982541
251	0x3cc3ca2f	0.02390012
252	0x3d80d567	0.06290703
253	0x3dd518e6	0.104051396
254	0xbdb39303	-0.08768275
255	0x3b9b0b63	0.004731582

network_body._body_endoder.seq_layers.2.weight f4 [256, 256]
0	0xbcc1c00b	-0.023651144
1	0x3cd0eb08	0.025502697
2	0xbdd1608e	-0.102234945
3	0xbc86bf04	-0.016448505
4	0xbd7adfc2	-0.06124855
5	0xbaee28ff	-0.0018170177
6	0xbd0e5330	-0.034747303
7	0xbb9d9864	-0.004809426
8	0x3d2de8be	0.04245829
9	0xbcc3103a	-0.023811448
10	0x3cb0cc46	0.02158178
11	0x3d9ab5bc	0.07554194
12	0x3d1fc7a7	0.039008763
13	0x3c9c687e	0.019092795
14	0x3d46a3fe	0.04849624
15	0xbb1d5693	-0.00240079
16	0xbc86ecab	-0.016470274
17	0xbd25b1e6	-0.04045286
18	0xbca249d3	-0.019810593
19	0xbcd4782d	-0.02593621
20	0x3df393b2	0.11893405
21	0xbd6f79da	-0.058465816
22	0xbd752413	-0.059848856
23	0xbc0bbc82	-0.0085288305
24	0xbd8fc832	-0.07020606
25	0x3cd9f9cd	0.026608372
26	0xbcdac473	-0.026705002
27	0x3c1a614b	0.0094226105
28	0x3bf38938	0.0074321292
29	0x3ddbe010	0.10736096
30	0x3ca52283	0.020158058
31	0xbc8d4020	-0.017242491
32	0x3ca77ee5	0.02044625
33	0xbd9f615c	-0.07782242
34	0xbd9dc571	-0.077036746
35	0xbe22d3a6	-0.1590105
36	0x3d2c4ab8	0.042063445
37	0x3d7c084f	0.06153136
38	0xbd075293	-0.033037733
39	0xbb9370c6	-0.0044995276
40	0x3d3155b9	0.043294642
41	0x3db7b207	0.08969503
42	0x3d407cb1	0.046993915
43	0xbd056653	-0.032568287
44	0xbcd909a8	-0.026493862
45	0xbd6cd51d	-0.05782043
46	0x3dea763f	0.11448335
47	0xbd8c94e6	-0.068643376
48	0xbdaecd0c	-0.08535203
49	0x3d9bfdc0	0.07616758
50	0x3c816d1e	0.015799101
51	0x3ce9e29b	0.028550437
52	0xbcc78190	-0.024353772
53	0xbd230268	-0.039797217
54	0xbd7b248c	-0.06131415
55	0x3c4c4865	0.012468432
56	0x3d2e1f42	0.04251028
57	0x3d58c7d2	0.05292494
58	0x3b9667f0	0.004590027
59	0x3d2242ef	0.039614614
60	0x3d8f8cda	0.07009287
61	0xbba8352c	-0.0051332917
62	0xbb4960a7	-0.0030727775
63	0x3da6c603	0.081432365
64	0xbdd12be1	-0.10213447
65	0xbd5ba981	-0.05362845
66	0xbd8797d9	-0.066207595
67	0xbe6925b3	-0.22768287
68	0xbcb644b5	-0.022249559
69	0xbe078af7	-0.13236605
70	0xbb966eea	-0.0045908587
71	0x3d9fe890	0.0780803
72	0xbdb77d3c	-0.089594334
73	0x3d3b18bc	0.045677885
74	0x3e08ac22	0.13346913
75	0x3da08b31	0.07839049
76	0xbcbc2404	-0.022966392
77	0x3d073d3d	0.033017386
78	0x3d156157	0.036469784
79	0x3d86e8ca	0.0658737
80	0xbd7eece3	-0.06223763
81	0xbc5e4887	-0.013567097
82	0xbd4115bf	-0.04713988
83	0x3d6e771b	0.058219057
84	0x3cf1f5e8	0.029536203
85	0x3dfe619e	0.12420963
86	0x3c884817	0.016635938
87	0xbd7120fc	-0.058869347
88	0xbd97ad16	-0.074060604
89	0x3c416685	0.011804228
90	0x3dcd0308	0.10010344
91	0xbbc0122a	-0.0058615403
92	0xbd40f016	-0.047103964
93	0xbd913070	-0.07089317
94	0xbdcf5a29	-0.101246186
95	0x3dc2d2eb	0.09512886
96	0x3d8b35ba	0.06797357
97	0x3c0bd6f0	0.008535132
98	0x3e06695f	0.13126133
99	0xbe3fa854	-0.18716556
100	0x3d827030	0.06369054
101	0x3cf917ba	0.030406822
102	0x3e204733	0.1565216
103	0xbdb8eb53	-0.090292595
104	0x3db99b1b	0.09062787
105	0xbdc75cac	-0.09734473
106	0x3dedbf6e	0.11608778
107	0x3ccc94a7	0.024973227
108	0xbdd52e1a	-0.10409184
109	0xbce95426	-0.028482508
110	0xbdb408cf	-0.087907426
111	0x3da2b388	0.07944399
112	0xbcb8c223	-0.02255351
113	0xbcf51016	-0.029914897
114	0xbd0cba12	-0.034357138
115	0x3bedd6b4	0.0072582606
116	0xbcaa30e4	-0.020775266
117	0xbd33e7b9	-0.04392216
118	0xbcc23a94	-0.023709573
119	0x3ad0c84d	0.0015928835
120	0x3d4c2d0a	0.04984764
121	0x3d05ae6d	0.03263705
122	0xbb218dd8	-0.0024651196
123	0x3dd50664	0.104016095
124	0xbcaf611d	-0.021408612
125	0xbd0d2b44	-0.03446509
126	0x3d91a70b	0.07111939
127	0x3cf1a058	0.029495403
128	0x3c497670	0.012296304
129	0x3d887fb1	0.0666498
130	0x3c390e02	0.011294844
131	0x3dae8ee8	0.08523351
132	0x3d26a1cc	0.040681645
133	0xbdde1d56	-0.10845439
134	0x3d78134a	0.06056527
135	0xbdafb304	-0.085790664
136	0xbd975fd3	-0.07391324
137	0xbda7f118	-0.08200282
138	0x3e0cf50a	0.1376535
139	0xbd049f05	-0.032378215
140	0x3cfd0900	0.03088808
141	0x3cc5a4bb	0.024126401
142	0x3d0a3be5	0.033748526
143	0xbe2ca7c6	-0.16860875
144	0xbc860cf2	-0.016363595
145	0xbc501488	-0.0127002075
146	0xbcafaa88	-0.02144362
147	0x3db3d838	0.08781475
148	0x3dc2a88f	0.09504806
149	0xbc46060e	-0.0120864045
150	0xbdac9d7d	-0.08428476
151	0x3d886864	0.06660536
152	0xbd708bc8	-0.058727056
153	0xbcc659f2	-0.024212811
154	0xbd76e84f	-0.06028014
155	0xbdc0df71	-0.09417618
156	0x3cb67f10	0.022277385
157	0x3d6a9856	0.057274185
158	0xbda638db	-0.08116313
159	0xbc10e463	-0.008843514
160	0xbdb006f1	-0.08595074
161	0xbdddb892	-0.108262196
162	0xbd2e54f3	-0.042561483
163	0x3d6a9024	0.05726637
164	0x3dada08f	0.0847789
165	0x3dc54020	0.096313715
166	0x3de3259a	0.11091156
167	0x3dc9c880	0.098526955
168	0xbd97c58f	-0.07410728
169	0x3d2e90c5	0.04261853
170	0xbdddb66c	-0.1082581
171	0x3d3c03ce	0.045902066
172	0x3c9531ff	0.018212317
173	0x3dfae7be	0.122512326
174	0x3c031b64	0.008002136
175	0xbd0223a4	-0.03177227
176	0x3ddcf070	0.10788047
177	0x3d5f8b5e	0.05457627
178	0xbe0527bc	-0.13003439
179	0x3c0839dd	0.008314577
180	0xbdb532ac	-0.088475555
181	0xbc37a0ce	-0.011207772
182	0x3d164247	0.0366843
183	0xbdccad8f	-0.09994041
184	0xba95f0db	-0.0011439578
185	0xbc8b9bff	-0.017042158
186	0xbbb11345	-0.0054039084
187	0x3df61fcf	0.12017786
188	0x3db80fd3	0.08987393
189	0xbcc0c38e	-0.023530748
190	0xbd6aae2c	-0.05729501
191	0xbd1342c9	-0.035952363
192	0x3c5045ea	0.012711981
193	0x3abffef1	0.0014648122
194	0xbc870773	-0.016483044
195	0xbaa5a079	-0.0012636326
196	0x3d90b14d	0.070650674
197	0x3cad4be5	0.021154353
198	0x3d7a1334	0.06105347
199	0x3d2c4a97	0.042063322
200	0x3da11aa0	0.078664064
201	0x3d15ad77	0.036542382
202	0x3bbea911	0.005818494
203	0x3ca01ace	0.019544031
204	0x3c3af656	0.01141127
205	0x3c9a0f58	0.018806145
206	0xbd9da58e	-0.07697593
207	0x3cad06bd	0.021121377
208	0x3e221517	0.15828358
209	0xbd861273	-0.06546488
210	0x3d5767e4	0.052589312
211	0x3d3ea422	0.046543248
212	0x3df4ad0b	0.11947068
213	0x3d14878a	0.036262073
214	0xbd3d30a6	-0.046188973
215	0xbd4920a9	-0.049103413
216	0x3d783fd0	0.06060773
217	0x3dcd0bfe	0.10012053
218	0x3d8eca1d	0.06972144
219	0xbe308d53	-0.17241411
220	0x3e0b8fc6	0.13629064
221	0x3c7ae407	0.015313155
222	0xbda034cd	-0.07822571
223	0x3d47033d	0.048587073
224	0xbe32fc5f	-0.17479084
225	0xbd9b4649	-0.07581765
226	0xbda28ed3	-0.07937398
227	0x3d79923e	0.060930483
228	0x3e028d07	0.1274911
229	0x3d61ae07	0.055097606
230	0x3d132ef4	0.03593345
231	0x3c03771f	0.008024006
232	0x3d97c6d8	0.07410973
233	0x3c23fedb	0.010009493
234	0x3cd50c76	0.026006918
235	0xbd174155	-0.03692754
236	0x3a784496	0.00094706693
237	0xbda47af4	-0.08031264
238	0x3d31f0d2	0.043442555
239	0x3d9e2257	0.077213936
240	0x3d21c303	0.03949262
241	0x3d55eb25	0.052226204
242	0x3e00c7a5	0.12576158
243	0x3d9d232e	0.076727256
244	0xbb84f839	-0.0040579108
245	0x3b62f179	0.0034628792
246	0xbd8b6b5d	-0.06807587
247	0x3c9073a4	0.017633267
248	0x3d8240bd	0.06360004
249	0xbd726092	-0.059174128
250	0x3d48cb7a	0.049022175
251	0xbdb3fdd3	-0.087886475
252	0xbdfb03d2	-0.12256588
253	0xbcbca01c	-0.023025565
254	0xbda0a7a7	-0.07844477
255	0xbddd9a25	-0.10820416

network_body._body_endoder.seq_layers.4.bias f4 [256]
0	0x3c95edbb	0.018301835
1	0xbb493b5d	-0.003070555
2	0xbd7d2b32	-0.061808772
3	0x3d0cafc1	0.0343473
4	0xbc8d0704	-0.01721526
5	0x3d5fcf62	0.054641135
6	0x3d84fcc7	0.06493526
7	0x3df7705b	0.12081977
8	0x3d9663e7	0.073432736
9	0x3d1b9551	0.037984196
10	0xbc44b3a1	-0.0120057175
11	0xbcf66498	-0.030077264
12	0x39f9782c	0.00047582516
13	0x3d38b285	0.045092124
14	0xbd369ab3	-0.044581126
15	0x3c6785c3	0.014131012
16	0x38ca3815	9.642557e-05
17	0x3d4cf0df	0.0500344
18	0x3d9df689	0.077130385
19	0x3d6d031c	0.057864293
20	0x3e09bf75	0.13451941
21	0x3d8e9436	0.06961863
22	0xbafe3879	-0.0019395492
23	0xbcbd4b4b	-0.023107192
24	0x3d5eb201	0.054368977
25	0x3d5782f1	0.05261511
26	0x3d059847	0.032615926
27	0x3dcbab2c	0.09944758
28	0xbc5e8870	-0.013582334
29	0x3d2eb938	0.042657107
30	0x3c499400	0.012303352
31	0xbd04dae4	-0.032435313
32	0x3d6eaed1	0.058272187
33	0xbcf74662	-0.030184928
34	0x3c874acd	0.01651516
35	0xbbc389f6	-0.005967374
36	0x3deb9057	0.1150214
37	0xbd5557be	-0.05208563
38	0x3cfa476a	0.030551631
39	0xbcd53261	-0.026025
40	0x3caa95ee	0.020823445
41	0x3c36d59d	0.011159328
42	0x3dd466f2	0.10371198
43	0x3d33f7be	0.043937437
44	0x3d68e8b1	0.056862537
45	0x3dca3ca5	0.09874848
46	0x3db3bcf1	0.08776272
47	0xbcaa504d	-0.020790244
48	0x3dd9dfc4	0.10638383
49	0xbd3ec435	-0.046573836
50	0x3b566b4a	0.0032717758
51	0x3d39b936	0.045342647
52	0x3d4b4aad	0.049631763
53	0xbd0f6273	-0.035005998
54	0x3e0f8ebe	0.14019296
55	0x3d2243e4	0.039615527
56	0x3d8628db	0.06550761
57	0xbd8d7e33	-0.06908836
58	0xbc9cf823	-0.01916129
59	0xbd0cc701	-0.034369472
60	0xbbd7ff12	-0.006591686
61	0x3c695447	0.014241285
62	0xbbcb72d9	-0.0062087593
63	0x3d26abeb	0.040691298
64	0xbd4d82d6	-0.050173603
65	0x3ce0f91c	0.027462535
66	0xbd5576bc	-0.052115187
67	0x3cc747f5	0.024326304
68	0x3d0da8cc	0.034584805
69	0x3dd233fc	0.102638215
70	0x3d73b787	0.059501197
71	0xbd094745	-0.033515234
72	0xbbbe8256	-0.005813877
73	0x3d289637	0.04115888
74	0x3d4101b3	0.04712076
75	0x3d65f609	0.05614284
76	0x3c152cbe	0.009104906
77	0x3bde937b	0.0067924834
78	0x3d148374	0.036258176
79	0x3c6f497b	0.014604921
80	0x3d10a584	0.035314098
81	0x3c5ecbe6	0.013598418
82	0x3bae7dfa	0.005325076
83	0x3c137201	0.008999349
84	0x3db21f67	0.08697396
85	0xbd67a067	-0.056549456
86	0xbcdafbe7	-0.026731445
87	0x3d741941	0.059594397
88	0x3b6e1cc3	0.0036333061
89	0xbd9ae51e	-0.07563232
90	0x3d5ab6f8	0.05339715
91	0xbd027d22	-0.031857617
92	0x3ca70c4d	0.020391608
93	0xbd9a36d1	-0.07529987
94	0x3cdc36bf	0.026881574
95	0x3db095e6	0.08622341
96	0x3da78687	0.08179956
97	0x3d33e688	0.043921024
98	0x3d1b847c	0.037968144
99	0xbd4a663e	-0.049413912
100	0x3c11b3bf	0.008892952
101	0xbc55b5f3	-0.013043868
102	0xbb868fab	-0.004106482
103	0xbd21fccd	-0.03954773
104	0x3d153d90	0.036435664
105	0x3d885258	0.06656331
106	0x3c377bc7	0.011198944
107	0xbd05e101	-0.032685284
108	0x3da32356	0.07965724
109	0x3ba40dcb	0.005006527
110	0xbcbf7894	-0.023372926
111	0x3c1d7b54	0.009611923
112	0x3d76d94d	0.060265828
113	0x3c19b21e	0.009380845
114	0x3cb1440f	0.021638898
115	0xbc854b2b	-0.016271194
116	0x3c83f290	0.016106874
117	0x3b71aae4	0.003687554
118	0x3d34c4cc	0.044132993
119	0x3d93fbfb	0.07225796
120	0x3c7c44e7	0.015397287
121	0xbb21d543	-0.0024693764
122	0xbd6caf2c	-0.057784244
123	0xbd8c63d6	-0.0685498
124	0xbd469d1c	-0.048489675
125	0x3be702f9	0.007049915
126	0x3b8a55a2	0.004221634
127	0xbd77ef89	-0.060531173
128	0x3d348564	0.044072524
129	0x3dcf21a5	0.10113839
130	0xbda04fdf	-0.07827734
131	0xbc882e7c	-0.016623728
132	0xbd5aa7b2	-0.053382583
133	0x3dc084f0	0.09400356
134	0xbc116dbd	-0.008876261
135	0x3cbd9698	0.023143098
136	0x3c6d2b7f	0.014475702
137	0xbd941b86	-0.07231812
138	0x3d180a9f	0.037119504
139	0xbc083ebe	-0.00831574
140	0x3d029708	0.031882316
141	0x3c63dc1a	0.013907457
142	0x3c1d2b6f	0.009592875
143	0xbb09af57	-0.0021009052
144	0xbc0dfa73	-0.008665669
145	0x3dd3903e	0.103302464
146	0xbc66fcc1	-0.014098347
147	0xbb493ea6	-0.0030707507
148	0xbd866f79	-0.065642305
149	0x3ccf3184	0.025292166
150	0xbd4f7973	-0.050652932
151	0x3d19fd51	0.037595097
152	0x3df185f3	0.11793127
153	0xbd067f3c	-0.032836184
154	0x3d7ba042	0.06143213
155	0x3cd3f28b	0.02587249
156	0x3d3277d8	0.043571323
157	0xbd48f6ea	-0.0490636
158	0x3d16f070	0.036850393
159	0x3c3bd014	0.011463184
160	0x3bdf572d	0.006815812
161	0x3d1038ea	0.035210527
162	0x3ca7c062	0.020477477
163	0x3d720574	0.05908723
164	0x3b65bb74	0.0035054358
165	0xbd5483ae	-0.051883392
166	0x3d55b88a	0.052177943
167	0xbbb7f326	-0.0056137023
168	0xbd4c13e5	-0.04982366
169	0xbc3c4506	-0.011491066
170	0x3d415337	0.0471985
171	0xbb9961e9	-0.0046808613
172	0x3de20b21	0.11037279
173	0x3d56a273	0.052401017
174	0x3d000a87	0.03126004
175	0x3d544240	0.051820993
176	0x391f8690	0.0001521355
177	0x3c85d536	0.016337018
178	0x3b3d4fcb	0.0028886672
179	0xbd5fcdc9	-0.05463961
180	0x3d9ae6bd	0.07563541
181	0x3dfeb29a	0.12436409
182	0x3d6606d5	0.05615886
183	0x3db3ddb0	0.08782518
184	0x3e05fdec	0.13085145
185	0x3cc6b37b	0.024255505
186	0x3e01f7ce	0.12692186
187	0x3d75e759	0.060035083
188	0xbba9d73e	-0.0051831296
189	0xbc030541	-0.007996858
190	0xbc0f330b	-0.008740197
191	0xbd4c4477	-0.04986998
192	0x3d48f157	0.049058285
193	0x3ca033ed	0.01955601
194	0x3d20acb3	0.0392272
195	0xbd3db6bd	-0.04631685
196	0x3d11924a	0.035539903
197	0x3ccb55a1	0.024821104
198	0xbd5769fa	-0.0525913
199	0xbc68d136	-0.014210036
200	0x3d6c6523	0.05771364
201	0x3d65b54c	0.0560811
202	0x3cc482d8	0.023988172
203	0xbd2ad79e	-0.041709535
204	0x3d33d368	0.043902785
205	0x3d4c4abc	0.04987596
206	0xbac508ad	-0.0015032493
207	0x3cd38224	0.025818892
208	0x3d044989	0.03229669
209	0x3d1247da	0.035713054
210	0x3dd07713	0.101789616
211	0xbc2d3cc9	-0.010573574
212	0x3d0e253b	0.034703474
213	0xbc0012d1	-0.007816986
214	0x3c7922a8	0.015206017
215	0x3da73eb6	0.08166258
216	0x3d0502e9	0.03247348
217	0x3d2df6f5	0.042471845
218	0x3cddf60d	0.027094865
219	0x3c0d0364	0.008606765
220	0x3cb1c5f8	0.021700844
221	0x3bc02dcb	0.005864834
222	0xbd286374	-0.04111047
223	0x3d8f3fc5	0.06994585
224	0xbd95209c	-0.0728161
225	0xbcc6185b	-0.024181535
226	0xbd8cc316	-0.06873147
227	0xbd8e6559	-0.06952924
228	0xbc54cbce	-0.012988044
229	0x3cc41fde	0.023940977
230	0xbbc2c961	-0.0059444164
231	0xbd86f2ab	-0.06589254
232	0x3d243917	0.040093508
233	0x3d9141b0	0.07092607
234	0xb8b028dc	-8.3999446e-05
235	0x3dde4759	0.10853452
236	0x3d830f55	0.06399409
237	0x3c2d0f37	0.0105627095
238	0x3d2dbcc4	0.04241635
239	0xb9f74843	-0.0004716535
240	0x3d9cfc2b	0.07665285
241	0x3db55bb9	0.08855385
242	0x3dd6635b	0.10468169
243	0x3dca1e57	0.09869068
244	0xbd48d3e2	-0.049030192
245	0xbd111c72	-0.03542752
246	0x3c9e242c	0.019304357
247	0xbd124712	-0.03571231
248	0xbd5a1b54	-0.05324872
249	0xbd9e7ce7	-0.07738667
250	0x3c262678	0.010141008
251	0x3dbcbb11	0.092153676
252	0xbd153645	-0.03642871
253	0x3d845d14	0.06463066
254	0xbcb29337	-0.021798713
255	0xbd906988	-0.070513785

network_body._body_endoder.seq_layers.4.weight f4 [256, 256]
0	0xbd3d5020	-0.04621899
1	0x3d9fecf5	0.07808868
2	0xbd92716a	-0.07150538
3	0x3c7f3d6c	0.015578609
4	0x3d1e1d7d	0.03860234
5	0xbd27c8f0	-0.040963113
6	0x3bb6c42e	0.0055775857
7	0x3de249a1	0.110492
8	0xbcae332b	-0.021264633
9	0xbd978765	-0.07398871
10	0xbda4014b	-0.08008059
11	0x3d406197	0.04696807
12	0xbc21c318	-0.009873174
13	0xbcc8eb0d	-0.024526143
14	0xbdf7840e	-0.12085734
15	0xbd7ff1fd	-0.062486637
16	0xbc85b988	-0.01632382
17	0x3ce46a8c	0.027882837
18	0xbc0ab092	-0.008464949
19	0x3d9aab5d	0.07552216
20	0x3e0c69ab	0.13712184
21	0xbd30a11f	-0.043122407
22	0xbcbfacde	-0.02339786
23	0xbdf4016b	-0.11914333
24	0x3e1e7eb9	0.15478028
25	0xbd8cd587	-0.068766646
26	0xbcbe943e	-0.023264047
27	0xbd9ae025	-0.075622834
28	0x3df36170	0.11883819
29	0xbd3f2661	-0.04666746
30	0x3d8d381f	0.0689547
31	0xbe006642	-0.12539008
32	0xbd48ce2c	-0.049024746
33	0xbd036bfa	-0.032085396
34	0xbe1a856d	-0.1508996
35	0xba55a0f2	-0.0008149288
36	0xbcf596ed	-0.029979194
37	0x3d3455ea	0.044027247
38	0xbd2e55d8	-0.042562336
39	0xbccf8849	-0.02533354
40	0x3da53fa3	0.08068778
41	0x3db56d17	0.08858698
42	0x3c543b96	0.0129536595
43	0xbd048751	-0.03235561
44	0x3de3a7f8	0.11116022
45	0xbd797c61	-0.060909633
46	0xbd2942dd	-0.04132353
47	0xba83c01f	-0.0010051763
48	0x3d31db7f	0.04342222
49	0x3d49c9bc	0.049264655
50	0x3d9b8d76	0.07595341
51	0xbd510ea9	-0.05103937
52	0xbdc574b9	-0.09641404
53	0xbbc7dd8d	-0.006099409
54	0x3d47523f	0.04866242
55	0x3da1c625	0.07899121
56	0xbd5ce2e7	-0.05392733
57	0xbd352789	-0.044227157
58	0x3d3aa43b	0.04556678
59	0x3bd8f718	0.0066212527
60	0xbd6fcb42	-0.05854345
61	0x3ca5f9c6	0.020260703
62	0xbdaaa261	-0.083317526
63	0xbb1c37b8	-0.0023836922
64	0xbdf97738	-0.12180942
65	0xbd1843c8	-0.037174016
66	0xbe2113d7	-0.15730225
67	0xbbcb92eb	-0.0062125823
68	0xbd59757a	-0.05309055
69	0x3c567b93	0.013090986
70	0x3d399135	0.045304496
71	0xbcdf388f	-0.027248649
72	0x3911c2e8	0.00013900886
73	0xbca01920	-0.01954323
74	0x3e09eb82	0.13468745
75	0x3c43f15e	0.011959402
76	0x3c295888	0.010336049
77	0xbe09cec0	-0.13457775
78	0xbac3df1c	-0.0014943811
79	0x3dbe3cd1	0.092889436
80	0x3d9b07b5	0.075698294
81	0x3cd9bb52	0.02657858
82	0xbd7eed43	-0.06223799
83	0x3ce6d3bb	0.028177133
84	0xbd483695	-0.04888018
85	0x3b683ca4	0.0035436535
86	0x3d31ed11	0.043438975
87	0xbd7bbc5a	-0.061458923
88	0xbd8bc0ab	-0.06823858
89	0x3cdcbadc	0.02694457
90	0x3d56901d	0.05238353
91	0x3d96a6ca	0.07356031
92	0xbd56f904	-0.052483574
93	0x3e032e80	0.12810707
94	0xbc047c6c	-0.008086305
95	0x3dfa218e	0.12213431
96	0xbd93987e	-0.0720682
97	0x3e0fdb93	0.14048605
98	0x3dc91cc2	0.09819938
99	0x3dba922f	0.091099136
100	0x3e1c89ad	0.15286894
101	0x3dc95ac1	0.09831763
102	0x3dfa30fd	0.12216375
103	0x3e141c2b	0.1446387
104	0x3e1360d6	0.14392409
105	0xbdbbb972	-0.0916623
106	0x3deb6c5b	0.114952765
107	0xbd1894b3	-0.037251186
108	0x3d29f477	0.041492905
109	0x3b9a45b6	0.004708017
110	0xbe080fc2	-0.13287261
111	0xbdb82c80	-0.08992863
112	0xbce34fd5	-0.027748028
113	0xbd55cc79	-0.052196953
114	0x3dd27c58	0.10277623
115	0xbd18a954	-0.03727086
116	0xbd27c679	-0.040960763
117	0xbc9d6c0c	-0.01921656
118	0xbdce8016	-0.10083024
119	0xbd833cd2	-0.06408085
120	0xbbeaee69	-0.007169534
121	0x3dee116c	0.11624417
122	0xbd9b333e	-0.07578133
123	0xbe18c8d3	-0.14920358
124	0x3d3287a3	0.043586385
125	0xb60ee5f0	-2.129349e-06
126	0x3e0b06ea	0.13576856
127	0x3d8fa138	0.07013172
128	0xbe30cd07	-0.17265712
129	0xbd6145ff	-0.054998394
130	0xbdadc00e	-0.08483897
131	0xbc99e376	-0.01878522
132	0xbd74e6e0	-0.059790492
133	0x3c3ba68d	0.011453283
134	0x3e07aea7	0.13250218
135	0xbcf48ce5	-0.02985234
136	0x3bae3129	0.005315919
137	0xbcc6f5e6	-0.024287175
138	0xbdf5f217	-0.120090656
139	0xbcf01afa	-0.029309738
140	0xbd911a4b	-0.07085093
141	0xbda2ea9c	-0.079549044
142	0x3d349cf0	0.04409498
143	0x3d284649	0.041082654
144	0xbdb47063	-0.088104986
145	0xbd1b356f	-0.037892755
146	0xbd1605a2	-0.036626466
147	0x3d7f6f50	0.062362015
148	0x3cb24c29	0.021764832
149	0xbd06a8a4	-0.032875672
150	0x3bebb38b	0.007193034
151	0x3db58895	0.088639416
152	0x3d366b9d	0.04453622
153	0xbd6b3c30	-0.057430446
154	0xbe4a8b46	-0.19779691
155	0x3dc74519	0.09729976
156	0x3d6157b6	0.05501529
157	0xbd3f7c73	-0.046749543
158	0xbd394f92	-0.0452419
159	0x3deefc31	0.116691954
160	0x3d3f9515	0.046773035
161	0xbd468e62	-0.04847563
162	0xbd5816d5	-0.05275615
163	0xbd2d011c	-0.042237386
164	0xbe0adcfb	-0.1356086
165	0xbe3eb610	-0.18624139
166	0xbc95c014	-0.018280067
167	0x3d5ab09f	0.053391095
168	0x3cb902f5	0.022584418
169	0xbdbcd0d2	-0.09219517
170	0xbdb34240	-0.087528706
171	0x3c76dd0d	0.015067351
172	0x3d5da83c	0.05411552
173	0xbcd8d2b1	-0.026467653
174	0x3c0b390f	0.008497491
175	0xbde6e9a8	-0.11275035
176	0xbbfdef58	-0.0077494793
177	0xbda1ed1f	-0.079065554
178	0x3dcc7bd5	0.099845566
179	0x3d11fa01	0.035638813
180	0xbd3e2860	-0.046425223
181	0x3d35bdc0	0.044370413
182	0xbd81ada9	-0.06331951
183	0xbe2b2000	-0.16711426
184	0x3d3322ab	0.043734234
185	0xbc8e2229	-0.017350273
186	0x3da177da	0.07884188
187	0x3dc8191a	0.09770413
188	0x3cf231d3	0.029564774
189	0xbb8e92c8	-0.004350994
190	0x3d12fa75	0.035883386
191	0xbd71b2c0	-0.05900836
192	0xbc672ccd	-0.014109802
193	0xbda6287d	-0.08113191
194	0x3d20cf73	0.03926034
195	0x3d11ed36	0.035626613
196	0xbcf5e9f1	-0.030018779
197	0x3c0d6bc7	0.008631653
198	0xbd8d2d17	-0.06893366
199	0xbdf1a673	-0.11799326
200	0xbdeb8405	-0.1149979
201	0x3de98c1f	0.11403679
202	0xbd60b740	-0.05486226
203	0x3c8a96b7	0.01691757
204	0x3b1b10ab	0.0023661058
205	0xbd2e9718	-0.042624563
206	0xbd2753ab	-0.040851276
207	0x3bc11f4f	0.005893625
208	0xbe02c563	-0.1277061
209	0xbd9cafc0	-0.07650709
210	0x3e07d2ef	0.13264059
211	0x3df7d459	0.12101049
212	0x3dac72fd	0.0842037
213	0x3dbcc1d1	0.09216655
214	0xbd9c0c3a	-0.076195195
215	0x3c4e099d	0.012575534
216	0xbc8e3a6c	-0.017361842
217	0x3dc3c2d9	0.095586486
218	0x3cd355bf	0.025797723
219	0xbc43da6c	-0.011953931
220	0xbc6f19e3	-0.014593574
221	0x3c63b684	0.013898496
222	0x3deb0d3e	0.11477135
223	0xbcd9b71e	-0.026576575
224	0x3d6d026e	0.057863645
225	0xbd2522a7	-0.04031625
226	0x3d0e7cac	0.034786865
227	0xbdde9cff	-0.108697884
228	0x3d98ebfd	0.07466886
229	0xbb81afff	-0.003957748
230	0x3c1e3c74	0.009657968
231	0xbd222f8c	-0.039596125
232	0x3c8f3519	0.017481374
233	0xbd8a2135	-0.06744615
234	0xbd564f01	-0.052321438
235	0xbd4d027a	-0.05005119
236	0xbe4849b6	-0.19559368
237	0x3cba7bda	0.022764135
238	0xbd99f7a6	-0.07517938
239	0x3d5beb2e	0.05369108
240	0x3e014d19	0.12627067
241	0xbd05a2ea	-0.03262607
242	0x3d8da8ca	0.069169596
243	0x3dc5886f	0.09645163
244	0x3ca4e117	0.020126862
245	0x3d8588d1	0.06520236
246	0xbe587815	-0.21139558
247	0x3da36e40	0.07980013
248	0x3d34d63b	0.04414962
249	0xbe11165e	-0.14168689
250	0x3c7733a8	0.015087999
251	0x3d9ffc1b	0.07811757
252	0xbc615389	-0.0137528265
253	0x3d890644	0.06690648
254	0xbd7c59de	-0.06160914
255	0x3d9cbfd2	0.07653774

network_body.observation_encoder.processors.0.normalizer.running_mean f4 [6]
0	0xc165cebb	-14.362971
1	0x41dc5ff8	27.54686
2	0xc1b7a925	-22.95759
3	0xc2011f4d	-32.280567
4	0x3fb331c3	1.3999561
5	0xc28e50de	-71.15794
