Assets/Training/results/learn_v2/MarsTaxi/MarsTaxi-3499979.onnx (onnx, 542464 bytes, 10 tensors)

54 f4 [6]
0	0x41f07edb	30.061941
1	0x41646d7a	14.276728
2	0x42646321	57.096806
3	0x3c8dd5c9	0.017313855
4	0x3a718b9d	0.00092142244
5	0x3d1c3148	0.038132936

action_model._discrete_distribution.branches.0.bias f4 [6]
0	0x3c59034e	0.013245417
1	0x3c94cfaa	0.018165428
2	0xbd703137	-0.058640685
3	0x3c9c9b7a	0.019117106
4	0x3ce3e2ae	0.02781805
5	0xbd8a1634	-0.06742516

action_model._discrete_distribution.branches.0.weight f4 [6, 256]
0	0x3c537366	0.012905931
1	0x3cc22c4a	0.02370276
2	0xbcde886d	-0.027164662
3	0xbd50357f	-0.050832268
4	0xbbb8d446	-0.0056405393
5	0x3d0df8f3	0.034661245
6	0xbc93d7c8	-0.018047228
7	0x3cf9d533	0.03049717
8	0xbce19ef2	-0.027541611
9	0x3c4033c2	0.01173109
10	0x3d2f12c1	0.042742494
11	0x3c7f729a	0.015591288
12	0x3ba7ffdf	0.0051269378
13	0xbc3e73f2	-0.011624323
14	0x3c8c8d19	0.017157124
15	0x3cb65038	0.022255048
16	0x3c4723c5	0.012154524
17	0x3b2e1f04	0.002656878
18	0x3c82e2eb	0.015977344
19	0xbdb978cd	-0.09056244
20	0xb9e105f0	-0.00042919768
21	0xbd3fb530	-0.046803653
22	0xbb237808	-0.002494337
23	0xbd2596df	-0.040427085
24	0x3c151fd4	0.009101827
25	0x3bfa8101	0.007644773
26	0xbd8c8dee	-0.068630084
27	0xbc96a830	-0.018390745
28	0xbc620754	-0.0137956925
29	0xbd77aabf	-0.06046557
30	0x3d3153a3	0.043292653
31	0x3ce10e16	0.027472537
32	0xbda599f0	-0.08086002
33	0x3d24621e	0.040132634
34	0x3c2af63b	0.0104346825
35	0xbd671ae8	-0.056422144
36	0x3bf0078b	0.007325118
37	0xbcded29b	-0.027200034
38	0x3c2d762d	0.010587257
39	0xbd6e5bcf	-0.058193024
40	0x3cd506c1	0.026004197
41	0x3bf2288c	0.0073900875
42	0x3c6f7bee	0.0146169495
43	0x3cb5f64d	0.022212172
44	0x3ca73bb1	0.020414205
45	0xbc8d8863	-0.017276948
46	0x3d3251d3	0.043535065
47	0xbd044ecf	-0.03230172
48	0xbc5e2898	-0.013559483
49	0xbd1c0fcb	-0.038101
50	0xbd862dc1	-0.065516956
51	0xbb37d1f1	-0.0028048719
52	0x3b1354b8	0.0022480916
53	0xbbaa0442	-0.005188496
54	0x3b1ce471	0.0023939873
55	0x3ca3e536	0.020006757
56	0x3ce475f9	0.027888285
57	0x39ddf0f2	0.00042331923
58	0xbd0db18f	-0.03459316
59	0x3d11b498	0.03557262
60	0x3c893651	0.016749533
61	0x3d08a277	0.033358064
62	0xbd13dd94	-0.036099985
63	0xbb8ef24c	-0.00436238
64	0xbca667e1	-0.020313205
65	0x3c91981a	0.017772723
66	0x3c56cca8	0.013110317
67	0xbcd21086	-0.025642645
68	0x3bbe5928	0.005808968
69	0xbba9581e	-0.005167975
70	0x3c2f0f47	0.010684795
71	0xbcc85535	-0.024454692
72	0x3d1e4184	0.0386367
73	0xbd42d86a	-0.04756967
74	0x3cb4e61e	0.022082385
75	0xbb28d9f9	-0.0025764687
76	0xbd1f971b	-0.038962465
77	0xbd6f00c6	-0.058350347
78	0xbd4e2531	-0.050328437
79	0x3ce2df65	0.027694413
80	0x3d120986	0.035653614
81	0x3ce4ac67	0.02791424
82	0xbd50209c	-0.05081235
83	0x3d19cac5	0.03754689
84	0xbbb22346	-0.005436334
85	0x3b99a959	0.0046893773
86	0x39febc8d	0.00048587137
87	0xbd943787	-0.072371535
88	0x3d0a6a06	0.033792518
89	0x39c339aa	0.0003723626
90	0x3c972d54	0.018454231
91	0xbcb91359	-0.022592233
92	0xbd7c6606	-0.061620735
93	0xbc5ea17d	-0.0135883065
94	0xbbaa6158	-0.0051995926
95	0x3d40b8f7	0.047051396
96	0x3c6e3765	0.014539574
97	0xbcd14c36	-0.025549036
98	0xbc1d3a98	-0.009596489
99	0xbcd806e5	-0.026370475
100	0xbcbd017d	-0.023071999
101	0x3d39f5fd	0.04540061
102	0x3c5d0205	0.013489251
103	0xbcd35c0d	-0.02580073
104	0xbd97f080	-0.074189186
105	0x3b794a91	0.003803883
106	0x3cbf484f	0.02334991
107	0x3d1a2b94	0.037639216
108	0xbdc117ef	-0.09428393
109	0xbd0dc15f	-0.03460824
110	0x3c4ef1ed	0.012630922
111	0xbd2e5b53	-0.042567562
112	0xbd2e0684	-0.042486683
113	0x3c33c3c2	0.010971965
114	0x3cb971cd	0.022637272
115	0xbc1d7695	-0.009610792
116	0x3c0ab182	0.008465173
117	0xbd2944d4	-0.041325405
118	0x3cd5114e	0.026009228
119	0x3bffb7e5	0.0078039044
120	0xbd6b49b0	-0.05744332
121	0xbc1dd279	-0.0096327
122	0xbce2b3c9	-0.027673619
123	0x3c2e4bdb	0.010638203
124	0x3c992161	0.018692674
125	0xbc67e946	-0.014154738
126	0x3d1388c5	0.036019105
127	0xbd129fef	-0.035797056
128	0x3bbb7eec	0.0057219174
129	0x3b873618	0.0041263215
130	0xbcd33dce	-0.025786307
131	0x3d2495ff	0.04018211
132	0xba86ea63	-0.0010293241
133	0x3d1199b7	0.035546985
134	0x3cdbced4	0.026832022
135	0x3ce9de10	0.02854827
136	0x3c61d024	0.013782535
137	0xbc61e111	-0.01378657
138	0xbdb8cb37	-0.09023135
139	0xbc8108cf	-0.01575127
140	0x3be9fab4	0.007140482
141	0xbd38a006	-0.045074485
142	0x3ba9398d	0.0051643313
143	0x3ccbb97a	0.024868716
144	0x3d736cb3	0.059429836
145	0xbd6f31b5	-0.058397014
146	0xbd0a9b02	-0.033839233
147	0x3d048c02	0.032360084
148	0xbbdb61ea	-0.006695022
149	0x3c9c983a	0.019115556
150	0x3cc53c86	0.024076711
151	0x3d0a5a83	0.033777725
152	0x3ca395ae	0.019968834
153	0xbd120723	-0.035651337
154	0xbd8b938f	-0.06815254
155	0x3cd2ddcc	0.025740527
156	0x3cb9883d	0.022647971
157	0x3c87c2e5	0.016572425
158	0x3c0b4b38	0.00850182
159	0x3d044a54	0.032297447
160	0x3caa5f92	0.020797525
161	0x3c7767a8	0.015100397
162	0x3c295f51	0.010337667
163	0x3ca2785e	0.019832786
164	0x3c0b562a	0.00850443
165	0x3cb0cd0f	0.021582155
166	0x3bdc5aa7	0.006724674
167	0x3c8e41dd	0.01736539
168	0xbd1f4778	-0.038886517
169	0x3c937a36	0.01800261
170	0x3c93ee43	0.018057948
171	0x3ca4d437	0.020120723
172	0x3c74c41f	0.014939337
173	0x3bd89ee5	0.0066107386
174	0x3c8140ea	0.015778024
175	0xbd2e8c22	-0.04261411
176	0x3d3f9b1a	0.046778776
177	0x3c7a341d	0.015271214
178	0x3cdd6036	0.027023416
179	0xbd00d388	-0.031451732
180	0x3bca9e81	0.006183446
181	0xbc26824b	-0.0101629
182	0x3bb1f649	0.005430971
183	0x3c99bfa3	0.018768137
184	0xbcd4d28f	-0.025979308
185	0x3cc5d410	0.02414897
186	0x3a42d770	0.00074326154
187	0x3c67717f	0.014126181
188	0xbc237c5b	-0.009978379
189	0x3d48ac46	0.048992418
190	0x3c87f46d	0.016596043
191	0x3cdb75b3	0.026789522
192	0x3cc99653	0.024607813
193	0x3ce5d60e	0.02805617
194	0xbafbadf0	-0.0019201618
195	0xbd06d204	-0.03291513
196	0xbd599286	-0.05311825
197	0xbd53a6f3	-0.051672887
198	0x3c9beb2b	0.019033035
199	0x3cd75346	0.026284825
200	0x3d02fe3f	0.03198075
201	0x3d0b3c76	0.033993207
202	0x3c27181e	0.010198621
203	0xbd19506e	-0.03743022
204	0x3bef3549	0.0073000533
205	0x3b5ab745	0.0033373397
206	0x3c5a3bd1	0.013319925
207	0x3c316bbe	0.01082891
208	0xbd816ae4	-0.06319216
209	0xbbebba97	-0.007193874
210	0xbda073ae	-0.07834564
211	0x3ca5c12f	0.020233719
212	0x3c56a33e	0.013100443
213	0x3bbc0385	0.0057377242
214	0x3c4a418a	0.012344727
215	0xbbb3314e	-0.005468524
216	0x3ca323a8	0.019914463
217	0xbc4ef528	-0.012631692
218	0x3cb2e034	0.021835424
219	0xbc75eafa	-0.015009636
220	0xbbe21b6a	-0.0069002407
221	0x3d02f81b	0.031974893
222	0xbd62f878	-0.05541274
223	0x3b8c85af	0.0042883973
224	0x39a26022	0.00030970672
225	0xbd800c1c	-0.0625231
226	0xbcd9516f	-0.026528088
227	0xbbfc915e	-0.007707759
228	0xbc525bef	-0.0128393015
229	0x3cc72222	0.024308268
230	0xbd3a14a0	-0.045429826
231	0x3cf533f3	0.029931998
232	0x3c9f3ac7	0.019437207
233	0xbd964af7	-0.07338517
234	0xbd59796a	-0.053094305
235	0x3d0082a9	0.031374607
236	0x3c46679d	0.012109664
237	0xbb6c373e	-0.003604367
238	0x3be1560e	0.0068767136
239	0x3c50237a	0.012703771
240	0xbd9c8cf9	-0.07644076
241	0xbc35ae2d	-0.01108889
242	0xbcacb504	-0.021082409
243	0xbc040d46	-0.008059805
244	0xbc9f6383	-0.01945663
245	0x3b3e7b8c	0.002906534
246	0x3c3bf7fd	0.011472699
247	0x3d04cbdc	0.032420978
248	0xbd1597af	-0.03652161
249	0xbc25fbb0	-0.010130808
250	0x3cb3f93b	0.021969428
251	0xbc82e7f4	-0.015979744
252	0x3c8ae273	0.016953683
253	0x3cbdc077	0.023163063
254	0x3d14f42b	0.03636567
255	0x3c0647fa	0.0081958715

network_body._body_endoder.seq_layers.0.bias f4 [256]
0	0x3c7c66c2	0.015405359
1	0xbb0cfc08	-0.0021512527
2	0x3db4bcda	0.08825083
3	0x3cdf4457	0.027254267
4	0x3d2b523a	0.041826464
5	0x3da167bc	0.07881114
6	0x3de9e6fa	0.114210084
7	0xbb87dc19	-0.0041461107
8	0x3c8c3a23	0.017117565
9	0x3d3f412f	0.046693023
10	0x3be1a7dc	0.0068864655
11	0x3e153c05	0.14573677
12	0x3d24f821	0.040275697
13	0x3d0aa517	0.03384885
14	0xbd6dba16	-0.058038794
15	0x3e106dde	0.14104411
16	0x3ccc2ce2	0.024923746
17	0x3d11f1ce	0.035630994
18	0x3c2944ec	0.010331374
19	0x3e086d2a	0.13322893
20	0x3d2562c6	0.0403774
21	0x3e00f736	0.12594303
22	0xbd2ec874	-0.042671636
23	0x3cc46ebd	0.023978585
24	0x3d7705aa	0.060308136
25	0x3e178003	0.14794926
26	0x3db2245e	0.08698343
27	0x3d07ae0e	0.033124976
28	0x3c561701	0.013067008
29	0x3b86e8bb	0.004117099
30	0xbd94bde2	-0.0726278
31	0x3e0e8b39	0.13920297
32	0xbbcc33b2	-0.0062317485
33	0x3b9bedff	0.004758596
34	0x3da58d2c	0.08083567
35	0x3df5a2a9	0.119939156
36	0xbb05ecdd	-0.002043537
37	0x3c05bbb9	0.008162432
38	0x3cd66b94	0.026174344
39	0x3e0896d3	0.13338785
40	0x3d81f934	0.0634636
41	0x3d0b8af0	0.034068048
42	0x3c834244	0.016022809
43	0x3d4a6fe6	0.04942312
44	0x3d3a6b7f	0.045512673
45	0x3d843b60	0.064566374
46	0x3ca66f9b	0.02031689
47	0x3ddbfddf	0.107417814
48	0x3da436b3	0.080182455
49	0x3da8dc8f	0.08245193
50	0x3e0b3889	0.13595785
51	0x3cc86cdb	0.024465969
52	0x3dab9df9	0.0837974
53	0x3d1c14e9	0.03810588
54	0x3ca7e9e5	0.020497272
55	0xbccb1f6e	-0.02479526
56	0x3d3c23d8	0.04593262
57	0xbb14c18f	-0.0022698378
58	0x3cf66b51	0.03008047
59	0x3ce31461	0.027719678
60	0x3c14ddd1	0.009086088
61	0x3d643109	0.055710826
62	0x3d9e1c15	0.077202
63	0xbcc31a5a	-0.023816276
64	0x3d30b707	0.0431433
65	0x3d8b772e	0.06809841
66	0x3d86e4f4	0.06586638
67	0x3d4a48a3	0.049385678
68	0xbd20f752	-0.039298363
69	0x3d782396	0.060580812
70	0x3ddf610d	0.10907183
71	0x3d84e724	0.06489399
72	0x3cae7aaf	0.021298734
73	0x3cf7d2e5	0.03025193
74	0x3da14802	0.078750625
75	0x3bad1936	0.0052825464
76	0x3c72d4fc	0.014821287
77	0xbc84002a	-0.01611336
78	0x3d388c2d	0.045055557
79	0x3c10e5d8	0.0088438615
80	0x3d665f6a	0.056243338
81	0x3c04936f	0.0080917915
82	0x3bbfd2f0	0.005854003
83	0x3cef8706	0.029239189
84	0x3cb286a4	0.021792717
85	0x3bb4a473	0.005512768
86	0xbbb44a8c	-0.0055020507
87	0x3b74d8ed	0.0037360743
88	0x3ca08813	0.019596135
89	0x3d7285e5	0.059209723
90	0xbbae08fe	-0.0053111305
91	0x3c9d1dab	0.019179186
92	0xb9f4aaa1	-0.00046666435
93	0x3c760903	0.015016797
94	0x3c9cd577	0.019144757
95	0xbcaf938e	-0.021432664
96	0xbc166b6d	-0.009180886
97	0x3db110d7	0.0864579
98	0x3c4d6b33	0.012537765
99	0x3df40aea	0.11916144
100	0x3d8d0048	0.06884819
101	0x3ba4b280	0.0050261617
102	0x3dcde08c	0.100525945
103	0x3d3fe0b9	0.04684517
104	0x3d33ff95	0.043944914
105	0x3e0b30ae	0.13592789
106	0x3c3bf0e0	0.011471003
107	0x3d594257	0.053041782
108	0x3d877396	0.06613843
109	0x3cb51ba0	0.0221079
110	0x3de1c7eb	0.110244595
111	0x3da21c8f	0.07915603
112	0x3e1d69f1	0.15372445
113	0x3d4577e6	0.048210047
114	0x3d9833c5	0.07431749
115	0x3d61b300	0.05510235
116	0x3df7c089	0.1209727
117	0x3da01261	0.078160055
118	0x3c9cf660	0.01916045
119	0x3d5a7c78	0.05334136
120	0x3dd495de	0.103801474
121	0x3dba7635	0.091045775
122	0xbd48e52f	-0.04904669
123	0x3da7b039	0.08187909
124	0x3e029a3a	0.12754145
125	0x3dd3904b	0.10330256
126	0x3e1999ff	0.15000151
127	0x3b61b772	0.0034441617
128	0x3c8964d4	0.016771711
129	0x3c9dc66e	0.019259658
130	0x3db521c5	0.08844332
131	0x3df840e6	0.121217534
132	0x3d2d0d1d	0.042248834
133	0x3b9afbf8	0.004729744
134	0x3b8c4014	0.0042800996
135	0x3db2d292	0.08731569
136	0x3d35214b	0.044221204
137	0xbc73d44f	-0.014882161
138	0x3d62b7d0	0.05535108
139	0x3d30b21c	0.04313861
140	0x3d83b413	0.06430831
141	0x3df2ef4b	0.11862048
142	0x3d528f13	0.051405977
143	0x3cd54467	0.026033593
144	0x3d668b83	0.056285392
145	0xbbdaae1e	-0.0066735884
146	0x3c221f39	0.009895139
147	0x3d86bcf9	0.065790124
148	0x3c277710	0.010221258
149	0x3dfab55a	0.12241621
150	0x3d16ac23	0.036785256
151	0x3c122fd8	0.00892254
152	0x3de2a8c7	0.11067348
153	0x3d337280	0.043810368
154	0xbd63e8bd	-0.05564188
155	0x3dae7e55	0.0852019
156	0x3d8f858b	0.07007893
157	0x3abc7cf1	0.0014380497
158	0x3c787471	0.015164481
159	0x3ccac58f	0.024752406
160	0x3d293a01	0.041315082
161	0xbc0b24e3	-0.008492681
162	0x3d95e681	0.07319356
163	0x3dacea71	0.08443154
164	0x3cac6437	0.02104388
165	0x3cce0136	0.025147062
166	0x3c22e2c2	0.009941759
167	0x3b95bdf9	0.0045697656
168	0xbb457ebf	-0.003013536
169	0x3dacdb7d	0.084403016
170	0x3d8bbe12	0.068233624
171	0x3d16ae4f	0.036787327
172	0x3d875f06	0.06609921
173	0xbc12119c	-0.008915331
174	0x3aa1abba	0.0012334504
175	0xbb3b7fef	-0.002861019
176	0xba7de48d	-0.0009685241
177	0x3b4acef1	0.00309461
178	0x3db05a5d	0.086109854
179	0x39aeab5b	0.00033315536
180	0xbb9843fa	-0.0046467753
181	0x3d775701	0.060385708
182	0x3d4b689b	0.049660306
183	0x3df3c924	0.11903599
184	0x3d88cbb8	0.06679481
185	0x38bfb30f	9.140942e-05
186	0x3d2891fa	0.04115484
187	0x3d2342ed	0.039858747
188	0x3d57d538	0.052693576
189	0x3d2dad0c	0.04240136
190	0x3d206338	0.039157122
191	0x3da3028e	0.07959472
192	0xbd1434b4	-0.036183074
193	0xbd26428d	-0.04059081
194	0x3c168691	0.009187357
195	0x3e00f457	0.12593208
196	0x3d00a810	0.031410277
197	0x3dade7ce	0.08491479
198	0x3d15aea1	0.036543492
199	0xbd1e6339	-0.038668845
200	0x3c218211	0.00985767
201	0x3d170621	0.03687108
202	0x3c5279ff	0.012846469
203	0x3cdab8df	0.026699482
204	0xbcf86136	-0.030319791
205	0x3d1a1b0b	0.037623446
206	0x3d344d85	0.04401924
207	0x3cd2dd57	0.025740309
208	0x3caf0ff9	0.021369921
209	0x3e173246	0.14765272
210	0x3d52e754	0.051490143
211	0xbbf68606	-0.007523301
212	0x3c96fcf5	0.018431166
213	0x3deb6a99	0.11494941
214	0xba85f59b	-0.0010220291
215	0xbcbb9f90	-0.022903234
216	0x3c042ed4	0.008067805
217	0xba683fb8	-0.00088595925
218	0x3bd0ab36	0.006368066
219	0xbd8e9b81	-0.06963254
220	0xbce09cb6	-0.027418476
221	0x3da965f2	0.08271398
222	0x3d20c908	0.03925422
223	0x3d98b9d9	0.074573226
224	0x3d814f0a	0.06313904
225	0xbcb05e17	-0.02152924
226	0x3cb7dd52	0.022444401
227	0x3cb1f720	0.021724284
228	0x3c587f1c	0.013213899
229	0x3c57d7d8	0.01317402
230	0x3da17ac1	0.078847416
231	0x3d9f4070	0.07775962
232	0x3b6f7bb4	0.0036542239
233	0x3d0887d3	0.033332657
234	0xbc8c1cce	-0.017103579
235	0x3e02a782	0.12759212
236	0x3d3b57fc	0.045738205
237	0x3c7a30b3	0.0152704
238	0xbca9db30	-0.0207344
239	0x3bfad2f3	0.0076545416
240	0xbdc6647d	-0.09687135
241	0x3d1813bf	0.037128206
242	0xbc7602c5	-0.015015309
243	0x3cf02fd9	0.02931969
244	0x3d152b2e	0.036418132
245	0x3cd9ad13	0.026571786
246	0x3d4b7028	0.049667507
247	0xbbad3d52	-0.005286851
248	0x3cca1010	0.024665862
249	0x3d55665e	0.052099578
250	0xbcebe9f5	-0.028798083
251	0x3c19b061	0.009380431
252	0x3d1e3d55	0.03863271
253	0x3ced9ba8	0.029004887
254	0x3d56f477	0.052479234
255	0xbcb92a17	-0.022603078

network_body._body_endoder.seq_layers.0.weight f4 [256, 6]
0	0x3dce0a66	0.10060577
1	0x3c174c7c	0.009234544
2	0xbe7712ee	-0.24128315
3	0xbd7946f7	-0.060858693
4	0xbf808d1a	-1.0043061
5	0xbe941981	-0.28925708
6	0xbf127e47	-0.57223934
7	0xbe691c7a	-0.22764769
8	0xbf202829	-0.6256128
9	0x3e597fbe	0.21240136
10	0x3ec8b8b0	0.39203405
11	0xbeb308c9	-0.3496764
12	0x3f06d9ab	0.52675885
13	0x3f3e708f	0.743905
14	0x3ece8ac3	0.40340242
15	0x3e1bd1fa	0.15216818
16	0xbe01e860	-0.126863
17	0xbf2a2fa5	-0.6647895
18	0xbf02ebf3	-0.5114128
19	0x3bfda8f6	0.007741089
20	0x3e585afa	0.21128455
21	0x3ea2f3ca	0.3182662
22	0x3cd6cb68	0.026220039
23	0xbf325347	-0.6965832
24	0x3e9bf061	0.30456832
25	0x3ea9d8de	0.3317327
26	0xbc68045d	-0.014161197
27	0xbe58b2df	-0.21161984
28	0x3ed7c29f	0.42140672
29	0x3e10a6dc	0.14126152
30	0x3e6fa78a	0.23403755
31	0x3eceb2b3	0.40370712
32	0x3e120a30	0.14261699
33	0xbeef195a	-0.4669903
34	0xbebae389	-0.3650172
35	0xbeea482f	-0.45758197
36	0xbe2cac4e	-0.16862604
37	0x3d3e80d8	0.046509594
38	0x3e60c038	0.21948326
39	0xbeb27b0f	-0.3485951
40	0x3e4ac7e0	0.19802809
41	0xbf7958bf	-0.9740104
42	0x3c98140b	0.018564245
43	0xbee99413	-0.45620784
44	0xbef5a6cd	-0.4797882
45	0xbf570171	-0.83986574
46	0xbf04686e	-0.5172185
47	0xbe9cf4d0	-0.30655527
48	0x3e2e7236	0.17035756
49	0x3e4a1821	0.19735767
50	0xbec453c1	-0.3834515
51	0x3eb0da07	0.34541342
52	0x3d8d603c	0.06903121
53	0xbe9523a9	-0.2912877
54	0x3d1f6386	0.038913272
55	0xbdc004e6	-0.09375934
56	0x3f12a738	0.57286406
57	0x3f0d7cb6	0.5526842
58	0xbdd27b8e	-0.102774724
59	0x3d991242	0.074741855
60	0xbd8e649d	-0.06952784
61	0xbe9e79f2	-0.30952412
62	0xbdc35c41	-0.095390804
63	0xbf4ebc18	-0.8075576
64	0xbdc42b32	-0.09578551
65	0xbe9f2ff3	-0.3109127
66	0x3f656bf9	0.8961788
67	0x3e498121	0.19678165
68	0xbe664222	-0.22486165
69	0xbf2fdcf1	-0.68696505
70	0x3cb3dffa	0.021957386
71	0x3f0cff30	0.55076885
72	0xbf202175	-0.6255105
73	0x3e8ae4fd	0.2712783
74	0x3e12213e	0.14270493
75	0x3f19c28e	0.6006249
76	0x3e8cd329	0.27504852
77	0x3e5cf461	0.21577598
78	0x3f213467	0.62970585
79	0x3f678275	0.90433437
80	0xbe3eb09a	-0.18622056
81	0xbeae7b3a	-0.3407839
82	0x3e6e3b3f	0.23264788
83	0xbc9001fc	-0.017579071
84	0xbe68ef35	-0.227475
85	0x3d53e3c0	0.05173087
86	0xbeb16417	-0.34646675
87	0x3e31668e	0.17324278
88	0xbd387f1c	-0.045043096
89	0x3e522651	0.20522429
90	0x3ecfcff9	0.40588358
91	0x3dad0de1	0.08449913
92	0x3deb836f	0.11499678
93	0xbef4111e	-0.4766931
94	0x3eb573f7	0.35440037
95	0xbe2c56be	-0.16829965
96	0xbed071dd	-0.4071187
97	0x3f768c0f	0.9630746
98	0x3e5f6546	0.21815977
99	0xbd7dac0e	-0.061931662
100	0xbe7ad9cc	-0.24497145
101	0xbc02b3dd	-0.007977453
102	0x3e8ae243	0.2712575
103	0xbd8095df	-0.06278586
104	0xbf0ea926	-0.5572685
105	0xbe8b056e	-0.2715258
106	0xbee175f6	-0.4403531
107	0x3ddad3c0	0.10684919
108	0xbe40c52e	-0.18825218
109	0x3dabeed9	0.08395166
110	0xbf0415eb	-0.51595944
111	0xbc8e7d06	-0.0173936
112	0xbd31229f	-0.043245908
113	0x3e30a2a8	0.17249548
114	0x3e54a994	0.20767814
115	0x3e20fc30	0.15721202
116	0x3e8e6875	0.2781407
117	0xbf81ec19	-1.0150176
118	0xbdea898f	-0.114520185
119	0x3d4091be	0.04701399
120	0x3d3fdbd6	0.04684051
121	0xbec33697	-0.38127586
122	0xbed39e79	-0.41331843
123	0xbdde3aaf	-0.10851037
124	0x3f054a7c	0.5206678
125	0xbe963c40	-0.29342842
126	0x3e357af1	0.1772268
127	0xbd8ea288	-0.06964594
128	0x3d10307d	0.035202492
129	0x3e75df29	0.2401091
130	0x3e8bec7a	0.27328855
131	0xbef3275b	-0.47490963
132	0xbd9eade9	-0.077480145
133	0xbe295c0e	-0.16539022
134	0x3e1f1f1c	0.15539211
135	0x3eaa2609	0.33232144
136	0x3f428b24	0.7599356
137	0x3d5e453f	0.054265257
138	0x3e7786a4	0.24172455
139	0x3f053933	0.52040404
140	0xbe9f6166	-0.31128997
141	0xbe603677	-0.21895777
142	0x3eead883	0.4586831
143	0x3e1c5333	0.15266113
144	0xbdfd1a42	-0.12358524
145	0x3eedc930	0.46442556
146	0xbf28eca9	-0.65986115
147	0xbeeef011	-0.4666753
148	0xbe9cc5f7	-0.30619785
149	0xbeb97717	-0.3622367
150	0x3dc73dd8	0.09728593
151	0x3e2f7dff	0.17137907
152	0xbecd83b2	-0.40139538
153	0xbeb32238	-0.34987044
154	0xbedee0ff	-0.43531033
155	0xbfab49e9	-1.338193
156	0x3f2ab82e	0.66687286
157	0x3dc82f8d	0.097746946
158	0x3f921607	1.1412972
159	0x3f619773	0.8812172
160	0xbe4fe423	-0.20301871
161	0xbd5dcdfa	-0.054151513
162	0xbefbaa89	-0.49153545
163	0x3f374f05	0.7160495
164	0x3f30a9e1	0.69009215
165	0xbe93c4b5	-0.28861013
166	0x3e8e62c1	0.27809718
167	0x3e96534f	0.29360434
168	0xbe8ef2be	-0.27919573
169	0xbe0eac3d	-0.13932891
170	0x3df8a1fd	0.12140272
171	0x3e0346c6	0.12819967
172	0xbb81c81e	-0.0039606234
173	0xbf04eae6	-0.51920927
174	0xbec267da	-0.37969857
175	0x3b3970b3	0.0028295934
176	0xbe17e9a9	-0.14835228
177	0xbe76a497	-0.24086224
178	0x3f00a6eb	0.50254697
179	0x3ef7b881	0.48382953
180	0xbd18598c	-0.037194774
181	0xbed5c1b1	-0.41749337
182	0xbc30cfa7	-0.010791696
183	0x3f54a5b6	0.83065355
184	0xbebf3355	-0.3734385
185	0x3e728ba2	0.23686078
186	0xbd1451a7	-0.036210682
187	0x3f11b188	0.56911516
188	0x3f12c7e2	0.57336247
189	0xbfa22943	-1.2668842
190	0x3f29dad4	0.6634953
191	0x3dfee2f9	0.12445635
192	0x3e36feab	0.17870586
193	0xbe24a5da	-0.16078892
194	0xbe8daea8	-0.27672315
195	0x3ea3aeef	0.319694
196	0xbf305626	-0.6888145
197	0x3fa2e121	1.2724954
198	0xbd4d82d7	-0.050173607
199	0x3e8e4c29	0.2779248
200	0x3db8d8c4	0.0902572
201	0xbe9ac7e5	-0.30230632
202	0x3e3b3b46	0.1828433
203	0x3f2d29e1	0.6764203
204	0x3e3c9811	0.18417384
205	0x3e8e049b	0.2773789
206	0xbcbb0609	-0.022830026
207	0x3ecb4993	0.3970457
208	0xbe2fd67e	-0.17171666
209	0x3f0a9a01	0.5414124
210	0x3e67a2a4	0.22620636
211	0x3f24b2de	0.6433543
212	0xbde681f1	-0.11255253
213	0xbb1a67f6	-0.00235605
214	0x3ee58a81	0.44832233
215	0xbde5ab6d	-0.112143375
216	0x3e751ccf	0.23936771
217	0xbddd939f	-0.10819172
218	0xbf0b4951	-0.54408747
219	0xbee6279a	-0.4495209
220	0x3e647557	0.22310387
221	0x3e47e3f3	0.1952055
222	0xbd5fc282	-0.054628856
223	0xbf7b0b7c	-0.980644
224	0xbe7f2bdd	-0.24919076
225	0xbe59e72a	-0.21279588
226	0x3eefa67c	0.46806705
227	0x3ea2ac02	0.31771857
228	0x3d3b8c6a	0.045788206
229	0x3e183e83	0.14867596
230	0x3dce5529	0.10074837
231	0x3f38a154	0.7212117
232	0x3f0f4b8b	0.55974644
233	0x3e582640	0.21108341
234	0x3f23532d	0.6379879
235	0x3f8b7357	1.0894574
236	0x3f2da834	0.6783478
237	0xbe51f48b	-0.20503442
238	0xbe5377c5	-0.20651157
239	0x3da57801	0.080795296
240	0x3e5c1838	0.21493614
241	0xbeb58ade	-0.3545751
242	0x3dcdfd4f	0.100580804
243	0xbf6f2c19	-0.9342666
244	0xbedfad98	-0.4368713
245	0xbf91f3ad	-1.1402489
246	0xbf5e1217	-0.8674635
247	0xbe115e61	-0.14196159
248	0x3eb6e824	0.35723984
249	0xbf58ed8d	-0.84737474
250	0xbcecd92c	-0.02891215
251	0x3e8c4ded	0.27403203
252	0x3f18c618	0.5967727
253	0xbee77307	-0.45204946
254	0xbf6fbc41	-0.9364663
255	0x3e1e144f	0.15437435

network_body._body_endoder.seq_layers.2.bias f4 [256]
0	0x3c068d6d	0.0082124295
1	0x3e036ca9	0.1283442
2	0x3a094c34	0.00052374904
3	0xbdcc7802	-0.09983827
4	0xbdf37e3c	-0.11889312
5	0xbdaecf4d	-0.08535633
6	0x3b914220	0.0044329315
7	0xbcddf622	-0.027094904
8	0x3d962c59	0.073326774
9	0x3d52490c	0.051339194
10	0x3cc7a2f2	0.02436969
11	0x3deb5ff1	0.11492909
12	0x3dd79740	0.105268955
13	0x3cfb5087	0.030678047
14	0x3d267e3c	0.04064773
15	0x3d0aca8f	0.03388458
16	0x3dc63f32	0.09680022
17	0xbddc4ccf	-0.107568376
18	0xbd0168f2	-0.031594224
19	0xbdf6d6a1	-0.12052656
20	0xbc01719f	-0.007900625
21	0xbd7c5f72	-0.06161446
22	0x3d63928a	0.055559672
23	0x3deba29c	0.11505625
24	0x3cf28440	0.029604077
25	0x3d1b4074	0.037903264
26	0x3cddc4c8	0.027071372
27	0x3cf86715	0.03032259
28	0x3daa2e46	0.08309607
29	0x3d4eb1b6	0.050462447
30	0xbcd85f0f	-0.026412515
31	0xbbd697bd	-0.0065488503
32	0x3da9d5ca	0.0829273
33	0x3d559dfb	0.052152615
34	0xbcf28c8f	-0.02960804
35	0xbd2534a0	-0.04033339
36	0x3c545db6	0.012961796
37	0xbda68a65	-0.081318654
38	0x3e19f102	0.15033343
39	0x3c60714c	0.013698887
40	0x3bf9d173	0.0076238452
41	0xbde7427a	-0.11291976
42	0x3c644555	0.013932546
43	0x3bf1e89b	0.007382465
44	0xbdfb2259	-0.12262411
45	0x3d2f554c	0.042805955
46	0xbc61913e	-0.013767539
47	0x3d8fe740	0.07026529
48	0xbdade6a0	-0.08491254
49	0x3d30080d	0.042976428
50	0xbdd1b176	-0.10238926
51	0xbce41ea9	-0.027846651
52	0x3c8e2268	0.01735039
53	0xbd059e88	-0.03262189
54	0xbd5492a4	-0.05189766
55	0xbc5080f8	-0.012726061
56	0xbcba36f2	-0.022731278
57	0xbce1783a	-0.027523149
58	0x3d1cf270	0.038317144
59	0x3d3f6a39	0.04673216
60	0xbcb093af	-0.021554796
61	0x3dd6d6f3	0.10490217
62	0x3cdbed3e	0.026846524
63	0x3ca55c83	0.020185715
64	0xbb553d1b	-0.0032537642
65	0x3ce08d29	0.02741106
66	0xbd0dcaeb	-0.034617346
67	0x3de2adf3	0.110683344
68	0x3c073aa9	0.008253732
69	0x3ce46c3f	0.027883647
70	0xbd7f2a8e	-0.062296443
71	0x3d72865a	0.05921016
72	0x3dde1f6d	0.10845838
73	0x3db740fe	0.08947943
74	0xbe0a87a6	-0.13528308
75	0xbe060059	-0.1308607
76	0x3da30fb9	0.07961983
77	0xbd29538d	-0.041339446
78	0x3d691709	0.056906734
79	0xbc322220	-0.010872394
80	0xbcedd57c	-0.029032461
81	0x3d30d40d	0.043170977
82	0x3d266f8e	0.04063373
83	0x3b81edb4	0.003965104
84	0x3d14c867	0.03632393
85	0x3d39674b	0.045264523
86	0x3d576d0d	0.052594233
87	0xbac2f097	-0.0014872727
88	0xbb6703ab	-0.003524999
89	0xbbd26f3d	-0.006421952
90	0x3ca57dd0	0.020201594
91	0x3d9ab607	0.0755425
92	0xbcae6aef	-0.021291224
93	0x3d8820d3	0.06646886
94	0xbc487c83	-0.012236717
95	0x3dabeb1a	0.083944514
96	0x3d0a8971	0.03382248
97	0x3cd82daf	0.026388971
98	0xbcc7706a	-0.024345595
99	0x3ce816cd	0.028331185
100	0x3d9360b8	0.07196182
101	0x3dcd54ac	0.100259155
102	0xbdb99fdb	-0.09063693
103	0x3d3a816a	0.045533575
104	0x3df707a2	0.12062003
105	0x3d9cafc9	0.07650716
106	0x3dd26c24	0.102745324
107	0x3d21a651	0.039465252
108	0x3bd2bae2	0.0064309696
109	0xbcc82066	-0.024429511
110	0x3d5b6fad	0.0535733
111	0x3ccb0ab5	0.024785379
112	0xbc4237c5	-0.011854117
113	0x3ceb6ff5	0.028739909
114	0xbde1870b	-0.110120855
115	0x3c9ed627	0.019389225
116	0x3de05d59	0.10955305
117	0x3ce27c8a	0.027647275
118	0x3bdad937	0.006678726
119	0xbcc34642	-0.023837212
120	0xbcd7c1fc	-0.026337616
121	0xbd807354	-0.06271997
122	0x3db1f75d	0.08689759
123	0x3d2a2dd8	0.041547626
124	0x3dcc6e51	0.09981979
125	0xbdf3439b	-0.11878129
126	0x3cf47ee3	0.02984566
127	0xbbb7deb6	-0.005611266
128	0xbc89753e	-0.016779538
129	0xbb6d1373	-0.0036174923
130	0x3d7a8f71	0.061171953
131	0xbcc7e161	-0.024399461
132	0x3d22ca0c	0.03974347
133	0xbc763ba7	-0.015028871
134	0x3b8c5777	0.0042828876
135	0x3d6abfad	0.057311703
136	0x3dfbdcae	0.12297951
137	0x3cb83eb2	0.022490833
138	0xbc3cd03d	-0.011524257
139	0xbdfa8dce	-0.12234078
140	0x3c6ee345	0.0145805525
141	0xbcbe82bf	-0.023255704
142	0x3c6a0b10	0.014284864
143	0xbc280060	-0.010253996
144	0xbd1b11fa	-0.03785894
145	0x3c1eb206	0.009685999
146	0x3bee80e6	0.0072785495
147	0x3d89bdd9	0.06725664
148	0xbbfc344f	-0.0076966654
149	0xbd150ab8	-0.036387175
150	0x3d4f1d6b	0.050565165
151	0x3d856d86	0.065150306
152	0x3cc9d943	0.024639731
153	0xbab3dfe1	-0.0013723337
154	0xbd313dbb	-0.04327176
155	0x3c6f5cd6	0.014609536
156	0x3cfc0261	0.030762853
157	0x3d039d10	0.03213221
158	0xbd18e368	-0.037326247
159	0x3d895c77	0.067070894
160	0x3d932b79	0.07186026
161	0x3d7f47ba	0.062324263
162	0x3b14c2a1	0.0022699016
163	0x3df080d7	0.11743324
164	0x3c96ba79	0.018399464
165	0x3d4bd655	0.04976495
166	0xbdcf2efb	-0.10116383
167	0xbb8fb421	-0.0043854867
168	0x3cb6222e	0.022233095
169	0xbda6b31c	-0.08139631
170	0x3d83150c	0.06400499
171	0x3dd8183c	0.10551497
172	0x3d570aa7	0.052500393
173	0xbe13f9ec	-0.14450806
174	0x3d981e79	0.07427687
175	0xbd5f4ea8	-0.05451837
176	0xbc8bcb69	-0.017064767
177	0x3d816807	0.0631867
178	0x3c9db659	0.01925199
179	0x3d69b092	0.057053156
180	0xbe08e96a	-0.1337029
181	0x3dd5fb05	0.10448269
182	0xbcddc400	-0.027071
183	0x3d8404a8	0.064462006
184	0xbc83af63	-0.016074842
185	0x3d635435	0.055500228
186	0x3c242264	0.010017965
187	0x3d9bf741	0.07615519
188	0xbd2f8434	-0.042850688
189	0x3ca024d4	0.019548811
190	0x3a51c6af	0.00080023234
191	0x3cfb0a37	0.03064452
192	0xbc33b5c0	-0.010968626
193	0x3c78bf51	0.015182332
194	0xbddfe36f	-0.109320514
195	0xbceec730	-0.029147714
196	0xbd73b3c2	-0.059497602
197	0x3d96a000	0.07354736
198	0xbcb02f63	-0.02150697
199	0x3bf0ef12	0.007352718
200	0x3d2ce290	0.042208254
201	0x3d9cc8d0	0.076554894
202	0xbd136156	-0.0359815
203	0x3d1a37ea	0.03765098
204	0x3c2fa294	0.010719914
205	0x3dc47c4b	0.095940195
206	0xbde5d44c	-0.11222133
207	0x3d7be1f3	0.06149478
208	0xbb276883	-0.0025544472
209	0x3c0b3744	0.008497063
210	0xbde35be0	-0.11101508
211	0x3b0b5b13	0.0021264001
212	0x3d97d52b	0.074137054
213	0x3ccb7819	0.02483754
214	0xbbc969cf	-0.0061466466
215	0x3cd95d61	0.026533784
216	0x3ce6f0f6	0.028191071
217	0xbc9ed5e2	-0.019389097
218	0x3dd9f926	0.106432244
219	0x3cd50f33	0.026008224
220	0x3d8dd07d	0.069245316
221	0x3d8c597d	0.06853006
222	0xbd72aad5	-0.05924495
223	0xbdd150f7	-0.10220521
224	0xbc28d490	-0.010304585
225	0xbdf31015	-0.11868302
226	0xbd6386d2	-0.055548497
227	0xbdfa2960	-0.12214923
228	0x3c9c4480	0.019075632
229	0x3d10c119	0.035340402
230	0xbbe508a7	-0.006989557
231	0xbd608be8	-0.054820925
232	0xbdfb247d	-0.12262819
233	0x3d1a7e04	0.037717834
234	0xbcaf0e67	-0.021369172
235	0xbd7bc475	-0.061466653
236	0x3d14f833	0.036369514
237	0x3e01d116	0.12677416
238	0x3c48c58a	0.012254128
239	0xbcca1676	-0.024668913
240	0xbd5e0a8c	-0.054209277
241	0x3d1c078f	0.038093146
242	0xbe02420a	-0.12720504
243	0xbd884521	-0.0665381
244	0xbdedc298	-0.116093814
245	0xbd094457	-0.03351244
246	0xbe1151ee	-0.1419141
247	0x3d5a407f	0.053284165
248	0xbc2cc5ba	-0.010545189
249	0x3c0617f5	0.008184423
250	0x3b740da0	0.0037239566
251	0x3cd2a6d2	0.025714312
252	0x3d8aa733	0.06770172
253	0x3de48e5a	0.11159964
254	0xbdb51c59	-0.088432975
255	0x3bb5c512	0.0055471743

network_body._body_endoder.seq_layers.2.weight f4 [256, 256]
0	0xbccc077a	-0.024905909
1	0x3cc1cde8	0.023657754
2	0xbdcbd9fa	-0.09953685
3	0xbca75755	-0.020427385
4	0xbd7026f4	-0.0586309
5	0x3a1d2a01	0.0005995334
6	0xbd3055dd	-0.043050636
7	0xbbdfd8d0	-0.006831266
8	0x3d2cfc84	0.042233005
9	0xbcb3957f	-0.021921871
10	0x3c9cbeb1	0.019133897
11	0x3da06ebf	0.07833623
12	0x3d1f3354	0.03886731
13	0x3cb4f7e0	0.022090852
14	0x3d41793d	0.047234762
15	0xba4c90e4	-0.0007803573
16	0xbc5ce6cb	-0.01348276
17	0xbd2b94f8	-0.041890115
18	0xbcada26b	-0.021195611
19	0xbcc68ba3	-0.024236506
20	0x3def44a3	0.11683013
21	0xbd7d60a3	-0.061859738
22	0xbd7a1dec	-0.061063692
23	0xbbc98f39	-0.0061511067
24	0xbd913d8d	-0.07091818
25	0x3ccb5df1	0.024825068
26	0xbcc28771	-0.023746224
27	0x3c454a9e	0.012041716
28	0x3b88b5e4	0.0041720737
29	0x3dd80950	0.10548651
30	0x3c9666db	0.018359592
31	0xbc756973	-0.014978754
32	0x3ca097cc	0.019603632
33	0xbd9a2c9e	-0.07528041
34	0xbd9822c5	-0.07428507
35	0xbe200cb7	-0.1562985
36	0x3d25c810	0.040473998
37	0x3d72b7e9	0.05925742
38	0xbcfa7d80	-0.030577421
39	0xbad88f8a	-0.001652227
40	0x3d260044	0.040527597
41	0x3db045fb	0.08607098
42	0x3d39e886	0.045387767
43	0xbd0e55b8	-0.034749717
44	0xbcc721d1	-0.024308117
45	0xbd684f42	-0.05671621
46	0x3de7a114	0.1131002
47	0xbd8bd086	-0.06826882
48	0xbdaf6a4b	-0.08565196
49	0x3da0f907	0.07859998
50	0x3c92cb1f	0.017919121
51	0x3cde40bf	0.027130483
52	0xbcb41dc7	-0.021986855
53	0xbd27c96e	-0.040963583
54	0xbd775778	-0.06038615
55	0x3c346443	0.011010232
56	0x3d37f82e	0.044914417
57	0x3d62b217	0.05534562
58	0x3b4d6748	0.0031342078
59	0x3d1a9ea6	0.037748955
60	0x3d8c6363	0.06854894
61	0xbbdb37d7	-0.0066900062
62	0xbb211dfb	-0.002458452
63	0x3da2c391	0.079474576
64	0xbdccea9b	-0.10005685
65	0xbd61415a	-0.054993965
66	0xbd830621	-0.06397653
67	0xbe675a4f	-0.22593044
68	0xbcc69969	-0.024243074
69	0xbe06c0a2	-0.13159421
70	0xbb1cdf6d	-0.0023936883
71	0x3da591a9	0.08084423
72	0xbdbd2cd9	-0.0923707
73	0x3d2d1673	0.042257737
74	0x3e09d2f4	0.13459378
75	0x3da26a91	0.07930482
76	0xbccbac89	-0.024862545
77	0x3cfe642f	0.03105363
78	0x3d107fb8	0.035278052
79	0x3d8a90da	0.067659095
80	0xbd8236dd	-0.063581206
81	0xbc84dccf	-0.016218571
82	0xbd356fec	-0.04429619
83	0x3d6ab2dc	0.05729948
84	0x3ce25a78	0.02763103
85	0x3df9cc90	0.1219722
86	0x3c6db7c0	0.014509141
87	0xbd7a2f80	-0.061080456
88	0xbd9274ed	-0.07151208
89	0x3c5a6169	0.013328888
90	0x3dc970fd	0.09836004
91	0xbbe1d810	-0.0068922117
92	0xbd37a463	-0.044834506
93	0xbd8b3110	-0.06796467
94	0xbdd3d1fc	-0.10342786
95	0x3dbcf5da	0.0922658
96	0x3d86d756	0.06584041
97	0x3bfa2efa	0.0076349946
98	0x3e03dcaa	0.12877145
99	0xbe3cd838	-0.18441856
100	0x3d815c39	0.06316418
101	0x3cfb8f8e	0.0307081
102	0x3e22ed2a	0.15910783
103	0xbdb6600e	-0.0890504
104	0x3db67ffb	0.08911129
105	0xbdc94899	-0.098283
106	0x3df06586	0.11738114
107	0x3cd39a56	0.025830429
108	0xbdd768e6	-0.10518055
109	0xbcd2bf65	-0.02572603
110	0xbdb0ad9d	-0.08626864
111	0x3da797c5	0.081832446
112	0xbcbd58bf	-0.023113606
113	0xbce866d2	-0.028369341
114	0xbd0bf297	-0.0341669
115	0x3bd3dc8f	0.0064655016
116	0xbc93147d	-0.017954106
117	0xbd303c8f	-0.043026503
118	0xbcae1196	-0.02124862
119	0x3b641037	0.0034799704
120	0x3d566b70	0.052348554
121	0x3d02ac2f	0.03190249
122	0x3b68c513	0.0035517856
123	0x3dd98f5d	0.106230475
124	0xbc98aeec	-0.018638097
125	0xbd025e4c	-0.03182821
126	0x3d96d769	0.07365305
127	0x3cdfe9dd	0.027333194
128	0x3c27db4b	0.010245155
129	0x3d8c81c0	0.06860685
130	0x3c36e7c7	0.011163658
131	0x3db1d737	0.08683627
132	0x3d2643eb	0.040592115
133	0xbde2c654	-0.11072984
134	0x3d711a10	0.058862746
135	0xbda9b00e	-0.08285533
136	0xbd919123	-0.07107761
137	0xbda83437	-0.08213084
138	0x3e0a84d9	0.1352724
139	0xbd0726d6	-0.03299602
140	0x3d04d811	0.03243262
141	0x3cda4d56	0.026648205
142	0x3d1152fb	0.035479527
143	0xbe29b093	-0.16571264
144	0xbc9a0a95	-0.018803874
145	0xbc73c47f	-0.014878391
146	0xbc99d4cd	-0.01877823
147	0x3db0e6a7	0.086377434
148	0x3dbebc29	0.093132325
149	0xbc222f14	-0.00989892
150	0xbda7136e	-0.08158003
151	0x3d83726a	0.06418307
152	0xbd7cc3f3	-0.06171031
153	0xbcb390de	-0.021919664
154	0xbd6cc0ce	-0.05780106
155	0xbdc273b2	-0.094947234
156	0x3cba4d36	0.022741895
157	0x3d638378	0.0555453
158	0xbdaa1480	-0.08304691
159	0xbc26d76f	-0.010183199
160	0xbdaa8616	-0.08326356
161	0xbde3fdca	-0.11132391
162	0xbd2e0f44	-0.042495027
163	0x3d656c82	0.056011684
164	0x3db3c1db	0.08777209
165	0x3dc5b8c8	0.09654385
166	0x3ddeb40f	0.10874187
167	0x3dc46b81	0.09590817
168	0xbd936c72	-0.07198419
169	0x3d2508eb	0.040291708
170	0xbdd89125	-0.10574559
171	0x3d35833f	0.04431462
172	0x3c8e5923	0.017376488
173	0x3df6b56c	0.12046322
174	0x3bc36b74	0.005963737
175	0xbcebe0ea	-0.02879377
176	0x3dd9a4db	0.10627147
177	0x3d59b6a3	0.05315269
178	0xbe063a0a	-0.13108078
179	0x3be43f2e	0.0069655394
180	0xbdaf4b43	-0.08559277
181	0xbc1292d1	-0.008946137
182	0x3d1a5132	0.03767509
183	0xbdc9ea12	-0.098590985
184	0x39fe3c05	0.00048491373
185	0xbc9dd8d3	-0.019268429
186	0xbb604eac	-0.003422658
187	0x3df31770	0.11869705
188	0x3dbc836d	0.09204755
189	0xbcc3fb7a	-0.023923624
190	0xbd68d9eb	-0.056848448
191	0xbd186887	-0.03720906
192	0x3c62fb96	0.013853928
193	0xb978ae1f	-0.00023715988
194	0xbc9a102a	-0.018806536
195	0x3a6eef1a	0.00091146084
196	0x3d9477b6	0.072493955
197	0x3cb2fbe6	0.02184863
198	0x3d7710bb	0.06031869
199	0x3d2088a0	0.039192796
200	0x3d9c57fb	0.076339684
201	0x3d0c54da	0.03426061
202	0x3bfd09ef	0.0077221314
203	0x3c98d894	0.01865796
204	0x3c64891b	0.013948704
205	0x3c838ec4	0.016059287
206	0xbd996687	-0.07490259
207	0x3c973fa2	0.01846296
208	0x3e1f2987	0.15543185
209	0xbd81853e	-0.06324242
210	0x3d5da78e	0.05411487
211	0x3d37928a	0.044817485
212	0x3df196d1	0.11796344
213	0x3d175556	0.036946617
214	0xbd32058c	-0.04346232
215	0xbd4f0161	-0.050538424
216	0x3d6d73b0	0.057971656
217	0x3dcb2f96	0.09921186
218	0x3d8ac469	0.067757435
219	0xbe2ef3e2	-0.17085221
220	0x3e087d52	0.13329056
221	0x3c6e9db4	0.014563967
222	0xbda11e62	-0.07867123
223	0x3d467e84	0.0484605
224	0xbe2ff7ba	-0.17184344
225	0xbd9db72b	-0.07700952
226	0xbd9ce3ba	-0.07660623
227	0x3d80a746	0.06281905
228	0x3e045211	0.12921931
229	0x3d6b0d6f	0.05738586
230	0x3d1c064e	0.03809195
231	0x3c161808	0.009161003
232	0x3d92657d	0.071482636
233	0x3c272395	0.0102013545
234	0x3cc6c7ec	0.024265252
235	0xbd237317	-0.03990468
236	0xbaf868fe	-0.0018952189
237	0xbd9e71da	-0.07736559
238	0x3d29789f	0.0413748
239	0x3d99da81	0.075123794
240	0x3d1cb553	0.03825886
241	0x3d4d56d7	0.050131645
242	0x3dfc6d59	0.12325544
243	0x3d9ef0a7	0.077607445
244	0xbacc76c3	-0.0015599359
245	0x3b8c4219	0.0042803404
246	0xbd8db5f4	-0.069194704
247	0x3c84773f	0.016170142
248	0x3d7b2dae	0.06132286
249	0xbd6a63d9	-0.05722413
250	0x3d3dc711	0.046332423
251	0xbdb77d3d	-0.08959434
252	0xbdfda749	-0.12385423
253	0xbcdd7d7c	-0.027037375
254	0xbd9abc84	-0.07555488
255	0xbddd48dc	-0.108049124

network_body._body_endoder.seq_layers.4.bias f4 [256]
0	0x3cc77d06	0.024351608
1	0xbba533d9	-0.005041581
2	0xbd6fca75	-0.058542687
3	0x3d132c4e	0.035930924
4	0xbc92995e	-0.017895397
5	0x3d517d19	0.051144693
6	0x3d87577c	0.06608483
7	0x3e079045	0.13238628
8	0x3da208cc	0.07911834
9	0x3d0a553b	0.03377269
10	0xbc612d85	-0.013743763
11	0xbd072039	-0.032989714
12	0x3a6b5cf7	0.00089783914
13	0x3d2c27e4	0.04203023
14	0xbd2af831	-0.0417406
15	0x3c68e6b9	0.014215165
16	0x3b1a89fe	0.0023580785
17	0x3d4ffa5b	0.050775867
18	0x3da8b256	0.0823714
19	0x3d7759e0	0.060388446
20	0x3e15a54b	0.14613836
21	0x3d93c5af	0.072154395
22	0xbab2b124	-0.0013633114
23	0xbcb5cfa6	-0.022193741
24	0x3d79cf17	0.060988512
25	0x3d6397a8	0.055564553
26	0x3d0cd53e	0.03438305
27	0x3ddc5bd0	0.10759699
28	0xbc47d7c4	-0.012197439
29	0x3d37d114	0.044877127
30	0x3c39d72d	0.011342806
31	0xbd0b6cc5	-0.034039278
32	0x3d757975	0.059930284
33	0xbcfba5b0	-0.030718654
34	0x3c45a6cd	0.012063694
35	0xbb8b1e3d	-0.004245548
36	0x3dff0a96	0.12453191
37	0xbd4174da	-0.04723058
38	0x3cdc114f	0.026863722
39	0xbcd57481	-0.02605653
40	0x3c8fc675	0.017550686
41	0x3c5d8044	0.01351935
42	0x3ddfdc02	0.10930635
43	0x3d42f181	0.047593597
44	0x3d6bab1d	0.057536233
45	0x3dd71d9d	0.10503695
46	0x3dc4c3c5	0.096076526
47	0xbc387c9e	-0.01126018
48	0x3de82627	0.11335402
49	0xbd1fa1d0	-0.038972676
50	0x3be74202	0.0070574293
51	0x3d542f26	0.051802777
52	0x3d4a94c2	0.049458273
53	0xbcdf11cb	-0.027230164
54	0x3e1c3a69	0.15256657
55	0x3d2cd9e2	0.042199977
56	0x3d8acf80	0.06777859
57	0xbd97c1c6	-0.07410006
58	0xbc988179	-0.018616425
59	0xbd0c1a9c	-0.034205064
60	0xbc2e1abe	-0.010626493
61	0x3c3c0b36	0.011477282
62	0xbba96a00	-0.005170107
63	0x3d1842db	0.037173133
64	0xbd4a8dea	-0.049451746
65	0x3ccd9803	0.025096899
66	0xbd50ca51	-0.050974194
67	0x3c9e11b8	0.019295558
68	0x3cf50671	0.029910298
69	0x3de747ab	0.112929665
70	0x3d869afc	0.0657253
71	0xbd005086	-0.031326793
72	0xbb839755	-0.004015843
73	0x3d304d38	0.04304239
74	0x3d443874	0.0479054
75	0x3d71b9f4	0.05901523
76	0x3c30ba26	0.010786569
77	0x3c04e43e	0.008111058
78	0x3d26500a	0.040603675
79	0x3c392cf4	0.011302222
80	0x3cffc2da	0.031220842
81	0x3c57bad4	0.013167102
82	0x3c5ba51b	0.013406063
83	0x3bf26e0a	0.0073983716
84	0x3dba9a26	0.09111433
85	0xbd5517a2	-0.05202449
86	0xbcf4ccbb	-0.02988278
87	0x3d7f3c8f	0.062313613
88	0x3a313851	0.0006760406
89	0xbd976050	-0.07391417
90	0x3d71688b	0.05893759
91	0xbcf97748	-0.030452386
92	0x3cb5de39	0.02220069
93	0xbd93feb1	-0.07226313
94	0x3cba5906	0.022747528
95	0x3dbbee3e	0.091763005
96	0x3db50b90	0.08840096
97	0x3d3af9c2	0.045648344
98	0x3d2c2b82	0.04203368
99	0xbd2e5175	-0.042558152
100	0x3c2a978f	0.010412111
101	0xbc803231	-0.015648933
102	0xbb87c484	-0.0041432995
103	0xbd1b9591	-0.037984435
104	0x3d1f7945	0.03893401
105	0x3d882f1f	0.06649613
106	0x3c330931	0.010927484
107	0xbd06a2f0	-0.032870233
108	0x3daa1b37	0.08305972
109	0x3bdab169	0.006673981
110	0xbcde0363	-0.027101224
111	0x3c35e910	0.01110293
112	0x3d7fe3fc	0.062473282
113	0x3c470051	0.0121460715
114	0x3cbb6d25	0.022879193
115	0xbc784ca6	-0.015154993
116	0x3c8bccaf	0.017065374
117	0x3babf46e	0.005247644
118	0x3d342588	0.043981105
119	0x3d9e8ada	0.077413276
120	0x3c8c97a4	0.017162152
121	0x3bf409f5	0.007447476
122	0xbd648eae	-0.055800132
123	0xbd87de77	-0.06634229
124	0xbd440445	-0.047855634
125	0x3b112247	0.0022145675
126	0x3b223119	0.0024748503
127	0xbd68b0f8	-0.056809396
128	0x3d26761e	0.04063999
129	0x3ddbc9bf	0.107318394
130	0xbd97fbbe	-0.07421063
131	0xbc9ca48d	-0.019121433
132	0xbd4b4fb6	-0.049636565
133	0x3dd42d11	0.10360158
134	0xbc3cedc1	-0.011531294
135	0x3cb0d3dc	0.021585397
136	0x3c2aa150	0.010414436
137	0xbd8694ca	-0.06571348
138	0x3d1cd210	0.03828627
139	0xba8f9d29	-0.0010956872
140	0x3d0f4eb3	0.034987163
141	0x3c77d574	0.015126575
142	0x3cabb568	0.020960525
143	0xbb6904b9	-0.0035555793
144	0xbc1c3e6e	-0.009536369
145	0x3ddf519a	0.10904236
146	0xbc492d24	-0.012278829
147	0xbbb25ca2	-0.0054431716
148	0xbd7c11f2	-0.06154055
149	0x3caf9053	0.021431124
150	0xbd4e6b1c	-0.050395116
151	0x3d1b2b5a	0.03788314
152	0x3e0770bc	0.13226599
153	0xbd254773	-0.040351342
154	0x3d82f7ae	0.063948974
155	0x3cde3d70	0.027128905
156	0x3d46724a	0.04844884
157	0xbd3cc9fb	-0.04609106
158	0x3d261983	0.040551674
159	0x3c11a69e	0.008889822
160	0x3bdefb17	0.0068048346
161	0x3d2939b0	0.04131478
162	0x3c3c296a	0.011484483
163	0x3d6fbdc8	0.0585306
164	0x3b506958	0.003180107
165	0xbd53d554	-0.051717117
166	0x3d57f48a	0.052723445
167	0xbbe93cbb	-0.0071178353
168	0xbd36997d	-0.04457997
169	0xbc7a803a	-0.015289361
170	0x3d55dfe3	0.05221547
171	0xbbe5dd76	-0.0070149256
172	0x3dfdc429	0.1239093
173	0x3d4e98f7	0.050438847
174	0x3d11c5ca	0.035589017
175	0x3d5d4513	0.054020952
176	0xbb2b2ca5	-0.002611914
177	0x3c389e34	0.011268187
178	0x3ae31407	0.0017324694
179	0xbd49d43a	-0.04927466
180	0x3da42f8a	0.0801688
181	0x3e08b51e	0.1335034
182	0x3d80db10	0.06291783
183	0x3dbe8595	0.093028225
184	0x3e0bc87c	0.13650697
185	0x3cab01d2	0.020874891
186	0x3e0d7273	0.1381319
187	0x3d80db83	0.062918685
188	0xba8b1725	-0.0010611756
189	0xbc0105dd	-0.007874933
190	0xbc42254a	-0.011849711
191	0xbd4d28aa	-0.05008761
192	0x3d6103b2	0.054935165
193	0x3c8577fd	0.016292566
194	0x3d3bb6ec	0.045828745
195	0xbd2255d8	-0.03963265
196	0x3d1832b3	0.037157726
197	0x3cdbb4d0	0.026819617
198	0xbd5665fe	-0.05234336
199	0xbc23e363	-0.010002944
200	0x3d64913d	0.055802573
201	0x3d5ef0b4	0.05442877
202	0x3cab52fd	0.020913595
203	0xbd1378d5	-0.036003906
204	0x3d26e943	0.0407498
205	0x3d4d90d7	0.05018696
206	0xbb2c207c	-0.002626448
207	0x3cee44ee	0.029085603
208	0x3d0b431c	0.033999547
209	0x3d1f3f85	0.038878936
210	0x3dd8c759	0.105848975
211	0xbc62b055	-0.013835986
212	0x3cfe112a	0.031014044
213	0xbbe7bc29	-0.007071991
214	0x3c91a421	0.017778458
215	0x3dbf51bd	0.09341762
216	0x3cfe1523	0.031015938
217	0x3d12ed82	0.035871036
218	0x3ce7a933	0.028278923
219	0x3b6cc3b5	0.0036127393
220	0x3c72cfe4	0.014820073
221	0x3b695433	0.0035603165
222	0xbd3eb050	-0.046554863
223	0x3da32911	0.07966817
224	0xbd8dc406	-0.06922154
225	0xbcf11667	-0.029429628
226	0xbd81afb1	-0.063323386
227	0xbd89104b	-0.06692561
228	0xbc525279	-0.012837046
229	0x3cb46659	0.02202146
230	0xbba6dad7	-0.0050920057
231	0xbd887267	-0.066624455
232	0x3d35a14e	0.044343285
233	0x3d9711bb	0.07376429
234	0xbbb93b41	-0.0056528156
235	0x3df1e1fb	0.118106805
236	0x3d8f60c4	0.070008785
237	0x3c4ed88e	0.012624873
238	0x3d22a164	0.039704695
239	0x3b0dc81b	0.0021634165
240	0x3da3a72e	0.07990871
241	0x3dbbf7d5	0.091781296
242	0x3ddabbc8	0.10680348
243	0x3dd50cfe	0.10402869
244	0xbd31818f	-0.043336447
245	0xbd31108d	-0.043228675
246	0x3c7f7d2f	0.015593811
247	0xbd0efce0	-0.03490913
248	0xbd3d52f5	-0.046221692
249	0xbd96e548	-0.07367951
250	0x3c0e902a	0.008701364
251	0x3dc2567b	0.09489151
252	0xbd0f866a	-0.035040297
253	0x3d86bfed	0.06579576
254	0xbcb2e83b	-0.021839252
255	0xbd8c66ec	-0.06855568

network_body._body_endoder.seq_layers.4.weight f4 [256, 256]
0	0xbd383b3a	-0.044978358
1	0x3daa1883	0.083054565
2	0xbd8da3df	-0.069160216
3	0x3bfc9356	0.0077079935
4	0x3d05e42a	0.032688297
5	0xbd31370a	-0.04326538
6	0x3bc66547	0.0060545537
7	0x3de84a7e	0.11342333
8	0xbca482f9	-0.020081984
9	0xbd97637f	-0.07392024
10	0xbdb162aa	-0.08661397
11	0x3d596434	0.053074077
12	0xbbdc587e	-0.0067244163
13	0xbcc8c610	-0.024508506
14	0xbdf6ef36	-0.120573446
15	0xbd84a5ed	-0.0647696
16	0xbc553d58	-0.013015114
17	0x3ce44817	0.027866406
18	0xbc2f5f3c	-0.010703858
19	0x3d91257a	0.07087226
20	0x3e089a31	0.1334007
21	0xbd45d35a	-0.048297264
22	0xbcc7f46b	-0.02440854
23	0xbde97e20	-0.114010096
24	0x3e1b77c7	0.1518241
25	0xbd8e33d8	-0.06943482
26	0xbcb528a1	-0.0221141
27	0xbda4459a	-0.08021088
28	0x3df82f91	0.121184476
29	0xbd4aa9bf	-0.04947829
30	0x3d8edf2a	0.06976159
31	0xbdffaf3b	-0.124845944
32	0xbd3847ce	-0.044990353
33	0xbcf4a0bb	-0.029861799
34	0xbe1cfd63	-0.15331034
35	0xb9f5c6e7	-0.00046878235
36	0xbcf4e1bd	-0.029892797
37	0x3d1e18d7	0.038597908
38	0xbd223810	-0.039604247
39	0xbcf98d79	-0.030462967
40	0x3da7dd10	0.08196461
41	0x3da7e655	0.08198229
42	0x3c783f6e	0.015151842
43	0xbd01b9f6	-0.031671487
44	0x3dd5d656	0.10441272
45	0xbd730349	-0.059329305
46	0xbd273960	-0.0408262
47	0x3984b08f	0.00025308548
48	0x3d261964	0.040551558
49	0x3d453aa1	0.048151616
50	0x3d8be421	0.068306215
51	0xbd59db77	-0.053187814
52	0xbdc5a791	-0.096511014
53	0xbba1a8d6	-0.004933457
54	0x3d344f56	0.044020973
55	0x3da704f9	0.08155245
56	0xbd5ad4df	-0.053425666
57	0xbd339422	-0.043842442
58	0x3d41dde3	0.04733075
59	0x3c0618b1	0.008184598
60	0xbd8104b9	-0.06299729
61	0x3cb120b9	0.021622049
62	0xbdac5bb0	-0.084159255
63	0xbae5f89e	-0.0017545407
64	0xbdfb9d75	-0.12285892
65	0xbd1bd440	-0.038044214
66	0xbe214c5e	-0.15751788
67	0xbb5cae15	-0.0033673097
68	0xbd539191	-0.051652495
69	0x3c47826e	0.012177093
70	0x3d29f69e	0.041494958
71	0xbcd733dd	-0.026269848
72	0x3b27a6c9	0.002558159
73	0xbc9adaca	-0.018903155
74	0x3e05ceee	0.13067219
75	0x3bb16213	0.0054133027
76	0x3c1dd4b1	0.009633229
77	0xbe09d92a	-0.13461748
78	0x3ab8b267	0.0014091254
79	0x3dc0fc90	0.094231725
80	0x3d9d8b64	0.07692602
81	0x3ce8d63d	0.02842247
82	0xbd77fe94	-0.06054552
83	0x3ced421d	0.02896219
84	0xbd4e1874	-0.05031629
85	0x3b9363a2	0.004497961
86	0x3d38880a	0.045051612
87	0xbd795e6b	-0.06088106
88	0xbd8ae1a7	-0.06781321
89	0x3ce9dcce	0.02854767
90	0x3d4caa18	0.0499669
91	0x3d9b2cac	0.0757688
92	0xbd5540d7	-0.05206379
93	0x3e051989	0.12998022
94	0xbbe37d6c	-0.0069424417
95	0x3dfd85b5	0.12379018
96	0xbda04283	-0.07825186
97	0x3e1132ac	0.14179486
98	0x3dcc2b84	0.099692374
99	0x3dbf8292	0.09351076
100	0x3e20ab27	0.1569029
101	0x3dcbdc6c	0.099541515
102	0x3df4aaf1	0.11946667
103	0x3e16ab39	0.14713754
104	0x3e1b2758	0.15151727
105	0xbdbae9a2	-0.09126593
106	0x3df43e1c	0.11925909
107	0xbd2432b0	-0.040087402
108	0x3d2edf29	0.04269329
109	0x3b3254a9	0.0027211106
110	0xbe07ee0f	-0.13274406
111	0xbdb7089c	-0.08937189
112	0xbcde526a	-0.027138907
113	0xbd603bac	-0.054744408
114	0x3dcc56aa	0.09977467
115	0xbd316b6e	-0.043315344
116	0xbd1a998c	-0.03774409
117	0xbcb3ddb4	-0.021956302
118	0xbdcb4524	-0.09925297
119	0xbd9015af	-0.07035386
120	0xbbb4161f	-0.005495801
121	0x3debe9b4	0.11519185
122	0xbd9abd4a	-0.07555635
123	0xbe1b3f3d	-0.15160842
124	0x3d42c53e	0.047551386
125	0xbbd9c82b	-0.0066461763
126	0x3e0cd203	0.13751988
127	0x3d93eea4	0.072232515
128	0xbe339502	-0.1753731
129	0xbd644977	-0.055734124
130	0xbda9cc37	-0.08290904
131	0xbcb9c7c6	-0.022678267
132	0xbd7bbb5a	-0.06145797
133	0x3c4277b8	0.0118693635
134	0x3e09a6d5	0.13442548
135	0xbd039399	-0.032123182
136	0x3bdb2c04	0.0066885967
137	0xbcc133cb	-0.023584267
138	0xbdfb5032	-0.122711554
139	0xbd0fadb3	-0.03507776
140	0xbd909e15	-0.07061402
141	0xbda0bf7e	-0.07849024
142	0x3d37b401	0.0448494
143	0x3d2dd144	0.0424359
144	0xbdb3e39e	-0.08783649
145	0xbd157500	-0.036488533
146	0xbd203ffa	-0.039123513
147	0x3d85a906	0.06526379
148	0x3c85340d	0.016260171
149	0xbd10b8f9	-0.035332654
150	0x3c1fde6c	0.009757619
151	0x3dbb25e4	0.091380864
152	0x3d391809	0.045188937
153	0xbd6199a6	-0.05507817
154	0xbe4cd140	-0.20001698
155	0x3dc958b0	0.09831369
156	0x3d61f0de	0.05516135
157	0xbd4d5bb6	-0.05013629
158	0xbd344e81	-0.04402018
159	0x3df3ddc4	0.11907533
160	0x3d34e8cd	0.04416733
161	0xbd3c7725	-0.046012063
162	0xbd733305	-0.059374828
163	0xbd239212	-0.039934225
164	0xbe0b3e44	-0.13597971
165	0xbe3fd5bd	-0.18733878
166	0xbcb05e01	-0.0215292
167	0x3d5ef58d	0.054433394
168	0x3cc77788	0.02434899
169	0xbdbc52fc	-0.091955155
170	0xbdafa5f6	-0.085765764
171	0x3c8d9ab0	0.017285675
172	0x3d653a12	0.055963583
173	0xbcff7691	-0.031184467
174	0x3c3959cb	0.011312912
175	0xbde5e8a4	-0.11226013
176	0xbbd2960b	-0.006426578
177	0xbda46a27	-0.080280595
178	0x3dd048fa	0.10170169
179	0x3d0fa96e	0.03507369
180	0xbd4e148a	-0.050312556
181	0x3d37c403	0.044864666
182	0xbd803c6a	-0.06261523
183	0xbe2fab1e	-0.1715512
184	0x3d38b5c5	0.045095224
185	0xbc81ff2a	-0.015868742
186	0x3da57109	0.080782
187	0x3dc609a5	0.09669808
188	0x3d04d9b0	0.032434165
189	0xbbdfc284	-0.006828608
190	0x3d199ecc	0.037504956
191	0xbd770476	-0.06030699
192	0xbc5cf39d	-0.013485816
193	0xbdac42f4	-0.08411208
194	0x3d093d36	0.03350564
195	0x3d15d4f2	0.036580034
196	0xbcf429d2	-0.029805098
197	0x3c3ab3fa	0.011395449
198	0xbd9a7aae	-0.075429305
199	0xbdf91086	-0.12161355
200	0xbded0105	-0.1157246
201	0x3dede3c1	0.11615706
202	0xbd74b3d8	-0.059741825
203	0x3ca3e83a	0.020008195
204	0xbae7ff1b	-0.0017699929
205	0xbd359dba	-0.044339873
206	0xbd44ffea	-0.04809562
207	0x3a978342	0.0011559504
208	0xbe042e5c	-0.1290831
209	0xbd9bbc48	-0.07604271
210	0x3e04ca77	0.12967859
211	0x3df936a1	0.12168623
212	0x3daba36b	0.08380779
213	0x3dbc7983	0.09202864
214	0xbda0881a	-0.07838459
215	0x3c3f1d7c	0.0116647445
216	0xbca61514	-0.020273723
217	0x3dbd5140	0.09244013
218	0x3ce5b484	0.028040178
219	0xbc42ba5e	-0.011885254
220	0xbc3e68af	-0.011621638
221	0x3c76b1bc	0.015057024
222	0x3ded36c8	0.11582714
223	0xbcee6b75	-0.029103974
224	0x3d61f109	0.05516151
225	0xbd41dc0a	-0.047328986
226	0x3d04e700	0.03244686
227	0xbdeab6c8	-0.11460644
228	0x3d9a29b0	0.075274825
229	0xbb45bf7d	-0.003017395
230	0x3bfda646	0.0077407686
231	0xbd1deb8a	-0.038554706
232	0x3c5aee13	0.013362425
233	0xbd8b5714	-0.06803718
234	0xbd54f9a4	-0.05199589
235	0xbd5ade02	-0.05343438
236	0xbe4d9b9d	-0.20078893
237	0x3cc6a98e	0.024250772
238	0xbd9e9bd9	-0.07744569
239	0x3d5d1197	0.053971853
240	0x3df76083	0.12078955
241	0xbd0fefeb	-0.035140913
242	0x3d85dcc3	0.065362476
243	0x3dbab084	0.09115699
244	0x3c5bd146	0.013416594
245	0x3d873e58	0.06603688
246	0xbe5d53e6	-0.21614036
247	0x3da11d33	0.078668974
248	0x3d3783d7	0.044803467
249	0xbe13862e	-0.14406654
250	0x3c81f226	0.015862536
251	0x3d9d013c	0.07666251
252	0xbc5c90d7	-0.013462267
253	0x3d961dc1	0.07329894
254	0xbd85fb67	-0.06542092
255	0x3d932b2c	0.07185969

network_body.observation_encoder.processors.0.normalizer.running_mean f4 [6]
0	0xc16d357f	-14.825561
1	0x41cba38d	25.454859
2	0xc1d1cfd9	-26.226488
3	0xc2011f4d	-32.280567
4	0x3fb331c3	1.3999561
5	0xc28e50de	-71.15794
