Assets/Training/results/learn_v1_2/MarsTaxi.onnx (onnx, 542464 bytes, 10 tensors)

54 f4 [6]
14.411499 16.907864 8.804128 0.024839 0.0013217882 0.054725382
00000000: 8095 6641 4e43 8741 b5dd 0c41 297b cb3c
00000010: da3f ad3a b927 603d

action_model._discrete_distribution.branches.0.bias f4 [6]
0.034420464 0.0152883725 -0.0062229773 -0.038598087 -0.016982663 0.004921107
00000000: 79fc 0c3d 157c 7a3c 1eea cbbb 0719 1ebd
00000010: 3a1f 8bbc 3d41 a13b

action_model._discrete_distribution.branches.0.weight f4 [6, 256]
0.012610481 0.023763845 -0.0077154473 0.007407117 0.0042108414 -0.03257216 -0.03645003 0.012239744
-0.009116878 -0.08600185 0.007829921 4.3734024e-05 0.0008919218 -0.028414225 0.0042643975 0.011825302
-0.006004928 -0.012847753 0.0064158174 -0.04077686 0.0098491525 -0.046488132 -0.019073373 -0.043454852
-0.029194292 -0.073596746 -0.00974851 -0.046552114 0.03249902 -0.05009948 0.012847279 0.0037040408
0.0012266083 -0.04048725 0.032525647 0.028126763 -0.009546961 -0.017038668 -0.050051667 0.011480099
-0.0033133335 -0.011060239 0.024451744 -0.04230774 0.01187109 -0.0008351335 -0.0017616833 -0.013838774
-0.03395173 0.0073628365 -0.028286569 -0.075611606 -0.022101419 0.024229353 -0.034482133 0.006415811
-0.06591914 0.018789804 0.008617963 0.002776743 0.013348403 0.0043912893 -0.032038823 -0.0081686815
-0.067129984 -0.02037389 0.011430681 -0.00929422 -0.05786091 0.008081803 -0.0031629307 0.023619829
0.022284007 0.0057415087 -0.0035529365 -0.012632526 -0.035965893 0.003368656 -0.0034549176 0.026945243
0.020374093 0.009061228 -0.03893066 0.009785107 0.016491078 -0.04233016 0.017536584 -0.051857438
0.027031641 0.010127325 -0.032184407 -0.014328214 0.0016852886 0.011056635 -0.002860217 0.010826636
0.027059792 -0.038932774 0.0007525264 -0.033859838 -0.004862666 0.0012577267 0.012889646 0.016482154
-0.02959745 0.0071366564 0.025642114 0.0036886511 0.017250163 -0.0036135167 0.0049478826 0.024415538
-0.025664458 -0.014434168 -0.007750734 0.016346874 0.014916889 0.00433709 0.00040565917 0.021303205
-0.0012980998 0.011951543 -0.034147374 0.009797152 0.020846926 0.023640648 0.023053275 0.027087249
0.010875098 0.031011254 -0.018034808 0.014500117 -0.002899575 -0.0449675 -0.019072112 -0.004975957
-0.010451758 0.013994067 -0.055906832 0.009378626 0.004705162 -0.028499164 0.025966974 0.03481717
0.003828471 -0.0048114727 0.016576815 0.014767449 -0.03114362 -0.056363244 -0.014511375 -0.032457918
-0.005921825 -0.04972258 0.01943887 -0.021454498 -0.010104955 0.014551946 0.022817966 0.028521592
-0.02738639 0.004135525 -0.040334113 -0.056369197 -0.010852615 -0.07599211 0.027441515 -0.0012826631
-0.071479104 -0.023805218 -0.009702095 0.011119726 -0.017306868 0.023887925 0.023720153 0.01076187
-0.012712515 -0.00069717347 -0.034033712 -0.019736726 0.015520327 -0.059533935 -0.0006548824 0.03369777
0.01723624 -0.04603419 0.0051892516 -0.009577316 -0.057711966 -0.019215193 -0.008650775 0.004518516
-0.010124713 -0.03647028 -0.006160073 0.016396495 -0.0614448 0.00021775963 -0.06317322 0.024051115
-0.03414784 0.016018296 0.006449365 -0.025323285 -0.037382793 -0.0035377585 0.0014467834 -0.046970826
-0.0078110453 0.008819469 0.013974775 0.016975526 -0.016382338 -0.015302904 -0.030858442 0.009424277
-0.01607126 -0.0036002556 -0.018292613 0.017937314 -0.012147039 -0.015502972 -0.0037457848 -0.031342052
-0.00502162 0.0019350757 0.015120605 -0.0021197638 0.009765316 -0.03785215 0.016110647 0.0043543726
0.01318869 -0.046066854 -0.05783949 -0.06296087 0.0130161345 -0.002970377 -0.081382155 -0.04451944
-0.08288282 0.023118021 0.03478155 0.004803163 -0.00096355856 0.018597435 0.008153973 -0.028120233
0.0028563403 0.037515268 0.003809943 0.0014802106 -0.04429438 -0.0020748375 -0.0020398146 -0.04913199
00000000: 319c 4e3c 65ac c23c ddd1 fcbb 67b7 f23b
00000010: 19fb 893b 636a 05bd a04c 15bd 3589 483c
00000020: f55e 15bc bd21 b0bd 1249 003c 0d6f 3738
00000030: dccf 693a f3c4 e8bc 5cbc 8b3b e9be 413c
00000040: fdc4 c4bb 627f 52bc c73b d23b a305 27bd
00000050: 575e 213c 576a 3ebd c33f 9cbc b7fd 31bd
00000060: de28 efbc e4b9 96bd 37b8 1fbc 6ead 3ebd
00000070: b11d 053d 1d35 4dbd 657d 523c 7ebf 723b
00000080: 25c6 a03a f5d5 25bd 9d39 053d 196a e63c
00000090: db6a 1cbc ad94 8bbc fa02 4dbd 0617 3c3c
000000a0: 8324 59bb 0136 35bc 064f c83c e14a 2dbd
000000b0: f67e 423c dcec 5aba 48e8 e6ba 06bc 62bc
000000c0: f810 0bbd f343 f13b 3cb9 e7bc 42da 9abd
000000d0: 090e b5bc a37c c63c 233d 0dbd b93b d23b
000000e0: 9d00 87bd 13ed 993c 5b32 0d3c 04fa 353b
000000f0: 43b3 5a3c cee4 8f3b 243b 03bd efd5 05bc
00000100: 727b 89bd 25e7 a6bc c047 3b3c c946 18bc
00000110: 90ff 6cbd 8a69 043c 2c49 4fbb 5f7e c13c
00000120: f38c b63c 4423 bc3b 62d8 68bb a8f8 4ebc
00000130: f950 13bd abc4 5c3b e66b 62bb 45bc dc3c
00000140: 92e7 a63c 8b75 143c c175 1fbd b751 203c
00000150: 4c18 873c 6462 2dbd e2a8 8f3c 7768 54bd
00000160: 7671 dd3c 14ed 253c ccd3 03bd e3c0 6abc
00000170: e7e4 dc3a e326 353c 7a72 3bbb 3462 313c
00000180: 7fac dd3c f977 1fbd 3145 453a 9db0 0abd
00000190: 0057 9fbb 4eda a43a 182f 533c 9505 873c
000001a0: 5a76 f2bc 9dda e93b 690f d23c 4cbd 713b
000001b0: 3750 8d3c c0d0 6cbb d921 a23b 1803 c83c
000001c0: 453e d2bc 4a7d 6cbc dff9 fdbb e1e9 853c
000001d0: f865 743c 261e 8e3b a7ae d439 0f84 ae3c
000001e0: 0025 aaba 68d0 433c 1ede 0bbd 3c84 203c
000001f0: 2cc7 aa3c 08aa c13c 39da bc3c 14e6 dd3c
00000200: 782d 323c 500b fe3c bcbd 93bc e691 6d3c
00000210: cc06 3ebb d72f 38bd 1e3d 9cbc 5a0d a3bb
00000220: da3d 2bbc 5f47 653c 90fe 64bd cfa8 193c
00000230: c22d 9a3b 1477 e9bc b1b8 d43c 739c 0e3d
00000240: 16e7 7a3b 8fa9 9dbb 1acc 873c 2cf3 713c
00000250: e820 ffbc 25dd 66bd 1ec1 6dbc 98f2 04bd
00000260: de0b c2bb e7a9 4bbd 443e 9f3c 58c1 afbc
00000270: 418f 25bc 496b 6e3c beec ba3c 1da6 e93c
00000280: 6c59 e0bc 4c83 873b 6235 25bd 63e3 66bd
00000290: 2bcf 31bc c0a1 9bbd 07cd e03c 081f a8ba
000002a0: a363 92bd 2903 c3bc 89f5 1ebc 832f 363c
000002b0: 22c7 8dbc 9cb0 c33c c450 c23c 8e52 303c
000002c0: 2748 50bc 85c2 36ba ef66 0bbd eaae a1bc
000002d0: f848 7e3c dbd9 73bd 6aac 2bba ac06 0a3d
000002e0: 0433 8d3c 598e 3cbd 990a aa3b 2dea 1cbc
000002f0: 6263 6cbd 2e69 9dbc fbbb 0dbc 0f10 943b
00000300: 20e2 25bc dc61 15bd 70da c9bb f151 863c
00000310: 8bad 7bbd 6856 6439 f660 81bd d806 c53c
00000320: 9bde 0bbd cd38 833c 3255 d33b c772 cfbc
00000330: b31e 19bd bdd9 67bb ffa1 bd3a 7b64 40bd
00000340: ccf3 ffbb 897f 103c 74f6 643c 4210 8b3c
00000350: 4134 86bc 08b9 7abc d8ca fcbc 4868 1a3c
00000360: e0a7 83bc 44f2 6bbb 64da 95bc 46f1 923c
00000370: 6004 47bc 2d00 7ebc d77b 75bb 8660 00bd
00000380: 678c a4bb 5ea2 fd3a 6abc 773c bceb 0abb
00000390: b4fe 1f3c db0a 1bbd 7afa 833c 20af 8e3b
000003a0: 6015 583c 99b0 3cbd 1ae9 6cbd a1f1 80bd
000003b0: a041 553c a8aa 42bb b0ab a6bd 045a 36bd
000003c0: 78be a9bd 0162 bd3c 1977 0e3d da63 9d3b
000003d0: 5297 7cba a659 983c 3e98 053c 675c e6bc
000003e0: 7031 3b3b 9ca9 193d 3db0 793b a003 c23a
000003f0: 066e 35bd fff9 07bb 69ae 05bb a03e 49bd

network_body._body_endoder.seq_layers.0.bias f4 [256]
-0.011140585 0.07780698 0.0810768 0.061713114 0.022774205 0.061354328 0.07450409 0.06439738
0.079837166 0.006275623 0.06256596 0.04343957 -0.0011032524 0.049942933 0.07131232 0.028911825
-0.066288 0.017168973 0.06563901 0.07376836 -0.03712272 0.06543112 -0.052002244 0.059340246
0.046193432 0.028672956 -0.036848582 0.011566062 0.033823334 -0.01965628 0.049374428 -0.014003283
0.04786306 0.03272704 0.057965357 -0.008383192 0.05199981 -0.065879576 0.06729187 0.07747534
0.038245685 0.05859566 0.05009634 0.05395122 -0.047491 0.055817395 -0.060067724 0.009330293
-0.0743114 0.020915808 0.076318234 0.07764179 0.013674865 0.037839957 0.049381495 -0.051627126
0.03509566 0.08591352 0.06840045 0.072547495 0.08795526 -0.0034454765 0.078812435 0.060195934
-0.047462907 0.056068048 0.043876983 0.044341423 0.0836745 -0.03441635 0.07068382 0.072718464
0.066903055 0.019110404 0.07888074 0.07135301 0.017915359 0.042221077 0.0878447 0.016249182
0.05704075 0.07375783 0.071578644 0.07260644 0.08589161 0.07483926 0.043460347 -0.025251238
0.07918937 0.07432687 -0.055680856 -0.023994284 0.06903916 -0.005922397 0.08002411 0.076768495
0.06937114 0.08546616 0.019539904 0.06726654 0.031052485 0.07529125 0.029217849 0.05138816
0.027017787 0.051342696 0.050485227 -0.009927118 0.051485818 0.06315891 0.0732236 0.033227567
0.007856863 0.07345644 0.06452348 -0.021724183 0.023126794 0.059079863 -0.056341205 0.045828734
-0.01072201 0.07931189 0.082329 0.012161567 0.05902024 0.015477262 0.034947794 0.024725458
0.03347348 0.081282124 0.08430805 0.06813541 -0.010396067 0.03865879 -0.050100517 0.0017178332
0.06483063 0.06338413 0.060287397 0.060771808 0.031027285 0.04546839 0.04838335 0.050087832
0.07156428 0.05556209 0.0190615 -0.00034219393 0.02554936 0.06258009 -0.032187983 -0.019001149
0.051121306 0.061062932 -0.0058741667 0.05762651 0.07796646 -0.015630106 0.06172089 -0.027488524
0.07572994 0.059606537 0.07032427 0.052627 0.011449747 0.06539651 -0.055156503 0.058378648
0.04820677 0.08203905 0.012585129 -0.036535837 0.032746512 0.04050084 0.09105863 0.040903352
0.0060510854 0.05652776 0.06818078 0.085919775 0.010529958 0.052856546 0.039220236 0.060540814
0.0022466036 0.082134314 0.05305855 0.056350328 0.059824105 0.08465016 0.021754516 0.06643979
0.06203778 -0.033164773 0.05686351 0.074027605 0.06685275 0.08057923 0.07236203 0.014854036
-0.04137923 0.06449403 0.062253352 -0.055900306 0.07830249 0.02991289 -0.060294494 0.06077102
-0.025432082 0.08971345 0.05995452 0.04962518 0.0803086 0.041968606 0.038496044 -0.028200865
0.07608964 -0.05237677 0.08538624 0.07059498 0.07197232 0.057720345 0.072794184 0.022228764
0.04765591 0.08131008 -0.0011379113 -0.013912522 0.07667493 0.0337311 0.071629904 0.084782876
0.05491675 0.036264136 0.055207312 0.076179445 0.029251963 -0.04669196 0.06997129 -0.061411187
-0.0058405823 0.08031142 0.08239903 0.065922946 -0.008121922 0.038375918 0.032592252 0.03980812
-0.055246025 0.058637876 0.055858094 0.037831422 0.050928064 0.055444933 0.048141737 0.029123258
00000000: 0087 36bc 4459 9f3d 980b a63d e4c6 7c3d
00000010: f890 ba3c ad4e 7b3d 9a95 983d c6e2 833d
00000020: ab81 a33d bea3 cd3b 9522 803d b1ed 313d
00000030: 029b 90ba f690 4c3d 320c 923d 7ed8 ec3c
00000040: 01c2 87bd f2a5 8c3c bf6d 863d de13 973d
00000050: fe0d 18bd c000 863d 4e00 55bd c20e 733d
00000060: 5335 3d3d 8ce3 ea3c 8aee 16bd 957f 3d3c
00000070: 568a 0a3d 3506 a1bc d73c 4a3d 076e 65bc
00000080: 0e0c 443d ca0c 063d 156d 6d3d a859 09bc
00000090: c1fd 543d dfeb 86bd 52d0 893d 64ab 9e3d
000000a0: 82a7 1c3d 0102 703d d231 4d3d f4fb 5c3d
000000b0: ec85 42bd c8a0 643d 9309 76bd 16de 183c
000000c0: 9330 98bd a157 ab3c bc4c 9c3d a902 9f3d
000000d0: 8a0c 603c 12fe 1a3d 4044 4a3d f776 53bd
000000e0: 77c0 0f3d 6df3 af3d 8915 8c3d c893 943d
000000f0: e321 b43d 81cd 61bb 6a68 a13d 0390 763d
00000100: 7768 42bd 9ca7 653d 5ab8 333d 5a9f 353d
00000110: 895d ab3d 29f8 0cbd aec2 903d 6bed 943d
00000120: 7804 893d 6c8d 9c3c 3a8c a13d 8721 923d
00000130: 3bc3 923c 02f0 2c3d ece7 b33d 011d 853c
00000140: 90a3 693d 580e 973d d397 923d afb2 943d
00000150: f1e7 af3d 5345 993d 7a03 323d afdb cebc
00000160: 092e a23d b038 983d 9c11 64bd a98f c4bc
00000170: 6764 8d3d ab10 c2bb aee3 a33d cd38 9d3d
00000180: 7512 8e3d e208 af3d 2612 a03c 0ac3 893d
00000190: c861 fe3c 4d32 9a3d 455a ef3c 647c 523d
000001a0: 6854 dd3c b84c 523d 99c9 4e3d 5aa5 22bc
000001b0: cbe2 523d 7559 813d 41f6 953d a119 083d
000001c0: 12ba 003c 5470 963d e324 843d eaf6 b1bc
000001d0: 6774 bd3c bafd 713d 09c6 66bd e9b6 3b3d
000001e0: 5fab 2fbc 466e a23d 1b9c a83d 4f41 473c
000001f0: 35bf 713d 5894 7d3c 6b25 0f3d 0b8d ca3c
00000200: 7d1b 093d 3e77 a63d b3a9 ac3d 948a 8b3d
00000210: 4454 2abc ae58 1e3d 3336 4dbd eb28 e13a
00000220: ecc5 843d 8acf 813d ebef 763d dceb 783d
00000230: ef2c fe3c 103d 3a3d 9f2d 463d e628 4d3d
00000240: 4b90 923d 1395 633d dd26 9c3c 7e68 b3b9
00000250: e44c d13c fd29 803d 8cd7 03bd 4ca8 9bbc
00000260: 9364 513d 201d 7a3d 157c c0bb c609 6c3d
00000270: e1ac 9f3d b50a 80bc 0bcf 7c3d 9d2f e1bc
00000280: 4c18 9b3d fc25 743d 2c06 903d 698f 573d
00000290: b897 3b3c 9bee 853d c9eb 61bd 731e 6f3d
000002a0: 7674 453d 1704 a83d db31 4e3c 9aa6 15bd
000002b0: 3521 063d 35e4 253d f27c ba3d 468a 273d
000002c0: 2f48 c63b a789 673d 5da2 8b3d b5f6 af3d
000002d0: d885 2c3c 1b80 583d 66a5 203d a5f9 773d
000002e0: c13b 133b 0936 a83d ec53 593d 9acf 663d
000002f0: 1f0a 753d 105d ad3d 8736 b23c 9611 883d
00000300: 541b 7e3d c9d7 07bd b6e9 683d c99b 973d
00000310: 18ea 883d b906 a53d 8b32 943d 585e 733c
00000320: 447d 29bd 7215 843d 5ffd 7e3d b8f7 64bd
00000330: 0e5d a03d e10b f53c 5cf7 76bd 08eb 783d
00000340: f156 d0bc afbb b73d df92 753d c643 4b3d
00000350: d678 a43d 46e7 2b3d 07ae 1d3d 8005 e7bc
00000360: e3d4 9b3d 0689 56bd fbde ae3d 1a94 903d
00000370: 3966 933d 2b6c 6c3d 1e15 953d 1919 b63c
00000380: d832 433d e685 a63d f825 95ba 59f1 63bc
00000390: bf07 9d3d 9f29 0a3d b3b2 923d a5a2 ad3d
000003a0: 63f0 603d b489 143d 1021 623d f803 9c3d
000003b0: d0a1 ef3c 1240 3fbd 1c4d 8f3d 4c8a 7bbd
000003c0: 5b62 bfbb 507a a43d d3c0 a83d 9c02 873d
000003d0: cf11 05bc 1130 1d3d 747f 053d d70d 233d
000003e0: a849 62bd 452e 703d 75cb 643d 1ff5 1a3d
000003f0: f299 503d 3a1a 633d 4530 453d e693 ee3c

network_body._body_endoder.seq_layers.0.weight f4 [256, 6]
-0.71711063 -0.10665009 -0.035226144 -0.18942448 -0.27107272 -0.002728273 0.24208875 0.4282242
-0.32969636 -0.19088036 -0.83205324 -0.36355194 0.4501366 0.44577467 -0.18503876 0.17762905
0.3292437 -0.47695437 0.100651965 0.110493615 -0.49410132 -0.4713028 0.8460883 0.40950423
-0.1035377 -0.26928195 0.06363315 0.029353172 -0.09160357 -0.06540064 -0.37256518 0.061211497
-0.002288496 -0.6936018 0.16108684 0.33575657 -0.353216 0.32561436 -0.3315494 -0.5335165
0.20780037 -0.44849834 -1.1646918 0.2090122 -0.12314852 0.10394069 -0.75531423 1.0885817
0.9547174 0.24873185 -0.42599148 0.50587183 0.07255721 -0.9583844 0.24098065 0.19581904
-0.20369653 -0.25117916 -0.34341294 0.32157806 -0.43420118 0.22094125 -1.0468098 0.14398052
-0.4446637 -0.3733638 0.3921682 0.002886723 -0.15155111 -1.1499794 0.30052042 -1.1846575
0.42643988 -0.73109615 -0.30044088 -0.16784738 0.015007074 0.8910724 -0.22402917 0.023075124
0.86907375 -0.107770845 -0.38161078 0.12998405 0.22378571 0.12444339 0.14019571 0.0040911464
-0.568173 0.1582344 0.16246377 -0.13612305 -0.7902785 -0.04447635 0.57485026 -0.45227945
-0.15730491 0.036624227 0.18908568 -0.38905418 -0.4244571 0.036692753 0.20399587 -0.40975168
-0.38002887 0.52030295 0.13349229 -0.2540258 0.50092345 -0.035364836 0.07323114 -0.41074106
0.6085055 -0.3032999 0.08529348 0.5275669 -0.04127053 -0.16489732 0.43324783 -0.04242123
0.2668292 -0.6106647 0.058423825 -0.3793623 -0.8781711 0.61661935 1.0045865 0.16747929
0.33105716 -0.3275251 0.39236742 -0.1624408 0.22751275 0.08366208 0.08089606 0.6372912
-0.13427004 0.83454025 0.45347053 0.035849743 -0.69912773 -0.24842934 0.32132715 -0.03673373
0.25602064 -0.8126596 -0.49082285 -0.31061447 0.4986952 -0.623529 -0.6836302 -0.73514205
-0.22487383 0.22813809 0.60940886 -0.008109342 0.4754405 -0.44753483 0.28582603 -0.015965777
0.074156396 0.18477747 0.088773176 -0.22448558 0.46099913 0.4041949 -0.33111504 0.420554
0.16896425 0.20847833 0.5839748 0.24093275 -0.22528446 0.28579155 0.16229601 -0.76224667
0.12160105 0.25389102 0.17485249 0.50672567 0.015917957 0.3373954 0.6813192 0.19489078
-0.16712582 -0.20518152 -0.17872912 -0.069894604 0.011808351 -0.05985245 -0.39262623 0.606755
-0.5342114 0.00021906124 0.24793626 -0.2180852 0.3376624 -0.3847 0.0056087165 -0.04660462
-0.13292068 0.28619665 -0.30174583 0.2512827 0.02035775 0.7480368 -0.009274069 -0.1829109
0.5674268 -0.6709875 0.38186747 -0.64708424 0.13502404 -0.5112068 0.35965177 0.46861988
-0.6349872 -0.310678 -0.64084375 0.34286916 -0.7492386 -0.29489073 0.026370963 -0.12607986
0.29287025 0.62209845 -0.1380789 0.43434817 -0.7745028 0.3720337 -0.020588595 -0.22685367
0.8192034 -0.16577756 -0.6310844 0.6452469 0.097570695 -0.2433876 0.13990524 -0.49008378
0.4708021 -0.3052981 0.29614 -0.6570214 -0.03355467 0.47734213 0.34506723 0.218566
0.4917888 0.30088562 -0.07108208 -0.34382382 -0.22904752 0.19375727 -0.7398653 -0.09231733
00000000: 9094 37bf 5d6b dabd 4a49 10bd 7ef8 41be
00000010: 0bca 8abe d3cc 32bb 1de6 773e 3440 db3e
00000020: f6cd a8be 2476 43be 7101 55bf 7b23 babe
00000030: 4e78 e63e 943c e43e cd7a 3dbe 64e4 353e
00000040: a192 a83e 5d33 f4be 9e22 ce3d 7a4a e23d
00000050: d9fa fcbe 9a4e f1be 3e99 583f 8aaa d13e
00000060: 930b d4bd 53df 89be 1952 823d 1076 f03c
00000070: a79a bbbd c5f0 85bd ddc0 bebe e8b8 7a3d
00000080: 97fa 15bb e38f 31bf f3f3 243e 49e8 ab3e
00000090: bad8 b4be edb6 a63e d8c0 a9be 8a94 08bf
000000a0: 9fc9 543e 93a1 e5be 9f14 95bf 4b07 563e
000000b0: 4b35 fcbd dbde d43d 465c 41bf a556 8b3f
000000c0: 5c68 743f 90b3 7e3e 8e1b dabe d180 013f
000000d0: e098 943d ae58 75bf a2c3 763e c984 483e
000000e0: d395 50be 8e9a 80be d2d3 afbe e1a5 a43e
000000f0: 9e4f debe 6c3e 623e ddfd 85bf a16f 133e
00000100: f6aa e3be 8a29 bfbe 45ca c83e 2d2f 3d3b
00000110: 3730 1bbe 8632 93bf d0dd 993e dba2 97bf
00000120: 5456 da3e 1e29 3bbf 63d3 99be 2fe0 2bbe
00000130: 3be0 753c 521d 643f e767 65be 0b08 bd3c
00000140: 9e7b 5e3f f6b6 dcbd 7d62 c3be 8a1a 053e
00000150: 1528 653e 2ddc fe3d 778f 0f3e 060f 863b
00000160: c973 11bf 3308 223e e75c 263e d763 0bbe
00000170: b14f 4abf d52c 36bd 6329 133f 2c91 e7be
00000180: 8a14 21be 4903 163d ad9f 413e 1c32 c7be
00000190: 7152 d9be 244b 163d 4be4 503e f9ca d1be
000001a0: 2593 c2be 9332 053f 34b2 083e ab0f 82be
000001b0: 853c 003f b8da 10bd 35fa 953d a74c d2be
000001c0: 04c7 1b3f 204a 9bbe 59ae ae3d a00e 073f
000001d0: 4a0b 29bd d8da 28be a9d2 dd3e e2c1 2dbd
000001e0: d69d 883e 8654 1cbf d24d 6f3d c63b c2be
000001f0: d2cf 60bf c4da 1d3f 4a96 803f b17f 2b3e
00000200: 5380 a93e 5fb1 a7be 62e4 c83e e256 26be
00000210: 1af9 683e 0657 ab3d d5ac a53d 8425 233f
00000220: 167e 09be 6ea4 553f 4a2d e83e 2ed7 123d
00000230: 09fa 32bf 4364 7ebe fe84 a43e 1c76 16bd
00000240: 2315 833e 760a 50bf 224d fbbe dc08 9fbe
00000250: fa54 ff3e 999f 1fbf 6402 2fbf 4532 3cbf
00000260: 5345 66be 089d 693e 3802 1c3f 0cdd 04bc
00000270: f06c f33e 4923 e5be ca57 923e a9ca 82bc
00000280: 4fdf 973d 4e36 3d3e b6ce b53d 8cdf 65be
00000290: 1408 ec3e a2f2 ce3e e987 a9be db52 d73e
000002a0: f704 2d3e 587b 553e 5f7f 153f 13b7 763e
000002b0: f8b0 66be 4553 923e ed30 263e 9922 43bf
000002c0: f909 f93d 01fe 813e 880c 333e c6b8 013f
000002d0: 6066 823c 17bf ac3e ef6a 2e3f 7391 473e
000002e0: 0823 2bbe 1b1b 52be c404 37be e724 8fbd
000002f0: d077 413c d827 75bd 4e06 c9be 4c54 1b3f
00000300: 14c2 08bf ceb3 6539 01e3 7d3e ba51 5fbe
00000310: 16e2 ac3e 66f7 c4be 53c9 b73b 7ce4 3ebd
00000320: 5c1c 08be 5e88 923e 6e7e 9abe 20a8 803e
00000330: 4cc5 a63c 577f 3f3f 44f2 17bc ff4c 3bbe
00000340: e242 113f d6c5 2bbf 2284 c33e 50a7 25bf
00000350: be43 0a3e 73de 02bf 4724 b83e f2ee ef3e
00000360: 858e 22bf 3011 9fbe 560e 24bf 8c8c af3e
00000370: 1ace 3fbf ebfb 96be eb07 d83c 141b 01be
00000380: 17f3 953e d841 1f3f 8e64 0dbe e262 de3e
00000390: d145 46bf 337b be3e 6aa9 a8bc 544c 68be
000003a0: 50b7 513f 98c1 29be bf8e 21bf e72e 253f
000003b0: 25d3 c73d 993a 79be 5243 0f3e 43ec fabe
000003c0: f90c f13e 0850 9cbe a99f 973e 8e32 28bf
000003d0: 9f70 09bd 3066 f43e a7ac b03e c4cf 5f3e
000003e0: becb fb3e ae0d 9a3e 7b93 91bd ad09 b0be
000003f0: 6f8b 6abe 4e68 463e d067 3dbf de10 bdbd

network_body._body_endoder.seq_layers.2.bias f4 [256]
-0.0035974218 -0.008372992 -0.037268814 -0.055968463 0.017567191 0.055873267 0.05398359 0.053257722
0.030774182 0.049778152 -0.007245206 0.03230102 -0.018641287 -0.027271347 -0.01716041 -0.060383875
-0.06226615 0.00857436 -0.06097025 0.023569357 0.05611711 -0.0071138716 0.038798787 -0.017987132
0.04232408 0.046549417 -0.029729446 -0.0057395166 -0.052329335 0.04671013 0.032315854 -0.04962264
-0.06445284 0.020794766 -0.058867507 0.06361917 -0.017192641 -0.0024798114 0.03656799 -0.06971269
0.05504806 0.05502074 0.024485009 0.02198814 -0.025364883 -0.050980613 -0.03791204 -0.023468256
-0.037390687 0.008829593 0.04766118 0.009322122 -0.052428886 0.051700413 -0.04635215 -0.016208807
0.054140337 0.05521988 0.039231315 -0.002011826 0.046773452 -0.025698839 -0.050536413 0.047546215
0.046946023 -0.009818456 -0.04733767 -0.023506084 -0.036543358 -0.052684177 0.022821741 -0.057059795
0.036419846 -0.012442193 -0.05840689 0.01746505 -0.06402355 0.07045386 0.05186172 -0.058849357
-0.05104858 -0.057712875 -0.030250669 0.06146406 -0.045299422 -0.023098573 0.055089775 0.0551885
0.0463524 -0.031194 0.014876662 -0.04446959 0.0087055955 0.05985228 -0.060924046 0.0345252
0.029987624 -0.013240468 0.00750185 -0.04688469 -0.060604323 -0.06420768 0.063895874 0.06469559
-0.04041137 -0.041919727 -0.023900516 -0.054949112 0.04911472 0.050937653 0.063834645 -0.011680856
0.061539654 -0.040113576 0.037088513 -0.061925847 0.04979512 0.0148303155 0.035193995 0.011358478
0.039409112 0.024580473 0.034760263 -0.056278463 0.05165358 0.053929877 -0.06929163 -0.06297764
-0.0364056 -0.009356197 -0.061548363 -0.04504332 0.030686982 0.060336344 0.016619919 0.07073671
0.06718851 0.042055283 0.05284903 0.038054727 0.04046153 -0.021451522 0.024281224 0.05506545
-0.05279401 -0.053691495 -0.0135222655 0.047620468 0.02920209 -0.04000734 0.008757056 0.026785227
-0.014454082 0.025440756 -0.045765597 0.038878098 0.06979784 0.008645275 0.07316792 0.030432088
-0.065837234 -0.043805674 -0.004225546 0.013252594 0.044034917 0.064606205 -0.0060380334 0.02008879
0.032502916 -0.015312784 -0.021465404 0.041400764 -0.016143998 -0.02713483 0.056402743 0.053091142
0.039858066 0.043308187 0.07418624 0.025963087 0.06185359 -0.014765672 -0.02843883 0.062434684
-0.029838104 0.050314724 -0.017500587 0.065948844 -0.02767416 0.053295676 -0.0056922957 -0.011840963
0.030283531 0.076690614 -0.009355117 0.05255179 -0.011407385 0.05544175 0.038947407 -0.04829436
0.025360886 -0.053463124 -0.025154835 -0.02743823 0.06348479 -0.06198935 -0.043857038 0.049822208
0.0120510245 0.07592328 0.048510615 -0.010276301 0.052514385 -0.064307496 0.053768884 0.06054856
0.05553446 -0.046119165 -0.06049315 0.07950543 -0.00044270727 0.03350249 0.061398495 0.048836794
-0.031703345 -0.044689655 -0.07056748 0.036488336 -0.053379904 0.0138061885 0.04397791 0.06662021
0.022987248 -0.03752076 0.043829724 0.04756793 -0.065438814 0.036902748 0.02797846 -0.056131955
0.058390222 0.051176157 0.04972869 -0.027312504 -0.055935316 0.076807015 0.052438185 0.018454138
-0.06053776 0.04852384 0.051300272 -0.06707881 0.00938408 -0.009735629 -0.00075034983 0.05352686
00000000: b9c2 6bbb e02e 09bc 2fa7 18bd 303f 65bd
00000010: 12e9 8f3c 5edb 643d e61d 5d3d c524 5a3d
00000020: 231a fc3c 2de4 4b3d 3169 edbb 134e 043d
00000030: 9db5 98bc 2968 dfbc fd93 8cbc 1555 77bd
00000040: ca0a 7fbd 797b 0c3c f1bb 79bd 8614 c13c
00000050: 0edb 653d 7b1b e9bb 7aeb 1e3d c059 93bc
00000060: 045c 2d3d 9aaa 3e3d 2b8b f3bc 8e12 bcbb
00000070: 4957 56bd 1f53 3f3d a15d 043d 1c41 4bbd
00000080: daff 83bd c959 aa3c 0e1f 71bd c44a 823d
00000090: 95d7 8cbc 5584 22bb 51c8 153d 87c5 8ebd
000000a0: 137a 613d 6d5d 613d c994 c83c 7920 b43c
000000b0: 04ca cfbc 0cd1 50bd a849 1bbd 8040 c0bc
000000c0: fa26 19bd ffa9 103c 5f38 433d d0bb 183c
000000d0: acbf 56bd d0c3 533d c1db 3dbd 55c8 84bc
000000e0: 42c2 5d3d 3e2e 623d 04b1 203d d7d8 03bb
000000f0: 8595 3f3d 5f86 d2bc 45ff 4ebd d2bf 423d
00000100: 794a 403d 97dd 20bc 25e5 41bd d58f c0bc
00000110: 7dae 15bd 5dcb 57bd a9f4 ba3c 88b7 69bd
00000120: fa2c 153d 57da 4bbc 103c 6fbd dd12 8f3c
00000130: c71e 83bd 1d4a 903d f46c 543d 060c 71bd
00000140: 5118 51bd 5664 6cbd 40d0 f7bc bdc1 7b3d
00000150: e38b 39bd 3839 bdbc d1a5 613d 560d 623d
00000160: 04dc 3d3d 8f8a ffbc 3ebd 733c bf25 36bd
00000170: eaa1 0e3c aa27 753d 7e8b 79bd 4c6a 0d3d
00000180: 9ba8 f53c 8cee 58bc 14d2 f53b 290a 40bd
00000190: 3d3c 78bd 517f 83bd d7db 823d 1f7f 843d
000001a0: 6586 25bd 05b4 2bbd 04cb c3bc 5212 61bd
000001b0: 842c 493d 00a4 503d bdbb 823d 1061 3fbc
000001c0: 0111 7c3d 224e 24bd 20ea 173d f5a5 7dbd
000001d0: f8f5 4b3d dafa 723c 9427 103d e918 3a3c
000001e0: 736b 213d fd5c c93c c760 0e3d 3f84 66bd
000001f0: b492 533d 93e5 5c3d c5e8 8dbd 6cfa 80bd
00000200: 0a1e 15bd bc4a 19bc 231a 7cbd 587f 38bd
00000210: 4463 fb3c 3e23 773d 7f26 883c 69de 903d
00000220: 219a 893d 2942 2c3d 3978 583d 46df 1b3d
00000230: fdba 253d 1abb afbc 6be9 c63c 4f8c 613d
00000240: 883e 58bd 9deb 5bbd 7e8c 5dbc ae0d 433d
00000250: 3939 ef3c bdde 23bd c179 0f3c b16c db3c
00000260: d0d0 6cbc 2269 d03c b574 3bbd a43e 1f3d
00000270: 2cf2 8e3d e9a4 0d3c 10d9 953d b74c f93c
00000280: acd5 86bd 946d 33bd 7376 8abb 6821 593c
00000290: f55d 343d 4250 843d b2da c5bb 3f91 a43c
000002a0: c721 053d 79e2 7abc 37d8 afbc d993 293d
000002b0: 6b40 84bc dd49 debc 9006 673d 1976 593d
000002c0: 3642 233d ed63 313d f5ee 973d 8ab0 d43c
000002d0: 315a 7d3d b8eb 71bc 8df8 e8bc 83bb 7f3d
000002e0: 0a6f f4bc d016 4e3d 645d 8fbc 3010 873d
000002f0: ecb4 e2bc 914c 5a3d 7086 babb 9900 42bc
00000300: 2b15 f83c f80f 9d3d 3446 19bc 8c40 573d
00000310: 0ae6 3abc e316 633d 5187 1f3d 4fd0 45bd
00000320: a2c1 cf3c 26fc 5abd 8311 cebc 24c6 e0bc
00000330: 5004 823d 8be8 7dbd 70a3 33bd 5f12 4c3d
00000340: a971 453c aa7d 9b3d 11b3 463d ee5d 28bc
00000350: 5319 573d a6b3 83bd c33c 5c3d c401 783d
00000360: 1a78 633d 73e7 3cbd aac7 77bd bed3 a23d
00000370: 2a1b e8b9 e839 093d fd7c 7b3d 1709 483d
00000380: 5edb 01bd 800c 37bd af85 90bd cb74 153d
00000390: e3a4 5abd 5a33 623c 2e22 343d 2d70 883d
000003a0: c14f bc3c 5eaf 19bd cc86 333d 97d6 423d
000003b0: c904 86bd 5627 173d 1533 e53c 9fea 65bd
000003c0: 962a 6f3d 179e 513d 50b0 4b3d 79be dfbc
000003d0: 6e1c 65bd ff4c 9d3d 6cc9 563d 222d 973c
000003e0: 71f6 77bd efc0 463d 3c20 523d 9d60 89bd
000003f0: afbf 193c 3082 1fbc 20b3 44ba fb3e 5b3d

network_body._body_endoder.seq_layers.2.weight f4 [256, 256]
-0.08651138 0.02640966 0.007319202 -0.03862452 -0.026821943 -0.009964168 -0.014654441 -0.09433299
0.066100724 0.019343007 -0.042199288 0.06368496 -0.0059433808 -0.036228348 -0.0771727 0.080891386
0.006081818 -0.0012132394 -0.0019151176 0.021853572 0.09486414 -0.08900029 -0.09717438 0.0120761935
0.0015099979 0.071369186 0.03412233 0.0067170565 -0.059191074 0.031192532 -0.012466045 0.030577783
-9.8170975e-05 -0.04015255 -0.1353054 0.050583705 -0.008430582 0.023930565 -0.054000705 -0.045954946
-0.104964554 -0.17563638 -0.021820925 0.033850327 -0.071762525 -0.025839346 -0.1422351 0.039227262
-0.030721432 -0.07578049 -0.036689162 0.00040346722 0.0051978864 -0.15178683 0.0066648284 -0.032124322
-0.019897183 -0.0061323354 -0.038502965 0.07532689 -0.036242608 0.12775075 0.04651246 -0.01335813
-0.009934694 -0.038381845 -0.113310926 0.10773761 0.028780703 -0.03522507 -0.01580468 -0.06544485
0.14018379 -0.02274435 0.008686879 -0.03988619 -0.06145099 -0.04635043 0.033622395 -0.016393447
-0.059117686 -0.021621794 -0.03330815 -0.07468301 -0.048517667 -0.044853445 0.026276248 0.076657206
0.1744275 -0.05447615 -0.01348402 -0.03292865 0.0041842735 -0.120684855 0.020435547 -0.017983017
0.021832945 0.03760808 0.06845155 -0.07354513 -0.11756028 0.026759641 -0.02952722 -0.056977518
0.025946658 -0.13314767 -0.048468616 -0.039970234 -0.052936833 -0.048771944 0.0012366639 -0.038028963
-0.013224854 0.018398 -0.06958578 0.08050847 -0.17191985 -0.050365586 -0.043133207 -0.0013870745
-0.115075134 0.028367437 0.07610559 0.02702395 0.017701115 -0.018789992 -0.05281442 0.06647684
-0.002551682 0.090823494 0.05948686 0.027247908 0.060937725 -0.0006323833 -0.050875984 0.021302281
-0.06438945 -0.110711366 0.1190005 -0.001966024 0.054926146 -0.08587093 -0.030636584 -0.004724447
-0.10730958 -0.012445373 -0.04507165 -0.01055239 0.031372607 -0.039048485 -0.00081162807 0.03849355
-0.0077791247 -0.02181901 -0.0040945048 -0.025071418 0.021705493 -0.09793721 0.090524375 0.06537691
-0.08077423 -0.10083612 -0.029675657 0.06356073 0.089800574 -0.013402601 -0.021581307 -0.00794708
-0.0014856921 0.09208915 0.115017086 0.046660826 -0.004167994 -0.015624862 0.034378972 -0.017795866
-0.16421609 -0.080154605 0.0026238505 -0.09962186 0.009441269 -0.07941343 0.04787746 -0.024618547
-0.033328503 0.021306314 0.05064864 -0.008364627 0.019314388 -0.033444576 -0.01776571 -0.09081061
-0.02915955 0.11947708 -0.055669334 0.032050528 0.016975278 -0.0047024577 -0.08939102 0.005085319
-0.004378408 0.0013266879 -0.09350646 -0.12480055 0.019395012 0.0701844 0.023661355 0.012215576
0.13901567 -0.043261886 -0.06322258 0.047047544 0.081717804 0.041449465 -0.02360602 -0.019057998
0.023208397 0.06320141 0.010061151 0.102512226 0.006778991 -0.05744787 0.021824012 -0.1005921
-0.0801584 -0.044911873 0.022397764 -0.16305108 0.053801242 0.00068348687 -0.11554756 -0.002788934
0.060853764 -0.0070355213 0.08269599 -0.010464687 -0.12436846 -0.0558851 -0.041927744 -0.045458682
-0.04856837 -0.021476423 0.00231879 0.019858457 -0.072218105 -0.06589176 -0.0672996 -0.07542569
-0.015734365 0.0027546668 0.00089760474 -0.02240308 -0.008660898 -0.0627304 -0.04605921 0.09492688
00000000: e12c b1bd 1259 d83c ebd5 ef3b bf34 1ebd
00000010: b1b9 dbbc c040 23bc 2e19 70bc a831 c1bd
00000020: d15f 873d 3a75 9e3c 29d9 2cbd 436d 823d
00000030: b1c0 c2bb 2d64 14bd b80c 9ebd 62aa a53d
00000040: fd49 c73b 8f05 9fba af04 fbba 4306 b33c
00000050: 2148 c23d c945 b6bd 5d03 c7bd 3adb 453c
00000060: 1feb c53a 022a 923d dbc3 0b3d c11a dc3b
00000070: 5772 72bd 7b87 ff3c 623e 4cbc 427e fa3c
00000080: 24e1 cdb8 0077 24bd 808d 0abe dc30 4f3d
00000090: 6c20 0abc 080a c43c d82f 5dbd 413b 3cbd
000000a0: a8f7 d6bd 06da 33be ccc1 b2bc a4a6 0a3d
000000b0: 3bf8 92bd 09ad d3bc 14a6 11be c4ac 203d
000000c0: 83ab fbbc cd32 9bbd 6047 16bd 7488 d339
000000d0: 0853 aa3b 026e 1bbe a264 da3b cb94 03bd
000000e0: 6bff a2bc c2f1 c8bb 49b5 1dbd fc44 9a3d
000000f0: 2173 14bd 18d1 023e d983 3e3d 0fdc 5abc
00000100: 20c5 22bc 4836 1dbd 8f0f e8bd 89a5 dc3d
00000110: 82c5 eb3c 2a48 10bd d178 81bc f307 86bd
00000120: 578c 0f3e 5c52 babc 6953 0e3c b45f 23bd
00000130: 09b4 7bbd f3d9 3dbd a3b7 093d 8d4b 86bc
00000140: 6325 72bd 3020 b1bc 206e 08bd 68f3 98bd
00000150: 76ba 46bd 3fb8 37bd 4941 d73c 74fe 9c3d
00000160: 1f9d 323e 6222 5fbd 14ec 5cbc 31e0 06bd
00000170: 3b1c 893b 9f29 f7bd 7368 a73c 1f51 93bc
00000180: 01db b23c ee0a 1a3d 5430 8c3d d49e 96bd
00000190: 72c3 f0bd 0937 db3c 12e3 f1bc 4261 69bd
000001a0: 168e d43c dd57 08be 0787 46bd d4b7 23bd
000001b0: 4bd4 58bd 17c5 47bd 8e17 a23a 42c4 1bbd
000001c0: 0fad 58bc 67b7 963c fd82 8ebd a0e1 a43d
000001d0: c20b 30be 254c 4ebd 72ac 30bd 7fce b5ba
000001e0: 83ac ebbd d462 e83c 3fdd 9b3d 5561 dd3c
000001f0: ee01 913c 78ed 99bc ef53 58bd 0225 883d
00000200: 1f3a 27bb ab01 ba3d 7ea8 733d 0137 df3c
00000210: d699 793d 86c6 25ba 5663 50bd 1f82 ae3c
00000220: 9ede 83bd a4bc e2bd 89b6 f33d 69d8 00bb
00000230: 3dfa 603d 19dd afbd 93f9 fabc 89cf 9abb
00000240: 20c5 dbbd aee7 4bbc 0d9d 38bd eee3 2cbc
00000250: 9080 003d 4ef1 1fbd 70c3 54ba 6aab 1d3d
00000260: 07e8 febb c8bd b2bc 322b 86bb 9362 cdbc
00000270: b8cf b13c 4e93 c8bd d864 b93d 54e4 853d
00000280: f66c a5bd 2b83 cebd 5d1a f3bc 212c 823d
00000290: 5de9 b73d 9596 5bbc 48cb b0bc 7834 02bc
000002a0: 8ebb c2ba 3c99 bc3d 148e eb3d 6c1f 3f3d
000002b0: ab93 88bb 6cff 7fbc f7d0 0c3d a3c8 91bc
000002c0: 4328 28be 1928 a4bd e8f4 2b3b 8c06 ccbd
000002d0: 8daf 1a3c 82a3 a2bd 281b 443d d6ac c9bc
000002e0: 7883 08bd 948a ae3c f374 4f3d ca0b 09bc
000002f0: 3539 9e3c 2efd 08bd 6589 91bc eafa b9bd
00000300: 02e0 eebc 66b0 f43d 8705 64bd 6a47 033d
00000310: bd0f 8b3c 1317 9abb a412 b7bd bfa2 a63b
00000320: c078 8fbb 42e4 ad3a 5180 bfbd 6e97 ffbd
00000330: 4ae2 9e3c d7bc 8f3d 75d5 c13c d723 483c
00000340: 205a 0e3e 6033 31bd d77a 81bd edb4 403d
00000350: aa5b a73d eac6 293d 6961 c1bc 851f 9cbc
00000360: 891f be3c be6f 813d 87d7 243c eef1 d13d
00000370: 4c22 de3b 754e 6bbd 45c8 b23c 3b03 cebd
00000380: 162a a4bd 83f5 37bd 847b b73c ddf6 26be
00000390: b15e 5c3d 072c 333a 33a4 ecbd 8cc6 36bb
000003a0: cc41 793d 3b8a e6bb 845c a93d 1474 2bbc
000003b0: e4b4 febd c6e7 64bd 6dbc 2bbd e232 3abd
000003c0: a1ef 46bd 53ef afbc d7f6 173b 34ae a23c
000003d0: 16e7 93bd 42f2 86bd 5fd4 89bd c978 9abd
000003e0: 5be5 80bc a487 343b 3c4d 6b3a aa86 b7bc
000003f0: 70e6 0dbc cc78 80bd 95a8 3cbd 0669 c23d

network_body._body_endoder.seq_layers.4.bias f4 [256]
0.061545894 0.053685863 -0.015805908 0.05393908 0.029489407 -0.041002236 -0.0523937 0.009440834
-0.04207809 -0.05518778 0.044677418 -0.02666945 0.046945453 -0.049390603 0.029720588 0.05158138
-0.0037049258 -0.022463404 0.041454036 -0.048872206 0.067488186 0.00080416014 0.032819152 -0.045863308
-0.03725528 -0.052699137 0.041087296 -0.016329054 0.05693224 -0.046007626 0.03566965 0.04259891
0.03247986 -0.03872303 0.044673815 0.054212876 -0.009006798 0.049966585 -0.016692704 -0.0066025658
0.0021960877 -0.04313933 0.059689023 -0.033049043 -0.011875982 0.036648292 -0.0300931 -0.026214661
-0.04580981 0.04042394 0.0364979 -0.056946296 -0.02915326 0.049256258 -0.041578617 0.057371613
-0.061818495 0.035835247 0.047797132 0.011502903 0.028685365 0.04167302 -0.033888333 0.016819092
-0.07202285 0.009753427 0.02692147 -0.011578912 -0.03824904 0.036626797 0.046831362 0.04356227
0.0015371974 0.05903246 0.044987526 -0.024433482 -0.041879848 -0.007811809 -0.021442002 0.03518631
0.019772118 0.041536804 -0.051742636 0.06901217 0.048986863 -0.05399007 0.041067377 -0.052576344
0.042879533 -0.02302736 -0.007064576 0.006110872 0.040055107 0.042143084 0.027128879 0.046481572
0.024015801 -0.03166418 0.062354 -0.023880638 -0.04826084 -0.0036065762 0.041085932 0.03213664
0.0045734467 -0.00021722507 0.02737905 0.049121827 0.037607886 0.02570314 0.043698616 0.049026057
-0.04053001 -0.054143257 -0.0013768484 0.038021043 0.045974217 0.013913564 -0.0012125872 0.036007233
-0.026711203 0.034664486 -0.036204692 0.033790354 0.036105413 0.03442218 0.044031844 0.037138067
0.036986176 0.036493894 0.00964819 0.044705 0.0037277716 -0.008397457 0.040513463 -0.018808434
-0.015496187 0.038352463 -0.05662935 0.012428332 0.03587467 -0.039297324 0.037184395 0.042465653
0.0007606898 0.056760024 0.0016143882 0.039828606 -0.005339049 -0.05777637 -0.02758794 -0.0034361985
-0.03470271 -0.057637483 0.03190493 -0.0030869574 -0.03498128 0.026933935 0.016673366 0.046576023
0.01792006 0.029936813 -0.017767843 -0.06650409 0.021831159 -0.06925391 0.018909806 -0.016335594
-0.048220143 0.024515506 -0.005128272 0.06161962 0.05183738 0.04908772 0.043759033 0.025415147
-0.040846005 -0.020330245 -0.036888104 0.01687808 0.03377827 -0.0577561 -0.0058261375 0.045939807
0.05100752 -0.034717772 0.025616877 0.03257616 -0.062557824 -0.049146213 -0.031497613 0.04209874
-0.033244148 -0.04545601 -0.010286096 0.046294667 -0.06477339 0.023510084 -0.05058898 0.060426816
-0.024646636 0.03910807 0.041393705 -0.043554854 0.0015776337 -0.023322698 0.044320796 0.0038475827
0.020743808 0.032937136 0.029967336 0.0246973 0.01871226 -0.043844767 -0.017028403 0.046615366
-0.046909437 0.03219212 -0.022463106 0.051137857 0.03645702 -0.030347763 -0.022108074 -0.037120275
0.019015701 0.010004023 0.05264927 -0.026903214 0.028931832 -0.042312708 0.061553266 0.0013791977
0.03505351 -0.053802505 -0.050738394 -0.05430039 0.035746172 0.025331654 -0.061098985 -0.033241414
-0.05681409 0.04382935 0.04253595 0.009817852 0.048409708 0.051590625 0.028038155 -0.047534816
-0.015760304 0.050977666 0.00823713 0.016468039 -0.048500337 0.014289964 -0.013096619 -0.058713764
00000000: 8c17 7c3d b5e5 5b3d 647b 81bc 3aef 5c3d
00000010: c593 f13c f6f1 27bd c79a 56bd baad 1a3c
00000020: 135a 2cbd 950c 62bd abff 363d e479 dabc
00000030: e049 403d cd4d 4abd 9778 f33c ff46 533d
00000040: 57ce 72bb 2c05 b8bc b5cb 293d 392e 48bd
00000050: 3f37 8a3d 46ce 523a 606d 063d 2adb 3bbd
00000060: fe98 18bd 0ddb 57bd 274b 283d 82c4 85bc
00000070: c831 693d 7e72 3cbd 571a 123d 327c 2e3d
00000080: 9a09 053d 0a9c 1ebd e4fb 363d 520e 5e3d
00000090: 4091 13bc c3a9 4c3d 23bf 88bc 565a d8bb
000000a0: 3dec 0f3b deb2 30bd 7a7c 743d 6f5e 07bd
000000b0: 7b93 42bc 851c 163d ce85 f6bc 21c0 d6bc
000000c0: 11a3 3bbd 9393 253d d27e 153d 8540 69bd
000000d0: d1d2 eebc eec0 493d 574e 2abd 7ffe 6a3d
000000e0: 6435 7dbd fbc7 123d edc6 433d ac76 3c3c
000000f0: 92fd ea3c 54b1 2a3d 7ece 0abd 31c8 893c
00000100: b780 93bd d6cc 1f3c 6a8a dc3c 7ab5 3dbc
00000110: 06ab 1cbd fb05 163d 3ed2 3f3d 5a6e 323d
00000120: c97b c93a 05cc 713d d744 383d ba28 c8bc
00000130: 348a 2bbd 34fa ffbb 23a7 afbc 851f 103d
00000140: 23f9 a13c 7f22 2a3d 16f0 53bd 4156 8d3d
00000150: 73a6 483d b124 5dbd 4436 283d 4b5a 57bd
00000160: 73a2 2f3d e0a3 bcbc f57d e7bb b63d c83b
00000170: d310 243d 3a9e 2c3d 623d de3c 7663 3e3d
00000180: c9bc c43c 4db2 01bd e866 7f3d 54a1 c3bc
00000190: 29ad 45bd 4f5c 6cbb b949 283d b6a1 033d
000001a0: dadc 953b e9c6 63b9 084a e03c f833 493d
000001b0: ba0a 1a3d 648f d23c 52fd 323d 8ccf 483d
000001c0: cc02 26bd 52c5 5dbd 5e77 b4ba f4bb 1b3d
000001d0: 764f 3c3d b8f5 633c adef 9eba 527c 133d
000001e0: 74d1 dabc 59fc 0d3d 5f4b 14bd c167 0a3d
000001f0: 45e3 133d 46fe 0c3d bc5a 343d 161e 183d
00000200: d17e 173d 9f7a 153d 7113 1e3c 971c 373d
00000210: a14d 743b 7d95 09bc 72f1 253d 2514 9abc
00000220: b8e3 7dbc 7917 1d3d 2df4 67bd 34a0 4b3c
00000230: 51f1 123d 3bf6 20bd aa4e 183d 77f0 2d3d
00000240: 0769 473a 337d 683d e199 d33a 5223 233d
00000250: 30f3 aebb eaa6 6cbd 1b00 e2bc d831 61bb
00000260: 6e24 0ebd 4815 6cbd beae 023d 8d4e 4abb
00000270: 8848 0fbd 8ea4 dc3c 9596 883c 80c6 3e3d
00000280: 17cd 923c 0c3e f53c de8d 91bc 4c33 88bd
00000290: 42d7 b23c fed4 8dbd bde8 9a3c 39d2 85bc
000002a0: 7c82 45bd bed4 c83c 100b a8bb db64 7c3d
000002b0: 6f53 543d 3510 493d ac3c 333d 6d33 d03c
000002c0: 244e 27bd 9d8b a6bc fb17 17bd e643 8a3c
000002d0: 155b 0a3d a991 6cbd 2fe9 bebb 612b 3c3d
000002e0: 43ed 503d 3934 0ebd 7cda d13c 946e 053d
000002f0: 511e 80bd 8a4d 49bd a403 01bd ba6f 2c3d
00000300: 042b 08bd 1530 3abd 0387 28bc 7a9f 3d3d
00000310: e9a7 84bd 3898 c03c 6436 4fbd 1c82 773d
00000320: bee7 c9bc c92f 203d 728c 293d 9366 32bd
00000330: 9ac8 ce3a 3e0f bfbc b989 353d ba27 7c3b
00000340: ebee a93c 17e9 063d 0f7e f53c fe51 ca3c
00000350: 744a 993c 9296 33bd 267f 8bbc c1ef 3e3d
00000360: 1c24 40bd e2db 033d 8c04 b8bc ee75 513d
00000370: f553 153d df9b f8bc fe1b b5bc 6e0b 18bd
00000380: d1c6 9b3c eae7 233c c3a6 573d 2164 dcbc
00000390: 7302 ed3c 1750 2dbd 471f 7c3d 32c6 b43a
000003a0: 4594 0f3d 0460 5cbd 10d3 4fbd 166a 5ebd
000003b0: 946a 123d 5484 cf3c ee42 7abd 2628 08bd
000003c0: e4b5 68bd 6886 333d 2d3a 2e3d 0edb 203c
000003d0: 4249 463d b150 533d 46b0 e53c deb3 42bd
000003e0: c11b 81bc f5cd 503d 07f5 063c fbe7 863c
000003f0: 4aa8 46bd 7420 6a3c 3493 56bc d87d 70bd

network_body._body_endoder.seq_layers.4.weight f4 [256, 256]
0.11837054 -0.07164391 0.0122388955 -0.10955456 0.06809547 0.048921082 0.0055903546 -0.010929953
0.031390138 0.10218555 -0.11227204 -0.027797692 -0.038452968 -0.042971916 -0.05221328 -0.094530635
-0.14170739 0.037019588 -0.03926867 0.0012055555 0.08110656 0.028725691 0.024293035 -0.08955086
0.02683042 -0.038685057 0.10934793 -0.017804105 0.029910741 0.035380304 0.011069178 0.03423251
-0.03303671 -0.08666892 -0.05297633 0.044854753 -0.035339452 0.056689624 -0.13225 -0.01343527
-0.06352929 0.06989516 -0.05667241 0.025611032 -0.044669796 0.04402205 -0.015838185 -0.036401927
-0.054060318 0.088103846 0.01902445 -0.04326243 -0.1482853 0.087865785 -0.072598204 -0.026725637
0.0007800105 -0.10048743 0.02555539 0.0076749404 0.00727585 0.0037581432 -0.08636607 0.014361633
-0.09007559 0.006559698 -0.028137922 -0.069476366 0.03093359 -0.02777724 0.09087825 -0.11563918
-0.03323772 -0.057545613 -0.060078416 -0.0086719785 -0.07120315 -0.027879324 0.024901664 -0.12918204
-0.053089663 -0.08119101 0.035376478 0.01570647 0.0012487728 0.01706599 0.098305404 0.028906643
-0.032748684 -0.043729864 0.00857796 0.001501824 -0.08790477 0.094157204 0.014313283 -0.0012707872
0.010312278 0.0061228727 -0.054784775 -0.05067555 0.05046393 -0.08326356 0.018514616 -0.07607386
-0.0965835 -0.020453343 -0.038966924 0.03637941 0.026726427 0.014619408 0.08293624 -0.14340167
-0.0958057 -0.0278487 0.093539335 -0.11548996 0.04672843 0.0757544 0.014918937 0.010024429
0.05781005 0.041192994 -0.108009204 -0.11034441 0.058550883 -0.008952781 -0.098056115 -0.08174844
-0.0012256711 0.10799897 -0.1344526 0.04814513 -0.03951568 0.0038816656 0.015823953 -0.050998393
0.033054966 -0.038586427 0.01521441 -0.022023113 -0.031097447 0.014543191 0.1010192 0.15000065
-0.0058752433 -0.053210434 0.006047613 0.045859557 -0.1630374 0.0040843356 -0.00081385026 -0.031106368
0.08422643 0.08855092 -0.05132156 -0.033297706 -0.036554135 0.005592806 -0.056490757 -0.026424432
0.001462635 -0.058036823 -0.059084665 -0.08546835 0.030409649 -0.046156134 -0.0291912 -0.071734466
-0.053802747 -0.15398628 0.08434298 -0.104839444 0.010384316 -0.026982242 0.15702915 -0.07311089
0.08681646 -0.09674441 0.012374538 -0.05412344 0.05258273 0.025533788 -0.09894277 -0.047233228
0.07943304 -0.017281737 0.0063237515 0.047609497 0.0023426048 -0.015950102 0.057038795 0.101438545
0.031204842 0.064998396 0.052147277 0.079444095 -0.04736599 -0.06600247 -0.010494393 0.04741654
-0.051284615 -0.02705458 -0.061774448 -0.016420506 -0.00765785 -0.06769617 -0.13909847 0.037213814
0.009131677 0.08532743 -0.030948509 -0.0058445563 0.037677053 -0.10611621 0.111449406 0.10468221
-0.01836328 0.08431768 -0.048359137 -0.05232727 -0.043435846 -0.008676384 -0.031014306 -0.017933445
-0.012256195 -0.0028479323 -0.024740024 -0.012782058 -0.0002520236 0.052514836 0.08246077 0.103898585
0.08506176 -0.101336606 0.048113257 -0.021511663 -0.07614892 -0.034369197 -0.15195014 -0.03154002
-0.058393013 0.004245544 0.11420834 -0.097200856 -0.04536627 -0.040167756 -0.004584092 -0.015138925
-0.07364366 0.11119275 0.033734623 -0.100826815 0.057721052 -0.04615626 -0.05326133 -0.020927025
00000000: 416c f23d 0bba 92bd a685 483c 245e e0bd
00000010: a375 8b3d 7961 483d 4b2f b73b 8c13 33bc
00000020: f292 003d a846 d13d e2ee e5bd fcb7 e3bc
00000030: dc80 1dbd 5203 30bd 98dd 55bd 4799 c1bd
00000040: be1b 11be daa1 173d 2fd8 20bd bb03 9e3a
00000050: 321b a63d 2452 eb3c 3002 c73c 7166 b7bd
00000060: 78cb db3c 3974 1ebd cff1 df3d ead9 91bc
00000070: 5f07 f53c f0ea 103d 7f5b 353c 6337 0c3d
00000080: 8051 07bd 7a7f b1bd b5fd 58bd 9eb9 373d
00000090: 1ac0 10bd 6133 683d 8b6c 07be 9b1f 5cbc
000000a0: a51b 82bd 3225 8f3d 5421 68bd 3ace d13c
000000b0: adf7 36bd 7750 343d 15bf 81bc 301a 15bd
000000c0: 5a6e 5dbd ca6f b43d 2ad9 9b3c f233 31bd
000000d0: 1ad8 17be faf2 b33d 5eae 94bd b9ef dabc
000000e0: 9e79 4c3a 5bcc cdbd 8a59 d13c 117e fb3b
000000f0: 416a ee3b 2e4b 763b b2e0 b0bd 0e4d 6b3c
00000100: 8d79 b8bd bcf2 d63b 8081 e6bc a049 8ebd
00000110: 7168 fd3c 188d e3bc 601e ba3d 3cd4 ecbd
00000120: 4724 08bd f3b4 6bbd c914 76bd ea14 0ebc
00000130: f5d2 91bd 2e63 e4bc 93fe cb3c 4c48 04be
00000140: 8c74 59bd 7947 a6bd ede6 103d dbaa 803c
00000150: ddad a33a facd 8b3c 5854 c93d a0cd ec3c
00000160: 7c23 06bd 161e 33bd 928a 0c3c dad8 c43a
00000170: 6b07 b4bd 7ed5 c03d 4382 6a3c 8b90 a6ba
00000180: d4f4 283c 61a2 c83b 0066 60bd 2a91 4fbd
00000190: 44b3 4e3d 1686 aabd f7ab 973c 9dcc 9bbd
000001a0: 92cd c5bd c58d a7bc c89b 1fbd 9402 153d
000001b0: 61f1 da3c 3e86 6f3c 7ada a93d e3d7 12be
000001c0: c735 c4bd f522 e4bc 8d91 bf3d 0086 ecbd
000001d0: 4f66 3f3d 1f25 9b3d 8f6e 743c 813d 243c
000001e0: 3bca 6c3d fcb9 283d ee33 ddbd 40fc e1bd
000001f0: 0dd3 6f3d afae 12bc a5d1 c8bd ba6b a7bd
00000200: b3a6 a0ba 902e dd3d f1ad 09be d433 453d
00000210: 32db 21bd 8b63 7e3b 3ca1 813c b1e3 50bd
00000220: a564 073d cd0c 1ebd dc45 793c d169 b4bc
00000230: 13c0 febc 9046 6e3c 28e3 ce3d c599 193e
00000240: 1d85 c0bb 2ff3 59bd 0e2b c63b 3bd7 3b3d
00000250: 47f3 26be e4d5 853b 9158 55ba c8d2 febc
00000260: e87e ac3d 2f5a b53d 8e36 52bd 2d63 08bd
00000270: cab9 15bd db43 b73b da62 67bd 0d78 d8bc
00000280: e3b5 bf3a 05b8 6dbd c302 72bd 080a afbd
00000290: a81d f93c 370e 3dbd 6222 efbc 85e9 92bd
000002a0: 4560 5cbd 94ae 1dbe 03bc ac3d 10b6 d6bd
000002b0: fa22 2a3c dd09 ddbc 40cc 203e 2abb 95bd
000002c0: d4cc b13d ef21 c6bd 93be 4a3c 8ab0 5dbd
000002d0: fd60 573d 3c2c d13c 82a2 cabd a177 41bd
000002e0: caad a23d 6e92 8dbc 7937 cf3b 2d02 433d
000002f0: 6386 193b caa9 82bc 83a1 693d 03bf cf3d
00000300: 4ca1 ff3c e11d 853d 6298 553d 96b3 a23d
00000310: d702 42bd 4e2c 87bd adf0 2bbc d937 423d
00000320: d10f 52bd 91a1 ddbc 3407 7dbd 4c84 86bc
00000330: b4ee fabb 4aa4 8abd d46f 0ebe 836d 183d
00000340: 089d 153c 26c0 ae3d ba87 fdbc b183 bfbb
00000350: 4153 1a3d 7553 d9bd 963f e43d a063 d63d
00000360: 976e 96bc bfae ac3d 3b14 46bd 1f55 56bd
00000370: c9e9 31bd 6427 0ebc b711 febc 29e9 92bc
00000380: 35ce 48bc 60a4 3abb 97ab cabc d66b 51bc
00000390: 0922 84b9 cc19 573d 31e1 a83d c8c8 d43d
000003a0: dc34 ae3d 9189 cfbd 6812 453d 3a39 b0bc
000003b0: f7f3 9bbd b7c6 0cbd d198 1bbe 1c30 01bd
000003c0: 832d 6fbd 341e 8b3b 10e6 e93d 3e11 c7bd
000003d0: fbd1 39bd f286 24bd 2736 96bb 4109 78bc
000003e0: 7dd2 96bd 06b9 e33d 512d 0a3d 4a7e cebd
000003f0: e96c 6c3d 590e 3dbd 8d28 5abd 276f abbc

network_body.observation_encoder.processors.0.normalizer.running_mean f4 [6]
43.405666 18.762423 61.89854 -32.280552 1.3999577 -71.158
00000000: 679f 2d42 7119 9641 1b98 7742 491f 01c2
00000010: d031 b33f e550 8ec2
