Assets/Training/results/learn_v3/MarsTaxi.onnx (onnx, 542464 bytes, 10 tensors)

54 f4 [6]
000000 eb 5b 45 41 d8 93 72 41 59 10 7c 40 4d 27 ad 3c
       12.334941 15.161095 3.9384978 0.021136904
000010 46 4a 93 3a 52 b5 3e 3d
       0.0011237345 0.04655964

action_model._discrete_distribution.branches.0.bias f4 [6]
000000 e5 52 0d 3d ae b7 0f bc d9 ac 85 3c 25 24 b0 bc
       0.034502883 -0.00877182 0.016317772 -0.02150161
000010 e0 05 2d bd 11 e3 37 bc
       -0.04224193 -0.01122357

action_model._discrete_distribution.branches.0.weight f4 [6, 256]
000000 81 4f b1 bc c7 a9 02 3d 57 42 9a bd d3 62 07 3d
       -0.021644356 0.031900194 -0.075321846 0.03305323
000010 18 ac 5c 3d 59 b4 6e bc ac f4 19 3b df 60 ab bc
       0.05387506 -0.014569365 0.0023491783 -0.020920215
000020 6e ea 17 3b 12 84 88 3c c1 54 6e 3c 03 be 9b bc
       0.0023180502 0.016664539 0.014546574 -0.019011503
000030 77 66 03 3d 61 70 ed bc 0c cd e2 3a 22 dc 24 bd
       0.03208014 -0.02898425 0.001730354 -0.040248998
000040 7e ff 08 3c 5a f3 e0 3c 25 e6 bb bc 25 aa 30 3d
       0.008361695 0.027459789 -0.02293689 0.043131012
000050 96 f3 6c bd 8c ce f6 3c 5f eb 8f bd af 2f e1 3c
       -0.05784949 0.030127786 -0.07027315 0.027488558
000060 2f 5d 02 bc 98 0e 1e bd 68 a9 14 3d 05 11 fd bb
       -0.007956787 -0.038588136 0.03629437 -0.007722976
000070 b9 0b b8 3c e1 ec af ba 9b 4a fc 3c 4d 6c 36 3d
       0.022466527 -0.0013422036 0.030797293 0.044536877
000080 c7 1e 1a 3d 6b df 84 3b 45 20 7b bd f1 f7 6d bd
       0.037627008 0.004054954 -0.06131007 -0.058097783
000090 c7 f7 9a 3c 81 ce a8 3b 04 4f 46 bd cb 31 09 bd
       0.018916978 0.0051515703 -0.0484152 -0.033494752
0000a0 1d 98 49 3d c5 de 38 bd 5a 1b 87 bc 16 5c e5 bc
       0.049217332 -0.045134325 -0.016492534 -0.027998012
0000b0 f1 84 b2 3b ca ed 2c bc bf fc ac 3c 33 e9 10 3d
       0.0054479768 -0.01055474 0.021116612 0.035378646
0000c0 a1 4a cf 3c d2 4f 68 3d 82 b5 81 b9 8f 3b 18 bd
       0.02530414 0.056716748 -0.0002474003 -0.037166175
0000d0 5d 98 7d bd 6d 14 0a 3c 88 22 a3 bb b3 25 ca bc
       -0.061912883 0.008427721 -0.0049784817 -0.02467618
0000e0 aa 7e 34 bc 0d 3c 88 3c 85 cf a7 bc 63 5b d5 3c
       -0.011016527 0.016630197 -0.020484695 0.026044553
0000f0 9a 92 6d bd 51 82 c3 3c 81 ae 9c bc 61 12 7a bd
       -0.05800114 0.02386585 -0.019126179 -0.061052684
000100 01 c9 f4 3c 29 4f 21 3d 71 ee 95 bc 6d cb d6 3c
       0.029881002 0.039382134 -0.018302174 0.026220048
000110 c5 d3 0c 3d ca 91 06 3d 94 33 24 bd f5 f5 09 3d
       0.034381647 0.03285388 -0.04008825 0.03368183
000120 27 90 71 3c 77 3d 3f 3c ee 73 55 3a 7b 5e ab bc
       0.014743841 0.011672369 0.000814258 -0.020919075
000130 ab c6 df 3b 8f 25 05 3d 02 84 5f 3d fd a3 de 3c
       0.006829103 0.03250652 0.05456925 0.027177805
000140 f2 23 3a bb 3c ad f9 3c 5f 5f 42 3c 92 21 34 3d
       -0.0028402773 0.030478112 0.011863559 0.043977328
000150 f8 cb ea 3c 20 96 a1 bd 55 61 05 3c 07 9d b3 bc
       0.028661713 -0.07889962 0.008140882 -0.021925462
000160 c7 a1 d2 3c d4 00 54 bb aa b6 ed 3c ab 84 07 bb
       0.025711907 -0.0032349126 0.029017765 -0.0020678442
000170 77 b5 78 3d 36 07 4e 3d a7 2b 0d 3c 74 90 35 bd
       0.060719933 0.050299846 0.008616365 -0.044327214
000180 41 ea 8e bb e4 a6 32 bc be 37 b2 bc 2b d9 56 3b
       -0.0043614213 -0.010904048 -0.021755096 0.003278325
000190 1f f6 48 3d 90 e7 2e bd 56 7f fa 3c 51 90 d5 3b
       0.049062844 -0.042701304 0.030578297 0.006517448
0001a0 b7 19 37 bd 62 7b 8e bc 11 2b 07 bd 2f a6 03 3d
       -0.044702258 -0.017392818 -0.033000056 0.032140907
0001b0 cf ed 3e bd 3b f3 d0 bc 8b fe a2 bb 20 c6 3c 3d
       -0.04661351 -0.025506606 -0.0049741915 0.046087384
0001c0 ef de a8 3b 1a b5 da 3c b6 cd 76 3c 1a e2 14 bd
       0.005153529 0.026697684 0.015063694 -0.03634844
0001d0 a0 c7 68 3b 58 28 5b bd 69 17 ca bb ee 45 c2 3b
       0.0035519376 -0.05350527 -0.0061673415 0.0059287464
0001e0 d6 fa 88 bd c9 7d c1 3b 96 e6 00 3d ce d8 be 3c
       -0.06688468 0.0059048873 0.031469904 0.02329674
0001f0 94 dc 12 bd 24 c7 35 3d 56 75 09 3d 7f 56 26 3d
       -0.03585489 0.04437937 0.033559166 0.040609833
000200 61 18 e2 3a ad be 06 ba cd b9 b6 b9 c9 9b a2 3c
       0.0017249697 -0.0005140107 -0.00034852177 0.019849675
000210 c2 34 aa 3c 62 a5 14 3c 4c 58 2d 3c cd 16 1b 3c
       0.02077711 0.009072633 0.010580134 0.009465885
000220 ca 21 00 bd e1 1e 59 bd 09 75 f7 3c ae 77 14 bd
       -0.031282224 -0.053007964 0.030207174 -0.036246948
000230 23 d2 73 3c dc d0 f4 3c b0 8a 13 3c 4e 09 88 3c
       0.0148816435 0.029884748 0.009005234 0.016606
000240 52 28 71 bd e5 48 4b 3d ea 8c 98 3c 59 a9 d6 bc
       -0.058876343 0.049630065 0.01862188 -0.026203798
000250 1a 89 ca 3c 55 3b 23 bb e1 3a d9 bb 81 d0 43 3d
       0.024723578 -0.002490719 -0.0066293334 0.047806267
000260 09 5a 4f 3d 7e 5e 52 3c 3e 9b 8b 3c fa 61 3a bd
       0.050622974 0.0128399115 0.017041799 -0.045503594
000270 ff dc 61 3d 55 65 a5 3c 9d 79 d6 3c c0 71 8c 3c
       0.0551424 0.02018992 0.026181037 0.017144084
000280 20 88 f2 bb ce 94 2a 3d 6a 1c d9 bb 7c e6 e0 bb
       -0.0074014813 0.041645817 -0.0066257017 -0.0068634134
000290 d3 53 b3 3c 55 27 0f 3c 5f dc bc 3c 54 a9 96 bc
       0.021890556 0.008737405 0.0230543 -0.018391289
0002a0 d4 bd 4a 3c 36 96 e2 3b a7 01 0c 3d a4 3f ac bd
       0.01237436 0.006914879 0.034181263 -0.08410576
0002b0 dc d3 89 bd be e1 3d 3c 99 51 da ba 15 e2 ee bc
       -0.06729862 0.011589466 -0.0016656398 -0.029160539
0002c0 a7 1d 5f bc e2 85 e3 bb 49 71 1f 3d 12 18 00 3d
       -0.0136179095 -0.0069434503 0.038926397 0.031272955
0002d0 99 c5 17 bd 45 55 f5 bb 5a 5a 2d 3d bf c2 ef bc
       -0.03705368 -0.0074869716 0.042322494 -0.029267667
0002e0 1e 39 ae 3c d4 79 36 3d d8 88 26 3d 8d db 08 bd
       0.02126747 0.044549778 0.040657848 -0.033412505
0002f0 13 db 2e 3d 3b bc 2a bc 8c 53 31 3b 39 92 8d 3c
       0.042689394 -0.010420854 0.0027057854 0.017281638
000300 31 f8 05 3d 59 de 95 bb a0 56 dd 3c 11 8c 0b 3d
       0.032707397 -0.004573625 0.027018845 0.034069125
000310 be fb 8c bd 02 95 eb 3c 72 2b 68 3d fd 45 b8 bd
       -0.068839535 0.028757576 0.056682058 -0.08997724
000320 9b b4 93 3c 89 cf 08 bd ef d6 9e 3c 41 5b ea bc
       0.018030455 -0.033401046 0.019389598 -0.028607966
000330 e3 04 32 bd a9 42 8e bd 2a bb 07 bb 57 d8 1e 3d
       -0.04346169 -0.06946308 -0.0020710924 0.038780537
000340 1a 4f a7 3c 21 ef 39 bd a9 ac 13 bc 36 fb ab 3c
       0.02042346 -0.045394067 -0.009013333 0.02099381
000350 2b d2 ac 3c 98 6c 3c 3b eb e4 7b 3d 56 45 bd bb
       0.02109631 0.002875125 0.06149761 -0.0057760878
000360 52 8c 82 3c fa 27 1f bd 5c a9 6e bd 72 35 da 3c
       0.01593605 -0.038856484 -0.058266982 0.026636813
000370 8f 62 94 3c d2 0c c2 bb 55 68 87 b9 bc e1 d6 3c
       0.018113403 -0.0059219385 -0.0002582694 0.026230685
000380 2c 5a 24 bd 86 a3 14 3d 76 7c 90 bd 48 74 68 bd
       -0.040125057 0.03628876 -0.07054989 -0.05675152
000390 d1 2e fd bb 73 3b 2b 3b e0 7d 23 bd ef 64 18 3d
       -0.007726528 0.0026127964 -0.039914966 0.037205633
0003a0 c6 cb 36 3d ad 95 89 bd f7 e2 aa b9 af eb 38 bd
       0.044627927 -0.067180015 -0.0003259403 -0.04514664
0003b0 3c 2f 1c bd da 1d e2 bc ad 7a 81 3b ee 43 41 bd
       -0.038130984 -0.027602125 0.0039513917 -0.047183923
0003c0 75 84 29 3d 72 35 d5 3c 55 ea 97 3c b8 49 3b bd
       0.041386086 0.026026461 0.018544355 -0.0457246
0003d0 5e e6 63 3c 31 f2 c1 3c bc e3 14 3d cf cb 32 3c
       0.013909904 0.023675056 0.036349997 0.01091285
0003e0 6d 03 4f 3c 10 ad 44 3c 10 cc da bc ce 50 de 3c
       0.012635094 0.012004152 -0.026708633 0.02713814
0003f0 ed bd 2d bd ba 11 dc 3c bb 12 c8 bc 43 e8 11 3c
       -0.042417455 0.026863921 -0.024422994 0.008905473

network_body._body_endoder.seq_layers.0.bias f4 [256]
000000 cb 64 14 3d 92 bb ed 3c 58 d8 2d 3c 4e 1d 06 3d
       0.036228936 0.029020105 0.010610662 0.03274279
000010 80 ba c5 3c 9a 2d 71 3d a7 35 22 3d 52 c6 3d 3b
       0.024136782 0.05888138 0.039601948 0.002895732
000020 08 6d d1 3c bf f2 67 3b f7 39 28 3d 67 e2 af 3c
       0.025564685 0.003539249 0.041070905 0.021470262
000030 75 4c cc 3c d4 47 07 3d c4 5a 61 3d aa 33 8f bd
       0.024938801 0.033027485 0.0550182 -0.06992276
000040 f3 e2 48 3d 41 70 47 bc e2 5a e5 bc 90 a8 02 3d
       0.04904456 -0.0121727595 -0.027997438 0.031899035
000050 ce dc 20 bd e9 8a 9d 3d 26 05 24 3d 9f 64 6a 3c
       -0.039273076 0.07692511 0.040043972 0.0143062165
000060 fa f9 3f bd e3 56 0f 3d fc 25 97 3d e5 79 5f 3a
       -0.046869256 0.03499497 0.07380292 0.00085249386
000070 0e cc 0b 3c b4 26 1e 3d 85 ea 26 bc a9 d3 41 3c
       0.008532537 0.03861113 -0.01018775 0.011830249
000080 85 da f6 3b c9 8e 77 3d 99 b3 21 3d e2 da 89 bb
       0.007533374 0.060438905 0.03947792 -0.004207001
000090 5d 65 47 bc 5a cd 0e 3d ba a2 c3 bc 2c c7 21 3d
       -0.012170163 0.034863807 -0.023881305 0.039496586
0000a0 18 37 de 3b 89 49 7b bc fc 41 ef 3c 36 b3 d2 3c
       0.00678147 -0.015337356 0.029206268 0.02572022
0000b0 fa 20 7f 3d 91 93 7c bc fe 2e e1 3b 7b 03 17 bb
       0.06228731 -0.015416042 0.006872057 -0.0023042846
0000c0 3c e2 bf 3c 11 11 76 3d d7 a5 c9 3c f8 11 1b 3d
       0.023423307 0.06007487 0.024615211 0.037858933
0000d0 c1 d4 8b 3d f8 40 0b 3d be 9d 72 3c d8 ee 0b 3d
       0.06827689 0.033997506 0.0148081165 0.034163326
0000e0 bd 0f 36 3d 82 b4 c5 39 91 44 94 bb d3 ae c0 3b
       0.044448603 0.00037709257 -0.0045247753 0.0058802157
0000f0 9e 2c b9 3c bd 9d 35 3d 82 75 c5 bc df b5 83 3d
       0.022604283 0.044339884 -0.024103884 0.064311735
000100 37 10 c7 3c 89 31 26 bc c2 68 67 bc ff 0f 3a bb
       0.024299724 -0.010143646 -0.014124097 -0.0028390882
000110 5b ce 93 3d 0b e8 32 bd 8f f2 bb 3c 39 a1 c9 3c
       0.072170936 -0.043678325 0.02294281 0.02461301
000120 55 e8 0f 3d fb cf 23 3d 9d 7c 6c 3c e1 c2 1f 3d
       0.03513368 0.039993268 0.014434007 0.03900421
000130 30 19 15 3d 0d 4e 71 3d 30 f8 35 3b 44 7e 3a 3b
       0.036400974 0.058912326 0.002776634 0.0028456608
000140 c5 d6 81 3c 23 c5 3a 3d eb 08 a9 3c 05 71 30 3d
       0.01584948 0.04559816 0.020634135 0.043076534
000150 f0 4a 74 3d c3 39 2c 3c e1 f3 69 3d 13 5b d2 bb
       0.05964178 0.010511818 0.057117347 -0.0064195483
000160 be 4c 34 bd 33 fd 4d 3d 8e f4 14 3d 8b 05 8f 3d
       -0.0440185 0.050290298 0.036366038 0.06983479
000170 0d 40 d3 3c 13 83 74 3d e6 fa ce 3c 15 dc 0b 3d
       0.025787378 0.059695315 0.025266122 0.034145433
000180 80 16 90 3b f4 bb a3 3c 5d 20 09 bd ad 1d 3e 3c
       0.0043972135 0.019987084 -0.03347813 0.011603755
000190 52 6c 72 3c c3 d4 06 3d 87 25 14 3d 41 e0 62 3d
       0.014796333 0.03291775 0.0361686 0.055389646
0001a0 90 bd b8 3c ee 11 47 3d 83 24 74 3b a7 58 ac 3c
       0.022551328 0.048601083 0.0037253208 0.021038366
0001b0 7d 66 13 3d 4f 56 2c 3d d3 2a db bb 3c a1 5f 3d
       0.035986412 0.042074498 -0.0066884547 0.054597124
0001c0 5c 1b ca 3c d8 a3 2a 3d 3f 0e a4 3c e3 3b 51 3d
       0.02467125 0.04166016 0.020026324 0.051082503
0001d0 2a 6a e5 3c 8d 68 85 3d ef 73 03 3d 4f a0 fc 3c
       0.028004725 0.06514082 0.032092985 0.03083816
0001e0 d3 05 c1 3c 76 e8 a2 ba ae 42 24 3c 14 c6 86 3d
       0.023562348 -0.0012428898 0.010025663 0.06580749
0001f0 03 dc 0c 3c e4 58 3c 3d 1d d1 dd 3c ca db 96 3d
       0.008597377 0.04598321 0.027077252 0.0736614
000200 16 aa f9 3c d2 ed 7a ba ee 70 61 bc 33 f4 0b 3d
       0.030476611 -0.0009572181 -0.013759835 0.034168433
000210 50 25 d9 ba 4f 94 16 3d 10 0a f4 3c 46 fa 19 3d
       -0.0016566906 0.03676253 0.029789954 0.037592195
000220 02 76 50 3d 5d 1d e8 3c a8 ea 65 bb 99 21 1f bd
       0.05089379 0.028334314 -0.0035082493 -0.0388504
000230 79 2d 79 3c 3f a2 eb bc 74 57 a7 3c ff f3 9c 3d
       0.015208595 -0.028763888 0.020427443 0.07663726
000240 06 6a 7c 3d bc 61 dd 3c 23 80 d3 ba e1 15 31 3d
       0.06162455 0.027024142 -0.001613621 0.043233756
000250 70 b3 25 3d 5c da 02 3d e5 75 0c 3d 15 2c 69 3d
       0.040454328 0.031946525 0.03429212 0.056926806
000260 ec 0b 01 3c 5e e3 56 3d 0a a0 e8 3c 67 7f 2d 3d
       0.007876378 0.052462928 0.028396625 0.04235783
000270 ba 34 a4 3d 11 6e 00 3d 84 ee c0 3c 98 6b 15 3d
       0.08017869 0.031354968 0.023551233 0.036479563
000280 d3 88 c0 39 69 87 a5 bc 49 39 e9 3c 85 d8 2f 3d
       0.00036723036 -0.02020617 0.028469699 0.0429311
000290 94 9f 1c 3d a6 5e 07 3d 2e 2a 60 bd 70 32 09 3d
       0.038238123 0.03304925 -0.054727726 0.033495367
0002a0 c1 7a 56 3d ec 3a ec 3c 5c 59 39 3d ec 05 c7 3a
       0.05236316 0.02883669 0.045251235 0.001518426
0002b0 19 4b 42 3d 17 45 79 3d 07 1b c4 3c 46 db dc ba
       0.0474349 0.060856905 0.023938669 -0.0016850017
0002c0 80 fb ef 3c 12 6b f5 3c b4 07 1c 3d c0 c2 91 bc
       0.02929473 0.029958282 0.038093284 -0.01779306
0002d0 0b 4d 1d 3c 7d ce 6b 3c 81 16 ca 3c 35 ba 6f 3d
       0.009600888 0.014392492 0.024668934 0.05852719
0002e0 4e 7d 77 3d e7 58 3e 3d 2e df 5c 3c f7 ca db bb
       0.060422234 0.046471503 0.013480945 -0.006707545
0002f0 44 33 37 3d de be 54 bd a7 ff ef 3c 13 3a 83 bc
       0.044726625 -0.051939838 0.02929671 -0.016018903
000300 59 f9 b9 3c 0f 9a 08 bd 21 fe 05 3c 73 81 d3 3c
       0.022701906 -0.033350047 0.008178265 0.025818562
000310 20 b1 67 3c 97 24 12 bd ca cc 3b 3d 44 9a 4e bc
       0.014141351 -0.035679426 0.0458496 -0.012610022
000320 c8 3f ec 3c 28 28 b2 3b 92 8c 19 3d 97 7c 20 3d
       0.028839007 0.005436916 0.037487574 0.039181318
000330 2e 21 f1 3b 47 c4 b2 bc 9e d8 1b 3d 91 68 41 3d
       0.0073586917 -0.021822108 0.03804838 0.047218863
000340 b8 9a 1e bd 3e cc 10 3c 4e 7c a1 b9 8d 4d d0 3c
       -0.03872177 0.008837758 -0.00030800927 0.025427604
000350 56 bc 32 3d 7b c3 aa 3d 94 d8 a0 3d 22 13 24 3d
       0.043636642 0.08338066 0.07853809 0.04005731
000360 e8 15 6f bc 0f 54 00 bd 42 5e 22 3d ba dc df 3c
       -0.014592625 -0.031330165 0.039640673 0.02732693
000370 d0 f1 12 3d 3c ae 7f 3d a4 11 82 3d 61 67 03 3d
       0.03587514 0.062422022 0.06351021 0.03208101
000380 cc 6a fe 3c 43 d8 d9 3c c3 6a 16 3d 3f 85 88 3d
       0.031056784 0.02659238 0.03672291 0.0666604
000390 31 ff 38 3d df ba 7f 3d bc 30 6c 3d 53 71 04 3d
       0.045165244 0.062434074 0.057663664 0.032334637
0003a0 08 90 f9 3c c0 0b d3 3c 41 f2 e7 3c 0b ba f2 3c
       0.030464187 0.025762439 0.028313758 0.029629728
0003b0 50 5b 06 3c 3a 20 10 3d 77 09 f5 3a 5c 71 23 bb
       0.0082004815 0.035186984 0.0018694837 -0.0024939394
0003c0 af 05 4d 3d a7 f4 89 3d 93 f4 53 3d 04 56 c8 3c
       0.05005425 0.06736117 0.051746916 0.024455078
0003d0 2a ed a1 3b 2f 9e 0d 3d 40 5d 79 3d 03 d4 44 3d
       0.0049416022 0.034574684 0.060879946 0.048053753
0003e0 09 35 85 3d fb 31 89 3d 21 20 6f 3d 0c 49 d1 3c
       0.06504256 0.06698986 0.05838025 0.025547527
0003f0 83 bb 3e 3c 82 f5 68 3c 66 e4 91 3d 99 01 5e 3d
       0.011641386 0.01421869 0.07123642 0.054200742

network_body._body_endoder.seq_layers.0.weight f4 [256, 6]
000000 7c 5b 97 3e 67 3d 13 bf bc 9d 07 3f 9f c3 13 bf
       0.29561985 -0.5751557 0.5297506 -0.5772037
000010 73 50 27 3e b6 7d 67 3e 90 52 88 be 2f 7c cc 3e
       0.16339283 0.22606549 -0.2662549 0.39938495
000020 79 ad 90 3e dd 38 68 be f0 42 bd bd 92 4a 09 3f
       0.2825735 -0.22677942 -0.09241283 0.5362941
000030 af 0e 4e be b1 ad 53 bf e9 2e 9a 3e 8f 2a 59 3e
       -0.20122789 -0.8268691 0.30113915 0.21207641
000040 4b 9c 28 bf 22 96 07 bf b1 a1 66 be 9c 89 d6 be
       -0.65863484 -0.5296346 -0.22522618 -0.41901863
000050 6f b8 b0 3d e1 9b 92 be ca da 88 bd fa dd ee 3d
       0.08628928 -0.2863455 -0.06682356 0.116634324
000060 1f 96 44 3e cc e7 de be 9c 38 4d be 71 50 3f bf
       0.19197892 -0.43536222 -0.20041126 -0.7473212
000070 24 a5 31 3e 02 79 a7 be a1 a0 c9 be 5a 92 1c bf
       0.17348152 -0.3270951 -0.39380363 -0.61160815
000080 f5 a3 5d 3c f6 01 b4 be 88 16 8f be 38 72 5e 3e
       0.01352786 -0.35157746 -0.27946877 0.21723258
000090 38 db ac be 91 93 67 3e 1f 0f 2a 3f eb d7 9e bf
       -0.33761 0.22614886 0.6642932 -1.2409643
0000a0 5a 06 74 3e 18 36 ff bb 69 17 87 3e 2e 45 17 3e
       0.23830548 -0.007788431 0.26385048 0.14772484
0000b0 8b 32 13 3f 20 42 55 be 23 81 32 3e b1 7d 68 3f
       0.57499 -0.20826006 0.17432074 0.9081679
0000c0 5d d5 0e bf ab 88 ce 3d 8c 69 4d 3d cf 08 ad bd
       -0.55794317 0.10084661 0.050149485 -0.08448946
0000d0 24 24 4c be 5e ff 8c be 9d cf 69 3e 2d 2a c0 bd
       -0.19935662 -0.2753858 0.22833104 -0.093830444
0000e0 4a a4 c1 bc 11 50 7d 3e b3 85 f5 3e 70 af eb bd
       -0.02363791 0.24737574 0.47953567 -0.115080714
0000f0 ec 84 82 3f 27 2d bb 3e cd 22 e4 be 74 be 35 be
       1.0196815 0.36557886 -0.445578 -0.17748433
000100 21 d3 31 bf dc 68 d5 3e b1 f9 b6 be af e7 00 3f
       -0.6946278 0.41681564 -0.35737374 0.5035352
000110 f5 27 91 3e 43 b3 02 3e a8 93 d7 3d ca 87 53 3f
       0.28350797 0.12763695 0.1052621 0.8262907
000120 14 c7 56 be 18 82 22 bf f5 06 ec be c7 22 35 3f
       -0.2097438 -0.6347976 -0.46099058 0.7075619
000130 4f 7e 38 3e af a2 55 3e 6c 54 6c 3c 7e 3e fb 3e
       0.18016933 0.2086284 0.014424425 0.49071115
000140 62 8c c2 3e 6d 6c 92 3e db e4 33 3f 60 da 6f bf
       0.3799773 0.28598347 0.7027108 -0.9369259
000150 0d c3 08 bf 38 f8 22 3f 47 1b b2 be 79 15 b1 be
       -0.53422624 0.6366 -0.34786436 -0.34586695
000160 4a 47 4f 3f 9d 80 bf 3d 3a 70 8a 3a 9c 3b aa be
       0.80968153 0.09350703 0.001056201 -0.33248603
000170 b2 4e cc be ac 7d ff 3e 53 33 3a bf f5 03 91 bd
       -0.3990379 0.49900568 -0.72734565 -0.07080833
000180 17 ad 91 be a1 53 2c 3f ec 23 1c 3e b7 16 e3 be
       -0.2845237 0.6731511 0.15248078 -0.44353268
000190 ee a9 82 3d b7 47 16 bf c8 98 40 3e 44 e2 07 bf
       0.06380068 -0.5870318 0.18808281 -0.5307963
0001a0 74 33 4d be 72 7c e1 3e f4 8c da be 96 e5 56 3e
       -0.20039159 0.44040257 -0.42685664 0.20986018
0001b0 4a ca 3b 3e 89 7b 57 3e 45 c3 9b be 4b 21 a4 be
       0.18338886 0.21043219 -0.30422416 -0.3205665
0001c0 f4 fa 20 be 32 66 8d be d8 8f d6 3d bf b8 3d bf
       -0.15720731 -0.2761703 0.10476655 -0.74110025
0001d0 18 40 f3 be 61 c9 0f be d1 53 8c bf b5 78 d3 3e
       -0.47509837 -0.14041664 -1.0963079 0.4130303
0001e0 d3 f6 09 3e 4a 44 2f 3f 66 50 b1 bd a1 1d 81 3e
       0.13473062 0.68463576 -0.08657913 0.25217918
0001f0 09 c2 0b bb ad a2 f6 3c 45 d3 9e bf a2 a8 af 3d
       -0.002132537 0.030106867 -1.2408224 0.08577086
000200 9f 5f ea 3d 1d dd 4c be d6 65 83 3d eb b6 8e 3e
       0.114440195 -0.20006223 0.06415908 0.2787393
000210 74 cc 06 bf 0c b7 24 bf f8 f4 7f bf 61 ac 39 3f
       -0.5265572 -0.6434181 -0.9998317 0.72528654
000220 35 0d c8 be f1 16 06 3e 1c 04 b7 be 1c 25 12 3f
       -0.39072576 0.13094689 -0.35745323 0.57087874
000230 ed b7 a0 3e f4 71 76 3d e2 77 08 3c 02 27 5d bd
       0.31390324 0.060167268 0.008329364 -0.05399228
000240 15 8e 47 3e 01 7b b7 bc c9 61 74 be 88 1b 3b be
       0.19487794 -0.02239752 -0.23865427 -0.18272221
000250 60 4d 49 be 86 0f de b9 7e a9 93 be 50 66 af 3e
       -0.19658422 -0.00042354706 -0.2884025 0.34257746
000260 c5 47 56 be af bc d4 bd 01 fc d7 3d 7c 28 37 be
       -0.20925815 -0.10387551 0.10546113 -0.17886537
000270 a4 6a 40 bf a5 61 29 3d 00 53 21 3f f8 0b aa 3e
       -0.7516272 0.041352887 0.6301727 0.33212256
000280 f1 37 05 bf f1 e2 99 3d ce 5a f5 3e 97 b9 b4 bd
       -0.52038485 0.07513989 0.4792084 -0.08824461
000290 a9 5c 75 3e 16 12 16 3f 5e fe 8d be 28 89 1c 3f
       0.23961128 0.58621347 -0.2773313 0.61146784
0002a0 96 07 79 3e 90 31 91 be 5a 34 ac 3e 95 24 03 3f
       0.243193 -0.28358126 0.3363369 0.51227695
0002b0 20 79 ba 3e 4b 6a ac be c5 23 83 be da 64 ae 3e
       0.36420536 -0.33674845 -0.25613227 0.3406132
0002c0 13 14 06 bf 83 1d a5 be 4e 3e 2d 3f fe 17 8a 3e
       -0.5237438 -0.32249078 0.67673194 0.2697143
0002d0 9d 5f f8 3e 5c 86 db 3e 66 8a aa bd 43 e0 22 bd
       0.48510447 0.42875946 -0.08327179 -0.039764654
0002e0 bf 3a 4e 3e ab c2 22 3f 4d c3 77 be 9a e6 5b 3f
       0.20139597 0.6357829 -0.24195595 0.85898745
0002f0 98 16 2e bf d9 f7 84 be 37 8f 2f bd 79 a2 74 3c
       -0.68003225 -0.25970343 -0.04286119 0.014931315
000300 ed 5c f6 3d 59 08 ad bd bf ca af bd 2c 56 28 be
       0.12029443 -0.08448858 -0.085835926 -0.16439122
000310 81 bf d3 3e a2 2b 9d bd 6a 0a b6 be 13 7c 69 be
       0.41357043 -0.07674338 -0.3555482 -0.22801237
000320 c9 e4 d9 bd 24 fb 90 be df ad 3b 3f 20 70 97 3e
       -0.106393404 -0.28316605 0.7331218 0.29577732
000330 7a 1d b5 bd a1 fe 32 3f 89 ef fe 3e 5b 3c 9e 3e
       -0.08843513 0.6991978 0.49792126 0.30905423
000340 15 e4 97 3d ec 9f 9a 3e 12 da 92 3e d3 6a 9f be
       0.0741655 0.30200136 0.28682 -0.31136188
000350 93 6b d5 bd 6d 10 6c 3e 7e 95 df 3e d4 11 fb be
       -0.10420909 0.23053141 0.4366874 -0.4903704
000360 d5 47 06 3d f9 81 55 3e 43 16 99 3e fc 6a 01 3f
       0.032783348 0.20850362 0.29899797 0.5055387
000370 29 d8 41 bf 01 93 65 3f 4f c2 6f 3e c7 4f e0 3e
       -0.7572046 0.89677435 0.23413967 0.43810865
000380 ba d3 25 be 56 d3 71 be 6f b5 62 be 8f ed 06 bd
       -0.16194049 -0.23615775 -0.22139524 -0.032941397
000390 04 63 51 3e 76 98 3f bd 71 b3 2a be 42 72 51 3f
       0.20447928 -0.046776257 -0.16670014 0.8181497
0003a0 2d 7c 24 bf 7b ac 9d 3e b3 9d 76 3e a0 4e 33 bf
       -0.6425198 0.30795655 0.24083595 -0.7004185
0003b0 aa e7 99 bc 96 c7 9b be f4 c7 5d be 1f 8d 18 3f
       -0.018787224 -0.3042571 -0.21658307 0.59590334
0003c0 fc 92 b0 be 34 90 dd bd f2 99 d5 bc 50 4d 66 be
       -0.3448714 -0.1081852 -0.026074383 -0.2249043
0003d0 90 53 97 be 90 f5 2b bf cb 7e b4 bd 89 f9 a5 3e
       -0.2955594 -0.67171574 -0.08813246 0.32416943
0003e0 66 99 5e be de 4c 22 3f f9 35 9f be 8e cd e2 be
       -0.21738204 0.6339854 -0.31095865 -0.4429745
0003f0 fa ba b3 be d1 14 0b 3e 30 5f c4 be c7 9d 1e 3d
       -0.3510359 0.1358216 -0.38353872 0.038724687

network_body._body_endoder.seq_layers.2.bias f4 [256]
000000 9e 6e 20 3d be a9 8f bd 56 4e e8 3b 0d 1e f7 3c
       0.039167993 -0.07014798 0.0070894165 0.030165697
000010 cd d8 d7 3c 08 06 97 bd 2f 30 9b 3c 1a 8c 89 3d
       0.026348496 -0.07374197 0.018943874 0.067161754
000020 b5 2a 1c 3d 27 5f 56 bb a5 9a f6 3b 20 71 b2 39
       0.038126666 -0.0032710524 0.0075257593 0.0003403509
000030 3d 5a 8a 3d 38 53 b1 3c 19 de 9f 3c 9f 44 2f bd
       0.06755493 0.021646127 0.019515084 -0.04279005
000040 a9 3a 52 3d 11 f5 49 3d 91 0c 5b bd 4c b9 45 3c
       0.051325474 0.04930598 -0.05347878 0.012068104
000050 16 c8 f2 3b 26 8e c1 bc 7b 76 2d bd 40 1b d9 3c
       0.007409106 -0.023627352 -0.04234932 0.026502252
000060 61 41 10 bd 1a 1e 50 bd ec cb bd 3c 67 b7 2b bc
       -0.0352186 -0.050809957 0.023168527 -0.010480738
000070 7e 07 34 3d 3a f3 2d bb 54 57 e0 3c 2e 9b 8f 3b
       0.043952458 -0.002654268 0.027385391 0.0043825125
000080 57 11 d7 bc b8 91 70 3d e3 45 50 3d 85 06 3f 3d
       -0.026253385 0.05873272 0.0508479 0.046637077
000090 6c 98 24 3d a6 32 3c bd ce b4 47 3d 76 55 f2 bc
       0.040184423 -0.04594674 0.048756413 -0.029581767
0000a0 3d 74 29 3d 66 c2 22 bc 14 31 94 3c f0 cf 36 3c
       0.04137062 -0.0099340435 0.018089809 0.011157975
0000b0 31 9a 02 3d 6c 92 19 3d a7 26 1e bd b5 03 4a 3d
       0.03188533 0.037493154 -0.03861108 0.04931994
0000c0 87 b9 2f 3d d8 e3 fd 3c 68 60 96 3c d7 1b 4f 3c
       0.042901542 0.030992433 0.018356517 0.012640915
0000d0 1c d4 12 bd 1f c6 e0 3c ae 22 14 3d 86 bc 84 bb
       -0.035846815 0.027438221 0.036165886 -0.004050794
0000e0 ef 48 0e 3d 0c 5e 01 bc c3 bd ed 3c 25 a5 8f 3c
       0.034737524 -0.007895958 0.02902115 0.017534802
0000f0 04 3f 8b bd 9e c0 c1 3c 16 2d 87 3d 70 31 12 3d
       -0.06799129 0.023651417 0.06600396 0.03569168
000100 80 4f 52 3d 95 35 85 3d 4b 89 c6 3c 06 1f b0 bb
       0.05134535 0.065043606 0.024235388 -0.005374792
000110 4e 44 b6 3c 2f 59 2d 3c 80 b4 4b bd 13 79 96 3d
       0.022249367 0.010580345 -0.049732685 0.07347312
000120 1a 65 86 bc 9d 95 85 3c dd 3b 33 bc d2 a4 aa 3c
       -0.01640563 0.016306693 -0.0109395655 0.020830546
000130 1e f3 56 3c 8e 84 be ba 91 08 91 bc 22 8a 06 3d
       0.013119487 -0.0014535354 -0.01770428 0.032846577
000140 a3 a8 8d bc be cc 36 3d a1 2d 82 3d 55 dc 23 3c
       -0.017292326 0.04462885 0.06356359 0.010001262
000150 6e 88 08 3d 2d c5 29 3c 6e e0 83 3d 6e 5a 9d bb
       0.033333234 0.010361952 0.06439291 -0.00480204
000160 c2 ed 44 bd 3d ef c6 bb 88 5b f0 3c 15 5b 27 bc
       -0.048078306 -0.006071 0.02934052 -0.010214587
000170 5f 2b 59 bd a7 fe 0e bc 07 02 20 3c 15 15 cc 3c
       -0.053019878 -0.008727706 0.009766108 0.024912396
000180 4c 00 11 bd f3 d6 6c 3d b3 2c 6f 3d f0 95 14 3d
       -0.035400674 0.05782218 0.058392238 0.036275804
000190 1b 57 d5 3c 6c 0f 7e 3d 23 04 90 3c f6 3b f2 3c
       0.026042512 0.062026426 0.017580098 0.029569607
0001a0 ec b9 a1 3d 40 84 18 3d aa d8 81 3d 89 e6 04 bd
       0.0789679 0.0372355 0.063401535 -0.032446418
0001b0 ec 62 b9 3c 25 0b 20 3d 4b 49 2a 3d 7a ca 0d 3d
       0.022630177 0.03907313 0.041573804 0.034616925
0001c0 5c 45 bc bc c5 49 11 3d 58 aa 25 3d 61 8b 8b 3c
       -0.022982292 0.035470743 0.040445656 0.017034234
0001d0 6f 69 28 3c 2f 6e 49 3d 47 0e 39 3d 15 6e e6 3c
       0.010279044 0.049177345 0.04517963 0.028128663
0001e0 33 a6 00 3d 5d 99 d2 3c 3b 92 fe bc 3d be 56 3c
       0.0314085 0.025707895 -0.031075587 0.01310688
0001f0 8e a5 68 3d 7e 19 00 3d b0 85 40 3c fc 59 b6 3c
       0.05679851 0.03127431 0.011750624 0.022259705
000200 bb 18 b3 3c e7 df 08 bd c4 7e 8d 3d dd ef 37 bd
       0.021862378 -0.033416655 0.06908944 -0.044906486
000210 80 9d 75 bd f1 2a 3f 3d 65 b5 b1 bc 7e 67 59 3d
       -0.059964657 0.04667181 -0.021692941 0.053077213
000220 3d 2c dc 3c d9 e8 89 bc fd 05 b6 3c df 59 69 3d
       0.026876563 -0.016834663 0.022219652 0.056970473
000230 32 99 b6 bb 57 f2 0f bd d3 fc 30 3d 5a 6a 1b 3c
       -0.0055724615 -0.035143223 0.043209862 0.009485805
000240 be 3b 8c 3b 4f 53 e4 3c 71 80 da bb 9e 27 ac bc
       0.0042795828 0.027871756 -0.0066681434 -0.021014985
000250 d8 f6 e0 3c ef 12 c0 3c 0e e3 17 3d 15 aa 59 3c
       0.027461454 0.023446528 0.03708177 0.01328518
000260 9c 70 14 3d ee c8 32 3d 50 a1 32 bd 16 d9 8b 3c
       0.036240205 0.043648653 -0.04361087 0.017071288
000270 ff f6 98 3c de 9a f4 3c 97 fa c6 3c f3 d7 85 bd
       0.018672464 0.029859003 0.024289412 -0.0653533
000280 8b 7f 94 3c e3 b0 6e 3d 80 a7 bf 3c f2 bd 31 3d
       0.018127223 0.05827416 0.0233953 0.043394037
000290 98 ba df bc bd 2a 22 3d ee 9e 7d 3d 92 f6 c8 bc
       -0.027310655 0.03959154 0.061919145 -0.024531636
0002a0 ce a3 c4 3c 9c 23 aa 3b c4 c8 40 bc f2 62 31 3d
       0.02400389 0.0051922332 -0.011766616 0.043307252
0002b0 9d d0 8c 3a 36 76 88 3d ff f7 87 bd 94 23 72 bc
       0.0010743324 0.06663172 -0.066390984 -0.01477899
0002c0 97 dd f4 bc f0 3b 1f 3d 9b 61 30 3d a5 74 55 3d
       -0.029890819 0.03887552 0.043061834 0.052113194
0002d0 cc 14 27 3d cd 5b 90 3d 79 3e 07 bc 7c e2 7f bc
       0.040791318 0.070487596 -0.008254641 -0.015617963
0002e0 7f 2a c5 bc f4 76 00 3d fb 51 f1 3a 38 e3 ea 3c
       -0.024068115 0.031363443 0.0018411273 0.0286728
0002f0 1b 1a 29 3c 31 98 a7 3c 7c 9f 4b 3d 12 41 5d 3d
       0.010321165 0.020458313 0.049712643 0.054017134
000300 e9 42 ed 3c 05 4e 09 bd 10 0d 89 bc fc 30 99 ba
       0.02896257 -0.03352167 -0.016729861 -0.0011687572
000310 ca db 46 3d a2 d7 b4 3c e7 76 89 bd ed 5b f7 3b
       0.04854945 0.022075478 -0.06712132 0.0075488
000320 15 f2 23 3d ac 0e 9b bc 60 43 d0 3c 0d 09 51 3d
       0.04002579 -0.018927895 0.025422752 0.051034022
000330 b9 b3 be 3c 9b 0c 6b bc 2b bb 50 bc 78 60 2a bc
       0.023279058 -0.014346267 -0.012739937 -0.0103989765
000340 4e 82 68 bd 87 03 6a 3c 63 61 51 bd c8 c9 0d 3d
       -0.056764893 0.014283068 -0.051118266 0.03461626
000350 2a 21 8f 3c 0c 64 97 bd a8 fe a9 3c d2 bc 2a 3d
       0.017471869 -0.07392129 0.020751312 0.04168398
000360 1d 28 90 ba 59 c4 84 39 97 1b db 3c 26 fb c8 b8
       -0.0010998283 0.00025323292 0.026746554 -9.583523e-05
000370 be cf 81 3c d2 04 bf 3c 01 38 12 3c fc 3c 11 bd
       0.01584613 0.023317728 0.008924485 -0.03545855
000380 4e 16 98 3d 35 c3 85 3c bd 7f dd bc 33 10 0b bd
       0.07426129 0.016328434 -0.02703845 -0.033950996
000390 14 89 ba 3c 92 ca 08 bd 77 56 cb 3b ae 94 85 bd
       0.022770442 -0.03339631 0.006205376 -0.06522499
0003a0 66 51 1c 3d a7 a1 07 3d 66 41 8c bb 5b 2c 01 3d
       0.038163565 0.033113148 -0.004280257 0.03153644
0003b0 ae 3a d7 3c f6 d5 2b 3c ac 9f 17 bd f5 b8 7b bd
       0.026273098 0.010488024 -0.03701751 -0.061455686
0003c0 e5 dc f8 3c 45 a3 32 ba 18 2d 76 3d 7d 48 71 3c
       0.030378768 -0.000681449 0.0601016 0.014726755
0003d0 55 86 a0 3c ae 05 e7 3b e8 8a 6a 3d 26 76 c8 bc
       0.019595305 0.0070502376 0.057261378 -0.0244704
0003e0 1b 92 0e 3d 80 23 8b 3d 8f 15 44 3d bc cd ed 3c
       0.034807306 0.067938805 0.047872122 0.029028766
0003f0 3a 1e cb bc 0f 6f ff 3c 46 7c 63 3d 16 26 e4 3b
       -0.024794687 0.031180887 0.05553844 0.006962548

network_body._body_endoder.seq_layers.2.weight f4 [256, 256]
000000 57 76 b8 3c 62 04 45 bd 55 d7 96 3a f9 6b ab bb
       0.022517366 -0.048099883 0.0011508266 -0.005231377
000010 d5 32 07 3d d9 b7 ce bd cd 03 44 be ca 37 a7 3d
       0.03300746 -0.1009366 -0.19142075 0.08164938
000020 91 3e ea bd 65 3d 17 3c 34 7d 9d bd 76 00 84 bd
       -0.11437715 0.009230946 -0.07689896 -0.064454004
000030 1b b2 9c bc 76 f6 92 3c ab b6 91 bd e8 8b 12 3d
       -0.019127896 0.017939787 -0.07114919 0.035777956
000040 1d 0b f9 bb 4f 67 8f 3d 81 fd 64 3d e8 fd 51 bd
       -0.0076002018 0.070021264 0.055905823 -0.051267534
000050 75 6d 00 be f6 e7 92 bd 6c 01 7a 3d 59 3c ef 3a
       -0.12541755 -0.07173149 0.061036512 0.0018252238
000060 d7 67 78 bc f6 58 d4 3c df 75 f5 bc 8d 2b 99 bd
       -0.015161476 0.025921326 -0.029963432 -0.0747901
000070 9a 3c d8 3c cb 26 b5 bd 3c 23 29 3d 25 ef ef 3b
       0.026396085 -0.0884529 0.041293368 0.0073222094
000080 a8 f2 b7 3d 52 df 83 bd 66 17 d0 bd 59 5e 03 3e
       0.0898183 -0.06439079 -0.10160713 0.1282896
000090 81 b1 24 3d 78 8b af 3d 83 9b 1a 3d 35 f0 1a 3c
       0.040208343 0.085715234 0.037745964 0.009456684
0000a0 10 15 65 bb 6a 52 1c bd 81 0a a3 bd fa 25 0b 3d
       -0.0034955181 -0.038164534 -0.07960988 0.033971764
0000b0 89 ec 03 bd 9d 39 23 be 4f 5b 11 bd c5 ea a7 bd
       -0.032208 -0.15939946 -0.03548747 -0.081990756
0000c0 66 58 0f be f7 94 1a 3c 05 22 a0 3d 9e 07 06 3e
       -0.13998565 0.00943493 0.07818989 0.13088843
0000d0 d0 95 b8 bd 11 b5 e2 3d f4 cf c8 bd 9c 64 5b bc
       -0.090129495 0.11069692 -0.09805289 -0.013390686
0000e0 42 fa 9b bd 02 02 65 bd a9 f7 94 bc 0f 9f 05 bd
       -0.07616092 -0.055910118 -0.0181845 -0.032622393
0000f0 d6 27 d4 bd 18 97 2b 3c c3 5f 55 3d f1 b9 0d 3e
       -0.103591606 0.010473035 0.05209328 0.13840462
000100 7e 95 f4 3d 4e 68 b4 bd 2e 6f 90 bb 4c 0b 2a bd
       0.11942576 -0.08808957 -0.004407785 -0.04151468
000110 71 48 37 3d c5 aa 13 3b 5b 61 39 bc 50 d8 09 bd
       0.04474682 0.0022532206 -0.011314715 -0.033653557
000120 e2 2c ac 3d 60 23 36 ba 01 7d 75 bd 75 74 e0 bc
       0.08406998 -0.00069480203 -0.059933666 -0.027399281
000130 4b f9 3a 3d bd ae 2c bd 43 2b 86 3d e3 c3 29 be
       0.0456479 -0.04215883 0.0655122 -0.16578631
000140 be fb f4 3d bb 14 d0 bc 1d 21 9c 3c f0 5c 7e bc
       0.119620785 -0.02540051 0.019058758 -0.015525088
000150 b7 5c f6 bd 0c 40 db bd 1e 8a 91 bc a3 db da 3d
       -0.12029403 -0.10705575 -0.017766055 0.10686424
000160 e6 c1 cf bc b5 5e d3 bd 3f 2c 05 be d6 b1 60 bd
       -0.025361013 -0.10320798 -0.1300516 -0.054857098
000170 2a c9 62 bd ad a9 57 3d 8f 9c ca 3c 2b a9 8d 3d
       -0.055367626 0.05265205 0.024732856 0.06917032
000180 a9 94 ec 3c 77 79 d2 3a 96 77 74 bd 44 02 ff ba
       0.02887948 0.0016057928 -0.05968436 -0.0019455631
000190 30 3a 41 bd 17 1d 07 bd 95 a8 17 bd 9b 43 89 bd
       -0.047174633 -0.032986727 -0.037026007 -0.06702348
0001a0 a4 3b 13 bc 4b 6b 8a 3d b3 89 f1 3c ac 6d bb 3c
       -0.008986387 0.06758746 0.029484605 0.022879444
0001b0 b6 36 8b 3c a9 65 86 bc f8 25 08 3e fa f1 ad bb
       0.016993862 -0.016405897 0.13295734 -0.005308387
0001c0 b0 1c a6 3d 78 c5 02 3d 28 8a 2c bd 13 75 ed bd
       0.081109405 0.031926602 -0.042123944 -0.11594596
0001d0 3e eb 67 3d 03 01 33 bd 45 72 74 3d 56 0f a4 3c
       0.05662083 -0.043702137 0.05967929 0.020026844
0001e0 39 d6 ff 3c 75 7e 1b bd 8c ea 9c bd 98 c5 21 3c
       0.031230079 -0.037962396 -0.07661924 0.00987377
0001f0 e8 30 9c 3d 9c 92 3f bd 73 3a 70 3c 5b 52 09 bd
       0.076265156 -0.046770677 0.014662373 -0.033525806
000200 d9 68 8a 3c 15 db 90 bd 6b c2 8e 3d e6 1e b8 bd
       0.016895698 -0.070730366 0.06970676 -0.089902684
000210 f4 31 ad 3d fa 2b 8d bd 4a 51 55 bd 22 b9 23 bb
       0.084567934 -0.068931535 -0.052079476 -0.0024982174
000220 d8 7a 5b bd c5 c5 12 3b 47 b9 d0 bd 0d d6 18 3d
       -0.05358395 0.0022395712 -0.10191589 0.03731351
000230 4d 8c 1e 3d 1f c1 dd bd 77 ca 27 bd 9b d2 29 3c
       0.03870802 -0.108278506 -0.04096457 0.010365154
000240 1d 89 b2 bc 28 f1 6c 3d 91 bc 29 3c 58 f7 a2 bd
       -0.021793896 0.057847172 0.010359899 -0.07957333
000250 8a 3e 47 bd f2 42 ee 3d ad 77 e8 3d 7e 95 5d bd
       -0.048643626 0.116338626 0.11350951 -0.054097645
000260 24 38 ad bc e5 f2 1a bc 84 7b 36 bd 56 99 06 bd
       -0.021144934 -0.009457325 -0.044551387 -0.032861076
000270 ee da 26 bb 9a fc 05 3d 3b c6 8e 3d de 3b fd bd
       -0.0025460082 0.032711603 0.06971403 -0.123649344
000280 0c 8d 9c 3d 57 24 88 bc bd 80 61 3c 71 6c b9 3d
       0.0764409 -0.01661889 0.013763604 0.09053887
000290 50 74 46 3d ca 8d e5 3c 27 83 66 3c af 42 f1 bb
       0.048450768 0.028021712 0.014069355 -0.0073626856
0002a0 31 2c d3 bd 90 24 c8 3d 67 93 5b ba 5b b5 16 3d
       -0.10311163 0.09772599 -0.00083761517 0.036794048
0002b0 94 57 8b bd c4 89 38 bc fe da 07 bc 94 5d f0 3d
       -0.068038136 -0.011263315 -0.008291958 0.117365986
0002c0 92 8c ae 3c 45 33 e7 3d 04 2a b3 3d 2b 66 1c bd
       0.021307264 0.11289076 0.08748248 -0.038183372
0002d0 22 ec 02 3d 22 2d e6 bd b3 bf b8 bc 72 7a 15 be
       0.031963475 -0.11239077 -0.022552347 -0.1459749
0002e0 5d d6 88 bd de f4 95 3c 8e 56 b6 bb 60 e5 7f bb
       -0.066815116 0.018305238 -0.0055645173 -0.003904663
0002f0 3f 42 19 bb bb 33 17 bb 1c 46 9e 3d 4b 08 8b 3d
       -0.0023385433 -0.0023071605 0.07728216 0.06788691
000300 c9 08 d6 3d 5c e8 74 3d 5c 23 2c 3d af a9 17 3c
       0.104508944 0.059791908 0.04202591 0.009256764
000310 39 e5 c7 bc 2d 58 a4 3c 52 6e 10 be b3 38 2f 3d
       -0.024401294 0.020061577 -0.14104584 0.042778682
000320 7f c6 bd 3d c3 af 46 bc ce 84 a2 3c cd 9b 16 3d
       0.09266376 -0.012126866 0.019838717 0.036769677
000330 73 ad 84 3d 21 eb ae 3d 8d bf 42 bc 86 8d 71 3c
       0.06478395 0.08540941 -0.01188649 0.0147432145
000340 c4 d9 9f 3d 20 a0 5a 3c b5 67 ed 3d bc f6 37 3d
       0.07805207 0.013343841 0.11592046 0.04491304
000350 4b ea 85 3d e8 07 7c bd a6 24 ff bd 30 fe ef bc
       0.065388285 -0.061530977 -0.12458162 -0.02929601
000360 07 28 5f 3c 5f 6c c9 bd 66 6e 21 bd 9c 4c aa 3d
       0.013620383 -0.09835123 -0.039411925 0.08315393
000370 39 55 4e bd 66 9d a1 bd 51 f6 1c 3d 26 fd ac 3c
       -0.050374243 -0.078913495 0.038320843 0.021116804
000380 3e 12 df bd 5c 9e 86 bc bd 6e 94 3d f1 e7 e3 bc
       -0.10892151 -0.016432934 0.07247684 -0.02782056
000390 0b 82 86 3d fb fb c2 bc 1f cd fc 3c b1 5f 97 3d
       0.065677725 -0.023801794 0.030859528 0.073912986
0003a0 15 7b 14 3d ea 71 94 bd 0e 93 c7 3d 27 43 65 bc
       0.036250193 -0.0724829 0.09744845 -0.013993061
0003b0 f9 4f a1 3c a2 63 f1 3d 7a 94 93 bd 4f 15 4e 3d
       0.019691454 0.117865816 -0.07206054 0.05031329
0003c0 67 75 89 bd f6 c2 23 3c 5a 1e b1 bc 32 c9 73 3d
       -0.06711846 0.009995213 -0.021620918 0.059518047
0003d0 1d c1 d6 3c 3f 87 e6 bd 04 1c 98 3d db 53 8d 3d
       0.02621513 -0.11256265 0.074272186 0.0690076
0003e0 ca 3d d5 bd b7 93 9f bd 0e 81 ed 3c 9f 11 02 3e
       -0.10412176 -0.07791846 0.028992202 0.12702034
0003f0 90 97 c1 3c a0 cb 02 bb cb 14 2d be fd 56 a9 3a
       0.023631841 -0.0019957796 -0.16902463 0.0012919601

network_body._body_endoder.seq_layers.4.bias f4 [256]
000000 f9 88 f1 3b 66 11 49 3d e6 44 26 bd b3 91 10 3d
       0.0073710647 0.049088858 -0.04059305 0.0352952
000010 2d fc dc 3c d2 25 cc bc 06 a7 1c 3d af 16 89 bc
       0.026975716 -0.024920378 0.038245223 -0.01673445
000020 c5 1a 2e bc e2 54 9c 3d 77 0e b5 3c 83 aa 13 bd
       -0.0106265 0.076333776 0.022101624 -0.036051285
000030 b4 e5 fe 3c e5 d3 3b bd 11 ba 5a 3d f4 67 b0 bc
       0.03111539 -0.045856375 0.053400103 -0.021533944
000040 2d ab b5 3c 8b c6 55 bb 34 98 c1 bc e4 2d 3e 3d
       0.02217635 -0.0032619562 -0.023632146 0.046430483
000050 a5 52 7a 3c 44 72 59 3d bd b8 40 3c 12 d3 55 3d
       0.015278493 0.053087488 0.011762795 0.052203245
000060 59 74 eb bc 18 28 ac 3c 72 ec 6a 3d 5f fb 09 3c
       -0.028742002 0.021015212 0.057354398 0.008421748
000070 58 21 4c bc 4b 81 24 3d 4c e9 0f 3d c3 ec 3a 3d
       -0.012459122 0.040162366 0.0351346 0.04563595
000080 7b 7e 9b 3d 1c a4 87 bc 5d d4 8c 3c d7 8b 2d bc
       0.075924836 -0.016557746 0.017191106 -0.010592422
000090 ff 4e 80 3d b0 9e a0 3d 72 6c 88 3c 32 17 cc bc
       0.06265067 0.07842767 0.016653273 -0.024913404
0000a0 b1 c6 05 3d af d7 17 bd ed 41 46 bd 4f dd f4 bc
       0.03266019 -0.037070926 -0.048402715 -0.029890684
0000b0 3e 0e 52 3d 7e 79 1c bd 07 a1 b4 3c eb 2f e3 3c
       0.051283114 -0.0382018 0.02204944 0.02773281
0000c0 e2 94 ea 3c d6 79 39 3d ea 7c 79 3d 2a b8 47 bd
       0.028635446 0.045282207 0.060910143 -0.048759617
0000d0 a4 6d 80 ba a3 02 25 3d ed 1d 01 3d 07 08 43 bd
       -0.00097983 0.040285718 0.03152268 -0.047615077
0000e0 a8 e5 9e 3c ce b6 62 bc b2 62 5a 3d 62 a0 0d 3d
       0.019396618 -0.013837529 0.05331678 0.03457678
0000f0 1d 42 4b bd 9c 31 34 3d 04 f9 db 3c 04 ce 30 bd
       -0.049623597 0.043992624 0.026852138 -0.04316522
000100 3e 09 25 3d a5 dd 0c 3d 9e a1 65 39 ae f8 75 3d
       0.040292017 0.034391064 0.00021899349 0.060051613
000110 12 78 3c 3d c1 6d 98 3d 6e 2e 3a bd 45 0c b9 3c
       0.046012945 0.07442809 -0.045454435 0.022588858
000120 12 75 62 3d 7d 0c 5b 3d c8 46 6b 3b 11 64 35 3d
       0.05528743 0.053478707 0.0035900343 0.044284884
000130 b2 b9 76 3d 21 35 46 3d 07 ef 5e 3d 6c 6c 0d 3d
       0.060235687 0.04839051 0.054427173 0.034527227
000140 33 56 11 3d 4a 29 7e 3d 9b 0c a8 3d d4 ea 2d 3d
       0.035482597 0.062051095 0.08205529 0.042460278
000150 55 24 5a 3d a3 4b 4e bc 69 9f 47 3d e5 df 99 bc
       0.053257305 -0.012591275 0.04873601 -0.018783519
000160 4e 79 0e 3d 4a b3 59 3c 5f 6d 7d 3d 74 0c 6e 3d
       0.034783654 0.013287375 0.061871883 0.058117345
000170 71 8e 42 3d ef 95 cd 3c 46 6b 88 3d 02 f8 32 bd
       0.047499124 0.025095908 0.06661086 -0.04369355
000180 91 e3 da 3c ed 2b 4f 3d 0d fc 08 bc 34 a8 89 3c
       0.02671984 0.050579 -0.008360875 0.016803838
000190 2e 73 4d 3d 19 61 a5 3b 2b 51 00 3d 6c 70 41 3d
       0.050158672 0.0050469753 0.031327408 0.047226354
0001a0 0f e5 8e bc 73 2f e4 3c 87 2e 7f bb dc 0d 22 3d
       -0.017443208 0.027854657 -0.0038937645 0.039564
0001b0 50 f9 22 bd 58 77 5a bc ab f6 d9 3b ce 36 36 3d
       -0.039788544 -0.013334118 0.0066517196 0.04448586
0001c0 87 91 ab 3c c0 bb 9d 3d ac 4e ed b8 12 f0 dc 3c
       0.020943416 0.07701826 -0.000113156944 0.026969943
0001d0 67 a4 0e 3d 90 9d fc bc 31 50 eb 3c dc 32 6b 3d
       0.034824755 -0.03083685 0.028724762 0.05742155
0001e0 cc 19 86 bc ab 7e 19 bd 7e 12 45 3d 44 f0 5c 3d
       -0.016369723 -0.037474316 0.04811334 0.053940073
0001f0 6f 09 dc 3a 84 00 29 3d 1a 20 3e 3d 23 1f 56 3d
       0.0016787479 0.041260257 0.046417333 0.052275788
000200 8b fd 6e bb 7e 0b 53 3d f0 93 2b 3d c5 8c bb 3c
       -0.0036467041 0.05152463 0.04188913 0.022894273
000210 af 6f 55 3d 17 49 46 3d 99 7a 3e 3d 9b f5 26 3d
       0.052108463 0.048409548 0.046503637 0.04076157
000220 46 d4 c5 3c 21 2f 58 bd 7d 71 48 3d cf df 12 bd
       0.024149071 -0.05277932 0.048936356 -0.03585797
000230 65 79 31 3d 09 a4 51 3d d1 9e 00 3d bd 4a 85 3c
       0.04332866 0.051181827 0.03140146 0.01627099
000240 79 5c b9 bc 8d 0b 3d 3d cc 48 82 3d 89 52 31 3c
       -0.022627102 0.046153594 0.06361541 0.010822901
000250 24 bd 88 3c b5 0c 00 bc 50 89 65 3b 52 a9 58 3d
       0.016691752 -0.00781553 0.0035024472 0.05289585
000260 83 35 74 3d 0f be f5 3c 43 c0 18 3d 95 92 1f bd
       0.059621345 0.029997854 0.03729273 -0.03895815
000270 bc 69 81 3d f5 a8 55 3d cb 05 8b 3d 61 3a 72 3d
       0.06318995 0.052163083 0.06788214 0.059137706
000280 33 a9 22 3c 0a 23 01 3d b1 2a 9e 3a 24 96 4e 3d
       0.009928036 0.031527556 0.0012067166 0.050436154
000290 dd 8c ab 3c a5 51 6a 3d 2f 1c 3e 3d 55 f9 0e bd
       0.020941192 0.05720677 0.046413597 -0.03490575
0002a0 c1 7b 3e bc 94 1d 71 3d 3b c6 2e 3d 5d b6 44 bb
       -0.011626185 0.0588661 0.042669516 -0.0030015924
0002b0 11 85 87 bc be 81 eb 3c a9 6e 0f 3c af 0b 87 bc
       -0.016542943 0.02874839 0.008754411 -0.016485063
0002c0 72 c6 93 bc e1 f1 28 3d 7e 04 64 3d a0 3c b0 3c
       -0.018038962 0.0412463 0.055668347 0.021513283
0002d0 3f 7b 4f bd a7 25 57 bb 45 68 0b 3d 77 cd 18 bd
       -0.050654646 -0.003282884 0.034034986 -0.03730532
0002e0 79 c3 f8 3c 36 0e 0e 3d 87 ce ff 3c 1e b9 e4 39
       0.030366646 0.03468152 0.03122641 0.00043625472
0002f0 d0 86 85 3d d9 76 d2 3c b0 bb 83 3c 05 a3 20 3a
       0.06519854 0.025691437 0.016080707 0.00061278074
000300 e0 0a 3e 3d 6e 70 b0 3c 38 e9 50 3d 59 c8 89 3d
       0.04639709 0.021537986 0.051003665 0.067276664
000310 34 13 fb 3c 84 35 5e 3c 17 bb 25 3d 12 b5 a7 3b
       0.030648805 0.013562564 0.040461626 0.005118021
000320 5c 91 10 3c c2 80 b8 bc cd 30 5b 3d 74 37 3f bb
       0.008823719 -0.022522334 0.053513337 -0.002917734
000330 c2 b1 1f 3c 74 b2 59 3b 28 71 23 3d 07 45 c5 3c
       0.009746971 0.0033217939 0.039902836 0.024080766
000340 c9 fa 75 3d c3 6a 45 3d 25 8e d3 3c 90 02 2a 3d
       0.06005362 0.04819752 0.025824616 0.04150635
000350 fa b3 f3 3b a0 ba 8d 3d b3 13 36 3d ee 28 14 bd
       0.0074372264 0.069203615 0.04445238 -0.036171846
000360 5a 7a 44 3d 18 81 ac 3c ab 03 70 bd 0c a1 ed 3c
       0.047968246 0.02105765 -0.058597248 0.029007457
000370 7c 04 7e 3d 74 cc 47 bd bf f7 be bb 0e 88 23 3d
       0.062015995 -0.048778966 -0.0058278735 0.039924674
000380 f8 dd 2a bd 83 e6 26 3d 92 66 a7 bc 16 d0 29 bd
       -0.041715592 0.040747177 -0.020434652 -0.04145821
000390 c3 aa 8a 3c ca bb 3d 3d e6 89 48 bd 2b 71 4c 3d
       0.016927129 0.046321668 -0.048959635 0.049912613
0003a0 90 3e 4b 3d 28 2e 9c 3b ed 68 d6 bc 76 38 14 bd
       0.04962021 0.0047662444 -0.02617308 -0.036186658
0003b0 c0 4a 36 bd d7 22 41 3c 8d b7 e4 bb 69 1b d9 bc
       -0.04450488 0.011788092 -0.006979889 -0.026502328
0003c0 4b ac 3b 3d 7f 98 0d 3d e2 9c f4 3c 1c a1 ec 3c
       0.04581861 0.03456926 0.029859964 0.028885417
0003d0 bd 63 67 3c 8c ca 48 3a 61 84 e4 3c 7d 6c 82 3d
       0.014122901 0.00076595764 0.027895154 0.06368349
0003e0 d1 37 e8 3b 73 3d a7 3c 65 5d 11 3d 5a 0e 94 3d
       0.007086732 0.020415043 0.03548946 0.072293
0003f0 9c 2d 62 bc 4f da db 3c ac 30 20 bd 58 5e 9d 3b
       -0.013804819 0.026837496 -0.039108917 0.0048025064

network_body._body_endoder.seq_layers.4.weight f4 [256, 256]
000000 fe 51 8c bd 53 17 40 3d 5d 31 52 3c c1 75 64 bd
       -0.06851576 0.046897244 0.012829152 -0.05577636
000010 3f 38 3e 3d e1 16 85 bc 70 b8 ca 3c 17 36 de 3d
       0.04644036 -0.016246261 0.02474615 0.108501606
000020 60 6e 16 bd a7 08 f3 3c d9 e8 85 bc 01 82 ac 3d
       -0.036726356 0.029667212 -0.016346382 0.08423234
000030 b2 e4 01 3c a8 24 ce 3c 54 3b 0a 3d 6f 50 90 bc
       0.00792806 0.025163963 0.033747986 -0.017616479
000040 2c 7c 2e 3d b0 c6 0c 3d f8 0e 25 3d 66 00 b7 3d
       0.04259889 0.03436917 0.04029748 0.08935623
000050 03 25 15 3e fb 00 5c 3c fb f5 f3 bc 2f 0b 68 bd
       0.145649 0.013427968 -0.029780379 -0.05665129
000060 51 09 1a 3d 4b b2 16 3e 17 e5 59 bd 14 72 f3 bc
       0.03760654 0.14716451 -0.053196993 -0.029717483
000070 3f b7 37 bc 61 b3 4c 3b 7a 88 96 bd 59 6d e0 3b
       -0.011213123 0.0031234848 -0.073502496 0.0068489728
000080 a7 9e 03 bd 59 94 c1 3c 85 52 67 3d f9 ad 92 3c
       -0.032133725 0.023630308 0.05647518 0.017905222
000090 83 6f da 3c 2b d1 12 bc 25 5b 00 bd 5c 63 6d 3d
       0.026664501 -0.008961002 -0.031336922 0.057956085
0000a0 19 d3 51 bd 58 fe 42 3d 62 61 ab bc df 82 cd 3d
       -0.05122671 0.047605842 -0.02092046 0.10034727
0000b0 4b 1e 17 bc d1 50 fc bd 1a be 96 3c a5 c0 7f 3d
       -0.009223531 -0.12320102 0.018401194 0.06243958
0000c0 2c b4 13 bd 63 24 8d bd c8 31 8b bd a0 d1 04 3e
       -0.036060497 -0.06891706 -0.067966044 0.1297059
0000d0 13 3b 51 bd d5 df f8 bc d4 e4 d7 3d 74 1b a4 bd
       -0.05108173 -0.030380169 0.105416924 -0.08013049
0000e0 0f 26 b0 bd 88 79 90 bd 45 8e 80 bd 81 86 b4 bd
       -0.08601009 -0.0705443 -0.06277136 -0.08814717
0000f0 1e 1d 70 3c b2 b1 82 bd 6a f9 70 3d 6d bc fb bc
       0.01465538 -0.06381549 0.05883161 -0.030729497
000100 20 05 bc bb db 6e 80 3d e7 a5 df bd bf 3b e4 3c
       -0.0057379156 0.06271144 -0.10920315 0.02786052
000110 70 78 8a 3c 31 03 e3 bc c6 d0 ad 3b 9c 5a 67 bc
       0.016903132 -0.027711483 0.0053044287 -0.014120724
000120 79 f6 80 3d e6 ce 11 bd ed 06 ef 3d d6 ce 88 bd
       0.06297011 -0.035597704 0.11671243 -0.06680076
000130 ce 6d 95 bc 75 8e 87 bb d8 f9 f0 3c 56 5e 86 3d
       -0.018240836 -0.0041368552 0.02941601 0.06560962
000140 19 06 a3 bd 1c 60 0b bc 18 3b 3a bd da ee f4 bd
       -0.079601474 -0.008506801 -0.045466512 -0.1195962
000150 09 b8 f5 bb 57 73 19 bd ac e9 a2 3c d6 c0 03 3d
       -0.0074987453 -0.037463512 0.019886814 0.032166325
000160 c7 8f 4e bc 86 bd b5 bd 72 c1 95 bd 93 af 81 3c
       -0.012607521 -0.08874039 -0.073122874 0.01583079
000170 ab c7 56 3d c0 a6 65 bd 8d af 14 3e e1 1e 1e 3e
       0.052436512 -0.05606723 0.14520092 0.15441467
000180 b3 c5 d3 3c 53 5f 02 3d c8 08 bf 3d 12 d2 81 bd
       0.025851106 0.03182919 0.09327847 -0.06338896
000190 d1 ee 1f 3d fe 19 9d bd e7 7e 51 3c 70 20 2a 3d
       0.039046112 -0.07670973 0.0127866035 0.04153484
0001a0 e3 d6 07 3e dd d6 c8 bb 8e 55 2f 3d 0e fc 81 bd
       0.13265567 -0.0061291293 0.0428062 -0.06346904
0001b0 44 b4 84 3c ec 80 1c bd dd 4e d9 bd 8d 50 0f bc
       0.016199239 -0.038208887 -0.10610745 -0.008747232
0001c0 83 64 c3 bd 2c be 0f 3d c8 c5 43 3d 44 ea a1 bd
       -0.095406555 0.03509347 0.04779604 -0.07906011
0001d0 b4 c8 fa bd 4b 94 58 3c f4 33 ae 3d 5d 85 8f bc
       -0.12245312 0.01321895 0.08506003 -0.017519647
0001e0 e0 64 0b 3c 0e ba 6c 3c 7f 9c 40 3d 49 b3 48 bd
       0.008507937 0.014448656 0.047024246 -0.048999105
0001f0 98 7f 94 3d ca 7c f3 bd b1 01 14 3d 6f 22 e0 bd
       0.07250899 -0.11889036 0.036134426 -0.10944068
000200 da 0b 98 3c da a7 c8 3d 1e ea 8d bc e5 ac ad bd
       0.018560339 0.0979764 -0.01732355 -0.08480243
000210 02 c4 86 bc f3 f4 db bd fe a8 9e 3d 75 dd ad 3d
       -0.016450886 -0.1074008 0.077470765 0.08489505
000220 da c7 e0 bc d7 02 14 3d f9 b2 20 bd 54 03 87 3d
       -0.027439047 0.03613552 -0.03923318 0.06592432
000230 7c fe d9 3c 38 99 08 3e dd 4a 79 3d bf 68 42 bd
       0.026610605 0.13339698 0.06086241 -0.047463175
000240 e6 4d d4 3d 2c d6 fb 3c 11 00 5a bd 4d 79 b5 3b
       0.103664204 0.030741774 -0.05322272 0.005538142
000250 12 21 8b bd 18 ab 8d 3c 57 24 3c 3d 0b 3a 58 3d
       -0.06793417 0.017293498 0.045933094 0.05278973
000260 fb c5 4b 3d 40 a5 1e bd 6d 99 16 bd 87 29 ab 3d
       0.049749356 -0.038731813 -0.036767412 0.0835753
000270 b5 02 97 bc 46 06 90 3d b9 70 6f 3d 24 f3 14 bd
       -0.018433908 0.070324466 0.05845711 -0.03636469
000280 1e 66 d6 3c 14 63 e3 3d 99 8f 14 3d c2 94 2b 3d
       0.02617174 0.11102882 0.036269758 0.041889913
000290 db 8d 9f 3d 07 b5 fc bc 61 bf f6 3c f3 f8 21 3e
       0.07790729 -0.03084804 0.030120553 0.15817623
0002a0 48 4e 86 3d 76 63 a8 3c 53 bd c4 3d d7 80 0c 3d
       0.065579 0.02055524 0.09606423 0.03430256
0002b0 0c 64 60 3d a3 f1 b0 3d 48 e1 4c bc 3e fd 6b bc
       0.054782912 0.086398385 -0.012504883 -0.014403639
0002c0 33 0e a2 3d d9 17 0d be 27 c5 11 bd 85 59 51 bc
       0.079128645 -0.13778628 -0.03558841 -0.012777691
0002d0 c5 51 b8 39 91 a0 c1 bd 71 06 9b ba ab 7e a2 3d
       0.00035156138 -0.09454454 -0.0011827481 0.07934316
0002e0 0e d4 ec bd 4f 8c 2f bd 39 3d 89 3d 95 3a 8d 3d
       -0.11563884 -0.042858418 0.067011304 0.06895939
0002f0 d5 e5 12 3c 14 e8 86 3c e4 7e a7 3d 69 ba 52 bc
       0.008965929 0.016468085 0.08178499 -0.012861826
000300 10 b5 0d 3d 5b 74 7c 3d df d9 a7 3d 56 58 07 be
       0.034596503 0.061634403 0.081958525 -0.13217291
000310 de 27 bc bd 0b d6 56 bd 51 98 18 be 0c 17 8f 3d
       -0.091872916 -0.05245022 -0.14901854 0.06986818
000320 5d f7 57 bd 17 1c 50 3d 58 11 92 3c bb f8 fd 3d
       -0.05272614 0.05080804 0.017830536 0.12400957
000330 e4 1d 7f 3d d6 16 ab bb 3b 68 77 bd c6 08 ba 3a
       0.062284365 -0.005221228 -0.060402136 0.0014193289
000340 7c ce aa 3b 80 82 33 3d ad bd ce 3d 8b 5e 03 3b
       0.005212603 0.043825626 0.100947715 0.0020045366
000350 d2 3c 76 bd 65 4a 0d bd 59 e9 06 bc b1 9b cb 3d
       -0.060116597 -0.034494776 -0.008234345 0.09941805
000360 7c 1a 62 3d b0 96 01 3e 59 06 61 3d 93 bb 9e bd
       0.05520104 0.12655139 0.054937694 -0.07750621
000370 6c c0 04 bd 82 19 9c bb c2 d1 54 3d 54 c2 94 bd
       -0.03241007 -0.004763783 0.051957853 -0.07263628
000380 1f 78 1e bd 99 30 e6 bd 0f 8e 9d ba 23 38 ac 3b
       -0.038688775 -0.11239738 -0.0012020486 0.0052557155
000390 1f 90 ce 3d ac 1e 96 3d 30 16 b5 3d cc 2d a3 3d
       0.10086083 0.07330069 0.088421226 0.079677194
0003a0 6a e9 8b 3c a9 a3 91 bd 47 6c f1 3d 06 ea 94 bd
       0.017079074 -0.07111294 0.117882304 -0.07271199
0003b0 b0 a5 20 3e 38 7a 2f bc b1 48 32 3d 9d 1d 2a bd
       0.15688205 -0.010710292 0.043526355 -0.041532148
0003c0 85 70 16 bd 80 33 dc bd 01 b0 5d 3d 97 00 cf bc
       -0.0367284 -0.1075201 0.05412293 -0.025268836
0003d0 05 b8 96 3c 32 96 95 bb 04 b1 ff 3c 49 72 b2 bb
       0.018398294 -0.004565024 0.031212337 -0.0054457528
0003e0 b8 d5 f3 bd 55 9d 22 bc 0e ce d2 bb b2 ab a2 bd
       -0.11905998 -0.009925206 -0.006433255 -0.079429045
0003f0 49 23 33 3d 6f d1 5e 3c d7 7f 2d 3d fd 09 35 3d
       0.043734822 0.013599738 0.042358246 0.04419898

network_body.observation_encoder.processors.0.normalizer.running_mean f4 [6]
000000 55 1b 40 42 a1 e7 a0 41 f2 9c 74 42 6e 1f 01 c2
       48.02669 20.1131 61.153267 -32.280693
000010 fa 31 b3 3f 06 51 8e c2
       1.3999627 -71.15825
