Assets/Training/results/learn_v1_2/MarsTaxi/MarsTaxi-1499973.onnx (onnx, 542464 bytes, 10 tensors)

54 f4 [6]
13.802731 15.400293 9.01896 0.02639354 0.0014047511 0.058152024
00000000: fcd7 5c41 9a67 7641 a94d 1041 4437 d83c
00000010: a01f b83a d130 6e3d

action_model._discrete_distribution.branches.0.bias f4 [6]
0.028136866 0.017645916 -0.0042285994 -0.035058826 -0.018034391 0.0071023474
00000000: 497f e63c 2b8e 903c 1090 8abb d899 0fbd
00000010: dcbc 93bc cfba e83b

action_model._discrete_distribution.branches.0.weight f4 [6, 256]
0.009626675 0.022448631 -0.0085036 0.0071731266 0.0043369024 -0.028284479 -0.0336299 0.011047243
-0.008100267 -0.070411816 0.012860768 0.0008629614 -0.0013350794 -0.022687234 0.014204746 0.009559624
-0.0027127077 -0.011142904 0.004795553 -0.03341658 0.0076528876 -0.041358307 -0.019180426 -0.035761315
-0.026997905 -0.060573824 -0.00910985 -0.03775281 0.025704075 -0.04397794 0.012465295 0.002800368
0.0018787745 -0.03633712 0.031110637 0.023505038 -0.002931391 -0.013810743 -0.044103965 0.011168118
-0.002529248 -0.010893649 0.019010523 -0.035496812 0.015503048 -0.0014970399 -0.00063430786 -0.009005343
-0.030370995 0.006514106 -0.0220374 -0.060119696 -0.01777141 0.022319945 -0.030741116 0.013566819
-0.054101408 0.015218257 0.0043231784 0.00077492604 0.0122062545 0.003539363 -0.02813372 -0.0064256527
-0.055299923 -0.020928282 0.01011375 -0.008344819 -0.048125826 0.0056580207 -0.0032652991 0.021130992
0.02416337 0.00914249 0.005572606 -0.010506962 -0.033387966 0.0052300133 -0.0012976606 0.024882585
0.017225176 0.0063666967 -0.033639383 0.006502444 0.014834668 -0.033880427 0.013970912 -0.035208642
0.026417084 0.005520066 -0.024756107 -0.013530304 9.871993e-05 0.007896379 -0.0029349143 0.008846756
0.026646528 -0.029055366 -0.00027400293 -0.024167327 -0.0050481493 5.4040236e-05 0.010693087 0.014342447
-0.027934782 0.0058876155 0.023164257 0.003667208 0.015204926 -0.0010441865 0.0035120482 0.022631086
-0.024400271 -0.012644794 -0.0047097085 0.013948921 0.016284745 0.0035794044 0.0018567892 0.019895157
0.007081706 0.009226001 -0.02680372 0.0058689048 0.018681834 0.020435259 0.020199476 0.024918638
0.010019168 0.027413217 -0.012662991 0.01077301 -0.0037037088 -0.040647525 -0.01866551 -0.0047941604
-0.0075525683 0.010008892 -0.04485692 0.009811388 0.01204612 -0.022920847 0.022389801 0.03263674
0.00329694 0.0012253461 0.015206945 0.011904923 -0.021651514 -0.047274087 -0.011181077 -0.028446529
-0.004833918 -0.04226874 0.013989807 -0.01655072 -0.010231323 0.01245064 0.021321723 0.023695532
-0.025725622 0.0035192454 -0.031340152 -0.041287336 -0.006143974 -0.060157973 0.024955308 -0.0024655398
-0.056943383 -0.024413604 -0.009262447 0.0073956563 -0.011898748 0.021209741 0.020921871 0.008066899
-0.008352276 -0.0017368412 -0.029166754 -0.016910061 0.014420491 -0.05547031 -0.00025671473 0.027620832
0.015909744 -0.042012352 0.0041575045 -0.0077785277 -0.049650043 -0.01458248 -0.008911584 0.010237728
-0.007878722 -0.02859928 -0.0061399755 0.01210551 -0.048545856 -4.2269432e-05 -0.04932647 0.020148518
-0.029550677 0.014731097 0.0048697633 -0.019815093 -0.033673674 -0.0041406597 0.00027646116 -0.039168082
-0.005560365 0.00638402 0.011914178 0.015255627 -0.008760034 -0.011985476 -0.027960595 0.008036668
-0.012203468 -0.0044700005 -0.016562808 0.014947119 -0.01257306 -0.013389818 -0.0029920957 -0.029029936
-0.005923159 0.0014156274 0.01290811 6.96807e-05 0.009009358 -0.033003673 0.01168703 0.0035440123
0.01207745 -0.03663919 -0.047667783 -0.051607925 0.006793535 -0.0025863273 -0.066347435 -0.039105132
-0.06714807 0.015069895 0.031922527 0.004725013 -0.0015936632 0.0150142275 0.0088683255 -0.017254364
0.0009604731 0.035492107 0.0024236557 0.004600833 -0.037163083 -0.0038418397 -0.0027928527 -0.041359376
00000000: 34b9 1d3c 31e6 b73c af52 0bbc 8c0c eb3b
00000010: 931c 8e3b dab4 e7bc 82bf 09bd 7fff 343c
00000020: fbb6 04bc 1234 90bd f8b5 523c 5c38 623a
00000030: d5fd aeba 94da b9bc 06bb 683c f89f 1c3c
00000040: afc7 31bb ba90 36bc 0424 9d3b d3df 08bd
00000050: 13c5 fa3b 5467 29bd 4520 9dbc 757a 12bd
00000060: b62a ddbc 421c 78bd 7b41 15bc b1a2 1abd
00000070: 5a91 d23c 3622 34bd 3d3b 4c3c 6186 373b
00000080: 3641 f63a 3bd6 14bd bcdb fe3c a38d c03c
00000090: 941c 40bb 7446 62bc 5ca6 34bd 7bfa 363c
000000a0: bdc1 25bb 477b 32bc f5bb 9b3c 1b65 11bd
000000b0: 7f00 7e3c 5338 c4ba ae47 26ba 258b 13bc
000000c0: 98cc f8bc 4874 d53b c787 b4bc 1240 76bd
000000d0: 5995 91bc 51d8 b63c cbd4 fbbc 5d47 5e3c
000000e0: 7099 5dbd ff55 793c 73a9 8d3b 6824 4b3a
000000f0: befc 473c a8f4 673b b078 e6bc 488e d2bb
00000100: 2c82 62bd ca71 abbc 24b4 253c b5b8 08bc
00000110: 961f 45bd eb66 b93b a1fe 55bb e71a ad3c
00000120: 42f2 c53c 62ca 153c 689a b63b 6525 2cbc
00000130: d2c1 08bd 8860 ab3b 4416 aaba 90d6 cb3c
00000140: d01b 8d3c b99f d03b 73c9 09bd 7412 d53b
00000150: 1b0d 733c 34c6 0abd 41e6 643c f036 10bd
00000160: a468 d83c abe1 b43b 52cd cabc 35ae 5dbc
00000170: dc07 cf38 d05f 013c b157 40bb fcf1 103c
00000180: d249 da3c 8505 eebc 0da8 8fb9 8ffa c5bc
00000190: f26a a5bb 43a9 6238 0f32 2f3c 95fc 6a3c
000001a0: 7cd7 e4bc e6ec c03b f8c2 bd3c 8a55 703b
000001b0: 151e 793c 16dd 88ba 642a 663b d464 b93c
000001c0: 14e3 c7bc 1c2c 4fbc e653 9abb 048a 643c
000001d0: 9667 853c 7194 6a3b 825f f33a 2bfb a23c
000001e0: a80d e83b a728 173c 7a93 dbbc f14f c03b
000001f0: a50a 993c d867 a73c 5f79 a53c 2c22 cc3c
00000200: 7027 243c af91 e03c 6f78 4fbc 4781 303c
00000210: ecb9 72bb 057e 26bd 69e8 98bc 5518 9dbb
00000220: 897b f7bb 56fc 233c e4bb 37bd f2bf 203c
00000230: 175d 453c 80c4 bbbc d16a b73c 1aae 053d
00000240: 7911 583b cb9b a03a 8d26 793c de0c 433c
00000250: 845e b1bc 79a2 41bd d630 37bc b208 e9bc
00000260: d865 9ebb fc21 2dbd 8135 653c 6095 87bc
00000270: 47a1 27bc c5fd 4b3c e5aa ae3c 221d c23c
00000280: 8abe d2bc 24a3 663b 885e 00bd e91c 29bd
00000290: 6453 c9bb 3568 76bd 136f cc3c e594 21bb
000002a0: 773d 69bd 0aff c7bc 85c1 17bc 4357 f23b
000002b0: f7f2 42bc 0dc0 ad3c 5864 ab3c 072b 043c
000002c0: fcd7 08bc b8a6 e3ba 1eef eebc f886 8abc
000002d0: ec43 6c3c d634 63bd ab97 86b9 1545 e23c
000002e0: 2755 823c 2515 2cbd ad3b 883b 05e3 febb
000002f0: d85d 4bbd 5beb 6ebc e401 12bc 25bc 273c
00000300: c115 01bc 0a49 eabc d931 c9bb 3056 463c
00000310: 05d8 46bd 754a 31b8 8d0a 4abd 810e a53c
00000320: 4314 f2bc b35a 713c 8992 9f3b 4353 a2bc
00000330: 68ed 09bd 5fae 87bb fdf1 9039 b66e 20bd
00000340: b933 b6bb 0b31 d13b af33 433c bdf2 793c
00000350: 3f86 0fbc bb5e 44bc 9e0d e5bc 3bac 033c
00000360: 0ef1 47bc 1579 92bb baae 87bc c3e4 743c
00000370: 3cff 4dbc f860 5bbc 0917 44bb 30d0 edbc
00000380: 0f17 c2bb 938c b93a 8a7c 533c 8a21 9238
00000390: fc9b 133c dc2e 07bd f57a 3f3c a942 683b
000003a0: 7fe0 453c fa12 16bd 4b3f 43bd d562 53bd
000003b0: 4d9c de3b 5f7f 29bb 2ae1 87bd b42c 20bd
000003c0: ed84 89bd b9e7 763c 32c1 023d 48d4 9a3b
000003d0: 77e2 d0ba 3cfe 753c 744c 113c 0659 8dbc
000003e0: 42c8 7b3a 2c60 113d 32d6 1e3b 96c2 963b
000003f0: 5138 18bd 60c7 7bbb 4b08 37bb 7368 29bd

network_body._body_endoder.seq_layers.0.bias f4 [256]
-0.004421341 0.065557525 0.06403263 0.05309505 0.020550001 0.055137027 0.066334195 0.060148098
0.061983764 -0.0028704347 0.05615856 0.027447974 5.9712398e-05 0.037264407 0.050490014 0.022740334
-0.052093588 0.010792125 0.050737668 0.060859893 -0.034196682 0.044328537 -0.038157165 0.048286043
0.039638102 0.031041458 -0.03509489 0.012475519 0.021604316 -0.019706251 0.039759263 0.0028618379
0.040007673 0.03468951 0.04698804 -0.008551878 0.04919336 -0.055436946 0.059842493 0.066430025
0.023056773 0.042263966 0.04661424 0.043023285 -0.032273438 0.04042019 -0.04242904 0.009544104
-0.0629998 0.014924267 0.056208294 0.06069202 0.019660525 0.036030494 0.042911075 -0.039019194
0.024794918 0.06526308 0.06343298 0.05544741 0.065707356 0.004765509 0.06729185 0.052884962
-0.04088767 0.041288294 0.044337787 0.051826388 0.06708501 -0.021060897 0.05889742 0.065478325
0.05723443 0.01907894 0.057188306 0.05419612 0.023639865 0.026512606 0.0672766 0.0033481345
0.05461337 0.060300067 0.06262514 0.05671944 0.06890559 0.06110558 0.0334276 -0.023176845
0.06470042 0.054350827 -0.049347542 -0.0074176188 0.05173616 -0.011986313 0.06102292 0.05967452
0.055608194 0.07229766 0.020387935 0.053458296 0.035740726 0.06295052 0.019365756 0.03465013
0.030516542 0.03622871 0.046650514 -0.005961026 0.045845512 0.046763126 0.06193283 0.024078228
0.0058989385 0.06326869 0.056134164 -0.011879713 0.008514842 0.049196854 -0.0462521 0.04498777
-0.014116086 0.062274776 0.0715543 0.007648446 0.054637205 0.011319005 0.023756022 0.03660568
0.025156295 0.06398828 0.06525026 0.056713857 0.0061814506 0.022226557 -0.046042763 0.001185937
0.05351793 0.04559291 0.045885887 0.056964472 0.01880525 0.04222335 0.030335965 0.03955909
0.0646854 0.05000093 0.0133852465 -0.006780471 0.027107606 0.05811131 -0.025866393 -0.013442474
0.04919644 0.049587525 -0.0049478738 0.046104025 0.062143248 -0.008435772 0.057147563 -0.018062191
0.06041169 0.050892606 0.06293164 0.04081834 0.0048404625 0.05199692 -0.04849807 0.043846924
0.042133074 0.06293925 0.027057502 -0.030928772 0.020377813 0.024726756 0.07262239 0.030382108
-0.00060803274 0.051958933 0.055221766 0.07473017 0.014046899 0.04153959 0.036781866 0.051473144
0.0068456223 0.06930539 0.044714276 0.045037385 0.0578911 0.061091967 0.015170615 0.05544056
0.043272413 -0.028899422 0.04055463 0.064353466 0.061793365 0.05834449 0.0596561 0.00594358
-0.03658434 0.05605335 0.05417897 -0.044365127 0.069708444 0.030373668 -0.049974535 0.050109867
-0.018033497 0.0704074 0.04836746 0.037303317 0.06793384 0.04766912 0.035576385 -0.013375056
0.05755603 -0.036550585 0.07501102 0.05655459 0.05420492 0.048879385 0.054792978 0.021413783
0.038149316 0.061554234 0.0045208503 -0.005636432 0.060069956 0.029479912 0.061843075 0.07117454
0.048368253 0.024256902 0.044639442 0.06254659 0.011713536 -0.029624619 0.051817544 -0.050605718
-0.0072601065 0.058974784 0.070477195 0.05077921 -0.0042388425 0.029531693 0.01302126 0.041903105
-0.04711134 0.048902992 0.052886616 0.034957483 0.038875118 0.050871525 0.036507353 0.023024598
00000000: e5e0 90bb 0643 863d 8a23 833d 327a 593d
00000010: 7a58 a83c 5dd7 613d 39da 873d da5d 763d
00000020: b0e2 7d3d e71d 3cbb 8506 663d 93da e03c
00000030: b373 7a38 90a2 183d 9ece 4e3d f049 ba3c
00000040: 1660 55bd 74d1 303c 4dd2 4f3d 3948 793d
00000050: d211 0cbd d791 353d b04a 1cbd 96c7 453d
00000060: 905b 223d a84a fe3c a9bf 0fbd 1f66 4c3c
00000070: 89fb b03c 016f a1bc 9cda 223d ac8d 3b3b
00000080: 16df 233d 9616 0e3d 8876 403d 2d1d 0cbc
00000090: fa7e 493d da11 63bd 671d 753d 770c 883d
000000a0: 8fe1 bc3c fb1c 2d3d 93ee 3e3d 2f39 303d
000000b0: 2731 04bd a48f 253d 13ca 2dbd e05e 1c3c
000000c0: 0a06 81bd ea84 743c ab3a 663d 3298 783d
000000d0: 1c0f a13c b694 133d 86c3 2f3d 97d2 1fbd
000000e0: b61e cb3c a6a8 853d 26e9 813d d31c 633d
000000f0: 9491 863d fd27 9c3b 4fd0 893d e79d 583d
00000100: d479 27bd ea1d 293d 8a9b 353d e847 543d
00000110: de63 893d e787 acbc 6c3e 713d 8019 863d
00000120: a66e 6a3d 704b 9c3c 493e 6a3d c0fc 5d3d
00000130: 64a8 c13c f730 d93c 50c8 893d 606c 5b3b
00000140: 45b2 5f3d 34fd 763d 9c41 803d a552 683d
00000150: 601e 8d3d d849 7a3d 61eb 083d 5edd bdbc
00000160: a781 843d f99e 5e3d a620 4abd 7f0f f3bb
00000170: 4ce9 533d 3e62 44bc 2bf3 793d 456d 743d
00000180: 6bc5 633d cc10 943d 9904 a73c 16f7 5a3d
00000190: de64 123d 34ec 803d efa4 9e3c 4bed 0d3d
000001a0: d4fd f93c 8e64 143d 9c14 3f3d b654 c3bb
000001b0: 81c8 3b3d b18a 3f3d 47ad 7d3d b43f c53c
000001c0: e24b c13b 0493 813d f0ec 653d 21a3 42bc
000001d0: d681 0b3c a482 493d d872 3dbd 1945 383d
000001e0: 2847 67bc d613 7f3d 108b 923d d19f fa3b
000001f0: 43cb 5f3d 5973 393c fd9b c23c d6ef 153d
00000200: 9314 ce3c 4a0c 833d eea1 853d ca4c 683d
00000210: c48d ca3b 7814 b63c 5697 3cbd 7171 9b3a
00000220: 9e35 5b3d a2bf 3a3d d7f2 3b3d 9453 693d
00000230: 780d 9a3c 64f2 2c3d 2183 f83c b608 223d
00000240: c779 843d c6cd 4c3d cb4d 5b3c b72e debb
00000250: c510 de3c 2006 6e3d c2e5 d3bc d33d 5cbc
00000260: 3582 493d 4a1c 4b3d c621 a2bb 93d7 3c3d
00000270: eb89 7e3d 3136 0abc 9013 6a3d 29f7 93bc
00000280: 4072 773d c474 503d 4ee2 803d 2231 273d
00000290: be9c 9e3b b9fa 543d eaa5 46bd d598 333d
000002a0: bb93 2c3d 4be6 803d b2a7 dd3c 565e fdbc
000002b0: 5fef a63c c48f ca3c 0cbb 943d e6e3 f83c
000002c0: 6364 1fba e4d2 543d 3830 623d 220c 993d
000002d0: f724 663c 6b25 2a3d 95a8 163d 81d5 523d
000002e0: 3e51 e03b fcef 8d3d 5126 373d 1f79 383d
000002f0: 381f 6d3d 923b 7a3d 2c8e 783c a415 633d
00000300: 6a3e 313d 7bbe ecbc 9d1c 263d c0cb 833d
00000310: 0a1b 7d3d a2fa 6e3d f459 743d 5dc2 c23b
00000320: 76d9 15bd 3398 653d c5ea 5d3d 35b8 35bd
00000330: 4dc3 8e3d 33d2 f83c 19b2 4cbd 0140 4d3d
00000340: fcba 93bc c131 903d f51c 463d 5dcb 183d
00000350: e620 8b3d b240 433d 8bb8 113d 0d23 5bbc
00000360: dfbf 6b3d 11b6 15bd 619f 993d c9a5 673d
00000370: fa05 5e3d c035 483d 9a6e 603d f56b af3c
00000380: 7542 1c3d 4b20 7c3d a423 943b d2b1 b8bb
00000390: ea0b 763d db7f f13c 2a4f 7d3d f5c3 913d
000003a0: ca1d 463d 69b6 c63c d9d7 363d 6d18 803d
000003b0: 22ea 3f3c 54af f2bc a23e 543d f147 4fbd
000003c0: 30e6 edbb 8b8f 713d 5956 903d dcfd 4f3d
000003d0: fde5 8abb 73ec f13c 1f57 553c 97a2 2b3d
000003e0: d2f7 40bd 814e 483d a39f 583d 942f 0f3d
000003f0: 843b 1f3d a95e 503d bc88 153d 159e bc3c

network_body._body_endoder.seq_layers.0.weight f4 [256, 6]
-0.7090816 -0.10982719 -0.038780577 -0.19699614 -0.26350293 -0.010299838 0.23382322 0.42530635
-0.32841825 -0.17702569 -0.845904 -0.34969732 0.44357127 0.4496107 -0.18137515 0.1971909
0.30968502 -0.45739284 0.093803525 0.106938325 -0.493309 -0.4614759 0.8362612 0.41933122
-0.10238695 -0.2643045 0.062106322 0.032537177 -0.09478556 -0.062216822 -0.3695 0.058713544
-0.0015876837 -0.6863849 0.15387172 0.34297243 -0.34897673 0.32175258 -0.3289093 -0.52424395
0.19852859 -0.43922538 -1.1567751 0.20422755 -0.12310852 0.10875521 -0.76012874 1.0933955
0.94181204 0.25349972 -0.42381957 0.5264018 0.05202757 -0.93785423 0.23680916 0.19464308
-0.20275645 -0.24107717 -0.3535091 0.33167902 -0.43359807 0.216649 -1.0444292 0.1513926
-0.45207542 -0.36595237 0.38253987 0.0045043845 -0.15129197 -1.1320319 0.2825758 -1.1667109
0.42503858 -0.72580886 -0.29478833 -0.16934073 0.016500443 0.889578 -0.2272776 0.022933489
0.860585 -0.09303589 -0.3963447 0.14471924 0.21603952 0.12465476 0.13776115 0.027607558
-0.59167475 0.181749 0.15558761 -0.14125925 -0.7892142 -0.037509352 0.5678848 -0.44531226
-0.15652023 0.028678177 0.18056509 -0.40510124 -0.40842858 0.020648196 0.19232531 -0.40613684
-0.37386018 0.5275303 0.12627086 -0.24679913 0.49129263 -0.03252198 0.071789086 -0.39356163
0.5913261 -0.2861204 0.08133688 0.5280453 -0.038081862 -0.15002154 0.41837594 -0.027545998
0.26647168 -0.6037602 0.06273333 -0.38275114 -0.8747836 0.61323184 0.9908467 0.17695494
0.3293753 -0.3033995 0.3682451 -0.13831536 0.22134696 0.08092184 0.077660866 0.6217017
-0.11870142 0.8189534 0.44115484 0.034101136 -0.69681555 -0.23597477 0.30887347 -0.024279024
0.2517804 -0.8011985 -0.48501524 -0.3029471 0.49103126 -0.6158617 -0.68175495 -0.7378731
-0.22878733 0.2257603 0.611786 -0.010487155 0.4761744 -0.44294718 0.28380236 -0.017927624
0.076117426 0.18281564 0.08908328 -0.22058485 0.45499903 0.40387574 -0.33079547 0.4202351
0.16680548 0.20843711 0.57756317 0.25515887 -0.23950633 0.30001718 0.16092032 -0.7549507
0.12319558 0.25401053 0.17473316 0.50684506 0.017818717 0.3388613 0.6730738 0.20628129
-0.17851347 -0.19379143 -0.17049372 -0.07581489 0.012116573 -0.07891217 -0.37358642 0.58769715
-0.5335193 -0.00269602 0.2424 -0.2089489 0.32852682 -0.37556344 0.0056075766 -0.051997587
-0.12780431 0.2842484 -0.29979843 0.24933459 0.02188852 0.74706006 -0.009826047 -0.17024498
0.5547687 -0.65832233 0.37810513 -0.6349955 0.13785005 -0.5109035 0.35934857 0.46892333
-0.63360775 -0.3163364 -0.6414251 0.34619412 -0.7525643 -0.2915658 0.030189946 -0.12748244
0.28957883 0.61014473 -0.12612644 0.42239416 -0.768108 0.36775684 -0.021142654 -0.21853417
0.81088614 -0.15745828 -0.62564296 0.6421958 0.10039323 -0.23073097 0.12725115 -0.47742718
0.45998895 -0.29659182 0.2920044 -0.6394953 -0.051076412 0.49486735 0.33911088 0.22306666
0.4843444 0.31976634 -0.08995722 -0.32494402 -0.22796853 0.18809152 -0.7372089 -0.08845517
00000000: 5f86 35bf 14ed e0bd 62d8 1ebd 5bb9 49be
00000010: dbe9 86be a7c0 28bc 5b6f 6f3e c1c1 d93e
00000020: 7026 a8be 3946 35be 2a8d 58bf 870b b3be
00000030: c61b e33e 6033 e63e 68ba 39be 69ec 493e
00000040: 098f 9e3e 652f eabe 101c c03d 7b02 db3d
00000050: ff92 fcbe 9246 ecbe 3715 563f 95b2 d63e
00000060: 40b0 d1bd eb52 87be 3363 7e3d b445 053d
00000070: ef1e c2bd 11d7 7ebd 1b2f bdbe 9d7d 703d
00000080: d319 d0ba ecb6 2fbf 8c90 1d3e 159a af3e
00000090: 14ad b2be c1bc a43e cd66 a8be da34 06bf
000000a0: 144b 4b3e 26e2 e0be 3511 94bf 0721 513e
000000b0: 5220 fcbd 0dbb de3d cc97 42bf 62f4 8b3f
000000c0: 981a 713f b7ca 813e e1fe d8be 45c2 063f
000000d0: dc1a 553d 3717 70bf 1a7e 723e 8450 473e
000000e0: 639f 4fbe efdc 76be 25ff b4be d5d1 a93e
000000f0: 9100 debe 3cd9 5d3e dbaf 85bf a906 1b3e
00000100: 6e76 e7be 1c5e bbbe 44dc c33e 8499 933b
00000110: 48ec 1abe 6ce6 90bf c6ad 903e c856 95bf
00000120: a89e d93e 9cce 39bf 7fee 96be a867 2dbe
00000130: f02b 873c 62bb 633f 76bb 68be 03df bb3c
00000140: 4c4f 5c3f 9a89 bebd b1ed cabe 4831 143e
00000150: 7739 5d3e ff4a ff3d 4211 0d3e 3f29 e23c
00000160: ff77 17bf 691c 3a3e 5c52 1f3e 44a6 10be
00000170: f109 4abf 68a3 19bd e660 113f f8ff e3be
00000180: d746 20be 7fee ea3c 0ee6 383e 6e69 cfbe
00000190: 8d1d d1be 6826 a93c edf0 443e 2bf1 cfbe
000001a0: 9a6a bfbe 3a0c 073f 264d 013e e9b8 7cbe
000001b0: b58a fb3e c535 05bd 2806 933d e980 c9be
000001c0: 2661 173f 607e 92be f393 a63d fa2d 073f
000001d0: bafb 1bbd 3f9f 19be 5f35 d63e 25a8 e1bc
000001e0: fa6e 883e 0790 1abf 557a 803d f5f7 c3be
000001f0: d1f1 5fbf c3fc 1c3f 21a8 7d3f ad33 353e
00000200: e1a3 a83e 2e57 9bbe 9f8a bc3e 8ba2 0dbe
00000210: c7a8 623e 5aba a53d a90c 9f3d d827 1f3f
00000220: bb19 f3bd eea6 513f 0cdf e13e a2ad 0b3d
00000230: 8162 32bf 5fa3 71be aa24 9e3e cee4 c6bc
00000240: 5ce9 803e 581b 4dbf eb53 f8be e21b 9bbe
00000250: 7368 fb3e 1da9 1dbf 7e87 2ebf 40e5 3cbf
00000260: 3a47 6abe b52d 673e 029e 1c3f 51d2 2bbc
00000270: 22cd f33e f9c9 e2be 8b4e 913e f4dc 92bc
00000280: 74e3 9b3d 0634 3b3e 4b71 b63d ffe0 61be
00000290: a2f5 e83e cdc8 ce3e 065e a9be 0e29 d73e
000002a0: 0ecf 2a3e 8a70 553e 2edb 133f 2fa4 823e
000002b0: 2641 75be da9b 993e 4cc8 243e 7344 41bf
000002c0: f74d fc3d ab0d 823e 40ed 323e 99c0 013f
000002d0: 8ff8 913c 3a7f ad3e 914e 2c3f 673b 533e
000002e0: 3ccc 36be 4371 46be e895 2ebe d644 9bbd
000002f0: 9784 463c b49c a1bd b846 bfbe 5273 163f
00000300: b994 08bf b6af 30bb b537 783e b3f6 55be
00000310: ab34 a83e da49 c0be c3bf b73b 6cfb 54bd
00000320: 22df 02be 0289 913e 2e7f 99be 9151 7f3e
00000330: 8e4f b33c 543f 3f3f 6efd 20bc b354 2ebe
00000340: 5205 0e3f d087 28bf ff96 c13e 118f 22bf
00000350: 9028 0d3e 92ca 02bf 89fc b73e b816 f03e
00000360: 1e34 22bf d8f6 a1be 6f34 24bf 5b40 b13e
00000370: 0ea8 40bf 1d48 95be e850 f73c c28a 02be
00000380: ad43 943e 7232 1c3f 4a27 01be 0c44 d83e
00000390: baa2 44bf a04a bc3e 5c33 adbc 6cc7 5fbe
000003a0: 3c96 4f3f be3c 21be 232a 20bf f266 243f
000003b0: f79a cd3d bd44 6cbe 204e 023e 5671 f4be
000003c0: ac83 eb3e e2da 97be 9a81 953e f7b5 23bf
000003d0: 8035 51bd 415f fd3e f19f ad3e 966b 643e
000003e0: fdfb f73e 6ab8 a33e 7e3b b8bd 105f a6be
000003f0: 9570 69be 109b 403e b9b9 3cbf fc27 b5bd

network_body._body_endoder.seq_layers.2.bias f4 [256]
-0.0010848903 -0.014779267 -0.030801764 -0.05028974 0.023297686 0.044662293 0.044342685 0.04384224
0.028256647 0.03882467 0.0008412207 0.030553665 -0.0068123112 -0.023891864 -0.021758882 -0.047947768
-0.05376238 0.004519076 -0.04828845 0.025350632 0.048196964 -0.0036279385 0.030178024 -0.0128587615
0.040987723 0.032814246 -0.022207888 0.0051898486 -0.042487103 0.03526192 0.02931598 -0.043098304
-0.048218805 0.021364799 -0.051426835 0.054030206 -0.02407574 0.0036924777 0.029045958 -0.0576706
0.045373842 0.046198502 0.02773682 0.017067257 -0.021578062 -0.05161283 -0.033075206 -0.014574116
-0.034884505 0.001217855 0.03445627 0.018983888 -0.0397678 0.044542477 -0.038088642 -0.015966283
0.0429422 0.04099909 0.028371248 -0.0033578028 0.03804421 -0.018319076 -0.04532881 0.035411198
0.041869357 -0.010716377 -0.040305983 -0.019346826 -0.029760666 -0.041179802 0.019956794 -0.048096087
0.037360955 -0.0046908837 -0.0503675 0.0034967985 -0.0554867 0.059725188 0.040959544 -0.048779916
-0.037975814 -0.04900078 -0.022530124 0.04666066 -0.036904816 -0.016259925 0.040941924 0.048210885
0.034645855 -0.03536582 0.010262484 -0.033216752 0.012196863 0.050072048 -0.050463017 0.022639345
0.02146212 -0.015591064 0.0038674285 -0.04078682 -0.05199665 -0.056290954 0.052776083 0.052137963
-0.027796865 -0.032496773 -0.022985045 -0.045078456 0.03783332 0.044682253 0.05211758 -0.0067455834
0.05044432 -0.029298306 0.024421051 -0.051837407 0.043369263 0.007919924 0.025731364 0.01785569
0.032268364 0.015553746 0.03328178 -0.05108913 0.036842383 0.04605814 -0.05679089 -0.050150596
-0.03587988 -0.01046065 -0.052784435 -0.03339619 0.030375687 0.048881453 0.015572935 0.05915003
0.05447422 0.038977545 0.043560285 0.03431041 0.03185662 -0.024659393 0.02121059 0.04441203
-0.041835893 -0.040978912 -0.0039951415 0.037394512 0.026438165 -0.03016302 0.0050565307 0.01827287
-0.0014354461 0.011486128 -0.040444277 0.037439816 0.051784053 0.0060872026 0.053601544 0.03610026
-0.05823647 -0.034541994 -0.0041213357 0.007152676 0.031720802 0.04868671 -0.0005325425 0.012892009
0.031082137 -0.016634302 -0.012419492 0.033268627 -0.0016344358 -0.018958317 0.03868695 0.041293938
0.031900056 0.040823385 0.05908329 0.020878822 0.052570317 -0.015428596 -0.018082537 0.047190316
-0.032523796 0.04407704 -0.018509436 0.04835908 -0.020006808 0.044801414 -0.006026028 -0.008338393
0.023219163 0.059473865 -0.0007342197 0.043542266 -0.017802734 0.0444791 0.022033388 -0.043612354
0.028540812 -0.04672076 -0.017817546 -0.031353306 0.04964504 -0.05401946 -0.042658526 0.03632405
0.007822246 0.060370747 0.038987465 -0.0011971308 0.044552557 -0.052010663 0.044831783 0.050374016
0.044690963 -0.036831237 -0.04850244 0.059388354 -0.005199288 0.026843162 0.0456457 0.04551456
-0.024730941 -0.031617302 -0.055578906 0.035838652 -0.048646435 0.01395619 0.037571654 0.050791256
0.01655801 -0.041528728 0.03661681 0.035997674 -0.055348814 0.030818483 0.029167041 -0.052993234
0.04752631 0.04826031 0.043439977 -0.027632812 -0.04892847 0.054826878 0.044977546 0.01768337
-0.051426258 0.0334397 0.0443786 -0.05637166 0.0146836955 -0.01709236 -0.0029354014 0.040589504
00000000: e132 8eba bd24 72bc fb53 fcbc 9dfc 4dbd
00000010: cada be3c cfef 363d ada0 353d ec93 333d
00000020: 7c7a e73c 9e06 1f3d 5e85 5c3a ae4b fa3c
00000030: cf39 dfbb dfb8 c3bc af3f b2bc e164 44bd
00000040: f135 5cbd c214 943b 1cca 45bd 21ac cf3c
00000050: 2e6a 453d b5c2 6dbb e737 f73c 8ead 52bc
00000060: bee2 273d 3b68 063d 51ed b5bc 9b0f aa3b
00000070: f506 2ebd ce6e 103d 1128 f03c d987 30bd
00000080: 1581 45bd 3b05 af3c f2a4 52bd c74e 5d3d
00000090: 7c3a c5bc 7ffd 713b caf1 ed3c 0238 6cbd
000000a0: ecd9 393d a43a 3d3d 5438 e33c a2d0 8b3c
000000b0: 7ac4 b0bc fa67 53bd de79 07bd 46c8 6ebc
000000c0: 0ee3 0ebd 6fa0 9f3a 0522 0d3d 1984 9b3c
000000d0: 90e3 22bd 2c72 363d d602 1cbd b9cb 82bc
000000e0: 29e4 2f3d a9ee 273d d26a e83c 950e 5cbb
000000f0: 3fd4 1b3d e311 96bc b4aa 39bd 550b 113d
00000100: 347f 2b3d be93 2fbc e317 25bd 3c7d 9ebc
00000110: a4cc f3bc 27ac 28bd 6e7c a33c 6700 45bd
00000120: cd07 193d fcb5 99bb 274e 4ebd 8b2a 653b
00000130: 0646 63bd 66a2 743d 32c5 273d 73cd 47bd
00000140: 878c 1bbd 0bb5 48bd 1891 b8bc 401f 3f3d
00000150: 8129 17bd 8933 85bc b8b2 273d c778 453d
00000160: d0e8 0d3d c0db 10bd fa23 283c 4a0e 08bd
00000170: 5ad5 473c 5918 4d3d 4fb2 4ebd 2676 b93c
00000180: 54d1 af3c a971 7fbc af74 7d3b 1510 27bd
00000190: 70fa 54bd 5891 66bd bc2b 583d 9e8e 553d
000001a0: 40b6 e3bc 561b 05bd 224b bcbc 30a4 38bd
000001b0: 1df7 1a3d bd04 373d 3e79 553d 0e0a ddbb
000001c0: b49e 4e3d 0003 f0bc a80e c83c 7653 54bd
000001d0: f8a3 313d 92c2 013c 95ca d23c 1946 923c
000001e0: d52b 043d 24d5 7e3c 7a52 083d d642 51bd
000001f0: 0ae8 163d 76a7 3c3d 909d 68bd b66a 4dbd
00000200: c8f6 12bd 2563 2bbc 7e34 58bd 71ca 08bd
00000210: 6fd6 f83c eb37 483d a025 7f3c 4d47 723d
00000220: 5c20 5f3d eba6 1f3d 456c 323d 1389 0c3d
00000230: 167c 023d 7f02 cabc d5c1 ad3c 64e9 353d
00000240: 1d5c 2bbd 81d9 27bd ade9 82bb fd2a 193d
00000250: da94 d83c 7018 f7bc 41b1 a53b fcb0 953c
00000260: 9425 bcba 5030 3c3c e6a8 25bd 7e5a 193d
00000270: 841b 543d 2877 c73b 4b8d 5b3d dedd 133d
00000280: 5d89 6ebd e87b 0dbd 450c 87bb ff60 ea3b
00000290: aced 013d b76b 473d 529a 0bba 0139 533c
000002a0: f79f fe3c a944 88bc 207b 4bbc af44 083d
000002b0: 913a d6ba 794e 9bbc 3576 1e3d d523 293d
000002c0: a2a9 023d 6c36 273d 5201 723d 100a ab3c
000002d0: f953 573d 39c8 7cbc d421 94bc a24a 413d
000002e0: ac37 05bd 208a 343d 1aa1 97bc 2c14 463d
000002f0: 51e5 a3bc b081 373d fd75 c5bb c19d 08bc
00000300: 1d36 be3c de9a 733d a678 40ba 6059 323d
00000310: 0ad7 91bc b72f 363d 5d7f b43c dea2 32bd
00000320: 6cce e93c 455e 3fbd 1af6 91bc 536c 00bd
00000330: 9958 4b3d 8243 5dbd b5ba 2ebd 87c8 143d
00000340: e128 003c 5147 773d 52b1 1f3d 0be9 9cba
00000350: be7c 363d 2209 55bd 88a1 373d fc54 4e3d
00000360: df0d 373d 5adc 16bd 7faa 46bd 3441 733d
00000370: ca5e aabb 31e6 db3c fcf6 3a3d 7a6d 3a3d
00000380: 8b98 cabc 2581 01bd b5a6 63bd 8dcb 123d
00000390: 7c41 47bd 81a8 643c bce4 193d 7e0a 503d
000003a0: aaa4 873c 071a 2abd 82fb 153d 4c72 133d
000003b0: 70b5 62bd 0b77 fc3c b8ef ee3c 6f0f 59bd
000003c0: f3aa 423d 9aac 453d 1eee 313d 355e e2bc
000003d0: 3869 48bd 2692 603d 603a 383d b7dc 903c
000003e0: 57a4 52bd 11f8 083d 56c6 353d f8e5 66bd
000003f0: e293 703c 4705 8cbc dd5f 40bb 2e41 263d

network_body._body_endoder.seq_layers.2.weight f4 [256, 256]
-0.08569803 0.02577979 0.0062957546 -0.039176967 -0.027116515 -0.0067273895 -0.011648721 -0.089039676
0.065273665 0.01818478 -0.041440256 0.06329557 -0.0079395985 -0.030280283 -0.07580013 0.07975369
0.008231306 -0.0032019205 -0.00073448016 0.021671336 0.09403679 -0.08767209 -0.09794839 0.010917869
-0.0005474512 0.06863411 0.0387585 0.012288868 -0.05554326 0.030375097 -0.008739135 0.030408403
0.004645094 -0.04183461 -0.13554512 0.051501766 -0.009337163 0.02622762 -0.046513256 -0.039658528
-0.099473365 -0.17235003 -0.021343796 0.036770616 -0.07363541 -0.02428334 -0.14424287 0.044113148
-0.03419649 -0.07782374 -0.037387088 0.00026672636 0.0029297841 -0.14850917 0.012672549 -0.032739524
-0.013548713 -0.007274914 -0.0346248 0.07354043 -0.03698229 0.124730386 0.046654902 -0.013942062
-0.012215071 -0.038058564 -0.115187034 0.10522279 0.02589512 -0.03339418 -0.013832407 -0.06127872
0.13926458 -0.02346704 0.009414664 -0.039032634 -0.06307674 -0.043703668 0.032699384 -0.01696232
-0.05814315 -0.022831332 -0.02649567 -0.07129378 -0.046524674 -0.045526464 0.030549154 0.0801825
0.17344055 -0.048005354 -0.015937204 -0.031477705 0.0035181874 -0.114646904 0.019684803 -0.018724218
0.021093665 0.037774 0.072089665 -0.06990708 -0.11970084 0.025776854 -0.030808162 -0.05419853
0.025214497 -0.12822965 -0.04402822 -0.041287813 -0.051441345 -0.04597696 0.0070211603 -0.031780615
-0.012399557 0.01744027 -0.06712261 0.08337953 -0.17250809 -0.051715277 -0.04524205 -0.0022224986
-0.11500168 0.02708193 0.07720923 0.027810715 0.019470192 -0.01283892 -0.04576811 0.06381836
0.003099325 0.08884193 0.058631208 0.028383818 0.06385533 0.0004929262 -0.05293382 0.020327792
-0.05749711 -0.10594503 0.118839785 -0.00018189264 0.061370634 -0.08368228 -0.029426945 0.0021558322
-0.10556299 -0.008760843 -0.03964326 -0.01170376 0.030577263 -0.032927644 0.002180695 0.03796927
-0.009750487 -0.023479315 -0.00492208 -0.017838622 0.021149931 -0.09853461 0.089157686 0.06309407
-0.08081793 -0.10205706 -0.02853875 0.062321216 0.089751236 -0.0065784436 -0.02337632 0.0027108656
0.004129776 0.09110326 0.11183077 0.044134747 -0.0056690527 -0.011806525 0.033569783 -0.018884826
-0.15812333 -0.07939302 0.0026165985 -0.09878086 0.008367659 -0.070477195 0.05098006 -0.024516951
-0.029734679 0.02691719 0.053923123 -0.0019418519 0.023211105 -0.032137092 -0.016316188 -0.08573628
-0.030309658 0.11722536 -0.05090866 0.0307524 0.019440945 -0.0057742926 -0.08522498 0.007977858
-0.0017335765 0.0019785662 -0.09375083 -0.12586282 0.02674207 0.06967089 0.023442809 0.011787202
0.13662429 -0.04461048 -0.06425572 0.05264955 0.0820081 0.03914081 -0.02530075 -0.020152774
0.02356478 0.06293949 0.010775885 0.10098492 0.009503581 -0.051669 0.025909577 -0.10081561
-0.08095992 -0.0417664 0.019699795 -0.1638451 0.054045532 0.0042037675 -0.10724687 -0.0038790083
0.05944145 -0.008055262 0.08714776 -0.010976035 -0.12317868 -0.055095218 -0.035957165 -0.042989478
-0.045735285 -0.019752223 0.0038733108 0.018967347 -0.07025602 -0.06621462 -0.06801013 -0.07729668
-0.014699131 0.0051588193 0.0055058636 -0.015895743 -0.0024242608 -0.060531944 -0.04115776 0.09438442
00000000: 7382 afbd 2330 d33c 9e4c ce3b 0778 20bd
00000010: 7423 debc 6f71 dcbb 47da 3ebc 6f5a b6bd
00000020: 33ae 853d 3ff8 943c 42bd 29bd 1ca1 813d
00000030: 1715 02bc 5b0e f8bc 193d 9bbd e755 a33d
00000040: 9adc 063c 50d7 51bb 218a 40ba 1688 b13c
00000050: 5c96 c03d 6d8d b3bd 2a99 c8bd dde0 323c
00000060: d482 0fba 0a90 8c3d 3cc1 1e3d 4057 493c
00000070: 5481 63bd 32d5 f83c 972e 0fbc 0b1b f93c
00000080: df35 983b c55a 2bbd 57cc 0abe 84f3 523d
00000090: e6fa 18bc 4edb d63c af84 3ebd fb70 22bd
000000a0: b1b8 cbbd 877c 30be 2fd9 aebc c99c 163d
000000b0: 29ce 96bd dbed c6bc 67b4 13be fdaf 343d
000000c0: 9e11 0cbd 0e62 9fbd 3423 19bd 68d7 8b39
000000d0: 9f01 403b ca12 18be 86a0 4f3c e119 06bd
000000e0: 6cfb 5dbc 6762 eebb bcd2 0dbd 5d9c 963d
000000f0: be7a 17bd a572 ff3d 3619 3f3d 3f6d 64bc
00000100: b921 48bc 4ce3 1bbd 2ee7 ebbd 0c7f d73d
00000110: 0122 d43c 56c8 08bd 52a1 62bc 65ff 7abd
00000120: 609b 0e3e f33d c0bc f63f 1a3c afe0 1fbd
00000130: 612e 81bd 9e02 33bd caef 053d 90f4 8abc
00000140: 8327 6ebd c608 bbbc 730d d9bc 7902 92bd
00000150: a890 3ebd f579 3abd 3842 fa3c b936 a43d
00000160: 669a 313e 43a1 44bd bd8e 82bc c4ee 00bd
00000170: 6491 663b ffcb eabd 0642 a13c 8863 99bc
00000180: 9fcc ac3c e9b8 1a3d bfa3 933d 712b 8fbd
00000190: b725 f5bd fb29 d33c 6661 fcbc 47ff 5dbd
000001a0: a28e ce3c a24e 03be ef56 34bd 691d 29bd
000001b0: 29b4 52bd 5652 3cbd c311 e63b 642c 02bd
000001c0: 8327 4bbc e6de 8e3c 9477 89bd e3c2 aa3d
000001d0: f6a5 30be 66d3 53bd ba4f 39bd 57a7 11bb
000001e0: 0086 ebbd ecda dd3c df1f 9e3d 4cd3 e33c
000001f0: f47f 9f3c 555a 52bc 5777 3bbd 33b3 823d
00000200: 0c1e 4b3b c2f2 b53d 4727 703d 2e85 e83c
00000210: 95c6 823d b837 013a 22d1 58bd 7886 a63c
00000220: 1782 6bbd b5f9 d8bd 4662 f33d 6fba 3eb9
00000230: c65f 7b3d 9d61 abbd c710 f1bc dd48 0d3b
00000240: 6931 d8bd a489 0fbc f960 22bd 21c1 3fbc
00000250: 2b7d fa3c 23df 06bd fee9 0e3b aa85 1b3d
00000260: 82c0 1fbc b157 c0bc 6649 a1bb 4d22 92bc
00000270: 9f42 ad3c 83cc c9bd 4e98 b63d 7737 813d
00000280: df83 a5bd 4b03 d1bd 19ca e9bc 8844 7f3d
00000290: 7fcf b73d fc8f d7bb b27f bfbc c7a8 313b
000002a0: 1253 873b 5994 ba3d 8807 e53d a3c6 343d
000002b0: 76c3 b9bb 2870 41bc 7880 093d 5ab4 9abc
000002c0: 15eb 21be cf98 a2bd 3d7b 2b3b 9f4d cabd
000002d0: 8118 093c 5956 90bd 78d0 503d c6d7 c8bc
000002e0: 2496 f3bc 7081 dc3c 7ede 5c3d bd85 feba
000002f0: 3725 be3c 2fa2 03bd 87a9 85bc 8196 afbd
00000300: f64b f8bc d913 f03d 9985 50bd 75ec fb3c
00000310: 9e42 9f3c 4736 bdbb 6f8a aebd 90b5 023c
00000320: 2d39 e3ba d5aa 013b 6f00 c0bd 2fe2 00be
00000330: 3012 db3c 9daf 8e3d 220b c03c 1c1f 413c
00000340: 3de7 0b3e 7bb9 36bd 8198 83bd 0ea7 573d
00000350: ddf3 a73d 1d52 203d 8543 cfbc 6e17 a5bc
00000360: ed0a c13c 6be6 803d 568d 303c 2fd1 ce3d
00000370: e8b4 1b3c e0a2 53bd 5240 d43c 6a78 cebd
00000380: 51ce a5bd 3f13 2bbd 7761 a13c 03c7 27be
00000390: d95e 5d3d c2bf 893b 3fa4 dbbd f636 7ebb
000003a0: e178 733d 38fa 03bc 867a b23d d4d4 33bc
000003b0: 1b45 fcbd 86ab 61bd d247 13bd bc15 30bd
000003c0: ec54 3bbd 6acf a1bc 5fd7 7d3b 6961 9b3c
000003d0: 63e2 8fbd 889b 87bd e548 8bbd b94d 9ebd
000003e0: a0d4 70bc 500b a93b 886a b43b ca37 82bc
000003f0: 59e0 1ebb 58f0 77bd 0a95 28bd 9e4c c13d

network_body._body_endoder.seq_layers.4.bias f4 [256]
0.051789485 0.044530768 -0.010189844 0.041261453 0.026554774 -0.032497298 -0.044991262 0.0064277756
-0.03886703 -0.043262534 0.036264986 -0.028220352 0.041792978 -0.03948996 0.016865028 0.04337472
-0.0067704204 -0.025072785 0.033280987 -0.047448177 0.058342613 -0.0020355312 0.030504443 -0.044545777
-0.03945725 -0.04173029 0.036209226 -0.010919104 0.047351077 -0.0370373 0.030746322 0.03755508
0.027702978 -0.028603533 0.037441637 0.04470085 -0.011311018 0.044746827 -0.005124872 -0.011068435
0.0018903927 -0.038059715 0.049066674 -0.025392842 -0.014604995 0.033580292 -0.029047037 -0.027796192
-0.041562412 0.03582397 0.02651206 -0.04473673 -0.024473915 0.041612104 -0.0336964 0.043702416
-0.043377828 0.027512742 0.04162803 0.0073767453 0.022466872 0.037688006 -0.027942302 0.018893104
-0.052855995 0.011298739 0.023180638 -0.011425629 -0.038428895 0.03064569 0.040311612 0.036936045
0.0002671101 0.05000218 0.032638323 -0.022779234 -0.03923755 -0.012560785 -0.021071684 0.028098747
0.013838996 0.030734766 -0.04910946 0.051473428 0.04069369 -0.04831814 0.034470208 -0.051524222
0.03679752 -0.025091559 -0.01135228 0.0050379676 0.03046159 0.03435442 0.024256825 0.039117154
0.019104382 -0.037487686 0.055901587 -0.032400683 -0.043330558 -0.0062083695 0.035173226 0.031217443
0.0050659697 -0.0036718273 0.022427185 0.042436212 0.032263838 0.02233977 0.034736626 0.041400194
-0.03933506 -0.046181537 -0.0016047844 0.033856425 0.032403357 0.014188079 -0.0019201239 0.028872149
-0.030209366 0.029289149 -0.037110172 0.02930137 0.029090405 0.03028194 0.03657911 0.031663384
0.0325562 0.03039126 0.008739871 0.037183087 0.0012844926 -0.002290611 0.035925124 -0.0157204
-0.018641803 0.031225879 -0.04100713 0.008971089 0.024378395 -0.03167693 0.029618246 0.034903288
-0.0015344528 0.042039987 -0.0013398037 0.03187131 -0.014334616 -0.042664718 -0.026175909 -4.9302365e-05
-0.034425907 -0.051775828 0.023827972 0.001048348 -0.032598156 0.02155424 0.009210563 0.037915774
0.017963527 0.029055115 -0.017899672 -0.06144417 0.021188807 -0.05189664 0.012591009 -0.015771925
-0.045832414 0.023079002 -7.692773e-05 0.04539631 0.041991614 0.040617816 0.034505844 0.020728892
-0.03775345 -0.022487488 -0.03480184 0.015226883 0.029641826 -0.045928333 -0.0066707954 0.038493283
0.043843396 -0.033238657 0.023541301 0.028697023 -0.04279091 -0.043862037 -0.027077673 0.029868418
-0.032569345 -0.04162599 -0.011859276 0.040484805 -0.053582143 0.01810112 -0.045381542 0.04907996
-0.015415043 0.032979574 0.036980513 -0.036574103 0.0026081607 -0.021908129 0.03845791 0.00010215979
0.014561149 0.027830789 0.026287112 0.019245597 0.010236135 -0.039412007 -0.009350971 0.038718976
-0.04214208 0.030616157 -0.021874065 0.04315652 0.03362682 -0.025157722 -0.0234069 -0.037282065
0.01587733 0.007190401 0.043328334 -0.028175306 0.021228628 -0.034824885 0.052931912 0.002459487
0.029101966 -0.041025538 -0.047367413 -0.043163087 0.02713042 0.026684854 -0.04838642 -0.028877836
-0.046857998 0.033566006 0.03670203 0.0057133343 0.041653197 0.0436262 0.022454163 -0.04778677
-0.022940677 0.043955848 0.00696664 0.011913116 -0.04232924 0.012828436 -0.014955298 -0.04730441
00000000: 3621 543d e565 363d 4ef3 26bc c501 293d
00000010: 6689 d93c e31b 05bd c248 38bd 17a0 d23b
00000020: 0933 1fbd 0e34 31bd 988a 143d 5e2e e7bc
00000030: 1d2f 2b3d 39c0 21bd 8728 8a3c b1a9 313d
00000040: 67da ddbb 7165 cdbc a551 083d 0559 42bd
00000050: aaf8 6e3d 8c66 05bb 74e4 f93c a275 36bd
00000060: ed9d 21bd 61ed 2abd 2050 143d 0be6 32bc
00000070: 34f3 413d 6db4 17bd b6df fb3c 5bd3 193d
00000080: 5bf1 e23c f551 eabc 675c 193d 3d18 373d
00000090: d951 39bc 7348 373d 8bee a7bb 6258 35bc
000000a0: 0ec7 f73a 81e4 1bbd 23fa 483d a604 d0bc
000000b0: ca49 6fbc 7d8b 093d 0df4 edbc d7b4 e3bc
000000c0: 593d 2abd 28bc 123d d22f d93c dd3d 37bd
000000d0: 857d c8bc 7471 2a3d 3c05 0abd 4e01 333d
000000e0: f3ac 31bd 6762 e13c 2782 2a3d a0b8 f13b
000000f0: 720c b83c bd5e 1a3d 41e7 e4bc b6c5 9a3c
00000100: 877f 58bd 591e 393c 52e5 bd3c 9032 3bbc
00000110: 9e67 1dbd ac0c fb3c ca1d 253d 404a 173d
00000120: e90a 8c39 16cf 4c3d c3af 053d 849b babc
00000130: 8eb7 20bd c0cb 4dbc 869e acbc 582f e63c
00000140: f5bc 623c 7ac7 fb3c 0027 49bd cdd5 523d
00000150: 6dae 263d 3ee9 45bd a230 0d3d 100b 53bd
00000160: ffb8 163d d08c cdbc eafe 39bc 8915 a53b
00000170: 968a f93c 38b7 0c3d 40b6 c63c 4f39 203d
00000180: cb80 9c3c b08c 19bd 10f9 643d 94b6 04bd
00000190: 627b 31bd 946f cbbb cd11 103d b9bb ff3c
000001a0: 6f00 a63b 0aa3 70bb 37b9 b73c 98d1 2d3d
000001b0: 1627 043d e501 b73c fe47 0e3d 4093 293d
000001c0: cd1d 21bd da28 3dbd a157 d2ba 09ad 0a3d
000001d0: 62b9 043d 1e75 683c abac fbba 4985 ec3c
000001e0: a279 f7bc ccef ef3c d600 18bd 6d09 f03c
000001f0: 004f ee3c d511 f83c fad3 153d 77b1 013d
00000200: a659 053d 17f7 f83c ad31 0f3c 4b4d 183d
00000210: 6b5c a83a 131e 16bb 3926 133d 11c8 80bc
00000220: b2b6 98bc 6acd ff3c 18f7 27bd 79fb 123c
00000230: 33b5 c73c abbf 01bd f7a1 f23c c0f6 0e3d
00000240: b11f c9ba 1f32 2c3d 5a9c afba 7e8b 023d
00000250: bddb 6abc 33c1 2ebd dc6e d6bc 03ca 4eb8
00000260: 2e02 0dbd e412 54bd e132 c33c b968 893a
00000270: a585 05bd 8492 b03c e7e7 163c 924d 1b3d
00000280: 3f28 933c fe04 ee3c 55a2 92bc e2ac 7bbd
00000290: 2694 ad3c 9291 54bd 854a 4e3c 2034 81bc
000002a0: c5ba 3bbd 2d10 bd3c 4354 a1b8 7bf1 393d
000002b0: 66ff 2b3d de5e 263d 0056 0d3d a3cf a93c
000002c0: 5da3 1abd ae37 b8bc 608c 0ebd 2d7a 793c
000002d0: 6ad3 f23c 591f 3cbd b096 dabb 22ab 1d3d
000002e0: 2295 333d 4225 08bd b0d9 c03c 0516 eb3c
000002f0: 8545 2fbd aea8 33bd ffd1 ddbc 9dae f43c
00000300: 6f67 05bd 0480 2abd 694d 42bc 65d3 253d
00000310: f378 5bbd cd48 943c ffe1 39bd 1108 493d
00000320: 608f 7cbc 9715 073d e178 173d bace 15bd
00000330: aded 2a3b ad78 b3bc 0b86 1d3d 9f3e d638
00000340: e391 6e3c 65fd e33c 1258 d73c f1a8 9d3c
00000350: 76b5 273c 7c6e 21bd d134 19bc ca97 1e3d
00000360: 2c9d 2cbd bcce fa3c 3d31 b3bc e4c4 303d
00000370: 47bc 093d 9117 cebc d4bf bfbc 14b5 18bd
00000380: 2d11 823c 759d eb3b 0d79 313d e6cf e6bc
00000390: a9e7 ad3c 8aa4 0ebd 22cf 583d 582f 213b
000003a0: 3f67 ee3c 650a 28bd 5504 42bd c7cb 30bd
000003b0: 9d40 de3c 329a da3c d730 46bd 3691 ecbc
000003c0: 2cee 3fbd 827c 093d de54 163d ec36 bb3b
000003d0: 8b9c 2a3d 63b1 323d cbf1 b73c 0fbc 43bd
000003e0: 16ee bbbc 0c0b 343d 6948 e43b 3b2f 433c
000003f0: 6d61 2dbd 5c2e 523c 1107 75bc 45c2 41bd

network_body._body_endoder.seq_layers.4.weight f4 [256, 256]
0.11742538 -0.068603404 0.01713362 -0.09935408 0.06847674 0.05161052 -0.0007675541 -0.01674354
0.03675384 0.10357253 -0.10978781 -0.025082089 -0.03814498 -0.040137645 -0.046266317 -0.08773897
-0.13056695 0.039069112 -0.033822984 -0.001591021 0.083809294 0.032088026 0.025464224 -0.08491812
0.024808131 -0.0385473 0.107200414 -0.0146532245 0.028911745 0.036969047 0.010989376 0.036037147
-0.023538826 -0.0928932 -0.047534116 0.04242142 -0.03604635 0.055701714 -0.13012876 -0.0068568354
-0.060971506 0.06637388 -0.05435458 0.026822027 -0.03957161 0.050242595 -0.015037669 -0.035068043
-0.053839635 0.08774123 0.018363485 -0.045516916 -0.14738922 0.08979332 -0.063713975 -0.025946341
0.0032114119 -0.09916065 0.023415523 0.0067611393 0.0024978772 0.0059156762 -0.08832934 0.015585726
-0.0889993 0.011315162 -0.022125792 -0.062985234 0.029189708 -0.023244593 0.093610354 -0.11408519
-0.038456257 -0.056947898 -0.04956653 -0.00770604 -0.0629306 -0.035116017 0.02626949 -0.12108058
-0.054195922 -0.07925407 0.037301365 0.015946893 0.0054619405 0.017569905 0.0986037 0.019522531
-0.030202301 -0.037650734 0.012370299 0.008573692 -0.09404175 0.09190881 0.02140884 0.0005639773
0.0049625337 0.010655015 -0.05297878 -0.047853217 0.053604674 -0.07941049 0.013127047 -0.08080561
-0.09146419 -0.02315113 -0.03537408 0.040378783 0.027041787 0.015065605 0.078077555 -0.1460958
-0.099850096 -0.020998007 0.095707394 -0.11272817 0.041921403 0.078802064 0.016752219 0.005643492
0.059362583 0.04278394 -0.10578962 -0.10120008 0.055224333 -0.0083836485 -0.09454907 -0.075237915
-0.0029874912 0.10861424 -0.1297914 0.047262684 -0.039640777 0.005930962 0.017193845 -0.056079023
0.031947024 -0.04199426 0.015569863 -0.028143931 -0.0339372 0.015999923 0.10299686 0.15157655
-0.00034987164 -0.048397608 0.0020459122 0.04782816 -0.16847615 0.0071835164 0.0017549756 -0.027223399
0.08273747 0.09010254 -0.043264672 -0.031338654 -0.035545155 0.0078441305 -0.056966573 -0.03113697
0.01195372 -0.053514738 -0.057946466 -0.08412979 0.03101707 -0.052795954 -0.026801128 -0.06733995
-0.055915087 -0.14674547 0.084929936 -0.107765585 0.0068604317 -0.019080995 0.15678862 -0.07402576
0.09171472 -0.0942265 0.005208589 -0.057673845 0.052684642 0.02668082 -0.09514062 -0.045260362
0.08273527 -0.018403366 0.012810745 0.048911717 -0.00035942215 -0.013196187 0.058505114 0.101010926
0.03299296 0.056616344 0.047992002 0.07682843 -0.043865543 -0.06349318 -0.009839955 0.05358467
-0.054709528 -0.024214003 -0.0575649 -0.01475099 -0.011178779 -0.060245093 -0.13654014 0.037955035
0.0074078324 0.0817547 -0.031341363 -0.0032796543 0.035577927 -0.09962887 0.10550547 0.10133033
-0.023152264 0.08303396 -0.04227053 -0.054805856 -0.041540273 -0.011021252 -0.030692182 -0.021420036
-0.015311297 -0.00022843375 -0.015760656 -0.014777379 0.009503987 0.047742683 0.07803554 0.100352995
0.08233673 -0.09915025 0.049365196 -0.019285453 -0.066402815 -0.040430598 -0.14934406 -0.02265943
-0.06304633 0.0024664702 0.10998084 -0.093692325 -0.034472223 -0.041711114 -0.001985549 -0.014130729
-0.07531051 0.11268548 0.03305101 -0.09592477 0.05566378 -0.04240184 -0.05099179 -0.024989307
00000000: b87c f03d f17f 8cbd ce5b 8c3c 277a cbbd
00000010: 883d 8c3d 8d65 533d af35 49ba c029 89bc
00000020: 328b 163d d61d d43d 6ed8 e0bd f478 cdbc
00000030: e93d 1cbd 5f67 24bd c081 3dbd 7db0 b3bd
00000040: 58b3 05be ef06 203d f889 0abd ce89 d0ba
00000050: 35a4 ab3d bc6e 033d 599a d03c 8de9 adbd
00000060: 6c3a cb3c c6e3 1dbd e48b db3d 1414 70bc
00000070: 53d8 ec3c db6c 173d c90c 343c b09b 133d
00000080: 7fd4 c0bc ca3e bebd 22b3 42bd 15c2 2d3d
00000090: 56a5 13bd 7b27 643d 7940 05be 4eaf e0bb
000000a0: 42bd 79bd 07ef 873d e8a2 5ebd deb9 db3c
000000b0: d715 22bd 2ecb 4d3d 8e60 76bc 82a3 0fbd
000000c0: f386 5cbd adb1 b33d 056f 963c f26f 3abd
000000d0: 33ed 16be 8fe5 b73d 797c 82bd 6c8d d4bc
000000e0: 8d76 523b bd14 cbbd e9d1 bf3c 8c8c dd3b
000000f0: 6db3 233b 4ad8 c13b 03e6 b4bd 465b 7f3c
00000100: 4445 b6bd 3b63 393c 2641 b5bc 67fe 80bd
00000110: 411f ef3c 726b bebc c9b6 bf3d 7fa5 e9bd
00000120: 4f84 1dbd 3342 69bd 4606 4bbd f382 fcbb
00000130: c2e1 80bd d0d5 0fbd 1d33 d73c 18f9 f7bd
00000140: 8bfc 5dbd f54f a2bd 51c9 183d 0fa3 823c
00000150: 14fa b23b c3ee 8f3c bdf0 c93d b7ed 9f3c
00000160: d16a f7bc a837 1abd cbac 4a3c ac78 0c3c
00000170: f698 c0bd b03a bc3d 9761 af3c e0d7 133a
00000180: c09c a23b 5f92 2e3c 4700 59bd bc01 44bd
00000190: 9390 5b3d f8a1 a2bd d312 573c 697d a5bd
000001a0: 9451 bbbd 70a7 bdbc 69e4 10bd 3964 253d
000001b0: bd86 dd3c bad5 763c 20e7 9f3d 239a 15be
000001c0: 357e ccbd 0304 acbc 3d02 c43d 07de e6bd
000001d0: c7b5 2b3d fa62 a13d f33b 893c 0bed b83b
000001e0: 2e26 733d 363e 2f3d 3aa8 d8bd fd41 cfbd
000001f0: e932 623d 925b 09bc f1a2 c1bd 5616 9abd
00000200: c9c9 43bb 2571 de3d 09e8 04be 8496 413d
00000210: 5e5e 22bd 8458 c23b 1bda 8c3c 1eb3 65bd
00000220: e2da 023d 2c02 2cbd bd18 7f3c 1a8e e6bc
00000230: bc01 0bbd 4512 833c 05f0 d23d e236 1b3e
00000240: fa6e b7b9 923c 46bd b614 063b 76e7 433d
00000250: 0385 2cbe b463 eb3b 3607 e63a 9b03 dfbc
00000260: 4372 a93d ae87 b83d 4c36 31bd f65c 00bd
00000270: cc97 11bd ab84 003c c855 69bd f512 ffbc
00000280: 89d9 433c 4532 5bbd 4659 6dbd 3d4c acbd
00000290: 8317 fe3c 9240 58bd 0a8e dbbc 87e9 89bd
000002a0: 3807 65bd 7244 16be bfef ad3d 34b4 dcbd
000002b0: 79cd e03b bf4f 9cbc 328d 203e d19a 97bd
000002c0: edd4 bb3d d3f9 c0bd d0ac aa3b 693b 6cbd
000002d0: dacb 573d bc91 da3c 16d9 c2bd ee62 39bd
000002e0: 1c71 a93d a8c2 96bc 29e4 513c a757 483d
000002f0: d370 bcb9 d234 58bc 0fa3 6f3d d1de ce3d
00000300: a023 073d 8ae6 673d 4393 443d 3958 9d3d
00000310: 5bac 33bd b608 82bd c337 21bc 997b 5b3d
00000320: 1917 60bd 725c c6bc 2cc9 6bbd 23ae 71bc
00000330: 3327 37bc 8fc3 76bd 2ed1 0bbe bd76 1b3d
00000340: 67bd f23b 026f a73d cd5f 00bd 78ef 56bb
00000350: 29ba 113d 390a ccbd 4013 d83d 4786 cf3d
00000360: d1a9 bdbc b50d aa3d dd23 2dbd 1b7c 60bd
00000370: 2226 2abd 7b92 34bc 2c6e fbbc 1279 afbc
00000380: 3cdc 7abc b887 6fb9 7e1c 81bc d21c 72bc
00000390: 9cb6 1b3c d58d 433d 19d1 9f3d df85 cd3d
000003a0: 29a0 a83d 490f cbbd 2933 4a3d 87fc 9dbc
000003b0: 33fe 87bd 8e9a 25bd a6ed 18be 45a0 b9bc
000003c0: 6f1e 81bd 81a4 213b a23d e13d c3e1 bfbd
000003d0: bf32 0dbd 46d9 2abd fc1f 02bb 9384 67bc
000003e0: 663c 9abd a5c7 e63d 7f60 073d 3574 c4bd
000003f0: b4ff 633d 8dad 2dbd c4dc 50bd 60b6 ccbc

network_body.observation_encoder.processors.0.normalizer.running_mean f4 [6]
41.727734 16.379534 61.603268 -32.280552 1.3999577 -71.158
00000000: 33e9 2642 4909 8341 bf69 7642 491f 01c2
00000010: d031 b33f e550 8ec2
