Assets/Training/results/learn_v1_2/MarsTaxi/MarsTaxi-499990.onnx (onnx, 542464 bytes, 10 tensors)

54 f4 [6]
000000 a5 6d 0f 41 e1 f6 f8 40 22 9e 10 41 1b 1c 3b 3d
       8.964269 7.7801366 9.038607 0.0456811
000010 aa 74 1f 3b 04 26 ce 3d
       0.0024331012 0.10065845

action_model._discrete_distribution.branches.0.bias f4 [6]
000000 00 00 00 00 00 00 00 00 00 00 00 00 00 00 00 00
       0.0 0.0 0.0 0.0
000010 00 00 00 00 00 00 00 00
       0.0 0.0

action_model._discrete_distribution.branches.0.weight f4 [6, 256]
000000 00 97 05 bc 3f 3a 19 3c 93 3b 2f bc 78 53 8e 3a
       -0.008153677 0.009352266 -0.010695356 0.0010858616
000010 dc a6 b7 3b 28 fc 20 bc 1b ce ba bb e7 18 be 3b
       0.005604608 -0.009825744 -0.005700839 0.0058013084
000020 49 b7 87 b7 c3 46 0a bc 5b 6a 01 3c a5 e1 a0 3b
       -1.6178603e-05 -0.0084397225 0.007898892 0.0049097114
000030 3d ec 78 3b e7 3c 11 3a d7 5f 80 b9 c6 42 11 3a
       0.0037982606 0.0005540386 -0.0002448547 0.0005541261
000040 67 44 c2 bb d5 d9 5a bb 2d 04 a0 3b 98 f7 0e ba
       -0.0059285644 -0.0033393998 0.0048833103 -0.00054537645
000050 1f 17 a5 3b 35 01 7f bb 6d 72 50 bc ed 2d c2 bb
       0.0050381566 -0.0038910632 -0.012722594 -0.005925885
000060 8b ae 3a bc cb ea b1 bb 0d bf 74 3a 3f 15 1f bb
       -0.011394153 -0.005429601 0.000933633 -0.0024274138
000070 89 7b 2d 3b 27 74 3c bc 2e 09 3d 3c 45 31 2f 3a
       0.0026471338 -0.011502302 0.011537833 0.0006683062
000080 ec 72 a5 3a 07 d1 2c bc 67 b8 f3 3b 22 79 ed 3a
       0.001262275 -0.010547883 0.007437754 0.0018117765
000090 fb 05 8b 3a aa 70 68 bb 02 dd d9 ba a2 05 e0 3b
       0.0010606641 -0.0035467544 -0.0016621652 0.006836609
0000a0 b6 85 ba b9 17 e3 19 bc f7 6c ad ba 47 87 f0 ba
       -0.00035576307 -0.009392521 -0.0013231327 -0.0018350863
0000b0 2b ec 3d 3c 2b 73 95 bb 87 f9 1d 3b 62 b5 50 bb
       0.011591951 -0.004560848 0.0024105029 -0.0031846394
0000c0 58 fd 00 bc 07 24 50 3b a9 10 3b 3a 20 7b 5e bc
       -0.007872902 0.0031759755 0.00071359664 -0.01357916
0000d0 94 80 a9 bb 67 03 95 3b 17 01 9a bb 97 d2 b3 ba
       -0.0051727984 0.0045475247 -0.004699837 -0.0013719377
0000e0 3b 37 1c bc 4c bc 8f 3b b2 15 09 3b f0 f0 56 bb
       -0.009534652 0.0043864604 0.0020917472 -0.0032797419
0000f0 98 ec 56 3c ef c7 c3 3a 16 05 18 bb a7 56 65 bb
       0.013117932 0.0014936904 -0.002319639 -0.0034994276
000100 5b b9 63 bb 48 6d d4 bb 76 d8 14 3c 62 42 db bb
       -0.0034747932 -0.006482754 0.009084811 -0.006691263
000110 e4 b1 01 3b e2 25 16 3a df 59 50 bb 19 da 22 3b
       0.001978987 0.0005727691 -0.0031791849 0.0024849235
000120 23 11 e6 ba 92 44 0f ba fd 27 84 3b 87 c9 0d bc
       -0.0017552715 -0.0005465235 0.0040330873 -0.008654005
000130 85 8b bd ba f0 c6 42 3b c3 c9 b1 bb 88 d0 57 39
       -0.0014461136 0.0029720627 -0.005425663 0.00020581682
000140 9c 06 97 3b 77 b2 b3 ba 9a 9e 40 bb 4f 50 31 3c
       0.004608942 -0.0013709803 -0.002939141 0.01082237
000150 12 68 2a bb 6f a6 5d bb f4 4c bb 3b 3f 45 b8 3b
       -0.0026001972 -0.0033821126 0.0057159606 0.005623489
000160 6f d3 eb 3b 8b 61 79 3b c8 3b 97 3a 27 e7 be bb
       0.0071968357 0.0038052525 0.0011538202 -0.0058258954
000170 6a 20 32 bb ad 2e 32 ba b0 dc 12 bc 1b df 80 3b
       -0.0027179965 -0.00067971164 -0.008963749 0.0039328462
000180 7f 03 04 3c 36 9f 2e bc eb 6a ac 3b c7 24 99 38
       0.008057474 -0.010658076 0.005261769 7.302459e-05
000190 4c 27 20 bb 00 ac 35 bb 86 15 0d 3b 4f f5 be 3b
       -0.0024437485 -0.0027720928 0.0021527722 0.005827583
0001a0 72 e9 6d bb f1 de 16 3b 03 1a 0c 3c b3 24 87 3a
       -0.0036302474 0.0023021067 0.008551124 0.001031062
0001b0 a3 d6 bc 3b 12 86 e4 3b 9a d8 b1 bb 2b 66 7b 3c
       0.0057628914 0.0069739902 -0.0054274322 0.015344183
0001c0 f3 7d 27 bc 08 1a 7f bb b3 f2 ca 3a 9f 77 07 3c
       -0.0102229 -0.0038925428 0.0015483707 0.008268266
0001d0 74 d1 2e 3b 1e fb 3b 3b 22 e2 d2 ba d5 34 94 3b
       0.0026675137 0.0028683613 -0.0016089121 0.0045228996
0001e0 62 78 da 3b 76 b8 10 3c 8a a9 db bb c8 23 c4 3b
       0.006667183 0.008833041 -0.0067035602 0.005985711
0001f0 35 19 3a 3c e8 45 32 3c ad fb 4d 3c 5b ca ec 3b
       0.011358549 0.010880925 0.012572211 0.007226271
000200 bf 40 ed 3b 60 46 37 3c 74 4c 35 3a 83 f0 91 3b
       0.0072403844 0.011186212 0.00069159945 0.00445372
000210 a0 25 56 ba 7d 04 56 bc 67 77 23 bc 53 a5 68 bb
       -0.0008169059 -0.0130625935 -0.009977198 -0.0035498932
000220 83 62 64 bb f2 23 aa 3b 8b ca 10 bb 3f 5d 04 3c
       -0.0034848757 0.0051922733 -0.0022093381 0.008078872
000230 ec 7e 99 3b 28 a7 a4 bb cd 51 c1 3b bd 36 7d 3c
       0.0046843197 -0.0050248094 0.005899644 0.015454945
000240 32 74 e7 3a df d4 54 3b 45 cb 70 3b 9f 89 fe 3b
       0.001765853 0.0032475514 0.0036742252 0.0077678706
000250 77 18 2d 3b d2 58 c7 ba 5b ec e3 bb a7 be d1 bb
       0.0026412287 -0.0015208966 -0.006955666 -0.0064009014
000260 a7 c6 e2 b9 65 ad f9 b9 bf 1c 89 bb 0f d1 00 3c
       -0.00043254087 -0.0004762217 -0.004184335 0.007862343
000270 af d2 2a bc 4d 99 f0 3a 27 c8 09 3c ea ea db 3b
       -0.010426207 0.0018356234 0.008409536 0.0067113535
000280 aa 6c 6d bb c0 f9 2c 3b 87 4a 82 39 d2 8e d1 37
       -0.00362281 0.002639398 0.0002485106 2.4981247e-05
000290 2d 02 61 3b 6f dd 00 bc 4b fa 13 3c d3 51 30 3b
       0.0034333572 -0.007865294 0.009031842 0.002690424
0002a0 f3 7d 1f bb 2d fa b3 bb 5e 81 08 bc 33 41 8f 3b
       -0.0024336546 -0.0054924698 -0.008331625 0.004371786
0002b0 d5 da 91 ba 40 8f 54 3b aa 8f 62 3b 13 45 a8 3b
       -0.0011127839 0.0032434016 0.0034570494 0.0051351874
0002c0 b7 8c a0 3b f2 05 4e bb f8 70 5d bc 72 3e 8f bb
       0.004899587 -0.003143665 -0.013515703 -0.0043714577
0002d0 43 7d ed 3b ef 80 67 bc bf fc e4 ba bb a6 1c 3c
       0.0072475984 -0.014129861 -0.0017470344 0.009561236
0002e0 73 aa d7 b9 fb 49 f8 bb ed 36 cb 3b f7 27 75 bb
       -0.0004113499 -0.0075771785 0.006201616 -0.0037407854
0002f0 4a 80 7a b9 74 00 02 3b 97 f1 ed bb 77 f4 41 ba
       -0.0002388965 0.0019836696 -0.007261466 -0.0007398794
000300 05 92 b1 3b d3 56 54 ba 27 e4 d0 bb d7 42 8b 3b
       0.005419018 -0.0008100096 -0.006374854 0.0042499113
000310 3a 88 d7 3a b5 cc 54 ba ef e3 50 3a 15 c5 02 3b
       0.0016443797 -0.0008117662 0.0007968535 0.0019953896
000320 1f e1 91 3a 09 0e 36 3b a7 18 3b 38 20 6d 10 bc
       0.0011129713 0.0027779362 4.4607234e-05 -0.00881508
000330 7b d2 5a bb 80 8a 46 bb 7d 69 9a ba a0 b2 d1 3a
       -0.0033389616 -0.0030294955 -0.0011780706 0.0015998669
000340 33 22 fa 39 65 b1 3d 3b a7 36 ee 3b b5 2a 66 3c
       0.00047709196 0.0028944847 0.0072696987 0.014048268
000350 4f 11 04 bc 9e 9f 13 bb 40 17 11 bc df f4 a2 ba
       -0.008060767 -0.002252556 -0.008855641 -0.0012432596
000360 76 51 86 bb b7 b8 c6 ba 36 40 35 bc 60 e6 55 3b
       -0.0040990664 -0.001516125 -0.011062672 0.0032638535
000370 b3 be dd 39 d7 8e 3d bc 20 55 9b ba 8c 20 44 bc
       0.00042294487 -0.0115697 -0.0011850931 -0.01197065
000380 e3 3b 91 3b cd 6a 74 bb e4 09 98 3b e0 3d f3 3b
       0.004432188 -0.0037295104 0.004639851 0.0074231476
000390 98 d1 06 3b 61 ae 91 bb aa 92 da 3b 2f e3 97 3b
       0.0020571705 -0.0044458364 0.0066703157 0.0046352367
0003a0 76 26 09 3c 65 6f e2 39 99 31 3f 3a e2 dd fa bb
       0.008370986 0.00043189074 0.00072934624 -0.007655845
0003b0 02 a2 5d 39 28 27 4f bb fe 1c 0e bc e7 5b d7 bb
       0.00021136555 -0.0031609032 -0.008673904 -0.006572235
0003c0 f3 55 3d bc af ae b1 b8 0f 27 0b 3c aa 86 75 bb
       -0.011556136 -8.472555e-05 0.008493199 -0.00374643
0003d0 67 b2 0a bb 20 94 ff 3b 0e ef 9d 3b ba 43 d1 3b
       -0.0021163465 0.0077996403 0.0048197573 0.0063862475
0003e0 8b 1b 2a 3a 8b 67 2a 3b f8 61 15 bb c3 70 94 b9
       0.00064890896 0.0026001658 -0.002279399 -0.00028312774
0003f0 ea ea 4b bc d0 e0 a5 bb 15 12 5c ba 1a 65 e6 ba
       -0.012446145 -0.0050622 -0.00083950284 -0.0017577738

network_body._body_endoder.seq_layers.0.bias f4 [256]
000000 00 00 00 00 00 00 00 00 00 00 00 00 00 00 00 00
       0.0 0.0 0.0 0.0
000010 00 00 00 00 00 00 00 00 00 00 00 00 00 00 00 00
       0.0 0.0 0.0 0.0
000020 00 00 00 00 00 00 00 00 00 00 00 00 00 00 00 00
       0.0 0.0 0.0 0.0
000030 00 00 00 00 00 00 00 00 00 00 00 00 00 00 00 00
       0.0 0.0 0.0 0.0
000040 00 00 00 00 00 00 00 00 00 00 00 00 00 00 00 00
       0.0 0.0 0.0 0.0
000050 00 00 00 00 00 00 00 00 00 00 00 00 00 00 00 00
       0.0 0.0 0.0 0.0
000060 00 00 00 00 00 00 00 00 00 00 00 00 00 00 00 00
       0.0 0.0 0.0 0.0
000070 00 00 00 00 00 00 00 00 00 00 00 00 00 00 00 00
       0.0 0.0 0.0 0.0
000080 00 00 00 00 00 00 00 00 00 00 00 00 00 00 00 00
       0.0 0.0 0.0 0.0
000090 00 00 00 00 00 00 00 00 00 00 00 00 00 00 00 00
       0.0 0.0 0.0 0.0
0000a0 00 00 00 00 00 00 00 00 00 00 00 00 00 00 00 00
       0.0 0.0 0.0 0.0
0000b0 00 00 00 00 00 00 00 00 00 00 00 00 00 00 00 00
       0.0 0.0 0.0 0.0
0000c0 00 00 00 00 00 00 00 00 00 00 00 00 00 00 00 00
       0.0 0.0 0.0 0.0
0000d0 00 00 00 00 00 00 00 00 00 00 00 00 00 00 00 00
       0.0 0.0 0.0 0.0
0000e0 00 00 00 00 00 00 00 00 00 00 00 00 00 00 00 00
       0.0 0.0 0.0 0.0
0000f0 00 00 00 00 00 00 00 00 00 00 00 00 00 00 00 00
       0.0 0.0 0.0 0.0
000100 00 00 00 00 00 00 00 00 00 00 00 00 00 00 00 00
       0.0 0.0 0.0 0.0
000110 00 00 00 00 00 00 00 00 00 00 00 00 00 00 00 00
       0.0 0.0 0.0 0.0
000120 00 00 00 00 00 00 00 00 00 00 00 00 00 00 00 00
       0.0 0.0 0.0 0.0
000130 00 00 00 00 00 00 00 00 00 00 00 00 00 00 00 00
       0.0 0.0 0.0 0.0
000140 00 00 00 00 00 00 00 00 00 00 00 00 00 00 00 00
       0.0 0.0 0.0 0.0
000150 00 00 00 00 00 00 00 00 00 00 00 00 00 00 00 00
       0.0 0.0 0.0 0.0
000160 00 00 00 00 00 00 00 00 00 00 00 00 00 00 00 00
       0.0 0.0 0.0 0.0
000170 00 00 00 00 00 00 00 00 00 00 00 00 00 00 00 00
       0.0 0.0 0.0 0.0
000180 00 00 00 00 00 00 00 00 00 00 00 00 00 00 00 00
       0.0 0.0 0.0 0.0
000190 00 00 00 00 00 00 00 00 00 00 00 00 00 00 00 00
       0.0 0.0 0.0 0.0
0001a0 00 00 00 00 00 00 00 00 00 00 00 00 00 00 00 00
       0.0 0.0 0.0 0.0
0001b0 00 00 00 00 00 00 00 00 00 00 00 00 00 00 00 00
       0.0 0.0 0.0 0.0
0001c0 00 00 00 00 00 00 00 00 00 00 00 00 00 00 00 00
       0.0 0.0 0.0 0.0
0001d0 00 00 00 00 00 00 00 00 00 00 00 00 00 00 00 00
       0.0 0.0 0.0 0.0
0001e0 00 00 00 00 00 00 00 00 00 00 00 00 00 00 00 00
       0.0 0.0 0.0 0.0
0001f0 00 00 00 00 00 00 00 00 00 00 00 00 00 00 00 00
       0.0 0.0 0.0 0.0
000200 00 00 00 00 00 00 00 00 00 00 00 00 00 00 00 00
       0.0 0.0 0.0 0.0
000210 00 00 00 00 00 00 00 00 00 00 00 00 00 00 00 00
       0.0 0.0 0.0 0.0
000220 00 00 00 00 00 00 00 00 00 00 00 00 00 00 00 00
       0.0 0.0 0.0 0.0
000230 00 00 00 00 00 00 00 00 00 00 00 00 00 00 00 00
       0.0 0.0 0.0 0.0
000240 00 00 00 00 00 00 00 00 00 00 00 00 00 00 00 00
       0.0 0.0 0.0 0.0
000250 00 00 00 00 00 00 00 00 00 00 00 00 00 00 00 00
       0.0 0.0 0.0 0.0
000260 00 00 00 00 00 00 00 00 00 00 00 00 00 00 00 00
       0.0 0.0 0.0 0.0
000270 00 00 00 00 00 00 00 00 00 00 00 00 00 00 00 00
       0.0 0.0 0.0 0.0
000280 00 00 00 00 00 00 00 00 00 00 00 00 00 00 00 00
       0.0 0.0 0.0 0.0
000290 00 00 00 00 00 00 00 00 00 00 00 00 00 00 00 00
       0.0 0.0 0.0 0.0
0002a0 00 00 00 00 00 00 00 00 00 00 00 00 00 00 00 00
       0.0 0.0 0.0 0.0
0002b0 00 00 00 00 00 00 00 00 00 00 00 00 00 00 00 00
       0.0 0.0 0.0 0.0
0002c0 00 00 00 00 00 00 00 00 00 00 00 00 00 00 00 00
       0.0 0.0 0.0 0.0
0002d0 00 00 00 00 00 00 00 00 00 00 00 00 00 00 00 00
       0.0 0.0 0.0 0.0
0002e0 00 00 00 00 00 00 00 00 00 00 00 00 00 00 00 00
       0.0 0.0 0.0 0.0
0002f0 00 00 00 00 00 00 00 00 00 00 00 00 00 00 00 00
       0.0 0.0 0.0 0.0
000300 00 00 00 00 00 00 00 00 00 00 00 00 00 00 00 00
       0.0 0.0 0.0 0.0
000310 00 00 00 00 00 00 00 00 00 00 00 00 00 00 00 00
       0.0 0.0 0.0 0.0
000320 00 00 00 00 00 00 00 00 00 00 00 00 00 00 00 00
       0.0 0.0 0.0 0.0
000330 00 00 00 00 00 00 00 00 00 00 00 00 00 00 00 00
       0.0 0.0 0.0 0.0
000340 00 00 00 00 00 00 00 00 00 00 00 00 00 00 00 00
       0.0 0.0 0.0 0.0
000350 00 00 00 00 00 00 00 00 00 00 00 00 00 00 00 00
       0.0 0.0 0.0 0.0
000360 00 00 00 00 00 00 00 00 00 00 00 00 00 00 00 00
       0.0 0.0 0.0 0.0
000370 00 00 00 00 00 00 00 00 00 00 00 00 00 00 00 00
       0.0 0.0 0.0 0.0
000380 00 00 00 00 00 00 00 00 00 00 00 00 00 00 00 00
       0.0 0.0 0.0 0.0
000390 00 00 00 00 00 00 00 00 00 00 00 00 00 00 00 00
       0.0 0.0 0.0 0.0
0003a0 00 00 00 00 00 00 00 00 00 00 00 00 00 00 00 00
       0.0 0.0 0.0 0.0
0003b0 00 00 00 00 00 00 00 00 00 00 00 00 00 00 00 00
       0.0 0.0 0.0 0.0
0003c0 00 00 00 00 00 00 00 00 00 00 00 00 00 00 00 00
       0.0 0.0 0.0 0.0
0003d0 00 00 00 00 00 00 00 00 00 00 00 00 00 00 00 00
       0.0 0.0 0.0 0.0
0003e0 00 00 00 00 00 00 00 00 00 00 00 00 00 00 00 00
       0.0 0.0 0.0 0.0
0003f0 00 00 00 00 00 00 00 00 00 00 00 00 00 00 00 00
       0.0 0.0 0.0 0.0

network_body._body_endoder.seq_layers.0.weight f4 [256, 6]
000000 08 66 2f bf d9 e0 e0 bd d9 c6 39 bd fd 0f 4f be
       -0.6851506 -0.10980386 -0.04535565 -0.20220943
000010 a0 3f 84 be 83 24 7e bc 5f 3f 61 3e 34 20 cd 3e
       -0.25829792 -0.015511635 0.2199683 0.40063632
000020 4a 9c 96 be ac b9 df bd 34 df 69 bf 22 59 90 be
       -0.29416114 -0.10924086 -0.91356206 -0.28193003
000030 a0 2e d6 3e c7 1a e5 3e e8 8c 20 be 68 79 87 3e
       0.41832447 0.44746992 -0.15678751 0.26459813
000040 0a 30 78 3e f5 ad c7 be 4f aa b0 3d e1 09 b6 3d
       0.24237075 -0.38999906 0.08626234 0.08888603
000050 e3 8c ee be f7 e5 cf be d3 e9 47 3f c8 11 f3 3e
       -0.46591863 -0.40605137 0.7809116 0.47474504
000060 1f 70 bf bd 2a 57 68 be 63 16 48 3d aa f4 5c 3d
       -0.09347557 -0.226895 0.048849475 0.053944267
000070 9a ce ed bd 39 33 27 bd 28 ec b0 be 5b 6d 56 3d
       -0.11611672 -0.040820334 -0.34555173 0.052350383
000080 76 26 19 3b 52 f5 20 bf a3 4c c5 3d 4b 1b cd 3e
       0.0023368872 -0.6287433 0.09633758 0.40059885
000090 f8 dc a2 be 3b af 99 3e b7 d1 99 be b9 1f e9 be
       -0.3180921 0.30016503 -0.30042812 -0.45532015
0000a0 ac cc 04 3e b9 99 bd be 77 26 8d bf 6e 27 3f 3e
       0.12968701 -0.37031344 -1.1027364 0.18667385
0000b0 93 5a d8 bd 4d db 2e 3e a1 72 52 bf b7 e3 93 3f
       -0.10564151 0.17075844 -0.8220616 1.1553868
0000c0 b7 a7 63 3f 40 3d 89 3e 59 72 c9 be a3 7f 17 3f
       0.8892779 0.26804543 -0.39345053 0.59179133
0000d0 8e f2 59 bc 61 5a 5f bf ac ef 6b 3e 5e ae 3e 3e
       -0.013302458 -0.8724728 0.23040646 0.18621203
0000e0 fc 8c 3a be cd 43 79 be 4f cd b3 be 9b 9e a8 3e
       -0.18217844 -0.2434227 -0.35117576 0.32933506
0000f0 cc 46 d7 be 43 7f 5a 3e a8 32 82 bf 64 02 57 3e
       -0.420462 0.21337609 -1.0171709 0.20997006
000100 81 b5 02 bf 7f 61 9d be 1c 7a ba 3e fc 1c f9 3b
       -0.51058203 -0.30738446 0.36421287 0.007602332
000110 51 32 12 be 2b 01 8d bf 78 1d 81 3e ae 71 91 bf
       -0.14277007 -1.1015981 0.25217795 -1.1362817
000120 40 3f c9 3e 7d 98 33 bf 65 8b 92 be 3e e4 2e be
       0.39306068 -0.70154554 -0.28621975 -0.17079255
000130 8d 40 93 3c 06 5c 63 3f 08 84 64 be 75 ac 1c 3d
       0.017975116 0.8881229 -0.22315991 0.038250405
000140 33 9c 4e 3f 26 63 5a bd 2c 3c df be 29 db 3c 3e
       0.8070709 -0.05331721 -0.43600595 0.18442978
000150 e2 53 48 3e 0d 77 0a 3e f2 70 11 3e 6f e2 a6 3d
       0.19563249 0.13521977 0.14203241 0.081486575
000160 a1 3b 25 bf 50 44 71 3e 6f 11 15 3e 9b 0b 15 be
       -0.6454411 0.23561215 0.14557432 -0.14555208
000170 71 f7 42 bf e1 e9 5a bc a2 35 0b 3f b8 a3 d7 be
       -0.76158816 -0.013361425 0.5437871 -0.42117095
000180 90 26 26 be c1 fd c1 3c a5 1c 2b 3e db b3 ea be
       -0.16225648 0.02368057 0.16710146 -0.45840344
000190 b1 e8 b5 be 10 a8 05 bd 98 9f 2b 3e 3d 9d ca be
       -0.35529092 -0.03263098 0.16760099 -0.39573088
0001a0 38 67 b7 be 52 1b 0a 3f 7b 38 ea 3d 12 7e 70 be
       -0.35820937 0.5394794 0.11436554 -0.23485592
0001b0 83 8a ef 3e 29 c6 f0 bc 81 d0 79 3d 5f ee ad be
       0.46785364 -0.029391365 0.06098986 -0.33970925
0001c0 02 9d 09 3f 74 da 6d be b7 eb a2 3d e6 04 04 3f
       0.537552 -0.23227865 0.07955115 0.51569974
0001d0 79 3d 89 bc fe 1b b1 bd 57 bc b5 3e a1 5f 13 3d
       -0.016752945 -0.08647917 0.35495254 0.03597987
0001e0 aa 5a 6a 3e 88 96 14 bf bb 09 9a 3d 69 3d d6 be
       0.22886148 -0.5804219 0.07521387 -0.41843727
0001f0 4d d8 56 bf 4e db 13 3f 3f d7 6e 3f 1a 7f 46 3e
       -0.839238 0.5775651 0.9329719 0.19384423
000200 03 01 9d 3e da fc 82 be fc 38 a4 3e 85 e0 b9 bd
       0.30664834 -0.25583535 0.32074726 -0.09076027
000210 17 96 54 3e 4c 9c a0 3d 67 45 78 3d 56 d0 14 3f
       0.2076038 0.07842311 0.060613062 0.58130395
000220 61 ae a0 bd d2 50 47 3f 4a 5b d6 3e 2e 33 da 3c
       -0.0784576 0.77857697 0.41866523 0.026635733
000230 b3 c5 2c bf e7 0a 3e be a2 65 84 3e 82 c1 d5 3c
       -0.67489165 -0.18558846 0.2585879 0.026093248
000240 d5 90 6e 3e 48 b7 41 bf af 8d fd be 60 52 86 be
       0.23297437 -0.7567029 -0.49522159 -0.26234722
000250 8c ab e6 3e 3f 45 13 bf 8f ab 25 bf 4d d0 3a bf
       0.45052755 -0.57527536 -0.647149 -0.7297409
000260 6a c8 71 be 96 f4 83 3e 94 72 14 3f 0b e3 af 3c
       -0.23611608 0.25772542 0.5798733 0.021470567
000270 52 86 f9 3e cd 09 ce be 3f 38 86 3e e7 0e 61 bd
       0.4873529 -0.40241852 0.26214787 -0.054945853
000280 22 8a e7 3d d9 4e 15 3e e2 1a c9 3d d6 5c 41 be
       0.113056436 0.14580859 0.098195806 -0.1888307
000290 f0 d0 d9 3e 79 71 d5 3e b8 fd af be 92 d0 dd 3e
       0.4254222 0.41688135 -0.3437326 0.4332319
0002a0 55 e6 1f 3e 6d 2e 5f 3e b4 80 08 3f 0a ef 8e 3e
       0.15615208 0.21795054 0.53321385 0.27916747
0002b0 b4 e5 86 be ed e5 a5 3e 97 2e 10 3e ad 18 3e bf
       -0.26347125 0.32401982 0.14080273 -0.742564
0002c0 e3 bc 02 3e da 09 6f 3e 95 f5 47 3e f7 f8 f8 3e
       0.12767367 0.23343602 0.19527276 0.48627445
0002d0 9e 86 e3 3c e5 51 b5 3e 61 14 1e 3f 0a 64 7e 3e
       0.027774151 0.35414043 0.61749846 0.2484285
0002e0 b2 d6 61 be cc 4c 1b be 33 64 1d be 47 08 ba bd
       -0.22054556 -0.15166014 -0.15370254 -0.0908361
0002f0 36 e5 88 3c bc ac a1 bd f8 40 bf be 25 71 16 3f
       0.016710859 -0.078942746 -0.37354255 0.58766395
000300 d0 4f 01 bf 79 3a 55 b9 92 4e 6c 3e dc b6 2a be
       -0.5051241 -0.00020335046 0.23076847 -0.16671318
000310 1c a1 92 3e 97 ab aa be a6 b4 8d 3c a8 9a 5d bd
       0.28638542 -0.33334038 0.017298054 -0.05410257
000320 6a 2a f8 bd 49 ba a3 3e f7 a4 ab be 62 d8 91 3e
       -0.12117465 0.31978062 -0.33524296 0.284854
000330 3e 02 b6 3c ae 8c 3d 3f e8 56 a7 bb 43 e8 f6 bd
       0.022217866 0.74042785 -0.0051067956 -0.12056019
000340 ce 52 01 3f 6a d0 1b bf 02 e7 ad 3e c6 55 15 bf
       0.50516975 -0.6086489 0.33965307 -0.58334005
000350 90 50 02 3e 92 5c 05 bf 08 19 bd 3e c2 f3 ea 3e
       0.12726045 -0.52094376 0.3693316 0.45889097
000360 b8 97 18 bf ce 3a ab be c8 a7 1a bf 83 84 cb 3e
       -0.59606504 -0.33443302 -0.60412264 0.39749536
000370 7e c7 4d bf 76 09 76 be 95 50 12 3d 0f 9e f8 bd
       -0.80382526 -0.24027047 0.03572138 -0.12139522
000380 45 dd 8d 3e 8e 45 0d 3f 78 22 8b bd 4d 6c ba 3e
       0.27707878 0.5518426 -0.06793684 0.36410752
000390 ee 22 3c bf 92 3d bc 3e 69 e2 6c ba ec 54 20 be
       -0.734908 0.36765724 -0.0009036423 -0.15657395
0003a0 46 c2 3f 3f e0 9d c3 bd f4 0c 19 bf 06 db 23 3f
       0.7490581 -0.09551597 -0.5978539 0.6400608
0003b0 3d e7 de 3d 39 bd 24 be 98 70 6b 3d 0a af d0 be
       0.10883949 -0.16087808 0.057480425 -0.40758544
0003c0 13 84 d2 3e 16 c2 93 be 2a c2 85 3e 11 1c 1d bf
       0.4111639 -0.28859013 0.26124698 -0.6137095
0003d0 44 4a 9d bd f6 48 05 3f 47 f2 99 3e a9 e3 65 3e
       -0.07680181 0.52064455 0.30067655 0.22450127
0003e0 2f e2 e1 3e 83 e8 ba 3e 67 5b 0a be 57 31 8f be
       0.44117877 0.36505517 -0.1351143 -0.2796733
0003f0 18 f6 58 be 36 9c 2e 3e 03 2b 34 bf 54 b8 26 bd
       -0.21187627 0.17051777 -0.7037813 -0.040703133

network_body._body_endoder.seq_layers.2.bias f4 [256]
000000 00 00 00 00 00 00 00 00 00 00 00 00 00 00 00 00
       0.0 0.0 0.0 0.0
000010 00 00 00 00 00 00 00 00 00 00 00 00 00 00 00 00
       0.0 0.0 0.0 0.0
000020 00 00 00 00 00 00 00 00 00 00 00 00 00 00 00 00
       0.0 0.0 0.0 0.0
000030 00 00 00 00 00 00 00 00 00 00 00 00 00 00 00 00
       0.0 0.0 0.0 0.0
000040 00 00 00 00 00 00 00 00 00 00 00 00 00 00 00 00
       0.0 0.0 0.0 0.0
000050 00 00 00 00 00 00 00 00 00 00 00 00 00 00 00 00
       0.0 0.0 0.0 0.0
000060 00 00 00 00 00 00 00 00 00 00 00 00 00 00 00 00
       0.0 0.0 0.0 0.0
000070 00 00 00 00 00 00 00 00 00 00 00 00 00 00 00 00
       0.0 0.0 0.0 0.0
000080 00 00 00 00 00 00 00 00 00 00 00 00 00 00 00 00
       0.0 0.0 0.0 0.0
000090 00 00 00 00 00 00 00 00 00 00 00 00 00 00 00 00
       0.0 0.0 0.0 0.0
0000a0 00 00 00 00 00 00 00 00 00 00 00 00 00 00 00 00
       0.0 0.0 0.0 0.0
0000b0 00 00 00 00 00 00 00 00 00 00 00 00 00 00 00 00
       0.0 0.0 0.0 0.0
0000c0 00 00 00 00 00 00 00 00 00 00 00 00 00 00 00 00
       0.0 0.0 0.0 0.0
0000d0 00 00 00 00 00 00 00 00 00 00 00 00 00 00 00 00
       0.0 0.0 0.0 0.0
0000e0 00 00 00 00 00 00 00 00 00 00 00 00 00 00 00 00
       0.0 0.0 0.0 0.0
0000f0 00 00 00 00 00 00 00 00 00 00 00 00 00 00 00 00
       0.0 0.0 0.0 0.0
000100 00 00 00 00 00 00 00 00 00 00 00 00 00 00 00 00
       0.0 0.0 0.0 0.0
000110 00 00 00 00 00 00 00 00 00 00 00 00 00 00 00 00
       0.0 0.0 0.0 0.0
000120 00 00 00 00 00 00 00 00 00 00 00 00 00 00 00 00
       0.0 0.0 0.0 0.0
000130 00 00 00 00 00 00 00 00 00 00 00 00 00 00 00 00
       0.0 0.0 0.0 0.0
000140 00 00 00 00 00 00 00 00 00 00 00 00 00 00 00 00
       0.0 0.0 0.0 0.0
000150 00 00 00 00 00 00 00 00 00 00 00 00 00 00 00 00
       0.0 0.0 0.0 0.0
000160 00 00 00 00 00 00 00 00 00 00 00 00 00 00 00 00
       0.0 0.0 0.0 0.0
000170 00 00 00 00 00 00 00 00 00 00 00 00 00 00 00 00
       0.0 0.0 0.0 0.0
000180 00 00 00 00 00 00 00 00 00 00 00 00 00 00 00 00
       0.0 0.0 0.0 0.0
000190 00 00 00 00 00 00 00 00 00 00 00 00 00 00 00 00
       0.0 0.0 0.0 0.0
0001a0 00 00 00 00 00 00 00 00 00 00 00 00 00 00 00 00
       0.0 0.0 0.0 0.0
0001b0 00 00 00 00 00 00 00 00 00 00 00 00 00 00 00 00
       0.0 0.0 0.0 0.0
0001c0 00 00 00 00 00 00 00 00 00 00 00 00 00 00 00 00
       0.0 0.0 0.0 0.0
0001d0 00 00 00 00 00 00 00 00 00 00 00 00 00 00 00 00
       0.0 0.0 0.0 0.0
0001e0 00 00 00 00 00 00 00 00 00 00 00 00 00 00 00 00
       0.0 0.0 0.0 0.0
0001f0 00 00 00 00 00 00 00 00 00 00 00 00 00 00 00 00
       0.0 0.0 0.0 0.0
000200 00 00 00 00 00 00 00 00 00 00 00 00 00 00 00 00
       0.0 0.0 0.0 0.0
000210 00 00 00 00 00 00 00 00 00 00 00 00 00 00 00 00
       0.0 0.0 0.0 0.0
000220 00 00 00 00 00 00 00 00 00 00 00 00 00 00 00 00
       0.0 0.0 0.0 0.0
000230 00 00 00 00 00 00 00 00 00 00 00 00 00 00 00 00
       0.0 0.0 0.0 0.0
000240 00 00 00 00 00 00 00 00 00 00 00 00 00 00 00 00
       0.0 0.0 0.0 0.0
000250 00 00 00 00 00 00 00 00 00 00 00 00 00 00 00 00
       0.0 0.0 0.0 0.0
000260 00 00 00 00 00 00 00 00 00 00 00 00 00 00 00 00
       0.0 0.0 0.0 0.0
000270 00 00 00 00 00 00 00 00 00 00 00 00 00 00 00 00
       0.0 0.0 0.0 0.0
000280 00 00 00 00 00 00 00 00 00 00 00 00 00 00 00 00
       0.0 0.0 0.0 0.0
000290 00 00 00 00 00 00 00 00 00 00 00 00 00 00 00 00
       0.0 0.0 0.0 0.0
0002a0 00 00 00 00 00 00 00 00 00 00 00 00 00 00 00 00
       0.0 0.0 0.0 0.0
0002b0 00 00 00 00 00 00 00 00 00 00 00 00 00 00 00 00
       0.0 0.0 0.0 0.0
0002c0 00 00 00 00 00 00 00 00 00 00 00 00 00 00 00 00
       0.0 0.0 0.0 0.0
0002d0 00 00 00 00 00 00 00 00 00 00 00 00 00 00 00 00
       0.0 0.0 0.0 0.0
0002e0 00 00 00 00 00 00 00 00 00 00 00 00 00 00 00 00
       0.0 0.0 0.0 0.0
0002f0 00 00 00 00 00 00 00 00 00 00 00 00 00 00 00 00
       0.0 0.0 0.0 0.0
000300 00 00 00 00 00 00 00 00 00 00 00 00 00 00 00 00
       0.0 0.0 0.0 0.0
000310 00 00 00 00 00 00 00 00 00 00 00 00 00 00 00 00
       0.0 0.0 0.0 0.0
000320 00 00 00 00 00 00 00 00 00 00 00 00 00 00 00 00
       0.0 0.0 0.0 0.0
000330 00 00 00 00 00 00 00 00 00 00 00 00 00 00 00 00
       0.0 0.0 0.0 0.0
000340 00 00 00 00 00 00 00 00 00 00 00 00 00 00 00 00
       0.0 0.0 0.0 0.0
000350 00 00 00 00 00 00 00 00 00 00 00 00 00 00 00 00
       0.0 0.0 0.0 0.0
000360 00 00 00 00 00 00 00 00 00 00 00 00 00 00 00 00
       0.0 0.0 0.0 0.0
000370 00 00 00 00 00 00 00 00 00 00 00 00 00 00 00 00
       0.0 0.0 0.0 0.0
000380 00 00 00 00 00 00 00 00 00 00 00 00 00 00 00 00
       0.0 0.0 0.0 0.0
000390 00 00 00 00 00 00 00 00 00 00 00 00 00 00 00 00
       0.0 0.0 0.0 0.0
0003a0 00 00 00 00 00 00 00 00 00 00 00 00 00 00 00 00
       0.0 0.0 0.0 0.0
0003b0 00 00 00 00 00 00 00 00 00 00 00 00 00 00 00 00
       0.0 0.0 0.0 0.0
0003c0 00 00 00 00 00 00 00 00 00 00 00 00 00 00 00 00
       0.0 0.0 0.0 0.0
0003d0 00 00 00 00 00 00 00 00 00 00 00 00 00 00 00 00
       0.0 0.0 0.0 0.0
0003e0 00 00 00 00 00 00 00 00 00 00 00 00 00 00 00 00
       0.0 0.0 0.0 0.0
0003f0 00 00 00 00 00 00 00 00 00 00 00 00 00 00 00 00
       0.0 0.0 0.0 0.0

network_body._body_endoder.seq_layers.2.weight f4 [256, 256]
000000 29 74 7a bd b8 c4 03 3d c0 59 68 3c 01 25 06 bd
       -0.061145935 0.032170027 0.014181554 -0.032750133
000010 4a 55 27 bd 9a 92 26 3c 24 8b c7 3a b2 10 60 bd
       -0.040852822 0.0101667885 0.0015223962 -0.054703422
000020 d9 a8 9d 3d 51 5a c8 3c d6 e3 ea bc b0 28 8f 3d
       0.07698221 0.024457129 -0.028673094 0.069901824
000030 cd d1 58 bc 41 6b 8a ba aa 53 80 bd 32 9e b1 3d
       -0.013233614 -0.0010560529 -0.06265958 0.086727515
000040 37 f9 6e 3c db 4b cc bb d3 5b 40 3c e2 86 ed 3c
       0.014585785 -0.0062346286 0.011740643 0.028994981
000050 33 f5 a8 3d 1f c8 84 bd 5e 1d b3 bd 7e 62 9a 3c
       0.08249893 -0.064834826 -0.08745836 0.018845793
000060 87 61 e5 bb f8 7c 97 3d f5 12 58 3d b4 3d b9 3c
       -0.0070001516 0.07396883 0.052752454 0.02261243
000070 dd a1 11 bd 1a 65 26 3c 6f ff 3a 3c 46 04 e3 3c
       -0.035554755 0.01015594 0.011413439 0.027711999
000080 b2 97 dd 3c 7d 24 2f bd ad 92 03 be c4 9e 45 3d
       0.027049873 -0.042759407 -0.12848921 0.048247114
000090 d6 05 36 3b 7d f6 f0 3c e0 51 8a bc 0d f7 7b bc
       0.0027774475 0.02941441 -0.016884744 -0.015378726
0000a0 08 cd ab bd 90 08 1a be a7 1e 3b bc c2 5a 5b 3d
       -0.08388716 -0.15042329 -0.011420882 0.05355335
0000b0 70 5e 74 bd 24 d0 ab bc 9a 26 02 be 61 53 52 3d
       -0.059660375 -0.020973273 -0.12710038 0.051349048
0000c0 cb b5 2e bd ad e8 ae bd a5 1f 15 bd 43 19 69 3c
       -0.04265384 -0.08540473 -0.03640713 0.014227214
0000d0 4b 49 c7 b9 fd 69 0b be 7b e6 11 3d c2 5b ea bc
       -0.00038010845 -0.1361465 0.035620194 -0.028608207
0000e0 34 15 a3 3b 48 94 08 bc 27 d4 4e bc aa c6 a5 3d
       0.004976893 -0.008336134 -0.012623823 0.08094533
0000f0 82 5e b0 bc d4 e9 e6 3d 52 74 5e 3d ab a0 de bb
       -0.02152944 0.11275068 0.05431015 -0.0067940555
000100 99 83 8a bc 82 8a 0e bd aa 45 e8 bd 1b ab dc 3d
       -0.016908454 -0.03480006 -0.11341412 0.10774823
000110 c1 f7 16 3d 7f 40 8b bc 50 78 bb 3a 72 15 39 bd
       0.03685737 -0.016998528 0.0014302824 -0.045186467
000120 6d b8 15 3e d5 4b 6c bc 07 19 cf 3c 1a ca c9 bc
       0.14621134 -0.014422377 0.025280489 -0.024632502
000130 ff 98 b2 bd 9f 9f ce bc ca 67 5d 3d e7 38 2f bc
       -0.08720588 -0.025222598 0.05405406 -0.010694719
000140 56 2c 22 bd be ec 84 bc bb 65 1b 3c a7 6d 5f bd
       -0.039593063 -0.016226169 0.009484704 -0.054547932
000150 40 53 05 bd 8b d0 15 bd 51 10 0b 3d 10 1f a9 3d
       -0.032550097 -0.036575835 0.033951107 0.08257878
000160 97 70 37 3e 7d 88 5b bc 03 00 ef bc 4f 36 db bc
       0.17914043 -0.013399241 -0.02917481 -0.026759295
000170 e3 b2 bc 3c 74 f8 db bd 28 8e d5 3c da d6 c4 bb
       0.023034519 -0.10740748 0.026068762 -0.0060070576
000180 85 93 db 3c b3 83 35 3d c9 fc ac 3d 45 1b 4b bd
       0.026803741 0.04431505 0.084466524 -0.049586553
000190 56 11 e2 bd 80 93 03 3d 1f fe d8 bc b3 73 1a bd
       -0.11038463 0.03212309 -0.026488362 -0.037707996
0001a0 ad 88 f5 3c 5f 8b d7 bd 94 a2 09 bc 70 82 c3 bc
       0.029972399 -0.1052463 -0.008400578 -0.023865908
0001b0 47 a7 cd bc 20 09 fb bc 2b c6 c8 3c 96 dd ed ba
       -0.025104178 -0.030644 0.024508556 -0.0018147703
0001c0 de 60 9e bb 4d 90 cf 3c d6 62 59 bd 00 94 a8 3d
       -0.004833325 0.025337363 -0.053072773 0.08231354
0001d0 da 73 26 be 70 ea 3b bd 42 64 5f bd dd ca 88 3b
       -0.16255131 -0.045877874 -0.054538973 0.004174574
0001e0 52 62 d0 bd f6 65 1a 3d d8 a1 ad 3d 3f f8 34 3d
       -0.10175003 0.037694894 0.08478135 0.04418206
0001f0 71 ca 0a 3d 15 5b a8 bb d3 0e af bc d2 9f 88 3d
       0.03388447 -0.005137811 -0.021369373 0.06671108
000200 31 5a cd 3c 1b 14 c8 3d 2d 67 8a 3d d6 66 2b 3d
       0.02506742 0.0976946 0.067579605 0.04184612
000210 d3 f4 9c 3d fc c0 b1 3c 50 e4 57 bd bb 4c d3 3c
       0.07663884 0.021698467 -0.05270797 0.025793424
000220 cb 71 43 bd 8a 73 b6 bd d7 ff 03 3e 51 31 51 3c
       -0.047715943 -0.08908756 0.12890564 0.012768106
000230 c7 ee a4 3d 5c 56 82 bd 59 8a 43 bc 36 45 c8 3c
       0.08053356 -0.06364128 -0.01193484 0.024447065
000240 bf 23 bc bd ff 28 dc 3b 69 8d 84 bc 3d 40 bb bb
       -0.091865055 0.0067187543 -0.01618071 -0.005714445
000250 74 80 95 3c 77 e3 b8 b9 a1 ee 7f 3c cf 9b 92 3c
       0.018249728 -0.0003526469 0.015620858 0.017896561
000260 fa e8 22 bc ef 8c c4 bc b9 a0 b7 3a 78 ed 7b 3b
       -0.009943241 -0.023992984 0.0014009691 0.0038441103
000270 7f fd ec 3c dc 62 9c bd 6e 9d d8 3d 5c f4 25 3d
       0.02892947 -0.076360434 0.10576902 0.040516242
000280 37 05 97 bd bd d4 c0 bd ea 87 8e bc 6b 83 87 3d
       -0.073740415 -0.094155766 -0.017398793 0.06616863
000290 7a 2b ca 3d 7f 2b 48 3c 30 40 c8 bc ed 5c 07 3d
       0.09871574 0.0122174015 -0.02444467 0.033047605
0002a0 56 6e c8 3c fd 30 d2 3d de 24 f3 3d 78 4e 05 3d
       0.024466675 0.1026325 0.11872266 0.032545537
0002b0 e7 29 94 3a e2 87 e5 3b c0 cd 22 3d cb 91 e1 bc
       0.0011303992 0.007004724 0.039747 -0.02753534
0002c0 18 e2 18 be 9d 78 8b bd b9 05 65 3c 1f d2 b9 bd
       -0.14929998 -0.068101145 0.013978415 -0.090732805
0002d0 f0 40 3f 3c c2 43 22 bd e2 1c aa 3d 31 ad 84 bc
       0.011673197 -0.0396154 0.0830629 -0.016195865
0002e0 71 81 de bb e0 e7 4a 3d 1f 94 90 3d 58 57 b0 3c
       -0.006790333 0.04953754 0.07059502 0.021526024
0002f0 68 06 22 3d 50 db 55 bb 28 5f b3 bc 2c b7 97 bd
       0.03955689 -0.003263194 -0.02189596 -0.07407984
000300 f0 43 01 bd de 31 de 3d 12 75 b2 bc 10 be 05 3d
       -0.03155893 0.10849355 -0.02178434 0.03265196
000310 d0 9e 1c 3d e0 48 96 bb f7 5c 8e bd d3 d1 ec 3c
       0.038237393 -0.004586324 -0.069513254 0.028908646
000320 a0 bf 0f 3c 14 42 22 3c cd de ae bd ac 11 f4 bd
       0.008773714 0.00990345 -0.085385896 -0.11917433
000330 9a ad 49 3d 93 6c b7 3d 24 f6 0e 3d d5 0c 96 3c
       0.049237825 0.08956256 0.034902707 0.018316666
000340 74 65 f4 3d 96 eb 09 bd 49 79 6c bd 1b 3e 93 3d
       0.11933413 -0.033671938 -0.057732854 0.0718958
000350 17 ca b5 3d 14 fb 1e 3d 9b b6 bc bc 6a 23 73 bc
       0.08876436 0.038813666 -0.023036292 -0.014839986
000360 38 0d e2 3c 0c 98 6b 3d 36 15 b5 3c 08 cc cb 3d
       0.027594194 0.05751805 0.02210484 0.09951025
000370 2e 42 09 3d c3 e9 0b bd 91 71 37 3d dc c5 be bd
       0.03351038 -0.03415848 0.04478604 -0.093150824
000380 69 95 98 bd 39 23 81 bc 50 71 8e 3b 26 13 17 be
       -0.07450373 -0.015763866 0.004347004 -0.14753398
000390 4d 83 8d 3d b6 d5 5f 3c 6c f5 8b bd ea a1 b6 3b
       0.06909809 0.0136617925 -0.0683392 0.005573501
0003a0 26 ae 81 3d 75 9f af ba c8 32 e2 3d 60 45 9e bb
       0.06332044 -0.0013398962 0.11044842 -0.0048300475
0003b0 65 3d ee bd 0f 62 2d bd c2 ac 49 bc 27 3b 2e bd
       -0.11632804 -0.042329844 -0.012309255 -0.04253688
0003c0 fa d7 2b bd 47 de f4 3b d3 9d 48 3c c8 3c de 3c
       -0.04195402 0.0074727866 0.0122446595 0.027128592
0003d0 39 65 9d bd 02 09 75 bd c4 81 66 bd 1d ec 82 bd
       -0.07685322 -0.059823044 -0.056276098 -0.06392691
0003e0 d8 13 1d bb 85 fd af 3c ce b7 ed 3c 0a d2 11 3c
       -0.0023968127 0.021483192 0.029018309 0.008900175
0003f0 4f 51 a8 3c 8b 10 29 bd b6 75 ff bc a4 28 cf 3d
       0.020546583 -0.041275542 -0.031184059 0.101151735

network_body._body_endoder.seq_layers.4.bias f4 [256]
000000 00 00 00 00 00 00 00 00 00 00 00 00 00 00 00 00
       0.0 0.0 0.0 0.0
000010 00 00 00 00 00 00 00 00 00 00 00 00 00 00 00 00
       0.0 0.0 0.0 0.0
000020 00 00 00 00 00 00 00 00 00 00 00 00 00 00 00 00
       0.0 0.0 0.0 0.0
000030 00 00 00 00 00 00 00 00 00 00 00 00 00 00 00 00
       0.0 0.0 0.0 0.0
000040 00 00 00 00 00 00 00 00 00 00 00 00 00 00 00 00
       0.0 0.0 0.0 0.0
000050 00 00 00 00 00 00 00 00 00 00 00 00 00 00 00 00
       0.0 0.0 0.0 0.0
000060 00 00 00 00 00 00 00 00 00 00 00 00 00 00 00 00
       0.0 0.0 0.0 0.0
000070 00 00 00 00 00 00 00 00 00 00 00 00 00 00 00 00
       0.0 0.0 0.0 0.0
000080 00 00 00 00 00 00 00 00 00 00 00 00 00 00 00 00
       0.0 0.0 0.0 0.0
000090 00 00 00 00 00 00 00 00 00 00 00 00 00 00 00 00
       0.0 0.0 0.0 0.0
0000a0 00 00 00 00 00 00 00 00 00 00 00 00 00 00 00 00
       0.0 0.0 0.0 0.0
0000b0 00 00 00 00 00 00 00 00 00 00 00 00 00 00 00 00
       0.0 0.0 0.0 0.0
0000c0 00 00 00 00 00 00 00 00 00 00 00 00 00 00 00 00
       0.0 0.0 0.0 0.0
0000d0 00 00 00 00 00 00 00 00 00 00 00 00 00 00 00 00
       0.0 0.0 0.0 0.0
0000e0 00 00 00 00 00 00 00 00 00 00 00 00 00 00 00 00
       0.0 0.0 0.0 0.0
0000f0 00 00 00 00 00 00 00 00 00 00 00 00 00 00 00 00
       0.0 0.0 0.0 0.0
000100 00 00 00 00 00 00 00 00 00 00 00 00 00 00 00 00
       0.0 0.0 0.0 0.0
000110 00 00 00 00 00 00 00 00 00 00 00 00 00 00 00 00
       0.0 0.0 0.0 0.0
000120 00 00 00 00 00 00 00 00 00 00 00 00 00 00 00 00
       0.0 0.0 0.0 0.0
000130 00 00 00 00 00 00 00 00 00 00 00 00 00 00 00 00
       0.0 0.0 0.0 0.0
000140 00 00 00 00 00 00 00 00 00 00 00 00 00 00 00 00
       0.0 0.0 0.0 0.0
000150 00 00 00 00 00 00 00 00 00 00 00 00 00 00 00 00
       0.0 0.0 0.0 0.0
000160 00 00 00 00 00 00 00 00 00 00 00 00 00 00 00 00
       0.0 0.0 0.0 0.0
000170 00 00 00 00 00 00 00 00 00 00 00 00 00 00 00 00
       0.0 0.0 0.0 0.0
000180 00 00 00 00 00 00 00 00 00 00 00 00 00 00 00 00
       0.0 0.0 0.0 0.0
000190 00 00 00 00 00 00 00 00 00 00 00 00 00 00 00 00
       0.0 0.0 0.0 0.0
0001a0 00 00 00 00 00 00 00 00 00 00 00 00 00 00 00 00
       0.0 0.0 0.0 0.0
0001b0 00 00 00 00 00 00 00 00 00 00 00 00 00 00 00 00
       0.0 0.0 0.0 0.0
0001c0 00 00 00 00 00 00 00 00 00 00 00 00 00 00 00 00
       0.0 0.0 0.0 0.0
0001d0 00 00 00 00 00 00 00 00 00 00 00 00 00 00 00 00
       0.0 0.0 0.0 0.0
0001e0 00 00 00 00 00 00 00 00 00 00 00 00 00 00 00 00
       0.0 0.0 0.0 0.0
0001f0 00 00 00 00 00 00 00 00 00 00 00 00 00 00 00 00
       0.0 0.0 0.0 0.0
000200 00 00 00 00 00 00 00 00 00 00 00 00 00 00 00 00
       0.0 0.0 0.0 0.0
000210 00 00 00 00 00 00 00 00 00 00 00 00 00 00 00 00
       0.0 0.0 0.0 0.0
000220 00 00 00 00 00 00 00 00 00 00 00 00 00 00 00 00
       0.0 0.0 0.0 0.0
000230 00 00 00 00 00 00 00 00 00 00 00 00 00 00 00 00
       0.0 0.0 0.0 0.0
000240 00 00 00 00 00 00 00 00 00 00 00 00 00 00 00 00
       0.0 0.0 0.0 0.0
000250 00 00 00 00 00 00 00 00 00 00 00 00 00 00 00 00
       0.0 0.0 0.0 0.0
000260 00 00 00 00 00 00 00 00 00 00 00 00 00 00 00 00
       0.0 0.0 0.0 0.0
000270 00 00 00 00 00 00 00 00 00 00 00 00 00 00 00 00
       0.0 0.0 0.0 0.0
000280 00 00 00 00 00 00 00 00 00 00 00 00 00 00 00 00
       0.0 0.0 0.0 0.0
000290 00 00 00 00 00 00 00 00 00 00 00 00 00 00 00 00
       0.0 0.0 0.0 0.0
0002a0 00 00 00 00 00 00 00 00 00 00 00 00 00 00 00 00
       0.0 0.0 0.0 0.0
0002b0 00 00 00 00 00 00 00 00 00 00 00 00 00 00 00 00
       0.0 0.0 0.0 0.0
0002c0 00 00 00 00 00 00 00 00 00 00 00 00 00 00 00 00
       0.0 0.0 0.0 0.0
0002d0 00 00 00 00 00 00 00 00 00 00 00 00 00 00 00 00
       0.0 0.0 0.0 0.0
0002e0 00 00 00 00 00 00 00 00 00 00 00 00 00 00 00 00
       0.0 0.0 0.0 0.0
0002f0 00 00 00 00 00 00 00 00 00 00 00 00 00 00 00 00
       0.0 0.0 0.0 0.0
000300 00 00 00 00 00 00 00 00 00 00 00 00 00 00 00 00
       0.0 0.0 0.0 0.0
000310 00 00 00 00 00 00 00 00 00 00 00 00 00 00 00 00
       0.0 0.0 0.0 0.0
000320 00 00 00 00 00 00 00 00 00 00 00 00 00 00 00 00
       0.0 0.0 0.0 0.0
000330 00 00 00 00 00 00 00 00 00 00 00 00 00 00 00 00
       0.0 0.0 0.0 0.0
000340 00 00 00 00 00 00 00 00 00 00 00 00 00 00 00 00
       0.0 0.0 0.0 0.0
000350 00 00 00 00 00 00 00 00 00 00 00 00 00 00 00 00
       0.0 0.0 0.0 0.0
000360 00 00 00 00 00 00 00 00 00 00 00 00 00 00 00 00
       0.0 0.0 0.0 0.0
000370 00 00 00 00 00 00 00 00 00 00 00 00 00 00 00 00
       0.0 0.0 0.0 0.0
000380 00 00 00 00 00 00 00 00 00 00 00 00 00 00 00 00
       0.0 0.0 0.0 0.0
000390 00 00 00 00 00 00 00 00 00 00 00 00 00 00 00 00
       0.0 0.0 0.0 0.0
0003a0 00 00 00 00 00 00 00 00 00 00 00 00 00 00 00 00
       0.0 0.0 0.0 0.0
0003b0 00 00 00 00 00 00 00 00 00 00 00 00 00 00 00 00
       0.0 0.0 0.0 0.0
0003c0 00 00 00 00 00 00 00 00 00 00 00 00 00 00 00 00
       0.0 0.0 0.0 0.0
0003d0 00 00 00 00 00 00 00 00 00 00 00 00 00 00 00 00
       0.0 0.0 0.0 0.0
0003e0 00 00 00 00 00 00 00 00 00 00 00 00 00 00 00 00
       0.0 0.0 0.0 0.0
0003f0 00 00 00 00 00 00 00 00 00 00 00 00 00 00 00 00
       0.0 0.0 0.0 0.0

network_body._body_endoder.seq_layers.4.weight f4 [256, 256]
000000 e4 20 fb 3d 2d a1 94 bd 74 45 ac 3c 1d 0f 94 bd
       0.12262133 -0.07257304 0.021029212 -0.07229445
000010 dc 87 9a 3d ec 28 86 3d 66 4a d2 3b 67 2d 2c bc
       0.07545444 0.06550774 0.0064175604 -0.010508872
000020 0e 7d 50 3d 03 66 c8 3d 3b 45 de bd 78 97 09 bc
       0.05090051 0.09785082 -0.108530484 -0.008397929
000030 44 50 d0 bc cf a8 f2 bc d9 f9 c1 bc 68 30 69 bd
       -0.025428899 -0.02962151 -0.023678707 -0.05693093
000040 ef 53 ca bd 94 97 10 3d ca 9b 6e bc 4e 46 3b ba
       -0.0987929 0.035300806 -0.01456351 -0.000714396
000050 72 d9 bd 3d cb bc 3a 3d df 44 43 3c 29 9e 60 bd
       0.0926999 0.045590203 0.011918276 -0.054838333
000060 ba fb bf 3c b8 17 1b bd 65 4e cb 3d 28 ff 02 bc
       0.023435462 -0.037864417 0.09927062 -0.007995404
000070 e7 76 10 3d a3 39 04 3d 86 5a b2 bb a1 37 50 3d
       0.035269644 0.03228153 -0.00544292 0.0508343
000080 85 87 53 bc 7f f4 c3 bd 36 b2 dd bc 9b ec 32 3d
       -0.012910728 -0.09568118 -0.027062517 0.043682676
000090 ae 5d 3c bd 5b 6a 92 3d f2 29 f5 bd fe a7 b1 3c
       -0.045987777 0.07149192 -0.11970891 0.02168655
0000a0 a8 23 4d bd 88 c6 82 3d d1 0e 5a bd c1 a1 02 3d
       -0.050082833 0.06385523 -0.053236786 0.03189254
0000b0 b9 7c dc bc d2 4b 86 3d a3 00 2d bb 4b e7 2a bd
       -0.026914941 0.0655743 -0.0026398085 -0.041724484
0000c0 46 fb 70 bd 72 63 a6 3d 8c 7c 45 3c c0 c5 10 bd
       -0.058833383 0.081244364 0.01205362 -0.03534484
0000d0 e6 cb 0a be 26 50 c3 3d fc 1c 1b bd 20 ad 81 bc
       -0.13554344 0.095367715 -0.03786944 -0.015829623
0000e0 0f 31 27 3c fb 29 b9 bd 8e b7 db 3c e4 80 56 bc
       0.010204568 -0.0904121 0.026820924 -0.013092253
0000f0 c2 1f 1b 3c 6f 82 00 3b 17 bf af bd d3 ea 28 3c
       0.009468021 0.0019608994 -0.08581369 0.010309893
000100 da a9 a7 bd 4f 69 b4 3c 0e 0f 84 bc ee 60 f1 bc
       -0.081866935 0.022022871 -0.01612046 -0.029465165
000110 9d eb f6 3c b3 f1 ce bb 04 cb ca 3d cb 36 cf bd
       0.030141646 -0.006315434 0.099020034 -0.10117873
000120 77 df 0a bd 6f 70 2e bd a2 13 c1 bc 3b 1e ac bc
       -0.03390452 -0.042587694 -0.023568932 -0.021010509
000130 b7 99 26 bd 32 80 d9 bc 61 d1 5c 3c 0b ac d4 bd
       -0.040673938 -0.026550386 0.013477654 -0.10384377
000140 dd da 20 bd 75 90 78 bd 1d b8 4f 3d f7 bf 83 3c
       -0.039271224 -0.06068464 0.050712693 0.016082747
000150 27 8f 3f 3c d1 91 52 3d e8 67 bf 3d 1a b0 d7 3c
       0.011691845 0.051408593 0.093459904 0.026329089
000160 46 37 ee bc ec 10 f3 bc 01 b6 cd 3c 99 90 ec 3c
       -0.02907909 -0.029671155 0.0251112 0.028877543
000170 cb a4 ab bd f5 aa b5 3d 6e 26 27 3d dc 07 e5 3b
       -0.08381041 0.08870498 0.040808134 0.0069894623
000180 01 53 b3 bc c1 bc a9 3c d1 47 62 bd 59 96 1a bd
       -0.021890165 0.020719888 -0.05524427 -0.03774104
000190 22 57 76 3d 1f 42 85 bd 6c 26 50 3c 9f 68 a5 bd
       0.06014169 -0.06506752 0.012704473 -0.080765955
0001a0 a7 ef 8d bd 00 cf fe bc 42 14 b8 bc 8f ce 50 3d
       -0.06930476 -0.031104565 -0.022470597 0.05097824
0001b0 77 7e cb 3c ed 6e 50 3b c4 10 9f 3d cb 31 01 be
       0.024840577 0.0031804398 0.0776687 -0.12616651
0001c0 49 51 c9 bd 3c 45 85 3a db 67 cb 3d d3 0f b9 bd
       -0.09829957 0.0010167728 0.09931918 -0.09036221
0001d0 f0 c4 57 3d 72 b0 a4 3d 23 9e ce 3c af 3b 2a 3b
       0.05267805 0.08041467 0.02522189 0.0025975516
0001e0 8d b6 75 3d d6 34 31 3d 50 e6 cb bd b1 f5 9e bd
       0.059988547 0.04326328 -0.09956038 -0.07761706
0001f0 9f 71 78 3d 08 03 f5 bb 13 7a ab bd e7 0d 7a bd
       0.060655233 -0.007477168 -0.08372893 -0.061048415
000200 6b 7c 41 bc e2 44 dc 3d 22 3e ec bd 67 79 72 3d
       -0.011809449 0.10755326 -0.115352884 0.05919781
000210 78 d4 e2 bc b0 19 df 3b 9e ff d0 3c eb f0 53 bd
       -0.027689204 0.006808482 0.025512513 -0.05174343
000220 79 f0 0a 3d 37 53 79 bd 55 ec 92 3c 52 54 8b bc
       0.03392074 -0.060870375 0.017934958 -0.01700798
000230 3f cc b7 bc 60 35 46 3c e8 bc c2 3d 65 75 18 3e
       -0.02243626 0.0120976865 0.09508687 0.14888532
000240 c3 07 e8 3b b4 c1 f5 bc 79 3f 30 bb a2 44 0d 3d
       0.0070810034 -0.029999591 -0.0026893301 0.03448928
000250 a8 4c 1e be d5 f2 c3 3c 79 10 9b b9 d6 61 76 bc
       -0.1545893 0.023919502 -0.00029576177 -0.015037974
000260 0b 1e 9b 3d 25 1a c3 3d 61 72 df bc bc a8 a9 bc
       0.075740896 0.09526471 -0.02727622 -0.020710342
000270 14 26 01 bd 30 f8 3f 3c 34 51 67 bd 9a 66 38 bd
       -0.031530455 0.011716887 -0.056473926 -0.045019723
000280 a1 85 60 3d e3 da 14 bd 28 65 3d bd 27 0a 9c bd
       0.05481494 -0.03634156 -0.04623905 -0.07619124
000290 20 3e 01 3d 0c 29 95 bd 3e 18 b8 bc 21 33 37 bd
       0.031553388 -0.0728322 -0.022472497 -0.044726495
0002a0 22 fb 40 bd 08 61 fd bd 99 c6 a4 3d 6f a9 f7 bd
       -0.0471145 -0.12372023 0.08045692 -0.12092864
0002b0 2d 56 1e bc 3d 9e 8d 3c d5 75 1a 3e 78 5e 98 bd
       -0.009664101 0.017287368 0.15084012 -0.074398935
0002c0 0c 9f b7 3d 90 5a bf bd 42 87 40 3b b8 5d 22 bd
       0.08965883 -0.09343445 0.0029377495 -0.03964016
0002d0 03 4f 31 3d c4 73 b9 3c 93 3a 94 bd 2d 1f 44 bd
       0.043288242 0.02263821 -0.07237735 -0.047881294
0002e0 16 57 94 3d f3 e5 c2 bc 58 ed c2 3c a5 49 45 3d
       0.07243173 -0.023791289 0.023794815 0.048165936
0002f0 94 a9 af bc f0 9c 9a bc e9 f8 85 3d 06 9f c8 3d
       -0.021443166 -0.018873662 0.065416165 0.09795956
000300 af c3 31 3d d9 a1 ec 3c 79 23 2c 3d a4 73 92 3d
       0.04339951 0.028885769 0.042026017 0.07150963
000310 43 b6 2b bd fb f3 6c bd 79 31 0e bc a3 05 96 3d
       -0.041921865 -0.057849865 -0.008678787 0.07325294
000320 16 25 0a bd 07 ba 49 bc a2 4e 0a bd 80 9a 3c 3a
       -0.033726774 -0.012312419 -0.033766396 0.0007194653
000330 82 f3 13 bc 8f 63 4c bd 5e 2d 01 be 23 41 26 3d
       -0.009030225 -0.049899634 -0.12614962 0.040589463
000340 7a 89 1f 3c 1e 89 a7 3d 0c 05 e3 bc 7b d7 7b 3c
       0.009737367 0.0818045 -0.027712367 0.015371199
000350 c7 31 2c 3d 2c 14 a1 bd 76 8f e1 3d 25 21 d7 3d
       0.04203966 -0.078651756 0.11013691 0.10504369
000360 c4 81 35 bd dd b1 b1 3d 87 a1 a0 bc 88 24 81 bd
       -0.044313207 0.08676503 -0.019608272 -0.06305796
000370 81 ec fe bc 4f 7b e9 ba 19 99 04 bd a4 a2 cd bc
       -0.031118633 -0.0017813238 -0.032372568 -0.025101967
000380 8e 5b 06 bc 69 2b 0d 3d bd 58 81 3c bf 83 2b bc
       -0.008200539 0.034465227 0.015789384 -0.010468422
000390 49 2e 3b 3d 9f da 0a 3d 95 71 b2 3d b7 32 b5 3d
       0.045698438 0.0338999 0.0871307 0.08847564
0003a0 a5 48 9d 3d b3 93 d6 bd 6a 4d 0d 3d 4c 92 ac bc
       0.076798715 -0.1047739 0.034497656 -0.021065854
0003b0 be f7 35 bd ce a9 78 bd 42 c0 0f be f4 dd 90 3c
       -0.04442572 -0.060708813 -0.14038184 0.01768396
0003c0 0e 54 73 bd 5e 7e c6 bb cc 12 ef 3d fe 59 a2 bd
       -0.059406333 -0.0060575446 0.11673507 -0.07927321
0003d0 2f 02 94 bb cc 69 11 bd 73 ff ea 3b ec 14 7d bc
       -0.004516862 -0.035501286 0.007171565 -0.015446883
0003e0 e2 a4 6b bd 47 4f d7 3d d6 3b 20 3d d5 b0 9a bd
       -0.05753029 0.10513168 0.039119564 -0.07553259
0003f0 c1 d2 38 3d 97 e1 19 bd 82 3f 34 bd df 3b 3d bd
       0.045122866 -0.037568655 -0.04400588 -0.046199676

network_body.observation_encoder.processors.0.normalizer.running_mean f4 [6]
000000 01 83 0d 42 a8 45 f6 40 f1 8a 6c 42 49 1f 01 c2
       35.377934 7.696003 59.135685 -32.280552
000010 d0 31 b3 3f e5 50 8e c2
       1.3999577 -71.158
