Assets/Training/results/learn_v4/MarsTaxi/MarsTaxi-3499945.onnx (onnx, 542464 bytes, 10 tensors)

54 f4 [6]
000000 3a 66 c6 41 80 8c 33 41 d8 84 62 42 81 d7 8d 3c
       24.799915 11.221802 56.62973 0.017314674
000010 f8 12 71 3a 16 32 1c 3d
       0.0009196247 0.038133703

action_model._discrete_distribution.branches.0.bias f4 [6]
000000 9e 25 0c 3d a6 95 45 bb 4b 44 35 bd 7b 52 c5 bb
       0.034215562 -0.0030149012 -0.044254582 -0.0060217953
000010 9b 81 29 3c ea 57 fa bc
       0.010345842 -0.030559499

action_model._discrete_distribution.branches.0.weight f4 [6, 256]
000000 2a 22 bd bd 28 61 06 3c 52 8b 71 3d b2 f0 d3 bd
       -0.09235032 0.008201875 0.058970757 -0.10348643
000010 0d 18 15 3d 32 8e 5f 3d 02 9a 93 bd be f7 8d 3d
       0.03639989 0.054578967 -0.07207109 0.06932019
000020 03 ce 41 3d 0b 04 b4 3c ff 52 47 3d 3b e0 94 3c
       0.04731561 0.021974584 0.048663136 0.018173328
000030 6c 69 46 3b 05 07 3e 3d 56 fa 59 3d 2b 2e 69 bd
       0.0030275239 0.046393413 0.053217255 -0.056928795
000040 15 d9 19 3d ac ed 39 bd 18 08 61 3c b0 0e e3 b8
       0.03756054 -0.045392677 0.01373484 -0.00010826939
000050 26 92 55 3d 68 40 b3 bb 5a e1 3b bd f7 a3 e4 bc
       0.05214133 -0.0054703243 -0.04586921 -0.027910216
000060 8f be 8a bd b9 81 7f 3d cb 2a b0 bd d9 ef ff bb
       -0.067746274 0.062379573 -0.08601912 -0.0078105745
000070 ab 60 6b bd 8a ab 5f bd a8 7b 19 3d bf 16 de 3c
       -0.057465237 -0.05460695 0.037471443 0.027110456
000080 4c 04 b6 3c 1a 8e 22 3d 2f 0e 2e bd dc 44 95 bd
       0.022218846 0.0396863 -0.042493995 -0.072885245
000090 8b 51 66 3d 12 54 06 3c a0 e6 9b 3d 11 cf 16 3d
       0.05623011 0.008198755 0.076123476 0.036818568
0000a0 c0 4e 76 3d 1d 6c 28 bd f2 99 cb bb 58 f5 d4 3c
       0.060133696 -0.04111873 -0.00621342 0.025995895
0000b0 ff b8 5a bc 64 c4 99 3d 5b f3 35 3d 28 3a e7 3c
       -0.013349771 0.07508162 0.044421535 0.028225973
0000c0 75 1a a5 3c 4d bc a0 3c 88 40 b3 bc 2f c2 0c bd
       0.020154217 0.019621039 -0.021881357 -0.034364875
0000d0 44 9d 38 bd 9f 22 a7 3c c0 4e 2b bc bc 5b 48 3c
       -0.045071855 0.02040225 -0.010455787 0.012228902
0000e0 2b 00 88 bd 8c c2 a8 bd cf f0 81 bd 62 22 3f bd
       -0.06640657 -0.08240232 -0.06344759 -0.04666365
0000f0 54 56 aa 3b 87 32 d2 3c ba 12 fa bc 9a 65 05 3d
       0.0051982794 0.025658859 -0.030526508 0.032567598
000100 15 35 28 3d b1 8a e0 3a 5a 5c 9a bd 58 8a 88 bd
       0.041066248 0.0017131177 -0.07537146 -0.06667012
000110 8e 01 08 3c 1e 19 ef bb 2f 8b 48 bb 2d 44 b8 bc
       0.008301152 -0.0072966954 -0.0030600538 -0.022493446
000120 72 68 07 bc 55 27 02 bd f8 ac ab bd 9f ee a0 3b
       -0.008264648 -0.03177579 -0.083826005 0.0049112584
000130 3b ca 67 3d 27 c1 5e 3c c6 d6 50 bd 10 a9 9a 3d
       0.056589346 0.013595856 -0.050986074 0.07551777
000140 a0 61 cc 3b 04 bd 5f 3d a4 74 21 bd db e1 18 bd
       0.0062372237 0.05462362 -0.039417878 -0.037324768
000150 2e 94 a3 bd b3 05 87 3c b8 19 0b 3d f9 4e 19 3d
       -0.079872474 0.01648221 0.033960074 0.03742883
000160 06 9c 52 bd fc ee 2a bd 3b be 75 3c 30 71 5c bd
       -0.051418327 -0.04173182 0.014998968 -0.05381888
000170 0a df 75 bd ae 8d 75 bc bd 36 b9 3b 57 b8 b9 bd
       -0.06002716 -0.014987392 0.0056522773 -0.09068363
000180 2f 94 08 bd 8a ba 88 bd db da fc 3c 49 cc 38 3d
       -0.033344444 -0.066762045 0.030866077 0.045116697
000190 0e dc a0 bd a9 61 80 bd 3c 19 76 bd 9f 84 61 bd
       -0.07854472 -0.06268627 -0.06008266 -0.055058118
0001a0 66 20 8a bd 4b 1b a6 bd 26 20 7f bd 1e 91 00 bc
       -0.06744461 -0.081106745 -0.06228652 -0.007847099
0001b0 31 97 14 bd 74 1a 10 3d 1d 04 3c 3d df f4 2a bd
       -0.036277 0.035181478 0.04590236 -0.041737434
0001c0 e3 f3 4a bd e4 25 91 bd 42 f7 a1 bd 8b ff 0b bd
       -0.049548995 -0.07087305 -0.07908489 -0.03417925
0001d0 5f 78 eb 3c 48 ca 38 ba 3e b2 8d bd 90 32 a1 bd
       0.02874392 -0.0007049185 -0.069187626 -0.07870972
0001e0 0c d0 05 bd 8c 8e 09 3d 06 86 c3 bc b3 ed 3c bd
       -0.032669112 0.03358321 -0.023867618 -0.046125125
0001f0 a6 b4 f4 3c af 71 0a bd c3 c9 33 3c 11 14 08 bd
       0.029871296 -0.033799823 0.010973397 -0.03322226
000200 08 6d 94 3c 20 ff 54 3c 37 37 d7 bc 1a d3 90 bd
       0.018118396 0.01300028 -0.026271446 -0.070715144
000210 2e 89 08 3d c6 04 eb 3c 33 89 a7 bd b0 6c 8c 3c
       0.03333395 0.0286888 -0.081804655 0.01714167
000220 04 66 78 bd 90 48 9c ba d3 55 1e 3d c2 7c 22 3d
       -0.060644165 -0.0011923481 0.038656067 0.03966976
000230 45 87 88 bd e0 6b 21 bd d2 dc 33 3d c0 4a 41 3c
       -0.066664256 -0.03940952 0.043911763 0.011797607
000240 b6 b3 8e bc 3c 5f 5c bc 25 9b 1e bd 16 10 97 bd
       -0.017419677 -0.01345044 -0.038722176 -0.07376115
000250 c7 79 15 3c 96 fa 94 3d 1a 38 c4 bd a7 c3 02 3d
       0.009123272 0.07274358 -0.09581013 0.03192487
000260 7e 33 e5 3c cc 10 c0 bd 29 b0 4f 3c 23 dc 1b 3d
       0.027978655 -0.09378204 0.012676277 0.038051736
000270 1d 70 9e bd e7 a3 67 bd 2e 35 95 bd 1a 05 64 bd
       -0.07736228 -0.056552794 -0.07285534 -0.055668928
000280 45 48 f2 3c 0a dc 11 bd 27 1f c3 bd 39 f0 00 3d
       0.029575476 -0.035610236 -0.09527426 0.031479094
000290 42 8c 48 3c 90 93 65 bc e7 60 9a 3d 6d 36 25 3c
       0.012240471 -0.014012232 0.07538014 0.010083777
0002a0 9a be 39 3c 66 e7 ad bd 41 16 67 bd 62 a7 69 bd
       0.011336947 -0.084914014 -0.056417707 -0.057044394
0002b0 19 da e3 3c 38 50 84 bc 62 02 ac bc c2 8a 82 bc
       0.027813958 -0.016151533 -0.02099723 -0.015935306
0002c0 4f 06 b9 bd 85 43 3a bb 4e bb 4d 3a e6 2f 31 3d
       -0.090344064 -0.0028421592 0.000784804 0.04325857
0002d0 f7 4d 9b bc d6 17 d3 3c f1 4d 89 3d 40 eb 0e bc
       -0.018958075 0.025768202 0.06704319 -0.00872308
0002e0 3a aa 5a 3d 86 73 9a bc 43 98 b3 bd e2 7b ce 3c
       0.053384997 -0.018853914 -0.08769276 0.025205556
0002f0 8b d1 a1 3b 0c 75 cc 3c 9a ed 28 bd c4 4e 37 3d
       0.0049383095 0.024958156 -0.04124222 0.04475285
000300 8d 35 a3 3d d7 b8 8b bc fb a7 90 bc 99 b2 47 bd
       0.079691984 -0.017055912 -0.017658224 -0.04875431
000310 eb c2 91 3c 27 1d 76 bd 37 42 44 3c 96 f4 34 3d
       0.01779314 -0.060086396 0.0119786775 0.044178568
000320 d7 f6 42 3c c8 80 ac bd 0d fb 1e 3d af 9b 50 3d
       0.0118996715 -0.084230006 0.03881364 0.05092972
000330 ac 73 86 3d 8a df 21 bd dc bc c8 3c 31 9d 70 3d
       0.065650314 -0.039519824 0.024504118 0.05874366
000340 6e 19 c9 bd 6e 34 a2 bd 19 77 64 bd 20 05 a9 bd
       -0.098193035 -0.079201564 -0.055777643 -0.08252931
000350 8e 38 8f 3d df 2d c9 ba 87 0e 97 bd ab a9 1f bd
       0.06993209 -0.0015348754 -0.07375818 -0.038980167
000360 2b 11 57 3d 98 a5 b9 bd a8 fa 8b bd ed f1 b5 bd
       0.052506607 -0.090647876 -0.06834918 -0.08884034
000370 7b ce 84 3c 43 0a 9a bd bb 20 3f 3c f7 9a 3b 3d
       0.016211739 -0.075214885 0.011665518 0.045802083
000380 90 ce 96 bd 3f 9e 9a 3d 96 2e 15 bc a1 7b 6a 3d
       -0.073636174 0.07549714 -0.009105345 0.057246808
000390 d5 5f 3c 3d d4 fb 57 3c fa ae 85 3c eb 49 95 3d
       0.04598983 0.013182599 0.016318787 0.07289489
0003a0 37 38 a0 bd b2 fa 4b 3d 1a 9c 91 bd 8d 99 69 bc
       -0.07823222 0.04979963 -0.07109852 -0.014257801
0003b0 cf d9 5b 3d 5d fe 54 3d 01 30 6d bc 0d 17 8e 3d
       0.053674515 0.052000392 -0.014476777 0.0693799
0003c0 1c 86 93 3c 20 f8 b0 3a 5b 97 fc bc 7f 9a ee 3a
       0.018008284 0.0013501681 -0.03083389 0.0018204002
0003d0 a1 0a 3c 3b 73 24 15 3c 49 be 2c bc 3e 7f 04 bc
       0.0028692859 0.009102928 -0.010543414 -0.0080869775
0003e0 1c 02 ee 3c 18 08 10 bd 27 f5 7f bd 2b 2b 29 3c
       0.02905374 -0.03516397 -0.062489655 0.010325233
0003f0 7c f4 79 bc 17 43 28 3d c0 6f 47 ba 85 4a b5 bd
       -0.0152560435 0.041079607 -0.00076078996 -0.08852104

network_body._body_endoder.seq_layers.0.bias f4 [256]
000000 46 19 96 3d 6f ac a2 3d 89 cd d9 bd 8a f6 a4 3d
       0.07329039 0.07943045 -0.10634906 0.08054836
000010 99 ea a2 3d ab b8 4c 3d f5 8c 92 38 fb 0f 42 3d
       0.07954902 0.0499808 6.988078e-05 0.04737852
000020 18 5a a9 3d 5a f2 18 3c 95 f1 75 3d 17 70 63 3d
       0.08269137 0.009335125 0.060044844 0.05552682
000030 6a 46 46 3d 4e 82 8c 3d 86 60 90 bc 87 c3 66 bc
       0.048406996 0.06860791 -0.017624151 -0.014084703
000040 30 31 36 3d 3a f8 bf 3d 9a 41 96 3d 4a 64 e5 3c
       0.044480503 0.09373517 0.07336731 0.028001923
000050 3e 37 d4 3a 63 52 95 3d 72 a1 a4 bc 6e 4a 65 3d
       0.001619078 0.07291105 -0.020096514 0.055979185
000060 7a ba 72 3d e9 02 26 bc c2 ab 1d 3d 00 87 31 3d
       0.05925987 -0.01013253 0.03849388 0.043341637
000070 a6 bf b0 3c 9f 7f bc 3d 15 35 09 3d 10 04 3c 3d
       0.02157576 0.09204029 0.03349789 0.04590231
000080 13 19 cc 3d 61 e1 a9 3d 93 19 2e 3d 20 71 ba 3c
       0.0996572 0.08294941 0.04250486 0.02275902
000090 f3 63 9d bd 51 2b f5 3c 35 fa 9a 3b a4 4e c7 3d
       -0.076850794 0.029927881 0.004729534 0.097317964
0000a0 fc ee 2c bc cb 6e bc 3c 8a 04 e5 3d 5e 07 94 3d
       -0.010555025 0.023002049 0.111825064 0.07227968
0000b0 a4 9b 6b bc 39 a3 cc b9 68 77 82 3d 87 b8 95 3c
       -0.014380369 -0.00039031522 0.06370431 0.018276466
0000c0 ac d8 56 3d 52 fb 10 bd 2f 36 96 3d 33 ff 8c 3d
       0.05245273 -0.035395928 0.073345535 0.06884613
0000d0 30 f1 5c 3c 6c c0 c4 3c 79 af 0b bc df 13 50 3d
       0.013485238 0.024017535 -0.008525723 0.0508002
0000e0 47 c0 38 3d 25 4a bd 3d cd 45 38 3d 71 89 97 3d
       0.045105245 0.092426576 0.044988442 0.07399262
0000f0 c2 d5 4f 3d 63 7c 49 3d 7a f2 af 3d 96 c3 61 3d
       0.050740965 0.04919089 0.085911706 0.055118166
000100 6f 65 d6 bc f5 b8 12 bd 0a 8d ef 3c a5 66 4a 3d
       -0.026171414 -0.03582092 0.029242057 0.049414296
000110 77 1d 05 3d 5c 4f ce 3b ec 81 db 3d ca 37 9c bc
       0.032498803 0.0062960815 0.1071814 -0.019069571
000120 d8 5c e3 3c 67 92 a8 3d 92 ad b3 3d 1a db 25 3d
       0.027754232 0.08231049 0.0877334 0.040492155
000130 e0 0a a8 3d c6 10 b9 3d 85 52 96 bd b0 55 a9 3c
       0.08205199 0.090364024 -0.07339958 0.020670742
000140 21 55 b3 ba ed af 8d 3c 01 4a ed bc dc 3a 32 b9
       -0.0013681987 0.017295802 -0.028965952 -0.0001699733
000150 6e 9d 1a 3c 00 31 c2 3c c5 6c 97 3c d6 11 80 3d
       0.009436948 0.023705006 0.018484483 0.06253402
000160 f7 52 a2 bd 8b 72 7b 3d 77 8b 3e bd 13 0a 52 3d
       -0.079259805 0.061388534 -0.046519723 0.05127914
000170 a2 54 17 3d de 33 c1 3d 42 78 97 3d e4 a4 8a 3d
       0.036945947 0.09433721 0.07395984 0.06769732
000180 f7 cd 30 3d 6d 95 9f 3d fa 42 06 3d 5f a2 9a 3d
       0.043165173 0.077921726 0.032778718 0.07550501
000190 33 be 3d 3d 0c df b9 bd 86 38 da 3d cd 68 d3 3d
       0.046323966 -0.09075746 0.10655312 0.103227235
0001a0 aa 85 51 3d 5d ca f0 3c 2f 0b 0d bc 31 16 a0 3b
       0.051152863 0.02939337 -0.008608623 0.004885458
0001b0 c4 90 8c 3d d5 88 5f 3d d5 58 ea 3c f4 5b 28 3d
       0.06863549 0.054573853 0.028606812 0.04110332
0001c0 20 5f 70 3d fc 9a 93 3d a3 63 e1 3d 80 86 e2 bc
       0.05868447 0.07207295 0.11005332 -0.027652025
0001d0 59 de d2 3d d4 05 6f 3c a7 1d 5d 3d 3c 6d 3d 3b
       0.10296316 0.014588792 0.053983357 0.002890422
0001e0 21 dd ee 3c 24 60 8a bc dd 74 a1 3d 9c 6c b0 3d
       0.029158177 -0.016891547 0.07883618 0.086144656
0001f0 a5 7b 8b 3d 43 6a 46 3c 2f e8 89 3d 45 6c 8e 3d
       0.06810693 0.012110296 0.06733739 0.069542445
000200 82 b6 af 3d 56 45 6b 3d 58 8a a2 bd 55 3b 52 3d
       0.085797325 0.05743917 -0.07936543 0.051326115
000210 81 3d 4a 3d 77 02 e2 3c 4d 7d 8c 3d a0 1b 9e 3d
       0.04937506 0.027589066 0.06859837 0.07720113
000220 19 c8 65 3d 1e 23 05 bd 08 a5 86 3d 06 c7 73 bb
       0.05609903 -0.032504193 0.06574446 -0.0037197485
000230 7f 17 66 3d 0b 46 8e 3c c3 08 34 3d ce f6 03 3d
       0.05617475 0.017367383 0.04395367 0.032217793
000240 1b cc 6a 3d e0 c6 75 bc 3c 27 cf bc f9 0f 9d b9
       0.057323556 -0.015001029 -0.025287263 -0.00029957274
000250 d7 30 39 3d ef 39 a6 3d d4 c0 1d 3d 22 9c 82 3d
       0.045212593 0.08116519 0.038513973 0.06377436
000260 bf da 8d 3d e9 dc 21 3d e8 1c a2 3d 67 58 5c bd
       0.06926488 0.039517317 0.0791567 -0.053795245
000270 1e f7 97 3d 4c 6e 1a 3d 25 df fa bc d8 44 e1 3d
       0.07420181 0.037702844 -0.030623982 0.10999459
000280 f2 2d e8 3c df e8 9b 3d 49 4c e2 bb af 98 24 3d
       0.028342221 0.07612776 -0.0069060666 0.040184673
000290 fa d7 40 bb b0 13 36 3a 2f ea c4 3c 3d fb d4 3c
       -0.0029425607 0.00069456827 0.024037449 0.025998706
0002a0 87 98 ef ba 8a f2 d6 3c 5f 57 6f 3d c9 c9 9b 3d
       -0.001827971 0.026238699 0.058432933 0.07606847
0002b0 2a 5a 74 3c 52 75 2a 3d fd 8a 72 3d 04 55 85 3d
       0.014914075 0.04161579 0.05921458 0.06510356
0002c0 ca c9 89 3d f0 2e 62 3d be 56 b7 3d 91 14 22 3d
       0.06727941 0.055220544 0.08952092 0.039570395
0002d0 c2 64 b5 3d a2 61 6c 3c 6a ed 55 3d b2 3d f9 3b
       0.08857109 0.014427574 0.05222837 0.0076062316
0002e0 c5 e8 74 ba 2d dc 3e 3d f8 65 68 3d 43 1f 2a 3d
       -0.00093425467 0.046596695 0.05673787 0.04153372
0002f0 f3 27 cb 3d ac 50 73 3b 86 ba 79 3d 1d ab 5f bc
       0.09919729 0.0037126942 0.0609689 -0.013651636
000300 12 c7 7c 3c 36 16 62 3d a4 85 9c 3d dc d4 41 3d
       0.015428321 0.055196963 0.076426774 0.04732214
000310 c0 f9 a2 3d 08 f3 5d 3d 2f ec da 3d 39 3e 44 3d
       0.07957792 0.05418685 0.1068958 0.047910903
000320 bf 9c ac 3c d4 b9 52 3d fd 0b d7 3c 13 41 55 3c
       0.021070836 0.05144675 0.026250834 0.013016003
000330 44 0a b2 3c ef 65 71 3d a9 12 9d 3d 0c f6 90 3c
       0.02173341 0.058935102 0.07669575 0.01769545
000340 bc 40 21 3d b3 56 80 3d ea 37 d9 3d 63 f6 bc 3c
       0.039368376 0.062665366 0.10606368 0.023066705
000350 a9 49 88 3d ca 8d 6b 3d f7 2c 34 3d 58 bb 80 3d
       0.066546746 0.057508267 0.043988194 0.06285733
000360 13 83 03 3d 4f 95 9d 3c 4b da bb 3d c9 a8 f3 3d
       0.032107424 0.019236235 0.091724955 0.118974276
000370 ba 0d cf 3d 9f ca 68 3c 48 ae f3 3d 1c 2b 2e bd
       0.1011004 0.014208465 0.11898476 -0.04252158
000380 4b 70 69 3d fe db 79 3d db e9 89 3d 2d 73 75 3d
       0.056991857 0.061000817 0.067340575 0.059924293
000390 23 4d 69 3d 74 75 25 3d 70 5c 04 bd f3 7c 94 3d
       0.05695833 0.040395215 -0.032314718 0.07250395
0003a0 9e 74 bf 3d 90 e0 bc 3d ca 07 f4 3c 88 dd 95 3d
       0.09348415 0.092225194 0.02978887 0.07317644
0003b0 a1 05 dd 3d a5 38 47 3d 49 ed 4b bc 4f 43 4a 3d
       0.10792089 0.048638005 -0.01244671 0.049380597
0003c0 92 2c da 3c e5 2a 4a 3d 53 a0 93 bd c7 a8 90 3c
       0.02663258 0.049357314 -0.07208314 0.017658604
0003d0 b9 d3 32 3d 70 6d 00 3d bc fd 7a 3c 5c a3 98 3d
       0.043658946 0.031354368 0.015319284 0.07453033
0003e0 b5 e3 b1 3c 6d 42 00 3d 93 9e 7e 3d df 43 56 3d
       0.021715024 0.03131335 0.062162947 0.05231082
0003f0 4d a8 22 3d 61 8e 3c 3d 71 ec 82 3c 5f f9 b8 3d
       0.039711285 0.04603422 0.015981885 0.09031939

network_body._body_endoder.seq_layers.0.weight f4 [256, 6]
000000 3b 6f 17 3f cd 92 ce 3e 61 32 cf 3e 83 10 29 3f
       0.591541 0.40346375 0.40468124 0.6604082
000010 b2 f9 cd 3d 2d 3b 2c bf b6 08 56 be 60 ac 0c 3f
       0.10057391 -0.67277795 -0.2090176 0.54950523
000020 6e db 24 3f a1 f3 0d 3f d8 b1 f5 be ff 52 85 be
       0.64397323 0.55449873 -0.47987247 -0.26039883
000030 ef 6d b2 3d 03 49 73 be ca a9 fa 3c f5 48 bb 3e
       0.087123744 -0.2375832 0.03059854 0.365791
000040 cb 7f b6 3e a0 0c 21 3f 36 b6 1d 3f 3e 11 1a be
       0.35644373 0.6290989 0.61606157 -0.1504564
000050 44 fd e7 3e 8e c6 f9 be c5 2f 0e 3d c2 6c 16 3f
       0.45310414 -0.48784298 0.034713525 0.587597
000060 21 fa d1 bb 74 38 8b 3e 60 97 9a 3e 3d 61 60 3d
       -0.0064079915 0.27191508 0.30193615 0.054780234
000070 be 6b cf 3e e7 b6 18 3e c7 07 94 bd d0 b7 d5 3e
       0.40511888 0.14913522 -0.07228046 0.417418
000080 db 4d 02 bf 68 66 4b bf ac 15 84 3b a6 c0 65 be
       -0.5090005 -0.79453135 0.004030904 -0.22436771
000090 be f0 8a bd 85 69 6d 3f d1 50 43 be b8 d1 a1 bd
       -0.06784199 0.92739135 -0.19073798 -0.07901329
0000a0 3d 7b 6b 3e 49 67 4b 3e a3 ec c1 be ba 31 e8 be
       0.2299623 0.19863619 -0.37875852 -0.45350438
0000b0 da f4 b7 3d a6 94 ff be 24 e3 83 3f 0e 2a 9b be
       0.089822486 -0.49918097 1.0303693 -0.30305523
0000c0 85 85 34 be ed e3 04 3e d5 24 f5 3e c9 b2 3c 3e
       -0.17629059 0.12977572 0.47879663 0.18427576
0000d0 df 68 4c 3e 1b 1d 92 bc 22 1c df be c7 e3 b6 be
       0.1996188 -0.017836144 -0.4357615 -0.35720655
0000e0 b0 82 c0 be 2f 6c 52 3d 0d 53 50 be cb 18 0f bf
       -0.37599707 0.051372703 -0.20344181 -0.55897206
0000f0 9c 5d 4d bf 94 29 f9 bd 9d 0e ba 3c dd 9b ba 3d
       -0.8022096 -0.121661335 0.022712046 0.0911176
000100 db 33 b9 3e 2f 76 3d be ca 09 08 3e d3 e6 f8 be
       0.36172375 -0.18502115 0.13284984 -0.48613605
000110 d2 83 0f 3f e5 4d 8a bd 3c 17 5b be 2b c2 26 3f
       0.56060517 -0.067531385 -0.21395582 0.65140027
000120 4c b1 3c be e9 7e b8 bd cd 02 26 3d f5 d8 94 3d
       -0.18427008 -0.09008581 0.040530015 0.07267944
000130 59 f7 d7 3e cc 43 ed be 56 16 32 bf e1 bb 11 be
       0.421809 -0.46340787 -0.6956533 -0.14231826
000140 cd 2e 18 3e 06 70 40 be 9d a1 f0 3e 55 cf 16 bf
       0.14861603 -0.18792734 0.469983 -0.58910114
000150 14 64 bf 3c 0f 97 90 be 53 32 16 3e 49 fe b6 bc
       0.02336315 -0.2824025 0.14667635 -0.02233805
000160 e8 d6 6d 3d a3 6b 1d bf 2a e4 f5 bd 7d 9b d8 be
       0.05806628 -0.61492366 -0.120064095 -0.42306128
000170 e1 ac c8 3d 6d 59 e6 3e 78 a2 43 be 1b 64 9e 3e
       0.09798599 0.449901 -0.19104946 0.3093575
000180 e7 6b fe be e3 51 62 bc a7 9e 55 bf 73 e0 23 be
       -0.49691698 -0.013813469 -0.8344521 -0.1600359
000190 83 12 a6 3d 80 74 0d 3e 93 ed 8a bf e6 14 9b 3e
       0.081089996 0.13813972 -1.0853752 0.30289382
0001a0 9d ab 33 be 34 f4 0e be 07 b6 bb bd 67 ba 80 be
       -0.17545934 -0.13960344 -0.09165578 -0.25142214
0001b0 ee 7a 1c bf 37 47 83 3e f8 79 dd 3e ab e0 e7 be
       -0.61125076 0.2564027 0.43257117 -0.45288596
0001c0 c1 c8 77 3e 85 14 9d be 51 2e 1d bf da 4b 0d bf
       0.24197675 -0.30679718 -0.613988 -0.55193865
0001d0 1b c4 0e bf 1b d9 b2 3c d2 68 62 3d 6e c6 93 3d
       -0.55767983 0.02183204 0.055275746 0.07215582
0001e0 9e 62 bf 3e 4a c8 07 bc ac c5 fd 3d e6 ca 45 be
       0.37379926 -0.008287499 0.123912185 -0.19315681
0001f0 9a 9a 81 be f4 4b 16 3e b4 1e 43 bf 1b e4 88 3e
       -0.25313264 0.14677411 -0.76218724 0.2673653
000200 5c 53 4f be ab bf 30 be 06 13 b0 bd 50 b6 78 bf
       -0.20246643 -0.17260616 -0.085973784 -0.97153187
000210 d7 50 21 3e c6 b1 08 3e 08 d4 20 3e 72 0c 65 be
       0.15753494 0.13349065 0.15705884 -0.22368029
000220 88 1d 06 3f d7 0a 5e be 16 b7 7d 3e bf 91 28 be
       0.5238881 -0.21683823 0.24776873 -0.16461848
000230 57 23 ed be 3f 07 cd bd 63 87 0e 3f 28 d2 b2 3d
       -0.46316025 -0.10011148 0.55675334 0.087314904
000240 03 8f f4 3c 9d 09 5f 3f f0 ba 60 bf d6 d1 18 bf
       0.02985335 0.87124044 -0.87785244 -0.59695184
000250 33 61 dc 3d 8b 3e 41 3f 0a ca 78 3e 53 14 12 3e
       0.10760727 0.7548606 0.24295822 0.14265566
000260 49 bc 99 3e 07 04 54 3e d0 70 58 bf f8 db 15 3f
       0.30026463 0.20704661 -0.8454714 0.5853877
000270 67 94 44 be 03 a1 f6 3e a8 ca 7c 3e 16 e2 8d bb
       -0.19197236 0.48169717 0.24686682 -0.00432993
000280 90 83 b5 3e 06 8b 24 3f c9 f1 bb 3d db e8 25 bf
       0.35451937 0.6427463 0.09176976 -0.64808434
000290 67 77 3a bf b7 6e cb bd ec 92 47 be ec 39 1e 3e
       -0.72838444 -0.099332266 -0.1948964 0.15451783
0002a0 bc 4f 92 be ff 6b 83 bf fd 97 84 bf 13 3f 19 3e
       -0.28576458 -1.0267333 -1.0358883 0.14965467
0002b0 d8 1f 8d be c0 02 87 3e 32 52 bd be f4 32 4a 3f
       -0.27563357 0.26369286 -0.36976773 0.78984
0002c0 e1 c3 16 3f cf 6d c8 be 99 68 6d 3e 91 a6 26 bf
       0.5889264 -0.39146277 0.23184432 -0.6509791
0002d0 a2 c9 9e 3e f0 7a cd be 45 10 41 bf 29 56 01 bf
       0.3101321 -0.40132856 -0.7541545 -0.50522095
0002e0 99 3a 2a bf a6 ab 69 3f 74 2a d9 3e 3c 8d 5a bf
       -0.6649566 0.9127754 0.42415202 -0.85371757
0002f0 bb 47 d4 3e 4a ca 66 bf 8a e1 d9 3e b7 c9 57 3b
       0.41460976 -0.9015242 0.42554885 0.0032926628
000300 4d f5 d7 3d 25 cd 09 3e dc 83 d7 3e 4c fd c8 3d
       0.10544834 0.13457163 0.42092788 0.098139375
000310 5e 1a 8b 3d 2a 6e 8c be db 14 6d 3e 9d 16 72 be
       0.067921385 -0.27427799 0.23152487 -0.23641439
000320 3c b2 32 3e a2 24 a0 3c 72 07 d3 3e a3 11 9f be
       0.17450804 0.019548718 0.41216618 -0.31068143
000330 75 06 93 3c ad 5e d7 bd 69 ac 02 3d ee b3 80 be
       0.017947415 -0.10516105 0.031902704 -0.25137275
000340 b0 d3 92 be f1 f7 3d bc 12 35 07 bf 1c 56 41 bf
       -0.2867713 -0.011594758 -0.52815354 -0.7552202
000350 73 5f 9b be 57 85 4b 3e c1 3e 18 3e f6 f4 72 3f
       -0.3034626 0.19875084 0.14867689 0.9490503
000360 d7 ee 3d 3b 73 d4 80 be f0 19 48 3e 48 27 b7 3e
       0.002898147 -0.25162086 0.19541144 0.35772157
000370 ae 3f 13 3e 8e 09 cb 3e 6a 99 be 3e 0d b3 3f bf
       0.1437976 0.39655727 0.3722642 -0.74882585
000380 cc 17 df 3d a0 4a 71 bd 73 03 be be 7c 23 c7 3e
       0.10893211 -0.05890906 -0.37112007 0.3889426
000390 3a 71 76 be 4e 8f 29 bf b3 d8 03 3e 40 54 32 bf
       -0.2406663 -0.6623429 0.12875633 -0.69659805
0003a0 f4 9b 76 be b9 e0 41 3f a5 fe ea 3e 48 5b 9d 3e
       -0.24082929 0.75733525 0.45897403 0.30733705
0003b0 c8 9f a1 be 49 57 05 bf 3c b2 c8 bc 5f 10 97 be
       -0.31567216 -0.5208631 -0.024499051 -0.29504678
0003c0 de 87 38 bd a4 ad da 3e b7 9b 0d be 4e df 08 3f
       -0.045051448 0.42710602 -0.13828932 0.53465736
0003d0 11 4f 7b 3e 2e 5a c2 3e 61 fb 91 3d b5 78 69 3f
       0.2454188 0.37959427 0.07128025 0.9119981
0003e0 9c ad 8f be 8f 4d ba 3e cb 4a a9 3e 42 d7 1b 3f
       -0.2806214 0.36387298 0.33064875 0.6087533
0003f0 b6 29 60 3e ac 1a 07 3f ce f3 7a 3f 84 20 0d 3f
       0.21890911 0.52775073 0.98028266 0.5512774

network_body._body_endoder.seq_layers.2.bias f4 [256]
000000 a6 6e d2 bb b5 fd 80 3d 8f 90 db 3b c5 44 89 bd
       -0.0064218817 0.06298391 0.0067005823 -0.0670257
000010 fc 95 0e 3d 8c 1b 2d 3d a1 87 ad 3d b9 e6 f7 3d
       0.034811005 0.0422626 0.08473135 0.12104554
000020 97 41 41 bd eb 26 79 3c e6 52 90 bd 9f 50 a5 3d
       -0.047181692 0.015207033 -0.070470616 0.08072018
000030 1b 01 21 3d 0e 1a b5 bd 8b eb 5a bb cf 47 92 bd
       0.039307695 -0.0884286 -0.0033404555 -0.07142603
000040 9f ce 25 3d 38 ad dd 3c 83 e5 e8 bc c0 f8 a8 3c
       0.040480252 0.027060136 -0.028429752 0.020626426
000050 95 ee af bd a1 a9 21 3d dc a4 29 3d 78 0d 9a bd
       -0.08590428 0.03946841 0.041416988 -0.075221
000060 0e 07 9e bd 98 2d 99 3c 07 8e e6 3b f1 3c cb bd
       -0.07716189 0.018698499 0.007035974 -0.09923733
000070 52 64 99 bd b8 c9 9e 3d 5d b9 c2 3c 63 46 54 3d
       -0.07489838 0.077533185 0.023770029 0.05182494
000080 93 5a 86 bd f5 ba 95 3d 10 de dd 3c 0f 68 02 3c
       -0.065602444 0.0731105 0.027083427 0.00795938
000090 6a 52 ea 3c 25 ff aa bd fe 6e da 3d f9 50 c1 3c
       0.028603751 -0.08349446 0.10665701 0.023598181
0000a0 af 71 37 bc 0b 3e f8 3b 53 85 84 3a ce 45 79 bc
       -0.011196538 0.0075757555 0.0010110534 -0.015214397
0000b0 60 96 1d 3d 92 5d d0 3d 30 de d1 3c 46 a6 91 3c
       0.038473487 0.10174097 0.025618643 0.01777948
0000c0 65 f1 0a 3d 0c 1c b0 bd 21 80 ba 3c 2c f0 0a bc
       0.033921618 -0.085990995 0.022766175 -0.008480113
0000d0 e5 97 39 bd fe a2 24 bc 0a af 52 bd c7 c0 bf 3d
       -0.045310874 -0.010048626 -0.05143646 0.09362941
0000e0 f4 15 f5 bc e5 ae bc bd e9 70 bf bd 8a 14 83 3c
       -0.029917695 -0.09213046 -0.09347708 0.016001005
0000f0 52 32 14 3d 31 b3 94 ba 8c cf 90 bd 0a ef a2 bd
       0.0361808 -0.0011344907 -0.070708364 -0.07955749
000100 8b 25 1f 3d 41 8c 8e bd cb 2e b0 3d 79 b3 5c 3d
       0.038854163 -0.06960345 0.08602675 0.053882096
000110 96 91 26 3d 50 b2 02 3d f3 f4 8f bc b7 ad 5e bd
       0.040666185 0.031908333 -0.017572856 -0.054364886
000120 aa 4f e0 3d bb 09 d5 bc 75 8a 37 bc 06 e9 ac 3c
       0.10952695 -0.026005616 -0.011202444 0.021107208
000130 26 5a 96 3d e4 70 ba bd 74 be 92 bd 55 79 d8 3c
       0.07341413 -0.091035634 -0.07165232 0.026425043
000140 27 9b 25 3d 41 de 3b bd 7f 94 87 3d f5 58 60 3d
       0.040431168 -0.045866255 0.0662012 0.054772336
000150 19 14 12 3d c9 ba 9a bd 70 48 04 3d 90 a9 36 3d
       0.035663698 -0.07555158 0.032295644 0.0445953
000160 00 26 c0 3d 0c 18 88 3d da 51 02 bc 8b db 37 3d
       0.09382248 0.066452116 -0.007954085 0.044887107
000170 d5 3e 8c 3d bf 56 0a bd 1c 7f 9e bd e9 52 ec bb
       0.06847922 -0.033774134 -0.07739088 -0.007212032
000180 25 fe 84 bc 34 bf a0 3c 5c a6 94 3c cc cc 92 3d
       -0.016234467 0.019622423 0.018145733 0.07167968
000190 ef 57 32 3c 1e 58 8d 3c c6 72 80 3d f1 71 af 3c
       0.010885223 0.017253932 0.06271891 0.021416636
0001a0 99 1d 6f 3d 24 4c 2f bd 6f 10 c0 bd 68 fa 53 bc
       0.058377836 -0.042797223 -0.093781345 -0.0129381195
0001b0 37 b1 29 3d 07 de 3d 3d 4d 83 f1 3c 17 4c a0 bd
       0.04142877 0.04635432 0.029481554 -0.07827013
0001c0 82 17 85 3d 53 19 aa 3d 4d 13 18 3d 47 b5 6c 3d
       0.064986244 0.083056115 0.03712778 0.057790067
0001d0 f6 a8 93 3d ea 0c 24 3d 72 da 76 bd 7c 0c dd 3d
       0.07209961 0.04005138 -0.06026692 0.10793397
0001e0 d3 79 90 3d f1 94 45 3d 40 ff a4 bd ba c1 22 3b
       0.07054486 0.048237745 -0.080564976 0.0024834708
0001f0 9c 8f 3c bd 43 63 42 3d 69 b3 4a bd 39 f7 ae bc
       -0.046035394 0.047457945 -0.049487505 -0.02135812
000200 b4 dc 8f bc 5c 60 9b 3c 09 3f b1 bd 48 26 f8 3c
       -0.017561294 0.018966846 -0.08654601 0.030291691
000210 67 ac 9f bd fc 32 c2 3d 1e f6 c3 3c c9 62 d9 3c
       -0.07796555 0.09482381 0.023921069 0.026536362
000220 20 0e b8 3d a2 1b 61 3c dc 90 0b bd a0 d4 a3 3c
       0.08987069 0.013739498 -0.034073696 0.019998848
000230 a8 61 6e 3d 64 fa 52 bd 2c 86 58 3d ac 46 f4 3c
       0.0581986 -0.051508322 0.05286233 0.029818855
000240 15 4c 05 3d a1 9c 38 3c 31 11 23 bc 14 71 bf 3c
       0.03254326 0.011267812 -0.009952829 0.02336935
000250 56 23 c9 3c b6 07 26 3d 8d 4a c3 bc 35 07 79 bd
       0.024552982 0.040534697 -0.02383926 -0.06079789
000260 13 b4 dd bc 50 a9 00 bc 3e e0 0c 3d 0c 31 9b 3c
       -0.027063405 -0.007852867 0.03439354 0.018944286
000270 bf 95 63 bd a0 0a 22 3d d9 69 09 bd 67 f1 97 3b
       -0.05556273 0.039560914 -0.03354821 0.0046369317
000280 80 ec a1 bd 5c 72 21 3d 7c 21 23 3d bd fb 96 3d
       -0.07906437 0.039415702 0.039826855 0.07372234
000290 c6 2a e0 bc d1 65 d2 bc 24 8c 0d 3c 80 e4 14 bc
       -0.027364146 -0.025683315 0.008639369 -0.009087682
0002a0 d2 3d 16 3d 51 2c 31 3d 90 1e 38 ba ec 52 76 3d
       0.03668005 0.043255154 -0.0007023597 0.060137674
0002b0 3f 7d 48 3d 40 53 29 3c 00 41 81 3d c6 d7 71 bc
       0.04894757 0.01033479 0.06311226 -0.014760917
0002c0 e3 a4 64 bd 93 dc aa 3c 98 b7 79 3c 2d 83 99 bb
       -0.05582131 0.020857131 0.015241526 -0.004684827
0002d0 1d 3f 67 3d cd 4a 90 bd 4b 02 2a 3d ec 8d 24 bd
       0.056456674 -0.07045517 0.041506093 -0.04017441
0002e0 b9 05 49 3d d7 1c 02 3d a6 9a 86 3d 02 cf 48 bb
       0.049077723 0.031765785 0.065724656 -0.0030640964
0002f0 91 6a 4f 3c 8a d2 bd 3c 4e f1 99 bc 98 53 63 3c
       0.012659685 0.023171682 -0.01879182 0.013874911
000300 15 1f 55 3d 75 f3 3a bc 6f b9 22 3d fb e2 83 bc
       0.052031595 -0.011410584 0.039727625 -0.016099444
000310 d2 74 75 3d 02 43 c3 bd 24 3e a3 bd 49 48 f6 3c
       0.05992586 -0.09534265 -0.07970837 0.030063765
000320 92 e1 ef 3b 67 1a 92 bd fb 6a a3 3c 4e 7a a7 3d
       0.0073205912 -0.07133942 0.019948473 0.08177625
000330 69 d3 ae 3d f9 d1 ac bb ef 4d cb bc 5b ba 83 3d
       0.08536417 -0.005274054 -0.024817435 0.06432029
000340 5b f9 82 bd ba 07 13 bd a7 67 66 3d cb 99 22 3d
       -0.06395217 -0.03589604 0.056251194 0.03969745
000350 99 3d 15 3d f8 75 7e 3c ca d5 23 bd 36 f7 3c bc
       0.036435697 0.015531056 -0.039998807 -0.011533549
000360 62 c5 e4 3c 89 8e 5b 3d 1c 20 1f bc 6e b3 d0 bd
       0.02792615 0.05360273 -0.009712245 -0.101904735
000370 67 ff 9e bd fd d4 aa bd 0e bb a1 bd 6e f4 65 3d
       -0.07763558 -0.083414055 -0.07897006 0.05614131
000380 ea 6b 03 bd 02 29 94 bd db fd ab 3d 01 a8 c0 3d
       -0.032085337 -0.07234384 0.083980285 0.09407044
000390 95 a2 84 3c b8 36 b4 3b eb a7 c6 3d 7f 76 14 3d
       0.016190806 0.005499687 0.096999966 0.03624582
0003a0 52 4a 9a 3c 41 f7 fb 3b 2a cd a2 bc 00 32 08 3d
       0.018834267 0.007689387 -0.01987322 0.03325081
0003b0 5e f0 45 bc 62 d8 19 3d 7a cf f8 3c ff 4b 3c 3a
       -0.012081234 0.037559874 0.03037237 0.0007182955
0003c0 59 fa 99 3d 36 23 19 3c 08 44 c3 bd 4d bc a3 bd
       0.07518453 0.009346774 -0.0953446 -0.079949
0003d0 0f 96 02 3d 40 31 4b 3c bc 30 97 3d fc 5e 97 3c
       0.03188139 0.012401879 0.07382342 0.01847791
0003e0 b8 e7 59 3d 2f e2 f8 bc 24 a0 51 3b 4a 8a c7 3c
       0.0531995 -0.03038129 0.003198632 0.024357934
0003f0 ec 79 9f 3c e5 a1 02 3c af c4 0e 3c 98 e4 72 3c
       0.019467317 0.007973169 0.008713885 0.014825009

network_body._body_endoder.seq_layers.2.weight f4 [256, 256]
000000 3d 70 cd 3d 3d 86 93 3d 58 8e 8d bd 75 7e 3e be
       0.100311734 0.07203338 -0.069119155 -0.18602927
000010 6e 57 ab 3b dd 6e 35 3e dc 58 b0 3d 0c 01 28 3b
       0.0052289283 0.17718072 0.086106986 0.002563539
000020 d2 27 90 bd 31 97 c4 bd 00 aa d0 3d 77 5d 0f bd
       -0.07038845 -0.0959915 0.10188675 -0.035001244
000030 c4 81 d6 3c 89 41 bb 3d 24 e9 2e 3d 47 18 ba bd
       0.026184924 0.09143359 0.04270281 -0.09086662
000040 ff 1f ab 3c d7 cc 6e bd f3 bf 53 bd 66 55 06 3c
       0.02088928 -0.05830082 -0.05169673 0.0081990715
000050 24 3a c4 bd d7 ae 94 bb e1 69 78 bd 42 21 b0 bb
       -0.09581402 -0.004537444 -0.06064785 -0.0053750584
000060 70 ab 83 bc 9b 86 fa 3d e9 e5 b3 bc 90 0b e2 3c
       -0.016072959 0.12232705 -0.021960216 0.027593404
000070 2c 9d dc 3d 54 90 1e be 7b 13 4b 3d b7 6c 31 bd
       0.10772166 -0.15484744 0.049579125 -0.04331657
000080 51 58 24 3b c2 c7 7e 3d db 71 38 3d 4b 9b b1 3d
       0.0025077055 0.062202223 0.045030456 0.08672198
000090 6a c1 0f bc 8f 3f da 3d 34 51 26 3a 89 4e 8c 3d
       -0.008774141 0.10656654 0.00063444977 0.06850917
0000a0 5f 79 14 bd 70 7d bd bc f8 ee 13 bd f1 ca c3 bd
       -0.03624856 -0.023131102 -0.03611657 -0.095601924
0000b0 ea 14 ad 3d f0 75 88 3d 44 34 08 bb a7 8e c8 3d
       0.08451255 0.0666312 -0.0020783106 0.09792834
0000c0 c8 85 38 3d b6 d7 29 3d ea ca 9b 3b e5 aa 5a bd
       0.04504946 0.041465484 0.004754414 -0.053385634
0000d0 03 a5 7b 3d 22 5d 88 bc 94 d3 22 3d 10 c1 21 3c
       0.061436664 -0.016645972 0.039752558 0.00987269
0000e0 53 3d 0a bd e6 7f 0c bd 2e c6 9f bc 6a 08 8f 3c
       -0.03374989 -0.03430166 -0.01950368 0.017460067
0000f0 05 ae 40 bd 01 eb 6e 3d 0b e2 3f bd 22 c1 0a be
       -0.047040958 0.058329586 -0.04684643 -0.13550237
000100 bf 87 bf 3d 5b cf a5 bd ea 40 e6 3c fa e4 44 3d
       0.093520634 -0.080961905 0.028107125 0.04806993
000110 3b 8e 63 bd 2b 4a b7 bc e5 19 65 bd 70 84 23 3e
       -0.055555563 -0.022374233 -0.055932898 0.1596849
000120 1e a8 24 bb da a2 11 3c bb ae ec bb 3c 6a c8 bd
       -0.002512462 0.0088889245 -0.007222978 -0.097858876
000130 cf 78 17 bd 8c 14 85 bb dc 21 a0 bc 27 d2 96 bb
       -0.036980446 -0.0040612873 -0.019547395 -0.004602689
000140 b6 25 61 bd 67 ef ba 3d c2 67 14 bc 8d cc 94 bd
       -0.054967605 0.091276936 -0.009057941 -0.072655775
000150 44 e9 af bd cb fc 05 3e c6 78 28 bd c4 dc 17 3d
       -0.08589414 0.13084714 -0.041130804 0.037075773
000160 5a de cd 3d cd 37 82 3b d9 b3 3f bd 57 4f 7b bd
       0.10052176 0.003973937 -0.046802375 -0.06135496
000170 1f 60 22 3e 1b d5 05 be 56 ca 49 bd 54 59 76 bc
       0.1585698 -0.13069575 -0.04926523 -0.015035946
000180 ce 6e 4f 3d 60 42 b4 bd 72 9e b8 3c c4 7e 99 3d
       0.05064278 -0.088017225 0.02253649 0.07494882
000190 8b 6b 1d 3e 5b 24 93 bd 6d 99 d9 bc 0a 12 a0 bd
       0.15373056 -0.07184669 -0.026562417 -0.07815941
0001a0 32 bb 25 bd 19 2f 22 bd 70 b5 36 3d 3e 78 26 bd
       -0.040461726 -0.039595697 0.044606626 -0.040642016
0001b0 ab 4c dd bc b4 c2 01 3e b3 fa 96 3d 6f 93 51 bd
       -0.027014097 0.1267193 0.07372036 -0.051165994
0001c0 c9 93 f0 bc 52 de ae 3c 48 2e 21 bd 7a 01 d8 bc
       -0.029367344 0.021346245 -0.039350778 -0.026367892
0001d0 cd 3f 3c bc 06 02 a0 3d 57 21 1e 3d 31 ca 2f bd
       -0.011489821 0.07812886 0.038606014 -0.042917434
0001e0 62 30 68 bc 1d 4b be 3d d1 e4 12 3d a2 08 75 bd
       -0.014171692 0.092916705 0.035862748 -0.059822686
0001f0 92 44 60 bd 00 d9 a8 3c 6c a0 91 3d b1 9d f5 bd
       -0.054752894 0.020611286 0.07110676 -0.11992968
000200 b9 32 86 bb 04 59 33 bd 2a 31 0d 3e dd f9 a2 bd
       -0.004095402 -0.043786064 0.13788286 -0.07957814
000210 3f ff dc 3d d0 a6 77 3d dd e3 69 3c 42 c4 f9 bc
       0.10790872 0.06046182 0.014275518 -0.03048909
000220 98 02 d6 3d cf 47 0f bd 7c c4 cc 3d 37 9d a2 3d
       0.104497135 -0.03498059 0.09998414 0.079401426
000230 ca 15 27 3d d7 99 8a bd 36 66 e6 bc 4a 73 d5 3d
       0.040792264 -0.06767624 -0.02812491 0.1042238
000240 f6 c5 6b bd 23 fe 6e 3d fc c7 c0 bc 23 13 73 3d
       -0.057561837 0.058347832 -0.02353286 0.059344422
000250 d9 33 19 3d 69 a5 93 bc 37 3c 13 bd 46 28 54 bd
       0.03740296 -0.01802321 -0.035946097 -0.05179622
000260 e7 5e b8 bd 6e a9 12 bd a2 bc f7 bc 31 bb d9 bc
       -0.09002476 -0.035806112 -0.030241314 -0.026578518
000270 b8 4a 5b 3d aa 38 8b 3c 6c c1 7c bd 07 9f 69 bd
       0.053538054 0.016994793 -0.0617079 -0.057036426
000280 3c 14 ae ba f8 a3 70 3c 83 01 0e 3d 4e f3 2d bd
       -0.0013281177 0.014687531 0.03466941 -0.04246836
000290 d7 5b e0 3d c2 16 07 3d 5c 45 68 3a 73 ba 57 bd
       0.10955017 0.032980688 0.0008860433 -0.052668046
0002a0 6b 23 ae 3d 74 55 8c 3d a5 1a b2 bd 2e 70 b0 bc
       0.08502849 0.068522364 -0.08696488 -0.021537866
0002b0 d5 f9 34 3d ea 18 c6 bd 75 75 cf bd 74 03 b0 3c
       0.04418357 -0.09672721 -0.10129825 0.021486022
0002c0 fa f6 a9 bd 71 bc e0 bc 29 0d 48 bd 70 31 8b bd
       -0.0829906 -0.027433606 -0.048840676 -0.06796539
0002d0 68 32 a5 bd 40 d7 5b bd bd c6 2c bd fc 81 6d 3e
       -0.08066255 -0.053672075 -0.04218172 0.23194116
0002e0 c7 08 03 ba ed a2 d0 3d 07 02 ad bd d5 82 af 3d
       -0.00049985613 0.101873256 -0.08447652 0.08569876
0002f0 de 96 14 bd fa b0 d3 bd 47 01 c9 bd fc 73 1b bd
       -0.03627669 -0.1033649 -0.09814697 -0.03795241
000300 a5 b0 14 bd 08 a5 85 3d c9 72 d2 bc 4d 08 7c bd
       -0.036301274 0.06525618 -0.0256895 -0.061531354
000310 68 8e 22 bc 4c b3 28 3d 6a bd 93 bb c5 9d bd 3d
       -0.009921648 0.041186616 -0.004508664 0.09258608
000320 2a 74 05 3e 41 99 24 3d 1b a9 28 bd ae 33 3b 3c
       0.13032594 0.040185217 -0.041176897 0.011425896
000330 ae 5e 86 3b e5 fe 02 bd 80 a3 c0 bc e3 68 c8 3c
       0.004100642 -0.031981368 -0.023515463 0.024464076
000340 03 d3 b9 3d b7 fb 2e 3b 5f e3 85 3b f5 4f aa 3b
       0.090734504 0.0026700327 0.0040859426 0.00519752
000350 b8 62 1b be 69 3e 80 bb 6e 58 15 3d ef 77 9c bd
       -0.15174377 -0.00391369 0.036461286 -0.07640063
000360 94 1b 57 3d 13 3f 01 3d f6 a3 27 3d a3 cd b7 bd
       0.052516535 0.031554293 0.04092785 -0.08974769
000370 88 ef e4 bc 5a 91 61 bd a5 b8 03 bc b1 f3 27 bd
       -0.027946249 -0.05507026 -0.008039628 -0.041003887
000380 57 8a af bd 14 fd 9e bb 9d 4d be bd 82 81 27 3b
       -0.08571308 -0.0048519466 -0.09292147 0.002555937
000390 90 7f 41 3d 54 85 d7 bd ed b6 10 be a2 2d ae bd
       0.047240794 -0.10523477 -0.1413228 -0.085047975
0003a0 e8 fe 20 be 1f d0 10 bd f6 f0 27 3e 41 82 9d 3c
       -0.15722239 -0.03535473 0.16400513 0.019227149
0003b0 3d ab f5 bc e4 18 91 3d cc b7 b8 bd d2 e6 a5 3d
       -0.02998888 0.07084826 -0.090194315 0.08100666
0003c0 b9 1f bd bc 3e 85 f9 bc c4 81 a6 3d d7 e8 45 3d
       -0.023086416 -0.030459043 0.081302196 0.048317757
0003d0 01 59 c3 3d 86 6c 91 ba 2c 32 83 bd 2d 7a 75 3d
       0.095384605 -0.0011094965 -0.06406054 0.05993097
0003e0 c7 56 9c bd be d1 f0 bd 7e 8a c3 bd 53 3e 80 bb
       -0.07633739 -0.11758755 -0.095479 -0.0039136796
0003f0 90 d3 bb bd 62 1d 9d 3d 65 c0 12 bd f3 d1 a0 3d
       -0.09171212 0.0767162 -0.035828013 0.07852545

network_body._body_endoder.seq_layers.4.bias f4 [256]
000000 00 a4 c9 bc e4 03 2c 3d 06 7e b6 3d 8b be 7b bc
       -0.024614334 0.041995898 0.08910756 -0.015365253
000010 11 80 41 3d 73 d0 00 3c 62 3e e3 bc f0 ad ba 3d
       0.047241274 0.007862198 -0.027739707 0.09115207
000020 2d d5 8c 3d 24 fc 14 3d e9 a2 7e 3d 7c 20 fa 3c
       0.068765976 0.036373273 0.062167082 0.030533068
000030 f7 6e 73 3c 1a 36 cd 3b 1e f0 e5 3c 22 14 a1 3b
       0.014857999 0.006262553 0.028068598 0.00491573
000040 18 eb 70 3d 79 b0 34 bd b2 4c 1b 3d e4 ee ac 3c
       0.058817953 -0.04411361 0.03791494 0.021110006
000050 8d ee ae 3c 58 35 4c 3d 3c b4 b8 bc 39 1f c7 bc
       0.021353984 0.04985556 -0.02254688 -0.02430688
000060 b8 5a 1c bd f6 81 89 3d 14 03 cf bc 5f 8b 6a 3d
       -0.038172454 0.06714241 -0.025270022 0.05726182
000070 b3 eb a2 bc 22 0f af bc fa 0a 20 3d 82 1e f7 3b
       -0.01988778 -0.02136952 0.039072968 0.0075414786
000080 86 a6 ce 3c 2d e7 5a 3d 68 63 05 bd 48 94 4c bd
       0.025225889 0.053443123 -0.032565504 -0.0499461
000090 7d 9b 63 3d 2d e7 a4 3c d9 eb bb 3d 3d fd c9 3d
       0.055568207 0.020129764 0.09175844 0.098627545
0000a0 0c 9a 47 3d f1 40 77 bc 6a 76 3e bc 09 f8 c9 3d
       0.048730895 -0.015091167 -0.011624912 0.09861762
0000b0 11 78 d7 3c c3 56 ea 3d 15 5d 8e 3d 14 aa a9 3c
       0.02630237 0.1144233 0.06951348 0.020710982
0000c0 03 ed 92 3d bf 00 60 3d 55 1f ef 3c 1f 3f 82 bc
       0.07174113 0.05468821 0.029189745 -0.01589924
0000d0 71 a6 23 bb 32 d9 b6 3d 23 82 26 3d 05 43 86 3d
       -0.0024971033 0.089281455 0.04065145 0.06555752
0000e0 d0 25 6b bc ea c5 a7 bc fc 72 01 bd cc 4d ae bc
       -0.014352277 -0.020480115 -0.0316038 -0.02127733
0000f0 43 4c 17 bd f1 b7 3e 3d a6 20 09 3b a0 f1 9e 3d
       -0.036937963 0.04656214 0.0020924 0.0776093
000100 d0 a0 16 3d 2e 79 0d bc 64 fb e7 bc df b3 0d bd
       0.036774457 -0.0086348485 -0.028318115 -0.034595367
000110 b3 6c 4b 3d 6f dc 9d 3d e3 83 9f 39 87 86 03 3d
       0.04966421 0.0770806 0.00030425107 0.032110717
000120 c1 c7 9c 3b b8 10 3e bc 75 74 ad bc 79 71 a6 3b
       0.0047845547 -0.011600666 -0.021173695 0.005079445
000130 e8 a7 e6 3d 58 c5 f2 3c 92 46 ab bc 9e 96 e8 3d
       0.11262494 0.029635116 -0.020907674 0.11356853
000140 8a 30 84 3b 5c 44 9c 3d d7 74 a4 3c 6f 34 1d bd
       0.0040341066 0.07630226 0.020075245 -0.038380083
000150 43 91 ca bc 3d 4b b6 3d 40 8f 2a 3d 01 58 1f 3d
       -0.02472747 0.08901069 0.04164052 0.038902286
000160 ab f2 c1 bc cf 48 18 bd 90 32 8d 3c 37 af 02 bd
       -0.023675283 -0.03717881 0.017236024 -0.03190538
000170 4d 39 23 bd b7 f0 aa 3c f7 55 ef 3c d2 02 d0 bc
       -0.03984957 0.020866735 0.029215796 -0.02539197
000180 cc b3 88 bc b4 9c 39 bc 9b 03 ab 3d 19 26 01 3e
       -0.016687296 -0.011328865 0.08350297 0.1261219
000190 a2 fe cf bc 89 e2 0c bd 5a 78 f8 bc f8 60 0b bd
       -0.025389973 -0.03439573 -0.030330826 -0.034028023
0001a0 8e 57 76 3c 0b 24 e6 bc a2 f6 21 bd f5 c1 04 3d
       0.015035523 -0.028093359 -0.039541848 0.032411534
0001b0 ef b5 02 bd 09 e5 2e 3d 61 8e 5e 3d 23 f6 e6 bb
       -0.031911787 0.042698894 0.054335 -0.0070483848
0001c0 eb 4f 58 3c 2f 6a 37 3c d2 f4 3e bd 21 84 1b bd
       0.013202648 0.01119475 -0.046620198 -0.037967805
0001d0 ab 7c ed 3c 25 78 97 3c e5 ad 67 bc ae 9c 97 bc
       0.02899011 0.018489907 -0.014140581 -0.018507328
0001e0 73 ee d3 bc 66 25 3c 3d 4d 56 84 3c 17 ea b4 bc
       -0.025870537 0.045934103 0.016154433 -0.022084279
0001f0 e5 08 9d 3d 16 91 8f bc 18 b5 8b 3d d5 0f ae bb
       0.07667712 -0.017525237 0.0682165 -0.005311946
000200 46 9a 46 3d c2 09 a3 3c 0c 9b c7 3c 92 17 20 bd
       0.04848697 0.019902114 0.024365924 -0.03908498
000210 49 2f 39 3d 26 8b b6 3d cf 0b 0f bd 45 d8 1f 3d
       0.04521111 0.08913259 -0.03492337 0.03902461
000220 a9 ed e9 bc fb 2c 82 3c 08 37 51 3d 2d 05 23 3b
       -0.028555708 0.015890589 0.051077873 0.0024874911
000230 48 7e 00 bd 40 9c a6 bc 7e da 85 3c 37 b5 60 3d
       -0.03137043 -0.020338178 0.016339537 0.05486032
000240 97 8d 29 3d b5 b8 a7 3c ef 7a 23 bd d5 2d 10 bd
       0.041394796 0.020473817 -0.03991216 -0.03519996
000250 4a a5 75 3d 56 8d 91 3d 3e b8 89 bc a3 27 cf 3d
       0.059972085 0.07107036 -0.016811486 0.10114982
000260 d4 5e 5f 3d 49 0b b3 bc f7 09 2d 3d c6 18 ce 3d
       0.054533795 -0.021855967 0.04224583 0.10063319
000270 99 3f 97 bc 30 ef 06 bd 10 5b dc bc d3 76 14 bd
       -0.018462943 -0.03294295 -0.02689889 -0.036246132
000280 09 f8 0a 3d 55 02 43 3b 6a c4 b7 bc 0f 45 91 3d
       0.03392795 0.0029756029 -0.022432525 0.0709325
000290 e5 f6 04 3d 5a f6 c3 3c d3 15 ed 3c ee 79 18 3c
       0.03246202 0.02392118 0.02894107 0.009306414
0002a0 e6 5c 05 3d 6d 9d 0d 3b 7c 29 42 bc 66 19 e3 bc
       0.032559298 0.0021608726 -0.011850711 -0.027722072
0002b0 f2 b1 11 3d 6c 36 2c 3d bf 3e 5a bb 80 84 5b 3c
       0.035570092 0.04204409 -0.003330156 0.01339829
0002c0 fc d8 cd bc ef 38 c9 3b fb f9 bd 3c da 78 a0 3d
       -0.02512788 0.00614082 0.023190489 0.078355506
0002d0 38 ba 21 ba 38 8f 12 3d 87 c5 dc 3d ca e8 4b 3d
       -0.00061694114 0.035781115 0.10779863 0.04978255
0002e0 5c 64 56 3d 7e 57 36 bc 10 37 4b bc fe 82 f0 3c
       0.052341804 -0.011129258 -0.012403265 0.029359337
0002f0 f6 d6 70 3c 54 e8 b8 3c 81 d0 23 bc 3a e1 95 3d
       0.014699688 0.02257172 -0.009998442 0.07318349
000300 c4 ba b6 3d 4d 7a 12 3d c0 c5 ec bb 4c 4c d5 bc
       0.089223415 0.035761166 -0.007225722 -0.026037358
000310 28 b2 05 3d 2a 95 0b bd 97 61 54 3d 02 9e 15 3d
       0.032640606 -0.0340778 0.05185088 0.03652764
000320 09 08 c8 3c 8e e5 45 3c f9 d4 25 3c ff 2d 18 3d
       0.024417894 0.012078656 0.010121577 0.03715324
000330 64 73 30 3d 9b af fc bc 1f bd cb 3d a5 82 a7 3d
       0.043078795 -0.030845454 0.09948181 0.08179215
000340 d2 5f a2 bc 32 8c d1 bc cf 72 d6 bb d3 e5 f3 bc
       -0.019821081 -0.025579546 -0.006544448 -0.029772675
000350 bf 98 fc 3c a4 f1 66 3d 1c 00 25 bd a1 47 eb bc
       0.030834554 0.05638279 -0.040283307 -0.028720679
000360 b0 64 80 3c 65 0d 13 bd 63 d2 e3 bc d3 d9 c0 bc
       0.015673012 -0.035901446 -0.027810281 -0.023541367
000370 78 98 1f 3c fc d4 0e bd f8 b3 ab 3c dd d0 37 3d
       0.009740941 -0.034871086 0.02095984 0.044876922
000380 1a 73 c6 bc b2 9f c5 3d 30 4d 6f 3c ae b6 80 3d
       -0.024224807 0.096496 0.014605805 0.062848434
000390 ab 20 08 3d 0a d3 9f 3c 5a 27 9e 3d 68 53 b7 3d
       0.03323428 0.019509811 0.077223495 0.08951455
0003a0 cd ef cd bc 9b c6 3c 3d f3 67 9f bc b2 1d 72 3c
       -0.02513876 0.046087842 -0.019458747 0.014777588
0003b0 4f 7e 89 3d cd 76 88 3c 33 12 92 bc 72 42 b3 3d
       0.067135446 0.016658211 -0.017830944 0.08752908
0003c0 78 f9 68 bc ac 59 c6 bc a8 a7 65 3c f4 19 04 3d
       -0.014219634 -0.02421268 0.014017023 0.032251313
0003d0 ce c2 11 3d 51 d5 29 3c 1b 3b 5b 3d f3 f8 85 3b
       0.03558617 0.0103658 0.053523164 0.004088515
0003e0 34 f6 c8 3d c6 b4 89 bb 50 8d 0f bc b6 cf 99 3c
       0.098125845 -0.004202458 -0.008761719 0.018775802
0003f0 b9 60 aa 3c 12 22 62 3d b0 c0 86 3c 10 7d 96 bc
       0.020798074 0.055208273 0.016449302 -0.018370181

network_body._body_endoder.seq_layers.4.weight f4 [256, 256]
000000 37 03 bd bd 83 49 91 bd 72 fe 88 3d e9 9e 40 3d
       -0.09229129 -0.070940994 0.066891566 0.04702655
000010 ef eb 7e 3d 77 7c c4 3d 2e 75 0a bd 71 e8 db bd
       0.062236723 0.09594052 -0.033803158 -0.10737694
000020 84 e1 be bd e3 6e 81 bd 33 3b a4 bc 24 ff a8 3d
       -0.093203574 -0.06319978 -0.02004776 0.08251789
000030 30 6e 02 be 2b 5d 39 bd 29 e4 18 bc 3d 7c 0b bd
       -0.12737346 -0.045254868 -0.009331741 -0.03405403
000040 21 d2 37 be 99 c6 26 3e 4e f5 d5 3d 14 a6 fe 3c
       -0.17951252 0.16286696 0.10447179 0.031085052
000050 70 6e 26 bd e1 52 40 bd 15 0e 0d 3d 9d b5 bc bc
       -0.040632665 -0.04695404 0.034437258 -0.023035819
000060 a9 da 1f 3d 8e 61 c3 bd 0a d5 b6 bd 70 2f 4e 3c
       0.03902689 -0.095400915 -0.08927353 0.012584552
000070 e4 87 c8 bd ff 8b a0 3d c5 15 fc bd a0 db 8b bd
       -0.09791544 0.07839202 -0.1230884 -0.068289995
000080 e3 26 2d 3d e5 e5 df bd 84 fe b2 bd 02 70 47 bd
       0.042273413 -0.10932521 -0.08739951 -0.048690803
000090 bb 8d 24 bd c6 57 8c 3d bd 5e f0 bd ab 04 f1 bc
       -0.040174227 0.06852679 -0.1173682 -0.029421171
0000a0 c4 6e 02 be 39 a1 33 bd c6 0f 6a 3b ca b5 e7 bd
       -0.12737566 -0.043854926 0.0035714968 -0.113139704
0000b0 e2 d2 fb 3d 78 cb 6f bc 35 92 3e 3c fa 54 96 3d
       0.12296082 -0.014635913 0.011631538 0.07340427
0000c0 bb 00 82 bc 3a 6e d0 3c b6 4f 0d 3d 20 36 f1 bc
       -0.015869489 0.025443185 0.034499846 -0.029444754
0000d0 44 f5 4b bb 53 59 25 be 41 9d bd bc 5c ff 9e bd
       -0.0031121532 -0.16147356 -0.023146274 -0.0776355
0000e0 1e 1a 16 bc 7a 1d 93 bd 9e 57 3e 3c c6 e9 1e bc
       -0.0091615 -0.071833566 0.011617569 -0.009699291
0000f0 33 30 37 bd 6a bf 75 3d 20 bf c4 3c 88 2e 87 bb
       -0.0447237 0.059997 0.024016917 -0.00412542
000100 bf 34 91 bd 46 58 eb bc 13 9a 76 3b a8 f7 c8 bd
       -0.07090139 -0.028728615 0.0037628456 -0.09812862
000110 43 8b 3e 3c 4b e9 c0 3d e2 49 c4 bc 8d 4e fc bd
       0.011629882 0.09419497 -0.023961011 -0.1231967
000120 7b f6 4e bd 15 55 5f bc 97 ef bc 3c 3f 82 3d 3d
       -0.05052803 -0.013631125 0.023063464 0.04626679
000130 f9 b9 21 bb 25 be e1 3c ec a1 c9 bd 47 c6 55 bd
       -0.0024677499 0.027556488 -0.09845337 -0.052191045
000140 f1 ce ff 3c 0e 67 1b 3c b1 9f 34 bd cb 1d 5c 3d
       0.031226607 0.009485019 -0.044097606 0.05373935
000150 1a 83 5a bd 5f ee a5 3c 0d 22 01 be 99 02 87 bc
       -0.053347684 0.020255266 -0.12610646 -0.01648073
000160 41 f5 de bc 20 4f 57 bd 65 81 18 3d 85 6b 5c bd
       -0.027216556 -0.052565694 0.037232775 -0.053813476
000170 f0 3e 5e bb 73 c6 cb bc ea eb 84 3c 48 4e 90 bd
       -0.0033912025 -0.024874901 0.016225774 -0.07046181
000180 67 d4 dd bc d8 29 f1 bb c0 c9 62 bd 44 90 d9 bd
       -0.02707882 -0.0073597245 -0.055368185 -0.106232196
000190 e8 fc 67 bd c0 c6 81 bd 53 46 cc bd 3d de ab 3b
       -0.056637675 -0.06336737 -0.09974351 0.0052449987
0001a0 9a 44 b7 3c 78 65 26 3d 3b 43 ec bd ba b6 9d bd
       0.022371579 0.040624112 -0.11536261 -0.07700868
0001b0 2a 0f 0d be 5a 4d 96 bd f9 eb 57 bd 45 f2 ef bc
       -0.13775316 -0.073389724 -0.052715275 -0.029290328
0001c0 97 2a d1 3c 72 4d 97 bd 91 1d 01 bc e0 f7 bc bd
       0.025533004 -0.073878184 -0.007880584 -0.09226966
0001d0 dc 5b df bb 85 ce c8 bd b5 75 b9 3c b2 0a 30 be
       -0.0068163704 -0.098050155 0.022639135 -0.1719158
0001e0 df 92 b3 bd 13 69 35 3d f6 41 4e bd 0c 1c af 3b
       -0.08768248 0.04428966 -0.050355874 0.0053439196
0001f0 7c cb 2c be b9 61 75 3c e3 30 e0 bd de ed c3 bb
       -0.16874498 0.014976912 -0.109468244 -0.0059792837
000200 b2 e6 23 bd 49 7c 38 bb c1 06 87 bd 3c ab 96 bc
       -0.04001493 -0.0028150252 -0.06593085 -0.018392198
000210 f7 32 f1 3d d7 44 34 bb 33 16 a6 bc e9 12 9a bd
       0.11777299 -0.0027506852 -0.020274257 -0.07523138
000220 6a 55 da 3d 07 32 92 bd 0e b9 2e bd f0 4d 92 bd
       0.10660823 -0.07138448 -0.04265695 -0.07143772
000230 fc 1f 08 3d 00 98 e8 bc d8 d3 82 3d 5e e4 18 bd
       0.033233628 -0.028392792 0.06388062 -0.037327163
000240 31 81 00 be f1 7d 01 bd dc 98 6a bd 2e 91 9c bd
       -0.12549283 -0.031614248 -0.057274684 -0.07644878
000250 42 c6 79 bd d0 57 8c bd 86 ca e9 bc b9 9a 26 bc
       -0.06098009 -0.068526864 -0.028538954 -0.010168725
000260 55 01 ff 3c 7b a9 81 bd d9 61 6c bb d4 0e 6a bd
       0.031128565 -0.06331154 -0.0036069064 -0.057143047
000270 de 8b 26 be 06 07 5f bd f2 fa 11 3d 8f aa ae bc
       -0.16264293 -0.054450057 0.03563971 -0.021321563
000280 ed d2 be 3c a2 ad e0 bc 67 2a 92 3b d2 3f db bd
       0.023293937 -0.027426545 0.004460621 -0.10705532
000290 03 d0 26 bd ab 1e 13 3d 21 63 e9 3a c1 03 6e bc
       -0.04072572 0.03591792 0.0017806032 -0.014527262
0002a0 5c ad 62 3d d5 8a 90 3c 21 ee b2 bd 8d ea e1 bd
       0.05534111 0.017644325 -0.08736826 -0.11031065
0002b0 44 9b bc 3c ba 44 21 bc c6 93 47 bd 01 40 a9 bc
       0.023023255 -0.009843046 -0.048724912 -0.020660402
0002c0 a8 e1 50 bd 0d 54 23 3c f0 8e aa bd 63 27 9e bd
       -0.050996453 0.00996877 -0.083280444 -0.07722356
0002d0 87 f6 f8 3c e9 28 6b 3d f7 f2 85 3c f8 8f b2 bd
       0.03039099 0.05741206 0.016351206 -0.08718866
0002e0 fa e1 d7 bd 2e 1e dd bc 92 4d c8 bd d2 38 be 3b
       -0.105411485 -0.02699193 -0.0978042 0.0058051134
0002f0 64 18 46 be 84 ba 22 3d 0e 5b 1c 3e b8 14 5e bd
       -0.19345242 0.039728656 0.1526911 -0.054218978
000300 b7 c3 50 3d e2 72 a8 bd 94 0d 00 bd bb 40 16 3e
       0.0509679 -0.08225037 -0.03126295 0.1467313
000310 83 91 4b 3c da c0 c9 bd f9 1a 33 bd ab 89 75 be
       0.012424829 -0.09851237 -0.043726895 -0.23978297
000320 56 94 82 bb 3f ff 19 bd 22 49 84 bb 6e 8b 0b be
       -0.003984968 -0.037596937 -0.0040370384 -0.13627407
000330 62 3e 50 3d e3 6a 94 3d 51 cf 11 bd 0b 0d ca bd
       0.050840743 0.072469495 -0.035598103 -0.09865769
000340 05 11 dd bc 71 56 3d bd c1 a0 6a bd a0 9a 9d bd
       -0.026985655 -0.046225015 -0.057282213 -0.07695508
000350 05 ee d5 bd bd 92 1a 3c 26 8e 6c bd 4c 53 7d bd
       -0.10445789 0.009434399 -0.05775275 -0.061847016
000360 53 50 f9 bd 96 21 d6 3b cf f5 75 bd 27 09 40 3a
       -0.12173524 0.0065347655 -0.060048874 0.00073255826
000370 8b a2 d4 3d 61 9f 76 3d b9 4b 0c bd 2b f1 a5 3c
       0.10382565 0.06021059 -0.034251902 0.0202566
000380 29 1d 8a bc f0 7b f1 bc 14 0e ec 3c 41 a8 0e bd
       -0.016859608 -0.029478043 0.028815307 -0.03482843
000390 49 87 53 bd 61 f5 47 bd 24 06 bd bd 55 83 42 3c
       -0.05164269 -0.048817996 -0.09229687 0.011872132
0003a0 5e fd b6 bd c0 83 aa bd e3 7d 2e bd ce 2e db 3d
       -0.08935045 -0.083259106 -0.042600524 0.10702287
0003b0 37 4f c4 3c 88 68 02 3d 41 82 e0 3c 5d 28 1a bd
       0.023963554 0.03183797 0.02740586 -0.03763615
0003c0 2f 04 09 3d 4b 02 de bd d9 d3 9f 3c e7 eb 76 3d
       0.033451255 -0.10840281 0.019510197 0.060283568
0003d0 15 2a b7 bd 45 49 1f bd ba 2a 5a 3d 6d d2 a7 bd
       -0.089435734 -0.038888235 0.053263403 -0.081944324
0003e0 e2 c8 b6 3c a6 ac a4 bd 91 2a 8e 3d 92 18 92 3c
       0.022312585 -0.080407426 0.06941713 0.017833982
0003f0 ad 72 19 bd 06 da 2c be d0 61 95 3c e9 2c 5d bd
       -0.03746288 -0.16880044 0.018235117 -0.053997908

network_body.observation_encoder.processors.0.normalizer.running_mean f4 [6]
000000 50 56 54 c1 d8 ac b9 41 d0 df a7 c1 6c 1f 01 c2
       -13.271072 23.209396 -20.984283 -32.280685
000010 fa 31 b3 3f 07 51 8e c2
       1.3999627 -71.15826
