Assets/Training/results/learn_v4/MarsTaxi/MarsTaxi-3856305.onnx (onnx, 542464 bytes, 10 tensors)

54 f4 [6]
0	0x41c63a67	24.778517
1	0x4132c9ed	11.174298
2	0x4260f7de	56.242058
3	0x3c872b69	0.016500192
4	0x3a65aa53	0.0008761037
5	0x3d14d786	0.03633835

action_model._discrete_distribution.branches.0.bias f4 [6]
0	0x3d046522	0.03232301
1	0xbb74fe1d	-0.0037382909
2	0xbd36eb7e	-0.044658177
3	0xbba7548a	-0.0051065134
4	0x3c6a55ac	0.014302652
5	0xbd00f6a3	-0.03148521

action_model._discrete_distribution.branches.0.weight f4 [6, 256]
0	0xbdb87324	-0.09006336
1	0x3bc58677	0.0060279923
2	0x3d6a5827	0.057212975
3	0xbdd01aa2	-0.1016133
4	0x3d020d4e	0.03175097
5	0x3d68d980	0.05684805
6	0xbd8ed24b	-0.06973704
7	0x3d87f947	0.06639343
8	0x3d3839d6	0.04497703
9	0x3ca9c5ba	0.020724166
10	0x3d41cd6a	0.04731504
11	0x3c918801	0.017765047
12	0x3b46bffe	0.0030326839
13	0x3d40c64c	0.04706411
14	0x3d599476	0.0531201
15	0xbd7c6ff0	-0.06163019
16	0x3d1d1a27	0.03835502
17	0xbd307d4a	-0.043088235
18	0x3c3009ae	0.010744495
19	0xbaa1c91c	-0.001234326
20	0x3d564d45	0.052319784
21	0xbc19b36f	-0.009381159
22	0xbd435b25	-0.047694344
23	0xbccf698e	-0.025318887
24	0xbd85c122	-0.06530978
25	0x3d784727	0.06061473
26	0xbdab4749	-0.08363206
27	0xbc0ce17c	-0.008598682
28	0xbd629713	-0.055319857
29	0xbd6a52dc	-0.057207927
30	0x3d1fc48a	0.039005794
31	0x3cddc269	0.027070241
32	0x3cb6b7aa	0.022304375
33	0x3d2032ef	0.039111074
34	0xbd34ce79	-0.04414222
35	0xbd984b4c	-0.07436237
36	0x3d65f5b1	0.056142513
37	0x3c08a3c0	0.008339822
38	0x3d9a4086	0.07531838
39	0x3d125698	0.035727113
40	0x3d765323	0.06013788
41	0xbd1dc1ec	-0.038515016
42	0xbb8166ec	-0.003949037
43	0x3cbd088a	0.02307536
44	0xbc623de5	-0.013808702
45	0x3d95f0aa	0.07321294
46	0x3d3121b0	0.043245018
47	0x3ce5a9d9	0.028035091
48	0x3c9abd2e	0.018889036
49	0x3c7d3ab4	0.01545589
50	0xbcbbf4fc	-0.022943966
51	0xbd085062	-0.033279784
52	0xbd2ccd29	-0.042187843
53	0x3c93b08b	0.018028518
54	0xbc6850d1	-0.014179424
55	0x3c19eaf2	0.009394394
56	0xbd862e11	-0.06551755
57	0xbda32fdc	-0.07968113
58	0xbd795b75	-0.060878236
59	0xbd45f3b5	-0.04832812
60	0x3bed2ade	0.007237776
61	0x3ccabb76	0.024747591
62	0xbce5e46d	-0.028063023
63	0x3d09df8b	0.033660453
64	0x3d28576c	0.041098997
65	0x3b40f89c	0.0029445058
66	0xbd96067c	-0.073254555
67	0xbd83a614	-0.06428161
68	0x3b942ae2	0.0045217136
69	0xbc2e0838	-0.010622077
70	0xbaf3963d	-0.0018584203
71	0xbca340ab	-0.019928297
72	0xbc16ace8	-0.0091964975
73	0xbd055f97	-0.032561865
74	0xbda812ac	-0.082066864
75	0x3b85d1b4	0.0040838365
76	0x3d62a863	0.055336367
77	0x3c61ea48	0.013788767
78	0xbd490c0c	-0.049083754
79	0x3d95bef0	0.07311809
80	0x3b6800b1	0.0035400803
81	0x3d564c5f	0.052318927
82	0xbd34f2d2	-0.044176884
83	0xbd0f0de9	-0.034925375
84	0xbd9f8bd7	-0.07790344
85	0x3c5c670e	0.0134523045
86	0x3d07fa58	0.03319773
87	0x3d175920	0.03695023
88	0xbd4aa229	-0.049471054
89	0xbd258a46	-0.04041507
90	0x3c66caa4	0.014086399
91	0xbd638a31	-0.05555171
92	0xbd6c0294	-0.057619646
93	0xbc9e4546	-0.019320142
94	0x3b96f62c	0.0046069827
95	0xbdb6bc71	-0.08922661
96	0xbd0d98a1	-0.034569386
97	0xbd8ee747	-0.069777064
98	0x3cf62d39	0.03005086
99	0x3d2ffedd	0.042967666
100	0xbda3db11	-0.08000768
101	0xbd76e5bc	-0.060277686
102	0xbd6cfd2e	-0.05785864
103	0xbd5847e5	-0.05280294
104	0xbd924d47	-0.07143646
105	0xbdaa6a73	-0.08321085
106	0xbd81a878	-0.06330961
107	0xbc02dd3e	-0.007987319
108	0xbd0a690f	-0.033791598
109	0x3d0c1e58	0.034208626
110	0x3d409aa0	0.047022462
111	0xbd20e8b5	-0.039284427
112	0xbd5984de	-0.053105228
113	0xbd96b053	-0.0735785
114	0xbda5afe4	-0.08090189
115	0xbd00d717	-0.031455126
116	0x3ceb4be2	0.028722707
117	0xba941ab8	-0.0011299467
118	0xbd93ce6a	-0.07217105
119	0xbd9d0ae1	-0.076680906
120	0xbcf7e605	-0.030261049
121	0x3d09b9d9	0.033624504
122	0xbcdb7f4b	-0.026794096
123	0xbd330a56	-0.04371103
124	0x3cf7fc1a	0.030271579
125	0xbd0e7b99	-0.03478584
126	0x3bf918dd	0.007601841
127	0xbd14da45	-0.03634097
128	0x3c6a24f3	0.014291036
129	0x3c445c83	0.011984947
130	0xbcdf53a5	-0.027261565
131	0xbd9408d9	-0.0722825
132	0x3d0506cb	0.03247718
133	0x3ceaecfa	0.028677452
134	0xbdabf9d7	-0.083972625
135	0x3c646bf4	0.013941754
136	0xbd80624c	-0.06268749
137	0xbae0f0da	-0.0017161623
138	0x3d1c50fc	0.03816317
139	0x3d25f552	0.04051716
140	0xbd8b9a6e	-0.068165645
141	0xbd19c4bb	-0.037541132
142	0x3d347c09	0.0440636
143	0x3c0be20d	0.008537781
144	0xbcb5f838	-0.022213086
145	0xbc8dca58	-0.0173084
146	0xbd14dd28	-0.036343724
147	0xbd92a5e4	-0.071605474
148	0x3ba2c677	0.0049675065
149	0x3d936084	0.07196143
150	0xbdc9ed95	-0.09859768
151	0x3cf098cd	0.029369736
152	0x3cf17e3e	0.029479142
153	0xbdbbf099	-0.0917675
154	0x3c036f91	0.008022205
155	0x3d138b42	0.03602148
156	0xbd9ab3fd	-0.07553861
157	0xbd5dce07	-0.05415156
158	0xbd90c17b	-0.070681535
159	0xbd5b0fd6	-0.0534819
160	0x3d022455	0.03177293
161	0xbd267cd9	-0.040646408
162	0xbdbee450	-0.09320891
163	0x3d016ca7	0.03159776
164	0x3c546bd8	0.012965165
165	0xbc6a6530	-0.014306352
166	0x3d9d2362	0.07672764
167	0x3c1a505a	0.009418571
168	0x3c371509	0.011174449
169	0xbdb6c7af	-0.089248054
170	0xbd71ea16	-0.059061132
171	0xbd60e33e	-0.054904215
172	0x3cf2062f	0.029543964
173	0xbc947261	-0.018120946
174	0xbc9affbd	-0.018920774
175	0xbca639db	-0.02029126
176	0xbdb52084	-0.088440925
177	0xbb743c9a	-0.0037267567
178	0xbaadc3a7	-0.0013257161
179	0x3d278355	0.040896732
180	0xbc84c014	-0.016204871
181	0x3cc9c088	0.024627939
182	0x3d862566	0.06550102
183	0xbc6572ac	-0.014004391
184	0x3d58ce0f	0.052930888
185	0xbc8a057f	-0.016848324
186	0xbdae4372	-0.08508958
187	0x3cce8c87	0.025213493
188	0x3ba6e2f0	0.005092971
189	0x3cca5bfe	0.024702068
190	0xbd340a9c	-0.04395543
191	0x3d30c944	0.04316069
192	0x3d9fd029	0.07803375
193	0xbc9313e2	-0.017953817
194	0xbc7bcdbc	-0.015368875
195	0xbd3edb41	-0.046595816
196	0x3c897a08	0.016781822
197	0xbd6afed6	-0.057371937
198	0x3c0a6083	0.008445862
199	0x3d347298	0.044054598
200	0x3c349bfe	0.01102352
201	0xbdb30591	-0.08741296
202	0x3d1ebf4a	0.038756646
203	0x3d50263e	0.05081772
204	0x3d875950	0.06608832
205	0xbd18f2ef	-0.037341055
206	0x3ca445e4	0.020052858
207	0x3d6d90a2	0.05799926
208	0xbdc53a5d	-0.096302725
209	0xbd9db002	-0.076995865
210	0xbd5ca2bd	-0.053866137
211	0xbda49b0f	-0.080373876
212	0x3d906bd7	0.07051819
213	0xbac4ca60	-0.0015013926
214	0xbd9a798d	-0.07542715
215	0xbd1717ae	-0.036887817
216	0x3d5b732b	0.05357663
217	0xbdbd338c	-0.092383474
218	0xbd900c7a	-0.0703363
219	0xbdb16d8e	-0.08663474
220	0x3c843987	0.016140712
221	0xbd9587b6	-0.073012754
222	0x3c4c6229	0.012474575
223	0x3d3e760a	0.04649929
224	0xbd921913	-0.07133689
225	0x3d987b74	0.07445422
226	0xbc224022	-0.009902986
227	0x3d76bc15	0.060237963
228	0x3d3b587f	0.045738693
229	0x3c548572	0.012971269
230	0x3c5b750c	0.013394605
231	0x3d90b502	0.070657745
232	0xbd9c5b9c	-0.076346606
233	0x3d4d89c1	0.0501802
234	0xbd8eaee6	-0.06966953
235	0xbc712864	-0.0147191025
236	0x3d5948ba	0.053047873
237	0x3d579497	0.05263194
238	0xbc45ae8b	-0.01206554
239	0x3d8c6c64	0.06856611
240	0x3c98a8b9	0.01863514
241	0x3a8de4d8	0.0010825647
242	0xbce7c4cd	-0.028292084
243	0x3a8ed76f	0.0010897944
244	0x3b2867d7	0.002569666
245	0x3c0e3626	0.008679902
246	0xbc3eb0f7	-0.011638871
247	0xbbba3877	-0.0056830007
248	0x3cd104ac	0.025514923
249	0xbd13bcaa	-0.036068596
250	0xbd7715c0	-0.060323477
251	0x3c48a18a	0.012245545
252	0xbc8313c0	-0.016000628
253	0x3d24fa89	0.04027799
254	0xbb67fd6f	-0.003539886
255	0xbdb0aedf	-0.08627104

network_body._body_endoder.seq_layers.0.bias f4 [256]
0	0x3d91ce10	0.071193814
1	0x3da0b24f	0.0784651
2	0xbddbbcb0	-0.10729349
3	0x3da2b55c	0.07944748
4	0x3da4fcda	0.0805604
5	0x3d4e3814	0.05034645
6	0x3abee56b	0.0014564221
7	0x3d3e2b19	0.04642782
8	0x3da92e3a	0.0826077
9	0x3bf5f668	0.0075061806
10	0x3d71982b	0.05898301
11	0x3d610d79	0.05494449
12	0x3d41ffcb	0.047363084
13	0x3d89373b	0.066999875
14	0xbc9267ff	-0.017871855
15	0xbc81c32e	-0.01584014
16	0x3d338c09	0.04383472
17	0x3dbe9ee1	0.093076475
18	0x3d95e304	0.073186904
19	0x3cd5b2d0	0.026086241
20	0x3aee27b7	0.0018169795
21	0x3d93ef67	0.07223397
22	0xbc996b89	-0.018728035
23	0x3d666f3f	0.056258436
24	0x3d7858e5	0.06063165
25	0xbc3f4c07	-0.011675841
26	0x3d20aae8	0.03922549
27	0x3d2d4b19	0.042307947
28	0x3ca382c9	0.019959824
29	0x3dbf4c2d	0.09340701
30	0x3d0709d6	0.032968365
31	0x3d38fade	0.04516112
32	0x3dcc8b30	0.099874854
33	0x3dad07d2	0.08448757
34	0x3d2b619e	0.041841142
35	0x3ca7feb8	0.020507202
36	0xbd9ec7ea	-0.07752974
37	0x3cf3def8	0.029769406
38	0x3b47891e	0.0030446718
39	0x3dca9c77	0.098931246
40	0xbc1b5eff	-0.009483098
41	0x3cc8958b	0.02448537
42	0x3de91c16	0.1138231
43	0x3d934434	0.07190743
44	0xbc78b898	-0.015180729
45	0xba821a4e	-0.0009926052
46	0x3d83abba	0.064292386
47	0x3c98d15d	0.01865452
48	0x3d53b248	0.051683694
49	0xbd100f83	-0.035171043
50	0x3d954f45	0.0729051
51	0x3d8d888b	0.06910809
52	0x3c4aee72	0.012385951
53	0x3cc33517	0.023829026
54	0xbbe48d69	-0.006974865
55	0x3d417610	0.047231734
56	0x3d38fa12	0.04516036
57	0x3dbc56e2	0.09196259
58	0x3d30bdc2	0.043149717
59	0x3d97ee76	0.0741853
60	0x3d500e9a	0.050795175
61	0x3d48285b	0.04886661
62	0x3daebe63	0.08532407
63	0x3d69ac0d	0.057048846
64	0xbce1b2af	-0.027551023
65	0xbd149911	-0.036278788
66	0x3cddd836	0.027080636
67	0x3d449063	0.04798926
68	0x3d00ccbc	0.03144525
69	0x3be131be	0.006872385
70	0x3de17eaa	0.110104874
71	0xbca5ec9f	-0.020254431
72	0x3cd11020	0.025520384
73	0x3da81f52	0.08209099
74	0x3db2b34c	0.087256044
75	0x3d22d8f8	0.0397577
76	0x3da0b602	0.07847215
77	0x3dc2fe10	0.09521115
78	0xbd99f5d8	-0.07517594
79	0x3c96852d	0.01837405
80	0x3a466c3d	0.00075692293
81	0x3c5f4164	0.01362643
82	0xbcd9f4b7	-0.026605947
83	0x3a1b4a4e	0.0005923853
84	0x3c1bceac	0.009509724
85	0x3ca8c6f9	0.02060269
86	0x3c8f4393	0.017488277
87	0x3d80e64f	0.06293928
88	0xbda145dd	-0.078746535
89	0x3d780cea	0.06055919
90	0xbd45f505	-0.048329372
91	0x3d571b82	0.052516468
92	0x3d11869a	0.035528757
93	0x3dc094c9	0.094033785
94	0x3d95e306	0.07318692
95	0x3d8a74d3	0.06760564
96	0x3d2e9db2	0.04263086
97	0x3da1400e	0.078735456
98	0x3d0646f9	0.03278253
99	0x3d98c903	0.07460215
100	0x3d3ca755	0.046058018
101	0xbdbc40a4	-0.09192017
102	0x3dda3325	0.10654286
103	0x3dd90c46	0.10598044
104	0x3d4c5678	0.04988715
105	0x3cf5f4f2	0.030024026
106	0xbc1caaf2	-0.009562241
107	0x3b5bd20f	0.0033541953
108	0x3d8f0e9d	0.06985209
109	0x3d630618	0.055425733
110	0x3cda7dfb	0.0266714
111	0x3d241002	0.04005433
112	0x3d70e347	0.0588105
113	0x3d966fb3	0.07345524
114	0x3de84856	0.11341922
115	0xbcdc68cb	-0.026905438
116	0x3dd1f64f	0.10252058
117	0x3c5ee6f9	0.013604873
118	0x3d5fcbe5	0.05463781
119	0x3ba446ea	0.0050133364
120	0x3ce2f0a2	0.027702633
121	0xbc9ac97e	-0.018894907
122	0x3da0a7a1	0.07844473
123	0x3db3e8da	0.08784647
124	0x3d888e7f	0.06667804
125	0x3c3ce2a2	0.011528643
126	0x3d808e8b	0.06277188
127	0x3d90b19b	0.070651256
128	0x3daebe2a	0.08532365
129	0x3d67a995	0.05655821
130	0xbda6f8d2	-0.081529275
131	0x3d5ba0df	0.053620216
132	0x3d46806b	0.048462313
133	0x3cdea8fc	0.027180187
134	0x3d8dcd8c	0.069239706
135	0x3d9ff0cf	0.078096025
136	0x3d5fd005	0.054641742
137	0xbd03ba69	-0.032160196
138	0x3d842851	0.06453002
139	0xbb81960b	-0.003954654
140	0x3d684513	0.0567065
141	0x3c8f8bef	0.01752278
142	0x3d359f45	0.044341344
143	0x3d058b88	0.03260377
144	0x3d6cb91c	0.05779372
145	0xbc7c528b	-0.015400539
146	0xbcdd2808	-0.026996627
147	0xbaa6cd59	-0.0012725993
148	0x3d326ecd	0.0435627
149	0x3da8c34b	0.08240374
150	0x3d287a87	0.041132476
151	0x3d7c0eba	0.06153748
152	0x3d8f76b8	0.07005066
153	0x3d1d0357	0.038333263
154	0x3da1d7d2	0.079024926
155	0xbd64b361	-0.05583513
156	0x3d9716d0	0.07377398
157	0x3d1c94b8	0.038227767
158	0xbce42999	-0.027851867
159	0x3de6b512	0.11265005
160	0x3cdfcc55	0.027319113
161	0x3d9f7375	0.077856936
162	0xbbb7f5ca	-0.005614017
163	0x3d20eb48	0.03928688
164	0xbb8db73b	-0.0043248213
165	0x3a98394b	0.0011613754
166	0x3cb2b509	0.02181484
167	0x3cf12865	0.029438207
168	0xba8f82a5	-0.0010948969
169	0x3cca51d9	0.024697231
170	0x3d7200f3	0.059082936
171	0x3d98a8f0	0.07454097
172	0x3c6598b7	0.014013461
173	0x3d33718f	0.04380947
174	0x3d6ea03c	0.05825828
175	0x3d880c27	0.06642943
176	0x3d8f9879	0.07011504
177	0x3d64a6ab	0.05582301
178	0x3dbb7c7f	0.09154605
179	0x3d281790	0.041038096
180	0x3db9cf17	0.090727024
181	0x3c72741d	0.014798191
182	0x3d5bb391	0.053638045
183	0x3bacc6f7	0.005272742
184	0xba9f11fb	-0.0012136096
185	0x3d3c402f	0.045959648
186	0x3d71cdd7	0.059034195
187	0x3d27b107	0.04094031
188	0x3dc0b8c2	0.0941024
189	0x3af3e19f	0.0018606669
190	0x3d79e14d	0.06100588
191	0xbc50efe1	-0.012752504
192	0x3c81f056	0.015861671
193	0x3d5788d8	0.05262074
194	0x3d9bdcd0	0.07610476
195	0x3d37e95b	0.04490028
196	0x3da26468	0.07929307
197	0x3d5efadb	0.054438453
198	0x3de38065	0.11108474
199	0x3d35177e	0.044211857
200	0x3c9ee08c	0.019394182
201	0x3d4832f8	0.048876733
202	0x3cc4b9cf	0.024014382
203	0x3c564398	0.013077639
204	0x3ca55a0c	0.02018454
205	0x3d699884	0.057030216
206	0x3da309eb	0.07960876
207	0x3c8657c5	0.016399274
208	0x3d1bcd7a	0.038037755
209	0x3d825065	0.0636299
210	0x3dd918d2	0.10600437
211	0x3cb83304	0.022485264
212	0x3d8a923e	0.06766175
213	0x3d6f5545	0.05843093
214	0x3d309f0e	0.043120436
215	0x3d801d18	0.06255549
216	0x3d017e6b	0.031614702
217	0x3ca24c9d	0.019811923
218	0x3db1f235	0.086887754
219	0x3df9858e	0.12183677
220	0x3dc77b2a	0.097402886
221	0x3c5336f8	0.012891524
222	0x3df4c8c4	0.119523555
223	0xbd32fe5b	-0.043699604
224	0x3d64f7bc	0.05590032
225	0x3d6e4144	0.05816771
226	0x3d890a44	0.06691411
227	0x3d78dcbf	0.060757395
228	0x3d6a778b	0.05724291
229	0x3d2974a9	0.04137102
230	0xbd1adaed	-0.03780644
231	0x3d9430de	0.07235883
232	0x3dbe6f7b	0.09298607
233	0x3dc13097	0.09433096
234	0x3ce9e63e	0.02855217
235	0x3d97715f	0.07394671
236	0x3ddc7436	0.10764353
237	0x3d43bcca	0.047787465
238	0xbc63c0a0	-0.013900906
239	0x3d50a259	0.050936077
240	0x3cdaa6ae	0.026690807
241	0x3d46c3fc	0.04852675
242	0xbd96d284	-0.073643714
243	0x3c8e005f	0.017334161
244	0x3d1212a3	0.035662305
245	0x3d06aea1	0.032881383
246	0x3c3b13e1	0.011418314
247	0x3d912a21	0.070881136
248	0x3cb1a91b	0.021687081
249	0x3cfa75fe	0.030573841
250	0x3d75c6f2	0.060004182
251	0x3d56e65a	0.052465774
252	0x3d2915af	0.041280445
253	0x3d35e08b	0.044403594
254	0x3c87f6f9	0.016597258
255	0x3db72978	0.089434564

network_body._body_endoder.seq_layers.0.weight f4 [256, 6]
0	0x3f19fb2f	0.601489
1	0x3ecf99e0	0.40547085
2	0x3ed24a99	0.41072538
3	0x3f29a8ed	0.66273385
4	0x3dc9364c	0.098248094
5	0xbf2ba2c1	-0.6704522
6	0xbe55d5a0	-0.20882273
7	0x3f0c6669	0.54843765
8	0x3f24d0a6	0.6438087
9	0x3f0e37e0	0.5555401
10	0xbef63a53	-0.48091373
11	0xbe84ca85	-0.2593576
12	0x3db13249	0.08652169
13	0xbe732bd5	-0.2374719
14	0x3cf6b7e3	0.03011698
15	0x3ebbdc6c	0.36691606
16	0x3eb5ec2a	0.3553174
17	0x3f215664	0.63022447
18	0x3f1e682a	0.6187769
19	0xbe199998	-0.14999998
20	0x3ee86fde	0.45397848
21	0xbef9272d	-0.486627
22	0x3d093427	0.033497002
23	0x3f16bc73	0.588813
24	0xbbafa9dc	-0.005360825
25	0x3e89b51f	0.26895997
26	0x3e9ab82f	0.30218646
27	0x3d5ba703	0.05362607
28	0x3ed00325	0.406274
29	0x3e17885e	0.14798114
30	0xbd962488	-0.073311865
31	0x3ed62c33	0.41830596
32	0xbf028498	-0.5098357
33	0xbf4b821d	-0.7949541
34	0x3b91f5fc	0.0044543725
35	0xbe662f98	-0.22479093
36	0xbd8a23ec	-0.06745133
37	0x3f6e064e	0.9297837
38	0xbe4277cc	-0.18991011
39	0xbda57931	-0.08079756
40	0x3e6d4f75	0.23174842
41	0x3e499379	0.19685163
42	0xbec19e4b	-0.3781608
43	0xbee80ab3	-0.45320663
44	0x3dba37e1	0.09092689
45	0xbeff0b39	-0.4981325
46	0x3f83c0b7	1.0293187
47	0xbe9aa098	-0.30200648
48	0xbe349987	-0.17636691
49	0x3e0398a2	0.12851194
50	0x3ef51f9c	0.4787568
51	0x3e3ccac3	0.18436722
52	0x3e4c50f1	0.19952752
53	0xbc915d67	-0.017744733
54	0xbee00199	-0.4375122
55	0xbeb5dc19	-0.35519484
56	0xbec0bf0c	-0.37645757
57	0x3d5b00b8	0.053467482
58	0xbe52787b	-0.20553772
59	0xbf0e8f7e	-0.556877
60	0xbf4db48b	-0.8035361
61	0xbdf5e2da	-0.12006159
62	0x3cba2869	0.022724347
63	0x3dbd0d6c	0.09231076
64	0x3eb8976d	0.3605303
65	0xbe3c3d63	-0.18382792
66	0x3e07cf16	0.13262591
67	0xbef92af7	-0.48665592
68	0x3f0f882f	0.56067175
69	0xbd88f6ca	-0.06687696
70	0xbe5bc2e1	-0.21461059
71	0x3f26ed19	0.6520553
72	0xbe3d355c	-0.18477386
73	0xbdb53312	-0.088476315
74	0x3d285c93	0.04110391
75	0x3d9740c6	0.073854014
76	0x3ed75d45	0.42063347
77	0xbeeca9d2	-0.46223313
78	0xbf3222a3	-0.695841
79	0xbe1009f0	-0.14066291
80	0x3e1907d9	0.149444
81	0xbe3e9d8f	-0.18614791
82	0x3eefb84b	0.46820292
83	0xbf165aba	-0.5873219
84	0x3cba8dbc	0.022772662
85	0xbe90e395	-0.2829863
86	0x3e162b61	0.14664985
87	0xbcb4b205	-0.022057543
88	0x3d6cb095	0.05778559
89	0xbf1d5939	-0.6146427
90	0xbdf7a422	-0.12091853
91	0xbed7dc1b	-0.42160115
92	0x3dc92e17	0.09823244
93	0x3ee765ee	0.45194954
94	0xbe45bbf1	-0.19309975
95	0x3e9f70a9	0.3114064
96	0xbefecceb	-0.49765715
97	0xbc4c25b8	-0.012460165
98	0xbf55c407	-0.8350224
99	0xbe2324f8	-0.15932071
100	0x3da49b4c	0.08037433
101	0x3e0e3004	0.13885504
102	0xbf8b0c3a	-1.0863106
103	0x3e9bc62b	0.30424628
104	0xbe33cd21	-0.17558719
105	0xbe0e2e45	-0.13884838
106	0xbdbd421a	-0.092411235
107	0xbe805771	-0.25066712
108	0xbf1c7ca2	-0.61127675
109	0x3e834feb	0.2564691
110	0x3eddc857	0.4331691
111	0xbee7c6f3	-0.45268974
112	0x3e779537	0.24178015
113	0xbe9cfac9	-0.30660084
114	0xbf1d8769	-0.61534745
115	0xbf0ca8b3	-0.54944915
116	0xbf0ed436	-0.5579256
117	0x3cc46c8f	0.023977546
118	0x3d599ded	0.053129125
119	0x3d982b64	0.07430151
120	0x3ebfa365	0.37429348
121	0xbc08ee8a	-0.008357653
122	0x3dfd5f3c	0.1237168
123	0xbe4600a6	-0.19336185
124	0xbe817fba	-0.2529276
125	0x3e16162d	0.14656897
126	0xbf439b13	-0.764085
127	0x3e89bfd2	0.2690416
128	0xbe50148c	-0.20320338
129	0xbe2ff5ac	-0.1718356
130	0xbdb1a745	-0.08674482
131	0xbf7883d3	-0.9707615
132	0x3e21ab10	0.15787911
133	0x3e0602a7	0.1308695
134	0x3e202db1	0.1564243
135	0xbe66a3b8	-0.22523391
136	0x3f068365	0.5254424
137	0xbe5fa21f	-0.21839188
138	0x3e7de6e4	0.24795109
139	0xbe281208	-0.16413128
140	0xbeed55a7	-0.4635441
141	0xbdcdab4d	-0.10042439
142	0x3f0e9bf7	0.55706733
143	0x3db22e1d	0.08700202
144	0x3ce8971a	0.028392363
145	0x3f5ef0fa	0.8708645
146	0xbf610e7c	-0.87912726
147	0xbf193c8d	-0.5985802
148	0x3ddfb7a7	0.10923701
149	0x3f40d3cf	0.75323194
150	0x3e791e01	0.24327852
151	0x3e114a4c	0.14188498
152	0x3e99bf57	0.30028793
153	0x3e55d2fa	0.20881262
154	0xbf58e496	-0.84723794
155	0x3f164fb6	0.5871538
156	0xbe45064f	-0.19240688
157	0x3ef62097	0.4807174
158	0x3e7ce75f	0.24697636
159	0xbbaa8e38	-0.005204942
160	0x3eb5f651	0.35539487
161	0x3f2451bb	0.6418721
162	0x3dbba86c	0.09162983
163	0xbf258081	-0.64649206
164	0xbf3a7b07	-0.72843975
165	0xbdc9175c	-0.098189086
166	0xbe48bec3	-0.1960402
167	0x3e1f65aa	0.15566126
168	0xbe92ceaa	-0.28673297
169	0xbf831eac	-1.0243735
170	0xbf849cf8	-1.0360403
171	0x3e1b1ce8	0.15147746
172	0xbe8e0ee3	-0.27745733
173	0x3e87f1af	0.26551577
174	0xbebcb4fa	-0.36856824
175	0x3f4acd6e	0.7921971
176	0x3f1732ce	0.59061897
177	0xbec94ff4	-0.39318812
178	0x3e6f2d3d	0.23357101
179	0xbf2717af	-0.65270513
180	0x3e9ea28b	0.30983385
181	0xbecce4ba	-0.40018255
182	0xbf412a0e	-0.75454795
183	0xbf012fef	-0.50463766
184	0xbf2a60d9	-0.6655403
185	0x3f69d1de	0.91335857
186	0x3ed98c73	0.42489967
187	0xbf5a8a15	-0.85366946
188	0x3ed49d74	0.41526377
189	0xbf6691ce	-0.9006623
190	0x3ed970a1	0.42468742
191	0x3b881dfc	0.004153965
192	0x3dd76d28	0.10518867
193	0x3e077ed5	0.13231976
194	0x3ed726ef	0.4202189
195	0x3dc88286	0.0979052
196	0x3d8b9523	0.06815555
197	0xbe8c8ceb	-0.27451262
198	0x3e6deefb	0.23235695
199	0xbe74426a	-0.2385346
200	0x3e3286e6	0.17434272
201	0x3c922942	0.017841939
202	0x3ed3e746	0.41387385
203	0xbe9ff167	-0.31238863
204	0x3c9b1a5b	0.018933466
205	0xbdd746f4	-0.1051158
206	0x3d06029d	0.032717336
207	0xbe804976	-0.25056046
208	0xbe933e3c	-0.2875842
209	0xbc30a994	-0.010782618
210	0xbf078197	-0.52932113
211	0xbf40b729	-0.7527948
212	0xbe9b3715	-0.30315462
213	0x3e4e28fe	0.20132825
214	0x3e159ab4	0.14609796
215	0x3f739ddd	0.95162755
216	0x3b10e8b1	0.002211135
217	0xbe8102ba	-0.25197393
218	0x3e4804c3	0.19533066
219	0x3eb78c83	0.3584939
220	0x3e127522	0.14302495
221	0x3ecb6ecd	0.39732972
222	0x3ebea07d	0.37231818
223	0xbf3f94d6	-0.7483648
224	0x3ddefb9b	0.10887834
225	0xbd708f6d	-0.05873053
226	0xbebe1ad7	-0.37129852
227	0x3ec73ae2	0.38912112
228	0xbe774aa3	-0.24149565
229	0xbf293a2d	-0.66104394
230	0x3e042cfe	0.12907788
231	0xbf31d553	-0.6946613
232	0xbe7897df	-0.24276684
233	0x3f425fa8	0.7592721
234	0x3eeb6f37	0.45983288
235	0x3e9cd60f	0.30632064
236	0xbea1c5dc	-0.31596267
237	0xbf05cf05	-0.5226901
238	0xbcb9b77e	-0.022670504
239	0xbe97ffef	-0.2968745
240	0xbd394583	-0.045232307
241	0x3edadc01	0.42745975
242	0xbe0ddbbf	-0.13853358
243	0x3f088ca8	0.53339624
244	0x3e7c99f3	0.24668102
245	0x3ec1b4db	0.37833294
246	0x3d91b7b6	0.07115118
247	0x3f69a1b6	0.91262376
248	0xbe8f99a6	-0.28046912
249	0x3eb958bf	0.3620052
250	0x3eaa3fd2	0.33251816
251	0x3f1b5cd9	0.6068855
252	0x3e680568	0.22658312
253	0x3f072319	0.5278793
254	0x3f7c1b8f	0.9847955
255	0x3f0c92eb	0.5491168

network_body._body_endoder.seq_layers.2.bias f4 [256]
0	0xbc0d5d63	-0.008628222
1	0x3d8d95fd	0.069133736
2	0x3bea04e2	0.0071416954
3	0xbd89d1da	-0.06729479
4	0x3d0d013b	0.034425
5	0x3d328a16	0.04358872
6	0x3daf6f7e	0.08566187
7	0x3dff0319	0.12451763
8	0xbd34dc27	-0.044155266
9	0x3c643e48	0.013930865
10	0xbd8a74d7	-0.06760567
11	0x3da7820c	0.08179101
12	0x3d309fb6	0.043121062
13	0xbdaecfe8	-0.08535749
14	0xbb733978	-0.0037113111
15	0xbd8b3410	-0.067970395
16	0x3d3b3b32	0.04571075
17	0x3cd61cac	0.026136719
18	0xbcdde57b	-0.027086964
19	0x3cd92375	0.026506165
20	0xbda9cc30	-0.08290899
21	0x3d26532a	0.040606655
22	0x3d268ba3	0.04066051
23	0xbd9239e6	-0.071399495
24	0xbd97cb28	-0.07411796
25	0x3c9cd4b5	0.019144395
26	0x3bb79d64	0.005603479
27	0xbdc620dc	-0.09674236
28	0xbd93951b	-0.07206174
29	0x3da07464	0.078347
30	0x3cb3d07c	0.021949999
31	0x3d594f02	0.053053863
32	0xbd7cdc34	-0.06173344
33	0x3d952f4e	0.07284413
34	0x3cd295dc	0.025706224
35	0x3bd6e20d	0.006557709
36	0x3cea4c2b	0.028600773
37	0xbda4c626	-0.08045606
38	0x3ddc5701	0.10758782
39	0x3cc4cd21	0.024023594
40	0xbc28f2cd	-0.0103117945
41	0x3b7cf7d9	0.0038599877
42	0x3ae6f141	0.0017619507
43	0xbc39d02d	-0.011341137
44	0x3d1f539d	0.0388981
45	0x3ddf87f6	0.10914604
46	0x3cd4b13b	0.025963416
47	0x3c839923	0.016064232
48	0x3d0b5385	0.034015197
49	0xbda953f7	-0.08267968
50	0x3ca89fb6	0.020583969
51	0xbc275e63	-0.010215375
52	0xbd38d8ae	-0.045128517
53	0xbbe3c38c	-0.0069508012
54	0xbd497ac6	-0.04918935
55	0x3dc3fef2	0.09570111
56	0xbce57804	-0.02801133
57	0xbdb8166b	-0.08988651
58	0xbdbf6e12	-0.09347166
59	0x3c76dbcd	0.015067053
60	0x3d1b52fa	0.03792093
61	0xbb479fbf	-0.0030460206
62	0xbd88e448	-0.06684166
63	0xbd9c52b7	-0.07632964
64	0x3d1d2e06	0.03837397
65	0xbd87f072	-0.06637658
66	0x3db0d1f3	0.08633795
67	0x3d5f70db	0.054550987
68	0x3d271b3a	0.04079745
69	0x3d03bc32	0.0321619
70	0xbc837ddf	-0.016051231
71	0xbd4d867c	-0.050177082
72	0x3de64bed	0.112449504
73	0xbcb4e030	-0.022079557
74	0xbc1c2289	-0.009529718
75	0x3cadf227	0.021233631
76	0x3d997c3e	0.074944004
77	0xbdb4b4bf	-0.08823537
78	0xbd8b78b3	-0.06810131
79	0x3cc718cb	0.024303814
80	0x3d264aa2	0.04059852
81	0xbd424baf	-0.04743546
82	0x3d887ab1	0.066640265
83	0x3d626efe	0.05528163
84	0x3d0c66ab	0.0342776
85	0xbd9396d7	-0.07206505
86	0x3d04d166	0.03242626
87	0x3d3cb861	0.046074275
88	0x3dce6348	0.1007753
89	0x3d986eb9	0.07442994
90	0xbc1c5894	-0.009542603
91	0x3d491c01	0.049098972
92	0x3d8c3ef3	0.06847944
93	0xbd03c825	-0.032173295
94	0xbd9943b3	-0.07483616
95	0xbbf42408	-0.0074505843
96	0xbc514d79	-0.012774819
97	0x3ca614fd	0.02027368
98	0x3c870030	0.016479582
99	0x3da0653b	0.07831808
100	0x3c1c3c85	0.009535913
101	0x3c8c6f09	0.01714279
102	0x3d83a673	0.06428232
103	0x3ca185ea	0.019717176
104	0x3d88763a	0.06663175
105	0xbd332088	-0.043732196
106	0xbdbab61d	-0.091167666
107	0xbbeaceb6	-0.007165755
108	0x3d2ae351	0.041720692
109	0x3d3f7c59	0.046749447
110	0x3cda8c25	0.026678154
111	0xbd9a3e19	-0.075313754
112	0x3d8a2cf5	0.06746856
113	0x3dadb026	0.08480863
114	0x3d1d7add	0.03844725
115	0x3d648faa	0.05580107
116	0x3d95c6a0	0.07313275
117	0x3d2a2347	0.04153755
118	0xbd6c96f9	-0.057761166
119	0x3de0df2d	0.109800674
120	0x3d94d987	0.072680525
121	0x3d44ca83	0.048044693
122	0xbd9d0e67	-0.07668763
123	0x3ad8cd92	0.0016540757
124	0xbd3fa9ca	-0.046792783
125	0x3d41efc7	0.04734781
126	0xbd3f1339	-0.04664919
127	0xbca9cebd	-0.020728463
128	0xbc91d2ea	-0.017800767
129	0x3c91f26e	0.017815795
130	0xbdaa83f8	-0.08325952
131	0x3cecdca6	0.028913807
132	0xbda340e0	-0.07971358
133	0x3dd53fc7	0.10412555
134	0x3cb5161e	0.022105273
135	0x3d01725c	0.031603202
136	0x3dbc4549	0.091929026
137	0x3c8c40eb	0.017120799
138	0xbcefcd0b	-0.029272577
139	0x3c94b7c0	0.018154025
140	0x3d710731	0.05884475
141	0xbd46528a	-0.04841856
142	0x3d605ad2	0.054774113
143	0x3cf43402	0.029809956
144	0x3d15d16a	0.036576666
145	0x3c55ec00	0.013056755
146	0xbc2f0e53	-0.0106845675
147	0x3cb266f3	0.021777606
148	0x3cc333a2	0.023828331
149	0x3d2ddcfe	0.042447083
150	0xbca689fd	-0.02032947
151	0xbd68e43d	-0.05685829
152	0xbcf07c92	-0.029356275
153	0xbbd15c48	-0.0063891746
154	0x3d099346	0.033587717
155	0x3c8c5c39	0.017133819
156	0xbd6680df	-0.056275245
157	0x3d20e92b	0.039284866
158	0xbd104ec0	-0.03523135
159	0x3b769a01	0.0037628415
160	0xbd9ad802	-0.075607315
161	0x3d2b043a	0.041752078
162	0x3d29d19e	0.041459672
163	0x3d9a4f4e	0.075346574
164	0xbcdb0c00	-0.02673912
165	0xbcdd55ae	-0.027018394
166	0x3bd0fac5	0.0063775503
167	0xbc0ff093	-0.008785385
168	0x3d119cc1	0.035549883
169	0x3d345851	0.044029538
170	0x3ba31878	0.004977282
171	0x3d8821fc	0.06647107
172	0x3d5de36e	0.054171972
173	0x3c152f6b	0.009105544
174	0x3d85edf7	0.06539529
175	0xbc82cbb1	-0.015966268
176	0xbd5e7fb5	-0.05432101
177	0x3cce3e1a	0.025176097
178	0x3c7d4ecc	0.015460681
179	0x388c72a2	6.697072e-05
180	0x3d6d0281	0.057863716
181	0xbd88bb74	-0.06676379
182	0x3d273b9a	0.040828325
183	0xbd129e9d	-0.035795797
184	0x3d489389	0.048968825
185	0x3d032ef8	0.032027215
186	0x3d89e849	0.06733758
187	0xbb1e01f0	-0.0024110042
188	0x3c95fe20	0.018309653
189	0x3cac5aa0	0.021039307
190	0xbcb1cf5f	-0.021705328
191	0x3c84f6da	0.01623099
192	0x3d5b4ca5	0.05353989
193	0xbbf14b9d	-0.00736375
194	0x3d2ba53c	0.041905627
195	0xbc85fa25	-0.01635463
196	0x3d807cea	0.062738255
197	0xbdbf68cb	-0.093461595
198	0xbda8ece9	-0.08248312
199	0x3d006dcc	0.03135471
200	0x3bee20db	0.0072671003
201	0xbd8c0397	-0.06836622
202	0x3c9a0a34	0.018803693
203	0x3db629cf	0.08894693
204	0x3db5d8d1	0.08879245
205	0xbbab378e	-0.0052251285
206	0xbcce8773	-0.025211072
207	0x3d85f9f6	0.06541817
208	0xbd76220d	-0.060091067
209	0xbd02b926	-0.031914853
210	0x3d68797a	0.056756474
211	0x3d21a246	0.039461397
212	0x3d14e23f	0.036348578
213	0x3c649b93	0.013953107
214	0xbd2ce4e7	-0.042210486
215	0xbc277369	-0.010220387
216	0x3ce436f0	0.027858227
217	0x3d607267	0.054796603
218	0xbb8114c4	-0.003939243
219	0xbdcb06fa	-0.0991344
220	0xbd989e06	-0.074520156
221	0xbda473f5	-0.080299295
222	0xbdab9bc8	-0.08379322
223	0x3d7a8aa3	0.06116737
224	0xbd011a05	-0.031518955
225	0xbd909fdd	-0.070617415
226	0x3daf43f1	0.08557881
227	0x3dc400d6	0.09570472
228	0x3c6a04a6	0.014283335
229	0x3bb185f1	0.0054175784
230	0x3dcaca2d	0.09901843
231	0x3d0d79c2	0.034539945
232	0x3c8abc63	0.016935533
233	0x3c1d2230	0.0095906705
234	0xbc6422b1	-0.013924287
235	0x3d049f07	0.032378223
236	0xbc3305fb	-0.010926719
237	0x3d34143f	0.04396462
238	0x3ce778d4	0.028255858
239	0xba417120	-0.00073792227
240	0x3d9f308f	0.07772934
241	0x3c323b52	0.010878401
242	0xbdbf8342	-0.09351207
243	0xbd9c17f7	-0.076217584
244	0x3d001af1	0.031275693
245	0x3c2d49a4	0.010576639
246	0x3d98c3a2	0.07459189
247	0x3c8a2731	0.016864391
248	0x3d64dffe	0.055877678
249	0xbd03cedf	-0.03217971
250	0x3b5d0a91	0.0033728222
251	0x3cb590df	0.022163806
252	0x3c8e66fe	0.017383095
253	0x3bf2a00f	0.0074043344
254	0x3c1759a3	0.00923768
255	0x3c5c2cf9	0.013438457

network_body._body_endoder.seq_layers.2.weight f4 [256, 256]
0	0x3dd2b5da	0.10288592
1	0x3d97da28	0.07414657
2	0xbd943e1b	-0.07238408
3	0xbe3cb179	-0.18427075
4	0x3beb70aa	0.0071850615
5	0x3e37e13c	0.17957014
6	0x3db711ef	0.089389674
7	0x3a1f9a22	0.0006088336
8	0xbd8ca6fc	-0.06867787
9	0xbdc6b7a8	-0.097029984
10	0x3dd0ac09	0.10189063
11	0xbd1bccfd	-0.03803729
12	0x3cca38c7	0.024685277
13	0x3dba5d7d	0.09099863
14	0x3d1f5175	0.038896043
15	0xbdbf6854	-0.09346071
16	0x3caba808	0.020954147
17	0xbd67152d	-0.05641668
18	0xbd38e779	-0.045142625
19	0x3be83a8c	0.0070870575
20	0xbdc1e47a	-0.094674066
21	0xbb3f6690	-0.002920542
22	0xbd7219cf	-0.059106644
23	0xbbfb7a84	-0.007674517
24	0xbc4d3b2e	-0.012526317
25	0x3dfe82c7	0.124272875
26	0xbc9d7297	-0.01921968
27	0x3cd1320b	0.025536558
28	0x3dd8ff69	0.105955906
29	0xbe1c1fa9	-0.15246452
30	0x3d423d56	0.047421776
31	0xbd42e113	-0.04757793
32	0x3b8389aa	0.0040142136
33	0x3d69a80a	0.05704502
34	0x3d2b51be	0.041826002
35	0x3dae565f	0.08512568
36	0xbc3abadf	-0.011397093
37	0x3dd22829	0.10261566
38	0xbaf08a36	-0.0018351737
39	0x3d8fdde0	0.07024741
40	0xbd05acf2	-0.032635637
41	0xbca3fc03	-0.02001763
42	0xbd09c406	-0.03363421
43	0xbdbdf89e	-0.092759356
44	0x3dae0af7	0.08498185
45	0x3d84d57a	0.0648603
46	0x3b303d20	0.0026891902
47	0x3dbf6318	0.093450725
48	0x3d393d44	0.045224443
49	0x3d207e4e	0.039182954
50	0x3bd62b7d	0.006535946
51	0xbd52f96c	-0.0515074
52	0x3d798e2a	0.060926594
53	0xbc377f6a	-0.0111998115
54	0x3d335472	0.043781705
55	0x3c2d3c33	0.010573435
56	0xbd072a98	-0.032999605
57	0xbd03b17d	-0.032151688
58	0xbcab3f38	-0.020904168
59	0x3c9053ee	0.017618146
60	0xbd32ccc2	-0.043652304
61	0x3d6453d4	0.055744007
62	0xbd3d8ccc	-0.046276852
63	0xbe08b125	-0.13348825
64	0x3db82493	0.08991351
65	0xbda68345	-0.081305064
66	0x3cd4831d	0.025941426
67	0x3d422101	0.047394756
68	0xbd654717	-0.055976
69	0xbc97aa18	-0.018513724
70	0xbd5be2cf	-0.0536831
71	0x3e20fddc	0.1572184
72	0xbb6a46fd	-0.0035747879
73	0x3c2ed9ce	0.010672046
74	0xba4d9b73	-0.0007843293
75	0xbdcbb067	-0.099457555
76	0xbd138c12	-0.036022253
77	0xba0e0fc0	-0.0005419217
78	0xbcb95e67	-0.022628022
79	0xbbc1166f	-0.005892567
80	0xbd570cac	-0.05250232
81	0x3dbcd638	0.092205465
82	0xbbf59b4d	-0.00749532
83	0xbd90bb00	-0.070669174
84	0xbda73284	-0.08163932
85	0x3e07c50e	0.13258764
86	0xbd34416d	-0.044007707
87	0x3d15a679	0.036535714
88	0x3dc4e3af	0.0961374
89	0x3bb43b4d	0.0055002333
90	0xbd46a1d5	-0.04849418
91	0xbd6c9c5d	-0.057766307
92	0x3e2027c8	0.15640175
93	0xbe04e97a	-0.12979689
94	0xbd490aaf	-0.049082454
95	0xbc5d7727	-0.013517178
96	0x3d4e8ef1	0.05042929
97	0xbda91c36	-0.08257334
98	0x3cce0de7	0.025153114
99	0x3d9893ac	0.07450041
100	0x3e1a59a5	0.15073259
101	0xbd9a69b1	-0.0753969
102	0xbcc2660f	-0.023730306
103	0xbd9f2f9a	-0.07772751
104	0xbd2acfe5	-0.04170217
105	0xbd0beb76	-0.0341601
106	0x3d323b3d	0.043513525
107	0xbd2c8435	-0.04211827
108	0xbccc7736	-0.024959188
109	0x3e02936b	0.12751548
110	0x3d95a346	0.073065326
111	0xbd4e8feb	-0.05043022
112	0xbcf43bd4	-0.029813685
113	0x3c9e373b	0.019313445
114	0xbd1597ab	-0.036521595
115	0xbcc215d4	-0.02369205
116	0xbc14374a	-0.009046385
117	0x3d99e35e	0.0751407
118	0x3d0c8d37	0.03431436
119	0xbd286451	-0.041111294
120	0xbc84c87a	-0.016208876
121	0x3db9cbf0	0.09072101
122	0x3d220469	0.039554987
123	0xbd6dbf96	-0.05804404
124	0xbd5b51b1	-0.053544704
125	0x3c832239	0.01600753
126	0x3d96c0fe	0.07361029
127	0xbdefc9fb	-0.117084466
128	0xbbf08114	-0.007339606
129	0xbd2da928	-0.042397648
130	0x3e0a150c	0.13484591
131	0xbd9e3258	-0.07724446
132	0x3dd55ee5	0.1041849
133	0x3d720a2a	0.059091724
134	0x3c7f872a	0.0155961905
135	0xbd00caa8	-0.031443268
136	0x3dd5c360	0.104376554
137	0xbd17a4f9	-0.037022565
138	0x3dcd7a5d	0.100331046
139	0x3da43ce0	0.080194235
140	0x3d15b103	0.036545765
141	0xbd8253fc	-0.06363675
142	0xbcddb49a	-0.027063657
143	0x3dccf0a3	0.10006835
144	0xbd5e1771	-0.054221574
145	0x3d72a65a	0.059240676
146	0xbcc7420b	-0.024323484
147	0x3d67f9d6	0.056634746
148	0x3d19a379	0.037509415
149	0xbc6ce507	-0.014458901
150	0xbd09b411	-0.03361899
151	0xbd5475f0	-0.051870286
152	0xbdae8fc8	-0.08523518
153	0xbd12ccf9	-0.03584001
154	0xbce36551	-0.027758272
155	0xbcedd46d	-0.029031957
156	0x3d5ebd8f	0.054379996
157	0x3c4bb11f	0.012432366
158	0xbd75b53a	-0.059987284
159	0xbd6649ad	-0.056222606
160	0xbb0bdcd8	-0.002134135
161	0x3c8d568b	0.017253181
162	0x3d1ad895	0.037804205
163	0xbd310564	-0.04321803
164	0x3ddb5991	0.10710443
165	0x3cea6ec0	0.028617263
166	0xba99e122	-0.0011740068
167	0xbd4eb1c2	-0.05046249
168	0x3db1e03d	0.08685348
169	0x3d858c44	0.06520894
170	0xbda8bfba	-0.08239694
171	0xbca99bf5	-0.020704249
172	0x3d24ddf0	0.04025072
173	0xbdc16fb8	-0.09445137
174	0xbdd3371b	-0.10313245
175	0x3ca584ed	0.020204986
176	0xbda577f1	-0.08079518
177	0xbcdd7182	-0.027031664
178	0xbd656043	-0.056000005
179	0xbd872891	-0.06599534
180	0xbda04176	-0.07824986
181	0xbd4a2420	-0.049350858
182	0xbd1d9202	-0.038469322
183	0x3e6be6ff	0.23037337
184	0xbb90236f	-0.0043987553
185	0x3dcc801d	0.09985373
186	0xbda85cef	-0.08220851
187	0x3db167b3	0.08662357
188	0xbd0c82f2	-0.034304567
189	0xbdd75ee1	-0.105161436
190	0xbdc8d009	-0.098053046
191	0xbd111ad7	-0.035425987
192	0xbd094d55	-0.033521015
193	0x3d893820	0.06700158
194	0xbcc55087	-0.02408625
195	0xbd75f166	-0.06004467
196	0xbbf0959b	-0.007342053
197	0x3d254753	0.040351223
198	0xbb0a97fd	-0.002114772
199	0x3dbd0b87	0.09230714
200	0x3e04f8de	0.1298556
201	0x3d21c132	0.039490886
202	0xbd300a78	-0.042978734
203	0x3c39f4b7	0.0113498485
204	0x3a238a95	0.0006238607
205	0xbd017a74	-0.03161092
206	0xbcb0b1fe	-0.021569248
207	0x3cc1ea0a	0.023671169
208	0x3db5c000	0.08874512
209	0x3bdba3d7	0.006702881
210	0x3ba42c8b	0.0050101927
211	0x3b59e0c4	0.0033245543
212	0xbe190205	-0.14942177
213	0xbc03270e	-0.008004917
214	0x3d092326	0.033480786
215	0xbd996fa0	-0.07491994
216	0x3d4d89cf	0.050180253
217	0x3d1094e9	0.03529826
218	0x3d303974	0.04302354
219	0xbdb42ddf	-0.08797812
220	0xbcd376c6	-0.025813472
221	0xbd6cc68f	-0.057806548
222	0xbbe33b74	-0.0069345776
223	0xbd3547fb	-0.0442581
224	0xbdb1c77e	-0.08680628
225	0xbb18333c	-0.0023223897
226	0xbdb89357	-0.09012478
227	0x3b7b16ac	0.0038313074
228	0x3d476ce6	0.048687838
229	0xbdd20bc8	-0.10256153
230	0xbe0eb30f	-0.13935493
231	0xbdaae5e6	-0.08344631
232	0xbe213b91	-0.15745379
233	0xbd0e33ec	-0.034717485
234	0x3e2427c5	0.16030796
235	0x3cc21596	0.023691934
236	0xbce2fc46	-0.027708184
237	0x3d8dfff0	0.06933582
238	0xbdbf3bd7	-0.093375854
239	0x3dab0939	0.083513685
240	0xbcc2d910	-0.023785144
241	0xbcf4369c	-0.029811196
242	0x3daabfac	0.0833734
243	0x3d3a7352	0.045520134
244	0x3dca587b	0.098801576
245	0xbb1f0818	-0.00242663
246	0xbd7eab82	-0.06217528
247	0x3d7d9c4f	0.061916646
248	0xbd9d79c7	-0.07689243
249	0xbdf77cb2	-0.120843306
250	0xbdbf77ff	-0.09349059
251	0xbc00bc89	-0.00785745
252	0xbdc8740b	-0.097877584
253	0x3d9bd2d0	0.07608569
254	0xbcfe84c0	-0.03106916
255	0x3da32a11	0.07967008

network_body._body_endoder.seq_layers.4.bias f4 [256]
0	0xbcdabf56	-0.026702564
1	0x3d3cd701	0.04610348
2	0x3dba27b4	0.09089604
3	0xbc88b468	-0.016687587
4	0x3d47b339	0.048754904
5	0x3c1c5a7e	0.009543059
6	0xbcd2d99f	-0.025738535
7	0x3dbc79aa	0.09202893
8	0x3d904f14	0.07046333
9	0x3d15e0b9	0.036591265
10	0x3d7f5d5f	0.062344905
11	0x3ce7e9c1	0.028309705
12	0x3c4091d1	0.011753515
13	0x3b4347a8	0.002979735
14	0x3cdb4c54	0.026769795
15	0x3c027eb8	0.007964782
16	0x3d7f53be	0.062335722
17	0xbd333ab3	-0.04375715
18	0x3d1f9180	0.03895712
19	0x3ca637be	0.020290252
20	0x3c90e266	0.01768608
21	0x3d6fdb12	0.05855853
22	0xbcb7a3f7	-0.022417052
23	0xbc9f4d84	-0.019446142
24	0xbd179c3b	-0.037014227
25	0x3d8a7b88	0.06761843
26	0xbccdd6b9	-0.025126802
27	0x3d6b9b31	0.05752105
28	0xbc7663d1	-0.0150384465
29	0xbca50c1a	-0.020147372
30	0x3d1fa0c4	0.038971677
31	0x3ba1afd1	0.004934289
32	0x3cc10fe6	0.023567151
33	0x3d5947eb	0.053047102
34	0xbd05e02e	-0.032684498
35	0xbd5045ea	-0.050847925
36	0x3d696a5a	0.05698619
37	0x3c96a2a1	0.018388094
38	0x3dc18d83	0.09450819
39	0x3dcf45db	0.10120746
40	0x3d48a64d	0.04898672
41	0xbc52ca71	-0.012865649
42	0xbc16c3f0	-0.009201989
43	0x3dcdf7c6	0.10057025
44	0x3ccf7ae9	0.025327163
45	0x3defcb42	0.1170869
46	0x3d928cfc	0.07155797
47	0x3c9ad103	0.018898493
48	0x3d9785ce	0.07398568
49	0x3d6455bc	0.055745825
50	0x3ceacf38	0.028663263
51	0xbc8d32f5	-0.017236212
52	0x3ab71969	0.0013969365
53	0x3dbc2b55	0.091879524
54	0x3d311708	0.043234855
55	0x3d873eef	0.066038005
56	0xbc4838ff	-0.01222062
57	0xbcc1ae9b	-0.023642829
58	0xbcf59c14	-0.02998165
59	0xbcafb106	-0.021446716
60	0xbd189e9e	-0.037260644
61	0x3d3ab9d8	0.04558739
62	0x3be6f305	0.007048013
63	0x3da5c0b3	0.08093395
64	0x3d0e8289	0.034792457
65	0xbc45e9ee	-0.012079699
66	0xbcdd06d5	-0.026980797
67	0xbd0b4fcb	-0.034011643
68	0x3d75aada	0.05997739
69	0x3da5511b	0.0807211
70	0x3b8c4cb9	0.004281607
71	0x3d224bd8	0.03962311
72	0x3ae24049	0.001726159
73	0xbc6010d1	-0.013675884
74	0xbca48e91	-0.020087512
75	0x3b6b2d8b	0.00358853
76	0x3dec7d76	0.11547367
77	0x3cefb0ab	0.029259047
78	0xbc7d2356	-0.015450319
79	0x3dec9794	0.11552349
80	0x3b8ea7b9	0.00435349
81	0x3d9dbd36	0.07702105
82	0x3cb3873f	0.021915076
83	0xbd1d20ff	-0.038361546
84	0xbcb6049b	-0.022218993
85	0x3dbabf76	0.091185495
86	0x3d2a9f79	0.04165599
87	0x3d1abce3	0.037777793
88	0xbcaaa118	-0.020828769
89	0xbd12452f	-0.03571051
90	0x3c77d84c	0.015127253
91	0xbd0247f6	-0.03180691
92	0xbd1d70bb	-0.038437586
93	0x3cb967e5	0.022632549
94	0x3cd9de75	0.026595334
95	0xbcd28c25	-0.025701592
96	0xbc9739eb	-0.018460235
97	0xbc23bdb3	-0.009993958
98	0x3daf4dbf	0.08559751
99	0x3e04ba46	0.12961683
100	0xbcdd4f85	-0.027015457
101	0xbd02f4bb	-0.031971674
102	0xbcefc495	-0.029268542
103	0xbd0ac221	-0.033876542
104	0x3c8dbdb1	0.017302366
105	0xbce3ab2d	-0.027791584
106	0xbd27a2e0	-0.040926814
107	0x3d0368dd	0.032082427
108	0xbcf48284	-0.029847391
109	0x3d2a75d4	0.041616276
110	0x3d63fa2b	0.0556585
111	0xb99b2570	-0.00029591797
112	0x3ca15d38	0.01969777
113	0x3c505d54	0.012717564
114	0xbd403826	-0.046928547
115	0xbd2403f9	-0.04004285
116	0x3cd87a4b	0.026425501
117	0x3c90a0ab	0.017654737
118	0xbc51eb37	-0.012812427
119	0xbc95aa56	-0.018269699
120	0xbcb744ff	-0.022371767
121	0x3d36d69e	0.04463827
122	0x3c959a06	0.01826192
123	0xbc8feec6	-0.01756991
124	0x3da1c264	0.07898405
125	0xbca2063f	-0.019778369
126	0x3da11185	0.0786467
127	0xbb8a6dd6	-0.0042245192
128	0x3d5b20df	0.053498145
129	0x3c9c520e	0.019082095
130	0x3cc0e5cb	0.023547074
131	0xbd247e57	-0.04015955
132	0x3d3662eb	0.04452793
133	0x3dbcb376	0.09213917
134	0xbd0d4a0e	-0.034494452
135	0x3d21be6a	0.039488234
136	0xbce8adf6	-0.028403264
137	0x3c7346fd	0.014848468
138	0x3d506204	0.050874725
139	0xba31cfa1	-0.0006782953
140	0xbd06540b	-0.032794993
141	0xbc8bd849	-0.017070906
142	0x3c61a5dc	0.013772454
143	0x3d642adb	0.055704933
144	0x3d3646e5	0.044501204
145	0x3cafd59d	0.021464163
146	0xbd16db4a	-0.036830224
147	0xbd126d6c	-0.035748884
148	0x3d919a72	0.07109536
149	0x3d9417b9	0.07231087
150	0xbc800727	-0.01562841
151	0x3dd2b8ee	0.10289179
152	0x3d684d71	0.05671448
153	0xbcbffcc5	-0.02343596
154	0x3d4dec7c	0.050274357
155	0x3dd3730e	0.10324679
156	0xbc97f057	-0.01854722
157	0xbd06f9f2	-0.03295321
158	0xbcdf5299	-0.027261065
159	0xbd0eab44	-0.0348313
160	0x3d095c5c	0.033535346
161	0x3b99fb0c	0.0046991166
162	0xbcb5911f	-0.022163926
163	0x3d9578a7	0.07298403
164	0x3cfa5d70	0.030562133
165	0x3cbc483e	0.022983667
166	0x3ce6d6fd	0.028178686
167	0x3be8a1d9	0.007099372
168	0x3d041a28	0.032251507
169	0x3b981014	0.0046405885
170	0xbc374935	-0.0111868875
171	0xbcb9f848	-0.022701398
172	0x3d06c5c6	0.032903455
173	0x3d3071fb	0.04307745
174	0x3b484ec0	0.0030564517
175	0x3ca002e5	0.01953263
176	0xbcc38fd7	-0.0238723
177	0x3b6575e1	0.0035012888
178	0x3cbdcc89	0.023168819
179	0x3da26195	0.079287685
180	0x3b9cd05a	0.0047855796
181	0x3d124c96	0.03571757
182	0x3de1c8e1	0.11024643
183	0x3d6dc45f	0.058048602
184	0x3d5920c3	0.05300976
185	0xbbd81067	-0.006593752
186	0xbc5e8dc1	-0.013583601
187	0x3ce97b12	0.028501067
188	0x3c4cd7d7	0.012502632
189	0x3ca7a1ad	0.020462835
190	0xbc0f45ec	-0.008744698
191	0x3d97f34c	0.07419452
192	0x3db7ce76	0.08974926
193	0x3d136e77	0.03599402
194	0xbb1ee55e	-0.00242456
195	0xbcbc9efa	-0.023025025
196	0x3d00a664	0.031408682
197	0xbd153183	-0.03642417
198	0x3d5b8630	0.053594768
199	0x3d0a66b0	0.033789337
200	0x3cb43bb5	0.022001127
201	0x3c5d3063	0.013500306
202	0x3bd5c9e5	0.006524312
203	0x3d135b5f	0.03597581
204	0x3d2bc82f	0.041938957
205	0xbcf2f31d	-0.029656941
206	0x3dd2dd4f	0.102961175
207	0x3dabe155	0.08392588
208	0xbca8dff3	-0.0206146
209	0xbcca3aba	-0.024686206
210	0xb9f507cf	-0.0004673586
211	0xbcf9518c	-0.030434392
212	0x3cec7875	0.028866032
213	0x3d677b0e	0.05651384
214	0xbd274098	-0.040833086
215	0xbceeb606	-0.02913953
216	0x3c56dbdc	0.013113942
217	0xbd15882f	-0.036506828
218	0xbcdea7a8	-0.027179554
219	0xbcaf2bc3	-0.021383172
220	0x3c03b4b7	0.008038691
221	0xbd0efb88	-0.034907848
222	0x3ca78f9c	0.02045422
223	0x3d33ea2e	0.043924503
224	0xbcb47ad3	-0.022031223
225	0x3dc9729e	0.098363146
226	0x3c55879c	0.01303282
227	0x3d879eab	0.066220604
228	0x3d002a31	0.031290237
229	0x3c8ce2ef	0.017198054
230	0x3da0e88e	0.07856856
231	0x3dbae2d5	0.09125296
232	0xbcd2c51a	-0.025728751
233	0x3d37d168	0.04487744
234	0xbc8d4f39	-0.01724969
235	0x3c550bc0	0.01300329
236	0x3d8b64f8	0.06806368
237	0x3c55df3a	0.01305371
238	0xbc79c7de	-0.015245406
239	0x3db5f408	0.08884436
240	0xbc90a471	-0.017656537
241	0xbcd847de	-0.026401456
242	0x3ca8299e	0.020527657
243	0x3cfcad67	0.030844403
244	0x3d06c7ac	0.032905266
245	0x3c087242	0.008328022
246	0x3d5d75f0	0.054067552
247	0x3c135f9f	0.008994966
248	0x3dcd2670	0.10017097
249	0xbb9a1aa5	-0.0047028833
250	0xba2d9b44	-0.00066225627
251	0x3cb238c2	0.02175558
252	0x3ca65de8	0.02030845
253	0x3d620848	0.05518368
254	0x3c8939ba	0.016751159
255	0xbcac0f36	-0.021003347

network_body._body_endoder.seq_layers.4.weight f4 [256, 256]
0	0xbdb7d43d	-0.08976028
1	0xbd8db3f1	-0.06919087
2	0x3d8c9453	0.06864228
3	0x3d42f662	0.04759825
4	0x3d83ee05	0.06441883
5	0x3dc7ad77	0.09749883
6	0xbd18b71f	-0.037284013
7	0xbde5b905	-0.1121693
8	0xbdbb35d2	-0.09141125
9	0xbd7c6405	-0.061618824
10	0xbc9375ed	-0.018000567
11	0x3da79c58	0.08184117
12	0xbe035151	-0.12823988
13	0xbd319c63	-0.043362033
14	0xbbeb3534	-0.007177973
15	0xbd04ecd4	-0.03245242
16	0xbe39a6e7	-0.18130074
17	0x3e294268	0.16529238
18	0x3dc8b544	0.09800199
19	0x3cfea747	0.031085623
20	0xbd1d7cc6	-0.03844907
21	0xbd5a54f7	-0.053303685
22	0x3d17b23a	0.037035204
23	0xbcad48c6	-0.021152865
24	0x3d28adc8	0.041181356
25	0xbdc4189a	-0.09575005
26	0xbdb290a9	-0.08718998
27	0x3c68f492	0.014218466
28	0xbdc3c5ba	-0.09559198
29	0x3d9d637f	0.07684993
30	0xbdf72bdd	-0.12068913
31	0xbd875dcf	-0.066096894
32	0x3d349ca3	0.044094693
33	0xbdd8fca0	-0.105950594
34	0xbdafcd85	-0.085841216
35	0xbd3e299d	-0.046426404
36	0xbd1825f4	-0.03714557
37	0x3d90a7f9	0.07063288
38	0xbdff9991	-0.12480462
39	0xbceb872c	-0.028750978
40	0xbe09b1c2	-0.13446715
41	0xbd31d2ca	-0.043413915
42	0x3b8f02ce	0.004364348
43	0xbde428c1	-0.11140586
44	0x3dfe3e2d	0.12414203
45	0xbc7b6807	-0.015344626
46	0x3b8be411	0.004269131
47	0x3d9ab514	0.07554069
48	0xbc7c36d2	-0.01539393
49	0x3ce12138	0.02748166
50	0x3d195fcb	0.03744487
51	0xbcda225b	-0.02662771
52	0xbb4f8695	-0.003166591
53	0xbe244bff	-0.16044615
54	0xbcb0a30e	-0.021562126
55	0xbd9b2e34	-0.07577172
56	0xbc586f0b	-0.013210068
57	0xbd8fc44e	-0.07019864
58	0x3c573e05	0.013137345
59	0xbc008a44	-0.007845465
60	0xbd545767	-0.051841166
61	0x3d802217	0.06256502
62	0x3cd055d0	0.025431544
63	0xbb06bc4c	-0.002055901
64	0xbd9ce39b	-0.076606
65	0xbcdf1060	-0.027229488
66	0xbb724f74	-0.0036973627
67	0xbdcb2514	-0.099191815
68	0x3c49efe5	0.012325262
69	0x3dc5ddd0	0.09661448
70	0xbcfaa7cb	-0.030597588
71	0xbdf8a03a	-0.12139936
72	0xbd4b598e	-0.049645953
73	0xbc52dcff	-0.012870072
74	0x3c8407ad	0.016116941
75	0x3d4c0158	0.04980597
76	0xbaf29db2	-0.0018510132
77	0x3cf22674	0.029559352
78	0xbdc579cc	-0.096423715
79	0xbd4bd6f1	-0.04976553
80	0x3ceabfd9	0.028655933
81	0x3c405a7a	0.011740321
82	0xbd50a213	-0.050935816
83	0x3d6662fe	0.05624675
84	0xbd54f085	-0.05198719
85	0x3cb5e2cc	0.022202872
86	0xbdffd675	-0.12492076
87	0xbc85c02e	-0.01632699
88	0xbcdf6a8c	-0.027272485
89	0xbd53ccad	-0.051708866
90	0x3d1f2772	0.038855977
91	0xbd587cef	-0.05285352
92	0xbb9bc1b1	-0.0047533144
93	0xbce928c6	-0.028461825
94	0x3c936046	0.017990243
95	0xbd8d679b	-0.06904527
96	0xbcd59472	-0.02607176
97	0xbbd134b5	-0.006384457
98	0xbd5aed8d	-0.053449202
99	0xbdd80b51	-0.105490334
100	0xbd61147c	-0.054951176
101	0xbd8f0431	-0.06983221
102	0xbdc8bfd9	-0.09802217
103	0x3bd2eaaa	0.0064366655
104	0x3cbe6ae7	0.023244334
105	0x3d2b8fa4	0.041885033
106	0xbde84ab1	-0.11342371
107	0xbd9beede	-0.0761392
108	0xbe0c9c95	-0.13731606
109	0xbd950cb9	-0.07277817
110	0xbd538eec	-0.051649973
111	0xbcde965a	-0.027171303
112	0x3ce1dc54	0.027570881
113	0xbda128ed	-0.07869134
114	0xbc735832	-0.01485257
115	0xbdbdf897	-0.092759304
116	0xbb5984c1	-0.00331907
117	0xbdd6e610	-0.104931
118	0x3cc84628	0.024447516
119	0xbe2fdd11	-0.17174174
120	0xbdb7f15b	-0.08981582
121	0x3d18aced	0.03727429
122	0xbd47537d	-0.048663605
123	0x3bdadd4f	0.006679214
124	0xbe2c0d3a	-0.1680192
125	0x3c8c0709	0.017093198
126	0xbddcab02	-0.10774805
127	0xbc4ca8a2	-0.012491377
128	0xbd1f52f3	-0.038897466
129	0xba295f32	-0.00064610236
130	0xbd82c577	-0.0638532
131	0xbc83b8b3	-0.016079282
132	0x3df32bc7	0.11873584
133	0xbb30d166	-0.002698028
134	0xbc921800	-0.01783371
135	0xbd99b31d	-0.07504866
136	0x3dcb7fde	0.09936498
137	0xbd9052c4	-0.07047036
138	0xbd29f464	-0.041492835
139	0xbd8dedf6	-0.06930153
140	0x3d0b929c	0.034075364
141	0xbcda7780	-0.02666831
142	0x3d7a42db	0.061098915
143	0xbd0e3138	-0.034714907
144	0xbdff96c9	-0.12479932
145	0xbd1f5569	-0.038899813
146	0xbd627f31	-0.05529708
147	0xbd97f4f4	-0.07419768
148	0xbd6ece4d	-0.058302213
149	0xbd91f71a	-0.07127209
150	0xbce01e33	-0.02735815
151	0xbc05186e	-0.0081235
152	0x3d0e1938	0.03469202
153	0xbd844bdf	-0.06459784
154	0xbb0529b3	-0.0020319044
155	0xbd652496	-0.055943094
156	0xbe25719d	-0.16156621
157	0xbd54444e	-0.051822953
158	0x3d1b7818	0.037956327
159	0xbca14453	-0.0196859
160	0x3ccd33dd	0.025049144
161	0xbd08c658	-0.03339228
162	0x3b7e78c8	0.0038829315
163	0xbde7ddc6	-0.11321597
164	0xbd2c114f	-0.042008694
165	0x3d241e9c	0.040068254
166	0x3b7d2e4f	0.0038632338
167	0xbca4e517	-0.02012877
168	0x3d6e7c38	0.058223933
169	0x3ca61367	0.020272924
170	0xbdb07919	-0.086168475
171	0xbde16641	-0.110058315
172	0x3cbfd40f	0.023416547
173	0xbbdb6c8d	-0.00669629
174	0xbd688f7a	-0.056777455
175	0xbca079f9	-0.019589411
176	0xbd4acb8c	-0.049510524
177	0x3c2a9a27	0.010412729
178	0xbda79bfb	-0.08184048
179	0xbd9a0b45	-0.07521681
180	0x3cdee397	0.027208133
181	0x3d736ab2	0.059427924
182	0x3c9f3acd	0.019437218
183	0xbdafa48d	-0.085763074
184	0xbdd3f830	-0.103500724
185	0xbccc9ffd	-0.024978632
186	0xbdc759b8	-0.09733909
187	0x3bcb7638	0.006209161
188	0xbe45a8a0	-0.19302607
189	0x3d2b0111	0.041749064
190	0x3e1f797c	0.15573686
191	0xbd75fd39	-0.060055945
192	0x3d4a97ee	0.049461298
193	0xbda43660	-0.08018184
194	0xbce62a96	-0.028096478
195	0x3e17f9dd	0.14841409
196	0x3c3bc5e2	0.011460753
197	0xbdc5502f	-0.096344344
198	0xbd2309b5	-0.03980418
199	0xbe769097	-0.24078594
200	0xbb3bf723	-0.002868124
201	0xbd1201b7	-0.035646167
202	0xbb15d5be	-0.0022862996
203	0xbe0bdf58	-0.13659418
204	0x3d63242b	0.055454414
205	0x3d9db2f4	0.07700148
206	0xbd0dccfc	-0.034619316
207	0xbdca4ce8	-0.0987795
208	0xbccfc209	-0.025361078
209	0xbd3751a1	-0.04475558
210	0xbd6c2e2e	-0.057661228
211	0xbd9a6c93	-0.0754024
212	0xbdd34089	-0.103150435
213	0x3c349616	0.011022111
214	0xbd62fad7	-0.055415
215	0xbd86fd76	-0.065913126
216	0xbdf39a00	-0.118946075
217	0x3becdc97	0.007228445
218	0xbd724cb4	-0.05915518
219	0x3b2e5df5	0.0026606296
220	0x3dd8e171	0.105898745
221	0x3d7f6a36	0.06235715
222	0xbd0a0644	-0.03369738
223	0x3ca2c785	0.019870529
224	0xbca41064	-0.020027347
225	0xbce6176f	-0.028087346
226	0x3cdbe559	0.02684276
227	0xbd10a846	-0.035316728
228	0xbd47ec16	-0.048809133
229	0xbd435a9f	-0.047693845
230	0xbdb792d4	-0.08963552
231	0x3c68179b	0.014165784
232	0xbdb859e6	-0.09001522
233	0xbdb8db95	-0.09026257
234	0xbd2a006e	-0.041504316
235	0x3de06a9e	0.109578356
236	0x3cb0d1c1	0.021584393
237	0x3d000b80	0.031260967
238	0x3cf4966e	0.029856887
239	0xbd11e235	-0.03561612
240	0x3d07bae8	0.033137232
241	0xbdecfa8f	-0.11571228
242	0x3caf63a2	0.021409813
243	0x3d7f659f	0.062352773
244	0xbdb0b8ab	-0.086289726
245	0xbd16c009	-0.036804233
246	0x3d607d20	0.05480683
247	0xbda42062	-0.08013989
248	0x3ce6c469	0.028169828
249	0xbda072c5	-0.078343906
250	0x3d917a5d	0.07103417
251	0x3ca752d9	0.020425247
252	0xbd136743	-0.03598715
253	0xbe2acbda	-0.16679326
254	0x3c67cdb2	0.014148163
255	0xbd54f9a0	-0.051995873

network_body.observation_encoder.processors.0.normalizer.running_mean f4 [6]
0	0xc145f209	-12.371591
1	0x41b9cba7	23.22444
2	0xc1931745	-18.386362
3	0xc2011f6c	-32.280685
4	0x3fb331fa	1.3999627
5	0xc28e5107	-71.15826
