Assets/Training/results/learn_v4/MarsTaxi/MarsTaxi-1999950.onnx (onnx, 542464 bytes, 10 tensors)

54 f4 [6]
27.406012 11.810702 56.720406 0.022876102 0.0012165545 0.050393026
00000000: 833f db41 a3f8 3c41 b2e1 6242 aa66 bb3c
00000010: cc74 9f3a eb68 4e3d

action_model._discrete_distribution.branches.0.bias f4 [6]
0.029023025 -0.007200819 -0.03587848 -0.008771744 0.012880055 -0.024400868
00000000: b2c1 ed3c d9f4 ebbb 50f5 12bd 5cb7 0fbc
00000010: de06 533c 54e4 c7bc

action_model._discrete_distribution.branches.0.weight f4 [6, 256]
-0.06602128 0.0035319938 0.025907166 -0.07581177 0.008055423 0.018942188 -0.05229508 0.03514155
0.021255359 0.008261034 0.032325204 0.016744634 0.015064852 0.039162792 0.035958175 -0.053579748
0.023088792 -0.028656242 -0.0033571424 0.0056573674 0.049288236 -0.011111201 -0.033561274 -0.013581953
-0.05166263 0.03863399 -0.06485674 -0.0037011201 -0.03998866 -0.03997277 0.038202375 0.032561503
0.029495364 0.031115044 -0.028481763 -0.05311688 0.037130523 0.017782763 0.039538074 0.0150124505
0.047170494 -0.022486255 0.0066107744 0.0009926666 -0.00020030474 0.04860732 0.016424181 0.03151355
0.006066982 -0.010643831 -0.008495335 -0.013560069 -0.026242217 0.0048304927 -0.032877266 -0.005500733
-0.03511072 -0.056035593 -0.04683396 -0.031692743 0.011531916 0.021334607 -0.014376747 0.01576263
0.03916154 0.008028479 -0.055590477 -0.048090834 0.003550556 -0.029728694 0.007575305 -0.0071247346
0.003074341 -0.014183327 -0.060797255 0.010490616 0.033631504 0.021716185 -0.03209912 0.042813096
-0.008986995 0.028076204 -0.05515752 -0.019784506 -0.058395475 -0.008184206 0.021899236 0.036901046
-0.034835745 -0.02828436 0.021791195 -0.036725458 -0.040804945 -0.028912406 0.014390671 -0.06499818
-0.016084574 -0.05313525 0.017617643 0.020738676 -0.053870577 -0.043709658 -0.042209312 -0.033669565
-0.07318626 -0.0593136 -0.042854175 0.003529059 -0.020752363 0.031129474 0.030623266 -0.025581298
-0.033326246 -0.06028325 -0.05827961 -0.01610685 0.031315446 0.014133454 -0.0497957 -0.054732427
-0.017680729 0.028095488 -0.0349161 -0.029474352 0.016224433 -0.013926364 0.004785371 -0.028028155
0.013466133 0.014093426 -0.011955179 -0.04934884 0.027659887 0.009493972 -0.062080298 -0.0062578595
-0.04244268 0.011589056 0.027807817 0.032888748 -0.04559462 -0.022545947 0.03848352 -0.009499283
-0.030534875 -0.029785728 -0.023155207 -0.05359573 0.0032119364 0.04550489 -0.07282851 0.007858767
0.020614713 -0.06861651 0.008241827 0.018561587 -0.05108377 -0.03814677 -0.0509837 -0.036385536
0.019694513 -0.043172795 -0.070811346 0.01962614 0.020297451 -0.0005606599 0.041729685 0.02054937
0.019543698 -0.07816617 -0.043054413 -0.04036475 0.02302815 -0.013712059 -0.0054126624 -0.017917505
-0.067012325 0.0087603275 -0.008499304 0.019391863 -0.0031807183 0.014502246 0.03916657 -0.007562081
0.036149453 -0.004076502 -0.062255524 0.030699903 0.014214879 0.032284833 -0.03450887 0.01982473
0.044278078 -0.009767045 -0.0031001982 -0.030803546 0.02196795 -0.037424337 -0.015046038 0.043690138
0.015032018 -0.067496166 0.041471567 0.04497415 0.057168473 -0.022301145 -0.003084053 0.03441919
-0.07039326 -0.056948863 -0.036812946 -0.058700606 0.05415403 0.0028192261 -0.052385934 -0.015322376
0.042462327 -0.06796801 -0.053082824 -0.06532297 0.024518522 -0.05666767 0.017336387 0.04035527
-0.052960757 0.049849577 0.0066711055 0.04106548 0.045329705 0.018811593 -0.0076025613 0.03923493
-0.055500697 0.040750194 -0.047850687 0.0009136444 0.020315249 0.04594687 -0.0026934731 0.038146578
0.020659242 0.012770657 -0.014474391 0.0014968081 0.005469326 0.022359686 -0.0066074 0.00436394
0.0018675148 -0.020986283 -0.040868133 0.017983431 -0.0065163416 0.02712407 -0.016985232 -0.061111595
00000000: 2a36 87bd 0679 673b 443b d43c 3443 9bbd
00000010: e5fa 033c a62c 9b3c 5e33 56bd 96f0 0f3d
00000020: b81f ae3c 4a59 073c 6f67 043d 0b2c 893c
00000030: 92d2 763c 2a69 203d e148 133d 7076 5bbd
00000040: b524 bd3c 7fc0 eabc 8103 5cbb 7061 b93b
00000050: 76e2 493d c10b 36bc 8c77 09bd d786 5ebc
00000060: 329c 53bd ad3e 1e3d 9cd3 84bd 7e8e 72bb
00000070: 26cb 23bd 7dba 23bd 187a 1c3d 365f 053d
00000080: 43a0 f13c fae4 fe3c 9652 e9bc 1691 59bd
00000090: 2d16 183d 28ad 913c adf2 213d c8f6 753c
000000a0: d935 413d 1835 b8bc 329f d83b 5d1c 823a
000000b0: e508 52b9 7818 473d 018c 863c 5a14 013d
000000c0: 89cd c63b 7763 2ebc 0430 0bbc 0d2b 5ebc
000000d0: ebf9 d6bc 1c49 9e3b 50aa 06bd 7e3f b4bb
000000e0: 42d0 0fbd 9485 65bd f7d4 3fbd 40d0 01bd
000000f0: 5df0 3c3c eac5 ae3c 738c 6bbc a220 813c
00000100: da67 203d e289 033c d7b2 63bd e5fa 44bd
00000110: 72b0 683b 9789 f3bc 443a f83b 9b76 e9bb
00000120: e27a 493b 2f61 68bc 8b06 79bd d5e0 2b3c
00000130: 30c1 093d 24e6 b13c 5e7a 03bd c95c 2f3d
00000140: 303e 13bc 1100 e63c daec 61bd 1e13 a2bc
00000150: 1830 6fbd 0c17 06bc 0766 b33c 8d25 173d
00000160: edaf 0ebd 9ab4 e7bc 7383 b23c 6f6d 16bd
00000170: 1623 27bd b6d9 ecbc d9c6 6b3c c41d 85bd
00000180: ccc3 83bc 59a4 59bd e052 903c 28e4 a93c
00000190: 65a7 5cbd e608 33bd ace3 2cbd 19e9 09bd
000001a0: aee2 95bd d1f2 72bd dc87 2fbd c947 673b
000001b0: dc00 aabc 3d03 ff3c a5dd fa3c df8f d1bc
000001c0: 1a81 08bd 92eb 76bd 9ab6 6ebd 83f2 83bc
000001d0: a044 003d 0190 673c 93f6 4bbd 1c2f 60bd
000001e0: 2dd7 90bc 8228 e63c 2f04 0fbd 3274 f1bc
000001f0: 1ae9 843c 672b 64bc 9ace 9c3b 4d9b e5bc
00000200: 0ea1 5c3c 1de8 663c a8df 43bc 0222 4abd
00000210: fd96 e23c 9b8c 1b3c e947 7ebd bb0e cdbb
00000220: 60d8 2dbd 06e0 3d3c 38cd e33c 5ab6 063d
00000230: 6dc1 3abd 47b2 b8bc e5a0 1d3d e1a2 1bbc
00000240: 4624 fabc 3301 f4bc fdaf bdbc 3287 5bbd
00000250: 5a7f 523b 5663 3a3d 1d27 95bd 0fc2 003c
00000260: 30e0 a83c d086 8cbd ba08 073c 780e 983c
00000270: 373d 51bd ca3f 1cbd 49d4 50bd 0009 15bd
00000280: 6356 a13c f5d5 30bd 8a05 91bd 00c7 a03c
00000290: d746 a63c 40f9 12ba bfec 2a3d 2757 a83c
000002a0: 1b1a a03c 9615 a0bd d359 30bd 8255 25bd
000002b0: 88a5 bc3c 8ba8 60bc b45c b1bb bbc7 92bc
000002c0: c23d 89bd 7a87 0f3c aa40 0bbc afdb 9e3c
000002d0: 9973 50bb d49a 6d3c 206d 203d 55cb f7bb
000002e0: 7311 143d 2d94 85bb a6ff 7ebd 5d7e fb3c
000002f0: 86e5 683c 1a3d 043d 2c59 0dbd 7967 a23c
00000300: ee5c 353d f505 20bc b22c 4bbb b857 fcbc
00000310: 21f6 b33c 434a 19bd a883 76bc 6ef4 323d
00000320: da48 763c 6e3b 8abd 17de 293d d036 383d
00000330: 7d29 6a3d e4b0 b6bc d31d 4abb 23fb 0c3d
00000340: 572a 90bd 3643 69bd 2cc9 16bd 0c70 70bd
00000350: 9ed0 5d3d c4c2 383b a292 56bd b40a 7bbc
00000360: faec 2d3d d032 8bbd 606d 59bd 0dc8 85bd
00000370: 11db c83c 5c1c 68bd 0a05 8e3c 914b 253d
00000380: 61ed 58bd 122f 4c3d 4a99 da3b 4734 283d
00000390: a4ab 393d c51a 9a3c e81e f9bb ceb4 203d
000003a0: b354 63bd ade9 263d 15ff 43bd a381 6f3a
000003b0: 2a6c a63c c932 3c3d fb84 30bb 963f 1c3d
000003c0: 923d a93c 053c 513c ff25 6dbc 8c30 c43a
000003d0: 0838 b33b a92b b73c e382 d8bb 62ff 8e3b
000003e0: 66c7 f43a 6deb abbc 5865 27bd fd51 933c
000003f0: 0987 d5bb 4c33 de3c 9d24 8bbc 2750 7abd

network_body._body_endoder.seq_layers.0.bias f4 [256]
0.069837466 0.065846786 -0.10244291 0.076192625 0.059090324 0.051752787 0.00090953434 0.047838952
0.07070436 0.01675203 0.062258035 0.05371053 0.05427435 0.072081126 -0.01693833 -0.008115173
0.046998173 0.09280077 0.069989085 0.03727325 -0.0031722158 0.074758194 -0.037069447 0.056101773
0.059150267 -0.026351111 0.032900743 0.048275482 0.03120199 0.08533286 0.03698801 0.048794642
0.079167984 0.074317716 0.04466317 0.03087513 -0.076537505 0.034305643 0.010772324 0.0921234
-0.010264239 0.024884054 0.08559389 0.06558392 -0.018379625 0.0035805288 0.06478396 0.01976205
0.053026006 -0.03443619 0.07236066 0.069117926 0.018978953 0.023868075 -0.007819159 0.052368302
0.045246534 0.09234669 0.049823444 0.073463306 0.048855014 0.051643085 0.08519039 0.037931904
-0.019209277 -0.03236484 0.035452332 0.055149768 0.038580358 0.0051895897 0.09873242 -0.012007357
0.033634555 0.08416143 0.085876375 0.045695167 0.07440491 0.08765958 -0.06585925 0.029180115
0.0029925844 0.016118139 -0.040433194 -0.0113403015 0.007465925 0.01684287 0.021502558 0.05425334
-0.075525284 0.06315269 -0.03946627 0.051943906 0.040194776 0.082068846 0.07346586 0.06885039
0.04485009 0.0811701 0.035126794 0.07615257 0.04497736 -0.08382912 0.09777817 0.08398929
0.056008305 0.02904354 -0.003795058 0.008513254 0.05591968 0.05437687 0.03692337 0.045614537
0.058606178 0.06939549 0.100377165 -0.026887605 0.08763773 0.016607933 0.053988952 -0.013266753
0.033453617 -0.008021101 0.082970895 0.08230267 0.073545404 0.018375814 0.059548948 0.06616622
0.08135659 0.05920045 -0.071535274 0.047383063 0.055758577 0.03077024 0.067172945 0.075515635
0.061677873 -0.028750818 0.06870456 -0.0039433325 0.055398513 0.020805707 0.04410722 0.034906358
0.052995596 -0.014477378 -0.016780635 0.0055211456 0.05052843 0.08011743 0.040636577 0.063248694
0.06889044 0.044936184 0.06970972 -0.04560666 0.07790706 0.037997 -0.042919584 0.09423456
0.031239212 0.073491 -0.006678639 0.045892987 0.00025024932 0.0041713305 0.03111131 0.02784746
-0.019940956 0.030567508 0.05775955 0.065645926 0.017358234 0.035965055 0.065768525 0.062062472
0.049832582 0.04110382 0.083421566 0.037423808 0.08144069 0.015353833 0.05223059 0.016540157
0.00018066737 0.047999643 0.048211697 0.046439648 0.08513005 0.012568983 0.060699236 -0.0146937715
0.0076991133 0.06346703 0.074084535 0.038662944 0.07008666 0.05594676 0.09491758 0.05198928
0.02106605 0.051766865 0.033903077 0.01100932 0.028123261 0.055107776 0.0601336 0.023887822
0.04663191 0.060952682 0.086635835 0.027602138 0.064201176 0.056265604 0.043919858 0.06505141
0.03320357 0.019643731 0.082170665 0.09897449 0.08956543 0.018258119 0.0998369 -0.034765176
0.059573285 0.065375045 0.06760135 0.05925003 0.054899145 0.03130848 -0.034119885 0.060992036
0.09486032 0.086176485 0.03341057 0.072650954 0.0984512 0.050734464 -0.008003014 0.04656435
0.028396389 0.05196746 -0.061625324 0.021758027 0.05709151 0.028670844 0.026717296 0.0632071
0.019549318 0.033306763 0.032283287 0.054277904 0.03737514 0.05247496 0.016172059 0.07746654
00000000: f206 8f3d aeda 863d 97cd d1bd e10a 9c3d
00000010: b208 723d bbfa 533d d16d 6e3a c7f2 433d
00000020: 73cd 903d 8e3b 893c 4802 7f3d 93ff 5b3d
00000030: c84e 5e3d 459f 933d 41c2 8abc 81f5 04bc
00000040: 2881 403d 550e be3d 7056 8f3d d6ab 183d
00000050: f3e4 4fbb d31a 993d 22d6 17bd f9ca 653d
00000060: 8d47 723d 49de d7bc eec2 063d 83bc 453d
00000070: 519b ff3c ffc2 ae3d bd80 173d e4dc 473d
00000080: d322 a23d e333 983d baf0 363d d7ed fc3c
00000090: b2bf 9cbd 1384 0c3d 677e 303c 31ab bc3d
000000a0: 572b 28bc a5d9 cb3c d94b af3d dd50 863d
000000b0: de90 96bc 4ea7 6a3b 74ad 843d 06e4 a13c
000000c0: cc31 593d f60c 0dbd d331 943d b38d 8d3d
000000d0: c079 9b3c fb86 c33c ee1b 00bc 2580 563d
000000e0: 6e54 393d 4320 bd3d ab13 4c3d ee73 963d
000000f0: 321c 483d b387 533d 4d78 ae3d 7c5e 1b3d
00000100: c65c 9dbc ff90 04bd 7736 113d b9e4 613d
00000110: 7006 1e3d 6f0d aa3b 3934 ca3d 81ba 44bc
00000120: 63c4 093d d45c ac3d f4df af3d db2a 3b3d
00000130: 9a61 983d de86 b33d 37e1 86bd 230b ef3c
00000140: 3c1f 443b 300a 843c 479d 25bd accc 39bc
00000150: b8a4 f43b 0ffa 893c 2226 b03c c038 5e3d
00000160: 00ad 9abd 3356 813d 62a7 21bd 22c3 543d
00000170: 47a3 243d b613 a83d 4575 963d 6f01 8d3d
00000180: bab4 373d 823c a63d 1de1 0f3d e1f5 9b3d
00000190: 2e3a 383d 9aae abbd ec3f c83d 9402 ac3d
000001a0: f768 653d b8ec ed3c 82b6 78bb 2d7b 0b3c
000001b0: 090c 653d 48ba 5e3d f63c 173d 4fd6 3a3d
000001c0: 080d 703d 391f 8e3d 8b92 cd3d 6543 dcbc
000001d0: 697b b33d 5c0d 883c 8523 5d3d cc5c 59bc
000001e0: a906 093d f06a 03bc a5ec a93d 4d8e a83d
000001f0: f99e 963d e088 963c 99e9 733d 2882 873d
00000200: 499e a63d 2c7c 723d 1681 92bd be14 423d
00000210: 1b63 643d df11 fc3c f891 893d f1a7 9a3d
00000220: f0a1 7c3d d686 ebbc fab4 8c3d 1237 81bb
00000230: 8de9 623d bb70 aa3c c6a9 343d f8f9 0e3d
00000240: e911 593d 8632 6dbc 8b77 89bc baea b43b
00000250: e6f6 4e3d 9b14 a43d 8a72 263d 8888 813d
00000260: 6e16 8d3d 010f 383d f8c3 8e3d 0dce 3abd
00000270: bd8d 9f3d bea2 1b3d 72cc 2fbd 0dfe c03d
00000280: 60e9 ff3c 7382 963d 7cd8 dabb 49fa 3b3d
00000290: e533 8339 a8af 883b 25dd fe3c 5b20 e43c
000002a0: 375b a3bc b668 fa3c 4795 6c3d 5f71 863d
000002b0: db32 8e3c 1850 133d a6b1 863d 3835 7e3d
000002c0: 401d 4c3d 7b5c 283d edd8 aa3d b549 193d
000002d0: 60ca a63d a58e 7b3c beef 553d 397f 873c
000002e0: 8771 3d39 469b 443d a179 453d 8037 3e3d
000002f0: aa58 ae3d 23ee 4d3c c39f 783d 25be 70bc
00000300: d848 fc3b 01fb 813d a2b9 973d 095d 1e3d
00000310: 9889 8f3d 6e28 653d 2664 c23d b6f2 543d
00000320: b592 ac3c 7e09 543d f4dd 0a3d 6f60 343c
00000330: c162 e63c b1b8 613d a64e 763d 65b0 c33c
00000340: 1a01 3f3d 85a9 793d 216e b13d e11d e23c
00000350: e87b 833d c376 663d 4fe5 333d ac39 853d
00000360: 7700 083d e4eb a03c 1849 a83d 23b3 ca3d
00000370: 156e b73d 0d92 953c 4a77 cc3d ee65 0ebd
00000380: 1e03 743d 5ae3 853d 9472 8a3d 29b0 723d
00000390: eddd 603d 523d 003d 4bc1 0bbd c9d2 793d
000003a0: 2146 c23d 4c7d b03d 86d9 083d 06ca 943d
000003b0: c8a0 c93d f1ce 4f3d 131f 03bc 43ba 3e3d
000003c0: 8b9f e83c d5db 543d d66a 7cbd e43d b23c
000003d0: cad8 693d 1edf ea3c 3bde da3c b972 813d
000003e0: e425 a03c ac6c 083d 7b3b 043d 8252 5e3d
000003f0: ad16 193d fcef 563d 447b 843c c7a6 9e3d

network_body._body_endoder.seq_layers.0.weight f4 [256, 6]
0.5853689 0.3881724 0.38428402 0.66398036 0.09700377 -0.66920614 -0.20123355 0.5665852
0.6492268 0.57019925 -0.49557665 -0.24469939 0.077981144 -0.24635957 0.020952966 0.36150512
0.36073148 0.62481254 0.61156654 -0.15696612 0.44373748 -0.4831831 0.030053321 0.59225726
0.0011089428 0.2817979 0.30464774 0.077590086 0.38230258 0.17194681 -0.06633708 0.42372864
-0.50025207 -0.79653233 0.0060326816 -0.22636837 -0.06660897 0.9273682 -0.18783468 -0.080306396
0.23125778 0.1973422 -0.37872925 -0.45037246 0.0860459 -0.499719 1.0309076 -0.30359396
-0.17176695 0.1362974 0.47738093 0.1973676 0.18652378 -0.0047437656 -0.4312482 -0.35115403
-0.37280574 0.04304134 -0.19510679 -0.5673047 -0.7903392 -0.10670912 0.035326134 0.08869926
0.36414272 -0.1874396 0.12598765 -0.48949963 0.54877317 -0.06564792 -0.21583974 0.6532833
-0.17749776 -0.08015383 0.046736658 0.06619913 0.4282914 -0.4698884 -0.69119287 -0.13224739
0.15254904 -0.19179633 0.47385314 -0.59297156 0.018162627 -0.2856119 0.13722484 -0.023082446
0.05881074 -0.6156682 -0.12508285 -0.42831424 0.09000947 0.44328424 -0.18443003 0.3027402
-0.489269 -0.005742074 -0.82377034 -0.16276796 0.08382321 0.13540734 -1.0744998 0.31940946
-0.16247961 -0.13860129 -0.09265771 -0.25042042 -0.6067621 0.26312095 0.43514204 -0.44917506
0.23826526 -0.3030859 -0.61167884 -0.5499228 -0.55499107 0.011597667 0.065513715 0.06192089
0.37031505 -0.013886789 0.11926573 -0.18794286 -0.25834778 0.1519886 -0.75151324 0.2807199
-0.18863375 -0.1746575 -0.083921224 -0.97358334 0.15924047 0.13662694 0.15620059 -0.204878
0.505081 -0.19803509 0.2540841 -0.15915523 -0.45320353 -0.10023248 0.55687463 0.08719395
0.03529962 0.8778627 -0.87067366 -0.5969482 0.10760493 0.7548636 0.24343926 0.14595039
0.292865 0.22470279 -0.8631314 0.6030456 -0.18765393 0.48782042 0.24963434 0.0020436926
0.34814367 0.6491203 0.09542573 -0.64451677 -0.7219315 -0.10469389 -0.1895333 0.14915605
-0.28610024 -1.0293407 -1.0361379 0.13901098 -0.26498625 0.2530481 -0.3655535 0.79926276
0.5929427 -0.3837056 0.22408402 -0.64322186 0.31378347 -0.39792815 -0.7470359 -0.5090016
-0.6611749 0.9089945 0.41373587 -0.86286706 0.40289178 -0.9047026 0.42872834 0.00011400192
0.113980986 0.1443162 0.4214495 0.120204374 0.04585377 -0.25221285 0.22120859 -0.23876762
0.16302077 0.028642606 0.40307182 -0.30158797 0.01295211 -0.110938594 0.024574073 -0.25380936
-0.28433427 -0.014031484 -0.5268098 -0.75397944 -0.30506957 0.18963839 0.15779306 0.93993616
-0.0031437038 -0.2556469 0.1858509 0.3573641 0.14415498 0.39619964 0.36356723 -0.75702935
0.100273244 -0.063677154 -0.36635086 0.38417405 -0.24448448 -0.66657746 0.12104329 -0.70326555
-0.23416004 0.7506675 0.4637054 0.3128519 -0.30827564 -0.5151311 -0.030232402 -0.28931525
-0.041131366 0.43056566 -0.1322644 0.534214 0.2458617 0.37915164 0.072453246 0.9105959
-0.27854773 0.36139533 0.33312994 0.6062734 0.23438081 0.5330958 0.966435 0.5813662
00000000: bcda 153f 88be c63e e0c0 c43e 9efa 293f
00000010: eaa9 c63d 1851 2bbf 2b10 4ebe ba0b 113f
00000020: ba33 263f 94f8 113f 39bc fdbe 7a92 7abe
00000030: 94b4 9f3d af45 7cbe 8ea5 ab3c 3317 b93e
00000040: ccb1 b83e b7f3 1f3f a08f 1c3f babb 20be
00000050: 8f31 e33e c663 f7be 6232 f63c 2c9e 173f
00000060: f259 913a d047 903e cafa 9b3e 8de7 9e3d
00000070: 2abd c33e d312 303e bcdb 87bd f6f2 d83e
00000080: 8510 00bf 8be9 4bbf cdad c53b 1ccd 67be
00000090: 496a 88bd 0168 6d3f bc57 40be ae77 a4bd
000000a0: d7ce 6c3e 1314 4a3e cde8 c1be 3897 e6be
000000b0: d538 b03d 2bdb ffbe c8f4 833f ab70 9bbe
000000c0: ade3 2fbe 8c91 0b3e 466b f43e bb1a 4a3e
000000d0: 1700 3f3e 9771 9bbb 90cc dcbe 76ca b3be
000000e0: 65e0 bebe 1e4c 303d 13ca 47be e13a 11bf
000000f0: ab53 4abf 508a dabd 23b2 103d f5a7 b53d
00000100: ea70 ba3e 2bf0 3fbe e802 013e b29f fabe
00000110: 667c 0c3f 6b72 86bd 1805 5dbe 933d 273f
00000120: f9c1 35be b127 a4bd f06e 3f3d 6993 873d
00000130: 0349 db3e 3695 f0be 04f2 30bf dc6b 07be
00000140: d135 1c3e 4266 44be e19c f23e fccc 17bf
00000150: cac9 943c b93b 92be ab84 0c3e 6617 bdbc
00000160: 88e3 703d 6e9c 1dbf b815 00be 014c dbbe
00000170: e356 b83d 27f6 e23e 3adb 3cbe c300 9b3e
00000180: 7781 fabe 0228 bcbb 9de2 52bf a5ac 26be
00000190: 81ab ab3d 39a8 0a3e 3689 89bf a389 a33e
000001a0: 0e61 26be 7fed 0dbe 53c3 bdbd 1b37 80be
000001b0: c354 1bbf cab7 863e f0ca de3e 46fa e5be
000001c0: cffb 733e 132e 9bbe fc96 1cbf bec7 0cbf
000001d0: e513 0ebf 2404 3e3c 0e2c 863d c2a0 7d3d
000001e0: ef99 bd3e 6a85 63bc 9741 f43d 1874 40be
000001f0: 2946 84be e6a2 1b3e 2c63 40bf 85ba 8f3e
00000200: 3529 41be 6ad9 32be e4de abbd c23c 79bf
00000210: ef0f 233e efe7 0b3e 0cf3 1f3e 8acb 51be
00000220: fd4c 013f b6c9 4abe 5017 823e 97f9 22be
00000230: 4b0a e8be b046 cdbd 568f 0e3f be92 b23d
00000240: 5696 103d 9cbb 603f 78e4 5ebf 99d1 18bf
00000250: f95f dc3d be3e 413f 2448 793e 0574 153e
00000260: 67f2 953e 7d18 663e 2ef6 5cbf 3261 1a3f
00000270: 5a28 40be 99c3 f93e 25a0 7f3e 79ef 053b
00000280: e33f b23e bf2c 263f 916e c33d 0dff 24bf
00000290: 81d0 38bf c069 d6bd 0415 42be 5dbc 183e
000002a0: bb7b 92be 70c1 83bf 2ba0 84bf e558 0e3e
000002b0: 47ac 87be 858f 813e d429 bbbe 7c9c 4c3f
000002c0: 18cb 173f 0f75 c4be 4876 653e 30aa 24bf
000002d0: 3aa8 a03e 3dbd cbbe bf3d 3fbf ee4d 02bf
000002e0: c242 29bf ddb3 683f 30d5 d33e dbe4 5cbf
000002f0: d547 ce3e 979a 67bf 4882 db3e 5114 ef38
00000300: dd6e e93d a0c7 133e 3bc8 d73e b62d f63d
00000310: 2ad1 3b3d 0b22 81be 8184 623e 807f 74be
00000320: ebee 263e e6a3 ea3c 6e5f ce3e bd69 9abe
00000330: 1635 543c c633 e3bd 914f c93c 4df3 81be
00000340: 4394 91be 4fe4 65bc 02dd 06bf cc04 41bf
00000350: 1432 9cbe 9130 423e 8194 213e a89f 703f
00000360: 9906 4ebb 27e4 82be b34f 3e3e 6df8 b63e
00000370: 5d9d 133e aeda ca3e 7c25 ba3e adcc 41bf
00000380: 0f5c cd3d 2b69 82bd 5792 bbbe 76b2 c43e
00000390: 245a 7abe d2a4 2abf 8be5 f73d 3609 34bf
000003a0: a6c7 6fbe bf2b 403f cb6a ed3e 202e a03e
000003b0: 4ed6 9dbe a2df 03bf f1a9 f7bc 2121 94be
000003c0: 5d79 28bd 1a73 dc3e 5270 07be 40c2 083f
000003d0: 2bc3 7b3e 2a20 c23e 5e62 943d d01c 693f
000003e0: cf9d 8ebe cf08 b93e 0290 aa3e bc34 1b3f
000003f0: 8601 703e f778 083f 4968 773f 6ad4 143f

network_body._body_endoder.seq_layers.2.bias f4 [256]
0.0009514746 0.054405738 0.0061215097 -0.05689635 0.04129437 0.027802108 0.07381243 0.09626967
-0.057952046 0.02015982 -0.08524845 0.073250435 0.024898624 -0.100756474 -0.00071918115 -0.08425177
0.04406865 0.02759072 -0.029786985 0.008466068 -0.09708637 0.036438316 0.03756241 -0.08615488
-0.08910893 0.021998087 0.010377648 -0.106688686 -0.08798864 0.06940643 0.033830017 0.046799928
-0.0808184 0.058979314 0.03040868 0.008717362 0.030628609 -0.09484329 0.09563611 0.027501758
-0.0116380965 0.006298035 -0.0060433107 -0.025425551 0.037616238 0.08269899 0.018767664 0.026093774
0.030193716 -0.09775346 0.02977119 -0.004363129 -0.039676037 -0.017657628 -0.05917859 0.08172452
-0.030879319 -0.10173901 -0.09690292 0.01863866 0.030974008 0.0062250686 -0.08519589 -0.0901453
0.03377898 -0.08569993 0.07815235 0.042618476 0.045123387 0.032376748 -0.020168258 -0.06578694
0.08606377 -0.035981696 -0.013197615 0.02280504 0.06949927 -0.10374404 -0.08362009 0.03253966
0.03547523 -0.033394434 0.060252964 0.05483646 0.04646168 -0.08634826 0.03813836 0.04005469
0.08084612 0.048749197 0.0034496535 0.031314865 0.052880567 -0.032828186 -0.09247049 0.0007458683
-0.028760694 0.019642655 0.026478376 0.057424936 0.019649098 0.011333369 0.058550652 0.030358134
0.04041487 -0.035442922 -0.105740964 -0.02892123 0.046420157 0.05054423 0.02601165 -0.09078508
0.05986189 0.07675508 0.0340438 0.05227138 0.06116036 0.039830737 -0.0687872 0.09600998
0.06606543 0.040913057 -0.090845056 0.01002723 -0.036183972 0.04136949 -0.058765594 -0.026410619
-0.015286314 0.020271704 -0.09682377 0.032931093 -0.06732802 0.075198874 0.027224338 0.006576538
0.08164926 0.012500116 -0.04926587 0.029388882 0.05727797 -0.065634646 0.044951335 0.030906472
0.018620567 0.009992171 -0.0041786944 0.025887417 0.024988621 0.035091955 -0.039208956 -0.07346836
-0.02150973 -0.008894287 0.035157867 0.030076057 -0.050003573 0.037325546 -0.022284696 0.014967915
-0.09406587 0.03723397 0.032934606 0.0699762 -0.02403359 -0.025248513 0.018622823 -0.008130586
0.042073097 0.043645076 -0.01445084 0.04285333 0.03630724 0.008115945 0.06352363 -0.0012505694
-0.0612996 0.012750219 0.018496756 -0.010992422 0.042722538 -0.08021629 0.044343084 -0.04864822
0.04706964 0.03594845 0.06368149 -0.00028924385 -0.0017253938 0.028992862 -0.012724243 0.009102932
0.04922744 -0.01971265 0.024229072 -0.015651414 0.04987682 -0.10653359 -0.074062616 0.030762734
0.006577495 -0.08187714 0.02853222 0.063515306 0.072141916 -0.004328585 -0.020347282 0.06524701
-0.07734483 -0.045465454 0.057865717 0.038524035 0.038601723 0.025005888 -0.028403196 -0.008639495
0.033517152 0.05070912 -0.02594879 -0.10988105 -0.09226285 -0.095831566 -0.06260686 0.040304735
-0.02935544 -0.079397105 0.07853252 0.08247592 0.023071455 0.010543876 0.078363806 0.043229464
0.010551355 0.0064055007 -0.03460401 0.038147338 -0.0131009035 0.019397547 0.03317654 0.010019517
0.052190196 0.0075447722 -0.106351554 -0.09406692 0.023163307 0.02033401 0.06379509 0.027249968
0.044652116 -0.017790547 0.0058409525 0.028383695 0.027394742 0.014153193 0.0061572082 0.02599816
00000000: 616c 793a 8dd8 5e3d f296 c83b 260c 69bd
00000010: 4924 293d 3fc1 e33c f92a 973d 0829 c53d
00000020: 205f 6dbd 3526 a53c bd96 aebd 5304 963d
00000030: 33f8 cb3c 6959 cebd 6e87 3cba 318c acbd
00000040: 5481 343d ef05 e23c d603 f4bc 43b5 0a3c
00000050: 38d5 c6bd 5840 153d 0bdb 193d f871 b0bd
00000060: be7e b6bd 5535 b43c 0307 2a3c 997f dabd
00000070: 6333 b4bd f524 8e3d 5891 0a3d 48b1 3f3d
00000080: 1e84 a5bd 4b94 713d a01b f93c 44d3 0e3c
00000090: d9e8 fa3c 333d c2bd dddc c33d 5e4b e13c
000000a0: b7ad 3ebc bf5f ce3b f706 c6bb 3f49 d0bc
000000b0: 7c13 1a3d 175e a93d a5be 993c 9cc2 d53c
000000c0: d058 f73c f732 c8bd b6e2 f33c 94f8 8ebb
000000d0: 5783 22bd bba6 90bc 4065 72bd 2f5f a73d
000000e0: a0f6 fcbc 8b5c d0bd 0a75 c6bd 1ab0 983c
000000f0: 34bd fd3c a9fb cb3b 2f7b aebd 199e b8bd
00000100: d45b 0a3d 7283 afbd 570e a03d b690 2e3d
00000110: 4dd3 383d 7b9d 043d e737 a5bc 4ebb 86bd
00000120: 3442 b03d 8b61 13bd cf3a 58bc a3d1 ba3c
00000130: a255 8e3d c177 d4bd 0241 abbd 4e48 053d
00000140: 7a4e 113d 9ac8 08bd d0cb 763d 329c 603d
00000150: 9a4e 3e3d 5bd7 b0bd f836 1c3d 6310 243d
00000160: a792 a53d 3dad 473d 9513 623b 0444 003d
00000170: 4b99 583d d976 06bd 2b61 bdbd 6086 433a
00000180: 8c9b ebbc a2e9 a03c 2ee9 d83c 6936 6b3d
00000190: 25f7 a03c 98af 393c cfd2 6f3d 9fb1 f83c
000001a0: 108a 253d 992c 11bd b88e d8bd 37ec ecbc
000001b0: 1023 3e3d 7707 4f3d 6216 d53c 87ed b9bd
000001c0: be31 753d c431 9d3d 8371 0b3d 841a 563d
000001d0: 4983 7a3d 8e25 233d 4ee0 8cbd e1a0 c43d
000001e0: 504d 873d 7394 273d f90c babd 4049 243c
000001f0: a535 14bd 0e73 293d 31b4 70bd 155b d8bc
00000200: 7373 7abc d810 a63c 8a4b c6bd c1e2 063d
00000210: 46e3 89bd de01 9a3d 9305 df3c 0080 d73b
00000220: ba37 a73d 49cd 4c3c 02cb 49bd f4c0 f03c
00000230: 4e9c 6a3d 756b 86bd e41e 383d 922f fd3c
00000240: 298a 983c 34b6 233c 6eed 88bb d911 d43c
00000250: f0b4 cc3c 95bc 0f3d 9299 20bd 9476 96bd
00000260: 2c35 b0bc 58b9 11bc b201 103d 1062 f63c
00000270: 8cd0 4cbd ace2 183d 658e b6bc fc3b 753c
00000280: 9ba5 c0bd a682 183d 70e6 063d af4f 8f3d
00000290: 17e2 c4bc f8d5 cebc e48e 983c 2636 05bc
000002a0: d754 2c3d 2ec5 323d 37c3 6cbc f986 2f3d
000002b0: e7b6 143d bef8 043c ad18 823d 25ea a3ba
000002c0: 4a15 7bbd 4be6 503c 8286 973c 8f19 34bc
000002d0: d4fd 2e3d 7048 a4bd 18a1 353d 5b43 47bd
000002e0: 18cc 403d af3e 133d 716b 823d a7a5 97b9
000002f0: 9c26 e2ba 7082 ed3c 5879 50bc 7724 153c
00000300: b6a2 493d 6c7c a1bc 0c7c c63c 6537 80bc
00000310: a34b 4c3d 482e dabd 24ae 97bd 2102 fc3c
00000320: 0788 d73b 34af a7bd 67bc e93c 5014 823d
00000330: 24bf 933d ced6 8dbb 58af a6bc 39a0 853d
00000340: f766 9ebd fc39 3abd 9a04 6d3d 61cb 1d3d
00000350: d71c 1e3d 26d9 cc3c d2ad e8bc ab8c 0dbc
00000360: 4849 093d 5eb4 4f3d 8f92 d4bc 5109 e1bd
00000370: 4ef4 bcbd 5743 c4bd 0738 80bd 9416 253d
00000380: d27a f0bc f39a a2bd a8d5 a03d 23e9 a83d
00000390: 5900 bd3c 39c0 2c3c 347d a03d 6111 313d
000003a0: 97df 2c3c 3ce5 d13b efbc 0dbd 6240 1c3d
000003b0: 2ca5 56bc 9be7 9e3c 20e4 073d e628 243c
000003c0: 63c5 553d 233a f73b d8ce d9bd 28a6 c0bd
000003d0: fac0 bd3c 8293 a63c 00a7 823d 533b df3c
000003e0: 23e5 363d 7bbd 91bc 7665 bf3b ec84 e83c
000003f0: f06a e03c cbe2 673c 68c2 c93b 18fa d43c

network_body._body_endoder.seq_layers.2.weight f4 [256, 256]
0.09226702 0.06416676 -0.07281028 -0.19234557 -0.0015211358 0.17995885 0.07902679 0.00788226
-0.07713518 -0.091175176 0.10600171 -0.038092937 0.032107823 0.095925204 0.04552777 -0.08705828
0.025210204 -0.055361047 -0.05757247 0.013060243 -0.101446755 -0.0011850954 -0.0667562 0.001440425
-0.016532775 0.115408346 -0.029538834 0.033268884 0.113243334 -0.16303036 0.055484507 -0.042013913
-0.0038416923 0.06437705 0.05169742 0.09157372 -0.013004643 0.10868314 0.005183185 0.06549195
-0.042527173 -0.03025882 -0.04482479 -0.10464114 0.07886817 0.072107956 -0.006629408 0.10014053
0.040565252 0.048059497 0.0077505964 -0.05012123 0.066135325 -0.021010078 0.03500371 0.003596967
-0.029577978 -0.031437542 -0.014783368 0.022371968 -0.054429483 0.06531872 -0.042558122 -0.14221449
0.09641369 -0.07670266 0.033351745 0.0526175 -0.050522693 -0.02782779 -0.06337503 0.16511118
0.001980914 0.0033785189 -0.010679326 -0.09246121 -0.043795183 -0.013586656 -0.015531005 8.1979124e-05
-0.062576525 0.08521279 -0.01511474 -0.079687715 -0.09137236 0.12402567 -0.037205976 0.033577595
0.10212046 0.0070516355 -0.04286922 -0.06520022 0.16317478 -0.13692176 -0.044986334 -0.011517934
0.05525032 -0.091487415 0.024777878 0.079113424 0.1602607 -0.07032961 -0.03271486 -0.08242115
-0.03522248 -0.042806983 0.049664266 -0.03577218 -0.035135724 0.1321556 0.07818325 -0.04723443
-0.024225926 0.029888645 -0.04826183 -0.033185758 -0.019666877 0.08099327 0.048754916 -0.0495568
-0.009267205 0.09816478 0.037314802 -0.054625683 -0.05133031 0.024075404 0.06369889 -0.12676114
-0.002795898 -0.04040509 0.14123267 -0.08728278 0.1067918 0.066041976 0.00906018 -0.023619944
0.10882439 -0.038403027 0.10389577 0.082993194 0.040814217 -0.067322634 -0.024270484 0.10933362
-0.06456764 0.052952837 -0.01905943 0.065382555 0.041638292 -0.018742535 -0.0441966 -0.056327213
-0.09112715 -0.031517245 -0.03789635 -0.02194627 0.058147553 0.025183333 -0.06799956 -0.06171154
0.0036191654 0.007944159 0.028865356 -0.037366904 0.11541402 0.033445034 0.005960151 -0.061019707
0.0785398 0.07321388 -0.08723179 -0.02744851 0.04491926 -0.10441811 -0.10413432 0.025953261
-0.09097921 -0.032773253 -0.032156035 -0.07304558 -0.08089938 -0.05420068 -0.0462697 0.23703076
0.0019238212 0.10623343 -0.09221964 0.08104397 -0.04397213 -0.09842162 -0.09323929 -0.044340685
-0.043820582 0.0595433 -0.024327058 -0.068206325 -0.017122691 0.047065604 -0.01263956 0.08775822
0.124593385 0.034846455 -0.036043666 0.006599553 0.008859658 -0.038266346 -0.030102648 0.029589929
0.096288845 0.0030693698 -0.0021199759 0.010860258 -0.14979583 0.0060023274 0.036153365 -0.081937484
0.05627229 0.027887063 0.033244636 -0.09628465 -0.034664974 -0.05114055 -0.013268786 -0.036906626
-0.08123985 -0.012294383 -0.100050405 -0.0030252433 0.04156335 -0.11274714 -0.14822826 -0.09163053
-0.15235412 -0.039786067 0.16606101 0.014415397 -0.038087033 0.075020514 -0.09235851 0.07522873
-0.0266273 -0.026735896 0.08215448 0.05419836 0.08638101 -0.00453483 -0.07044263 0.052374892
-0.07292392 -0.11228968 -0.102549665 -0.0027169287 -0.086609825 0.08106903 -0.04152832 0.07250599
00000000: 7ef6 bc3d dd69 833d 8e1d 95bd 3df6 44be
00000010: d960 c7ba 2247 383e ccd8 a13d 9824 013c
00000020: 0df9 9dbd 0dba babd 6d17 d93d 5707 1cbd
00000030: 7e83 033d 6f74 c43d 547b 3a3d 9d4b b2bd
00000040: a185 ce3c 44c2 62bd 1cd1 6bbd a1fa 553c
00000050: 51c3 cfbd 3455 9bba 79b7 88bd a5cc bc3a
00000060: be6f 87bc 365b ec3d 6dfb f1bc f444 083d
00000070: 1fec e73d 6ef1 26be b943 633d c816 2cbd
00000080: e7c4 7bbb 1dd8 833d adc0 533d 018b bb3d
00000090: 6d11 55bc 4495 de3d b5d7 a93b a520 863d
000000a0: f930 2ebd 58e1 f7bc 339a 37bd 184e d6bd
000000b0: a385 a13d 56ad 933d 813b d9bb 7a16 cd3d
000000c0: c027 263d 09da 443d b7f8 fd3b eb4b 4dbd
000000d0: f571 873d 541d acbc 0d60 0f3d 18bb 6b3b
000000e0: 844d f2bc a7c4 00bd f135 72bc 6b45 b73c
000000f0: 73f1 5ebd d2c5 853d 6d51 2ebd ada0 11be
00000100: 8a74 c53d 4916 9dbd d79b 083d 7385 573d
00000110: e2f0 4ebd 1bf7 e3bc c5ca 81bd e812 293e
00000120: 39d2 013b 246a 5d3b 57f8 2ebc 4e5c bdbd
00000130: 9462 33bd 919a 5ebc c275 7ebc 35ec ab38
00000140: 1f28 80bd 0b84 ae3d d0a3 77bc 5033 a3bd
00000150: 6f21 bbbd 2c01 fe3d 4b65 18bd a988 093d
00000160: 8824 d13d 6811 e73b a397 2fbd b187 85bd
00000170: 4a17 273e 3835 0cbe 9743 38bd b7b5 3cbc
00000180: 294e 623d c15d bbbd fafa ca3c 3806 a23d
00000190: 621b 243e f808 90bd 0400 06bd 6bcc a8bd
000001a0: 7245 10bd 6056 2fbd c26c 4b3d d985 12bd
000001b0: 7aea 0fbd cc53 073e 8a1e a03d e478 41bd
000001c0: 7375 c6bc 08d9 f43c 32ae 45bd caed 07bd
000001d0: 6e1c a1bc cddf a53d 3cb3 473d 12fc 4abd
000001e0: 7ad5 17bc 9e0a c93d 68d7 183d 2ebf 5fbd
000001f0: bb3f 52bd c839 c53c 9074 823d accd 01be
00000200: 623b 37bb cf7f 25bd 4c9f 103e 50c1 b2bd
00000210: a9b5 da3d 0441 873d 2671 143c 9d7e c1bc
00000220: 52df de3d 7e4c 1dbd 4ec7 d43d 56f8 a93d
00000230: cf2c 273d 73e0 89bd e5d2 c6bc 4eea df3d
00000240: 0a3c 84bd 13e5 583d 8622 9cbc 4ae7 853d
00000250: ea8c 2a3d f289 99bc 7e07 35bd 5db7 66bd
00000260: dfa0 babd 3a18 01bd 3439 1bbd aac8 b3bc
00000270: 212c 6e3d 474d ce3c 5a43 8bbd 3dc5 7cbd
00000280: 852f 6d3b 3828 023c 0a77 ec3c 0a0e 19bd
00000290: 305e ec3d a9fd 083d 5f4d c33b cdef 79bd
000002a0: 7ad9 a03d 29f1 953d 95a6 b2bd b3db e0bc
000002b0: 42fd 373d 29d9 d5bd 6044 d5bd ef9b d43c
000002c0: 4f53 babd 3f3d 06bd 0cb6 03bd ec98 95bd
000002d0: 93ae a5bd 8801 5ebd 4c85 3dbd 31b8 723e
000002e0: ba28 fc3a ea90 d93d a7dd bcbd 62fa a53d
000002f0: 1f1c 34bd 4691 c9bd 3ef4 bebd 949e 35bd
00000300: 367d 33bd ade3 733d 8a49 c7bc c2af 8bbd
00000310: e344 8cbc ddc7 403d 2816 4fbc 95ba b33d
00000320: d12a ff3d 28bb 0e3d 86a2 13bd 1041 d83b
00000330: 1928 113c 2cbd 1cbd d499 f6bc 9466 f23c
00000340: 1633 c53d 7b27 493b 4bef 0abb 39ef 313c
00000350: 1464 19be 2caf c43b 8d15 143d d7ce a7bd
00000360: c67d 663d 6973 e43c 872b 083d e330 c5bd
00000370: dcfc 0dbd c178 51bd 5265 59bc 672b 17bd
00000380: 1461 a6bd 616e 49bc 3ae7 ccbd 2943 46bb
00000390: 553e 2a3d f9e7 e6bd 26c9 17be caa8 bbbd
000003a0: b802 1cbe b7f6 22bd e60b 2a3e 8f2e 6c3c
000003b0: 2601 1cbd 5ba4 993d 7526 bdbd 8511 9a3d
000003c0: 7f21 dabc 3d05 dbbc 9c40 a83d 19ff 5d3d
000003d0: 87e8 b03d e998 94bb 3a44 90bd 0e87 563d
000003e0: 2359 95bd 22f8 e5bd 8f05 d2bd 800e 32bb
000003f0: 7e60 b1bd 8507 a63d 9a19 2abd 057e 943d

network_body._body_endoder.seq_layers.4.bias f4 [256]
-0.040536582 0.028661506 0.067406386 -0.030374162 0.030307153 -0.011303517 -0.04709763 0.072354585
0.051938526 0.028723903 0.05249002 0.022906547 0.017731208 0.005455132 0.02021261 0.0027373594
0.045919623 -0.058596764 0.0293806 0.02141173 0.019816965 0.046603743 -0.019019166 -0.04061112
-0.05432351 0.05151328 -0.04519918 0.05532816 -0.038611498 -0.019222848 0.038661726 0.010826164
0.028607784 0.047788188 -0.025881534 -0.038200334 0.041743558 0.02324845 0.066099495 0.081031635
0.04036719 -0.032854635 -0.025718179 0.08208787 0.03171198 0.09344004 0.043076668 0.022269733
0.058004998 0.04383043 0.029197399 -0.02491789 -0.020144539 0.071920335 0.033827145 0.05580388
-0.018936748 -0.03852692 -0.049397167 -0.016844863 -0.04413682 0.043918412 -0.015564358 0.06109084
0.03266499 -0.012157539 -0.04633431 -0.05331389 0.045624092 0.070168726 -0.016614811 0.018966356
0.010431753 -0.0027534766 -0.038323432 0.007295596 0.0917659 0.033889987 -0.038190518 0.090272464
0.0008583814 0.0605829 0.018269729 -0.053671844 -0.04357072 0.0723006 0.03526278 0.03730784
-0.04086248 -0.04823892 0.017746262 -0.022760514 -0.057706296 0.018801646 0.02823334 -0.040567476
-0.0070156613 -0.0128496 0.06864114 0.10239448 -0.015375701 -0.054156516 -0.046568286 -0.05170396
0.014679298 -0.021893151 -0.02912228 0.03541508 -0.047674466 0.038705293 0.042006243 -0.022338264
0.011905869 0.007501527 -0.037544116 -0.04557748 0.027822379 0.02240388 -0.012858358 -0.0379464
-0.039864805 0.038674105 0.013505388 -0.039318163 0.062320612 -0.0071854717 0.063257895 -0.0068077077
0.04104361 0.018280491 0.029849522 -0.030623915 0.04041672 0.072100155 -0.028602032 0.02852579
-0.02259169 0.022441585 0.039779127 0.0023376336 -0.020251106 -0.02972991 0.013143933 0.045497928
0.035681374 0.016230475 -0.058327403 -0.052909117 0.05699906 0.055621885 -0.016769266 0.08330307
0.04767387 -0.038861148 0.035695795 0.08398698 -0.035377555 -0.050435763 -0.04568836 -0.054351397
0.031884406 0.0007451711 -0.04038795 0.057142466 0.037131853 0.031118704 0.01620646 0.012852764
0.036431797 -0.0011284277 -0.010371209 -0.04501826 0.032318678 0.039772086 -0.01966397 0.011344848
-0.041161906 0.011292937 0.019918533 0.06364871 -0.018436253 0.032376964 0.08674803 0.050896812
0.04189313 -0.027376952 -0.030516798 0.030779824 0.019625088 0.024938568 -0.010277646 0.057993196
0.072781764 0.03585996 -0.021907464 -0.04407047 0.031652562 -0.047349982 0.040414564 0.032691326
0.02324439 0.01004663 0.010317502 0.034206387 0.036742706 -0.04686679 0.08428331 0.06051828
-0.03543885 -0.04477069 -0.024378994 -0.049035084 0.026267096 0.054234043 -0.029986087 -0.034608398
0.01462506 -0.027443612 -0.022965433 -0.04130232 0.013857846 -0.05026536 0.026271962 0.0397595
-0.043755125 0.07536928 0.021625487 0.05465537 0.03014432 0.020850915 0.06242877 0.067868136
-0.044891734 0.038909983 -0.03594306 0.022469763 0.043096095 0.016313037 -0.030464476 0.065705135
-0.0119390255 -0.01987732 -0.004672738 0.02691326 0.029544236 0.016617864 0.04934864 -0.0106736645
0.08206111 0.00033206833 -0.02247932 0.00018512203 0.023487924 0.048124224 0.010776686 -0.035191666
00000000: b009 26bd 89cb ea3c 5c0c 8a3d 3cd3 f8bc
00000010: b546 f83c 6332 39bc 72e9 40bd a42e 943d
00000020: 7ebd 543d 644e eb3c c6ff 563d 83a6 bb3c
00000030: 0a41 913c f7c0 b23b ea94 a53c 4565 333b
00000040: 3716 3c3d 2903 70bd 96af f03c a767 af3c
00000050: 3057 a23c 91e3 3e3d 15ce 9bbc d957 26bd
00000060: 5482 5ebd 97ff 523d c622 39bd c89f 623d
00000070: 1727 1ebd 3c79 9dbc c25b 1e3d 3960 313c
00000080: df5a ea3c 8cbd 433d 8305 d4bc f477 1cbd
00000090: 4bfb 2a3d 8973 be3c 2c5f 873d eaf3 a53d
000000a0: 1158 253d 9592 06bd eeae d2bc af1d a83d
000000b0: 6ce4 013d 7e5d bf3d 2971 303d 046f b63c
000000c0: a696 6d3d 8987 333d 622f ef3c 9a20 ccbc
000000d0: 2906 a5bc f84a 933d 558e 0a3d 9c92 643d
000000e0: 3d21 9bbc 67ce 1dbd af54 4abd 3dfe 89bc
000000f0: cfc8 34bd cbe3 333d a601 7fbc 633a 7a3d
00000100: b9cb 053d 6a30 47bc 0cc9 3dbd aa5f 5abd
00000110: 54e0 3a3d 9fb4 8f3d c91b 88bc 555f 9b3c
00000120: f1e9 2a3c ac73 34bb 08f9 1cbd e50f ef3b
00000130: c3ef bb3d 3ad0 0a3d a96d 1cbd c5e0 b83d
00000140: 0005 613a c625 783d 66aa 953c 02d7 5bbd
00000150: 3677 32bd 5612 943d b46f 103d 1bd0 183d
00000160: 6a5f 27bd 2c96 45bd 9c60 913c 4274 babc
00000170: 705d 6cbd e905 9a3c 9b49 e73c 152a 26bd
00000180: a2e3 e5bb 2187 52bc ba93 8c3d 32b4 d13d
00000190: 5dea 7bbc 39d3 5dbd 63be 3ebd 88c7 53bd
000001a0: 7081 703c 4459 b3bc d991 eebc 670f 113d
000001b0: 4d46 43bd 7189 1e3d bd0e 2c3d bcfe b6bc
000001c0: d510 433c 5fcf f53b dcc7 19bd 74af 3abd
000001d0: c2eb e33c 5788 b73c ddab 52bc af6d 1bbd
000001e0: 4749 23bd bd68 1e3d b445 5d3c 150c 21bd
000001f0: e643 7f3d 1b74 ebbb 5b8d 813d 3113 dfbb
00000200: 581d 283d f8c0 953c fc86 f43c 01df fabc
00000210: 018c 253d 3fa9 933d cf4e eabc ebae e93c
00000220: 3512 b9bc 6ad7 b73c 70ef 223d fc32 193b
00000230: a6e5 a5bc 248c f3bc a759 573c 095c 3a3d
00000240: a226 123d c6f5 843c b7e8 6ebd 3bb7 58bd
00000250: d977 693d c6d3 633d b35f 89bc cd9a aa3d
00000260: ad45 433d de2c 1fbd c135 123d 5e01 ac3d
00000270: 0ee8 10bd bb95 4ebd b823 3bbd 929f 5ebd
00000280: 3999 023d 9657 433a d66d 25bd 380e 6a3d
00000290: 9217 183d a7ec fe3c 69c3 843c 6694 523c
000002a0: 8239 153d c0e7 93ba 01ec 29bc 1165 38bd
000002b0: 9760 043d 0ee8 223d 5616 a1bc bedf 393c
000002c0: 6399 28bd 0306 393c 312c a33c 415a 823d
000002d0: a007 97bc b59d 043d f3a8 b13d 2d79 503d
000002e0: 2198 2b3d a145 e0bc 5dfe f9bc f825 fc3c
000002f0: cbc4 a03c f84b cc3c 9263 28bc 468a 6d3d
00000300: 9b0e 953d e5e1 123d 4877 b3bc 3d83 34bd
00000310: 1ea6 013d 0ef2 41bd be89 253d 57e7 053d
00000320: 056b be3c 9f9a 243c bd0a 293c ff1b 0c3d
00000330: 857f 163d 64f7 3fbd ba9c ac3d 04e2 773d
00000340: 5428 11bd 7961 37bd 75b6 c7bc 03d9 48bd
00000350: 182e d73c 8424 5e3d 62a5 f5bc 89c1 0dbd
00000360: f39d 6f3c 6dd1 e0bc 0122 bcbc 9f2c 29bd
00000370: 050c 633c 0de3 4dbd 4c38 d73c dcda 223d
00000380: 9338 33bd 365b 9a3d ef27 b13c 4fde 5f3d
00000390: 39f1 f63c 8acf aa3c 4fb5 7f3d 73fe 8a3d
000003a0: 65e0 37bd 1360 1f3d 0839 13bd 8212 b83c
000003b0: 8885 303d eba2 853c a390 f9bc 6a90 863d
000003c0: e79b 43bc c3d5 a2bc c41d 99bb 3279 dc3c
000003d0: c106 f23c 3022 883c cd21 4a3d 98e0 2ebc
000003e0: a80f a83d 7519 ae39 8d26 b8bc 511d 4239
000003f0: bf69 c03c e81d 453d b290 303c 2325 10bd

network_body._body_endoder.seq_layers.4.weight f4 [256, 256]
-0.103656374 -0.049832378 0.054489024 0.04907964 0.051522203 0.08665651 -0.030836688 -0.0938268
-0.070007555 -0.068732135 0.005686236 0.0805677 -0.10789251 -0.021730756 -0.016894272 -0.009370939
-0.16195656 0.15082432 0.11799049 0.05271352 -0.016406918 -0.04193026 0.014446929 0.0011634255
0.06381338 -0.09526102 -0.09786308 0.03561965 -0.07288359 0.07701776 -0.13721924 -0.07786597
0.067655176 -0.12809338 -0.09544459 -0.06195422 -0.05380078 0.09329799 -0.112413965 -0.031320386
-0.11499681 -0.027393661 0.02432823 -0.08894597 0.11774928 -0.0017587858 0.030000217 0.06410567
-0.018917056 0.050271697 0.018948395 -0.045232926 -0.002605805 -0.1399714 0.0007111938 -0.0856427
0.011643697 -0.048985917 0.03281432 -0.017049579 -0.026123686 0.048956867 0.050364204 0.019647246
-0.051725857 -0.0047057034 0.014429156 -0.11156238 0.009774934 0.084384084 -0.016424948 -0.099553
-0.057592083 0.011623879 0.03128079 0.028672742 -0.00857108 0.051440377 -0.07380305 -0.06353586
0.031627163 0.0023281134 -0.025391867 0.04196673 -0.05824574 0.044924017 -0.12950262 -0.01708827
-0.013218313 -0.039619282 0.03029736 -0.03148219 -0.009725754 0.0018474727 0.040284276 -0.07503647
-0.00350501 -0.0103139235 -0.06296628 -0.087230854 -0.06351779 -0.047234308 -0.11088036 0.00026869564
0.03689086 0.039766543 -0.091414936 -0.054865204 -0.13662913 -0.075133204 -0.06407013 -0.0056827753
0.0006228255 -0.07307677 -0.0012192101 -0.08196391 -0.027998734 -0.08523872 0.04798073 -0.17660436
-0.0915268 0.061137423 -0.025919735 0.0006853907 -0.16911389 -0.0003659089 -0.086418755 0.010541814
-0.043797486 -0.01399494 -0.0424123 -0.030666564 0.13043264 0.011648942 -0.033600915 -0.053592026
0.12151096 -0.05209881 -0.017493153 -0.08002753 0.027537443 -0.0006720987 0.06484477 -0.049811676
-0.10244038 -0.02246687 -0.06768932 -0.088034794 -0.073775105 -0.07627036 -0.0061994637 0.0142739
0.013485395 -0.061719317 -0.00986442 -0.062034555 -0.14814888 -0.07069222 0.030364372 -0.02764431
0.04681822 -0.01686222 -0.0013122363 -0.1021102 -0.034222834 0.006624892 -0.006283035 0.004775875
0.0408823 0.00393828 -0.066241674 -0.09090441 0.044727113 -0.0349341 -0.038161647 -0.023545027
-0.028239269 0.029289931 -0.087021574 -0.0541408 0.028997257 0.08120878 0.0013020858 -0.06252501
-0.11518507 -0.036314003 -0.10166492 0.007850527 -0.17024049 0.029660406 0.13386014 -0.030736737
0.05045895 -0.058601294 -0.04823984 0.14122686 0.030953217 -0.075497694 -0.0675822 -0.24226947
-0.0046549835 -0.0140607655 -0.011259532 -0.1186524 0.02420251 0.04925916 -0.034821026 -0.09963029
-0.0018546637 -0.023330187 -0.059172597 -0.08495203 -0.108247474 0.0018257584 -0.06575975 -0.040514007
-0.13299634 0.0059381216 -0.037354633 0.023563486 0.12826164 0.08489224 -0.021120952 0.040329613
-0.009352728 -0.00604962 0.030429542 -0.03751381 -0.06624719 -0.052286435 -0.105420545 0.0015142468
-0.0761688 -0.06742008 -0.021852614 0.09582688 0.018950948 0.048589673 0.008742853 -0.045693304
0.052969407 -0.09649487 0.04349372 0.08508313 -0.10660519 -0.04835 0.040075332 -0.08940962
-0.01033169 -0.085655205 0.06355071 0.005564919 -0.04544233 -0.17501584 0.028361214 -0.061398014
00000000: cb49 d4bd 091d 4cbd e22f 5f3d bc07 493d
00000010: f208 533d f878 b13d 399d fcbc 4428 c0bd
00000020: 1f60 8fbd 6fc3 8cbd 9b53 ba3b ae00 a53d
00000030: c0f6 dcbd b304 b2bc db65 8abc 9188 19bc
00000040: f1d7 25be b171 1a3e ffa4 f13d 22ea 573d
00000050: cd67 86bc 10bf 2bbd d0b2 6c3c 157e 983a
00000060: 97b0 823d 3618 c3bd 706c c8bd e9e5 113d
00000070: fe43 95bd 7dbb 9d3d 3383 0cbe 3278 9fbd
00000080: cc8e 8a3d e92a 03be 7478 c3bd b5c3 7dbd
00000090: 355e 5cbd 0413 bf3d 4b39 e6bd ce49 00bd
000000a0: 7383 ebbd ac68 e0bc ff4b c73c 4e29 b6bd
000000b0: 8926 f13d 0f87 e6ba 04c3 f53c d549 833d
000000c0: f1f7 9abc b2e9 4d3d aa39 9b3c 2946 39bd
000000d0: 27c6 2abb aa54 0fbe 686f 3a3a 7165 afbd
000000e0: 34c5 3e3c 75a5 48bd 4f68 063d 8fab 8bbc
000000f0: 5701 d6bc ff86 483d b24a 4e3d 43f3 a03c
00000100: 7ede 53bd 4d32 9abb 4468 6c3c d17a e4bd
00000110: 0b27 203c 90d1 ac3d 9d8d 86bc 71e2 cbbd
00000120: ade5 6bbd 1572 3e3c 4920 003d 19e3 ea3c
00000130: b76d 0cbc 25b3 523d 0e26 97bd 171f 82bd
00000140: 7c8b 013d 4393 183b 9b02 d0bc 4ee5 2b3d
00000150: 1693 6ebd 3f02 383d 569c 04be b3fc 8bbc
00000160: a091 58bc d447 22bd 2b32 f83c 78f3 00bd
00000170: c558 1fbc e626 f23a 2001 253d b9ac 99bd
00000180: 4fb4 65bb bbfb 28bc 77f4 80bd 17a6 b2bd
00000190: 9d15 82bd c378 41bd 3e15 e3bd b8df 8c39
000001a0: df1a 173d 3ee2 223d c137 bbbd 56ba 60bd
000001b0: 82e8 0bbe 70df 99bd 3337 83bd 9336 babb
000001c0: 1d45 233a 46a9 95bd e7cd 9fba b2dc a7bd
000001d0: 9a5d e5bc a391 aebd 7187 443d c6d7 34be
000001e0: 6772 bbbd 3c6b 7a3d a055 d4bc cbab 333a
000001f0: 312c 2dbe 76d7 bfb9 51fc b0bd 93b7 2c3c
00000200: fe64 33bd 084b 65bc 85b8 2dbd 7238 fbbc
00000210: 2290 053e 34db 3e3c 1da1 09bd 5083 5bbd
00000220: bdda f83d 9065 55bd cd4d 8fbc 79e5 a3bd
00000230: 3496 e13c c82f 30ba 56cd 843d 5407 4cbd
00000240: 43cc d1bd 710c b8bc b3a0 8abd 964b b4bd
00000250: 6717 97bd a233 9cbd df24 cbbb 13dd 693c
00000260: d9f1 5c3c 65cd 7cbd 609e 21bc f217 7ebd
00000270: 57b4 17be 15c7 90bd b4be f83c 5276 e2bc
00000280: 76c4 3f3d a322 8abc 58ff abba 271f d1bd
00000290: 3e2d 0cbd 9f15 d93b ebe1 cdbb f17e 9c3b
000002a0: 3374 273d b00c 813b b7a9 87bd 172c babd
000002b0: c733 373d 0f17 0fbd 634f 1cbd 80e1 c0bc
000002c0: 0a56 e7bc 70f1 ef3c 5e38 b2bd bec2 5dbd
000002d0: a88b ed3c ca50 a63d c0aa aa3a 1d0d 80bd
000002e0: 26e6 ebbd febd 14bd b335 d0bd 7f9f 003c
000002f0: 8653 2ebe 61fa f23c a212 093e 9ccb fbbc
00000300: 0bae 4e3d e907 70bd 2397 45bd c69d 103e
00000310: 9a91 fd3c 899e 9abd 8968 8abd 7d15 78be
00000320: d588 98bb 205f 66bc e679 38bc 0800 f3bd
00000330: 5844 c63c f9c3 493d 7ea0 0ebd f70a ccbd
00000340: 3018 f3ba f31e bfbc f75e 72bd 54fb adbd
00000350: dab0 ddbd 494e ef3a 0cad 86bd 04f2 25bd
00000360: 3130 08be 9394 c23b 2c01 19bd 3608 c13c
00000370: 0557 033e fcdb ad3d d905 adbc aa30 253d
00000380: 2f3c 19bc e43b c6bb 6047 f93c 15a8 19bd
00000390: 9bac 87bd 4d2a 56bd bae6 d7bd b179 c63a
000003a0: 63fe 9bbd 8a13 8abd 4104 b3bc e240 c43d
000003b0: 053f 9b3c f705 473d 2f3e 0f3c e728 3bbd
000003c0: 73f6 583d 1a9f c5bd 7926 323d 1040 ae3d
000003d0: d253 dabd a60a 46bd 0826 243d 641c b7bd
000003e0: 4046 29bc ff6b afbd e026 823d ed59 b63b
000003f0: bd21 3abd 5a37 33be c755 e83c 7c7c 7bbd

network_body.observation_encoder.processors.0.normalizer.running_mean f4 [6]
-9.068472 26.3877 -18.586393 -32.280685 1.3999627 -71.15826
00000000: 7618 11c1 021a d341 efb0 94c1 6c1f 01c2
00000010: fa31 b33f 0751 8ec2
