Assets/Training/results/learn_v4/MarsTaxi/MarsTaxi-2499994.onnx (onnx, 542464 bytes, 10 tensors)

54 f4 [6]
000000 04 63 cf 41 2d 1c 34 41 52 c8 5e 42 1c b0 a7 3c
       25.923347 11.256879 55.695625 0.020469718
000010 d2 9e 8e 3a da ae 38 3d
       0.0010881072 0.045088626

action_model._discrete_distribution.branches.0.bias f4 [6]
000000 0a a4 f9 3c 14 fa c6 bb 19 2e 25 bd 26 62 fd bb
       0.030473728 -0.006072292 -0.040327165 -0.0077326475
000010 a0 de 5a 3c e2 7c d7 bc
       0.013358742 -0.026304666

action_model._discrete_distribution.branches.0.weight f4 [6, 256]
000000 ff 0e a0 bd 38 63 69 39 5f ab 1f 3d 1d 4c b5 bd
       -0.0781536 0.00022257573 0.03898179 -0.08852408
000010 96 2f 38 3c ac b9 1a 3d 17 84 77 bd 54 63 3f 3d
       0.011241814 0.037774727 -0.060428705 0.046725586
000020 c2 ad f1 3c 80 be 54 3c ee a9 19 3d ab 70 90 3c
       0.0295018 0.012984872 0.037515573 0.01763185
000030 a4 b1 40 3c 01 a7 45 3d df 51 3b 3d b1 b6 73 bd
       0.011761103 0.04825497 0.045732375 -0.0595004
000040 5f d6 ef 3c b0 e9 0f bd 8b 8c 93 b9 2a ff 2a 3b
       0.029277025 -0.03513497 -0.00028142738 0.002609203
000050 11 1a 5e 3d 58 91 47 bc 51 55 22 bd 5b a7 9f bc
       0.054224078 -0.012180649 -0.039632145 -0.019488981
000060 b0 24 6d bd 95 6a 45 3d 82 a9 96 bd ae 3e bb bb
       -0.057896316 0.048197348 -0.0735655 -0.005714259
000070 27 50 41 bd 1c fc 40 bd f1 b5 20 3d 69 be 04 3d
       -0.04719558 -0.04711543 0.039236013 0.03240815
000080 2a 54 e7 3c 68 30 0f 3d f3 d0 13 bd 2a d5 80 bd
       0.028238375 0.034958273 -0.03608794 -0.06290658
000090 4e d4 3a 3d 4b 8d 7a 3c e5 67 6f 3d af fc d2 3c
       0.045612626 0.015292476 0.05844869 0.025755255
0000a0 7f 7b 5d 3d 6c c9 fb bc 8a d9 aa 3a 37 cd 14 3c
       0.054072853 -0.030735694 0.0013034802 0.00908213
0000b0 11 34 a6 bb 49 d3 77 3d 1b 81 da 3c 34 7a 03 3d
       -0.005072125 0.06050423 0.02667289 0.032098964
0000c0 5b 72 4a 3c 4a ff bc bb 80 fb 5f bc 11 0b b5 bc
       0.012356366 -0.0057677375 -0.013670802 -0.022100003
0000d0 e4 f8 0a bd e3 49 1e 3c df ae ec bc 2b d8 e2 ba
       -0.033928767 0.009661171 -0.028891979 -0.0017306855
0000e0 4d 4b 4d bd 17 05 8a bd af 67 5a bd 0f 6b 1f bd
       -0.05012064 -0.06739252 -0.053321537 -0.03892046
0000f0 9f e8 2b 3c 8c 56 bb 3c c9 10 ac bc 0e 7d ca 3c
       0.010492473 0.022868417 -0.021004098 0.024717834
000100 70 e7 28 3d 15 97 c2 3b 31 13 83 bd 39 d0 63 bd
       0.04123634 0.0059384205 -0.06400145 -0.0556185
000110 55 4d 23 3b 3b 59 d8 bc 28 47 40 3b 99 ca 53 bc
       0.002491792 -0.026409736 0.0029339287 -0.012926721
000120 f0 53 e8 ba 8c 86 b1 bc d1 1e 91 bd ef 74 02 3c
       -0.0017725211 -0.021670602 -0.07085956 0.007962449
000130 22 34 34 3d 8d b9 a2 3c 38 fb 23 bd 5d 37 63 3d
       0.04399503 0.019863868 -0.040034503 0.05547272
000140 87 aa cd bb 35 1b 19 3d d9 27 63 bd c7 b1 db bc
       -0.006276432 0.037379462 -0.055457924 -0.02681817
000150 65 60 8a bd 18 d5 06 ba da 35 dd 3c 57 09 1b 3d
       -0.06756667 -0.0005143448 0.027003217 0.037850704
000160 5f 14 2a bd a3 1b 05 bd 0e 76 9a 3c a0 ea 39 bd
       -0.041523334 -0.03249706 0.018855121 -0.04538977
000170 df c5 46 bd 82 16 e5 bc 22 c8 2c 3c 8d 79 9c bd
       -0.04852855 -0.027964834 0.010545762 -0.076403715
000180 07 f0 c6 bc 73 54 78 bd f6 07 c5 3c 98 a9 de 3c
       -0.024284376 -0.060627412 0.024051648 0.027180478
000190 7f 42 86 bd 41 4b 53 bd 17 b1 4b bd 97 f4 2e bd
       -0.06555652 -0.05158544 -0.049729433 -0.042713728
0001a0 1e a8 9c bd 3a 61 8e bd 13 6b 53 bd 34 1f 75 ba
       -0.07649253 -0.06952138 -0.051615786 -0.0009350658
0001b0 67 7c df bc 39 06 06 3d b7 b5 1c 3d 51 0c 02 bd
       -0.027281 0.03272078 0.038259234 -0.031750027
0001c0 82 eb 2d bd 1e 98 86 bd 4c 80 8c bd 56 d3 bc bc
       -0.042460926 -0.06571983 -0.06860408 -0.023049992
0001d0 2b 21 01 3d 14 ba 0b 3c 4d 2e 78 bd 33 ae 85 bd
       0.031525772 0.008528251 -0.06059103 -0.065273665
0001e0 80 76 bf bc c2 a6 00 3d c8 1b 11 bd 11 43 14 bd
       -0.023371935 0.031409033 -0.035426885 -0.036196772
0001f0 ec 4f c0 3c 9e db b9 bc 22 cf 8f 3b 5b f4 02 bd
       0.02347561 -0.02268773 0.004388706 -0.031971317
000200 ff 7e 48 3c be 94 5f 3c a7 3a 91 bc 96 fa 73 bd
       0.0122373095 0.013646303 -0.017728163 -0.05956515
000210 7c b6 f5 3c d6 bb 91 3c 95 96 93 bd 7b 5b 84 ba
       0.029994242 0.017789762 -0.072064556 -0.0010098064
000220 71 f2 53 bd 6b 5d ee 3b ae 93 05 3d 0a c3 27 3d
       -0.051744882 0.00727432 0.03261154 0.040957488
000230 45 8d 64 bd ac 25 ef bc 06 b3 33 3d e5 5f b9 bb
       -0.055798788 -0.029192768 0.043871902 -0.0056571835
000240 aa 7c fd bc b7 de f5 bc 73 e4 f3 bc 18 8a 7e bd
       -0.030943234 -0.030013425 -0.029772019 -0.062143415
000250 dd 86 0d 3b e6 03 6c 3d 7c b0 ae bd 83 e6 88 3c
       0.0021595277 0.057620905 -0.085297555 0.016711479
000260 e3 99 c5 3c 32 a1 a3 bd b1 23 d4 3b a4 3f e2 3c
       0.02412123 -0.0798973 0.0064739813 0.027618237
000270 12 14 81 bd a4 bd 3b bd 30 0e 77 bd 0e b2 36 bd
       -0.06302656 -0.045835152 -0.060316265 -0.0446034
000280 20 4f c9 3c 1b 28 40 bd 61 29 a7 bd 59 17 d5 3c
       0.024573863 -0.046913248 -0.08162189 0.02601211
000290 6c 7f 95 3c 7a 6e ba bb 88 6a 85 3d 1b 4d 8b 3c
       0.018249236 -0.0056894394 0.0651446 0.01700454
0002a0 fd cb 8b 3c fe de aa bd 07 57 50 bd 30 96 41 bd
       0.017065043 -0.08343314 -0.050864246 -0.04726237
0002b0 2d 8a e1 3c 23 d0 80 bc a1 b4 40 bc 7e bf a2 bc
       0.027531708 -0.015724247 -0.011761815 -0.019866701
0002c0 e4 d9 9b bd 4a a8 80 3b ab ef e2 bb 37 34 e0 3c
       -0.07609919 0.0039263116 -0.0069255433 0.027368648
0002d0 af d9 1a bc 2c 88 95 3c bd 37 52 3d 5c 18 50 bc
       -0.009451314 0.018253408 0.051322687 -0.01270112
0002e0 b1 e1 31 3d 0c f4 24 bc a4 0f 96 bd ff 44 f7 3c
       0.043428127 -0.010067951 -0.07327202 0.030184267
0002f0 af e9 40 3c 97 b5 fe 3c f7 8f 1e bd df f6 ef 3c
       0.0117744645 0.031092448 -0.038711514 0.029292522
000300 f2 1f 72 3d 90 e2 57 bc d5 c2 15 bc b3 53 1c bd
       0.059112497 -0.013176575 -0.00914069 -0.03816576
000310 dd fc a2 3c 40 25 40 bd e9 2d 2f bc 51 79 39 3d
       0.019895965 -0.046910524 -0.010692098 0.045281712
000320 35 49 62 3c b8 c0 9b bd ae 97 30 3d b0 6d 49 3d
       0.013811399 -0.076051176 0.043113403 0.04917687
000330 4c 0e 80 3d ee ad f0 bc 1a 0e 4c 3a a0 60 3c 3d
       0.06252727 -0.029379811 0.0007784084 0.045990586
000340 ac 1c aa bd c4 19 88 bd 82 af 36 bd d4 f5 8c bd
       -0.0830625 -0.066455394 -0.04460097 -0.068828255
000350 8b a7 85 3d 1d 62 ca 3a 1c 82 80 bd 77 88 d0 bc
       0.06526097 0.0015440617 -0.062748164 -0.025455697
000360 bf 71 5b 3d 52 d1 a1 bd 17 a4 7b bd 9a 80 9a bd
       0.053575274 -0.07901253 -0.061435785 -0.0754406
000370 33 71 b5 3c 38 39 84 bd 1c b3 84 3c ec b2 37 3d
       0.022148704 -0.06456226 0.016198687 0.044848368
000380 1e 25 7c bd cd f1 79 3d 28 02 17 3a cb d5 4b 3d
       -0.061558835 0.061021615 0.0005760514 0.049764436
000390 85 ca 3f 3d 2a 70 8f 3c 85 28 f3 ba 3f 30 59 3d
       0.046823997 0.017509539 -0.0018551504 0.053024527
0003a0 a8 d5 85 bd 23 3b 3b 3d 04 39 69 bd fa f8 a2 bb
       -0.06534892 0.045710694 -0.05693914 -0.004973528
0003b0 8a 78 14 3d a2 da 59 3d 28 8c ed bb 7b 32 5c 3d
       0.036247768 0.05318702 -0.007249374 0.05375908
0003c0 a7 cb b9 3c 0d bc 14 3c fd 74 af bc f2 f1 cb 3a
       0.022680117 0.009078038 -0.021418089 0.0015559776
0003d0 58 a6 a0 3b 9a 8c 8e 3c 26 9c 00 bc 7e 81 5e ba
       0.004902642 0.017401028 -0.007849729 -0.0008487924
0003e0 91 15 e9 3b c6 94 df bc 11 9a 4d bd ef c3 68 3c
       0.0071131666 -0.02729262 -0.050195757 0.01420687
0003f0 7b 93 26 bc 65 b2 06 3d fe 49 61 bc 37 6f 96 bd
       -0.010166998 0.032884974 -0.013750551 -0.07345431

network_body._body_endoder.seq_layers.0.bias f4 [256]
000000 a8 6e 97 3d d6 35 92 3d 11 16 d6 bd 05 23 a2 3d
       0.07394153 0.07139175 -0.104534276 0.07916836
000010 7e cd 89 3d 2f 82 57 3d e6 05 6e 3b 66 11 46 3d
       0.06728648 0.052614387 0.0036319434 0.048356436
000020 73 72 9a 3d fa 57 6c 3c 1d 3f 81 3d 18 7f 60 3d
       0.07541361 0.014425272 0.06310866 0.054808706
000030 72 f6 58 3d c9 57 93 3d 59 5a 92 bc 87 0f 29 bc
       0.052969404 0.07194478 -0.017865347 -0.010318643
000040 f8 b4 3f 3d f1 66 c3 3d 0c 37 94 3d 8b 41 0d 3d
       0.046803445 0.09541119 0.07237062 0.034486335
000050 a7 71 59 ba 3a f8 9b 3d be 39 fe bc 65 e3 67 3d
       -0.00082948286 0.07615705 -0.031033393 0.056613345
000060 35 64 7a 3d 0e 00 a2 bc 3a c6 13 3d 8d 5f 40 3d
       0.06113072 -0.019775417 0.036077715 0.046966124
000070 c2 f9 e3 3c d9 d8 b8 3d f2 08 14 3d b4 3a 45 3d
       0.027829055 0.090257354 0.036141343 0.048151687
000080 e9 b5 b3 3d 3e 3d a1 3d 80 74 32 3d a3 e8 eb 3c
       0.08774931 0.07873009 0.043568134 0.028797453
000090 b9 d9 9d bd f3 08 06 3d 80 78 0a 3c 99 e6 c2 3d
       -0.07707543 0.03272338 0.008451581 0.09516639
0000a0 b0 aa 0d bc 23 f1 da 3c 01 4e cd 3d 52 91 8b 3d
       -0.008646652 0.026726311 0.10024644 0.06814827
0000b0 60 04 8b bc 04 c0 2c 3b 37 4b 8a 3d 71 54 a1 3c
       -0.01696986 0.0026359567 0.06752627 0.019693585
0000c0 d3 01 58 3d 9d d7 0c bd d6 d4 97 3d 45 da 91 3d
       0.052736115 -0.034385312 0.07413642 0.0712171
0000d0 f8 ca 8f 3c 30 41 d3 3c f6 d4 b9 bb 04 a6 53 3d
       0.017552838 0.02578792 -0.005671139 0.051671997
0000e0 f2 81 3f 3d f0 00 c2 3d eb 95 46 3d e2 a1 99 3d
       0.046754785 0.09472835 0.048482817 0.0750158
0000f0 57 89 51 3d 3f d8 52 3d c7 07 b3 3d 0c a1 42 3d
       0.051156368 0.05147576 0.08741718 0.047516868
000100 d4 c7 b0 bc e1 20 09 bd 72 42 0b 3d 19 48 5b 3d
       -0.02157966 -0.03347862 0.033998914 0.053535555
000110 a4 0a 17 3d 44 59 f6 3b 76 71 d4 3d b0 35 6f bc
       0.036875382 0.0075179655 0.103732035 -0.014600202
000120 d3 a5 05 3d 31 5e ad 3d 44 79 b4 3d 51 77 33 3d
       0.032628845 0.08465231 0.08812192 0.04381496
000130 d3 50 a1 3d 89 96 b2 3d b2 01 8c bd ba 87 d8 3c
       0.07876744 0.087201186 -0.06836261 0.026431907
000140 76 68 63 3b d1 13 94 3c 90 62 15 bd d6 21 e3 bb
       0.0034699715 0.018075855 -0.03647095 -0.006931524
000150 65 ef 1b 3c 63 af a0 3c 2b 37 a5 3c 62 f6 67 3d
       0.009517525 0.01961488 0.020167908 0.056631453
000160 8e 85 9e bd 42 1a 83 3d e2 e8 2c bd 65 f9 5a 3d
       -0.07740317 0.06401493 -0.04221428 0.053460497
000170 72 eb 1f 3d c1 a8 b1 3d 4e 6f 9b 3d 15 82 8f 3d
       0.039042898 0.086747654 0.07589589 0.07007233
000180 48 e7 39 3d 7e 19 aa 3d f8 29 13 3d 8b 75 9e 3d
       0.045386583 0.083056435 0.035928696 0.07737263
000190 86 e3 38 3d ea 5f b1 bd b4 44 d0 3d de d0 ba 3d
       0.04513886 -0.08660872 0.10169354 0.091218695
0001a0 7f e2 62 3d 73 28 ff 3c d5 e8 b5 bb d2 d6 ff 3b
       0.055391785 0.031147217 -0.0055514374 0.007807591
0001b0 32 8c 82 3d 70 45 62 3d c0 7a 0d 3d 4d a8 36 3d
       0.063743964 0.055242002 0.03454089 0.044594098
0001c0 1c a3 74 3d bb 37 91 3d ca 23 dc 3d 36 40 d4 bc
       0.059725866 0.07090708 0.10749014 -0.025909524
0001d0 db 0a c4 3d ec 4f 81 3c ba 37 5f 3d b1 31 d2 bb
       0.09572383 0.01578518 0.054496504 -0.006414615
0001e0 e2 6d 02 3d cc d1 33 bc 6b 88 ac 3d 5f 65 ad 3d
       0.031843074 -0.010975312 0.08424457 0.084666006
0001f0 d0 ae 95 3d 0a 3b 83 3c 5b dd 84 3d 5c 27 8d 3d
       0.073087335 0.016019363 0.06487533 0.06892273
000200 b2 41 aa 3d cb 10 77 3d 70 c0 97 bd 23 b1 4f 3d
       0.08313312 0.06031875 -0.074097514 0.05070604
000210 07 10 5d 3d 4e 69 f4 3c 52 dc 8a 3d ec 51 9e 3d
       0.053970363 0.02983537 0.06780304 0.07730469
000220 e6 c0 7a 3d e4 aa fd bc 82 35 8d 3d e2 54 0a bb
       0.06121912 -0.030965276 0.068949714 -0.0021107723
000230 21 d5 69 3d 72 11 ad 3c 7c eb 38 3d 07 5f 04 3d
       0.05708802 0.021126483 0.04514645 0.032317188
000240 26 6e 64 3d 07 7b 6f bc 77 ec 9d bc 5a 4a 61 3b
       0.05576911 -0.014616734 -0.019277794 0.0034376592
000250 3e 71 4c 3d c7 1a aa 3d c1 8c 30 3d 2a d2 82 3d
       0.049912684 0.083058886 0.043102983 0.06387742
000260 0e cc 8f 3d 24 a6 32 3d 5f 9a 97 3d 6c 65 47 bd
       0.07021342 0.043615475 0.07402491 -0.048680708
000270 4c c9 a0 3d e3 c9 1b 3d c1 5a 21 bd 4c fe cd 3d
       0.07850894 0.03803433 -0.03939319 0.10058269
000280 52 04 fe 3c 77 0d 9c 3d d1 9b b5 bb b0 e0 34 3d
       0.03100792 0.07619756 -0.0055422564 0.04415959
000290 e0 6a a1 ba c8 5e 2d 3b f0 64 ec 3c ca 4b fc 3c
       -0.0012315176 0.00264542 0.028856725 0.030797858
0002a0 c2 37 42 bc b1 6d ec 3c cc 32 74 3d 9b 6c 91 3d
       -0.011854114 0.028860899 0.059618756 0.07100793
0002b0 89 6a 85 3c 0c 16 23 3d 06 a5 83 3d 59 ac 82 3d
       0.016286151 0.039815947 0.0642796 0.06380529
0002c0 9e 57 72 3d 0a 72 45 3d c0 21 b1 3d ec 26 21 3d
       0.05916559 0.04820446 0.086490154 0.03934376
0002d0 ad fc ad 3d 12 df 82 3c ce f4 5e 3d ce 43 6a 3c
       0.0849546 0.015975509 0.054432683 0.014298392
0002e0 be 63 04 ba 28 8a 42 3d de c2 5a 3d 43 81 39 3d
       -0.0005050263 0.047495037 0.053408496 0.04528929
0002f0 7b e7 b9 3d 18 06 20 3c 3a 01 7f 3d 3f 10 5b bc
       0.090773545 0.009767078 0.06225703 -0.013370573
000300 c2 82 3e 3c eb 29 7e 3d 3f 10 9b 3d 24 a0 2e 3d
       0.011627855 0.062051695 0.07571458 0.04263319
000310 cb 9d 97 3d 1a 42 66 3d 83 76 d2 3d 86 ef 52 3d
       0.074031435 0.056215383 0.102765106 0.05149796
000320 26 21 aa 3c b2 b3 5b 3d 56 90 01 3d 50 2d 48 3c
       0.02076776 0.053638168 0.03163179 0.012217835
000330 4d da d3 3c 0c 7f 68 3d f0 7a 88 3d ad 07 b8 3c
       0.02586093 0.056761786 0.066640735 0.022464598
000340 28 10 36 3d 53 3a 82 3d cd 7c c7 3d d3 2e d7 3c
       0.044449 0.06358781 0.09740601 0.026267445
000350 ea ce 87 3d ae a8 6a 3d b0 df 31 3d 02 5e 85 3d
       0.066312626 0.05728977 0.043426216 0.06512071
000360 80 3e 05 3d b4 01 ae 3c 9f 5f b2 3d c4 eb db 3d
       0.032530308 0.021241046 0.087096445 0.10738328
000370 51 b0 c7 3d 59 65 8a 3c 6a 26 dd 3d 8e 07 1a bd
       0.097504266 0.01689403 0.107983425 -0.03760486
000380 22 54 72 3d bf 58 87 3d 59 64 8e 3d 80 cd 77 3d
       0.059162267 0.06608724 0.069527335 0.060498714
000390 1a 84 68 3d f2 45 13 3d 24 58 05 bd c2 c8 85 3d
       0.056766607 0.035955377 -0.03255476 0.06532432
0003a0 0b 45 c4 3d 2e 4f b6 3d 60 46 04 3d 25 a5 9a 3d
       0.095834814 0.08901821 0.032293677 0.0755103
0003b0 6f ee d1 3d 94 88 4d 3d 0d 1f 14 bc 20 9d 48 3d
       0.10250556 0.05017908 -0.009040606 0.04897797
0003c0 7b b5 e0 3c 4a 57 56 3d 31 f8 86 bd 0f 18 a6 3c
       0.027430287 0.05232934 -0.065903075 0.020275144
0003d0 33 c6 49 3d 0f 18 f1 3c 8d f5 b6 3c 34 69 8a 3d
       0.049261283 0.029430417 0.022333885 0.06758347
0003e0 56 00 a8 3c 24 d8 03 3d fe 9d 43 3d c7 55 5d 3d
       0.020507973 0.03218855 0.047758095 0.05403688
0003f0 e3 80 1c 3d 37 fb 4f 3d 32 96 94 3c 41 70 ab 3d
       0.038208853 0.050776687 0.018138025 0.0837102

network_body._body_endoder.seq_layers.0.weight f4 [256, 6]
000000 91 40 16 3f 03 59 c9 3e 5c 2a ca 3e 9e d8 28 3f
       0.5869227 0.39325723 0.39485443 0.6595553
000010 1f b9 cf 3d 17 73 2c bf ff a0 52 be a8 cd 0e 3f
       0.10142731 -0.67363113 -0.20569228 0.55782557
000020 46 80 25 3f e7 61 10 3f eb 8e fa be 6b 76 80 be
       0.64648855 0.5639939 -0.48937163 -0.25090346
000030 ad 5f ac 3d 1a b6 79 be 39 16 d6 3c f9 3b ba 3e
       0.08416686 -0.24385872 0.026133643 0.3637388
000040 f5 8c b7 3e 1b 86 20 3f 64 1f 1d 3f 05 4b 1f be
       0.3584973 0.6270463 0.61376023 -0.15555961
000050 52 23 e5 3e 74 06 f9 be ac 2e 08 3d d2 cc 16 3f
       0.4475351 -0.48637736 0.033247635 0.5890628
000060 23 54 7e ba f3 e2 8e 3e 00 4f 9c 3e c3 76 8c 3d
       -0.00097018684 0.27907524 0.30529022 0.068585895
000070 94 59 c8 3e 57 da 26 3e df 62 91 bd ec 36 d7 3e
       0.39130843 0.16294228 -0.07098936 0.4203409
000080 76 84 01 bf 2e 28 4c bf 41 07 e5 3b e9 c7 68 be
       -0.50592744 -0.7974881 0.00698939 -0.2273251
000090 57 12 90 bd 9b c9 6c 3f e0 7c 44 be 95 b3 aa bd
       -0.07034748 0.92495126 -0.19188261 -0.08335034
0000a0 f8 ec 6f 3e 1e f6 46 3e 95 9a c2 be 1d 6f e8 be
       0.2343024 0.19429824 -0.38008562 -0.45397273
0000b0 a8 17 b2 3d f0 10 00 bf 6e 06 84 3f 5a b7 9b be
       0.08695918 -0.50025845 1.0314462 -0.30413324
0000c0 44 e2 31 be 31 9f 07 3e 17 10 f5 3e ba e4 44 3e
       -0.1737147 0.1324432 0.47863838 0.19227877
0000d0 39 36 44 3e f8 18 21 bc 5e e2 dd be 93 11 b6 be
       0.1916131 -0.009832613 -0.43336767 -0.35560283
0000e0 aa a7 bf be de d3 3a 3d 2d 6c 4a be 5f 92 10 bf
       -0.37432605 0.04561221 -0.19767828 -0.56473345
0000f0 b5 8a 4c bf 3b 4f ec bd ea f2 e1 3c 76 bb b3 3d
       -0.7989915 -0.115385495 0.02758165 0.0877599
000100 12 ec ba 3e 71 e6 40 be fd 74 04 3e 46 51 fb be
       0.36508232 -0.18837906 0.12935252 -0.49085444
000110 a2 aa 0d 3f 60 bf 88 bd 99 de 5b be f7 f3 26 3f
       0.5533849 -0.06677127 -0.21471633 0.6521601
000120 0e c9 3b be a6 3a b2 bd 86 53 2b 3d d4 82 8a 3d
       -0.18338415 -0.087025926 0.0418277 0.06763235
000130 15 8d da 3e 55 d9 ef be 94 29 32 bf 07 4e 0f be
       0.42685762 -0.468455 -0.69594693 -0.13994609
000140 ff ad 18 3e 1c 3c 44 be c6 87 f2 3e 5f c2 17 bf
       0.14910124 -0.19163555 0.47369212 -0.5928096
000150 3e 15 b0 3c f8 0f 92 be d0 79 11 3e 45 d3 b4 bc
       0.021494504 -0.28527808 0.14206624 -0.022073397
000160 41 c1 6c 3d 4b 5a 1d bf b9 32 fa bd 0d 27 db be
       0.05780149 -0.614659 -0.12216706 -0.4280323
000170 3b 39 bf 3d 14 2d e4 3e 51 49 3f be b6 37 9c 3e
       0.09337088 0.44565642 -0.18680312 0.30511254
000180 1a ca fc be 11 9c 28 bc 5c 6d 54 bf dc 79 26 be
       -0.4937294 -0.010291115 -0.8297937 -0.16257423
000190 f6 45 ab 3d 03 db 0a 3e bd ac 8a bf ca af 9e 3e
       0.08362953 0.13560109 -1.0833966 0.3099349
0001a0 c2 84 2e be 76 df 10 be 1a df b7 bd 12 b0 81 be
       -0.1704283 -0.14147744 -0.089781 -0.25329643
0001b0 cc 73 1c bf a3 b5 84 3e a0 a1 dd 3e 77 4d e7 be
       -0.6111419 0.25919828 0.43287373 -0.45176288
0001c0 49 a2 76 3e 4b 81 9c be 53 ee 1c bf b0 88 0d bf
       0.24085344 -0.30567393 -0.61301154 -0.55286694
0001d0 b9 8d 0e bf 12 ed 6f 3c 1a dd 7f 3d 82 0d 85 3d
       -0.55685 0.014643924 0.06246672 0.06496717
0001e0 f7 0e bf 3e ed 20 2d bc a1 b3 f9 3d 17 10 43 be
       0.37316105 -0.010566932 0.121924646 -0.19049107
0001f0 1a f8 82 be d6 06 19 3e 7b 88 42 bf ff e4 8b 3e
       -0.2557991 0.14944014 -0.759895 0.27323148
000200 04 01 4a be a6 6c 34 be 44 b8 a8 bd 99 a1 79 bf
       -0.1972695 -0.17619571 -0.08238271 -0.97512203
000210 36 05 25 3e 23 a0 0c 3e d3 ed 22 3e de 99 58 be
       0.16115269 0.13732962 0.15911035 -0.21152446
000220 a4 00 03 3f 1e 98 51 be 5b 46 80 3e f2 9c 25 be
       0.5117285 -0.20468184 0.25053677 -0.16173151
000230 3a d8 ea be 19 73 ce bd ee b4 0e 3f 51 66 b1 3d
       -0.45868093 -0.10080547 0.55744827 0.086620934
000240 13 cc fb 3c 9d a6 5f 3f 09 41 60 bf ef 60 19 bf
       0.030736959 0.87363607 -0.87599236 -0.59913534
000250 e5 da e0 3d 67 af 40 3f 25 fd 7a 3e d5 b1 13 3e
       0.10979251 0.7526764 0.2451063 0.14423306
000260 65 d8 98 3e 5b de 5e 3e 8c 27 5b bf 9a 92 18 3f
       0.29852596 0.2176451 -0.8560722 0.59598696
000270 dc 73 43 be b8 88 f8 3e 0b 31 7e 3e 9a a3 c0 ba
       -0.19087166 0.48541808 0.24823396 -0.0014697195
000280 71 0c b4 3e 80 46 25 3f 6b 60 bf 3d ba c1 25 bf
       0.35165742 0.645607 0.09344562 -0.6474873
000290 b5 cf 39 bf 9f 87 d3 bd 1b 86 43 be 73 2d 1a 3e
       -0.7258256 -0.10328602 -0.19094126 0.150564
0002a0 85 42 92 be 84 d5 83 bf ae a9 84 bf a8 1a 12 3e
       -0.28566375 -1.0299535 -1.0364282 0.14267981
0002b0 3f 8d 89 be 73 70 83 3e c4 6b bd be 1f 65 4b 3f
       -0.26865575 0.2567173 -0.3699628 0.79451174
0002c0 de e8 16 3f ff 4d c7 be 9c 28 6b 3e bb 16 26 bf
       0.5894908 -0.38926694 0.2296471 -0.64878434
0002d0 76 b7 9f 3e b8 13 cd be 24 4d 40 bf e6 12 02 bf
       0.31194657 -0.40054107 -0.7511771 -0.50810087
0002e0 d2 7d 29 bf e6 ee 68 3f 81 2f d6 3e 70 eb 5c bf
       -0.6620761 0.9098953 0.41833118 -0.8629675
0002f0 eb 20 d0 3e 5c 6d 67 bf cf 27 db 3e 8b c7 52 3a
       0.40650114 -0.90401244 0.4280381 0.00080405985
000300 09 be e5 3d 13 d4 0f 3e d7 e1 d8 3e f8 7c e3 3d
       0.11217887 0.14045744 0.42359802 0.1110782
000310 99 32 61 3d 3b ce 85 be 78 65 68 3e 35 ab 75 be
       0.054979894 -0.26133904 0.22694957 -0.23991092
000320 ce 07 2c 3e 1d f5 c4 3c 58 ba d0 3e a4 c4 9c be
       0.16799852 0.02404266 0.4076717 -0.30618775
000330 04 c6 7f 3c c3 ff e2 bd 7b 66 e0 3c 11 55 81 be
       0.015611175 -0.11083939 0.027392616 -0.25260213
000340 8e 32 92 be 5a 1b 52 bc b2 11 07 bf 33 da 41 bf
       -0.28554195 -0.012823904 -0.52761376 -0.7572357
000350 1f 19 9c be 4b 86 44 3e a8 3e 1f 3e 1c 35 71 3f
       -0.30487916 0.19191854 0.15551245 0.94221663
000360 c9 31 64 3a 4a 7e 82 be 14 60 43 3e ce 46 b7 3e
       0.00087049283 -0.25486976 0.1907962 0.35796207
000370 82 00 13 3e 0e 29 cb 3e dd 90 bc 3e 18 6f 41 bf
       0.14355662 0.3967976 0.36829272 -0.7556014
000380 8a 2b d4 3d eb f5 7d bd ee 6d bc be 03 8e c5 3e
       0.10359867 -0.062002104 -0.3680262 0.3858491
000390 74 de 77 be c0 af 2a bf 7a 8c fe 3d 45 65 33 bf
       -0.24205953 -0.66674423 0.124291375 -0.700764
0003a0 7f 57 72 be ad cf 40 3f 3b f9 eb 3e 73 7e 9f 3e
       -0.2366619 0.7531689 0.46088585 0.3115116
0003b0 44 fa 9f be ff b7 04 bf da 9d dc bc d1 d1 95 be
       -0.31245625 -0.51843256 -0.026930738 -0.2926164
0003c0 bc 87 35 bd 2f f8 db 3e b0 53 0b be 8e 4d 08 3f
       -0.0443189 0.42962787 -0.13606143 0.5324334
0003d0 5f 96 7d 3e 96 36 c1 3e c2 5d 8e 3d 56 cb 68 3f
       0.24764393 0.37736958 0.06951477 0.90935266
0003e0 1f 3d 90 be bb f9 b7 3e 24 9f ab 3e 44 ad 1a 3f
       -0.28171632 0.35932717 0.33519852 0.6042063
0003f0 ec 17 65 3e 87 83 08 3f 5d ac 79 3f d5 79 10 3f
       0.22372407 0.53325695 0.9752863 0.564359

network_body._body_endoder.seq_layers.2.bias f4 [256]
000000 38 14 95 ba 9e 35 6a 3d 93 e7 e3 3b c1 ff 7a bd
       -0.0011373824 0.05718004 0.006955096 -0.061279062
000010 b6 a1 1f 3d 93 ce 0d 3d bf 88 a0 3d 7b 74 da 3d
       0.03897258 0.034620833 0.07838582 0.10666748
000020 30 9c 55 bd 47 71 98 3c 03 ac a3 bd 09 8a 9d 3d
       -0.052150905 0.018608702 -0.07991793 0.07692344
000030 b9 42 01 3d 7e c7 c5 bd 92 d7 67 ba 7c 2c a2 bd
       0.031557772 -0.09657191 -0.0008844073 -0.07918641
000040 e1 64 30 3d f0 2e e1 3c 64 20 e8 bc d8 45 80 3c
       0.043064956 0.027488202 -0.028335758 0.015658304
000050 e6 e0 be bd 98 9e 20 3d 6a f7 20 3d f0 18 aa bd
       -0.0932024 0.039213747 0.039298452 -0.08305538
000060 34 72 af bd ae 5f a4 3c e2 e9 16 3c d7 4b d8 bd
       -0.085667044 0.020065155 0.009211035 -0.1056134
000070 e4 4c ab bd d4 bc 95 3d 5b 17 f7 3c ba 81 41 3d
       -0.08364275 0.07311407 0.030162504 0.047242858
000080 6c 55 98 bd 74 2b 88 3d b0 a1 ef 3c c1 76 0d 3c
       -0.07438168 0.06648913 0.029251903 0.00863427
000090 3c b7 f5 3c b4 a7 bb bd 95 57 cf 3d 46 b7 d8 3c
       0.0299946 -0.09162846 0.10124127 0.02645458
0000a0 62 65 20 bc 56 dc 81 36 b0 7b d5 bb 06 6f b7 bc
       -0.009789797 3.87015e-06 -0.006514989 -0.022391807
0000b0 54 e3 1a 3d 8d af b9 3d c2 b3 c1 3c b2 79 be 3c
       0.037814453 0.09066687 0.023645286 0.023251388
0000c0 59 dd 02 3d 75 10 c1 bd b8 ef e2 3c f5 f5 aa bb
       0.031949375 -0.09426967 0.027702197 -0.0052173086
0000d0 89 81 2b bd 15 a8 88 bc 45 70 6b bd 3f 57 b3 3d
       -0.04187158 -0.01668171 -0.057480115 0.08756875
0000e0 2e d2 ee bc f2 53 cd bd 99 c0 cd bd 52 b1 8f 3c
       -0.029152956 -0.10025777 -0.10046501 0.017540608
0000f0 36 0b 0e 3d 10 99 7e 3b c8 e4 a3 bd 26 65 b3 bd
       0.03467866 0.0038848557 -0.08002621 -0.08759527
000100 e0 b8 14 3d 86 88 a0 bd a3 f8 a7 3d 4b ea 3d 3d
       0.036309123 -0.0783854 0.082017206 0.046366017
000110 e9 15 31 3d d5 37 07 3d c6 71 90 bc 33 f6 7a bd
       0.043233786 0.03301223 -0.017632376 -0.06126995
000120 61 81 c4 3d bb 89 fc bc ce b6 37 bc 49 74 ba 3c
       0.095949896 -0.030827394 -0.011213018 0.022760527
000130 9c a1 91 3d 1e cc cc bd 8f 53 a3 bd 0a 1f fa 3c
       0.07110903 -0.0999987 -0.07974922 0.030532379
000140 f5 aa 19 3d d2 4b 1c bd 63 65 85 3d 45 42 62 3d
       0.037516553 -0.038158245 0.065134786 0.05523898
000150 46 d4 2c 3d 23 eb a8 bd 25 bd 11 3d fc b0 29 3d
       0.042194627 -0.08247974 0.035580773 0.04142855
000160 57 e7 b4 3d d0 a4 61 3d 7d f1 59 ba 04 82 16 3d
       0.08833187 0.055088818 -0.00083138776 0.036745086
000170 28 54 73 3d d8 60 04 bd d5 35 b2 bd 0a 84 f6 ba
       0.05940643 -0.03231892 -0.08701674 -0.0018807661
000180 ec 7d bf bc c2 0a a2 3c f5 54 c4 3c d7 54 83 3d
       -0.023375474 0.01978052 0.023966292 0.06412666
000190 5d 89 84 3c 01 d8 6c 3c c2 69 7a 3d b5 77 dd 3c
       0.016178781 0.014455796 0.061136015 0.02703462
0001a0 9f 7e 4e 3d 08 cf 1b bd 40 fe d1 bd a4 9b a9 bc
       0.050413724 -0.038039237 -0.102535725 -0.020704098
0001b0 4e 1e 37 3d 7e 7a 49 3d 89 0a e0 3c 45 89 b0 bd
       0.044706635 0.049189083 0.027348774 -0.08619932
0001c0 bf 60 7e 3d 82 09 a5 3d 7c d7 15 3d c8 34 4b 3d
       0.062103983 0.08058454 0.036582455 0.049610883
0001d0 c3 5d 8a 3d 53 5d 2c 3d 12 73 88 bd a5 0c d0 3d
       0.06756165 0.04208119 -0.06662573 0.10158662
0001e0 7f ad 8c 3d 19 a7 39 3d 90 f8 b3 bd 45 b2 e9 3b
       0.06869029 0.045325372 -0.08787644 0.007131847
0001f0 09 a0 24 bd 23 70 35 3d e8 b4 68 bd 92 74 bc bc
       -0.040191684 0.044296395 -0.05681315 -0.023004804
000200 4c eb 83 bc 38 91 9f 3c 18 ed c0 bd 2a e0 02 3d
       -0.01610341 0.019478425 -0.09420222 0.03195206
000210 18 3f 98 bd 96 11 b1 3d 9f 37 d3 3c 3e 63 71 3c
       -0.07433909 0.086459324 0.025783358 0.014733134
000220 9d e1 b2 3d 46 32 4d 3c f9 02 2a bd 6c 5b d5 3c
       0.087344386 0.012524193 -0.04150674 0.02604457
000230 00 8b 6f 3d bf e3 74 bd d1 e2 46 3d b5 a2 fd 3c
       0.05848217 -0.059787508 0.048556153 0.030961374
000240 df cb c6 3c 42 93 4a 3c 48 d8 cc bb 8c 5c cd 3c
       0.024267135 0.012364211 -0.0062513687 0.025068544
000250 cc 43 cc 3c 88 83 1b 3d e0 9c 09 bd d2 65 8e bd
       0.024934672 0.037967235 -0.033596873 -0.069530144
000260 1d 89 b9 bc bc ee 01 bc 12 e3 0d 3d 5e 80 d8 3c
       -0.022648389 -0.007930454 0.03464038 0.026428398
000270 3b 2e 6d bd a8 e6 1b 3d c4 27 da bc 20 48 33 3c
       -0.057905417 0.038061768 -0.02663029 0.010942489
000280 44 7c b3 bd 73 61 23 3d a4 65 14 3d bf 40 95 3d
       -0.08763936 0.039887857 0.036229745 0.0728774
000290 87 d2 c9 bc 28 7c ca bc 1f a2 78 3c c5 3d ad bb
       -0.02463652 -0.024717405 0.015175371 -0.0052869045
0002a0 69 63 26 3d aa 96 33 3d 78 fa 11 bc 1e 1b 53 3d
       0.04062215 0.043844856 -0.008909814 0.051539533
0002b0 b1 74 2d 3d 00 41 12 3c dc 5b 86 3d 35 04 db bb
       0.042347614 0.00892663 0.065604895 -0.006683851
0002c0 ec 53 7f bd e0 e7 85 3c 78 48 91 3c c2 61 28 bc
       -0.062335894 0.016345918 0.017734751 -0.0102772135
0002d0 f6 3f 49 3d 30 1c 9f bd 5b d4 33 3d f1 b5 38 bd
       0.049133264 -0.07769048 0.04390369 -0.045095388
0002e0 6d 89 44 3d 4f 65 0d 3d 8a 23 83 3d d4 f7 45 ba
       0.047982622 0.034520444 0.06403263 -0.0007551883
0002f0 ba 93 ac 3b e0 8d dd 3c 87 9a 6e bc 2c 62 53 3c
       0.005266634 0.02704519 -0.014563209 0.012901824
000300 f6 29 52 3d c0 75 97 bc 48 ab 00 3d b1 2e 80 bc
       0.05130955 -0.018488765 0.031413347 -0.015647264
000310 9e 7f 61 3d 46 d1 d4 bd fd 63 9b bd 01 38 fc 3c
       0.055053346 -0.10391478 -0.075874306 0.030788423
000320 ef b2 e6 3b 5b 38 a2 bd df c4 d0 3c 87 91 92 3d
       0.0070403735 -0.07920905 0.0254845 0.071566634
000330 8b 7f 9e 3d 51 1b 79 bb 33 b2 ab bc b0 e0 84 3d
       0.07739171 -0.0038010667 -0.020958995 0.06488168
000340 18 71 93 bd 6d d7 25 bd 32 4f 6c 3d d2 90 1d 3d
       -0.07199305 -0.04048865 0.057692714 0.03846819
000350 8f 5c 19 3d 56 f7 ac 3c d2 33 05 bd a0 ab e0 bb
       0.037441786 0.021114033 -0.032520123 -0.006856397
000360 99 ec 00 3d a0 21 56 3d e4 42 8e bc e2 33 dd bd
       0.031475637 0.05227816 -0.01736588 -0.108009115
000370 76 b3 b2 bd 91 67 bc bd 5f 54 93 bd 1c 22 44 3d
       -0.08725636 -0.09199441 -0.07193827 0.04788409
000380 8d b5 f3 bc f2 d4 a3 bd cb 43 a6 3d 1f 15 b4 3d
       -0.029749656 -0.079996005 0.08118399 0.08793091
000390 30 7c ac 3c 4a 5d 0d 3c 4f 38 b2 3d eb be 29 3d
       0.021055311 0.008628199 0.08702146 0.04144184
0003a0 f9 35 f8 3b 08 cf 0f 3c 9c 32 df bc 5d 04 17 3d
       0.0075747934 0.008777387 -0.027245812 0.036869396
0003b0 a1 ec 42 bc 09 b7 ea 3c 3e 6e 03 3d ff bc cd 3b
       -0.011897237 0.028651731 0.032087557 0.0062786336
0003c0 29 6b 70 3d ea 18 25 3c 1b 38 d5 bd 6c a7 b6 bd
       0.058695946 0.010076741 -0.10411092 -0.08918652
0003d0 b8 47 d9 3c 30 f8 8f 3c 46 70 8c 3d ff f5 c7 3c
       0.026523456 0.0175744 0.06857352 0.024409292
0003e0 54 e9 42 3d 19 c8 b6 bc f8 1b c2 3b 00 91 df 3c
       0.0475858 -0.02231221 0.0059237443 0.027290821
0003f0 9d d8 c8 3c 62 e4 3c 3c e2 2e 01 3c 53 27 b3 3c
       0.024517352 0.01152906 0.007884713 0.021869337

network_body._body_endoder.seq_layers.2.weight f4 [256, 256]
000000 da 12 c1 3d ec 10 86 3d ac 5f 8c bd 1a b9 42 be
       0.09427424 0.06546196 -0.068541855 -0.19015923
000010 b8 25 f6 b9 08 ed 35 3e 5b d6 9f 3d 79 ae e6 3b
       -0.0004694888 0.17766201 0.07804557 0.0070398417
000020 bc e6 9b bd 4d ed bc bd 24 e1 d5 3d 18 56 11 bd
       -0.076123685 -0.09224949 0.10443333 -0.035482496
000030 6e b6 f9 3c 6e 1d c1 3d 92 94 47 3d a0 36 b0 bd
       0.030482497 0.094294414 0.048725672 -0.08604169
000040 f1 a3 c2 3c dc c9 6a bd ca e3 82 bd 33 3a 45 3c
       0.023759814 -0.057321414 -0.063911036 0.012037802
000050 c5 d1 cb bd 72 e7 51 bb 8b ae 85 bd 85 b1 ae 39
       -0.0995212 -0.0032028821 -0.06527432 0.0003332013
000060 44 94 9a bc 0b 10 f0 3d 65 0b ef bc b6 8a 05 3d
       -0.018869527 0.1172181 -0.029180238 0.03260299
000070 e0 4b e6 3d 4a 68 26 be b7 4c 60 3d 57 57 1c bd
       0.11244941 -0.1625072 0.05476066 -0.03816923
000080 34 9f 1a bb 63 07 89 3d dd f7 51 3d e9 37 ba 3d
       -0.0023593428 0.06690862 0.05126177 0.09092695
000090 85 f3 22 bc 3f 69 e7 3d 03 1b b2 3b 3c 15 83 3d
       -0.009945755 0.11299371 0.005435349 0.064005345
0000a0 e5 73 33 bd 64 b6 fd bc 1d 05 2f bd 72 7c d7 bd
       -0.043811698 -0.03097076 -0.042729486 -0.10521783
0000b0 d9 9f a5 3d 35 14 92 3d 04 a2 18 bc 3f 84 d5 3d
       0.08087129 0.071327604 -0.009315971 0.104256146
0000c0 24 3c 2e 3d 5d 8f 41 3d 53 b9 b6 3b 82 1e 56 bd
       0.042537823 0.047255863 0.0055762916 -0.05227519
0000d0 96 c2 84 3d 16 bc c6 bc d8 2d 06 3d 95 1a b0 3b
       0.06482427 -0.024259608 0.032758564 0.0053742626
0000e0 9d 86 00 bd c7 52 09 bd 61 bf 80 bc 10 1b a8 3c
       -0.031378377 -0.03352621 -0.015716257 0.020520717
0000f0 bb ef 65 bd 1e c9 83 3d 96 76 35 bd 85 7d 0f be
       -0.056136828 0.064348444 -0.044302545 -0.14012726
000100 18 8a cc 3d e8 8d 9f bd 72 0a 07 3d 1e 86 52 3d
       0.09987277 -0.07790738 0.032968946 0.051397435
000110 51 c6 55 bd 1d 60 f5 bc ae af 7e bd d4 fd 28 3e
       -0.052191082 -0.029953057 -0.06217926 0.16503078
000120 59 5d 67 3a 11 f0 ad 3b 5c 4f 7f bc ba 35 bf bd
       0.00088258606 0.005308159 -0.015582886 -0.093364194
000130 e2 28 2a bd 38 f7 32 bc 51 f0 61 bc eb fa 49 ba
       -0.041542895 -0.010923199 -0.013790206 -0.0007704931
000140 22 48 7c bd 0b fc b2 3d c3 41 5f bc 79 53 a0 bd
       -0.06159223 0.0873948 -0.013626519 -0.07828421
000150 a6 11 c2 bd f1 b8 00 3e b7 f2 13 bd 2a 09 0f 3d
       -0.094760224 0.1257055 -0.036120143 0.03492085
000160 c9 a9 da 3d 59 93 98 3b 6c d2 2f bd 6f 8e 8b bd
       0.10676915 0.004656237 -0.042925283 -0.068142764
000170 8d c1 26 3e 9f 27 0b be 6f 9d 3e bd ff e8 5c bc
       0.16284771 -0.13589333 -0.04653686 -0.013483285
000180 65 70 5c 3d 93 2f c1 bd d4 94 ba 3c 12 09 9f 3d
       0.053818125 -0.09432902 0.022776045 0.07765402
000190 e4 5c 23 3e bb 6a 86 bd 45 2f 0f bd 20 f2 a5 bd
       0.15953404 -0.06563326 -0.03495719 -0.08102822
0001a0 72 c9 14 bd 08 7d 3b bd 76 fd 46 3d ea 6c 16 bd
       -0.036324926 -0.045773536 0.048581563 -0.036724962
0001b0 79 44 09 bd 15 7c 04 3e d4 cc 9d 3d 43 23 48 bd
       -0.033512566 0.12937959 0.077050835 -0.048861753
0001c0 2f 02 d4 bc 05 6b e1 3c 9d 11 3c bd 96 eb 05 bd
       -0.025879947 0.027516851 -0.045915235 -0.032695375
0001d0 09 37 91 bc 17 b1 a9 3d f9 5a 43 3d a5 4c 44 bd
       -0.017726438 0.0828573 0.04769418 -0.047924656
0001e0 78 a8 1f bc 0e 42 c8 3d 16 e8 0d 3d a3 36 71 bd
       -0.009744756 0.09778224 0.034645163 -0.058889996
0001f0 15 ba 5a bd 31 38 ea 3c 9a ba 86 3d 25 2a 02 be
       -0.053400118 0.028591247 0.0657856 -0.1271139
000200 4a f3 5e bb ef 62 2d bd b5 dc 12 3e b8 e3 b0 bd
       -0.0034019523 -0.04233068 0.14342006 -0.08637184
000210 e9 4f e1 3d eb d2 84 3d 01 ef 2a 3c ef f2 d3 bc
       0.1100157 0.06485542 0.0104329595 -0.025872676
000220 40 0b dc 3d b2 6b 11 bd 99 5e d1 3d 98 df a6 3d
       0.10744333 -0.035503097 0.10223121 0.08148116
000230 f5 a6 34 3d 83 89 8e bd c1 1b d6 bc 13 66 e5 3d
       0.044104535 -0.06959822 -0.026136281 0.1120111
000240 34 03 87 bd 7a 89 61 3d cc 3a a5 bc 7f 4c 85 3d
       -0.06592408 0.05506275 -0.020169638 0.06508731
000250 61 50 24 3d c8 ec ad bc 98 6e 2f bd 6a 68 5d bd
       0.040115718 -0.02123107 -0.04283008 -0.054054655
000260 89 a8 c1 bd f6 f2 06 bd 91 8d 18 bd a8 3c b0 bc
       -0.09455974 -0.03294655 -0.037244383 -0.021513298
000270 ce e1 64 3d a6 46 d7 3c 70 11 88 bd 18 b0 76 bd
       0.055879407 0.026278805 -0.06643951 -0.06022653
000280 48 c9 1c 3b cb c5 04 3c ab a0 e3 3c ab ab 1e bd
       0.0023923684 0.008103798 0.027786573 -0.038737934
000290 67 c0 ea 3d fd 23 15 3d 08 7d b3 3b 02 92 72 bd
       0.11462479 0.036411274 0.0054775514 -0.059221275
0002a0 d5 32 a4 3d 3c c7 98 3d ee 0f b8 bd 47 d5 cf bc
       0.08017508 0.07459876 -0.08987413 -0.025370253
0002b0 d2 69 46 3d 79 6d d3 bd 9a ad cf bd 17 39 c8 3c
       0.048440762 -0.103236146 -0.10140534 0.024441285
0002c0 33 d1 b6 bd f8 d5 fb bc 90 5d 0a bd f8 40 95 bd
       -0.0892662 -0.030741677 -0.033780634 -0.072877824
0002d0 16 e4 b0 bd 5c 29 6a bd cc 06 48 bd 4d db 71 3e
       -0.08637254 -0.05716835 -0.048834607 0.23618813
0002e0 82 72 ac 3b 60 c3 d8 3d a0 28 ba bd 61 27 aa 3d
       0.005262674 0.1058414 -0.0908978 0.08308292
0002f0 51 d8 2c bd b2 a5 ca bd 82 9f c2 bd 67 b3 33 bd
       -0.042198483 -0.09894885 -0.0950308 -0.043872263
000300 df d5 31 bd e8 aa 7d 3d bb 9c df bc e7 48 88 bd
       -0.043416854 0.061930567 -0.027296415 -0.0665453
000310 34 08 8c bc 3d da 39 3d 0c 7f 30 bc 04 95 b8 3d
       -0.017093755 0.045374144 -0.010772478 0.090127975
000320 ab 67 01 3e d8 88 18 3d f4 5c 16 bd 73 7c 10 3c
       0.12637202 0.03723988 -0.03670974 0.0088187335
000330 7d 04 31 3c 7f 8f 16 bd 73 39 ec bc 00 d3 e6 3c
       0.010804293 -0.036757942 -0.028835988 0.028176785
000340 a2 c2 c3 3d f1 d2 42 3a bf 9d 9b b9 02 6b 24 3c
       0.09558608 0.00074319454 -0.00029681434 0.010035278
000350 d2 c7 1b be 13 2e 93 3b bf ca 1c 3d 66 ba a3 bd
       -0.15212944 0.0044915765 0.03827929 -0.07994537
000360 e0 ff 67 3d ba d6 ce 3c 4a ab 0f 3d 65 a1 c2 bd
       0.056640506 0.025248874 0.035075463 -0.0950344
000370 f6 7c 04 bd fa 70 4d bd 12 4b 46 bc cf 95 0e bd
       -0.032345735 -0.05015657 -0.012102859 -0.034810837
000380 89 45 a9 bd 00 3c 27 bc 37 23 c8 bd aa c7 99 ba
       -0.08265216 -0.010207176 -0.09772342 -0.0011732478
000390 a8 12 32 3d 9f 26 e6 bd c9 a9 15 be 83 27 b9 bd
       0.043474823 -0.11237835 -0.14615549 -0.090407394
0003a0 a1 d9 1d be 7c b6 1a bd a5 cc 2d 3e 4a 28 3b 3c
       -0.1541505 -0.037771687 0.16972597 0.01142318
0003b0 8c f4 1e bd ef 20 98 3d 12 5e b7 bd c2 99 99 3d
       -0.038807437 0.074281566 -0.08953489 0.0750003
0003c0 9f 17 c8 bc 87 01 ec bc 7c e0 a5 3d 1b 14 5e 3d
       -0.024425326 -0.028809322 0.080994576 0.054218393
0003d0 53 71 b5 3d 3d aa 0c bb 88 cf 8b bd d9 60 5d 3d
       0.088595055 -0.0021463775 -0.06826693 0.05404744
0003e0 50 24 99 bd 3e cf e4 bd a2 40 ce bd e0 b4 84 b9
       -0.07477629 -0.11172341 -0.100709215 -0.00025311764
0003f0 12 2d ab bd 43 9c a3 3d a7 3b 37 bd 0b ed 97 3d
       -0.08358206 0.07988789 -0.044734623 0.07418259

network_body._body_endoder.seq_layers.4.bias f4 [256]
000000 e3 13 00 bd a0 62 08 3d c9 61 9e 3d 95 a0 a6 bc
       -0.031268965 0.03329718 0.07733495 -0.020340243
000010 f8 37 18 3d a1 bd 45 bb c7 21 23 bd ec a8 a6 3d
       0.03716275 -0.0030172842 -0.039827134 0.08137688
000020 e1 f2 71 3d b6 eb 02 3d b3 f2 65 3d 7c aa c9 3c
       0.059069518 0.031963073 0.05613966 0.024617426
000030 35 db 91 3c 12 18 04 3c ca db c5 3c c0 79 96 3b
       0.017804721 0.008062379 0.024152655 0.0045921504
000040 30 3e 4f 3d 10 bc 5b bd 06 cc 04 3d ba 7e ae 3c
       0.050596416 -0.053646147 0.032421134 0.021300662
000050 6b 32 b4 3c 86 88 56 3d ed 24 a9 bc cf f4 12 bd
       0.021996697 0.052376293 -0.02064749 -0.035878
000060 8a 80 44 bd f2 fa 6b 3d 43 71 12 bd fa 26 6a 3d
       -0.047974147 0.057612367 -0.035752546 0.057166077
000070 6e d6 01 bd 34 6f 9e bc 03 2e 25 3d d5 43 27 3c
       -0.031698637 -0.019340135 0.040327083 0.0102090435
000080 f6 8e e1 3c a4 c4 4c 3d f7 9f e3 bc ce 29 2f bd
       0.02753399 0.04999222 -0.027786238 -0.042764477
000090 6b 23 3f 3d d8 5d bc 3c 0a 3b a0 3d b4 ca b4 3d
       0.046664637 0.022993967 0.07823761 0.08827725
0000a0 d3 f8 32 3d ca 31 d6 bc 59 f3 ba bc ed a6 b6 3d
       0.04369433 -0.026146788 -0.022821115 0.08918557
0000b0 ce 4c f8 3c 96 d8 d3 3d 63 ab 61 3d 84 cc b5 3c
       0.03031006 0.10344045 0.055095088 0.022192247
0000c0 c8 b2 81 3d e7 22 46 3d c4 b2 f2 3c 39 7f bc bc
       0.06332928 0.04837313 0.029626258 -0.023009883
0000d0 78 3e 63 bc 0f a3 a2 3d 1f 73 1a 3d 68 c0 73 3d
       -0.013869874 0.07941257 0.037707444 0.059509665
0000e0 ff ef 65 bc 05 4e ef bc 7d 6b 2c bd c7 5b 98 bc
       -0.01403427 -0.029212007 -0.042094696 -0.01859845
0000f0 fb 60 38 bd d2 7a 38 3d 35 ff 1e bc 5d bc 8e 3d
       -0.045014363 0.045039006 -0.009704401 0.06969521
000100 9d ca 0d 3d 67 b8 80 bc 20 6b 1c bd 04 20 3e bd
       0.034617055 -0.01571293 -0.0381881 -0.04641725
000110 48 11 4e 3d 81 f0 98 3d bd 9f 38 bc be 7b b7 3c
       0.05030945 0.074677475 -0.011268553 0.022397872
000120 81 92 fd 3b 52 9f cc bb 97 0f f5 bc b7 69 e0 3b
       0.007738412 -0.0062445784 -0.02991466 0.0068485397
000130 8b aa cf 3d 13 01 0a 3d a7 71 02 bd 06 5e d0 3d
       0.1013995 0.03369243 -0.03184667 0.101741835
000140 ea b6 20 3b a1 15 8a 3d 31 2c ad 3c ab 57 43 bd
       0.0024523088 0.06742407 0.021139236 -0.04769103
000150 ed ec 12 bd e2 86 a1 3d c1 4e 1c 3d 89 96 1b 3d
       -0.03587048 0.07887055 0.038161043 0.03798536
000160 c2 09 10 bd 5e a5 35 bd 4e c8 8c 3c 17 25 d5 bc
       -0.035165556 -0.04434716 0.017185356 -0.026018662
000170 0a 09 51 bd 22 06 ae 3c f9 1a e3 3c 39 ea 03 bd
       -0.05103401 0.021243159 0.027722823 -0.032205794
000180 c3 b6 31 bc e7 59 3b bc c4 73 99 3d 62 27 ea 3d
       -0.010846796 -0.011435009 0.07492784 0.11433293
000190 b1 4f 9a bc 6c 14 3d bd ca f2 24 bd ba 03 34 bd
       -0.018836828 -0.046162054 -0.040270604 -0.043948866
0001a0 36 6e 8d 3c af c5 c1 bc a2 c1 07 bd cd 55 12 3d
       0.017264467 -0.023653833 -0.033143647 0.035726357
0001b0 78 44 2c bd 8b f0 21 3d 19 1b 3f 3d 97 86 8c bc
       -0.042057484 0.03953604 0.0466567 -0.017154021
0001c0 22 f1 9a 3c 5a 53 20 3c a2 fc 26 bd b3 83 34 bd
       0.01891381 0.009785498 -0.040768273 -0.04407091
0001d0 aa 27 e8 3c fc 24 b5 3c 47 f4 46 bc d5 27 eb bc
       0.028339226 0.022112362 -0.012143201 -0.028705517
0001e0 15 c7 13 bd 25 eb 28 3d d4 d1 82 3c 38 db 0a bd
       -0.03607853 0.041239876 0.015969194 -0.03390047
0001f0 f7 98 8d 3d d0 90 34 bc 5b 28 8e 3d 5b 2b ca bb
       0.06913941 -0.011020854 0.06941291 -0.006169719
000200 f3 3e 2e 3d 38 63 9e 3c b7 0f eb 3c e1 50 09 bd
       0.0425405 0.01933442 0.028694017 -0.033524398
000210 14 04 2d 3d d2 13 a4 3d 54 40 fb bc 07 ec 05 3d
       0.042240217 0.08011593 -0.030670322 0.032695796
000220 62 95 c8 bc f3 d8 a9 3c 5d e2 33 3d b5 56 8d 3b
       -0.024485294 0.020733332 0.04391705 0.004313315
000230 ac 07 c8 bc 6c fa ce bc 53 e3 80 3c c6 e6 48 3d
       -0.02441772 -0.025265895 0.015733397 0.049048208
000240 ed 5d 1f 3d 7b 30 95 3c bc f5 52 bd 8b 2d 3a bd
       0.038907934 0.018211594 -0.05150388 -0.04545359
000250 3c a3 7f 3d dd 20 7f 3d e9 0d 7c bc 0a 97 ba 3d
       0.06241153 0.0622872 -0.015384176 0.0911084
000260 b5 1a 52 3d 71 23 f0 bc 04 4d 21 3d 8c 6e bb 3d
       0.051295 -0.029313775 0.03938009 0.091519445
000270 b7 98 cf bc 09 eb 31 bd ec e4 14 bd 77 de 3d bd
       -0.025341375 -0.043437038 -0.03635113 -0.046354737
000280 c5 20 0a 3d 03 2f 46 3b 31 fa ff bc 0c 18 81 3d
       0.033722658 0.0030240424 -0.03124723 0.06303415
000290 28 f7 18 3d 99 33 f3 3c f9 4b bd 3c 6b 0c 44 3c
       0.03734508 0.02968769 0.023107516 0.011965851
0002a0 ef 7f 14 3d 4c 9b 3c 3a 3f 17 2b bc 1a 8a 1e bd
       0.03625482 0.0007194772 -0.010442554 -0.038705923
0002b0 12 a8 0b 3d d9 85 23 3d 94 a1 78 bc 6e c9 79 3c
       0.03409583 0.03992257 -0.015175242 0.0152457785
0002c0 95 6f 09 bd aa 80 0e 3c 19 f5 ac 3c d6 53 8f 3d
       -0.03355368 0.008697668 0.021112965 0.06998412
0002d0 aa bb 5a bc cf 3e 0a 3d d8 b5 c4 3d 7c 29 6b 3d
       -0.013350407 0.033751305 0.096049964 0.05741261
0002e0 f8 9f 3b 3d 4c 33 bb bc fa 16 ac bc 99 18 02 3d
       0.045806855 -0.022851609 -0.02100705 0.03176174
0002f0 df 52 95 3c 58 a3 ca 3c 3c ad 27 bc 5f bd 84 3d
       0.018227993 0.024736091 -0.010234173 0.06481432
000300 42 b1 a5 3d db 74 17 3d 3d 80 96 bc 00 11 1a bd
       0.0809045 0.036976676 -0.018371696 -0.03761387
000310 85 80 02 3d 74 04 25 bd bb ba 39 3d a8 73 0b 3d
       0.031860847 -0.04028745 0.045344096 0.034045845
000320 97 9a be 3c 69 73 49 3c 34 3d 40 3c 94 2c 12 3d
       0.023267074 0.012295582 0.011733342 0.035687044
000330 4b 9f 21 3d 04 3b 25 bd 4c f0 bb 3d a7 23 8f 3d
       0.039458554 -0.040339485 0.09176692 0.06989222
000340 ec 06 d5 bc 4b cf 0f bd fc 9c 93 bc ed 63 24 bd
       -0.026004277 -0.0351098 -0.018019192 -0.04013436
000350 a2 0c ee 3c 73 1b 6a 3d 6f 2f 09 bd 08 19 08 bd
       0.029058758 0.057155084 -0.0334925 -0.033226997
000360 13 15 90 3c 2d f4 f9 bc cb 9e c4 bc 95 69 08 bd
       0.017588174 -0.03051194 -0.0240015 -0.033303816
000370 09 10 49 3c 1f 60 31 bd 5d 77 d2 3c c8 52 2a 3d
       0.0122718895 -0.04330456 0.025691682 0.041582853
000380 9e 74 13 bd 01 07 ad 3d c2 bf 9f 3c c3 c6 72 3d
       -0.035999887 0.084486015 0.019500617 0.059271585
000390 94 2b 02 3d e4 83 a3 3c 14 f1 8b 3d b8 23 a1 3d
       0.03177984 0.019960351 0.068330914 0.07868141
0003a0 6e 46 11 bd 2d 70 29 3d 41 ce e3 bc bb 93 a7 3c
       -0.035467558 0.041366745 -0.02780831 0.020456186
0003b0 84 03 60 3d 10 48 96 3c 39 83 e7 bc 52 09 9c 3d
       0.054690853 0.018344909 -0.028260814 0.07618965
0003c0 de 67 31 bc b2 7e a2 bc fd 94 d1 3a 96 96 e6 3c
       -0.0108279865 -0.019835804 0.0015989837 0.028147977
0003d0 a1 68 fa 3c 0d 31 6c 3c 78 98 55 3d a5 75 f7 bb
       0.03056747 0.0144159915 0.05214736 -0.007551866
0003e0 92 9a b5 3d 56 a9 ce ba 65 9b 81 bc 81 1d 7b 3b
       0.088673726 -0.0015767019 -0.015821168 0.0038317146
0003f0 23 27 b2 3c fc ff 51 3d 93 83 55 3c f1 bb ce bc
       0.021747177 0.051269516 0.013031858 -0.025236102

network_body._body_endoder.seq_layers.4.weight f4 [256, 256]
000000 ff d0 c7 bd 55 0a 7f bd d6 14 73 3d 1f 5c 3f 3d
       -0.0975666 -0.062265713 0.059346043 0.046718713
000010 bc e0 68 3d ae 7d b9 3d 69 a9 f7 bc d7 2b c7 bd
       0.05685495 0.090571746 -0.030232148 -0.09725159
000020 16 75 aa bd c0 95 87 bd b9 6e 10 bc e6 f5 a8 3d
       -0.083231136 -0.066203594 -0.008815461 0.082500264
000030 d0 b4 ed bd b8 53 10 bd 42 93 5e bc 2c 0c bf bc
       -0.11606753 -0.03523609 -0.013584914 -0.023321234
000040 c3 6e 2b be 56 31 21 3e 2c 3a e2 3d 48 a8 2b 3d
       -0.16741471 0.15741476 0.11046252 0.041908532
000050 49 4a f8 bc cd 58 37 bd 99 81 df 3c 0a 08 4e bc
       -0.03030886 -0.04476242 0.027283477 -0.012575159
000060 30 71 4b 3d 3c 21 c5 bd 8d b0 be bd ea 64 b8 3c
       0.04966849 -0.096254796 -0.09311018 0.022509057
000070 25 08 b3 bd af b0 9f 3d 35 48 05 be 2b 16 96 bd
       -0.08741788 0.077973716 -0.13015826 -0.07328447
000080 05 f7 58 3d 27 ea fb bd e1 43 bb bd d6 f8 5e bd
       0.05296995 -0.123005204 -0.09143806 -0.054436527
000090 1b e5 3f bd 3b 0b a2 3d 5d 11 eb bd ea 81 ff bc
       -0.04684935 0.07912298 -0.11477921 -0.031189878
0000a0 90 48 f4 bd 65 70 0c bd 11 d4 63 3c 2c 5f d2 bd
       -0.11927903 -0.034286875 0.013905541 -0.10272059
0000b0 a4 c9 f4 3d 9f 65 e4 bb 9c 20 ab 3c f2 f0 8c 3d
       0.119525224 -0.006970122 0.020889573 0.06881894
0000c0 15 6c 89 bc f9 b3 13 3d 8f 7c e2 3c d9 e5 12 bd
       -0.01677517 0.036060307 0.027647285 -0.03586373
0000d0 db 3f 88 bb 85 23 1b be 73 0f 55 bc 37 00 a8 bd
       -0.004158003 -0.15150268 -0.013004172 -0.08203166
0000e0 e7 d7 5d 3a 1e fc 7c bd 96 54 ae 3c 36 16 60 bc
       0.0008462653 -0.061763875 0.021280568 -0.0136771705
0000f0 ad e2 17 bd 0a 36 61 3d d7 69 11 3d 2d 9f c9 3b
       -0.03708141 0.054983176 0.035501327 0.0061530084
000100 af e7 6e bd 40 75 95 bc 1e 51 3f 3c 05 22 d4 bd
       -0.05832642 -0.018244386 0.011677055 -0.10358051
000110 f7 d1 20 3c 61 12 b5 3d 0b 8d b4 bc c6 84 e7 bd
       0.0098156845 0.08841396 -0.02203991 -0.113046214
000120 e8 da 60 bd 06 5a 02 bb eb db e3 3c 68 32 1a 3d
       -0.054896265 -0.0019890084 0.027814826 0.037645727
000130 43 aa cf bb 0f 56 1b 3d 32 42 b4 bd a3 71 6c bd
       -0.0063374355 0.03792387 -0.08801688 -0.05772556
000140 60 df 00 3d 9e 8c b7 3b 71 0a 05 bd 07 8e 43 3d
       0.031463027 0.0056014797 -0.03248066 0.04774287
000150 98 e6 66 bd f2 eb fb 3c 8f 8e 03 be 6b a8 90 bc
       -0.056372255 0.030752156 -0.1284735 -0.017658433
000160 4c 6e a0 bc 62 fd 3c bd 6d 6b 08 3d 37 49 30 bd
       -0.019583844 -0.046140082 0.033305574 -0.043038573
000170 c1 94 a2 bb 55 ac 81 bc 5b ab db 3c d8 5e 96 bd
       -0.0049615805 -0.015829245 0.026815107 -0.07342309
000180 e4 6e 88 bc e2 32 20 bc 6f 1b 73 bd 8e c4 c7 bd
       -0.01665444 -0.009777756 -0.059352335 -0.09754287
000190 a7 d2 76 bd 10 16 66 bd f9 92 d8 bd d6 df 1e 3b
       -0.060259487 -0.056173384 -0.10574908 0.0024242303
0001a0 77 1b ea 3c e7 dc 20 3d 1c 0f d7 bd 14 72 89 bd
       0.02857755 0.03927317 -0.10500929 -0.06711212
0001b0 b3 47 0d be 07 d2 99 bd 82 4e 76 bd 4e 63 9e bc
       -0.13796882 -0.07510763 -0.060133465 -0.019334462
0001c0 34 75 04 3c e5 db 98 bd e3 8b a6 bb 51 69 ae bd
       0.008084584 -0.074638166 -0.0050825938 -0.08516181
0001d0 19 dc 8f bc ec 3c b7 bd 38 54 08 3d b9 53 32 be
       -0.017561005 -0.08947167 0.033283442 -0.1741475
0001e0 cf a9 bd bd 7b 33 53 3d 79 42 23 bd 70 eb 19 3b
       -0.09260904 0.051562767 -0.039858315 0.002348628
0001f0 a3 d4 2d be ed 16 0d 3c 80 86 cb bd 00 65 68 37
       -0.16975646 0.008611423 -0.09937763 1.38517935e-05
000200 70 92 2d bd 7d fe e4 bb 6b 2f 65 bd 41 2d c3 bc
       -0.04237598 -0.006988345 -0.055953424 -0.02382529
000210 77 ca 00 3e 18 c5 a8 3b cf d6 d4 bc 2f 4d 84 bd
       0.12577234 0.0051504485 -0.025981335 -0.06460034
000220 06 85 ed 3d 4d ae 80 bd cb 2f fe bc f1 1d 9b bd
       0.11597638 -0.06283245 -0.031028649 -0.0757407
000230 23 5b ee 3c 9b d1 85 bc e1 d1 81 3d f2 c2 31 bd
       0.029096192 -0.0163353 0.06338859 -0.043398805
000240 d3 10 eb bd c2 e2 dd bc ff 54 80 bd 12 a9 a7 bd
       -0.11477818 -0.027085666 -0.06266212 -0.081865445
000250 fc be 88 bd 30 23 9a bd 0f 33 96 bc 81 b4 4f 39
       -0.066770524 -0.07526243 -0.018334894 0.00019808301
000260 72 8c c8 3c f3 60 82 bd e2 8a e1 bb 4a 69 75 bd
       0.024481032 -0.06366148 -0.006883011 -0.059914865
000270 9b 6b 1e be d2 4f 7d bd 2c ae 06 3d ec 64 cd bc
       -0.15470736 -0.0618437 0.032880947 -0.025072537
000280 4b ef 07 3d 42 d8 b2 bc 34 73 9d b9 64 19 d8 bd
       0.033187192 -0.021831635 -0.00030031207 -0.10551718
000290 df 48 1e bd a9 a1 d1 3c 3e 96 09 bb ca ce 06 bb
       -0.038643714 0.02558978 -0.0020994092 -0.0020570033
0002a0 fe 44 47 3d 69 88 16 3c de 29 a0 bd ed 09 ce bd
       0.04864978 0.009187796 -0.078204855 -0.10060487
0002b0 d0 37 06 3d 64 da ad bc fb 61 2e bd 32 d3 b9 bc
       0.03276807 -0.0212223 -0.04257391 -0.022683714
0002c0 03 74 27 bd c9 65 9a 3c 9b 9c b0 bd 1e 0e 8a bd
       -0.04088212 0.018847363 -0.0862362 -0.06740974
0002d0 6b 2f f8 3c a6 70 8a 3d 1f 38 23 3c 01 79 9c bd
       0.030296048 0.06759767 0.009962111 -0.07640267
0002e0 16 ab e1 bd 8d f4 05 bd ba e6 cd bd f5 3e c6 3b
       -0.1101896 -0.032703925 -0.10053773 0.0060499855
0002f0 02 c9 3a be 52 8f 0f 3d 58 07 15 3e e5 9e 33 bd
       -0.18240741 0.03504879 0.14553583 -0.043852706
000300 1b 50 4a 3d 06 c5 93 bd e1 46 21 bd b6 9a 13 3e
       0.0493928 -0.072153136 -0.039374236 0.14414486
000310 43 ec bb 3c 55 48 b5 bd a0 87 57 bd ee a9 77 be
       0.022939807 -0.08851687 -0.052619576 -0.24185917
000320 32 cb 98 bb 33 06 e2 bc 2d a9 01 bc 2b 02 02 be
       -0.0046628946 -0.027590847 -0.00791387 -0.1269614
000330 64 8b fc 3c a2 bd 7d 3d aa d9 13 bd 53 89 cc bd
       0.030828185 0.061948426 -0.036096253 -0.0998713
000340 51 00 85 bc 05 8a 14 bd 08 fa 72 bd 79 ae a5 bd
       -0.016235502 -0.03626444 -0.05932048 -0.08089919
000350 a4 88 dc bd e0 71 b2 3b 11 4c 7d bd 21 c0 42 bd
       -0.1076825 0.005445704 -0.06184012 -0.04754651
000360 82 80 02 be a9 eb b0 3b 7d a0 4b bd 9d b5 2a 3c
       -0.12744334 0.0053991866 -0.0497136 0.010419277
000370 b2 24 ea 3d bd bb 90 3d fe 7c d1 bc d0 35 fc 3c
       0.1143278 0.07067058 -0.025572296 0.030787379
000380 71 b4 68 bc 94 7e 99 bc 06 d7 f3 3c 53 3f 15 bd
       -0.014203177 -0.018737115 0.029765617 -0.036437344
000390 ab c9 6e bd 3c 01 53 bd 90 b3 d0 bd fe a9 dc 3b
       -0.058297794 -0.05151485 -0.10190499 0.006734132
0003a0 b4 85 a6 bd 03 91 95 bd fe 54 0c bd 35 4c d0 3d
       -0.081309706 -0.073030494 -0.034260742 0.10170785
0003b0 62 d1 9d 3c b1 ea 25 3d 28 cf a2 3c be d2 2b bd
       0.01926488 0.040507022 0.01987417 -0.041949026
0003c0 9b 09 37 3d f7 e9 cd bd 4b fe f5 3c 60 65 91 3d
       0.044686895 -0.10054391 0.030028483 0.07099414
0003d0 f6 e6 cc bd d9 0c 33 bd 66 cd 40 3d 4f 19 b0 bd
       -0.1000499 -0.043713424 0.047070883 -0.08598577
0003e0 79 3a 2e 3b 95 d4 aa bd fb e6 86 3d 8b 43 4b 3c
       0.0026585145 -0.08341328 0.06587025 0.01240624
0003f0 26 67 2a bd ef b3 30 be 66 03 c3 3c 8f c4 6d bd
       -0.041602276 -0.17256139 0.023805331 -0.05804878

network_body.observation_encoder.processors.0.normalizer.running_mean f4 [6]
000000 8c f3 42 c1 93 d7 c5 41 90 21 c7 c1 6c 1f 01 c2
       -12.18446 24.73026 -24.891388 -32.280685
000010 fa 31 b3 3f 07 51 8e c2
       1.3999627 -71.15826
