Assets/Training/results/learn_v4/MarsTaxi/MarsTaxi-2999982.onnx (onnx, 542464 bytes, 10 tensors)

54 f4 [6]
00000000: 3386 c741 f1e9 3241 e165 5e42 4424 993c
00000010: bb31 823a 8ba6 283d
24.940527 11.182115 55.59949 0.01869405 0.0009933034 0.041174453

action_model._discrete_distribution.branches.0.bias f4 [6]
00000000: 693f 043d fb24 89bb 6455 30bd a33d f2bb
00000010: 6121 483c b3fe e5bc
0.032287035 -0.0041853166 -0.043050185 -0.0073926016 0.012214989 -0.028075552

action_model._discrete_distribution.branches.0.weight f4 [6, 256]
00000000: bc52 b1bd 9bdc 713b 9a1e 4d3d 9576 c7bd
00000010: 2baf cb3c 941e 413d a2d5 88bd d481 733d
00000020: b04b 1f3d 864a 8d3c feba 2f3d 4c5f 8c3c
00000030: ab0b c23b fe79 3c3d 1493 473d 487c 69bd
00000040: e6ab 0d3d ce06 27bd caf0 f33b d0de 9c38
00000050: 8694 553d 73fa 0bbc a944 31bd 12b6 c6bc
00000060: a3b9 81bd 0219 633d f7ce a4bd 4886 b7bb
00000070: 38be 58bd 85c9 50bd 8308 1c3d d582 eb3c
00000080: e943 c83c a4b8 163d 873b 26bd 1454 8dbd
00000090: c710 513d c407 363c bd48 8c3d 7279 0a3d
000000a0: 41c8 683d 9529 17bd 9960 52bb c445 9b3c
000000b0: 11b7 1cbc 8d49 8f3d 12cb 183d 9177 ef3c
000000c0: 8a12 943c b6c1 053c 5156 94bc 06ce f0bc
000000d0: 2243 24bd 55d9 853c b06a a2bc 1a1b c33b
000000e0: 1527 74bd 55d5 9bbd 930c 71bd 620a 32bd
000000f0: 2f46 f33b 9ef1 bf3c 5bc7 d6bc 3ce9 f83c
00000100: 1154 253d bc86 663b a107 90bd e8dd 7cbd
00000110: a0cb c23b a380 78bc 09bf 74ba ed43 95bc
00000120: d5ad c5bb 4330 e4bc 8f12 a0bd aa19 aa3b
00000130: 3643 553d 5acf 843c b71a 3dbd 3f22 893d
00000140: c843 ce39 4e74 3f3d b794 3dbd 42a1 06bd
00000150: ca6d 98bd 0f32 133c bd14 f53c 8c7f 163d
00000160: 49e3 3fbd 2749 19bd da15 823c 99c0 50bd
00000170: c3d4 60bd cade abbc 6ad4 ea3b 2d6b adbd
00000180: 7868 f7bc a794 81bd 1c43 f13c 3618 193d
00000190: cc78 96bd af6a 6cbd 7a7a 63bd 7b8d 4cbd
000001a0: 7093 8fbd cb73 9bbd cba2 6dbd 233a 92bb
000001b0: 3aa6 05bd 6df5 073d 178a 2d3d 21f5 18bd
000001c0: ffe3 3cbd 8dee 88bd ee61 99bd 5b8e f0bc
000001d0: ee4f f03c 7f1d 513b 2186 86bd 1348 95bd
000001e0: 4645 e8bc 8754 023d b373 f2bc c908 2bbd
000001f0: eaec e73c 784a f0bc 749a 023c 20da 03bd
00000200: 8d81 803c 5070 4b3c f2b0 b7bc e371 87bd
00000210: f2a2 fe3c 9c51 d03c a082 9fbd 1b29 183c
00000220: 4e1b 6abd a254 1c3b 4d3b 103d 5c2a 1f3d
00000230: 7d9e 7fbd 03a8 0ebd 557e 2f3d 5db2 813b
00000240: 184b bebc 7f11 a9bc c548 0fbd 3b87 8cbd
00000250: f983 c73b 7c5b 863d 1a0a bbbd 2e24 d43c
00000260: ff04 db3c 4a3b b4bd 480f 273c 9b59 0f3d
00000270: d65f 92bd 1246 54bd d51d 8abd 2fc2 50bd
00000280: 2b6f df3c eea4 23bd 6242 b7bd 53ca f83c
00000290: abd2 6b3c 7fb0 2cbc e22b 8f3d be3a 493c
000002a0: c088 633c 9ad7 a7bd 4e59 5ebd 2f80 57bd
000002b0: f56d da3c 3c08 7cbc 0c06 8bbc 8440 8bbc
000002c0: d54d acbd c135 01ba 18af 63bb acdf 133d
000002d0: b99c 71bc e29e af3c 1dab 793d 7e78 34bc
000002e0: af40 453d dd9d 79bc 45db a6bd ed13 df3c
000002f0: a34a f93b 3055 de3c 9ede 21bd 584b 1b3d
00000300: b12b 903d 462b 67bc 2d45 63bc fb20 34bd
00000310: 643d 913c 5609 5fbd b6f5 0c3a 183a 343d
00000320: 70b0 423c 4128 a2bd 63c8 223d 0ff6 493d
00000330: 6f1c 823d 045c 10bd 7dd6 583c f41e 5d3d
00000340: 4282 bcbd a61c 97bd 6de1 50bd b7c6 9cbd
00000350: 20e5 883d 3a0f 653a ebea 8dbd 64e8 06bd
00000360: f7f9 543d 8718 b0bd 4852 87bd 0456 aabd
00000370: 322b 963c aae8 90bd fe5b 5e3c e794 373d
00000380: aae9 8bbd 3150 8e3d 8588 a7bb ba7d 5f3d
00000390: 1d6c 3a3d 1a43 713c aa02 083c 5f62 843d
000003a0: 71b6 94bd 99c2 413d aa0a 85bd 52ea 2fbc
000003b0: 2e01 3c3d 88fc 523d 6d5c 3abc 2535 803d
000003c0: caa8 963c bb76 4b3b c276 dcbc 086e 883a
000003d0: 98f8 4d3b 0825 483c 9b36 07bc 55b5 a7bb
000003e0: 83d7 973c ab07 02bd b27a 6bbd 6fef 363c
000003f0: 01c8 56bc 4995 153d 3eac d9bb 4b55 a8bd
-0.086583585 0.0036905173 0.050078012 -0.097394146 0.0248638 0.047148302 -0.06681372 0.059449986
0.03889054 0.01724745 0.04290294 0.017135285 0.005921801 0.04601478 0.04872425 -0.05700329
0.034587763 -0.040777974 0.007444476 7.480162e-05 0.052143596 -0.008543598 -0.04327837 -0.02425674
-0.063342355 0.05544377 -0.08047288 -0.0056007244 -0.05291578 -0.050973434 0.038094055 0.028748909
0.024446445 0.03679718 -0.040584113 -0.06900802 0.05104139 0.01111025 0.06849811 0.033807226
0.056831602 -0.03690489 -0.0032101034 0.018954165 -0.009565131 0.069964506 0.037303038 0.029231818
0.018075246 0.00816386 -0.018107565 -0.029395115 -0.040103085 0.016338984 -0.019826263 0.0059541585
-0.059607584 -0.07609049 -0.058849882 -0.043466933 0.007424138 0.023430642 -0.026218107 0.030384652
0.040363375 0.0035175523 -0.07032705 -0.061735064 0.005944684 -0.015167388 -0.0009336328 -0.018220866
-0.0060326853 -0.027855044 -0.0781604 0.0051910477 0.05206605 0.016212154 -0.046168055 0.06695985
0.00039341883 0.046741776 -0.046284404 -0.03286863 -0.074428156 0.008984103 0.029917115 0.036742732
-0.046847615 -0.03742328 0.01587956 -0.050964925 -0.054890405 -0.020980258 0.007166435 -0.08467708
-0.030201182 -0.06327181 0.029450946 0.037376605 -0.07347259 -0.05771893 -0.055536725 -0.049939614
-0.07010543 -0.07590445 -0.05801658 -0.004462497 -0.03262923 0.03319304 0.04236802 -0.03734315
-0.04611587 -0.06686125 -0.07489382 -0.029364755 0.029334988 0.003190845 -0.06568552 -0.07289138
-0.028353345 0.031818893 -0.029596185 -0.041756425 0.028311212 -0.029332384 0.007971395 -0.032190442
0.015686775 0.012416914 -0.022423241 -0.06613519 0.031083558 0.02542954 -0.077885866 0.009287144
-0.057154946 0.0023854156 0.035212804 0.038858756 -0.062407006 -0.034828197 0.04284509 0.00395803
-0.023229167 -0.020638226 -0.034981508 -0.06861731 0.0060887304 0.06560418 -0.09132786 0.025896158
0.02673578 -0.08800371 0.010196514 0.034997564 -0.071471855 -0.051824637 -0.06743971 -0.050966438
0.027274689 -0.03995221 -0.089482084 0.030369913 0.014393489 -0.010540127 0.06990792 0.012282072
0.013887584 -0.081954196 -0.054284386 -0.05261248 0.02666376 -0.015382823 -0.016970657 -0.016998537
-0.08413283 -0.00049289694 -0.0034741815 0.036101982 -0.014746838 0.021438066 0.060954202 -0.011015056
0.04815739 -0.015235391 -0.08147291 0.027231181 0.0076077743 0.02714023 -0.039518945 0.03791365
0.070395835 -0.014109438 -0.013871473 -0.043976765 0.017729469 -0.054452263 0.000537719 0.044000715
0.011882886 -0.07917834 0.039741885 0.049306925 0.063530795 -0.035244003 0.013234732 0.053984597
-0.09204532 -0.07378511 -0.050996233 -0.07655089 0.06684327 0.00087379257 -0.06929573 -0.03293647
0.051996198 -0.08598428 -0.06607491 -0.083171874 0.018331144 -0.07075627 0.013571737 0.04481974
-0.06831677 0.06948889 -0.00511271 0.05456326 0.04551326 0.014725471 0.008301416 0.06464075
-0.072613604 0.047304723 -0.06496175 -0.010737019 0.045899563 0.051510364 -0.011374575 0.062601365
0.018391032 0.003104611 -0.026912097 0.0010408768 0.003142869 0.01221586 -0.008252765 -0.005118052
0.018535381 -0.031745594 -0.05749006 0.011165484 -0.013109208 0.036519323 -0.0066428473 -0.08219393

network_body._body_endoder.seq_layers.0.bias f4 [256]
00000000: 3042 9b3d 5f1e 993d 489c d7bd e3ce a53d
00000010: 525a 963d 55a8 533d 02b2 033b 5d44 423d
00000020: 3a5b a13d c6f3 433c 2e2b 7c3d 28d5 613d
00000030: 1ebc 4e3d a94b 8f3d 0c5c 94bc 1ba8 48bc
00000040: 8a55 3c3d 9229 c23d 425c 943d 86a8 003d
00000050: c56b 983a 4a4b 993d 6ba1 ccbc 7cba 673d
00000060: 76c1 773d 73f8 68bc 061c 173d d324 3a3d
00000070: 2192 cb3c 90ff b93d 00cb 0f3d 886c 403d
00000080: e22f c13d a285 a53d b14c 2f3d 70e9 d23c
00000090: cbe1 9dbd d062 003d dc77 d43b 0bc5 c53d
000000a0: da94 15bc 58aa cd3c 032c da3d 73f4 8e3d
000000b0: 9d9b 7dbc 72e1 b53a b2a1 863d 9b57 9c3c
000000c0: 5650 593d 4f9e 0dbd 0ce7 963d 78b5 8f3d
000000d0: d378 813c d6bb cb3c f6ac debb 8da9 533d
000000e0: 52cd 3d3d bc18 c03d 3c6f 3e3d 1e6e 993d
000000f0: 0f37 4f3d eff1 4e3d f42c b23d 5b88 593d
00000100: 8801 c1bc 2cc3 0cbd 5bf3 013d 851e 533d
00000110: c49a 0e3d 36b8 ed3b e475 d83d 4973 88bc
00000120: f495 f43c e398 ac3d e2ff b23d 1ac5 2d3d
00000130: 9c0b a73d 8b05 b43d c7f7 90bd d15a c13c
00000140: 1531 b03a 274b 983c d109 04bd 88bb 78bb
00000150: 2749 1a3c cfdf b53c 9b11 9c3c 001f 753d
00000160: 2940 a0bd b2b6 7f3d 9100 36bd 8cda 573d
00000170: d086 1a3d 8b2a b93d f730 9a3d e4e2 8d3d
00000180: e1f3 363d 5a7b a53d 107b 0e3d 410d 9c3d
00000190: f662 393d cd81 b5bd 0242 d43d 81e4 c73d
000001a0: 34e8 5a3d 5dec f83c 50f0 debb e82c c63b
000001b0: 50c3 873d b228 623d 7dd3 013d 36b4 303d
000001c0: 5ef3 733d 89c5 923d e7d4 de3d e260 d7bc
000001d0: c8b0 cd3d d96a 743c 9e3e 5f3d b72a 5eba
000001e0: ee02 f73c 49ed 61bc 568b a73d d3f4 ae3d
000001f0: 3de6 8f3d 2399 663c 47af 8a3d 339a 8d3d
00000200: 43fe ab3d f2ca 723d 2bf8 9cbd d584 503d
00000210: 4862 543d 6d80 ed3c e32a 8d3d 2fcb 9e3d
00000220: 89f2 703d 9824 00bd 5ab8 893d 3363 1ebb
00000230: c83c 683d f900 a13c 1d0a 383d 40e4 023d
00000240: 4265 663d 4ca0 69bc f29a b6bc 2efb e53a
00000250: a4ed 423d f109 a93d 12e6 273d f444 833d
00000260: 1e57 8f3d 9efd 2a3d 3e09 9c3d 476b 51bd
00000270: 044b 9c3d 4cd0 1b3d 1292 0ebd 3c99 d83d
00000280: 59c5 f53c c09a 9c3d c6b7 c3bb a278 2d3d
00000290: 9bba 1fbb 9151 013b 77bc d73c 3af2 e63c
000002a0: a8e0 b9bb dd80 e13c e1d7 723d 3f07 993d
000002b0: ae86 7c3c 9388 253d 16e4 7c3d ddc7 843d
000002c0: b398 813d b838 563d f9bf b43d 684f 233d
000002d0: 897c b13d eadb 7e3c 46f2 5b3d 5b0b 333c
000002e0: 7da8 70ba 1628 3f3d 9e06 623d fffe 333d
000002f0: ebad c43d 9a70 df3b a30e 7e3d f652 52bc
00000300: e525 583c 3979 713d 6cc9 9a3d 6759 393d
00000310: 8e87 9c3d ac38 633d ae3b d73d 2a7d 4e3d
00000320: 883e aa3c 9db4 5a3d 8b56 ee3c 1325 543c
00000330: 9cfc c33c fc58 6d3d 7ccf 923d 2fd5 a53c
00000340: 3626 2c3d 7028 823d b5b6 d13d 6d5a cb3c
00000350: 0ccc 883d d84e 6c3d 43c9 313d 8e4c 843d
00000360: 70c7 023d 21d0 a93c df10 ba3d d45d e83d
00000370: 6e55 cd3d 2e6d 7a3c af7b ea3d 4755 23bd
00000380: fa21 6c3d 361e 863d 9fb9 8d3d dbc4 783d
00000390: d623 6c3d 9f21 1b3d baf7 febc 96d0 8c3d
000003a0: ddcb c13d 2b7e ba3d 3330 fd3c 96a4 983d
000003b0: 7bae d63d d609 493d 30b7 28bc b39e 4a3d
000003c0: f302 e13c 410e 4f3d 7650 8dbd ed5f 9d3c
000003d0: d37d 413d a1f2 fc3c 233a a03c 2f87 933d
000003e0: f447 a93c dbe9 003d 5f40 683d 4727 5b3d
000003f0: 8e4e 203d 2872 463d 7c5c 8b3c 7f7e b33d
0.07580984 0.07476496 -0.10527855 0.08096101 0.07341446 0.051674206 0.0020095115 0.047428478
0.07878728 0.011959976 0.061564617 0.055134922 0.05047237 0.06996853 -0.018110298 -0.012247111
0.045980014 0.09480585 0.07244159 0.031410716 0.0011628798 0.074850634 -0.024979314 0.05657433
0.060487233 -0.014219391 0.03689196 0.045445275 0.024849953 0.09081948 0.035105705 0.046978503
0.09432961 0.08082129 0.042797748 0.025746077 -0.07709082 0.031344235 0.006484015 0.096567236
-0.009129727 0.02510564 0.10652926 0.06980219 -0.015478996 0.0013876392 0.0657381 0.019084742
0.05305513 -0.034574803 0.073682874 0.07017034 0.015804684 0.02486984 -0.006795521 0.051675368
0.046338387 0.09379718 0.0464928 0.07491706 0.050589617 0.050523695 0.086999804 0.053108554
-0.0235603 -0.034365818 0.031726222 0.051542778 0.034815565 0.0072546257 0.10569361 -0.016656535
0.02985666 0.08427598 0.08740212 0.0424243 0.08156511 0.0879012 -0.0707851 0.023602875
0.0013442362 0.018590523 -0.032235924 -0.0037953574 0.009416855 0.022201447 0.019051364 0.059844017
-0.078247376 0.06243009 -0.044434134 0.052698657 0.037726223 0.090413176 0.075288706 0.069280416
0.044666175 0.08080168 0.03478533 0.076197155 0.045260392 -0.08862648 0.103641525 0.097603805
0.053444102 0.030386144 -0.00680355 0.0060478337 0.0662905 0.05521459 0.03169583 0.043140613
0.059558265 0.07166583 0.10880452 -0.026291315 0.10043484 0.014918053 0.054503076 -0.0008474993
0.030152764 -0.013789483 0.08180873 0.0854279 0.07026336 0.014074597 0.06771713 0.06914177
0.08398106 0.059275575 -0.07664522 0.05090793 0.05185154 0.028991902 0.068929456 0.07753598
0.05882505 -0.0312849 0.067246154 -0.0024168014 0.05669859 0.019653784 0.04493152 0.031955957
0.05624891 -0.014259409 -0.02229068 0.0017546171 0.047589913 0.08253849 0.040990897 0.06409636
0.06999038 0.041745774 0.0761895 -0.0511277 0.076314956 0.038040444 -0.034807272 0.10576102
0.03000133 0.07646704 -0.0059728352 0.042351373 -0.00243727 0.0019732455 0.026334984 0.028191675
-0.005672533 0.027527267 0.05928791 0.07472085 0.0154129695 0.04041345 0.061740957 0.064834334
0.06327953 0.052300185 0.088256784 0.03987065 0.08666331 0.015555361 0.053697847 0.010928
-0.000918038 0.04666909 0.055182092 0.043944355 0.09603485 0.006818843 0.062025677 -0.012837162
0.0131926285 0.058953498 0.075579494 0.045251276 0.076430425 0.05547397 0.1050943 0.050412335
0.02078177 0.053394902 0.029094001 0.012948292 0.023924164 0.05794619 0.07168481 0.020243255
0.04202863 0.06355369 0.10239927 0.024823392 0.06679544 0.05769238 0.04340483 0.06459914
0.03192848 0.020729126 0.09085249 0.11346021 0.1002606 0.0152848195 0.11449372 -0.03987625
0.05764959 0.06548731 0.0692017 0.06073461 0.057651363 0.03787386 -0.031123985 0.06875722
0.09462712 0.09106096 0.030906772 0.07453267 0.10482498 0.049081646 -0.010297582 0.049467754
0.027467227 0.050550703 -0.06900112 0.01921078 0.047239136 0.030877413 0.019558972 0.072035186
0.020664193 0.031473022 0.056702014 0.053504255 0.039137416 0.04844871 0.017011873 0.087643616

network_body._body_endoder.seq_layers.0.weight f4 [256, 6]
00000000: c3f0 153f 7da1 ca3e 7e28 cc3e 0455 283f
00000010: dad5 d33d b2f6 2cbf fd0f 55be c58e 0d3f
00000020: 0dfb 243f 8f61 0f3f 078e f8be 2977 82be
00000030: fb3a b13d 28d9 75be 70e1 ed3c 79a8 ba3e
00000040: 6820 b73e 5ebc 203f a042 1d3f 7806 1cbe
00000050: a5ba e63e 5d02 fabe 510e 103d e04e 163f
00000060: 2233 84bb 2831 8d3e 9362 9b3e 76d3 7c3d
00000070: 27dd cb3e 9ad3 1f3e 7d21 94bd b003 d63e
00000080: fb0d 02bf 17e4 4bbf 61f7 c23b 80b7 67be
00000090: e2e4 8dbd 60dd 6c3f 1a82 44be 64c5 a6bd
000000a0: 9af5 6d3e 53ed 483e a610 c2be 464a e8be
000000b0: 77d5 b53d 309c ffbe ffe4 833f a331 9bbe
000000c0: c32f 33be 6537 063e aa33 f53e 1a1e 413e
000000d0: 2ffd 473e 5c84 5dbc 52b4 debe cdf0 b6be
000000e0: d914 c0be f43f 463d 8d47 4dbe 98db 0fbf
000000f0: 4d35 4dbf b2f2 f5bd 3546 c73c f32b b73d
00000100: e60f ba3e 3d2e 3fbe 983c 073e 36ee f9be
00000110: 4acc 0e3f 3071 89bd a285 5bbe bbdd 263f
00000120: 7d07 3dbe cef5 b7bd e847 263d 2826 903d
00000130: 2824 d93e 8370 eebe a136 32bf 6986 11be
00000140: b3e8 173e 92fd 41be 7168 f13e bf32 17bf
00000150: 64cd bf3c 6b22 91be 18a6 143e 6a9d b2bc
00000160: 3da6 6b3d 9d48 1dbf 0586 f6bd 5bb8 d9be
00000170: 7e32 c53d ee45 e53e 387b 41be 9150 9d3e
00000180: 5d1e febe 4d80 54bc df33 55bf 1f90 25be
00000190: 4772 a93d c4c4 0b3e c2f1 8abf 66f9 9b3e
000001a0: 4637 32be 3a32 10be 9439 b9bd 7f59 81be
000001b0: 5773 1cbf 96dd 833e 015f dd3e 5858 e7be
000001c0: fbb7 763e 2c8c 9cbe f82e 1dbf 6689 0dbf
000001d0: bdb5 0ebf 3ceb 933c 65e1 713d cc0a 8c3d
000001e0: 772b bf3e 1622 14bc 82cf fb3d 0948 45be
000001f0: 13dc 81be d3ce 163e de17 43bf 7291 893e
00000200: cbbd 4dbe 43f7 32be 44a3 abbd 4044 79bf
00000210: ea06 233e 1aa5 0a3e 74ff 213e 6a7b 5fbe
00000220: 22b9 043f bb79 58be a22c 7e3e d386 27be
00000230: e254 ecbe 0b5f cebd 64b2 0e3f 5d7a b13d
00000240: 8291 f53c 0714 5f3f df94 60bf 9d30 19bf
00000250: 0658 df3d bddf 403f a7db 783e 3db0 113e
00000260: 4b18 993e 42aa 583e 789a 59bf 9005 173f
00000270: 7015 44be 42b6 f73e 092d 7d3e b616 1ebb
00000280: ff87 b43e b108 253f 0202 bc3d 68f2 25bf
00000290: 1848 3abf ba25 d0bd 2b37 45be 60de 1b3e
000002a0: 4d70 92be c1a4 83bf 02a4 84bf eb7e 153e
000002b0: 923f 8bbe 9c22 853e 3070 bdbe 2acc 4a3f
000002c0: 74a2 163f e6a4 c7be 76d6 6b3e 2b42 26bf
000002d0: 8fe3 9e3e f56f cdbe 60d2 40bf 62c9 01bf
000002e0: 5fc7 29bf 6c38 693f f51a d83e 948a 5bbf
000002f0: 5d6f d23e 5119 67bf b97f da3e 46b7 083b
00000300: 1544 de3d 350d 0d3e c57a d83e b8ec d43d
00000310: 5954 7e3d 4a72 89be d257 6c3e d2e0 72be
00000320: 0c8d 303e 9be2 b23c 81db d13e c3e5 9dbe
00000330: 6053 8e3c a804 dcbd ed8e f63c 44e2 80be
00000340: 5ca5 92be a8c2 43bc 4025 07bf 7ca4 41bf
00000350: e09c 9bbe 0e0d 483e 77b7 1b3e d916 723f
00000360: d5a5 3c3b 297b 81be f97d 463e e249 b73e
00000370: 69fa 123e 292c cb3e 7100 be3e ad54 40bf
00000380: 39a0 da3d f4c8 77bd 9933 bdbe a653 c63e
00000390: b37d 76be a415 2abf 5525 023e 79d6 32bf
000003a0: e192 74be 7d5e 413f 9031 eb3e cc3a 9e3e
000003b0: f30d a1be 7a1e 05bf 29cc cfbc d49e 96be
000003c0: cade 38bd 3cff da3e 9ee3 0cbe b171 083f
000003d0: c005 7d3e e37e c13e 3a23 903d 89ed 683f
000003e0: 7920 90be 15f6 b83e a1a2 aa3e 802b 1b3f
000003f0: 36cf 5e3e 9ffd 073f 5256 7a3f dca9 0e3f
0.585705 0.3957633 0.39874643 0.65754724 0.10343523 -0.6756393 -0.2080688 0.55295974
0.64445573 0.5600824 -0.48545858 -0.25481537 0.08653828 -0.2400862 0.029038161 0.3645666
0.35766912 0.62787426 0.61429787 -0.15236843 0.45064273 -0.48829928 0.035169903 0.58714104
-0.004034416 0.27576566 0.30348644 0.061725102 0.39817163 0.15608063 -0.0723295 0.41799688
-0.5080258 -0.7964491 0.0059499 -0.22628593 -0.069284216 0.9252529 -0.19190255 -0.08143118
0.23238221 0.19621782 -0.37903327 -0.45369166 0.08878606 -0.4992385 1.0304259 -0.30311307
-0.17498688 0.13107069 0.4789098 0.18859139 0.19530176 -0.013520326 -0.43496948 -0.3573059
-0.37515905 0.048400834 -0.20046826 -0.5619445 -0.80159456 -0.12009181 0.02432547 0.089439295
0.36340255 -0.18669982 0.13206708 -0.48814553 0.5578047 -0.06711042 -0.21437696 0.65182084
-0.18459888 -0.089824304 0.04059592 0.07038528 0.42410398 -0.46570215 -0.6961461 -0.1421143
0.14834861 -0.18944386 0.47149995 -0.5906181 0.023413368 -0.2834657 0.14516485 -0.021803576
0.057531584 -0.61438924 -0.12037281 -0.42523465 0.09628771 0.44779915 -0.1889466 0.3072553
-0.4963254 -0.012970042 -0.83282274 -0.16168259 0.0827375 0.13649279 -1.0855029 0.30463713
-0.17403898 -0.1408166 -0.09044185 -0.25263593 -0.61113495 0.25754994 0.43236545 -0.45184588
0.2409362 -0.30575693 -0.61399794 -0.5528778 -0.5574606 0.018056504 0.059052844 0.06837997
0.3733785 -0.00904133 0.12295438 -0.1926576 -0.25363216 0.14727335 -0.76208293 0.26868778
-0.20091932 -0.17477135 -0.0838075 -0.97369766 0.15920606 0.13539544 0.15820104 -0.21824422
0.5184499 -0.21140186 0.24821714 -0.16360025 -0.4615851 -0.10076722 0.5574095 0.08665917
0.02997661 0.87139934 -0.8772716 -0.59839803 0.10905461 0.753414 0.2430254 0.14227386
0.29901347 0.21158698 -0.85001326 0.5899286 -0.19148803 0.4838124 0.24724211 -0.0024122423
0.35260007 0.6446639 0.091800705 -0.6482301 -0.72766256 -0.10163446 -0.19259326 0.15221548
-0.28601304 -1.0284654 -1.0362551 0.14599197 -0.27196938 0.26002967 -0.36999655 0.7921778
0.58841634 -0.38992995 0.23031029 -0.64944714 0.31032988 -0.4012448 -0.75321007 -0.5069791
-0.6631984 0.9110172 0.42208067 -0.8575833 0.41100588 -0.90273005 0.4267557 0.0020861193
0.10852829 0.1377457 0.42281166 0.10396713 0.06209216 -0.26845008 0.23080376 -0.23718575
0.17241305 0.02183657 0.4098778 -0.30839357 0.01737374 -0.107430756 0.03009745 -0.25172627
-0.28641784 -0.011948265 -0.52791214 -0.7564161 -0.30393124 0.1953623 0.15206705 0.9456611
0.0028785367 -0.25289276 0.19383992 0.35798556 0.14353336 0.3968213 0.37109712 -0.75129205
0.10675091 -0.06049438 -0.36953428 0.38735694 -0.24071388 -0.6643927 0.12709554 -0.6985851
-0.23884155 0.755348 0.4593625 0.30904233 -0.31455955 -0.5199963 -0.025365906 -0.2941805
-0.045134343 0.42772853 -0.13758704 0.5329848 0.24709225 0.3779212 0.07037969 0.9098745
-0.28149775 0.36125246 0.333272 0.6061325 0.21758732 0.5312137 0.97787964 0.55727935

network_body._body_endoder.seq_layers.2.bias f4 [256]
00000000: ade8 69bb 52ab 753d fe35 e73b 2c52 83bd
00000010: 8911 153d 9c59 1e3d 4f52 a63d 869c e63d
00000020: 6ebd 45bd 9e44 873c b4da 98bd 742a a13d
00000030: 53e6 163d 43d1 bcbd cac7 edba 1f7f 99bd
00000040: 423b 263d afd2 dc3c 2888 ebbc 9cf0 9e3c
00000050: f8b5 b6bd df2f 213d b179 243d b91a a2bd
00000060: a516 a6bd 6f13 a03c 4b3c 003c 7572 d1bd
00000070: 349a a1bd e556 993d 8eda dc3c 7754 493d
00000080: 15bd 8ebd 9945 903d 8439 e43c 2d71 053c
00000090: ccd4 f23c e45f b3bd 8c32 d43d 5bb2 cb3c
000000a0: 5a3c 2bbc a8d4 013b 6242 06bb dca8 96bc
000000b0: 0be3 1d3d 8532 c13d 6b3c ca3c 64a1 a83c
000000c0: 4ca5 053d 8268 b8bd 2617 d23c dba3 e1bb
000000d0: 1eeb 32bd c84b 64bc bfee 60bd 5f6a bb3d
000000e0: e02d f1bc d027 c5bd 9366 c6bd 53b4 863c
000000f0: b38e 113d 4088 cf3a 47bb 99bd 5cc3 aabd
00000100: e06b 163d 36f9 95bd 12be aa3d 5f1b 4b3d
00000110: 4ee4 2c3d 5d24 063d c420 90bc 63fe 6abd
00000120: 0e51 d43d 7f46 e6bc f19a 39bc 87f4 b53c
00000130: d53b 943d 6dc7 c2bd 6d71 9abd 9805 ec3c
00000140: 3639 1d3d 35e6 2bbd 0b64 863d c091 623d
00000150: f864 1f3d 783e a1bd 37ca 0b3d 181c 2f3d
00000160: 7ecb b83d 65ea 6c3d e657 8fbb f980 283d
00000170: 90b2 823d 3779 06bd 415b a7bd 757c 93bb
00000180: bad1 a1bc 7d4e a43c 6e03 ad3c 15e2 8a3d
00000190: 6e7d 593c 8a1c 793c d2a8 7f3d a5a7 c33c
000001a0: ad87 593d 367c 24bd d12a c8bd 6ffb 8abc
000001b0: af24 313d 3e4c 443d 76f5 e83c 7379 a7bd
000001c0: b24e 823d d5b2 a73d e992 163d 789d 583d
000001d0: 1f3e 8f3d c62e 283d 1459 82bd aad8 d53d
000001e0: b9f4 8e3d 30bf 3e3d e744 acbd 3224 9f3b
000001f0: 29ea 30bd c5ea 3a3d 8a3e 58bd d2ca b7bc
00000200: f766 8dbc f783 9a3c 5ff2 b8bd fd55 fc3c
00000210: 47df 9fbd cd69 b93d b625 cb3c bf86 a33c
00000220: 72aa b53d 940d 603c 9410 1abd ae6b be3c
00000230: a3a3 703d f449 62bd 98d3 4d3d 1e12 fc3c
00000240: 24ed f03c b752 433c 26e9 04bc b32a c73c
00000250: fae4 cc3c a82d 213d 9823 eabc e387 84bd
00000260: 565f c8bc 79f3 fbbb a5fe 0b3d b6b8 b53c
00000270: e7e5 74bd 95b8 1e3d c4cc f5bc 74b5 ff3b
00000280: 5516 aabd adbb 233d 2db8 1c3d b2eb 953d
00000290: 45e2 d2bc 8b1c cebc ba3d 443c 0146 e1bb
000002a0: ff93 1f3d 4a0e 333d 9ead bbbb 29ce 603d
000002b0: c072 3b3d 1852 1c3c 2189 843d 1d32 34bc
000002c0: fd75 73bd 27b9 903c 4ca7 8a3c 79bf fcbb
000002d0: f820 573d 5e6d 97bd f481 303d c138 2cbd
000002e0: 51f2 443d ab87 083d 0427 853d 6b4d f5ba
000002f0: e011 f93b 2df8 cd3c 1a88 86bc 703b 5f3c
00000300: 9191 543d 51fa 72bc 76c2 143d bf37 83bc
00000310: 80b3 723d b79d cbbd 761a 9fbd 391a fc3c
00000320: 9364 e23b e0e3 99bd 8818 b63c f989 9b3d
00000330: 053a a73d ea63 8ebb d12c b8bc b28b 843d
00000340: 9add 8abd 0cc4 18bd 8a18 6a3d ca9f 1e3d
00000350: 3935 193d 3081 963c f04d 13bd 8d39 15bc
00000360: c84d f43c 72da 573d 5a7e 54bc 7096 d6bd
00000370: a7f5 a7bd 5633 b3bd cd15 9dbd 88c1 563d
00000380: e1d7 fdbc 8beb 9bbd a474 a83d a4bd b93d
00000390: fa0c 9b3c fb9e f03b b05d bc3d 181b 213d
000003a0: 2cbe 353c 7ef3 063c 80d9 c6bc d3bf 103d
000003b0: 90ec 41bc b878 023d 1a8b ff3c e14f 703b
000003c0: 361b 873d c45c 213c 5765 cbbd aac9 acbd
000003d0: c0ae ee3c d159 773c d94c 913d a81c b23c
000003e0: 29ab 4f3d cb51 d7bc a2a6 963b 4354 d53c
000003f0: d199 b43c 2a5c 263c b989 023c 0548 973c
-0.0035691664 0.059977837 0.007055997 -0.064121574 0.036393676 0.038659677 0.08121168 0.11260323
-0.048276357 0.016512211 -0.07463589 0.078694254 0.036840748 -0.09219601 -0.0018141207 -0.074949495
0.040583856 0.02695593 -0.028751448 0.01940184 -0.089214265 0.039352294 0.040155116 -0.07915253
-0.08109788 0.019540517 0.007826875 -0.10226909 -0.0789074 0.07487277 0.026959684 0.049152818
-0.06969658 0.07044525 0.027859457 0.008144659 0.029642485 -0.08758524 0.103612036 0.02486532
-0.010451401 0.001981059 -0.0020486345 -0.018391065 0.038546603 0.09433464 0.024687013 0.02058477
0.032628343 -0.09004308 0.025645804 -0.006885988 -0.043681256 -0.013934083 -0.054915186 0.09151148
-0.02944082 -0.09626734 -0.09687533 0.016443407 0.03553648 0.0015833452 -0.075064234 -0.08338043
0.03672397 -0.07322924 0.08337034 0.04958665 0.042209916 0.032749522 -0.017593749 -0.05737151
0.103670225 -0.028109787 -0.011328445 0.022211326 0.072379746 -0.09510694 -0.075411655 0.028811261
0.03838464 -0.04196759 0.065620504 0.05531478 0.03891465 -0.07873243 0.034128394 0.0427514
0.09023188 0.057840724 -0.004374492 0.041138623 0.06381714 -0.032830443 -0.08171702 -0.0045009204
-0.019753326 0.020056957 0.0211198 0.06781403 0.013274534 0.015204558 0.06241686 0.02388365
0.053107906 -0.04015752 -0.097737916 -0.016965596 0.043247875 0.047924273 0.028437357 -0.081774615
0.06362666 0.081884064 0.0367612 0.05288455 0.069942705 0.04106023 -0.063646466 0.10441716
0.06980271 0.04656905 -0.084115796 0.0048566097 -0.043192063 0.04563405 -0.052794017 -0.02243558
-0.017261012 0.018861754 -0.090306036 0.030802721 -0.07806259 0.09053383 0.024798255 0.019961713
0.088704005 0.013675112 -0.037613466 0.023244705 0.058749806 -0.05524631 0.05025062 0.030770358
0.029409952 0.011921576 -0.008112228 0.024312353 0.025011528 0.03935018 -0.028581426 -0.06471231
-0.024459522 -0.0076889363 0.034178395 0.022182804 -0.059789564 0.03875025 -0.030004866 0.0078036133
-0.08305041 0.039973903 0.03826158 0.07320346 -0.02574266 -0.025160095 0.011977607 -0.0068748
0.0389595 0.0437148 -0.005727484 0.05488411 0.04576373 0.009541057 0.06471468 -0.010998276
-0.059438694 0.017666413 0.016925476 -0.007713255 0.052521676 -0.07393907 0.043092683 -0.042046312
0.048082653 0.033332508 0.06501582 -0.0018715089 0.007601008 0.025142753 -0.01642232 0.013625011
0.051896635 -0.014830188 0.036318265 -0.016017793 0.059253216 -0.09942191 -0.07768719 0.030774223
0.006908962 -0.07514167 0.022228494 0.075946756 0.08165363 -0.004345407 -0.022482308 0.06471957
-0.067805484 -0.03729634 0.05715231 0.038726605 0.037404273 0.018372148 -0.035963 -0.009107959
0.029822245 0.05269856 -0.012969578 -0.104779124 -0.08201151 -0.08750026 -0.07670174 0.05243066
-0.030986728 -0.07613286 0.082253724 0.09069374 0.018927086 0.0073431707 0.09197557 0.03933248
0.011092704 0.008236764 -0.024273634 0.035339188 -0.011836186 0.031853408 0.031194258 0.0036668705
0.06596987 0.009848777 -0.099314384 -0.08436902 0.029136062 0.0150970975 0.07094736 0.02174218
0.05070034 -0.02628412 0.004597501 0.026041156 0.022046002 0.01015381 0.007967406 0.018466959

network_body._body_endoder.seq_layers.2.weight f4 [256, 256]
00000000: 5b1a c73d 4f88 8c3d da04 8dbd 6180 40be
00000010: f465 203b aa37 353e 0442 a73d 3286 963b
00000020: f2c4 95bd bd28 c1bd 7dce d23d 8f87 0ebd
00000030: 4667 e73c d3d0 bd3d e55b 393d 6b33 b6bd
00000040: 2947 b53c bb65 6ebd ea4d 6dbd 4a9b 223c
00000050: 22ca c7bd 842c 8abb d2bb 80bd 422b 28bb
00000060: 095c 95bc 9645 f53d d53e d2bc f6e9 f43c
00000070: 7c16 e13d c5b8 22be 71fc 543d f46b 28bd
00000080: d442 6539 bf96 853d ccad 443d c064 b53d
00000090: 1cec 15bc 573a df3d 2727 2c3b 638d 883d
000000a0: bf46 24bd 5393 e0bc f6e6 21bd 814e cdbd
000000b0: 7aa5 a93d 6ee4 8c3d 256f dcbb d520 ce3d
000000c0: d258 343d a233 353d c83f 9d3b f9ed 59bd
000000d0: 3df1 803d c988 acbc 4dce 113d 9ed2 003c
000000e0: ce51 06bd 02a8 0cbd bc1c 92bc c78a 9a3c
000000f0: 2091 53bd 6ce8 7a3d f985 3bbd 680e 0dbe
00000100: cd77 c43d 1136 a3bd 6cdc f73c 78db 4a3d
00000110: c147 5dbd 2eef d7bc f424 72bd 62ec 253e
00000120: fcec 89ba fb39 ee3b 8822 47bc 6b29 c4bd
00000130: b75f 20bd b1cc fbbb e99a 8dbc 2ee1 3fbb
00000140: bd5b 6fbd 6835 b73d 6c4d 38bc 158f 9abd
00000150: d77e b8bd 646f 033e b329 20bd 3d99 153d
00000160: c92c d33d 89ba 813b 2969 39bd 81a7 84bd
00000170: 073f 243e 0c35 08be 500f 45bd c20b 6fbc
00000180: 3d3b 553d 1d20 bdbd 2c6c b53c 9fd1 9b3d
00000190: 8d4a 203e c1af 8ebd 23a3 f7bc 652c a2bd
000001a0: 87e7 1dbd 9078 32bd 1c20 3e3d b965 1fbd
000001b0: 2fd2 f9bc 510b 033e aaf5 993d d3e6 4dbd
000001c0: f3be e2bc b8ea ca3c c56a 2fbd 951b f2bc
000001d0: 6dbc 70bc 91c1 a33d 0f06 323d 58f5 39bd
000001e0: 2ba0 48bc 67b1 c23d a190 0d3d e846 73bd
000001f0: 6ec7 5ebd a64f c33c f733 8c3d ade9 fcbd
00000200: f44a 45bb e7ae 31bd 5352 0f3e 3e41 aabd
00000210: 7986 df3d 3f18 803d d6de 4d3c 13b8 e5bc
00000220: a996 d83d 6a60 0fbd 7484 ce3d 0a23 a43d
00000230: 777d 2e3d 4d19 8ebd 9cb5 e0bc b655 dc3d
00000240: 2d2b 7cbd f1d0 683d 0b06 b5bc 12c1 7d3d
00000250: d6e6 1d3d 6240 a7bc b68f 22bd 4d9b 57bd
00000260: 5846 bebd abb2 0dbd db58 0abd 857d c8bc
00000270: a43b 5f3d 62fe ae3c 961c 83bd 6be2 6ebd
00000280: c151 c539 2c7d 3a3c 3489 003d 93e6 26bd
00000290: 5639 e53d 9864 103d 1988 3e3b 9964 66bd
000002a0: a93e a93d 748d 913d bdbe b6bd 5086 bebc
000002b0: 90b8 3c3d 060f cdbd 28f8 cebd 4da5 c13c
000002c0: 18c8 b0bd 8191 ecbc 0562 24bd 91d2 8fbd
000002d0: 8e92 a9bd e690 65bd 1351 3cbd 4573 6f3e
000002e0: dd36 f93a 7c0c d43d 69e8 b3bd 7344 ad3d
000002f0: 9939 20bd 95bb cfbd f611 c6bd 0d70 27bd
00000300: 9080 23bd b656 823d d08e dbbc 87e2 82bd
00000310: 5e14 5dbc e117 313d b786 ffbb 1da2 bb3d
00000320: e9b2 033e f76e 1f3d e880 20bd 50ea 283c
00000330: 5ace e03b 129e 0bbd b406 d6bc 7b4d d63c
00000340: 305e be3d 6e4c 793a 886f 0c3b 6f5e f43b
00000350: bb02 1cbe b465 3e3a 6114 193d 13d6 9fbd
00000360: 96e5 5d3d 4466 e63c aced 1b3d affe bcbd
00000370: 9238 f6bc e894 59bd fac0 20bc 161e 1ebd
00000380: b6cc acbd 3a7a f6bb 8336 c3bd 429d 593a
00000390: 5a3e 3a3d be03 dfbd b928 13be 8f6b b3bd
000003a0: 9794 1fbe 579e 14bd 7d30 2a3e 1d0d 6f3c
000003b0: 20b9 0bbd f304 943d 2c34 b7bd 5ffc 9f3d
000003c0: 7fbb bfbc 26e7 f4bc b0d9 a43d 85aa 503d
000003d0: 4b72 bc3d f828 a3ba 2364 87bd fd96 693d
000003e0: 4021 9bbd df7e ebbd 9ac0 c8bd 444d a8ba
000003f0: 2528 b2bd 09eb 9f3d 9248 26bd 32b4 9c3d
0.09721824 0.06861936 -0.06885691 -0.18798973 0.0024474831 0.17697015 0.08166888 0.004593634
-0.07312955 -0.09431598 0.10293291 -0.034797247 0.028247487 0.09268346 0.045253653 -0.08896526
0.022128658 -0.058202486 -0.057935633 0.009924719 -0.09755351 -0.0042167325 -0.06285824 -0.002566055
-0.018232362 0.11976163 -0.025664726 0.029896718 0.10990617 -0.15890796 0.05199856 -0.041118577
0.00021864037 0.06522893 0.048017308 0.08857107 -0.009150531 0.10899799 0.0026268454 0.066675924
-0.04010653 -0.027414 -0.039526902 -0.10024739 0.08283515 0.06879507 -0.0067271166 0.10064856
0.04403002 0.044238694 0.004798863 -0.053205464 0.062960126 -0.021061318 0.035597134 0.007862715
-0.03279286 -0.034339912 -0.017835967 0.018865002 -0.051652074 0.06125681 -0.045782063 -0.13775027
0.09593163 -0.07969297 0.030256473 0.049525708 -0.054023508 -0.026359167 -0.059117272 0.16203454
-0.0010522897 0.0072700954 -0.012154229 -0.09578212 -0.03915378 -0.007684313 -0.017285781 -0.0029278505
-0.058437098 0.08945733 -0.011248928 -0.07546822 -0.09008568 0.12835461 -0.039102267 0.036523093
0.103112765 0.0039590043 -0.045266304 -0.06477261 0.16039668 -0.13301486 -0.048110306 -0.014590206
0.052058447 -0.09234641 0.022146307 0.076083414 0.15653439 -0.06967116 -0.030229157 -0.07918624
-0.03855088 -0.04357201 0.04641734 -0.03891537 -0.030495731 0.12797286 0.0751756 -0.05026896
-0.027678942 0.024770126 -0.042826433 -0.029554168 -0.014693362 0.07995904 0.04346281 -0.045399994
-0.012245218 0.09506493 0.034561757 -0.059393793 -0.05438941 0.02384169 0.06845849 -0.123492576
-0.003010449 -0.04337969 0.13996248 -0.08313225 0.109143205 0.062546246 0.012565335 -0.028041875
0.10575611 -0.035004057 0.10083857 0.08014496 0.04260012 -0.069384195 -0.027430348 0.107585356
-0.061564613 0.056839887 -0.022097608 0.061951704 0.03855022 -0.020416442 -0.039687835 -0.05263834
-0.09290761 -0.03459422 -0.033776145 -0.024473915 0.054500237 0.021361534 -0.06401937 -0.058321398
0.0003763568 0.011382382 0.031380847 -0.040747236 0.111925766 0.035252184 0.002907282 -0.05624828
0.082639046 0.07107058 -0.08923099 -0.023257405 0.04607445 -0.10012631 -0.10105926 0.023638392
-0.08631915 -0.028877975 -0.04013254 -0.07022584 -0.08279906 -0.05604639 -0.045975756 0.23383816
0.0019013543 0.10353944 -0.08784563 0.08460321 -0.03911743 -0.101432 -0.096713945 -0.040878344
-0.03991753 0.06364195 -0.026801497 -0.06390863 -0.013493625 0.043235663 -0.0077980417 0.0916178
0.12861218 0.038924184 -0.039185435 0.010309771 0.0068605365 -0.034086294 -0.026126243 0.026159992
0.092953086 0.0009509985 0.0021428782 0.0074575464 -0.15235417 0.000726308 0.03737295 -0.07804503
0.05417403 0.028124936 0.03806846 -0.092282645 -0.030056272 -0.053120524 -0.009811634 -0.03860291
-0.08437483 -0.0075218948 -0.09531882 0.00083013263 0.04546962 -0.10889386 -0.14371003 -0.087607495
-0.15584026 -0.036283817 0.1662006 0.014590529 -0.034112096 0.072275065 -0.08945498 0.07811808
-0.023404835 -0.029895376 0.08049333 0.05094387 0.09201487 -0.0012448123 -0.066108964 0.05702876
-0.07574701 -0.11498808 -0.09802361 -0.001284041 -0.08699063 0.07808501 -0.040596552 0.07651557

network_body._body_endoder.seq_layers.4.bias f4 [256]
00000000: 6d18 d4bc 7575 1d3d bc90 a93d 67fc 80bc
00000010: 428b 293d d8f8 043b 8dc0 08bd 8dea b03d
00000020: ffe8 803d ebd4 0b3d 6b74 713d c815 de3c
00000030: 7ce9 8a3c 1a1d ec3b d9ca d63c 0a21 8f3b
00000040: 9249 5f3d a45f 45bd d919 0d3d 616f af3c
00000050: 06ee b33c a1ae 4f3d da92 b1bc fdb7 f7bc
00000060: f76e 2cbd edd9 7b3d a5bd eebc e301 6d3d
00000070: 0b85 d0bc e124 a4bc 8e44 243d ec02 163c
00000080: eb73 dc3c 7ad2 533d 20e9 f6bc a498 3ebd
00000090: 5632 503d 61f6 b63c 7cb5 ae3d a85c c13d
000000a0: db8b 3c3d 2a40 a5bc f7be 92bc d5a1 c13d
000000b0: e67d ea3c f867 e13d 745e 813d a2f0 b03c
000000c0: 46f2 8b3d 42ad 4f3d 7de7 f43c cb5e 9abc
000000d0: f934 07bc a2dd ae3d 2844 1e3d 4bc6 7e3d
000000e0: 3bbd 55bc cc9c b9bc e723 14bd 2ee5 a2bc
000000f0: 2bb3 29bd f62a 3c3d d3c7 80bb 4d92 983d
00000100: c8c5 123d f9fb 50bc 0f57 04bd f303 23bd
00000110: 3f63 4c3d 7fff 993d 2b85 8fbb 4c4b db3c
00000120: 1a20 d33b 6227 0cbc eafa c8bc 791c ca3b
00000130: d5e8 dd3d dae9 033d 1a9d d6bc c8e1 dc3d
00000140: 720f 473b 1971 923d d84e a83c 47c2 2cbd
00000150: 67eb f3bc ef61 ac3d b12e 233d eb52 1d3d
00000160: 10fb efbc 98ed 20bd 888f 8e3c 3b3c f0bc
00000170: 5458 38bd 273f a93c 328f e73c 115a debc
00000180: 6959 61bc 5e6e 35bc 0868 a43d f38d f73d
00000190: 0d98 b4bc 7f0c 22bd e1dc 0dbd d9ca 1abd
000001a0: fccb 843c 49f6 d1bc 8b0a 14bd 365f 0d3d
000001b0: 66e1 14bd 3899 243d 49df 4c3d 85ba 3fbc
000001c0: c441 943c 46e5 333c 343f 33bd 44e6 23bd
000001d0: 0d28 ed3c fc9e a83c 9fd0 52bc ce84 b8bc
000001e0: d014 00bd 8b60 323d 962c 803c 495a e5bc
000001f0: 423e 973d 73c1 63bc eea3 8e3d 9cb8 bcbb
00000200: 4fa5 2d3d cde3 a23c 9629 de3c 1fe4 13bd
00000210: 1eaa 333d adb2 af3d 05fe 06bd 7e3f 113d
00000220: 3a38 d9bc 7389 993c 0c04 423d e982 5e3b
00000230: 6f86 e4bc b479 b2bc 81d8 833c 7907 533d
00000240: 2bf3 223d 21be 983c f434 38bd 123e 21bd
00000250: ee35 7e3d 4eb0 883d 315b 81bc 78ed c63d
00000260: db99 593d f3d1 c2bc b5f0 1f3d f113 c73d
00000270: 1a02 a5bc 1846 18bd 2751 f7bc aa61 25bd
00000280: 7ff0 0a3d 5f8d 3d3b 53c8 cebc ac62 8b3d
00000290: eae7 113d 7802 e13c 33fe d23c 3c4b 353c
000002a0: b67b 0e3d ddfa c23a ded4 34bc 0a11 07bd
000002b0: 6c96 0e3d 1c8b 263d 8cca 20bc 16bd 593c
000002c0: 023e e5bc a85a fc3b 3047 b33c 8623 983d
000002d0: 5586 f1bb 16b0 0d3d 98c2 d23d 00f4 6a3d
000002e0: ff98 473d 6b52 8cbc fa0e 76bc f14d ff3c
000002f0: 81c7 8c3c d53a c63c 742a 28bc 4237 8e3d
00000300: 0897 ae3d 2628 163d 79ef 5dbc 2370 01bd
00000310: cd03 053d 790c 11bd ce01 443d d465 113d
00000320: 60ba c23c 142d 553c 5f25 393c 57b1 143d
00000330: cbad 283d b144 0ebd 9692 c23d 1649 9d3d
00000340: 2013 abbc 3bd5 ebbc 3a4c 45bc c7eb 08bd
00000350: c233 f43c 5eaf 6c3d 05fb 16bd bb1c fbbc
00000360: c560 893c e52a 08bd 861d d5bc 001a e0bc
00000370: e86b 3a3c ef7f 1abd 7d42 c23c 9afa 2f3d
00000380: fa30 f1bc eb76 bb3d 4363 8f3c d9e3 7a3d
00000390: 56ac 053d 2f84 a43c dd48 953d 304b ad3d
000003a0: 82a5 eebc b477 303d 26c4 b2bc 9837 963c
000003b0: f218 7d3d 5dcf 903c 6624 bfbc e5c8 a83d
000003c0: 60ef 4bbc dd44 b4bc 45f0 fd3b 1fa8 f93c
000003d0: 8546 073d 247d 513c ebb9 5b3d 5556 29bb
000003e0: a6bf bd3d 1713 38bb f8a6 33bc 0758 1a3c
000003f0: 258a ae3c 1a37 5a3d d0d6 6c3c 6954 a2bc
-0.025890553 0.038442094 0.08279559 -0.015745355 0.041392572 0.0020289924 -0.033386756 0.08638487
0.062944405 0.0341386 0.058948915 0.027109995 0.016957037 0.0072056176 0.026219772 0.0043679522
0.05451352 -0.048186913 0.03444848 0.021415414 0.021964084 0.05070365 -0.02167647 -0.0302391
-0.04209801 0.061487127 -0.029143164 0.057863127 -0.025454065 -0.020037116 0.04010444 0.00915597
0.026910743 0.051714398 -0.03014046 -0.04653229 0.050829254 0.02233428 0.08530709 0.09441501
0.046031814 -0.020172197 -0.017913325 0.09454695 0.028624486 0.110061586 0.06316844 0.021599118
0.06833319 0.05070234 0.029895538 -0.018844029 -0.008252376 0.08538367 0.038639218 0.062200826
-0.013045604 -0.022657774 -0.03616705 -0.019884672 -0.041430634 0.04593941 -0.003930071 0.0744978
0.03583315 -0.012755387 -0.032309588 -0.03979869 0.049899336 0.07519435 -0.0043798885 0.026769303
0.006443036 -0.0085543115 -0.024533708 0.006167945 0.10835425 0.03220544 -0.026197959 0.10785252
0.0030374196 0.07150478 0.020545408 -0.042177465 -0.029775335 0.08417117 0.03983945 0.038409155
-0.02929452 -0.039289087 0.017402425 -0.029325595 -0.04500611 0.020659996 0.028266523 -0.027142556
-0.013754227 -0.011073677 0.08027655 0.120876215 -0.02204516 -0.0395627 -0.034634475 -0.037791107
0.016210549 -0.025630133 -0.036142867 0.03451463 -0.03634777 0.040185183 0.05001763 -0.011702185
0.018097766 0.010979956 -0.043761447 -0.04001452 0.028949762 0.020583622 -0.012867122 -0.022524264
-0.03126985 0.0435491 0.01564626 -0.027997153 0.073849216 -0.013901102 0.06964861 -0.005759312
0.04239398 0.019884015 0.02711944 -0.036106225 0.04386341 0.085790016 -0.032957096 0.03546094
-0.026516069 0.018742299 0.04736714 0.003395254 -0.027896134 -0.021786548 0.016094448 0.0515208
0.039782684 0.018645348 -0.044972375 -0.039365835 0.06206315 0.066742525 -0.015790554 0.09713262
0.053125244 -0.023781752 0.039047915 0.097206004 -0.020142604 -0.03717622 -0.030190064 -0.040376343
0.03392076 0.0028923375 -0.025242006 0.068059295 0.03562156 0.027466998 0.025755977 0.011065301
0.03478595 0.0014875788 -0.01103708 -0.032975234 0.034811422 0.04066001 -0.009813916 0.0132897105
-0.02798367 0.0077012368 0.02188453 0.074286506 -0.00737075 0.034591757 0.10291022 0.057361603
0.048729893 -0.017129144 -0.015018219 0.031165095 0.017184975 0.024197975 -0.010264028 0.06944133
0.08524901 0.036659382 -0.013545864 -0.031601083 0.032474328 -0.035412285 0.047853284 0.0354975
0.023770511 0.013011236 0.011300414 0.036301937 0.041181367 -0.034733478 0.09500615 0.07679956
-0.020883143 -0.0287882 -0.0120421 -0.03342798 0.029809836 0.05778443 -0.036860485 -0.030653348
0.016769776 -0.033244032 -0.026015054 -0.027356148 0.011378266 -0.037719663 0.023713345 0.0429636
-0.0294423 0.09153541 0.017503386 0.06125245 0.032635055 0.020082561 0.07289288 0.084616065
-0.029131655 0.043082908 -0.021822046 0.018337056 0.061791368 0.017677004 -0.023332786 0.082414426
-0.012447208 -0.022005493 0.0077495896 0.030475674 0.033026237 0.0127861835 0.053644102 -0.0025838811
0.0926507 -0.002808755 -0.010965101 0.009420401 0.021306107 0.053275205 0.014455512 -0.01981564

network_body._body_endoder.seq_layers.4.weight f4 [256, 256]
00000000: 92e6 c1bd 37a3 8dbd 926b 803d 655e 3d3d
00000010: a32a 753d 1d44 be3d 3af7 dfbc cb63 cabd
00000020: 21eb b9bd 534f 84bd 12ac 8dbc aa60 ad3d
00000030: 0fcc f7bd a8e7 2fbd 15d6 42bc 891d 00bd
00000040: 49d5 2fbe c997 243e a2c4 de3d a645 133d
00000050: 27d0 1cbd 9811 34bd 1573 043d 3bbc a8bc
00000060: 11b2 293d 694f c5bd 39c9 b9bd e2e9 753c
00000070: fceb c3bd 9550 a33d a48c 00be 0c59 90bd
00000080: 6531 373d 2eec e9bd 6b50 b6bd 3ff1 4fbd
00000090: 2b67 31bd 893e 913d a26a e7bd 2ad1 f9bc
000000a0: 153d f6bd 4eea 21bd 1e11 f63b cdc2 e2bd
000000b0: e251 f73d be8e 19bc 6305 933c 96c2 913d
000000c0: 0ede 74bc 6775 e43c b621 023d 0ff0 02bd
000000d0: 8db4 77bb eafe 21be a7fb a7bc 2efd a3bd
000000e0: 28ba a2bb ddf2 8dbd 6109 693c 904d 3abc
000000f0: 8df4 25bd e141 6c3d 717c dd3c 78f1 e7ba
00000100: 065c 73bd ee12 d4bc 424e 623c 9bfc c4bd
00000110: d888 283c fadb b93d c7da bfbc 9f57 f7bd
00000120: 5bb6 4bbd 000e 1cbc 05df df3c 6f36 2d3d
00000130: 5348 94bb 9b63 f53c 92d3 c4bd be98 5fbd
00000140: 203a 0c3d 4b89 f63b 21f0 0bbd 5b32 503d
00000150: c8a1 60bd c76c b93c 48ca 02be bdff 8dbc
00000160: 51fb bbbc aa2e 4abd fcb7 0f3d ed2c 4cbd
00000170: da08 a93a 73ae bbbc 2f50 9b3c 0f21 94bd
00000180: d0ad c3bc d4ec 1ebc efc1 6bbd b26d d3bd
00000190: 1687 6ebd 72a0 61bd 786d d3bd 6f07 873b
000001a0: 5332 c93c 7dcf 203d bb31 e7bd c06d 96bd
000001b0: 0c97 0dbe 01ef 98bd 9210 5fbd aefb ddbc
000001c0: 7069 753c 1cb1 97bd 2a9a 98bb f8cb b2bd
000001d0: 6b8e 22bc f4a6 b9bd e157 ce3c c31c 30be
000001e0: 7113 bdbd 0e46 4b3d 4b0d 44bd 06e4 5c3b
000001f0: e7c6 2dbe 5b27 5b3c 6a2f dbbd 0447 00bb
00000200: 5ea6 28bd c1bf 84bb 1181 82bd a068 a6bc
00000210: 09fb f63d bd83 d73a 8a2a b6bc c0c0 90bd
00000220: 10ab e43d 1e57 8dbd 9c85 1ebd 1098 96bd
00000230: ab5e fb3c 6483 cdbc 54b2 833d 8b37 25bd
00000240: 9edb f9bd b322 e1bc 9411 76bd 8fbe a0bd
00000250: a9f8 81bd 10c8 99bd 3b67 cebc c489 01bc
00000260: cbdf e73c d516 83bd 215c 9fbb faf0 6fbd
00000270: 116e 23be 19a5 69bd 83d7 0a3d 4b68 bfbc
00000280: 0b15 d23c 4a1e d3bc 4881 1c3a 74b9 d7bd
00000290: 9c7a 24bd f48a 033d 9c97 de38 55e9 aebb
000002a0: 3d82 573d 08f1 4c3c 6930 adbd 8f43 d9bd
000002b0: c5f2 d73c f60b 5bbc 3ace 34bd 87aa b2bc
000002c0: a162 45bd c365 573c 7daa afbd bee1 99bd
000002d0: 4a3a 053d e06a 743d 7664 613c c1b9 acbd
000002e0: 1f57 dbbd a584 f6bc 9efd cbbd 0e38 b43b
000002f0: d777 41be 835a 1b3d 5071 193e 2556 4abd
00000300: 1974 4c3d 9004 a4bd b3fb 0cbd db8a 153e
00000310: 2203 963c 16fb c4bd fe4e 41bd 6daa 76be
00000320: f227 8fbb dde3 10bd 8cfb bdbb 7d73 06be
00000330: 3753 1f3d 3f93 8a3d 2319 16bd 9b48 ccbd
00000340: 721f c7bc c204 33bd c430 71bd f584 a0bd
00000350: e396 dabd ad02 f73b e06d 74bd 69dc 52bd
00000360: 6af9 febd e3b7 bc3b 07fe 67bd 2353 3f3b
00000370: bd8f d93d 1ff1 7f3d 3f43 f7bc 5e71 d13c
00000380: 5ee4 76bc c444 d7bc 0892 fc3c 3234 10bd
00000390: 1991 5ebd b81b 50bd 0ca5 c2bd de4b 1c3c
000003a0: aa7a adbd e42f 9bbd dde0 24bd b91a d63d
000003b0: ebad a13c 4795 153d 33bb cd3c b5c2 22bd
000003c0: 89ad 233d a057 d1bd 67ae b43c a282 803d
000003d0: 774b bdbd 016f 28bd bc6e 523d f20d acbd
000003e0: 100d 663c 6c5b a8bd 0bd8 893d d40e 7f3c
000003f0: e0c2 20bd 0a2b 2fbe 25bc bd3c 1d19 65bd
-0.09467806 -0.069158964 0.062705174 0.0462326 0.059855115 0.09290335 -0.027339566 -0.09882315
-0.090780504 -0.064604424 -0.017293964 0.08465703 -0.12099468 -0.042945534 -0.011891861 -0.031278167
-0.17171206 0.16073526 0.108773485 0.035955094 -0.038284447 -0.04396209 0.032336313 -0.020597568
0.041429583 -0.09634287 -0.09071583 0.015009375 -0.09566495 0.07974354 -0.1255365 -0.07048234
0.04472484 -0.11422001 -0.08902057 -0.05076718 -0.04331128 0.07092006 -0.112996355 -0.030495245
-0.12023369 -0.03953009 0.0075093647 -0.110723116 0.12076165 -0.009372411 0.017946905 0.071171924
-0.01494552 0.027888013 0.03177043 -0.03196722 -0.0037796826 -0.15819898 -0.02050574 -0.080072746
-0.004966039 -0.06931088 0.0142234275 -0.011371031 -0.040516425 0.057680015 0.027036877 -0.0017695865
-0.059413932 -0.025887933 0.013812603 -0.09618493 0.010286532 0.0907516 -0.02341975 -0.12077259
-0.049734455 -0.009524822 0.027328024 0.04228824 -0.0045252233 0.029954722 -0.09610666 -0.054589026
0.03423512 0.007523691 -0.03416455 0.050829273 -0.054841787 0.022634877 -0.12772477 -0.01733386
-0.022946985 -0.04936091 0.03508757 -0.049847532 0.0012896315 -0.022910332 0.018959133 -0.07232868
-0.023886591 -0.009700019 -0.057557996 -0.10323657 -0.058234297 -0.055084653 -0.10323614 0.004120759
0.02456013 0.039260376 -0.11288782 -0.07345152 -0.13827151 -0.074674614 -0.054459162 -0.02709755
0.014978752 -0.07406828 -0.0046570497 -0.0873031 -0.00992165 -0.09065047 0.025188388 -0.17198472
-0.09232224 0.049627356 -0.04786424 0.0033705248 -0.16970406 0.013376082 -0.10702403 -0.0019573579
-0.041174285 -0.004051179 -0.06372274 -0.020313561 0.120596 0.0016442459 -0.022237081 -0.07068014
0.1116544 -0.06901382 -0.03870164 -0.07353222 0.03068479 -0.025087066 0.06430498 -0.040336173
-0.12200092 -0.027482366 -0.060075358 -0.07848846 -0.06346256 -0.07508862 -0.025195708 -0.007906381
0.028304955 -0.06400839 -0.0048632775 -0.058579423 -0.15959956 -0.057042215 0.033896934 -0.02336516
0.0256448 -0.025771279 0.0005970192 -0.10533419 -0.040155992 0.032114938 0.00010614024 -0.005337874
0.05261444 0.012508638 -0.08456499 -0.10608589 0.026360879 -0.013369551 -0.044141985 -0.02180983
-0.048189763 0.0131468205 -0.0857744 -0.0751376 0.032526292 0.059672236 0.013756862 -0.08433867
-0.107099764 -0.030092547 -0.09960483 0.0054998463 -0.18893372 0.037928116 0.14984632 -0.04939856
0.049915407 -0.08008683 -0.034419727 0.1460375 0.01831204 -0.09618203 -0.047194473 -0.2408845
-0.0043687755 -0.035373557 -0.005797809 -0.13129993 0.03889772 0.06766366 -0.036645066 -0.09974786
-0.024306986 -0.04370571 -0.058884397 -0.078378595 -0.106733106 0.007538161 -0.059675097 -0.05147973
-0.12449916 0.0057592257 -0.056638744 0.002919384 0.10623119 0.06248581 -0.030183433 0.025566753
-0.015069095 -0.026277907 0.030831352 -0.035206027 -0.054337595 -0.050807685 -0.095041364 0.0095395725
-0.08470662 -0.07577494 -0.04025351 0.10454316 0.01973625 0.036519315 0.025113678 -0.03973647
0.039960418 -0.10221791 0.022055818 0.06274916 -0.092429094 -0.041121487 0.051375136 -0.08401097
0.0140412 -0.08220562 0.0673066 0.0155675 -0.039248347 -0.17106262 0.023161003 -0.055932153

network_body.observation_encoder.processors.0.normalizer.running_mean f4 [6]
00000000: 7a2f 5fc1 84b4 b941 d760 d3c1 6c1f 01c2
00000010: fa31 b33f 0751 8ec2
-13.949091 23.213142 -26.422285 -32.280685 1.3999627 -71.15826
