Assets/Training/results/test_v1/MarsTaxi/MarsTaxi-50303.onnx (onnx, 542464 bytes, 10 tensors)

54 f4 [6]
903.5378 17.226688 906.5582 0.14400129 0.007670757 0.31730905
00000000: 6be2 6144 42d0 8941 baa3 6244 1375 133e
00000010: f95a fb3b 5576 a23e

action_model._discrete_distribution.branches.0.bias f4 [6]
0.008274224 0.0026384697 -0.0070581133 -0.0057908893 -0.0010943366 -0.01247841
00000000: 9c90 073c 2dea 2c3b bf47 e7bb 80c1 bdbb
00000010: d86f 8fba 3f72 4cbc

action_model._discrete_distribution.branches.0.weight f4 [6, 256]
-0.016559066 -0.005953996 -0.007535126 0.00056191575 -0.009288695 -0.010971979 0.020867627 -0.004009085
-0.008961465 0.011529672 0.0018055259 -0.00046310815 0.014453115 -0.011992381 -0.00064895785 0.010545299
-0.0030283562 -0.00090091664 -0.006952797 -0.0118563725 0.00090308546 -0.010311522 -0.00032978662 -0.011600897
-0.019159859 -0.011360303 0.008995818 -0.009244598 0.007592905 -0.0073071234 -0.0027928243 0.009232123
0.010843153 0.019767402 0.015562468 0.011309471 -0.008285306 -0.0007154388 -0.008737084 -0.0061484906
-0.00253939 -0.0026448036 0.0035572625 0.006259843 0.0015256623 -0.011770554 -0.00788992 -0.01044031
-0.0025519729 0.0037821368 0.014794471 -0.009216017 -0.015018023 0.018070571 0.0040484406 -0.010009716
0.00886838 -0.0018480852 0.011239848 0.013237246 -0.010237825 0.015381177 0.006013842 0.008250164
0.0012136964 0.0029912335 -0.015357806 0.0031662101 0.0043894886 -0.0053293784 0.012900991 0.0060611507
0.0037228705 0.0049815467 0.0030969644 -0.008162286 -0.018151807 0.005658354 0.009481518 0.013956103
0.007964756 0.0036527652 -0.0054151025 -0.0123582985 0.015227681 0.004237341 -0.0068207914 -0.0078026066
-0.005106297 0.0019177756 -0.015403119 -0.005207524 0.0013379699 -0.011544231 -0.008816277 0.013073044
0.0055155586 -0.009831044 -0.0029949099 -0.008040005 -0.008629082 -0.011654945 -0.00800995 0.0085919555
-0.011350152 -0.001984365 -0.00808183 -0.0024425834 0.010376902 0.0016912405 0.0001063768 -0.010746525
0.009882677 0.007502766 0.0048573045 -0.0072520156 0.00083221984 -0.0017977615 0.005581658 -0.023856651
0.014533121 0.009018155 0.014525385 -0.012161132 0.009326482 0.0155349905 0.017018793 0.009928544
0.011533404 0.0017892666 0.001952723 0.0034935435 0.0077351993 0.014427409 0.0045870724 0.00045937242
-0.017122258 -0.0025290067 -0.013714728 0.008607253 0.013880661 -0.00040264166 -0.012345339 -0.0030677947
-0.017329386 -0.010738279 0.0027515374 -0.0032207046 0.0004907719 2.6635335e-05 0.00062687066 0.01732643
0.01221565 -0.009241913 0.01808122 -0.00753193 -0.006649818 -0.016656017 0.007267056 -0.0022930305
0.00012824917 -0.01755477 0.0027998248 0.0035148582 -0.011381188 0.011128756 -0.007444381 -0.012160055
0.0048745954 -0.008926729 -0.0052702236 0.005006945 -0.006724287 0.0007163878 -0.0018793215 -0.0016113012
-0.013506451 -0.009891925 0.0034090641 0.012073052 -0.012758799 -0.011742119 0.015710846 0.00055378786
0.0048056357 -0.0032995667 -0.009370372 0.0029173505 0.009815532 0.018124811 -0.0030843564 0.00063459924
-0.0051068766 -0.0071786083 -0.013924755 -0.0044008507 -0.021213524 -0.00584507 -0.014612792 0.0010837374
-0.0027557919 0.0039348924 -0.008096001 -0.003597922 0.016428921 0.004890894 0.009419714 0.029813599
-0.007570166 -0.004695816 -0.010779331 -0.005452263 0.0056715207 -0.0058811447 0.012900419 -0.015645025
-0.008528094 0.012366613 -0.0066460064 0.001201843 -0.0028426875 0.009519153 0.010086844 0.018464768
0.012679338 0.007872229 -0.0024165157 -0.01607442 -0.0024391555 -0.016158307 -0.0015962713 0.015020156
0.0013708841 0.008165343 -0.0056967298 0.009260644 0.00840737 0.0033178083 -0.0075653074 0.017381018
0.019564686 0.00203523 0.005166466 -0.018395366 0.014148871 -0.0010141917 0.0062482096 0.01287138
0.013856395 -0.0019126644 -0.015330962 0.02561257 -0.008151428 -0.0062120385 0.015462511 -0.0019726264
00000000: e1a6 87bc bd19 c3bb 38e9 f6bb 874d 133a
00000010: 9c2f 18bc d1c3 33bc 96f2 aa3c a45e 83bb
00000020: 1cd3 12bc f3e6 3c3c 65a7 ec3a 53cd f2b9
00000030: c2cc 6c3c b17b 44bc d31e 2aba 31c6 2c3c
00000040: 6377 46bb 7e2b 6cba 4ad4 e3bb 3b41 42bc
00000050: 0abd 6c3a a8f1 28bc 36e7 acb9 b011 3ebc
00000060: 23f5 9cbc 9020 3abc 3263 133c a876 17bc
00000070: e7cd f83b 9870 efbb d107 37bb 5542 173c
00000080: 7ba7 313c 3fef a13c b9f9 7e3c 5c4b 393c
00000090: 18bf 07bc 498c 3bba fd25 0fbc 4779 c9bb
000000a0: e56b 26bb 7154 2dbb f620 693b 5e1f cd3b
000000b0: bbf8 c73a 48d9 40bc b944 01bc d60d 2bbc
000000c0: 003f 27bb badd 773b 8264 723c c7fe 16bc
000000d0: 270e 76bc bc08 943c c8a8 843b cbff 23bc
000000e0: af4c 113c 733b f2ba 5727 383c 09e1 583c
000000f0: 8dbc 27bc 5501 7c3c c30f c53b b22b 073c
00000100: e514 9f3a 9208 443b 4f9f 7bbc 3180 4f3b
00000110: b3d5 8f3b 11a2 aebb ae5e 533c 9e9c c63b
00000120: 67fb 733b 3e3c a33b 71f6 4a3b 1cbb 05bc
00000130: 19b3 94bc b769 b93b 5e58 1b3c 23a8 643c
00000140: 9c7e 023c 3b63 6f3b 2c71 b1bb 767a 4abc
00000150: 867d 793c 65d9 8a3b f280 dfbb 02ad ffbb
00000160: b952 a7bb df5d fb3a 5d5d 7cbc e1a3 aabb
00000170: d25e af3a 0424 3dbc 2572 10bc 5230 563c
00000180: dcbb b43b 6312 21bc 4046 44bb 3aba 03bc
00000190: fe60 0dbc 62f4 3ebc 2a3c 03bc 46c5 0c3c
000001a0: fdf5 39bc 1f0c 02bb a769 04bc c013 20bb
000001b0: e203 2a3c 9dac dd3a 9c16 df38 3112 30bc
000001c0: f4ea 213c c3d9 f53b 062a 9f3b 51a2 edbb
000001d0: 5429 5a3a dea2 ebba 57e6 b63b 066f c3bc
000001e0: 541c 6e3c e2c0 133c e1fb 6d3c 7c3f 47bc
000001f0: 1ace 183c 7986 7e3c ff6a 8b3c 55ab 223c
00000200: 9af6 3c3c d385 ea3a 83f2 ff3a eff3 643b
00000210: 8e77 fd3b f060 6c3c 274f 963b ecd7 f039
00000220: fa43 8cbc b1bd 25bb bdb3 60bc 7005 0d3c
00000230: b66b 633c a619 d3b9 1b44 4abc 0e0d 49bb
00000240: 5bf6 8dbc 9bef 2fbc 2353 343b 7512 53bb
00000250: 25a7 003a f26e df37 9454 243a 28f0 8d3c
00000260: 2624 483c 656b 17bc 111f 943c 69ce f6bb
00000270: b7e6 d9bb 3372 88bc 7c20 ee3b ab46 16bb
00000280: a07a 0639 05cf 8fbc 447d 373b 8959 663b
00000290: 2a78 3abc 6355 363c feef f3bb f83a 47bc
000002a0: 12bb 9f3b 6a41 12bc d7b1 acbb 4d11 a43b
000002b0: 6857 dcbb f9cb 3b3a 9153 f6ba 4c32 d3ba
000002c0: 294a 5dbc be11 22bc 9b6a 5f3b 0dce 453c
000002d0: 480a 51bc 0462 40bc 08b4 803c 132c 113a
000002e0: 9878 9d3b 8b3d 58bb 3086 19bc 0531 3f3b
000002f0: 53d1 203c 7c7a 943c ea22 4abb 3c5b 263a
00000300: 9657 a7bb 883a ebbb a824 64bc 0335 90bb
00000310: fcc7 adbc 0088 bfbb 7e6a 6fbc 310c 8e3a
00000320: 849a 34bb 45f0 803b 17a5 04bc 1dcb 6bbb
00000330: f295 863c cb43 a03b 2555 1a3c a63b f43c
00000340: 280f f8bb 5cdf 99bb cb9b 30bc e6a8 b2bb
00000350: 2ad8 b93b 9eb6 c0bb 475c 533c ff29 80bc
00000360: 6bb9 0bbc 569d 4a3c bec6 d9bb 2987 9d3a
00000370: 624c 3abb 39f6 1b3c 4a43 253c 6d43 973c
00000380: 00bd 4f3c 86fa 003c 685e 1ebb 81ae 83bc
00000390: 3dda 1fbb 6d5e 84bc fa39 d1ba 1a17 763c
000003a0: 3daf b33a eec7 053c a2ab babb f5b9 173c
000003b0: 11bf 093c 966f 593b 66e6 f7bb a362 8e3c
000003c0: 1f46 a03c 7e61 053b 754b a93b e1b1 96bc
000003d0: abd0 673c a0ee 84ba c8bd cc3b 7be2 523c
000003e0: ef05 633c 5eb2 faba b72e 7bbc 74d1 d13c
000003f0: 918d 05bc 5b8e cbbb 7956 7d3c 2e47 01bb

network_body._body_endoder.seq_layers.0.bias f4 [256]
0.007995286 -0.00025570337 0.0022388364 -0.005006828 0.0056432406 0.005246814 -0.007435233 -0.0052392688
0.005036382 0.006923463 0.006330657 -0.0067133084 0.0035351755 0.0015614951 -0.0029164436 -0.0034299276
-0.007722415 0.0015822867 0.0064365906 0.008191333 0.0025691413 0.00580125 0.0016439707 -0.0073048645
-0.010178521 -0.00011694663 -0.005333948 0.0068971375 -0.006659163 -0.007716011 0.006619089 0.0018607236
-0.006019854 -0.005540961 -0.0016829474 0.006590006 0.0027377168 -0.006352672 -4.9856255e-05 0.0048734453
-0.0014771281 -0.0018763044 0.0075107906 -0.001554616 0.006825233 0.0049463757 -0.0075755566 0.005807479
0.014940638 0.01097911 0.0076589305 0.007833696 0.006234404 0.0006603206 -0.007679768 0.0058718217
0.008167352 -0.0059009967 0.0055814073 0.0064190524 0.00035635702 0.0075877663 -0.0048495545 0.00575609
0.006970006 -0.0030126106 0.008050372 6.557498e-05 0.0066292966 0.008359054 0.0044556335 -0.0037550183
0.0039493283 -0.0027989217 0.008523114 0.0040186117 -0.0051730373 0.0076127932 0.008147039 0.00021142997
0.0007690828 0.007170024 0.003644044 -0.006845956 0.004801928 -0.0052001514 -0.0050565014 0.0070361034
0.0059199193 0.007960961 0.0013962309 0.0050114617 -0.00501691 -0.0018161092 0.0073311636 0.0037845487
0.012244216 0.0067933346 0.0039787227 -0.0013122376 -0.006597994 0.0075627356 -0.008035854 0.008206478
-0.0022241008 0.007624419 0.0061768433 0.005502841 -0.009612495 -0.003149246 0.0034679696 -0.0045736535
0.007421686 -0.0027080772 0.0074572316 0.0077532455 0.002011703 -0.0022433926 -0.002094795 0.006545829
0.010473458 -0.0052463273 -0.0032969082 0.0059848283 0.007864074 0.0061639505 0.007410346 -0.008427157
0.007101054 -0.011103709 0.006895619 0.0064227977 0.0009029232 0.0034556785 0.0065292935 -0.005485699
-0.0050291605 0.0055601243 -0.006457287 0.0020026718 0.0043079173 0.0077785435 0.007296459 0.00801079
-0.011084311 0.0058955536 0.007420733 0.00044646944 -9.141137e-05 0.007361103 0.009162769 0.0040788553
-0.0029955225 -0.0064888406 0.0046671364 0.0035018418 0.0006127114 -0.008141347 0.006612938 0.006979497
0.006705655 0.0075202635 0.0075442255 0.0057483995 0.0049179615 0.007720125 0.009035723 -0.0023636809
-0.0021390934 -0.0045480854 0.008028309 -0.00044852772 -0.0055325925 -0.008828819 0.005698341 0.0053353133
0.0030903176 0.009154388 0.0071788966 0.009111831 0.0045516854 0.005057893 -0.0042892904 -0.0022261208
0.007418744 -0.0102282 0.0028462645 0.0067251823 -0.0072556604 0.0042617656 0.007832302 0.0070764967
0.006426097 0.007872246 -0.004368268 -0.008693353 0.008416773 0.0015354385 0.006870673 -0.008062372
-0.007917649 -0.005394609 0.0072180713 0.002849048 0.007620947 0.0061029303 0.0069263107 -0.0060820593
-0.0053111953 0.006469456 0.007670655 -0.011371257 -0.0027191422 -0.005830162 0.0057101143 0.0080136275
0.007324453 0.0055667125 0.0056246966 0.008524132 0.0061302665 0.0060140654 0.008852927 0.007069709
-0.004805991 -0.0006304969 -0.0044108294 0.0023612066 0.008106406 0.0069035273 0.008118635 0.0051576546
-0.0048068813 0.0029487987 -0.01292715 -0.011330224 0.00824797 0.0022178374 0.0064040464 -0.0074763387
0.00780542 0.0043324386 0.0077513927 0.007083407 0.0064177588 0.00849863 0.0070128026 0.0036137332
0.004421002 -0.0052536065 -0.0030567844 -0.002075899 -0.0018948842 -0.0083345985 0.006093588 0.0023174856
00000000: a9fe 023c ed0f 86b9 71b9 123b 5110 a4bb
00000010: efea b83b 77ed ab3b 41a3 f3bb 2cae abbb
00000020: 3c08 a53b 38de e23b 6671 cf3b 50fb dbbb
00000030: 67ae 673b 15ab cc3a ce21 3fbb a3c8 60bb
00000040: 500c fdbb bb64 cf3a 09ea d23b f134 063c
00000050: 0a5f 283b 6a18 be3b 817a d73a a55d efbb
00000060: d0c3 26bc 3e41 f5b8 66c8 aebb 6201 e23b
00000070: 1c35 dabb 97d6 fcbb f1e4 d83b 86e3 f33a
00000080: 3242 c5bb f390 b5bb 5896 dcba faf0 d73b
00000090: 446b 333b 132a d0bb bf1c 51b8 6cb1 9f3b
000000a0: 329c c1ba 54ee f5ba 141d f63b 42c4 cbba
000000b0: 34a6 df3b 3515 a23b 603c f8bb aa4c be3b
000000c0: 94c9 743c bae1 333c c4f7 fa3b e758 003c
000000d0: f949 cc3b 5e19 2d3a 90a6 fbbb 6968 c03b
000000e0: 5bd0 053c 265d c1bb 3de4 b63b ea56 d23b
000000f0: 6ed5 ba39 cca2 f83b 03e9 9ebb 959d bc3b
00000100: a664 e43b 386f 45bb b5e5 033c 4d85 8938
00000110: 923a d93b 6af4 083c 9000 923b c116 76bb
00000120: 5e69 813b 1d6e 37bb 88a4 0b3c 8fae 833b
00000130: 9582 a9bb bd74 f93b 297b 053c 4db3 5d39
00000140: 469c 493a 85f2 ea3b ead0 6e3b 0b54 e0bb
00000150: 7e59 9d3b 0866 aabb 02b1 a5bb 1d8f e63b
00000160: e2fb c13b b16e 023c bc01 b73a 3037 a43b
00000170: e464 a4bb 830a eeba 423a f03b 3106 783b
00000180: f79b 483c 9f9a de3b f25f 823b 63ff abba
00000190: fc33 d8bb d3d0 f73b d1a8 03bc 7774 063c
000001a0: 38c2 11bb 43d6 f93b 1e67 ca3b 2d51 b43b
000001b0: ba7d 1dbc 9563 4ebb e046 633b 96de 95bb
000001c0: 9d31 f33b ff79 31bb cb5b f43b f00e fe3b
000001d0: c7d6 033b e205 13bb d448 09bb 657e d63b
000001e0: de98 2b3c 62e9 abbb f110 58bb 611c c43b
000001f0: 51d8 003c f7fa c93b 7dd2 f23b 0f12 0abc
00000200: f5af e83b 55ec 35bc a5f4 e13b 5576 d23b
00000210: 26b2 6c3a aa78 623b aff3 d53b 61c1 b3bb
00000220: a8cb a4bb b431 b63b a697 d3bb 423f 033b
00000230: 6e29 8d3b 27e3 fe3b 2217 ef3b b03f 033c
00000240: f89a 35bc 7d2f c13b 9f29 f33b 1d14 ea39
00000250: 1bb4 bfb8 6835 f13b 701f 163c eba7 853b
00000260: 8750 44bb 57a0 d4bb c7ee 983b 287f 653b
00000270: 5e9e 203a 4963 05bc 58b1 d83b 44b4 e43b
00000280: 1cbb db3b 8b6c f63b 8d35 f73b 125d bc3b
00000290: da26 a13b 1af9 fc3b 920a 143c fce7 1abb
000002a0: 0830 0cbb 1b08 95bb 2b89 033c 5f28 ebb9
000002b0: c04a b5bb c0a6 10bc 26b9 ba3b dad3 ae3b
000002c0: ed86 4a3b 49fc 153c f33c eb3b ca49 153c
000002d0: 4e26 953b afbc a53b 2d8d 8cbb 1ce4 11bb
000002e0: ef18 f33b 2e94 27bc 6588 3a3b eb5e dc3b
000002f0: e4c0 edbb 48a6 8b3b 0e53 003c f5e1 e73b
00000300: 0292 d23b 98fa 003c b023 8fbb 916e 0ebc
00000310: 81e6 093c c440 c93a 6223 e13b 0a18 04bc
00000320: 07b9 01bc 43c5 b0bb 9285 ec3b 18b7 3a3b
00000330: 23b9 f93b 17fb c73b 1bf6 e23b 034c c7bb
00000340: 8909 aebb bbfd d33b 1e5a fb3b 824e 3abc
00000350: a333 32bb f20a bfbb e91b bb3b 974b 033c
00000360: f701 f03b f868 b63b 604f b83b cda8 0b3c
00000370: 67e0 c83b a311 c53b de0b 113c 04a9 e73b
00000380: 937b 9dbb ee47 25ba b888 90bb 79be 1a3b
00000390: bbd0 043c fc36 e23b 0604 053c 8b01 a93b
000003a0: 0b83 9dbb a240 413b 66cc 53bc 67a2 39bc
000003b0: 7e22 073c 2359 113b 09d9 d13b 13fc f4bb
000003c0: 9cc4 ff3b 21f7 8d3b 65ff fd3b ed1b e83b
000003d0: 104c d23b d63d 0b3c a7cb e53b 62d4 6c3b
000003e0: 0ede 903b 7226 acbb 5554 48bb ce0b 08bb
000003f0: c35d f8ba d78d 08bc b9ac c73b f5e0 173b

network_body._body_endoder.seq_layers.0.weight f4 [256, 6]
0.07246335 -0.6813878 0.42370406 -0.058506824 0.18933605 0.5857207 -0.33512315 -0.09636351
0.0781795 -0.56458956 0.2030037 1.0967176 0.28342983 -0.5985085 0.62557685 -0.13355155
0.14667384 0.37168127 0.09641654 0.3607448 0.7102537 0.38588834 0.2661493 0.48641154
-0.5333822 -0.06584942 0.16329561 -0.8626138 -0.2303812 -0.083572365 -0.37159333 -0.23480554
-0.3339303 0.05890842 -0.044339105 0.66672766 -0.005833628 0.054436494 0.5122186 -0.28170848
-0.2031257 -0.51276475 -0.25897932 0.41215545 -0.16813785 -0.38714388 0.07555714 -0.05801418
0.49898225 -0.38767752 -0.18961272 -0.048565052 0.4660279 -0.057952616 -0.60448366 -0.5046547
-0.72673416 0.2438891 -0.40231985 -0.23607033 -0.08551396 -0.310845 0.40499625 0.7469872
0.2192403 0.06556221 0.3226126 0.10598088 -0.5012966 0.21444206 0.06959352 -0.008911262
-0.16951153 0.8160872 -0.43329963 -0.46538684 -0.03647383 0.063832894 0.53300095 -0.4115683
-0.37603098 0.20965621 -0.105476074 0.031750884 -0.26780388 0.56035966 0.22860318 0.5268443
0.008266103 0.16232109 0.27603796 0.9564119 -0.30695146 -0.14403726 0.16561854 -0.47627255
0.044490103 0.064492315 0.2253342 0.014035133 -0.5749133 -0.7731394 0.43384704 -0.14638646
-0.35490346 -0.4103366 -0.19578265 -0.5958035 -0.6505668 -0.051415294 0.16594362 0.14474836
0.010505496 -0.39775187 -0.31424382 -0.19115476 -0.2577384 0.35998586 -0.13594021 0.44722494
0.070984736 0.41499656 -0.2907332 0.10282165 0.10620271 -0.14503238 0.5162176 0.054969314
-0.37758705 -0.1280379 -0.1505699 -0.08310978 0.11913792 -0.3248263 0.058143225 0.49450094
0.4516377 -0.38235632 -0.3253615 0.14034477 -0.5889161 0.11389682 0.111689195 0.27124077
0.3909691 -0.18700808 0.009865292 0.16520244 0.2648236 0.087967135 0.25332043 0.7961519
-0.01591754 0.6756095 0.09654857 -0.42814606 0.51811624 0.16845056 -0.40971944 -0.017923504
0.36691663 -0.9616955 -0.43754268 -0.44926077 -0.29146296 0.50727147 -0.5064925 -0.5344425
0.18879434 0.7830972 -0.12771702 0.27521187 0.3309996 0.05405615 0.18970996 0.40939274
-0.2831495 0.009089923 -0.171537 0.10515297 -0.44869265 -0.6010161 -0.22865215 0.6478502
-0.42647526 -0.25578696 -0.5377856 0.6287759 0.11699552 -0.039296884 -0.11250029 0.10793907
0.32068127 0.24580131 -0.45967492 0.31955674 -0.18022622 0.4127513 -0.14813378 -0.31502485
0.111186124 -1.0224175 -0.13949805 -0.032485086 -0.59767956 -0.65634584 -0.25442153 0.10270706
-0.23556146 0.6612843 -0.24786085 -0.0006926643 -0.5526969 0.12892188 -0.5160788 0.5406245
1.0282735 0.57320994 0.35604233 0.69706887 0.20811571 -0.26659903 -0.04109265 0.38427794
-0.16033909 0.20397633 -0.089306064 -0.63645965 -0.86388403 -0.59441435 0.114181615 -0.7493165
-0.76505136 0.51237404 -0.009159785 0.44131836 -0.77459437 -0.471353 0.07503565 0.07411328
-0.36992407 0.07382521 -0.27701783 -0.09075764 -0.53647 -0.010620773 -0.053026035 -0.21526359
0.0041648624 -0.3423826 0.12657425 0.023752663 0.48578486 -0.40056023 0.4186643 -0.1661491
00000000: aa67 943d 6e6f 2ebf bdef d83e daa4 6fbd
00000010: 4fe1 413e cbf1 153f 4395 abbe 3b5a c5bd
00000020: 931c a03d f188 10bf 34e0 4f3e 3e61 8c3f
00000030: b71d 913e da37 19bf ce25 203f bdc1 08be
00000040: ab31 163e 024d be3e 0976 c53d 8bb3 b83e
00000050: 30d3 353f 2893 c53e b944 883e ef0a f93e
00000060: bc8b 08bf 10dc 86bd f736 273e 42d4 5cbf
00000070: 0de9 6bbe fd27 abbd 7b41 bebe dd70 70be
00000080: eaf8 aabe f549 713d ec9c 35bd aaae 2a3f
00000090: 0528 bfbb cdf8 5e3d c220 033f 183c 90be
000000a0: 2f00 50be 8d44 03bf f098 84be 0a06 d33e
000000b0: 542c 2cbe b937 c6be b4bd 9a3d 47a0 6dbd
000000c0: 9a7a ff3e ab7d c6be d629 42be 26ec 46bd
000000d0: 359b ee3e b95f 6dbd 71bf 1abf 0d31 01bf
000000e0: 400b 3abf 10be 793e defc cdbe 6cbc 71be
000000f0: f121 afbd 1327 9fbe ab5b cf3e 8e3a 3f3f
00000100: 8780 603e 7b45 863d 7b2d a53e 810c d93d
00000110: f954 00bf b396 5b3e 0c87 8e3d 8b00 12bc
00000120: 6e94 2dbe 17eb 503f 73d9 ddbe 2f47 eebe
00000130: 9565 15bd d2ba 823d c072 083f 15b9 d2be
00000140: 2287 c0be 1eb0 563e d703 d8bd 370d 023d
00000150: 971d 89be bb73 0f3f f416 6a3e 45df 063f
00000160: 8d6e 073c 8037 263e d954 8d3e 69d7 743f
00000170: be28 9dbe 817e 13be e897 293e ffd9 f3be
00000180: 413b 363d 8c14 843d 02be 663e 9df3 653c
00000190: 852d 13bf 77ec 45bf 3321 de3e 55e6 15be
000001a0: e8b5 b5be a417 d2be 3f7b 48be 9486 18bf
000001b0: 8c8b 26bf d898 52bd 20ed 293e ea38 143e
000001c0: 3e1f 2c3c 22a6 cbbe 91e4 a0be 13be 43be
000001d0: 4af6 83be 1150 b83e e933 0bbe abfa e43e
000001e0: 7260 913d 6e7a d43e fbda 94be 2894 d23d
000001f0: ce80 d93d 5e83 14be d626 043f 8127 613d
00000200: 1753 c1be 5e1c 03be ff2e 1abe 7635 aabd
00000210: 95fe f33d a24f a6be 9727 6e3d 3a2f fd3e
00000220: 0e3d e73e 35c4 c3be c895 a6be 8ab6 0f3e
00000230: 35c3 16bf bc42 e93d 4ebd e43d 12e0 8a3e
00000240: 1a2d c83e 0c7f 3fbe 09a2 213c d42a 293e
00000250: f596 873e 1d28 b43d 37b3 813e 9cd0 4b3f
00000260: 8065 82bc bff4 2c3f 42bb c53d f635 dbbe
00000270: 44a3 043f 4e7e 2c3e bfc6 d1be 50d4 92bc
00000280: 7fdc bb3e ad31 76bf 9805 e0be 8205 e6be
00000290: a23a 95be 8bdc 013f 7ea9 01bf 39d1 08bf
000002a0: 4e53 413e 0f79 483f 40c8 02be 92e8 8c3e
000002b0: c878 a93e fb69 5d3d 5443 423e ed9b d13e
000002c0: f9f8 90be e7ed 143c 65a7 2fbe 715a d73d
000002d0: 0bbb e5be 31dc 19bf ca23 6abe 83d9 253f
000002e0: f75a dabe 82f6 82be 51ac 09bf 75f7 203f
000002f0: 599b ef3d c5f5 20bd 8d66 e6bd 290f dd3d
00000300: 5630 a43e 57b3 7b3e 835a ebbe f19c a33e
00000310: 398d 38be 2354 d33e 62b0 17be f04a a1be
00000320: 8db5 e33d 94de 82bf 94d8 0ebe 150f 05bd
00000330: 8701 19bf 4806 28bf 8a43 82be 1458 d23d
00000340: 0637 71be ee49 293f 3ccf 7dbe ea93 35ba
00000350: 8b7d 0dbf 1904 043e be1d 04bf 5e66 0a3f
00000360: 779e 833f e3bd 123f 2e4b b63e 1b73 323f
00000370: 491c 553e ab7f 88be c450 28bd 14c0 c43e
00000380: ee2f 24be 2cdf 503e 19e6 b6bd 05ef 22bf
00000390: 8127 5dbf 8a2b 18bf 0dd8 e93d 35d3 3fbf
000003a0: 68da 43bf f22a 033f ec12 16bc 7bf4 e13e
000003b0: d14b 46bf 2e55 f1be 4aac 993d b4c8 973d
000003c0: b066 bdbe ac31 973d 48d5 8dbe 24df b9bd
000003d0: 1956 09bf c002 2ebc d431 59bd 0f6e 5cbe
000003e0: 6679 883b c64c afbe ae9c 013e f294 c23c
000003f0: cbb8 f83e 3b16 cdbe 2b5b d63e fd22 2abe

network_body._body_endoder.seq_layers.2.bias f4 [256]
-0.0059235445 -0.0010684418 -0.0015023514 0.0054243733 0.010054425 -0.007028844 0.006328753 0.007502404
0.0016908379 0.0067650545 0.009166009 -0.004425805 -0.007009625 0.005636717 0.0031773765 -0.004460379
-0.0055742874 -0.0064274864 -0.007500867 -0.008247128 0.0059800916 -0.0061625377 -0.006566614 0.0032950193
0.011501981 0.005608787 -0.00063173205 -0.007699005 0.011085395 0.007948334 -0.004220609 0.005311026
0.003940567 0.006542143 0.008431152 -0.004652862 0.007921288 -0.0073904577 0.008111193 -0.0069093886
0.00513837 0.0007675589 0.0008055791 -0.0059102657 -0.0033970578 0.0044269403 -0.0072100405 0.008563672
0.008047996 0.005818854 0.008174347 0.0038690318 0.0006510612 -0.008079977 -0.004114857 0.008214414
0.0016894235 0.004858274 -0.007013134 -0.008693986 0.0072486117 -0.008057843 0.0046478254 -0.008683785
0.0014884822 0.008597212 0.00789371 0.008722072 0.0069930893 0.0031611847 0.0004238242 -0.00013434335
-0.005091887 -0.009529781 -0.0010021447 0.007701501 -0.008353269 0.0068368204 0.006273752 -0.0061787907
-0.010114539 0.0060390653 -0.0004021281 -0.010330222 0.0070682187 -0.001900955 0.007143946 0.008501924
-0.0043945466 0.0029452706 0.0065033217 -0.0039700954 -0.006152098 0.007202765 -0.0077185906 0.0021380507
0.007917019 -0.0098194685 -0.0064710123 -0.007485761 -0.011211082 0.006652575 0.006986585 -0.004131015
0.007767839 0.0049574077 0.0061938465 -0.00666119 0.006250418 -0.0074811894 0.0058272993 -0.0011615952
0.0045642275 0.0075636604 -0.007390701 0.0068948367 -0.008417243 0.006610716 0.00685939 -0.002623512
-0.006110755 -0.009228828 -0.0018437984 -0.00644089 -0.0038769918 -0.0076444866 0.0023881386 -0.0072477465
-0.011320012 0.0076705487 0.0018822012 -0.004301877 -0.002445332 -0.0041849916 0.005473915 -0.01041774
-0.009857071 -0.0085737165 -0.0015807566 -0.004386639 -0.0004173466 -0.002959039 -0.007388956 -0.005272266
0.009195249 -0.008947623 0.00084480486 -0.009415107 -0.013419587 0.0009204541 0.0039894814 -0.002896662
-0.0049187797 0.0059376764 -0.002278053 -0.008381234 0.006711229 -0.0065944376 -0.0042454908 0.0073472457
0.007895867 0.0032649473 0.0076133553 0.008232492 -0.0064604594 0.0038425075 0.0033468471 -0.0048150164
0.006353428 -0.0027326322 -0.00380463 0.008200118 -0.0075189616 0.006297993 0.003659154 -0.011399476
-0.008293806 0.009362403 0.006767915 0.010791092 -0.0059633306 0.005334386 -0.0078749005 -0.0049633025
-0.00294097 -0.0028588425 0.005398829 0.006498106 0.003764724 -0.0032783225 0.0029408766 0.00492129
-0.007293478 0.007162871 0.0026391775 0.008282186 -0.009833146 0.011393801 0.00600574 0.0048439503
-0.0035607493 0.0043787127 0.0043492964 0.006503779 0.0064123934 0.0052328156 -0.009710659 0.0010493393
-0.0010040526 0.008886128 0.0059564793 0.007924449 0.0077404804 0.0047292556 -0.001647714 -0.0044161757
0.004682789 0.0057380553 -0.0014916532 0.0047879084 -0.0057538445 0.008010669 0.0040901196 0.007226983
0.0053933663 -0.009606604 -0.005460277 -0.0069326363 0.0016267782 -0.0024968402 -0.0068137166 -0.009127192
-0.00913099 -0.007296623 0.0011320859 0.0056485347 -0.0055096736 -0.005867313 0.006436479 0.0057858424
0.0121401055 0.0076720384 0.00934482 0.007685971 0.0068035233 -0.010064963 0.0043302695 -0.0071870587
0.0076194364 0.0078122634 -0.0047859834 0.0041908957 -0.004915661 -0.0077691767 0.007985079 0.007486926
00000000: 4b1a c2bb f50a 8cba 8cea c4ba f1be b13b
00000010: 51bb 243c 3852 e6bb 6e61 cf3b bad6 f53b
00000020: 1b9f dd3a 64ad dd3b 072d 163c 5806 91bb
00000030: ffb0 e5bb 36b4 b83b 883b 503b 5f28 92bb
00000040: 83a8 b6bb aa9d d2bb d5c9 f5bb f61e 07bc
00000050: a5f4 c33b 1def c9bb c02c d7bb 40f1 573b
00000060: ce72 3c3c eac9 b73b d29a 25ba ef47 fcbb
00000070: 849f 353c bb39 023c 094d 8abb 1d08 ae3b
00000080: df1f 813b 795f d63b d122 0a3c 0977 98bb
00000090: 4ac8 013c a72b f2bb cfe4 043c 2768 e2bb
000000a0: c65f a83b 0136 493a 802d 533a e7aa c1bb
000000b0: 2ca1 5ebb de0f 913b 3442 ecbb a54e 0c3c
000000c0: bedb 033c 16ac be3b b2ed 053c 958f 7d3b
000000d0: faab 2a3a e161 04bc ecd5 86bb c095 063c
000000e0: a56f dd3a 2832 9f3b 6fce e5bb 3871 0ebc
000000f0: c385 ed3b 0b05 04bc c94c 983b 6f46 0ebc
00000100: 2d19 c33a 52db 0c3c 9f54 013c 05e7 0e3c
00000110: 4926 e53b e12b 4f3b b934 de39 85de 0cb9
00000120: d8d9 a6bb cc22 1cbc 655a 83ba df5c fc3b
00000130: 26dc 08bc 6807 e03b 0c94 cd3b 7477 cabb
00000140: 74b7 25bc 5ae3 c53b b8d4 d2b9 1740 29bc
00000150: 849c e73b 7729 f9ba c317 ea3b a74b 0b3c
00000160: 2100 90bb 7105 413b d119 d53b 9317 82bb
00000170: 8a97 c9bb 2c05 ec3b 3bec fcbb 8a1e 0c3b
00000180: 62b6 013c d6e1 20bc c90a d4bb 1d4b f5bb
00000190: b0ae 37bc d8fd d93b b9ef e43b 775d 87bb
000001a0: 5b89 fe3b c071 a23b c0f5 ca3b 1d46 dabb
000001b0: 4ed0 cc3b c424 f5bb eef2 be3b ab40 98ba
000001c0: 848f 953b 95d8 f73b b22d f2bb 15ee e13b
000001d0: 7ae8 09bc b59e d83b bcc4 e03b 3aef 2bbb
000001e0: ba3c c8bb 8334 17bc 9cab f1ba 1a0e d3bb
000001f0: 2115 7ebb 9a7e fabb 5182 1c3b 817e edbb
00000200: 9277 39bc 3a59 fb3b 31b4 f63a c3f6 8cbb
00000210: dd41 20bb 4122 89bb 875e b33b 2baf 2abc
00000220: 8d7f 21bc c678 0cbc 6431 cfba ccbd 8fbb
00000230: 50cf dab9 70ec 41bb 0e1f f2bb f9c2 acbb
00000240: aba7 163c 0d99 12bc e575 5d3a d241 1abc
00000250: d4dd 5bbc a14a 713a 32ba 823b edd5 3dbb
00000260: b72d a1bb d790 c23b 634b 15bb 7151 09bc
00000270: dfe9 db3b 2716 d8bb c21d 8bbb 2ac1 f03b
00000280: ab5d 013c baf8 553b 7479 f93b 93e1 063c
00000290: 43b2 d3bb 94d2 7b3b c756 5b3b 49c7 9dbb
000002a0: 6b30 d03b f615 33bb 1957 79bb ca59 063c
000002b0: 9f61 f6bb 655f ce3b 6bce 6f3b dec4 3abc
000002c0: bee2 07bc c464 193c 63c5 dd3b 1fcd 303c
000002d0: 0b68 c3bb 13cc ae3b ba05 01bc 33a3 a2bb
000002e0: 4abd 40bb 6b5b 3bbb a9e8 b03b 10ee d43b
000002f0: 96b9 763b 20d9 56bb b9bb 403b c642 a13b
00000300: 21fe eebb 84b6 ea3b 0df6 2c3b 02b2 073c
00000310: 341b 21bc 11ad 3a3c cccb c43b 00ba 9e3b
00000320: 765b 69bb 4e7b 8f3b 8b84 8e3b a71d d53b
00000330: 0e1f d23b 0a78 ab3b 7519 1fbc fc89 893a
00000340: 6a9a 83ba 1f97 113c 922e c33b 8cd5 013c
00000350: dba3 fd3b dff7 9a3b 1bf8 d7ba 91b5 90bb
00000360: 1572 993b 4c06 bc3b 9383 c3ba e3e3 9c3b
00000370: bf8a bcbb 2e3f 033c 6906 863b 54d0 ec3b
00000380: d6ba b03b 0565 1dbc 20ec b2bb 2b2b e3bb
00000390: 9e39 d53a 07a2 23bb 9945 dfbb 388a 15bc
000003a0: 269a 15bc 8318 efbb 8062 943a 5817 b93b
000003b0: 7e8a b4bb 9742 c0bb 19e9 d23b 2a97 bd3b
000003c0: 4be7 463c b965 fb3b 041b 193c 99da fb3b
000003d0: 17f0 de3b 84e7 24bc efe4 8d3b 6b81 ebbb
000003e0: 77ac f93b 04fe ff3b bdd3 9cbb c853 893b
000003f0: 8e13 a1bb 9494 febb d9d3 023c e354 f53b

network_body._body_endoder.seq_layers.2.weight f4 [256, 256]
0.019740593 -0.079986714 0.049734198 0.02682225 0.002797974 -0.02594351 -0.07047121 -0.07000994
-0.1085614 0.05138224 0.046971858 0.014602442 -0.026944473 0.0014860666 0.18783756 -0.021448163
0.028392877 -0.02404009 0.026859052 0.0035482123 -0.18374705 0.020173797 0.018749775 -0.1581344
0.10332086 0.020558216 0.08927936 0.038937673 0.035673134 -0.14946349 0.034877367 0.09971636
-0.0024029475 -0.04610459 0.012340427 -0.050047357 -0.002740592 -0.0012195536 -0.0074699875 -0.07755564
0.0319968 -0.023498796 -0.0069407197 0.0213567 -0.054735526 -0.0021341604 0.08611819 -0.093891546
0.030504221 0.0020605105 -0.042919002 -0.060122084 -0.008132603 -0.08534968 -0.12386557 0.04432882
-0.00533831 0.044488683 0.08211735 0.015186182 -0.028205914 0.12968002 0.036596958 0.047778644
0.010564356 0.040705822 0.029291023 0.081452474 -0.0568964 -0.18208815 -0.09328339 -0.009580345
-0.019169329 -0.017650252 0.034130424 -0.12146504 0.05839311 -0.028387316 0.009362732 0.033725627
0.0327307 -0.027899161 -0.050988797 -0.021235295 0.09250315 0.094391376 0.061364084 -0.025876595
0.00866252 0.0037928242 0.03041969 -0.08184816 -0.1658219 0.022901047 -0.008072825 -0.04102789
-0.029215088 -0.051842954 0.06443343 -0.04436318 -0.03820858 0.10393066 -0.018845053 -0.12146333
0.0154198725 0.007856372 0.0076799514 0.037760757 -0.055367254 0.06508733 0.07951077 0.09184437
-0.098776974 0.11254433 -0.047127206 -0.007277463 0.045749802 -0.0029174518 -0.10433456 0.020794736
-0.033124574 -0.020137077 0.10007186 0.07667494 -0.12288451 -0.043808777 -0.06329853 0.061233196
-0.06627224 0.03069172 -0.056202546 -0.069058314 -0.09205047 0.06463762 0.06477187 -0.0063897646
0.0040278775 -0.09084019 -0.04437274 -0.11837255 0.077848315 -0.029930543 -0.032518554 -0.019119667
0.06860817 -0.0700184 -0.10895303 0.0019802526 0.06616453 0.05295707 -0.024778102 -0.007285233
0.02041437 0.020560602 -0.019866996 -0.04127652 -0.08661586 0.114130944 -0.12826653 0.109535284
0.021517513 0.048416704 0.020401834 -0.08973391 0.039677795 -0.002897291 0.08410074 -0.0020224443
-0.012534946 -0.018373013 -0.122807086 0.0101736495 -0.005587295 -0.07433094 -0.13576989 0.018575981
0.08167895 -0.02896198 6.93645e-05 0.01772404 -0.061499618 0.00028092478 0.02600276 -0.12351935
-0.1071822 0.085174225 -0.04046109 0.063265696 0.14051586 0.073274456 -0.013847617 0.018921277
0.011724608 -0.03170234 -0.13285698 -0.0014220835 -0.018914256 -0.13473247 0.08423673 0.001999305
-0.14816706 -0.0893404 -0.047104675 0.0098365545 -0.004222389 0.049277082 -0.009135861 0.04844178
-0.12350794 -0.1553743 -0.015033239 -0.108073875 0.048774682 0.0320919 -0.0032780282 0.070107006
-0.031578723 0.017102314 -0.07547265 -0.022176886 -0.052033793 -0.11028284 0.06905901 0.09693236
-0.077222265 0.032185495 -0.035482205 0.08378449 -0.015674397 0.027547356 0.09639276 0.021899225
0.08684584 0.08423462 0.1001967 0.026891327 0.007814252 -0.00791842 0.05320783 0.11804533
0.051865675 0.0016270757 -0.018861093 0.03281229 -0.0002360524 0.0784988 -0.06559869 0.028655915
0.04617498 0.111379065 0.024042528 0.05083268 0.034253653 -0.032089848 -0.060296796 -0.03557192
00000000: 06b7 a13c 13d0 a3bd 16b6 4b3d 56ba db3c
00000010: 375e 373b 7c87 d4bc 3653 90bd 5f61 8fbd
00000020: 7055 debd 2f76 523d 9065 403d 153f 6f3c
00000030: a8ba dcbc 1fc8 c23a 7d58 403e 0fb4 afbc
00000040: 2e98 e83c b9ef c4bc 8407 dc3c 2089 683b
00000050: 3028 3cbe 8543 a53c 2199 993c fced 21be
00000060: e399 d33d b469 a83c 19d8 b63d 1c7d 1f3d
00000070: fe1d 123d f50c 19be 92db 0e3d 1738 cc3d
00000080: c57a 1dbb 2bd8 3cbd 812f 4a3c 75fe 4cbd
00000090: 819b 33bb 6ed9 9fba ccc6 f4bb 7ed5 9ebd
000000a0: 140f 033d 8c80 c0bc fa6e e3bb 3ff4 ae3c
000000b0: 5c32 60bd 45dd 0bbb bc5e b03d 364a c0bd
000000c0: fde3 f93c a109 073b d6cb 2fbd 9342 76bd
000000d0: 9c3e 05bc d0cb aebd 3bad fdbd 2392 353d
000000e0: fdec aebb c439 363d 242d a83d 77cf 783c
000000f0: 1710 e7bc d7ca 043e b1e6 153d 8ab3 433d
00000100: 1f16 2d3c 26bb 263d baf3 ef3c 8ed0 a63d
00000110: 330c 69bd 5175 3abe 5d0b bfbd e1f6 1cbc
00000120: ff08 9dbc 4397 90bc 58cc 0b3d aac2 f8bd
00000130: 9d2d 6f3d 848c e8bc 2566 193c e223 0a3d
00000140: a010 063d c88c e4bc a1d9 50bd a4f5 adbc
00000150: 4b72 bd3d 4450 c13d e858 7b3d 27fb d3bc
00000160: 3eed 0d3c 0891 783b b732 f93c 02a0 a7bd
00000170: 37cd 29be fa9a bb3c e243 04bc dc0c 28bd
00000180: 7b54 efbc 4759 54bd adf5 833d 2ab6 35bd
00000190: 9a80 1cbd 99d9 d43d f160 9abc c4c1 f8bd
000001a0: a2a3 7c3c 03b8 003c 1aa8 fb3b 06ab 1a3d
000001b0: c6c8 62bd 824c 853d 8bd6 a23d e718 bc3d
000001c0: 954b cabd a47d e63d 7508 41bd c977 eebb
000001d0: 2564 3b3d b832 3fbb 5cad d5bd b959 aa3c
000001e0: a2ad 07bd 83f6 a4bc 7af2 cc3d c007 9d3d
000001f0: e0aa fbbd d570 33bd a9a2 81bd a9cf 7a3d
00000200: bdb9 87bd 346d fb3c a434 66bd 726e 8dbd
00000210: f584 bcbd ba60 843d 1da7 843d 3b61 d1bb
00000220: 49fc 833b 6c0a babd 31c0 35bd 4f6d f2bd
00000230: f06e 9f3d e630 f5bc 2d32 05bd d9a0 9cbc
00000240: 7182 8c3d cf65 8fbd c422 dfbd 20c7 013b
00000250: 4581 873d 83e9 583d 72fb cabc f7b8 eebb
00000260: 093c a73c b56e a83c 1cc0 a2bc 9111 29bd
00000270: a863 b1bd 7cbd e93d 4d58 03be 0954 e03d
00000280: 7f45 b03c 9850 463d bf21 a73c 6ac6 b7bd
00000290: 2f85 223d 7ae0 3dbb 023d ac3d fc8a 04bb
000002a0: 605f 4dbc 0083 96bc 4882 fbbd 61af 263c
000002b0: a115 b7bb d23a 98bd 4307 0bbe a82c 983c
000002c0: 4b47 a73d ad41 edbc c877 9138 0232 913c
000002d0: 06e7 7bbd 1649 9339 bd03 d53c b7f7 fcbd
000002e0: 5782 dbbd d36f ae3d 87ba 25bd 7291 813d
000002f0: 64e3 0f3e eb10 963d 1ee1 62bc cb00 9b3c
00000300: 9218 403c 50da 01bd a90b 08be 3465 baba
00000310: 12f2 9abc 4ff7 09be 4f84 ac3d c606 033b
00000320: 1bb9 17be 1af8 b6bd d5f0 40bd 8029 213c
00000330: f75b 8abb c4d6 493d 94ae 15bc e36a 463d
00000340: bbf1 fcbd 711a 1fbe f94d 76bc d655 ddbd
00000350: f6c7 473d cc72 033d 30d4 56bb 4394 8f3d
00000360: b158 01bd 271a 8c3c 6891 9abd 4dac b5bc
00000370: 6321 55bd f8db e1bd cf6e 8d3d 7984 c63d
00000380: b526 9ebd f0d4 033d ca55 11bd 3497 ab3d
00000390: 9867 80bc feaa e13c 9169 c53d 0166 b33c
000003a0: 3bdc b13d 3383 ac3d ed33 cd3d 334b dc3c
000003b0: 5907 003c 43bc 01bc 74f0 593d c0c1 f13d
000003c0: 1a71 543d 9a43 d53a 9482 9abc 2e66 063d
000003d0: d584 77b9 fbc3 a03d 9b58 86bd cfbf ea3c
000003e0: fa21 3d3d b51a e43d d6f4 c43c ee35 503d
000003f0: 8f4d 0c3d a570 03bd c6f9 76bd ddb3 11bd

network_body._body_endoder.seq_layers.4.bias f4 [256]
-0.006200062 -0.0019278744 -0.0070836125 0.004333109 -0.011405595 -0.00330233 0.0075293374 0.006475347
-0.0043017734 0.006875148 -0.0045085475 -0.0042197322 0.00888754 -0.0036099027 0.0057541183 0.006956516
0.004476475 0.0026328235 -0.007119159 -0.007059736 -0.0011841181 -0.008315242 -0.008059549 -0.0092932
-0.0055549485 0.004410011 0.0033012962 -0.0064043985 0.005079271 -0.011331737 0.00479015 0.010231011
0.0039680116 0.008502218 0.003059856 0.0072291936 -0.0076883994 -0.0027380167 -0.005147033 0.00049357925
-0.0064343414 -0.007037775 0.008958601 0.006963917 -0.0057924734 -0.009352962 -0.011369144 0.0041102115
0.0029150255 -0.0045608096 0.010301519 -0.0044192383 -0.009622109 0.00787452 -0.0010898793 -0.007734179
0.0031510163 -0.004127373 0.0067039677 0.007230375 -0.0044789817 0.008117583 0.008346332 0.0086663095
0.0019118903 -0.010510903 -0.009769649 -4.738968e-05 0.00031153805 0.00055966974 0.006566727 0.007648284
0.005080351 0.0049652783 0.006885795 -0.011013991 -0.008983192 -0.004312383 0.0013678279 0.0055103954
0.00814518 0.0037376364 -0.0062975744 -0.0058614756 0.0072278534 0.0044934037 -0.011637111 0.008243293
-0.0096377665 0.0036412673 -0.007729201 -0.0033551576 0.0112875225 -0.007768528 -0.0096353935 0.0037884177
0.008735254 -0.0046990397 0.00418759 -0.0030854533 -0.0100574745 -0.009490289 -0.0116558 0.0046467595
-0.010653871 -0.0059700385 -0.0074392194 0.001967594 -0.00038754562 -0.00804214 0.0029561846 -0.008828521
0.0033307262 -0.0035737806 -0.0066194027 -0.00063610723 0.0055608624 -0.007500438 0.005076431 -0.009216279
0.007424651 0.0076853945 0.0071466593 -0.011158487 0.00798833 0.0059589474 0.006891878 0.008375425
0.0074970364 -0.004362461 0.008662398 0.0040626233 0.0040382994 0.0055038114 -0.0033813284 -0.011792447
-0.0050159143 -0.00076961535 -0.010174644 0.0071923193 0.004610094 -0.0031621933 -0.0033705023 0.0046196138
-0.0070659886 -0.0052403966 -0.0005106539 -0.0059908787 0.0016903101 -0.004254508 -0.007715312 0.0071022403
0.004784358 0.00023942026 0.005242379 -0.012650348 -0.009448836 -0.0071859593 0.007483556 0.007905555
-0.0032973387 -0.009505978 0.00898795 0.006401032 -0.0067846486 0.0063698892 -0.012330565 -0.011258423
0.004304928 -0.011092413 0.00045405957 -0.003482809 -0.011474057 0.007757923 0.0008488061 -0.009652305
-0.008472484 0.0024204273 0.0063459077 0.0022681232 -0.007750694 -0.0074874293 0.008670076 -0.00092475186
0.00037968357 0.0106122345 -0.0072305007 -0.0022930263 0.0032545119 0.008982106 -0.011604587 0.0011251448
-0.0025345536 -0.005723583 -0.011355266 -0.009319319 -0.010871163 -0.008804764 -0.010873442 0.005780749
0.0006237266 0.0066963984 -0.0052416604 -0.008694792 0.0032078468 0.0025893115 0.0060014506 0.0092667155
-0.009223409 0.0021263962 -0.0064297123 -0.009291173 -0.0064021326 -0.003751877 0.0069778813 -0.008260182
-0.0071450425 0.007695275 -0.0020759602 0.006466938 -0.0040214807 0.007890566 0.0023518365 0.010894169
0.008718207 0.0067535983 0.006539425 -0.00797961 -0.0065764864 -0.0046399534 0.0030428444 0.0077598193
-0.004958601 0.0073430813 0.002987277 0.0059906533 0.010846099 -0.0051851887 -0.0064866873 0.008683765
0.009166582 0.003331966 0.00956063 -0.007879538 0.008174334 0.007155683 0.008150857 0.008380105
0.008173607 -0.0045283088 -0.007863283 0.007408492 -0.0072280527 -0.010102651 0.006783393 -0.010503319
00000000: e429 cbbb bbb0 fcba a61d e8bb c1fc 8d3b
00000010: 88de 3abc e76b 58bb a9b8 f63b 262f d43b
00000020: e4f5 8cbb ec48 e13b 70bc 93bb ae45 8abb
00000030: 0b9d 113c 1e94 6cbb 0b8d bc3b 7cf3 e33b
00000040: 65af 923b 738b 2c3b d647 e9bb 5c55 e7bb
00000050: 6934 9bba a73c 08bc 330c 04bc 8242 18bc
00000060: 4906 b6bb db81 903b 8f5a 583b fddb d1bb
00000070: 0370 a63b c0a8 39bc b1f6 9c3b f89f 273c
00000080: 1806 823b e34c 0b3c dd87 483b dfe2 ec3b
00000090: f8ee fbbb 4c70 33bb 71a8 a8bb 8b63 013a
000000a0: 2bd7 d2bb 239d e6bb 19c7 123c 9231 e43b
000000b0: cace bdbb 2a3d 19bc a545 3abc f4ae 863b
000000c0: 030a 3f3b d872 95bb b4c7 283c 42cf 90bb
000000d0: 0da6 1dbc 2104 013c 48da 8eba ff6e fdbb
000000e0: 4881 4e3b ea3e 87bb f5ac db3b c8ec ec3b
000000f0: 6cc4 92bb 9cff 043c 0ebf 083c 23fd 0d3c
00000100: 6598 fa3a ec35 2cbc e110 20bc 48c4 46b8
00000110: ee55 a339 cdb6 123a b32d d73b 759e fa3b
00000120: 1379 a63b c6b3 a23b 3ca2 e13b 0774 34bc
00000130: 3d2e 13bc e44e 8dbb b048 b33a 8c90 b43b
00000140: 5c73 053c 22f3 743b e25b cebb 9f11 c0bb
00000150: a1d7 ec3b 673d 933b 95a9 3ebc e00e 073c
00000160: b9e7 1dbc 54a2 6e3b 3d45 fdbb 34e2 5bbb
00000170: 4def 383c 238f febb c5dd 1dbc 1a47 783b
00000180: 501e 0f3c 67fa 99bb 0d38 893b 5135 4abb
00000190: 1bc8 24bc 287d 1bbc f8f7 3ebc d843 983b
000001a0: 938d 2ebc 50a0 c3bb b2c4 f3bb c0f2 003b
000001b0: 7e2f cbb9 2ec3 03bc 8cbc 413b 80a5 10bc
000001c0: 5048 5a3b 1736 6abb 93e7 d8bb 6fc0 26ba
000001d0: e537 b63b 3cc6 f5bb 3158 a63b e0ff 16bc
000001e0: 7d4a f33b c3d5 fb3b 862e ea3b 16d2 36bc
000001f0: 7ce1 023c 4643 c33b 43d5 e13b 1439 093c
00000200: b3a9 f53b faf2 8ebb bbec 0d3c c11f 853b
00000210: b653 843b 5159 b43b 4799 5dbb 1c35 41bc
00000220: 8a5c a4bb 03c0 49ba 8db3 26bc 8cad eb3b
00000230: 4510 973b cd3c 4fbb a5e3 5cbb 2160 973b
00000240: cf89 e7bb a2b7 abbb 67dd 05ba 224f c4bb
00000250: 658d dd3a 6669 8bbb bad0 fcbb e9b9 e83b
00000260: 1bc6 9c3b e30c 7b39 43c8 ab3b 6843 4fbc
00000270: 4acf 1abc 3278 ebbb 9e38 f53b 4d86 013c
00000280: 2a18 58bb f6be 1bbc 3242 133c c0bf d13b
00000290: c251 debb 81ba d03b 2306 4abc 4075 38bc
000002a0: 5a10 8d3b f4bc 35bc d80e ee39 d73f 64bb
000002b0: affd 3bbc 2d36 fe3b 6a82 5e3a b424 1ebc
000002c0: 2cd0 0abc 08a0 1e3b 55f1 cf3b cba4 143b
000002d0: 89f9 fdbb 1c59 f5bb ef0c 0e3c 0c6b 72ba
000002e0: 4410 c739 f0de 2d3c d6ed ecbb 9946 16bb
000002f0: a649 553b af29 133c 2a21 3ebc 9879 933a
00000300: c11a 26bb e58c bbbb 700b 3abc 0fb0 18bc
00000310: f61c 32bc db41 10bc 8526 32bc 706c bd3b
00000320: 9581 233a 766d db3b 3cc2 abbb 9a74 0ebc
00000330: bd3a 523b 70b1 293b d1a7 c43b 6cd3 173c
00000340: c81d 17bc 025b 0b3b 56b0 d2bb 013a 18bc
00000350: fbc8 d1bb 0de2 75bb b6a6 e43b b755 07bc
00000360: f620 eabb a528 fc3b d50c 08bb 9ce8 d33b
00000370: a0c6 83bb 6f47 013c 4521 1a3b 757d 323c
00000380: cfd6 0e3c 4a4d dd3b ac48 d63b e9bc 02bc
00000390: 917f d7bb c00a 98bb 756a 473b 1546 fe3b
000003a0: c37b a2bb 3b9e f03b 31c6 433b 3e4d c43b
000003b0: d6b3 313c 84e8 a9bb 478e d4bb 5a46 0e3c
000003c0: 6e2f 163c 1d5d 5a3b 30a4 1c3c 2e19 01bc
000003d0: a4ed 053c 387a ea3b 2c8b 053c b54c 093c
000003e0: 98ea 053c 3562 94bb 00d5 00bc efc2 f23b
000003f0: 4dd9 ecbb 9785 25bc 3a47 de3b 1d16 2cbc

network_body._body_endoder.seq_layers.4.weight f4 [256, 256]
0.035092812 0.08106713 0.020380279 0.109257184 0.014216216 0.105202235 -0.054074522 0.0028829954
-0.052168056 -0.03767865 0.09243367 -0.012756859 -0.05541695 0.099635445 0.012459439 0.0057623214
0.049498316 0.053928703 0.014029096 -0.0010817318 -0.05080531 -0.033079617 0.050128058 -0.06648593
0.052418403 0.08181255 0.02960848 0.04563682 -0.04141871 0.058043186 -0.109333545 0.08372728
0.008321565 0.011962034 -0.061872654 0.0879913 0.043583307 0.011601298 0.017245024 0.0049196673
0.0006042681 0.07957633 0.07854449 0.08033804 0.09555045 0.020104589 -0.16558324 -0.011008177
0.01168032 0.17441541 0.01893168 0.023998864 0.079841405 -0.056164913 -0.08407057 0.066269085
0.054222044 0.0012671412 -0.09002184 0.016205024 -0.019963622 -0.021713939 -0.035411775 0.07013957
0.037989337 -0.09528517 0.05494122 0.023932375 -0.06659494 -0.059313938 0.11466059 0.061997253
-0.009419246 -0.0007907817 0.080890626 -0.019977732 -0.04959789 0.040648136 0.037065472 -0.15711378
0.07684141 0.030868117 -0.027400866 -0.07844659 0.08648035 0.067005016 -0.010730462 -0.038811598
0.028879123 0.00029823952 -0.030569686 -0.035920758 -0.0050662355 0.037944306 0.039960966 -0.0461581
0.01111537 -0.020256482 0.12081094 0.064473696 -0.0316771 0.038652547 0.099554956 0.027914625
-0.091131985 0.0185836 0.07000051 0.083641194 -0.03009716 0.06508027 -0.029136915 -0.14180958
-0.05268187 0.023553893 0.0645601 0.009119487 0.06653992 -0.022806777 0.006454831 0.016897194
-0.08781644 0.014535272 -0.060194567 0.011537464 0.15223187 0.06851159 0.21331798 -0.04588875
-0.056160714 -0.11293031 -0.019397521 0.024404794 0.037759043 0.1242221 -0.071403034 0.0054991157
0.08804868 0.10742477 -0.026681513 -0.05253304 -0.042596582 0.07205791 0.06730848 -0.09595889
-0.049333543 0.042458143 0.011873147 0.063428506 -0.0719623 0.07757062 0.01280246 0.0017301142
-0.054346707 0.028315403 -0.09552572 0.03698328 -0.061669204 -0.11349205 0.12513302 -0.1388191
-0.11950146 -0.059499614 -0.01133495 -0.0418989 0.12951511 -0.06349967 0.0015934674 0.030625308
-0.13321912 0.076424986 -0.09807297 0.089749105 0.08382709 -0.014331202 -0.007150738 0.0364695
-0.034960244 -0.036831032 0.017681934 -0.028531322 -0.044323083 0.0025517237 -0.035341494 0.0007015279
0.021616632 -0.018666249 0.0030256794 -0.087631054 -0.043927107 0.08787407 0.009125637 0.059620377
-0.04930321 -0.020798955 0.017076904 -0.103888534 0.021067215 0.04846172 0.02235448 -0.096148044
-0.06922258 -0.06135492 0.031869724 -0.049002748 -0.0361481 0.107183106 0.066361904 0.05357689
0.069941215 0.033772837 0.024148718 0.010860913 -0.030808728 -0.093661584 -0.086458646 -0.05541385
-0.16107269 -0.011365053 -0.028591776 0.045096513 -0.07993493 0.037003655 -0.07526239 -0.010895397
-0.009178115 -0.09243964 0.09732535 0.12808959 -0.07455736 -0.0056228777 0.031690698 0.055273123
0.101592906 0.0031339934 0.079875425 0.007938232 0.048042387 -0.018112522 0.021954376 -0.15552406
0.03361462 0.040738434 -0.059377607 -0.021527974 -0.048114996 0.0098210005 -0.005972039 0.046184413
-0.09058704 -0.076391466 -0.0650128 0.081585094 -0.07685496 0.03453449 -0.07460017 -0.03201769
00000000: 7bbd 0f3d 8606 a63d 8bf4 a63c 3bc2 df3d
00000010: 22eb 683c 4574 d73d 3f7d 5dbd a3f0 3c3b
00000020: 2cae 55bd ee54 1abd dd4d bd3d 2502 51bc
00000030: e2fc 62bd ab0d cc3d ad22 4c3c dbd1 bc3b
00000040: bfbe 4a3d 58e4 5c3d 4bda 653c e5c8 8dba
00000050: 3b19 50bd 7e7e 07bd 1453 4d3d c629 88bd
00000060: aeb4 563d 578d a73d 7c8d f23c aded 3a3d
00000070: aaa6 29bd b1be 6d3d 44ea dfbd 3579 ab3d
00000080: 2c57 083c 68fc 433c 2e6e 7dbd c834 b43d
00000090: 6984 323d 5f13 3e3c 7045 8d3c 2935 a13b
000000a0: bf67 1e3a eaf8 a23d efdb a03d 4588 a43d
000000b0: f4af c33d 61b2 a43c a78e 29be a45b 34bc
000000c0: d05e 3f3c f499 323e 9c16 9b3c 4499 c43c
000000d0: e483 a33d 2e0d 66bd 312d acbd 16b8 873d
000000e0: ef17 5e3d 3416 a63a 5f5d b8bd 66c0 843c
000000f0: c08a a3bc 6ee1 b1bc f00b 11bd 56a5 8f3d
00000100: b59a 1b3d df24 c3bd 0b0a 613d d40d c43c
00000110: ee62 88bd 2cf3 72bd 2cd3 ea3d d5f0 7d3d
00000120: 2e53 1abc 764c 4fba fca9 a53d 57a8 a3bc
00000130: 2827 4bbd a97e 263d f7d1 173d 6fe2 20be
00000140: 075f 9d3d 22df fc3c c877 e0bc 9ba8 a0bd
00000150: 9c1c b13d ed39 893d d2ce 2fbc e9f8 1ebd
00000160: e993 ec3c 085d 9c39 476d fabc a521 13bd
00000170: aa02 a6bb 7d6b 1b3d 1cae 233d 4710 3dbd
00000180: 3e1d 363c ecf0 a5bc ba6b f73d c90a 843d
00000190: d9bf 01bd 2252 1e3d 78e3 cb3d 36ad e43c
000001a0: 68a3 babd a23c 983c 6d5c 8f3d 134c ab3d
000001b0: 528e f6bc ce48 853d 8ab0 eebc 8836 11be
000001c0: f2c8 57bd 18f4 c03c 1638 843d e769 153c
000001d0: 1546 883d 47d5 babc 0c83 d33b fc6b 8a3c
000001e0: 1bd9 b3bd 5925 6e3c 948e 76bd a207 3d3c
000001f0: ace2 1b3e ce4f 8c3d 0770 5a3e d8f5 3bbd
00000200: c708 66bd 0248 e7bd 8de7 9ebc 90ec c73c
00000210: 3aa9 1a3d 2868 fe3d c13b 92bd ed31 b43b
00000220: de52 b43d 8501 dc3d 3093 dabc e32c 57bd
00000230: c179 2ebd 1993 933d 07d9 893d 1886 c4bd
00000240: f811 4abd 97e8 2d3d 9787 423c cee6 813d
00000250: f860 93bd 58dd 9e3d 69c1 513c 00c5 e23a
00000260: a79a 5ebd b4f5 e73c fda2 c3bd c87b 173d
00000270: d998 7cbd 856e e8bd df22 003e 9826 0ebe
00000280: 2ebd f4bd deb5 73bd 3ab6 39bc 2e9e 2bbd
00000290: 9c9f 043e 1d0c 82bd e5db d03a ede1 fa3c
000002a0: 986a 08be b484 9c3d 7bda c8bd 61ce b73d
000002b0: 8aad ab3d 6bcd 6abc bd50 eabb 0b61 153d
000002c0: 7932 0fbd 23dc 16bd b4d9 903c 85ba e9bc
000002d0: 1f8c 35bd d23a 273b 3ec2 10bd bee6 373a
000002e0: 5d15 b13c f6e9 98bc 7a4a 463b e977 b3bd
000002f0: e9ec 33bd 52f7 b33d b283 153c 7f34 743d
00000300: 2af2 49bd 9262 aabc dde4 8b3c 83c3 d4bd
00000310: 2795 ac3c cc7f 463d be20 b73c 44e9 c4bd
00000320: 91c4 8dbd 4c4f 7bbd d489 023d 1bb7 48bd
00000330: 0810 14bd d182 db3d c0e8 873d 7173 5b3d
00000340: 573d 8f3d 6355 0a3d 88d3 c53c f9f1 313c
00000350: 9662 fcbc a5d1 bfbd 3b11 b1bd a2f9 62bd
00000360: 3df0 24be 7d34 3abc 4d39 eabc 1fb7 383d
00000370: edb4 a3bd 2591 173d 2b23 9abd 9b82 32bc
00000380: ce5f 16bc fe50 bdbd 8352 c73d eb29 033e
00000390: 87b1 98bd 1e40 b8bb 1bce 013d 1266 623d
000003a0: f10f d03d af63 4d3b ba95 a33d 5c0f 023c
000003b0: 18c8 443d b660 94bc aad9 b33c b341 1fbe
000003c0: 7caf 093d 58dd 263d ef35 73bd 6f5b b0bc
000003d0: 3b14 45bd 43e8 203c 18b1 c3bb de2b 3d3d
000003e0: b385 b9bd 2173 9cbd 6e25 85bd 1616 a73d
000003f0: 2266 9dbd 0a74 0d3d f9c7 98bd fb24 03bd

network_body.observation_encoder.processors.0.normalizer.running_mean f4 [6]
1140.104 18.912632 -1055.6691 -32.280293 1.399948 -71.157425
00000000: 5483 8e44 124d 9741 69f5 83c4 051f 01c2
00000010: 7f31 b33f 9a50 8ec2
