Assets/Training/results/learn_v3/MarsTaxi/MarsTaxi-1999979.onnx (onnx, 542464 bytes, 10 tensors)

54 f4 [6]
000000 99 85 43 41 c8 74 6e 41 f4 71 75 40 fc 65 bb 3c
       12.220117 14.903511 3.8350801 0.022875778
000010 88 74 9f 3a 7f 68 4e 3d
       0.0012165466 0.050392624

action_model._discrete_distribution.branches.0.bias f4 [6]
000000 6b 7d 0d 3d 41 03 e3 bb 15 c0 77 3c a9 ae b8 bc
       0.034543436 -0.006927878 0.0151214795 -0.022544222
000010 31 55 2c bd f6 9d 30 bc
       -0.042073432 -0.010779848

action_model._discrete_distribution.branches.0.weight f4 [6, 256]
000000 0c aa af bc 24 ef eb 3c c3 9e 93 bd f2 fe 01 3d
       -0.02144339 0.028800555 -0.07208016 0.031737275
000010 70 ce 47 3d 8b a9 51 bc a5 81 0d 3b 60 60 98 bc
       0.04878086 -0.01279677 0.0021592167 -0.018600643
000020 ec 92 1c 3b 3a 82 75 3c 3c e5 48 3c 38 3c 8d bc
       0.0023891283 0.014984662 0.012261685 -0.017240629
000030 91 63 f7 3c ab d2 e7 bc b0 0d 01 b8 bc b8 14 bd
       0.030198844 -0.028298697 -3.0768744e-05 -0.03630899
000040 bd 40 22 3c 1d 35 d4 3c ea ef b1 bc 75 2e 24 3d
       0.00990313 0.025904233 -0.021720845 0.040083367
000050 75 eb 6b bd cc 3d eb 3c b3 23 87 bd 68 16 d8 3c
       -0.057597596 0.02871599 -0.06598606 0.026377872
000060 b2 bc cb bb fa db 1f bd c8 74 08 3d 63 df 1a bc
       -0.0062175626 -0.039028145 0.033314496 -0.009452674
000070 3f 6a a3 3c ea 78 bf ba 4f 54 f0 3c b6 5c 33 3d
       0.019948123 -0.0014608179 0.029337076 0.043789588
000080 3f e1 0f 3d aa 3f 1a 3b e8 51 71 bd ce 00 60 bd
       0.03512692 0.0023536482 -0.058916003 -0.054688267
000090 d5 23 96 3c ca bf 3f 3b 5c ed 3d bd ad 2f fa bc
       0.018327633 0.0029258602 -0.04636894 -0.030540312
0000a0 0f c6 3b 3d 11 c0 2b bd 64 6d 6b bc 76 58 d4 bc
       0.04584318 -0.041931216 -0.0143693425 -0.025921088
0000b0 1e 11 a5 3b 24 c4 15 bc 87 34 a4 3c b8 9c 10 3d
       0.005037441 -0.009141002 0.020044578 0.03530571
0000c0 eb bf c7 3c a0 ed 58 3d 97 0d a4 ba d0 81 0c bd
       0.024383506 0.05296099 -0.0012516257 -0.034303486
0000d0 fa 10 80 bd fb 60 08 3c a4 43 46 bb 4d 16 b1 bc
       -0.06253238 0.008323903 -0.003025272 -0.02161708
0000e0 eb 77 40 bc ba 9c 83 3c 6e 7e ad bc f2 96 ce 3c
       -0.011747341 0.016065944 -0.02117845 0.02521846
0000f0 e0 ff 59 bd 78 28 b7 3c a7 a4 9e bc ec 53 5c bd
       -0.053222537 0.022358164 -0.019365622 -0.05379097
000100 5c 71 e8 3c db fe 15 3d 85 0f 9d bc 95 6c b2 3c
       0.028374366 0.036620002 -0.01917244 0.021780292
000110 8f 9f f8 3c bb 5d f3 3c e7 f6 0d bd 0a 70 fe 3c
       0.030349521 0.02970778 -0.034659293 0.031059284
000120 21 7c 5f 3c ff 9a 34 3c c6 09 8f 3a f8 85 aa bc
       0.0136404345 0.011023282 0.0010912947 -0.020815834
000130 f8 3e a6 3b 93 e0 f9 3c de 7f 4d 3d a1 6a dd 3c
       0.0050734244 0.030502593 0.05017077 0.027028384
000140 5d 2f 7c bb 19 69 e6 3c b2 0d 29 3c d7 45 25 3d
       -0.003848038 0.028126286 0.010318207 0.040349808
000150 ee aa d9 3c 3b 1c 97 bd 0f 67 cb 3b 57 59 a6 bc
       0.026570763 -0.073784314 0.006207354 -0.020306272
000160 9b ba c5 3c 51 b5 51 bb 98 cf d3 3c a3 04 5e ba
       0.024136832 -0.0031998942 0.025855824 -0.0008469319
000170 bf 0f 69 3d 09 5e 3f 3d 6c 46 01 3c f1 ce 2c bd
       0.056899782 0.04672054 0.007890325 -0.042189542
000180 8f c1 b3 bb 0f 49 29 bc e2 74 a9 bc 23 e7 89 3b
       -0.0054857205 -0.01033236 -0.020685617 0.004208462
000190 9c d8 3e 3d f5 74 32 bd 82 8b f1 3c 1a 2c 82 3b
       0.046593294 -0.04356857 0.029485468 0.0039725425
0001a0 51 e9 25 bd e5 1e 91 bc 45 49 fa bc 04 73 f6 3c
       -0.04050571 -0.017714927 -0.030552516 0.03008414
0001b0 8c 4d 34 bd eb f3 be bc ca d5 c5 bb f3 a5 30 3d
       -0.044019267 -0.023309669 -0.0060374485 0.04312701
0001c0 2a e6 b9 3b 4d 2e c3 3c 73 78 78 3c cb b6 0b bd
       0.0056731896 0.023825789 0.015165436 -0.03410987
0001d0 68 4e 95 3b e1 84 49 bd 27 9e ac bb 21 8b c4 3b
       0.004556466 -0.04919899 -0.0052678767 0.005998031
0001e0 3c 7b 87 bd 31 e0 9c 3b 40 a4 fa 3c 92 30 b9 3c
       -0.06615302 0.004787468 0.030595899 0.022606168
0001f0 54 d4 10 bd 3c 57 28 3d aa b5 02 3d 1f 41 1b 3d
       -0.035358742 0.04109882 0.03191153 0.0379039
000200 7e 24 3c 3b ed d2 9e ba aa 48 f8 b9 e1 b2 9a 3c
       0.0028708274 -0.0012117304 -0.00047356385 0.018884124
000210 63 b7 99 3c 13 ee f7 3b 16 e2 34 3c 43 c0 fb 3b
       0.018764203 0.0075662225 0.011040231 0.0076828315
000220 f5 2f 03 bd 0e 1d 4c bd 71 2e e8 3c a2 23 09 bd
       -0.032028157 -0.049832396 0.028342457 -0.033481248
000230 c0 cc 4f 3c 18 cc e5 3c 22 18 f9 3b 83 11 7d 3c
       0.012683094 0.028051421 0.007601754 0.01544607
000240 3e f4 6d bd c5 36 3e 3d de bc 8a 3c 7c 81 c8 bc
       -0.058094256 0.04643895 0.016935762 -0.024475805
000250 58 ef ca 3c 09 b8 f3 ba 4a a8 b8 bb c4 e3 33 3d
       0.024772331 -0.0018594275 -0.005635296 0.043918386
000260 f8 ab 3d 3d b6 39 59 3c fd 42 7c 3c 38 49 38 bd
       0.04630658 0.013258388 0.015396831 -0.0449917
000270 f5 7c 4d 3d 73 56 91 3c 7d 9c cc 3c 13 1d 86 3c
       0.050167996 0.017741418 0.024976963 0.016371286
000280 47 97 0d bc 26 bb 1e 3d 68 65 c6 bb 2e 16 f1 bb
       -0.008642024 0.038752697 -0.006054569 -0.0073573804
000290 6b 35 a5 3c 01 1d f4 3b e9 57 b3 3c 96 93 6f bc
       0.020167073 0.0074497466 0.021892505 -0.01462259
0002a0 f9 00 3a 3c 2b ed af 3b 35 fe 03 3d 40 06 a1 bd
       0.011352771 0.005368849 0.032224853 -0.0786252
0002b0 fd db 87 bd b2 e2 17 3c 0b 22 a0 ba 4d 6a e5 bc
       -0.06633756 0.009270357 -0.0012217177 -0.02800479
0002c0 b3 36 45 bc 33 47 d6 bb 6e 1e 16 3d 84 4d ea 3c
       -0.012036967 -0.0065392493 0.036650114 0.028601415
0002d0 b0 03 0c bd 8e 68 cd bb 3e a3 21 3d 43 38 e5 bc
       -0.034183204 -0.0062685674 0.03946232 -0.02798093
0002e0 f8 90 a4 3c fd ca 27 3d e3 9d 19 3d a7 0c f5 bc
       0.020088658 0.04096507 0.037504088 -0.02991326
0002f0 71 08 1e 3d be 4c 2c bc ad 36 ec 3a 0e 65 75 3c
       0.03858227 -0.010516344 0.0018021666 0.014977707
000300 dc da fd 3c ad 33 79 bb e8 ed d1 3c 34 59 fe 3c
       0.03098815 -0.0038025186 0.025626138 0.031048395
000310 eb 66 87 bd 2c 3c e6 3c ea b1 5c 3d 22 b2 b3 bd
       -0.06611427 0.028104864 0.05388061 -0.087742105
000320 57 2f 8b 3c 0c 70 fe bc 5b 56 91 3c 3e 65 d8 bc
       0.016990347 -0.031059287 0.017741373 -0.026415464
000330 57 7c 2d bd f7 52 88 bd 45 26 95 ba 1f 85 10 3d
       -0.042354908 -0.06656449 -0.0011379203 0.035283204
000340 68 81 9d 3c f0 7b 3b bd a6 cd 13 bc d9 01 99 3c
       0.019226745 -0.045772493 -0.009021198 0.018677639
000350 2c e7 99 3c 07 30 fe 3a 4c 7d 64 3d 62 b5 cb bb
       0.01878699 0.0019392975 0.055783555 -0.006216691
000360 1f 0f 66 3c b7 3d 17 bd 26 c4 65 bd b3 a9 d7 3c
       0.014041691 -0.03692409 -0.056095265 0.026326036
000370 fe d8 86 3c f7 f3 b6 bb 85 6b 37 3a a7 5a cc 3c
       0.016460892 -0.005583282 0.00069969177 0.02494557
000380 bb 5b 19 bd 43 4e 0c 3d 2a 4a 8d bd 8a 24 67 bd
       -0.037440997 0.034254324 -0.06898911 -0.05643133
000390 7f f3 d0 bb e4 8b 00 3b 10 82 18 bd af 87 0e 3d
       -0.0063766832 0.0019614631 -0.037233412 0.034797367
0003a0 5f 87 2a 3d d4 04 82 bd 78 61 1c ba e7 fe 2d bd
       0.041633006 -0.06348577 -0.0005965452 -0.042479422
0003b0 d5 4b 12 bd 67 9c d1 bc 71 25 0f 3b 74 0d 43 bd
       -0.03571685 -0.025587274 0.0021842385 -0.04762025
0003c0 8e a2 1b 3d 25 d2 c1 3c 1c 54 86 3c ff 8f 40 bd
       0.03799682 0.023659775 0.016397528 -0.047012325
0003d0 5c 67 47 3c a1 28 af 3c 20 53 07 3d 01 b0 19 3c
       0.012170639 0.021381678 0.03303826 0.0093803415
0003e0 66 23 5a 3c e5 b7 3a 3c 40 06 cb bc d6 04 d4 3c
       0.013314104 0.011396383 -0.024783254 0.025881212
0003f0 32 80 27 bd 03 41 d5 3c 78 f5 b2 bc 4e 16 02 3c
       -0.04089374 0.026031977 -0.021845564 0.007939888

network_body._body_endoder.seq_layers.0.bias f4 [256]
000000 0d aa 01 3d a1 93 e7 3c 8f 1b ef 3b a0 89 f9 3c
       0.031656314 0.028268637 0.0072969864 0.030461133
000010 6e d3 bb 3c be d4 69 3d 5d 35 1e 3d 08 32 9d bb
       0.022927966 0.057087652 0.03862511 -0.004797224
000020 12 3c e5 3c 21 e1 5c ba 0e a4 1c 3d 67 4f b8 3c
       0.027982745 -0.0008425881 0.038242392 0.0224988
000030 44 29 db 3c b5 51 fb 3c 71 3b 6b 3d c1 1d 8d bd
       0.026753075 0.03067861 0.057429735 -0.06890441
000040 40 e4 53 3d 23 30 76 bc 61 fd db bc 74 ed fb 3c
       0.051731348 -0.015026125 -0.026854219 0.030752875
000050 6e 7c 20 bd 3d c0 9b 3d 44 53 30 3d 9b 64 60 3c
       -0.039181165 0.07605026 0.04304816 0.013695861
000060 b9 c5 38 bd e4 be 1f 3d 6d 67 93 3d 49 81 9e bb
       -0.045110438 0.039000407 0.07197461 -0.0048371893
000070 66 29 74 3b d3 c5 30 3d 97 81 57 bc ee 9a 79 3c
       0.003725612 0.04315741 -0.013153455 0.015234692
000080 2b b0 8e 3b 2c 3d 82 3d 53 33 22 3d 57 f9 f0 bb
       0.004354497 0.06359324 0.039599728 -0.0073539424
000090 80 39 3c bc f7 a3 0c 3d b0 fc de bc 63 77 16 3d
       -0.011488318 0.034336057 -0.0272201 0.03673495
0000a0 49 3d 1d 3c 7c c8 27 bc 37 f7 03 3d 54 ae c4 3c
       0.009597131 -0.01024067 0.032218184 0.024008907
0000b0 a0 d8 74 3d b7 79 a7 bc ce ae 75 3b 2a 6b 80 bb
       0.059776902 -0.02044378 0.0037488225 -0.003919025
0000c0 b8 e7 dd 3c d5 fe 82 3d a6 a8 af 3c 0a 6e 0d 3d
       0.027088031 0.063962616 0.021442723 0.03452877
0000d0 8d f3 8b 3d 33 0f f0 3c 5b 95 85 3c bf 5d fa 3c
       0.06833563 0.029304123 0.01630657 0.03056228
0000e0 00 e3 3a 3d 29 e1 8f bb a3 fb c6 bb b6 9f 1b 3c
       0.04562664 -0.004390855 -0.006072478 0.009498527
0000f0 d2 b9 9a 3c 01 d9 33 3d 69 ca e4 bc 45 29 82 3d
       0.018887434 0.043908123 -0.027928548 0.06355528
000100 82 cf a9 3c c3 22 ca bb d2 39 8e bc 8b 96 a7 bb
       0.02072883 -0.0061686947 -0.017361555 -0.0051143817
000110 19 58 8d 3d 13 5e 1e bd 33 c2 d7 3c 59 5b f9 3c
       0.06901569 -0.038663935 0.026337719 0.030439066
000120 e8 3b 01 3d f9 6b 10 3d 76 4a 3d 3c 4c 64 12 3d
       0.03155127 0.03525922 0.011553397 0.03574018
000130 13 ae 05 3d eb bd 76 3d 3c c8 09 bb a1 9f bb 3b
       0.032636713 0.060239714 -0.002102389 0.0057258164
000140 85 f3 65 3c 1c 15 41 3d f9 12 99 3c 93 67 14 3d
       0.01403511 0.047139272 0.018685805 0.03623159
000150 85 1b 72 3d f8 c8 4c 3c 20 34 59 3d 9a f5 1d bc
       0.059108276 0.012499087 0.053028226 -0.0096410755
000160 5c ee 45 bd 29 f6 50 3d 22 7e 27 3d ca b1 8e 3d
       -0.04832302 0.051016007 0.040891774 0.06967504
000170 b5 80 c2 3c b3 53 5e 3d d9 f6 ea 3c 7a 7a f2 3c
       0.023743013 0.05427904 0.02868216 0.029599417
000180 4a bd 96 3a 00 a5 d1 3c 55 55 01 bd 36 77 fa 3b
       0.0011500504 0.025591373 -0.03157552 0.0076436056
000190 2f 9b 89 3c 25 4e dd 3c 48 c5 1a 3d 3b 34 6b 3d
       0.01679763 0.027014801 0.0377858 0.057422858
0001a0 6b d1 8a 3c 90 65 21 3d 08 dd a6 3a 29 0a b0 3c
       0.016945561 0.0394035 0.0012730667 0.02148922
0001b0 98 dc 05 3d 0d be 1e 3d 73 b2 48 bc b3 4e 55 3d
       0.032681078 0.038755465 -0.012249577 0.052077007
0001c0 75 43 e2 3c b3 54 17 3d 95 c2 7a 3c 9d 23 60 3d
       0.027620057 0.03694601 0.015305181 0.054721463
0001d0 52 2b ac 3c bb ce 8c 3d 20 ee e9 3c c2 f9 c5 3c
       0.02101675 0.06875368 0.02855593 0.024166945
0001e0 36 02 bb 3c 9f 4b 4b b9 85 83 4f 3c 63 14 89 3d
       0.022828203 -0.0001938776 0.012665634 0.066933416
0001f0 2e 9c cc 3b 05 97 47 3d 6f 04 c8 3c 9e 30 8e 3d
       0.006244204 0.048728008 0.024416177 0.06942867
000200 57 70 d3 3c 66 ef 40 bb f5 ff a1 bc 44 53 22 3d
       0.025810404 -0.0029439568 -0.01977537 0.03963019
000210 00 72 db ba 0c ae 09 3d ee 81 d6 3c 03 f6 15 3d
       -0.0016742349 0.03361325 0.026185002 0.03661157
000220 05 01 3d 3d 05 cf 02 3d 67 cf 54 ba 2a 5d 14 bd
       0.04614355 0.03193571 -0.00081180636 -0.03622166
000230 f6 92 94 3c 2c f4 08 bd 60 25 a7 3c ce 63 9e 3d
       0.018136483 -0.033435985 0.020403564 0.0773388
000240 55 9d 76 3d bc 06 c5 3c b2 61 85 bb f7 b1 3b 3d
       0.060208637 0.024051063 -0.004070484 0.045824017
000250 8e e7 17 3d 51 1b da 3c 73 1c fc 3c 99 d8 71 3d
       0.037086062 0.026624354 0.030775284 0.059044454
000260 95 de 39 3c 60 11 57 3d d8 eb ca 3c c4 04 1f 3d
       0.011344572 0.052506804 0.024770662 0.038822904
000270 b3 02 a2 3d 84 da ec 3c 7a 29 92 3c 4a 59 25 3d
       0.07910671 0.02891279 0.017842043 0.040368356
000280 c2 be a3 3b da c6 81 bc 4c 50 fc 3c ee f1 23 3d
       0.0049971053 -0.01584189 0.030800007 0.040025644
000290 3a 9e 28 3d 09 d9 ec 3c d3 12 62 bd 0d 45 f1 3c
       0.04116652 0.028912084 -0.055193733 0.029451871
0002a0 34 26 64 3d b6 cc d7 3c b5 b6 49 3d ef 7f c6 39
       0.055700496 0.026342731 0.04924651 0.0003786082
0002b0 1b a5 4d 3d 8c fc 80 3d 85 39 9a 3c 6e 22 a8 b9
       0.050206285 0.062981695 0.018826256 -0.0003206911
0002c0 c8 54 d7 3c c5 ef da 3c fc 7a 10 3d ab f3 ab bc
       0.026285544 0.02672566 0.035273537 -0.020990213
0002d0 ea 80 ad 3b 42 a8 90 3c 17 31 aa 3c 8f 27 64 3d
       0.005294909 0.017658357 0.020775361 0.05570179
0002e0 b5 15 67 3d 94 16 4b 3d 9c b6 88 3c 61 41 3e bb
       0.056417186 0.04958208 0.016688637 -0.0029030668
0002f0 f2 76 46 3d d0 98 67 bd 17 28 d0 3c 3b f3 a3 bc
       0.04845328 -0.056542218 0.025409741 -0.020013442
000300 3d 63 91 3c bd 7c 0d bd 1b 71 e0 3b c6 04 b1 3c
       0.017747516 -0.034542788 0.0068494207 0.021608721
000310 ab b5 63 3c 16 43 21 bd d7 80 43 3d 70 69 0b bc
       0.0138982935 -0.03937062 0.047730293 -0.008509025
000320 f3 2a d6 3c 38 25 90 3b 9f bc 2b 3d 6a b7 06 3d
       0.026143527 0.004398968 0.04192793 0.03288976
000330 c2 ca 73 3b 57 3f de bc 42 94 16 3d e7 42 4d 3d
       0.003719971 -0.027129812 0.036762483 0.05011263
000340 ca d1 32 bd 51 8a c4 3b 5c d2 3d bb 8d 3d e8 3c
       -0.0436571 0.005997934 -0.0028964495 0.028349662
000350 64 5f 2b 3d bf 4e ae 3d 9e 57 a2 3d b0 6f 21 3d
       0.04183902 0.085111134 0.07926868 0.039413154
000360 f2 b9 a4 bc a7 95 d6 bc b2 f9 0f 3d 94 64 ef 3c
       -0.020108197 -0.026194407 0.035150237 0.029222764
000370 7a 7a 23 3d 7a 70 84 3d 29 c7 76 3d c9 59 14 3d
       0.039911725 0.06466766 0.060248528 0.03621844
000380 87 43 05 3d e2 b0 cd 3c bb 7b 07 3d 74 67 87 3d
       0.032535102 0.025108758 0.033076983 0.06611529
000390 11 73 4a 3d 6a 43 86 3d 88 b9 79 3d 4b c5 e9 3c
       0.049426142 0.06555827 0.060967952 0.02853646
0003a0 ae 87 0c 3d f1 80 ef 3c 2e 11 c6 3c 58 6a 0a 3d
       0.03430908 0.029236289 0.024178114 0.033792824
0003b0 21 96 e2 3a f4 ba 02 3d 66 87 81 3b 18 54 2c 3a
       0.0017287174 0.031916574 0.0039529083 0.000657381
0003c0 62 76 47 3d b0 3c 8d 3d aa a6 5e 3d d3 68 c9 3c
       0.048696883 0.06896341 0.054358162 0.024586117
0003d0 9d 8c a4 3b 43 96 1b 3d 9e df 85 3d 7a 55 35 3d
       0.005021645 0.037985098 0.06536792 0.04427097
0003e0 3f d3 87 3d bc 63 8e 3d a1 f4 60 3d 68 df a8 3c
       0.06632089 0.069526166 0.054920796 0.02061434
0003f0 92 9f 37 3c 3a e0 72 3c 4a 60 90 3d 5f 4b 69 3d
       0.011207478 0.014823968 0.07049616 0.056956645

network_body._body_endoder.seq_layers.0.weight f4 [256, 6]
000000 ca 7f 97 3e a8 af 12 bf 41 95 07 3f 79 78 12 bf
       0.29589683 -0.5729928 0.5296212 -0.57215077
000010 97 23 22 3e 63 aa 6c 3e 1f 05 88 be 0c bf cb 3e
       0.15833889 0.23111872 -0.26566407 0.39794195
000020 56 4a 90 3e 8e 58 67 be b1 03 bf bd ad 82 09 3f
       0.28181714 -0.22592375 -0.09326876 0.5371502
000030 95 d4 4e be 45 7b 53 bf 3a 38 9a 3e 1f e3 5c 3e
       -0.20198281 -0.8260997 0.30121022 0.21571015
000040 89 8a 29 bf f5 a7 06 bf b3 6a 67 be 63 4d d6 be
       -0.6622701 -0.5260003 -0.22599296 -0.41855916
000050 01 25 b0 3d 05 55 91 be 19 f6 8d bd 5b f9 f3 3d
       0.08600808 -0.28385177 -0.06931705 0.11912795
000060 29 a5 43 3e e3 b9 de be cb c6 4a be be f9 3e bf
       0.19105972 -0.43501195 -0.19802396 -0.74599826
000070 58 4a 30 3e a8 cb a6 be e2 92 c8 be 9d e5 1b bf
       0.1721586 -0.32577252 -0.39174563 -0.6089724
000080 42 4d 45 3c 8b fa b2 be f7 1d 90 be 23 81 60 3e
       0.0120423455 -0.34956774 -0.2814786 0.21924262
000090 54 3d ac be 16 7f 68 3e a2 d4 29 3f a6 b4 9e bf
       -0.3364054 0.2270473 0.66340077 -1.239888
0000a0 5a ec 72 3e 46 f6 db bb 7e 3f 87 3e 8c 8d 18 3e
       0.23722973 -0.0067127077 0.26415628 0.14897746
0000b0 6c d1 12 3f 1e 6c 4c be 26 ab 29 3e 39 b3 6a 3f
       0.573508 -0.19963118 0.16569194 0.9167972
0000c0 a9 5b 0e bf 77 3c cd 3d 82 f9 47 3d 07 8e b2 bd
       -0.5560861 0.100212984 0.048821934 -0.08718496
0000d0 65 61 49 be b1 60 8e be 1e 57 69 3e 7d cd bc bd
       -0.1966606 -0.27808145 0.22787139 -0.09218881
0000e0 2d 24 b9 bc 6b 2a 81 3e 3a 03 f3 3e d6 a5 e1 bd
       -0.022600258 0.25227675 0.474634 -0.11017959
0000f0 f1 4a 82 3f 71 80 ba 3e 2c 1e e4 be 10 5c 32 be
       1.017912 0.36426118 -0.4455427 -0.17417932
000100 cb ab 32 bf 11 1a d7 3e 6a 95 b6 be b2 66 00 3f
       -0.69793385 0.42012075 -0.3566087 0.501567
000110 6b de 8f 3e a9 8b 01 3e d4 e2 d9 3d ed 3d 53 3f
       0.2809938 0.12650932 0.10638967 0.82516366
000120 f9 53 57 be de 94 22 bf 15 c3 eb be cd a1 34 3f
       -0.21028127 -0.63508403 -0.46047273 0.7055939
000130 3b 82 3a 3e ce 9e 53 3e 44 e9 71 3c 01 8a fa 3e
       0.18213741 0.20666048 0.0147650875 0.48933414
000140 ad ba c1 3e 74 cc 93 3e d9 34 33 3f 5e 2a 6f bf
       0.37837735 0.28866923 0.70002514 -0.9342402
000150 5f 90 08 bf af c2 22 3f 77 2e b3 be 06 6f b2 be
       -0.5334529 0.63578314 -0.34996387 -0.3485033
000160 1b f4 4f 3f 7f 1a ba 3d fc bd 46 ba 0f c1 aa be
       0.8123185 0.09087085 -0.00075814105 -0.33350417
000170 a6 46 cc be be e9 fe 3e 4d e9 39 bf 0f 54 93 bd
       -0.3989765 0.49787706 -0.72621614 -0.07193767
000180 eb f9 90 be 4c 1f 2c 3f d6 2f 1b 3e 90 a6 e4 be
       -0.28315672 0.67235255 0.15154967 -0.44658327
000190 a6 e9 88 3d ab 0f 17 bf 1e 03 3f 3e e9 d1 07 bf
       0.0668519 -0.5900828 0.18653533 -0.5305467
0001a0 0b 1d 4b be 88 1a e3 3e 17 2b dc be c8 21 5a 3e
       -0.19835298 0.4435618 -0.43001625 0.21301949
0001b0 7e 10 39 3e c0 05 54 3e fc 93 9d be bb c9 a4 be
       0.18072698 0.20705318 -0.30776966 -0.32185158
0001c0 18 aa 1f be a3 0e 8e be c1 22 d4 3d 28 ac 3d bf
       -0.1559223 -0.27745542 0.10358191 -0.74090815
0001d0 02 c2 f2 be aa 7f 0e be 0b 7d 8c bf 98 1d d4 3e
       -0.4741364 -0.13915887 -1.097566 0.41428828
0001e0 91 2f 08 3e 4a 94 2e 3f 58 94 b3 bd 55 12 81 3e
       0.13299395 0.6819502 -0.08768529 0.252093
0001f0 f2 1a 06 bb b3 ed f5 3c ca 82 9e bf d0 40 b2 3d
       -0.0020462838 0.03002057 -1.2383664 0.08703768
000200 32 9c e9 3d 01 d9 4b be 78 5d 81 3d f7 38 8f 3e
       0.11406745 -0.19906999 0.06316656 0.27973148
000210 7f ac 06 bf 8f b1 24 bf bc e8 7f bf 81 d6 38 3f
       -0.5260696 -0.6433343 -0.999645 0.72202307
000220 76 61 c6 be 8e bf 02 3e d7 8a b6 be e4 6f 11 3f
       -0.38746232 0.12768385 -0.356528 0.56811357
000230 c7 51 a0 3e 01 5d 79 3d ba 96 f9 3b e8 3b 5a bd
       0.3131239 0.06087971 0.007616845 -0.053279787
000240 93 45 46 3e a2 f6 bf bc 43 7a 77 be 03 1b 3d be
       0.19362478 -0.023433033 -0.24167733 -0.18467335
000250 e1 4d 47 be ee a0 1b bb 77 79 93 be 9f 52 ae 3e
       -0.19463302 -0.0023747045 -0.28803608 0.3404741
000260 ba 2d 58 be 5c c3 dd bd f5 02 e1 3d e8 ab 3b be
       -0.21111193 -0.108282775 0.10986892 -0.18327296
000270 d3 16 40 bf 15 04 2c 3d 9f 04 21 3f 19 14 ab 3e
       -0.75034827 0.04199608 0.62897676 0.3341377
000280 fd bb 05 bf 69 03 9e 3d bc 46 f5 3e 3d 47 b1 bd
       -0.5223997 0.07715494 0.4790553 -0.08656166
000290 41 43 75 3e c2 b8 17 3f d9 4b 91 be db 2f 1e 3f
       0.23951437 0.59266293 -0.2837818 0.6179177
0002a0 b0 7d 78 3e e0 2f 90 be fa c5 ac 3e c7 81 04 3f
       0.24266696 -0.28161526 0.33744794 0.51760525
0002b0 7d be b7 3e c9 af a9 be 45 e9 82 be 71 11 ad 3e
       0.3588752 -0.33141926 -0.25568596 0.3380237
0002c0 75 51 06 bf 38 ab a7 be 2e 85 2e 3f 44 8a 87 3e
       -0.52468044 -0.32747817 0.68171966 0.26472676
0002d0 fe 60 f7 3e a9 9f da 3e 2f c3 ac bd 57 cd 14 bd
       0.48316187 0.42699936 -0.08435666 -0.03632864
0002e0 de b5 4a 3e e0 a3 23 3f 47 e2 78 be f6 fb 5a 3f
       0.1979594 0.6392193 -0.24305068 0.8554071
0002f0 63 fa 2e bf fd f6 86 be 82 95 1f bd 84 bc 34 3c
       -0.6835081 -0.26360312 -0.03896094 0.011031274
000300 fa 3d f5 3d a5 00 ab bd 79 e8 ae bd f6 b2 24 be
       0.11974712 -0.08349732 -0.085404344 -0.16083893
000310 d0 ed d1 3e 06 e5 95 bd ba a4 b5 be e8 2e 69 be
       0.4100175 -0.073190734 -0.3547724 -0.227718
000320 27 6e dd bd 25 cc 92 be 59 96 3c 3f 19 9f 95 3e
       -0.108120255 -0.28671375 0.7366691 0.29222944
000330 5d 06 b7 bd aa 5d 32 3f 4e 12 fe 3e 9d 2e 9e 3e
       -0.089367606 0.6967417 0.4962334 0.30894938
000340 0f 1b 98 3d 32 92 9a 3e a6 80 92 3e a4 c9 9e be
       0.07427036 0.30189663 0.28613776 -0.31013215
000350 a4 30 d2 bd 54 a3 6f 3e f5 cb dd 3e 64 48 f9 be
       -0.10263184 0.23402148 0.4331967 -0.48688042
000360 9c c7 07 3d 6e df 53 3e 06 75 98 3e a3 38 01 3f
       0.033149347 0.206907 0.29776782 0.50477046
000370 d0 a5 41 bf a8 60 65 3f ed db 6e 3e 89 85 de 3e
       -0.75643635 0.8960061 0.23326083 0.43461254
000380 a1 79 25 be 48 33 71 be 76 55 63 be 51 6d 04 bd
       -0.16159679 -0.23554718 -0.2220057 -0.032330815
000390 a5 05 51 3e cf 14 3b bd f7 40 2a be 67 65 52 3f
       0.2041231 -0.04567414 -0.16626345 0.8218598
0003a0 59 6f 25 bf be 92 9f 3e bc 03 76 3e a7 04 33 bf
       -0.6462303 0.31166643 0.24024862 -0.69928974
0003b0 03 13 8c bc 62 3a 9a be a2 e2 60 be c3 53 19 3f
       -0.01709891 -0.30122668 -0.21961454 0.59893435
0003c0 53 81 b0 be 88 8d de bd eb 77 d9 bc bc 79 69 be
       -0.34473667 -0.10866839 -0.02654644 -0.22800344
0003d0 46 bd 95 be b6 c0 2c bf 56 6d b4 bd 6a 27 a5 3e
       -0.29245967 -0.67481554 -0.08809917 0.32256633
0003e0 a2 97 61 be db d8 20 3f e5 4d 9c be a3 b5 e5 be
       -0.220305 0.62830895 -0.3052818 -0.4486514
0003f0 f9 bf b3 be f8 e0 0a 3e bd 8c c4 be 26 09 11 3d
       -0.351074 0.13562381 -0.38388625 0.035409115

network_body._body_endoder.seq_layers.2.bias f4 [256]
000000 39 96 0c 3d 88 1b 92 bd 97 7d 54 3a 9e 47 ea 3c
       0.03432295 -0.071341574 0.00081058725 0.028598603
000010 1c ef eb 3c f5 19 92 bd 34 7d 8a 3c 86 d8 89 3d
       0.02880054 -0.07133857 0.016905405 0.06730752
000020 f6 8f 28 3d 23 ea 26 bb 49 f2 fb 3b bc 29 9a 39
       0.041152917 -0.0025469146 0.0076887948 0.00029404263
000030 8d 13 8b 3d 95 fd cd 3c 8b 4b a0 3c 2c 09 37 bd
       0.067908384 0.025145331 0.019567272 -0.04468648
000040 2b 1d 57 3d 2b f5 3b 3d 99 64 5c bd 46 56 66 3c
       0.05251805 0.045888107 -0.053806875 0.014058655
000050 59 57 89 3b 25 00 b2 bc 72 6f 21 bd f8 e5 d8 3c
       0.004191321 -0.021728585 -0.039412923 0.026476845
000060 44 6a 23 bd b2 09 4b bd 8d fd b2 3c f3 e9 fc bb
       -0.039896265 -0.049569793 0.021849418 -0.0077183186
000070 af c8 1c 3d 3b b5 8d bb a2 36 d0 3c 90 02 36 39
       0.038277324 -0.004324583 0.025416676 0.00017357827
000080 7b 31 d8 bc d6 cb 6a 3d 80 1e 52 3d 44 56 52 3d
       -0.026390782 0.0573233 0.05129862 0.0513518
000090 1c 47 1b 3d fc 04 42 bd cf 8a 39 3d 8e 70 dd bc
       0.037909612 -0.047368035 0.045298394 -0.02703121
0000a0 f0 97 34 3d 6e cc d5 bb e4 2a a4 3c c8 b0 0d 3b
       0.04409021 -0.006524614 0.020039983 0.0021620262
0000b0 22 e0 ec 3c c8 24 20 3d 6d 77 10 bd 90 56 48 3d
       0.028915469 0.039097577 -0.035270143 0.048910677
0000c0 76 4c 27 3d a1 be e4 3c 94 2b b9 3c e1 67 19 3c
       0.040844403 0.02792293 0.022603787 0.009363146
0000d0 d1 55 0c bd 51 22 e4 3c 16 0b f1 3c a7 fd 04 bb
       -0.03426153 0.027848395 0.029424231 -0.002029279
0000e0 c7 30 0b 3d c4 29 c3 bb 65 da cf 3c b9 40 76 3c
       0.033982065 -0.0059559066 0.025372693 0.0150300795
0000f0 21 3c 89 bd 43 92 dd 3c c8 f4 88 3d 9b bc 17 3d
       -0.06700922 0.027047282 0.06687313 0.037045103
000100 b7 23 5b 3d 21 a4 71 3d 33 2f e4 3c 35 91 0a bc
       0.053500857 0.058994416 0.027854538 -0.008457472
000110 de 12 c1 3c 18 29 c6 3b f6 7c 3e bd 58 37 94 3d
       0.023568567 0.006047379 -0.04650589 0.072371185
000120 4b 54 41 bc 15 d6 97 3c 13 37 21 bc e4 78 b3 3c
       -0.011799882 0.0185347 -0.009839791 0.021908231
000130 c1 b3 4c 3c 4a d1 71 37 8e 1c 9a bc b3 d9 04 3d
       0.012494029 1.4413448e-05 -0.018812444 0.032434177
000140 ab 13 9b bc 29 b6 3b 3d c1 c4 82 3d a7 2c 1b 3b
       -0.018930277 0.04582802 0.06385184 0.0023677738
000150 ab cb 16 3d 78 d4 f5 3b 65 cf 87 3d 3e 0e 5b bb
       0.036815327 0.007502135 0.06631354 -0.0033425237
000160 1d 91 3f bd 2d 77 e2 bb 21 4d d5 3c 2f 0a 88 bc
       -0.04676925 -0.0069111795 0.026037754 -0.016606418
000170 19 c9 63 bd e4 56 ae bb 76 d8 28 3c 59 dd f6 3c
       -0.055611704 -0.0053204168 0.010305515 0.030134844
000180 2c a8 fd bc 07 ea 5f 3d 05 67 69 3d c4 51 20 3d
       -0.03096398 0.054666545 0.056983013 0.039140478
000190 f5 d6 e4 3c b6 0a 80 3d 37 8e 96 3c 43 e2 fa 3c
       0.02793453 0.06252043 0.01837836 0.030625468
0001a0 86 15 a3 3d 0b d1 24 3d 7b 76 88 3d 80 ee f6 bc
       0.0796309 0.04023842 0.06663223 -0.030143023
0001b0 b2 46 90 3c 74 e6 26 3d 5b de 1e 3d 08 a3 fa 3c
       0.017611835 0.04074712 0.038786273 0.030595317
0001c0 e3 d6 9c bc 76 f4 00 3d 18 94 2e 3d 75 69 9c 3c
       -0.019145435 0.031483136 0.042621702 0.019093255
0001d0 40 66 32 3c 76 a0 3f 3d b2 37 3e 3d 06 2a c7 3c
       0.010888636 0.046783887 0.046439834 0.02431203
0001e0 5e 88 0c 3d 45 b2 f8 3c 33 4d ff bc 4e 82 84 3c
       0.034309737 0.030358443 -0.031164741 0.016175415
0001f0 c5 6c 6a 3d 14 b9 01 3d b3 c0 16 3c 6c 21 8c 3c
       0.057232637 0.031670645 0.0092012165 0.01710578
000200 68 20 ab 3c c6 e1 f2 bc ab 14 91 3d 3b b5 41 bd
       0.020889476 -0.029648673 0.0708402 -0.047291975
000210 7d a1 6d bd a7 2f 43 3d 68 a3 af bc 71 05 61 3d
       -0.058015335 0.047652867 -0.021440223 0.05493683
000220 dd 7d da 3c 4b 8b 3c bc 18 c1 89 3c 5e 4e 76 3d
       0.026671344 -0.011507819 0.016815707 0.06013333
000230 ef 3f 0c ba ad 35 09 bd 0b 72 3b 3d c2 b2 30 3c
       -0.0005350103 -0.033498455 0.045763057 0.010784807
000240 5f 49 10 3c dd 06 e1 3c 14 59 a5 bb 4a 9b aa bc
       0.0088065555 0.027469093 -0.0050460193 -0.020826
000250 18 d9 f5 3c 79 90 b2 3c b5 04 0c 3d f7 e2 7a 3c
       0.030010745 0.021797406 0.034184176 0.015312902
000260 89 80 21 3d ad 18 24 3d af e4 1e bd dd a7 a3 3c
       0.03942922 0.040062595 -0.03879231 0.019977504
000270 5a 2c a8 3c 77 75 08 3d a6 bf e7 3c fa de 86 bd
       0.020528961 0.03331515 0.028289627 -0.06585498
000280 83 82 95 3c 27 cc 69 3d 14 da be 3c 3e a2 2d 3d
       0.01825071 0.05707946 0.023297347 0.042391054
000290 7b ab da bc 84 51 1f 3d ad 5e 82 3d 82 57 af bc
       -0.026693096 0.0388961 0.06365714 -0.021404032
0002a0 fb b2 b2 3c ec e3 3e 3b 03 05 8a bc 69 e4 22 3d
       0.02181386 0.0029127551 -0.016848093 0.03976861
0002b0 bf 61 98 3a b1 30 88 3d 0a bd 85 bd cf 10 52 bc
       0.001162581 0.06649912 -0.06530197 -0.01282139
0002c0 c3 0f f5 bc 1b d5 17 3d 9d a0 3f 3d a2 e7 48 3d
       -0.029914742 0.037068468 0.046784032 0.049049027
0002d0 cf 7a 21 3d 71 9a 90 3d 37 fc cc bb a2 b5 75 bc
       0.03942376 0.07060707 -0.0062556523 -0.014996918
0002e0 7a 77 d9 bc 25 f1 e5 3c 9b 8f 0d 3b 99 8d db 3c
       -0.026546229 0.028069088 0.0021600488 0.026800917
0002f0 22 dc 34 3c 9a 45 a0 3c 32 25 46 3d 89 6a 65 3d
       0.011038812 0.019564439 0.048375316 0.056009803
000300 08 14 fb 3c 43 44 f4 bc 07 fc 67 bc 82 00 4c b8
       0.0306492 -0.029817706 -0.014159209 -4.8637863e-05
000310 4e 5d 39 3d db fa 96 3c 36 f8 86 bd 67 e3 0b 3c
       0.045254998 0.018430164 -0.06590311 0.008538104
000320 ad 16 25 3d 85 4a a3 bc 76 64 b1 3c 09 c1 51 3d
       0.04030483 -0.019932995 0.021654349 0.051209483
000330 c7 e6 95 3c a2 21 27 bc b8 e2 22 bc 89 f0 d8 bb
       0.01829852 -0.01020089 -0.009941749 -0.006620471
000340 0b cc 60 bd 57 5a 35 3c 66 0b 51 bd 87 e1 15 3d
       -0.05488209 0.011068902 -0.05103626 0.036592033
000350 c7 bd b7 3c a9 11 94 bd 6d 7f 9d 3c 13 0b 20 3d
       0.02242936 -0.07229931 0.0192258 0.03907306
000360 6a 6c dc b9 cf 2f 97 39 55 6f e3 3c 1f 11 10 bc
       -0.00042042445 0.00028836585 0.027763048 -0.0087931445
000370 a2 a7 87 3c 20 43 dc 3c 95 47 09 3c d2 ff 0c bd
       0.016559426 0.026887476 0.008378883 -0.034423657
000380 d8 a1 96 3d d9 db 75 3c ab 78 ca bc 58 ba ee bc
       0.07355088 0.015006029 -0.024715742 -0.02914159
000390 f8 e3 ea 3c ed 27 02 bd 60 f4 11 3b e3 31 83 bd
       0.028673157 -0.031776357 0.0022270903 -0.064059995
0003a0 9e 7c 12 3d c4 28 e7 3c 79 69 ca bb 0b 7a ca 3c
       0.035763375 0.02821768 -0.006177124 0.024716398
0003b0 06 18 fa 3c b4 3f 24 3c 01 6f 14 bd 34 c6 68 bd
       0.030529033 0.010024954 -0.036238674 -0.056829646
0003c0 42 d6 dc 3c 18 b7 44 3b 42 e9 7b 3d ca cc 89 3c
       0.026957635 0.003001636 0.06150175 0.016821284
0003d0 59 b2 a5 3c 68 fd 1e 3c 08 65 62 3d bb 93 b8 bc
       0.020226644 0.009703971 0.055272132 -0.02253138
0003e0 4c 7b f1 3c d8 93 85 3d 31 2f 4d 3d 06 7b 07 3d
       0.029477738 0.065223396 0.050093833 0.03307631
0003f0 75 b9 d0 bc cf 8e 0c 3d 8e b6 74 3d 8e e8 31 3c
       -0.025479058 0.03431588 0.05974441 0.010858668

network_body._body_endoder.seq_layers.2.weight f4 [256, 256]
000000 0e 8e b8 3c a3 71 38 bd c7 59 5e ba 07 f2 f9 bb
       0.022528674 -0.045030247 -0.0008482006 -0.007627729
000010 4e af e6 3c ad a1 d3 bd 57 17 42 be 9a 24 ab 3d
       0.028159764 -0.103335716 -0.18954216 0.083565906
000020 de df ea bd 0e a9 06 3c 25 11 9d bd 04 69 79 bd
       -0.114684805 0.008219017 -0.07669286 -0.060891166
000030 af 5e b2 bc 30 5d a4 3c 47 0a 91 bd 35 d7 08 3d
       -0.021773664 0.020063967 -0.070820384 0.033408362
000040 d6 49 9b bb b6 76 88 3d 3a 3d 64 3d 86 3d 5f bd
       -0.0047390265 0.06663267 0.055722453 -0.054502033
000050 3c 30 fc bd a5 2c 94 bd fb 5a 70 3d cd d4 a4 3b
       -0.123138875 -0.07235078 0.058680516 0.0050302506
000060 95 b3 86 bc 25 9d d2 3c a4 6b e6 bc e6 04 96 bd
       -0.016443053 0.025709698 -0.028127499 -0.07325153
000070 22 4c de 3c 12 c3 b8 bd 86 b3 2e 3d 55 dc 00 3c
       0.027135912 -0.09021582 0.042651676 0.007865031
000080 1e fd ae 3d 20 85 89 bd 29 0d cb bd 4b 50 fd 3d
       0.08544372 -0.06714845 -0.099146195 0.1236883
000090 e6 d7 30 3d 20 a1 b1 3d 60 21 1b 3d c5 02 b9 3b
       0.043174647 0.0867331 0.037873626 0.005646082
0000a0 ab c8 b2 bb 6c e0 15 bd 96 63 a7 bd 8b 37 fc 3c
       -0.0054560504 -0.03659098 -0.081732914 0.030788204
0000b0 96 8e fb bc 23 11 21 be 77 a7 08 bd f2 78 a4 bd
       -0.030707639 -0.15729193 -0.033362832 -0.08030881
0000c0 db b4 11 be bd d1 f3 3b cf 32 a3 3d cd cc 02 3e
       -0.14229147 0.0074407742 0.07968675 0.12773438
0000d0 a9 bc b4 bd ef 01 e3 3d 96 4b c1 bd db 42 6a bc
       -0.088250466 0.11084353 -0.09438245 -0.014298166
0000e0 d6 ba 96 bd 9c a2 61 bd 5b 56 b4 bc ae 1f 11 bd
       -0.07359855 -0.055086717 -0.022013834 -0.035430603
0000f0 de 3f d4 bd f4 bd 01 3c 86 be 4d 3d d2 96 0f 3e
       -0.10363744 0.0079188235 0.050230525 0.14022377
000100 5d e0 f2 3d 1a 81 b7 bd 7e 6d 0f bb dc 9a 1e bd
       0.118592 -0.08960171 -0.002188533 -0.038721904
000110 4a 50 40 3d 0e 25 2e 3b d6 cd 26 bc 84 f5 13 bd
       0.04695157 0.002657238 -0.010180911 -0.036122814
000120 24 ac a7 3d b4 b7 4f 3a 17 d3 6c bd 36 d8 e5 bc
       0.0818713 0.0007923797 -0.0578185 -0.028057199
000130 02 d0 43 3d ba 53 29 bd e7 ea 89 3d 3e ae 2b be
       0.047805794 -0.041339613 0.06734257 -0.16765687
000140 66 24 f2 3d 5c c7 ba bc fd d4 aa 3c a7 6c 60 bc
       0.11823349 -0.02280014 0.020853514 -0.01369778
000150 0a 3f fa bd 47 df d3 bd 5f 48 84 bc 95 ba da 3d
       -0.12219055 -0.10345321 -0.01614779 0.10680119
000160 4d 70 c0 bc 6f 58 cb bd b8 83 08 be 1a 5c 50 bd
       -0.02349105 -0.09928977 -0.13331497 -0.050869085
000170 b8 04 5b bd 82 70 5e 3d 7f 89 b5 3c 1b 3a 8f 3d
       -0.053471297 0.054306515 0.02216029 0.069935046
000180 20 c3 db 3c 61 cf 1d 3b 3b b2 67 bd 46 d1 79 bb
       0.026826441 0.0024079906 -0.05656646 -0.0038119121
000190 a9 c1 35 bd 03 6f fc bc 47 d9 17 bd 87 e3 83 bd
       -0.04437414 -0.030814653 -0.037072446 -0.06439882
0001a0 00 6d e8 bb e3 3a 8e 3d e3 a0 d8 3c a3 a3 c3 3c
       -0.007093072 0.069448255 0.026443904 0.023881739
0001b0 85 31 67 3c cb 13 94 bc 6b 61 09 3e ac 77 ea bb
       0.0141109275 -0.018075844 0.13416068 -0.0071553793
0001c0 f2 2d a1 3d fb 49 08 3d e8 fc 24 bd 50 4c f2 bd
       0.078700915 0.03327368 -0.040280253 -0.11830962
0001d0 df 9c 6e 3d 36 cf 3b bd d0 2f 71 3d 62 6e b1 3c
       0.058255073 -0.04585191 0.05888349 0.02165908
0001e0 4f 55 fa 3c 5f 01 14 bd e2 8a 97 bd 98 68 d8 3b
       0.030558256 -0.03613412 -0.07399537 0.0066042654
0001f0 7f c1 94 3d f3 10 43 bd 86 e3 45 3c 95 b3 01 bd
       0.07263469 -0.047623586 0.012078172 -0.031665403
000200 a7 80 93 3c 66 9c 94 bd e2 d6 91 3d 01 09 b9 bd
       0.018005682 -0.07256393 0.07121064 -0.090349205
000210 60 a6 b0 3d e8 22 90 bd 18 2a 61 bd e9 19 ad bb
       0.086254835 -0.07037908 -0.054971784 -0.0052826297
000220 b0 6c 54 bd 50 15 30 3b 84 62 d2 bd ca 4c 0c 3d
       -0.051861465 0.0026868172 -0.102726966 0.03425292
000230 25 dd 1a 3d d2 3b da bd 74 55 25 bd fe 46 5d 3c
       0.037808556 -0.10655941 -0.040364698 0.013505695
000240 71 72 b6 bc a6 ff 62 3d 70 4b e1 3b 52 03 a9 bd
       -0.022271367 0.055419587 0.006875448 -0.082525864
000250 55 fe 50 bd 2a 3d f1 3d ea c7 e3 3d 82 72 4d bd
       -0.0510238 0.11779244 0.11122115 -0.05015803
000260 ef 18 b1 bc b6 d4 72 bc b8 1c 41 bd 6d c4 07 bd
       -0.021618335 -0.014821222 -0.04714653 -0.03314631
000270 3b ca 6a ba 78 21 e5 3c 0d 41 92 3d db 64 01 be
       -0.0008956526 0.02797006 0.07141314 -0.1263613
000280 58 e4 9b 3d 33 15 95 bc 4d ce 25 3c 6b 83 b4 3d
       0.076119125 -0.018198585 0.010119987 0.088141285
000290 ad e3 37 3d e4 3f dd 3c 3d 8f 3f 3c 7c bc ec bb
       0.044894863 0.027008004 0.0116918655 -0.0072246175
0002a0 d6 0b d9 bd 67 cb c2 3d b2 ce 63 39 2e 66 21 3d
       -0.10597961 0.09511452 0.00021725407 0.039404087
0002b0 2c 2d 8e bd 73 8b 00 bc d7 cd eb bb 44 bd ef 3d
       -0.069422096 -0.007845747 -0.007196169 0.117060214
0002c0 97 c2 9a 3c bb 47 e0 3d 05 3e ae 3d 56 7a 17 bd
       0.018891616 0.109511815 0.08507923 -0.036981903
0002d0 b1 da 04 3d fd 68 e9 bd 16 41 a8 bc 96 40 14 be
       0.032435123 -0.11396978 -0.020538848 -0.14477763
0002e0 61 e3 85 bd 2e 05 9b 3c 3d f3 06 bc 0a d0 73 bb
       -0.0653751 0.018923368 -0.008236703 -0.0037202858
0002f0 be 61 89 bb 99 f6 e3 ba a7 5c 97 3d 2f ae 8a 3d
       -0.00419256 -0.0017392217 0.07390719 0.06771504
000300 a7 fc d8 3d c9 be 7b 3d 8b 61 1c 3d e2 de e9 3b
       0.105950646 0.061461244 0.03817896 0.0071371654
000310 d0 5e c4 bc f3 c3 a9 3c e3 3a 13 be 40 79 29 3d
       -0.023970991 0.020723319 -0.14377932 0.0413754
000320 8e bd b6 3d 8c e6 78 bc 0e 6a 90 3c 58 b7 1d 3d
       0.089228734 -0.015191685 0.017628696 0.03850493
000330 31 ea 81 3d b8 59 b2 3d a4 2e 53 bc 3c 69 40 3c
       0.063434966 0.08708519 -0.012889538 0.01174384
000340 34 97 a2 3d bf 3b 78 3c 08 89 e6 3d a5 7b 2a 3d
       0.07938996 0.015150963 0.112566054 0.041621823
000350 49 9e 7f 3d e1 c1 70 bd 3f bb fd bd 49 70 db bc
       0.062406812 -0.058778647 -0.1238923 -0.02678694
000360 3c 09 76 3c 87 ce cc bd de 12 1c bd 10 ad a3 3d
       0.01501685 -0.100003295 -0.03810393 0.079919934
000370 f5 da 56 bd e7 01 a5 bd 59 bb 22 3d 7e 52 a3 3c
       -0.052454907 -0.080570035 0.03972945 0.019936796
000380 f1 d1 d8 bd 1f b1 6f bc 7a d4 8e 3d a4 38 d1 bc
       -0.10586918 -0.014629631 0.069741204 -0.025539704
000390 3e d9 83 3d 06 ba d0 bc d3 47 d6 3c 7f e9 97 3d
       0.0643792 -0.025479328 0.026157295 0.07417583
0003a0 ef ce 0e 3d 32 5d 99 bd 73 ce c6 3d c3 26 84 bc
       0.034865316 -0.07488479 0.09707346 -0.016131764
0003b0 38 e1 a9 3c 7d 68 e8 3d cd b6 8e bd f6 be 43 3d
       0.020737275 0.113480546 -0.0696846 0.047789536
0003c0 3e d8 8d bd b7 38 00 3c fb d8 a4 bc d8 77 65 3d
       -0.069260105 0.007826022 -0.020122996 0.056022495
0003d0 39 aa b9 3c 95 bd ea bd 79 86 98 3d c4 20 90 3d
       0.022664176 -0.11461941 0.074475236 0.070374995
0003e0 40 8d d6 bd b7 84 a2 bd 47 ca f5 3c b2 3a 03 3e
       -0.1047616 -0.079354696 0.03000368 0.12815359
0003f0 8b 5d d6 3c b7 e4 50 bb 44 7c 2c be ae ad 29 ba
       0.026167652 -0.0031874606 -0.16844279 -0.00064727187

network_body._body_endoder.seq_layers.4.bias f4 [256]
000000 93 b1 be 3b 49 45 37 3d a0 fd 28 bd 96 3e 0d 3d
       0.0058195083 0.04474381 -0.0412575 0.034483515
000010 6d d9 a7 3c b5 44 c3 bc 66 1e 1e 3d 36 72 90 bc
       0.020489419 -0.023836473 0.03860321 -0.017632585
000020 1a 99 1b bc 94 1b 97 3d 23 90 a3 3c ee 4a 0f bd
       -0.0094969515 0.07378307 0.01996619 -0.034983568
000030 2e 11 e1 3c 11 b3 54 bd fa cf 52 3d cc 7f b8 bc
       0.027474012 -0.051928584 0.051467873 -0.022521876
000040 b7 16 b9 3c 47 3a 0e bc 9d 33 cd bc 01 17 23 3d
       0.02259384 -0.008680887 -0.025049025 0.03981686
000050 2c a1 60 3c f7 78 55 3d 43 05 31 3c fa 82 55 3d
       0.013710301 0.052117314 0.010804477 0.052126862
000060 7c 2e ee bc d3 7c 9b 3c 0f b8 63 3d 74 97 eb 3b
       -0.0290749 0.01898042 0.055595454 0.0071896855
000070 92 39 82 bc 37 e8 1f 3d 0f a0 0d 3d 4d c7 31 3d
       -0.015896592 0.039039817 0.034576472 0.04340296
000080 b1 9c 99 3d d8 75 ac bc 4a f4 7e 3c b7 75 53 bc
       0.0750059 -0.021052286 0.015561173 -0.012906483
000090 6a 02 82 3d bb a5 9c 3d a4 bd 6b 3c 94 7f d2 bc
       0.06348117 0.07648798 0.014388476 -0.0256956
0000a0 68 69 de 3c 82 d2 18 bd f9 ed 41 bd 4e 77 f6 bc
       0.027149871 -0.03731013 -0.04734609 -0.030086186
0000b0 0b e4 4f 3d a2 ef 1e bd 8a 60 b3 3c 33 19 d9 3c
       0.050754588 -0.03880275 0.02189662 0.026501274
0000c0 ba bb fa 3c 48 65 1c 3d 88 46 6f 3d 68 d7 46 bd
       0.030607093 0.038182527 0.058416873 -0.04854527
0000d0 fa ca 21 bb df 6a 1d 3d f1 52 f3 3c 8c 31 43 bd
       -0.0024687634 0.038432 0.029702635 -0.047654673
0000e0 d8 2c 95 3c df 56 55 bc c0 75 51 3d 27 00 0a 3d
       0.01820986 -0.0130212 0.051137686 0.03369155
0000f0 b8 9e 52 bd b7 bc 32 3d f5 f6 cb 3c 89 e4 32 bd
       -0.051420897 0.043637004 0.024898032 -0.04367498
000100 27 b7 21 3d 85 6b fc 3c 69 ea 7b ba 37 a1 6d 3d
       0.03948131 0.030812988 -0.000960982 0.058015075
000110 49 0e 37 3d db 6e 96 3d 0c ab 41 bd 28 b8 8f 3c
       0.044691358 0.07345363 -0.047282264 0.017543867
000120 4c 35 5b 3d 96 06 5c 3d 47 26 ad 3b 79 76 2b 3d
       0.053517625 0.05371722 0.005284104 0.04186103
000130 a7 d4 6d 3d ef b0 40 3d 1c 2a 4c 3d 24 50 0f 3d
       0.05806413 0.047043737 0.049844846 0.034988537
000140 ff 14 0e 3d 35 a8 80 3d 5f 19 a1 3d 11 3c 1a 3d
       0.034687992 0.06282083 0.07866167 0.03765494
000150 fd 30 54 3d 29 c8 54 bc 90 ba 39 3d 53 bd a0 bc
       0.05180453 -0.012987175 0.045343935 -0.019621527
000160 eb f0 0e 3d 20 4b 62 3c 10 6b 75 3d 32 74 67 3d
       0.034897726 0.0138118565 0.059916556 0.056507297
000170 23 5a 30 3d 82 87 9a 3c 1f 60 89 3d 3e b8 3b bd
       0.04305471 0.018863443 0.06707787 -0.045830004
000180 34 01 d5 3c 2b f2 57 3d 44 89 dd bb 18 b8 99 3c
       0.02600155 0.052721184 -0.006760748 0.01876454
000190 44 7e 47 3d a4 de 82 3b 32 f2 fa 3c c9 16 3c 3d
       0.0487044 0.003993826 0.030633066 0.045920167
0001a0 27 b8 99 bc 9a 24 e3 3c 18 69 96 bb f7 78 20 3d
       -0.018764568 0.027727414 -0.004590165 0.03917786
0001b0 91 94 27 bd ec 00 68 bc c6 c2 9b 3b f4 dc 1a 3d
       -0.04091317 -0.014160376 0.0047534434 0.037808374
0001c0 09 d8 b4 3c 1b 99 98 3d af b1 5b 3b d7 6d c9 3c
       0.02207567 0.074510776 0.0033522656 0.024588509
0001d0 99 f2 12 3d 14 5e 07 bd c8 30 e9 3c de 2b 64 3d
       0.03587589 -0.033048704 0.028465644 0.055705898
0001e0 19 53 90 bc 26 2b 3e bd 6d 7a 45 3d b1 1e 5a 3d
       -0.017617749 -0.04642787 0.048212457 0.053251926
0001f0 18 48 51 3a 52 bc 15 3d 1a 67 38 3d b6 2c 52 3d
       0.000798346 0.03655655 0.0450202 0.05131217
000200 8a 29 ca ba 49 c5 4c 3d 91 3f 2f 3d 76 d2 bc 3c
       -0.0015423757 0.049992833 0.04278523 0.023049574
000210 ab 36 4f 3d 90 6e 3e 3d ed 78 3f 3d 8a b7 20 3d
       0.050589245 0.04649216 0.046746183 0.039237536
000220 ca 0a c1 3c c4 c8 5b bd 93 09 43 3d 7f 5b 15 bd
       0.023564715 -0.053658262 0.047616553 -0.03646421
000230 eb 8d 2a 3d b9 d9 4c 3d f0 94 f8 3c 86 ef 6d 3c
       0.04163925 0.050012324 0.030344456 0.014522439
000240 58 54 c5 bc 50 c7 25 3d 40 1f 80 3d 8c e0 09 3c
       -0.02408807 0.040473282 0.062559605 0.008415353
000250 fd cd 80 3c 90 0e 9f bb bf ba 80 3b a9 aa 57 3d
       0.015723223 -0.004854031 0.003928512 0.05265299
000260 26 89 62 3d 94 81 00 3d 45 dc 00 3d 8c c2 27 bd
       0.055306576 0.031373575 0.031460065 -0.04095702
000270 ad be 79 3d 9e 16 53 3d 17 11 87 3d 37 ee 6d 3d
       0.06097286 0.05153524 0.065950565 0.058088508
000280 ad 0e 1b 3c 99 b9 de 3c 9a af 6b 3b cb ed 47 3d
       0.009463948 0.02718811 0.003596282 0.04881076
000290 c9 16 7c 3c 6a 39 66 3d b3 cf 3b 3d b9 09 15 bd
       0.015386292 0.056207098 0.045852374 -0.036386225
0002a0 85 57 28 bc f6 c3 60 3d f9 d1 20 3d 01 f6 66 bb
       -0.0102747725 0.054874383 0.039262746 -0.0035241845
0002b0 ae 7d 9b bc 6d f0 d0 3c 82 88 3b 3c b2 89 93 bc
       -0.018980827 0.025505269 0.01144612 -0.018009994
0002c0 93 b7 84 bc ee 3d 22 3d 48 81 61 3d 83 b5 82 3c
       -0.016200816 0.039609842 0.055054933 0.015955692
0002d0 11 e8 50 bd 4e 28 75 b9 ef ea 02 3d 87 0c 2c bd
       -0.051002566 -0.00023380035 0.03196233 -0.042004135
0002e0 fa f2 02 3d d0 0f 05 3d 15 b2 ce 3c 9d 38 f4 ba
       0.03197 0.032485783 0.0252314 -0.0018632595
0002f0 3d 96 84 3d ed ed cd 3c 98 6f 81 3c 72 e4 53 bb
       0.06473968 0.025137866 0.015800282 -0.003233221
000300 33 14 39 3d 04 78 b4 3c f4 15 49 3d a4 f2 85 3d
       0.04518528 0.022029884 0.0490932 0.06540421
000310 60 08 f4 3c 3d ec 7c 3c 77 fe 1d 3d 0d c3 7d 3b
       0.02978915 0.015437183 0.038572755 0.0038720996
000320 e8 a9 f6 3b 6c 36 b4 bc ca b8 56 3d e5 b3 29 bb
       0.0075275786 -0.021998607 0.052422322 -0.002589458
000330 c5 14 13 3c d0 87 33 3b 1b cb 1f 3d 25 22 75 3c
       0.00897712 0.0027394183 0.039012056 0.014961754
000340 f3 d4 78 3d 1a b3 3b 3d 28 84 c5 3c b4 2f 24 3d
       0.06074996 0.0458251 0.024110869 0.040084556
000350 b0 74 74 38 c3 15 89 3d 3c e7 1f 3d 94 53 37 bd
       5.8282807e-05 0.06693604 0.03903888 -0.04475744
000360 e2 8e 3e 3d 17 da 98 3c 79 5b 82 bd 31 4d 01 3d
       0.046522982 0.01865868 -0.06365103 0.031567756
000370 44 e2 76 3d 0e c1 3f bd 9a 7c 96 bb 9c 59 1c 3d
       0.060274377 -0.04681497 -0.0045924904 0.038171396
000380 36 1c 2b bd 98 19 11 3d 03 a4 b4 bc cb 66 33 bd
       -0.04177495 0.0354248 -0.022050863 -0.043799203
000390 d0 48 98 3c b4 86 42 3d 8a da 51 bd 5b ee 40 3d
       0.018589407 0.047491744 -0.051233806 0.047102313
0003a0 9e 96 3e 3d 20 08 97 3b e4 07 cd bc df de 1b bd
       0.04653036 0.004609123 -0.025028177 -0.038054343
0003b0 40 cb 36 bd dc 3c 3c 3c 29 7d d6 bb 3f e0 ef bc
       -0.044627428 0.011489119 -0.006545682 -0.029281734
0003c0 e7 7f 33 3d 40 de f6 3c b4 23 ec 3c 7f 95 d8 3c
       0.04382315 0.030135274 0.028825618 0.026438473
0003d0 15 4e 57 3c a8 68 1e bb 2d 09 ce 3c ec 30 7d 3d
       0.013141175 -0.0024171267 0.02515086 0.061814234
0003e0 51 6e 03 3c 1d 72 b3 3c 40 a7 05 3d f1 61 8f 3d
       0.008021907 0.021905 0.032630205 0.07001103
0003f0 64 6e 81 bc cf 76 ea 3c 27 24 1c bd 27 6e cd 3b
       -0.015799709 0.028621105 -0.038120415 0.0062692347

network_body._body_endoder.seq_layers.4.weight f4 [256, 256]
000000 3d 4b 83 bd 8a 91 31 3d ef 21 8b 3c fb ae 62 bd
       -0.06410835 0.043351687 0.016983954 -0.055342656
000010 83 6c 3a 3d 11 4c 9d bc 29 86 d2 3c b6 22 dc 3d
       0.04551364 -0.01920131 0.025698738 0.10748808
000020 54 65 1a bd 59 d7 f4 3c cc 3e 56 bc 82 eb a9 3d
       -0.03769429 0.029887842 -0.013076495 0.08296873
000030 34 04 e7 3b d6 08 be 3c 65 53 0a 3d 75 bb aa bc
       0.0070500616 0.023197573 0.033770937 -0.02084134
000040 c6 3f 2b 3d 31 0d 0a 3d 11 68 20 3d f4 88 b6 3d
       0.041808866 0.033703987 0.039161745 0.089128405
000050 10 23 14 3e 9a 5a 00 3c a8 04 e6 bc cc be 63 bd
       0.144665 0.007834101 -0.028078392 -0.05560188
000060 04 d1 16 3d e8 34 11 3e b4 ec 56 bd e2 67 00 bd
       0.036820427 0.14180338 -0.05247183 -0.03134907
000070 69 0b e3 bb 47 f3 18 3b 67 05 97 bd a4 b0 9c 3b
       -0.0069288504 0.0023338364 -0.07374077 0.0047817994
000080 b5 49 0b bd 0b 31 c4 3c 4e 05 65 3d 57 17 8b 3c
       -0.03400584 0.023949167 0.055913262 0.016978903
000090 78 3b df 3c ff cf 39 bc 02 3b 01 bd 79 a8 55 3d
       0.027250037 -0.011341094 -0.031550415 0.05216262
0000a0 7b c9 55 bd 5c 09 40 3d f9 5f b7 bc 32 26 d3 3d
       -0.0521941 0.046883926 -0.02238463 0.103100196
0000b0 fa e9 26 bc 3b d8 ff bd 09 09 7d 3c 92 6c 7e 3d
       -0.01018762 -0.124924146 0.015444049 0.06211526
0000c0 65 48 15 bd 56 94 8d bd 28 b2 8d bd 47 bd 04 3e
       -0.036445994 -0.069130585 -0.06918746 0.12962829
0000d0 0b a9 59 bd 22 a5 f7 bc d8 1b d8 3d 3c d3 a6 bd
       -0.053139728 -0.030230109 0.10552186 -0.081457585
0000e0 ee 9e b2 bd 19 93 92 bd 81 4c 79 bd 4a 40 b4 bd
       -0.0872172 -0.07156963 -0.060863975 -0.08801325
0000f0 5c 81 74 3c 0e fd 84 bd 27 48 6d 3d 4e 4c 05 bd
       0.01492342 -0.06493579 0.057930138 -0.032543473
000100 ef 56 e1 bb 7e ee 84 3d 43 06 e3 bd 84 27 00 3d
       -0.0068768184 0.06490801 -0.11085179 0.031287685
000110 90 70 85 3c 99 83 ed bc 9c 1c 76 3b 9d 02 6c bc
       0.016289026 -0.028993415 0.0037553674 -0.01440492
000120 be 2b 7b 3d 2f c6 1a bd b2 35 ef 3d b6 a2 8a bd
       0.061321013 -0.03778666 0.116801634 -0.06769316
000130 53 8f 91 bc c6 c8 94 bb e3 ea 00 3d 42 f3 81 3d
       -0.017768538 -0.0045405356 0.031474005 0.06345226
000140 ff 86 a6 bd 49 1e 1b bc dd 46 3d bd 03 a0 f2 bd
       -0.08131217 -0.00946767 -0.04621016 -0.11846926
000150 ac e9 06 bc bd e2 1d bd 5f e1 9b 3c 51 75 03 3d
       -0.008234423 -0.038546313 0.019028364 0.032094304
000160 96 cb 66 bc 87 88 b5 bd 95 77 98 bd 6a 21 77 3c
       -0.014086625 -0.08863931 -0.074446835 0.01508365
000170 4a b6 4e 3d 1f a5 6f bd 20 50 15 3e a0 33 1d 3e
       0.050466813 -0.05850708 0.14581347 0.15351725
000180 03 d3 c6 3c bf b5 01 3d f9 34 bf 3d 8a bc 84 bd
       0.02427054 0.031667467 0.093362756 -0.064812735
000190 78 3b 1d 3d e1 9a 9e bd 32 53 4a 3c f8 87 26 3d
       0.038386792 -0.077443846 0.012348937 0.040657014
0001a0 9e 2d 07 3e 92 29 e6 bb 1b ec 2c 3d c3 ba 89 bd
       0.13200995 -0.0070239985 0.042217355 -0.06725075
0001b0 16 26 8c 3c bf 4e 1e bd b7 bb d8 bd 3b 35 b0 bb
       0.017108005 -0.038649317 -0.10582679 -0.0053774393
0001c0 b0 0f c5 bd 8c 4b 16 3d c3 ac 41 3d dc 09 a6 bd
       -0.09622133 0.03669314 0.0472839 -0.08107349
0001d0 7a 25 fc bd ee d1 60 3c 4f 62 ad 3d 61 c4 94 bc
       -0.123118356 0.013721926 0.084660165 -0.018160047
0001e0 26 76 eb 3b e0 69 62 3c 94 52 3e 3d d0 db 4f bd
       0.0071857153 0.013819188 0.04646547 -0.05074674
0001f0 68 a7 92 3d 61 48 f3 bd f2 55 11 3d 22 ab d6 bd
       0.071608365 -0.118790396 0.035482354 -0.1048186
000200 0f 4f 89 3c 08 14 c3 3d a1 1f 95 bc c3 51 af bd
       0.01676133 0.09525305 -0.018203558 -0.08560517
000210 ab c5 a9 bc 23 9a dd bd 7d 6d 9a 3d 5e 87 ac 3d
       -0.020724138 -0.10820415 0.075404145 0.08424257
000220 b2 62 e4 bc e2 ed 0e 3d 66 b5 18 bd 1e ac 85 3d
       -0.027879093 0.03489483 -0.03728237 0.065269694
000230 28 b5 cc 3c fc f4 07 3e 6f 3b 75 3d b7 1c 4a bd
       0.024988726 0.13277048 0.059871133 -0.04934379
000240 02 ae ce 3d 50 76 f8 3c d2 3a 60 bd e4 0f 83 3b
       0.10091783 0.030329853 -0.054743595 0.003999697
000250 49 69 8e bd e6 2e 86 3c 70 96 39 3d 46 34 52 3d
       -0.06953675 0.016379785 0.045309484 0.051319383
000260 c8 83 49 3d f6 80 20 bd a2 87 18 bd a6 04 a8 3d
       0.049197942 -0.039185487 -0.037238725 0.082040116
000270 e5 79 9d bc 1c 97 8e 3d 65 95 66 3d d3 f1 1e bd
       -0.019223163 0.069624156 0.056294817 -0.03880484
000280 69 90 d0 3c 08 64 e2 3d a6 41 0d 3d dc a8 2c 3d
       0.025459485 0.11054236 0.034486435 0.042153224
000290 fb dd 9b 3d ee 7e 04 bd 69 8f ef 3c 3f d2 20 3e
       0.07610699 -0.032347612 0.029243188 0.15705203
0002a0 c2 1b 85 3d 5d c3 96 3c ff dd c5 3d f6 a1 08 3d
       0.06499435 0.018403703 0.09661483 0.033357583
0002b0 04 ba 66 3d 09 43 af 3d 39 a3 87 bc 29 a9 83 bc
       0.056329742 0.08557708 -0.016557323 -0.016071873
0002c0 85 da 9e 3d b6 6f 0d be 54 4b 15 bd 9b 88 59 bc
       0.07756523 -0.13812146 -0.03644879 -0.013277198
0002d0 7b 78 da b8 47 77 c3 bd 62 bc 4a bb b7 3a 9f 3d
       -0.00010417491 -0.09544235 -0.0030935039 0.07774871
0002e0 cb 9e ee bd 52 a4 2e bd 83 78 85 3d 2b 25 8c 3d
       -0.11651381 -0.042637177 0.065171264 0.06843027
0002f0 dc 56 02 3c d4 df 7a 3c 1b 27 a5 3d 4c 05 5f bc
       0.007955279 0.015312154 0.080640994 -0.013612103
000300 54 3f 06 3d 36 d9 7d 3d ed d9 a6 3d 0f a6 08 be
       0.03277524 0.061974727 0.08147035 -0.13344596
000310 a1 b4 bc bd 77 46 5c bd ed 08 1a be 95 8c 8c 3d
       -0.0921414 -0.053778138 -0.15042467 0.068627514
000320 64 fc 5c bd 90 cf 4d 3d 25 e3 9d 3c d7 2a fc 3d
       -0.053951636 0.050246775 0.01927335 0.123128586
000330 15 42 7b 3d 4b 37 dc bb b9 01 80 bd e8 ba 2c ba
       0.061342318 -0.0067204586 -0.062503286 -0.00065891305
000340 89 c8 29 3a c5 52 2d 3d 88 16 c8 3d 49 1c 98 3a
       0.00064767204 0.042315263 0.097699225 0.0011605109
000350 5f 50 7b bd bb 77 20 bd 50 f6 0a bc be 19 ca 3d
       -0.061355945 -0.039176684 -0.008481577 0.09868191
000360 35 36 5d 3d c5 70 00 3e c1 52 57 3d 0c 61 98 bd
       0.054006774 0.12543018 0.052569155 -0.07440385
000370 4b a1 08 bd 85 c6 c8 bb 2b fa 50 3d 70 c6 97 bd
       -0.033356946 -0.006127181 0.05101983 -0.07410896
000380 1b 62 1e bd fd 4c e3 bd 72 a8 98 ba e7 0e 79 3b
       -0.03866778 -0.11098669 -0.001164688 0.0038003267
000390 ad a2 cc 3d 02 00 97 3d 28 0f b8 3d 51 be 9f 3d
       0.099919654 0.07373048 0.08987266 0.07799972
0003a0 86 cd 89 3c 2b db 89 bd d1 ee f1 3d 64 17 8d bd
       0.016821634 -0.06731256 0.11813129 -0.06889227
0003b0 4f 72 1f 3e 90 c8 38 bc 21 a0 2a 3d 52 1b 24 bd
       0.15570949 -0.011278287 0.041656617 -0.040065117
0003c0 6e cb 0c bd ce 3c de bd fe 5b 5a 3d 12 71 da bc
       -0.034373693 -0.10851441 0.053310387 -0.026665244
0003d0 a0 aa 9b 3c 1c e6 b4 bb f1 97 fc 3c 28 3a dd bb
       0.019002259 -0.0055205952 0.03083417 -0.0067513175
0003e0 3e 31 ec bd 32 95 1b bc ca d8 f9 bb 74 03 a4 bd
       -0.1153283 -0.00949602 -0.00762472 -0.08008471
0003f0 f3 39 2d 3d ba ab 53 3c be 85 28 3d 02 2c 2f 3d
       0.042291593 0.012919361 0.04114317 0.04276658

network_body.observation_encoder.processors.0.normalizer.running_mean f4 [6]
000000 25 3f 40 42 11 64 a0 41 be d9 73 42 6e 1f 01 c2
       48.061665 20.04886 60.96264 -32.280693
000010 fa 31 b3 3f 06 51 8e c2
       1.3999627 -71.15825
