Assets/Training/results/learn_v3/MarsTaxi/MarsTaxi-1499992.onnx (onnx, 542464 bytes, 10 tensors)

54 f4 [6]
000000 3e 7c 44 41 b1 a2 61 41 8e d7 71 40 37 4b d8 3c
       12.280333 14.10222 3.7787814 0.026403053
000010 5c 1f b8 3a ca 40 6e 3d
       0.0014047432 0.058167256

action_model._discrete_distribution.branches.0.bias f4 [6]
000000 e5 35 0f 3d d1 12 d1 bb 0c 5e ed 3b 5e 79 8f bc
       0.034963507 -0.006380417 0.0072438773 -0.017513927
000010 12 7b 21 bd f3 1e 30 bc
       -0.03942401 -0.010749566

action_model._discrete_distribution.branches.0.weight f4 [6, 256]
000000 3f 0e 87 bc 97 b3 dc 3c 78 68 85 bd e9 5a d6 3c
       -0.016486285 0.026941104 -0.065140665 0.026166396
000010 98 91 15 3d 90 48 1e bc 96 e3 ff 3a 7a f2 8a bc
       0.036515802 -0.009660855 0.0019522782 -0.016961325
000020 a3 4a 6d 3a 98 97 60 3c 36 8c 3b 3c 48 48 7e bc
       0.0009051954 0.013708018 0.011447003 -0.015520163
000030 4e 88 cb 3c 1a b8 e9 bc 41 1a 1a 3b cf e4 fa bc
       0.024845269 -0.02853017 0.0023514184 -0.030626683
000040 6e 07 cd 3b be ff b0 3c e3 66 93 bc 28 a5 0f 3d
       0.006256989 0.021606322 -0.017993396 0.035069615
000050 ad ca 39 bd 72 6e dd 3c 3d 10 5d bd 87 35 bd 3c
       -0.045359302 0.027030203 -0.053970564 0.023096813
000060 56 2c ce bb ca 25 fb bc 22 bd ea 3c 34 ec 9e bb
       -0.0062919063 -0.030657668 0.028654639 -0.004849935
000070 bc bf 77 3c 28 6f a6 b9 48 97 bb 3c 86 89 12 3d
       0.015121397 -0.00031744805 0.022899285 0.035775684
000080 18 8f 03 3d 9e 47 a1 39 0a 83 43 bd e6 11 34 bd
       0.032118887 0.00030761672 -0.04773239 -0.04396238
000090 2b b9 9a 3c 88 8e d0 3a 47 ca 23 bd d8 9e d9 bc
       0.018887123 0.0015911618 -0.03998783 -0.026565
0000a0 ae 46 14 3d 90 1e 06 bd 0e db 7d bc cf ea cc bc
       0.036200218 -0.03274399 -0.015494121 -0.02501431
0000b0 bc 9e 97 3b f4 1d f6 bb ed 54 86 3c a6 82 f0 3c
       0.004627077 -0.007510895 0.016397918 0.029359173
0000c0 4b 04 af 3c 51 f3 2e 3d dc a4 ce b9 2d 5a fd bc
       0.021364352 0.042712513 -0.00039414212 -0.030926788
0000d0 68 92 5d bd 55 b6 cf 3b 4e 81 72 bb 22 56 a6 bc
       -0.054094702 0.0063388743 -0.003700334 -0.020304743
0000e0 d8 8d c1 bb 58 cc 48 3c 87 80 77 bc 38 e2 a9 3c
       -0.0059068017 0.012255751 -0.015106327 0.020737752
0000f0 aa d6 40 bd b0 ff c5 3c a1 78 54 bc d3 80 2f bd
       -0.04707972 0.024169773 -0.012968213 -0.042847466
000100 3a cb cd 3c 90 0e 0a 3d 17 75 59 bc 6a 70 92 3c
       0.02512132 0.033705294 -0.013272545 0.017875869
000110 48 93 d1 3c 20 dd bf 3c f8 8e fd bc 7e ab c1 3c
       0.025582924 0.02342087 -0.030951962 0.023641344
000120 15 4b 7d 3c 29 26 16 3c 39 68 8e b8 e4 db 7b bc
       0.0154597955 0.0091643715 -6.7905006e-05 -0.01537225
000130 4d 56 0f 3c 0c e7 f1 3c e5 ac 26 3d e1 35 b3 3c
       0.008748603 0.029529117 0.04069223 0.021876277
000140 d8 c2 56 bb f7 7b cd 3c 17 aa 0d 3c b1 e6 0e 3d
       -0.0032769945 0.025083525 0.00864651 0.034887973
000150 85 20 ce 3c a3 93 7f bd b4 68 05 3c 5d 37 83 bc
       0.02516199 -0.062396657 0.008142639 -0.01601761
000160 7b f9 a7 3c 8d ca 29 bb 84 61 d0 3c ba cb 11 bb
       0.020504704 -0.0025908083 0.025437124 -0.0022246675
000170 10 41 47 3d c4 1e 1f 3d ff 40 27 3c 20 47 23 bd
       0.048646033 0.0388477 0.010208367 -0.039862752
000180 27 99 c9 ba 91 2e 08 bc 9a 01 ad bc b9 f4 42 3b
       -0.0015380726 -0.008311884 -0.021118928 0.0029747917
000190 f6 b7 22 3d 79 aa 10 bd f0 50 cc 3c a8 21 45 3b
       0.03972622 -0.035318825 0.024940938 0.0030079875
0001a0 ed 31 0b bd 03 02 6a bc 68 bc e6 bc 1e 82 e0 3c
       -0.03398316 -0.014282706 -0.028166011 0.027405795
0001b0 26 a7 1f bd 29 7c a8 bc 6a 99 d2 ba a4 18 19 3d
       -0.038977765 -0.020567017 -0.001606745 0.037377015
0001c0 0b 76 bc 3b e4 d2 95 3c 19 89 58 3c 43 f0 d7 bc
       0.0057513765 0.018289037 0.01321628 -0.026359683
0001d0 c3 ad 1f 3b 70 3d 2f bd c2 42 a9 bb 9c a8 a8 3b
       0.0024365045 -0.0427832 -0.005165429 0.005147053
0001e0 a5 cc 62 bd 45 32 a8 3a 89 5d dd 3c e5 9b b6 3c
       -0.055370945 0.0012832364 0.02702214 0.022291133
0001f0 62 12 f7 bc 89 f1 0d 3d ba 0a 00 3d 67 8b 06 3d
       -0.030160133 0.034654174 0.03126023 0.03284779
000200 30 bb 2e 3b 40 bd c7 3a d8 e0 d9 ba 33 ac 86 3c
       0.0026661865 0.0015238896 -0.0016622795 0.016439533
000210 93 46 85 3c af d7 1d 3c 0f f1 27 3c af 61 2f 3c
       0.016269004 0.0096339425 0.010250344 0.010704442
000220 f3 59 c5 bc 88 fd 3b bd a0 bd d6 3c ff b0 e8 bc
       -0.024090743 -0.045896083 0.026213467 -0.02840471
000230 51 fb 5c 3c f9 cd cb 3c 5f e1 2f 3c b6 10 5a 3c
       0.013487653 0.024878489 0.010734885 0.013309648
000240 55 37 43 bd 0a a2 23 3d 2c d8 69 3c 32 8d ba bc
       -0.04766019 0.039949454 0.014272731 -0.022772405
000250 e5 bd a2 3c a8 16 5d bb 56 6a 49 bb ee a6 12 3d
       0.01986594 -0.0033735428 -0.0030733547 0.035803728
000260 d8 14 23 3d 2c d9 38 3c b5 79 63 3c 8a d9 29 bd
       0.0398148 0.011282247 0.013883998 -0.041467227
000270 9a 64 31 3d 09 d5 79 3c 6b c3 b0 3c 92 46 71 3c
       0.04330883 0.015248545 0.021577558 0.014726298
000280 64 a0 5d bb d1 98 05 3d dc 96 a9 bb 1c 10 d8 bb
       -0.0033817524 0.03261644 -0.0051754545 -0.0065937173
000290 2b 13 96 3c b4 08 d3 3b e7 13 a1 3c 87 56 7f bc
       0.018319687 0.0064402465 0.01966281 -0.015584595
0002a0 f6 43 0b 3c 7f a1 01 3c 0b 61 f9 3c 97 f1 88 bd
       0.00850009 0.007912039 0.030441782 -0.066867046
0002b0 70 f0 76 bd 0b ec 18 3c 06 72 86 ba 26 16 b2 bc
       -0.060287893 0.009333621 -0.001025737 -0.021739077
0002c0 48 8e 30 bc 5f 58 c4 bb 0c 5f 08 3d bb 97 c7 3c
       -0.01077611 -0.00599198 0.03329377 0.024364343
0002d0 a9 c5 fd bc 7f 31 c2 bb f5 5c 03 3d d7 e2 d2 bc
       -0.03097804 -0.0059263106 0.032071073 -0.025742931
0002e0 07 24 90 3c fe 97 08 3d f9 7a f4 3c 59 4c cb bc
       0.017595304 0.033348076 0.029843794 -0.024816679
0002f0 f4 ee fa 3c 6f 55 29 bc b1 a8 72 3a ca 7a 5f 3c
       0.03063152 -0.01033531 0.00092567044 0.013640115
000300 17 a9 f7 3c 04 cf 84 bb 6c 6a b2 3c e8 c8 ac 3c
       0.030231996 -0.0040529985 0.021779262 0.021091893
000310 4a 63 51 bd ee ab c7 3c 12 3a 3e 3d 60 c4 98 bd
       -0.05112008 0.024373975 0.0464421 -0.074593306
000320 8f 2c 3d 3c 43 e8 e4 bc 0b 90 ac 3c 50 fd bb bc
       0.011546268 -0.027942782 0.021064779 -0.022947937
000330 5a 5f 17 bd bc 95 60 bd 5d 4f 0e bb 29 c7 d0 3c
       -0.03695617 -0.054830298 -0.0021714785 0.025485592
000340 e8 a4 98 3c 3a 9c 07 bd 6b 58 eb bb f0 32 8f 3c
       0.01863332 -0.033107974 -0.007182171 0.017480344
000350 a2 4d 59 3c 3e cc 87 3b bd d0 3d 3d 79 92 f5 bb
       0.013263138 0.0041442206 0.046341646 -0.0074942675
000360 3f 71 77 3c 56 85 eb bc 5b 7e 59 bd 12 5e c6 3c
       0.015102684 -0.028750103 -0.053099018 0.024214778
000370 d6 25 9c 3c a6 06 c8 bb 14 7a ab 3a a7 8b b0 3c
       0.01906101 -0.006104308 0.0013082647 0.021550966
000380 9b 45 0e bd 4b 14 03 3d 97 cb 78 bd 56 11 5c bd
       -0.03473435 0.032001775 -0.060741033 -0.05372747
000390 ba 89 c2 bb 92 4c c1 3a ba 2e 0b bd 5f d7 07 3d
       -0.0059368284 0.0014747551 -0.03398011 0.03316438
0003a0 1b 3e 1f 3d 75 a4 59 bd 91 f4 a0 ba 53 87 1e bd
       0.038877588 -0.053135354 -0.0012279918 -0.038703274
0003b0 c5 2f 0c bd 2a 37 a9 bc 2f 0f 27 3b 2a 13 3d bd
       -0.034225244 -0.020656187 0.0025491228 -0.046160854
0003c0 b6 3d 05 3d 7c 05 a3 3c 73 96 85 3c 2b a9 20 bd
       0.032529555 0.019900076 0.016307091 -0.03922383
0003d0 6b 0a 10 3c be f4 79 3c 48 68 cc 3c ff e8 49 3c
       0.008791546 0.015256105 0.024952069 0.012323617
0003e0 a4 3e 37 3c dc 89 10 3c b7 c8 b8 bc 41 1b b2 3c
       0.011184368 0.008821931 -0.022556646 0.021741511
0003f0 31 d1 04 bd 68 c1 b4 3c 1c fe 9e bc cc da d9 3b
       -0.032426063 0.02206488 -0.019408278 0.006648397

network_body._body_endoder.seq_layers.0.bias f4 [256]
000000 2a 64 17 3d 30 89 b0 3c 08 64 35 3c c3 2f 02 3d
       0.03696076 0.021549791 0.011071213 0.03178383
000010 72 6a df 3c a7 a0 6d 3d 4c 41 f9 3c 5e 63 38 3b
       0.027272437 0.05801454 0.030426644 0.00281354
000020 6a e8 be 3c 39 bc bb 3b 29 42 29 3d 56 80 7f 3c
       0.023304183 0.005729225 0.04132286 0.0155945625
000030 03 bc ed 3c 67 69 a0 3c 59 2b 43 3d 24 64 87 bd
       0.029020315 0.01958151 0.04764876 -0.06610897
000040 b7 c5 29 3d c9 a9 2d bc a9 69 bc bc 9d 72 0b 3d
       0.04144832 -0.010599562 -0.022999601 0.03404485
000050 8b 9e 22 bd ad 67 94 3d 14 9e 2d 3d 96 82 ca 3b
       -0.03970198 0.07246337 0.042387083 0.006180118
000060 ea 05 24 bd f5 3f 03 3d 6b 69 8c 3d 9c 9f 48 3b
       -0.040044703 0.032043416 0.068560444 0.0030612713
000070 aa 91 1d 3c 34 8d 1e 3d 91 2f 12 bc 8f a6 0f 3c
       0.009617249 0.03870888 -0.0089224735 0.008767738
000080 e6 39 20 3c dc bc 72 3d eb d2 11 3d 35 71 a3 ba
       0.009779429 0.05926214 0.035601538 -0.0012469651
000090 61 91 fb bb 63 74 05 3d 5e 6f 97 bc 3b 85 25 3d
       -0.0076772426 0.0325817 -0.018485721 0.04041026
0000a0 e0 f5 ff 3a fa ec 86 bc 88 7f da 3c 8c 73 ed 3c
       0.0019528233 -0.016470421 0.02667214 0.028985761
0000b0 5b 38 6c 3d 11 55 8d bc 8e 1a 4a 3b e3 24 a1 bb
       0.057670932 -0.017252477 0.0030838582 -0.0049177273
0000c0 34 45 cb 3c 3c 0f 74 3d 85 1b ee 3c ea 78 1e 3d
       0.024813272 0.05958484 0.029065857 0.03868953
0000d0 36 60 80 3d 4e ab 0c 3d 40 33 ee 3b 9a bb 10 3d
       0.06268351 0.034343056 0.007269293 0.03533516
0000e0 64 3d 22 3d 19 99 87 3b bd 24 1d bb 03 b3 0f 3c
       0.039609328 0.0041381237 -0.0023978197 0.008770707
0000f0 df e5 cb 3c b4 4f 2b 3d 8c b8 a5 bc 9b a1 68 3d
       0.024889885 0.041824058 -0.0202296 0.056794744
000100 db 79 d2 3c 3f 83 3a bc 52 e1 26 bc 49 35 23 bc
       0.02569287 -0.011383831 -0.0101855565 -0.009961435
000110 b0 a2 83 3d a7 5e 18 bd 90 00 9d 3c bc e2 fa 3c
       0.064275146 -0.037199643 0.019165307 0.030625694
000120 c4 45 13 3d aa b3 1e 3d c5 e7 26 3c 17 14 1f 3d
       0.035955206 0.03874556 0.010187094 0.03883752
000130 f0 16 0e 3d ea 5a 59 3d 0d 9f 1e ba d1 c5 4c ba
       0.034689844 0.053065218 -0.0006050922 -0.00078114594
000140 d0 16 9b 3c 35 5f 1d 3d b8 4f a0 3c 6c 19 17 3d
       0.018931776 0.038420875 0.019569263 0.03688948
000150 20 fe 69 3d 6a 5d cc 3b a4 e5 5f 3d 29 8a ab bb
       0.057127118 0.0062367218 0.05466236 -0.005234976
000160 fb ac 32 bd 6d 34 36 3d f1 13 18 3d 3c 15 75 3d
       -0.043622 0.04448359 0.037128393 0.059834704
000170 ac 5d 9c 3c bc 7a 5c 3d bc f4 da 3c b9 02 0c 3d
       0.019087635 0.053827986 0.026728027 0.034182284
000180 e4 b6 c0 3b 06 70 ac 3c 53 ae 0b bd ce f4 64 3c
       0.0058811773 0.02104951 -0.034101795 0.013974382
000190 f4 61 2a 3c 60 03 bb 3c 11 6f 20 3d 13 7e 56 3d
       0.01039933 0.022828758 0.03916842 0.052366327
0001a0 21 35 c3 3c 6e ee 33 3d c6 bb cc 3b 77 30 ab 3c
       0.023829045 0.043928556 0.0062479703 0.020897133
0001b0 37 18 17 3d 9d 56 2c 3d 31 c7 7c bb 77 c0 5d 3d
       0.036888327 0.04207479 -0.0038570876 0.054138627
0001c0 ec 40 ea 3c 23 70 2a 3d ed 9f a0 3c 8b a0 4d 3d
       0.02859541 0.04161085 0.019607509 0.050201934
0001d0 0a 4b f0 3c c6 ca 7b 3d 19 ab 06 3d 25 6d f4 3c
       0.029332656 0.061472677 0.032878015 0.0298372
0001e0 36 47 de 3c bb c7 d2 ba db 2f e4 3b 95 8e 74 3d
       0.027133565 -0.0016081253 0.0069637126 0.05970629
0001f0 3f 90 1c 3c f9 47 3d 3d 34 c2 01 3d 32 3f 8f 3d
       0.009555875 0.046211217 0.031679347 0.069944754
000200 d5 94 f0 3c 72 24 1e bb b0 a6 4b bc 5f ab 03 3d
       0.029367844 -0.002413061 -0.012429878 0.032145854
000210 79 fe b8 bb 83 8b 1d 3d 45 7f fc 3c f6 54 22 3d
       -0.00564557 0.038463127 0.030822406 0.039631806
000220 dc 7d 43 3d 41 8f f0 3c c8 a3 ff bb 41 11 13 bd
       0.04772745 0.029365184 -0.0078015067 -0.035905126
000230 29 bd 40 3c 06 20 d3 bc 9e b0 ba 3c 49 93 8f 3d
       0.011763849 -0.025772106 0.022789296 0.07010514
000240 f2 91 69 3d 1b bc ee 3c 2e b4 e6 3a eb 8d 2c 3d
       0.05702395 0.02914243 0.0017601305 0.04212753
000250 d4 8f 2a 3d 48 2e 01 3d 23 c4 0e 3d 4c d2 51 3d
       0.04164107 0.031538278 0.03485502 0.051225945
000260 ae 94 13 3c b3 1a 40 3d b2 d2 00 3d ba 49 31 3d
       0.009007616 0.046900462 0.031450935 0.0432832
000270 ae a8 9a 3d c8 21 09 3d be 88 b1 3c bc e2 0d 3d
       0.07551704 0.033479482 0.021671649 0.03464006
000280 07 77 12 bb 26 fb 99 bc 31 81 fd 3c 6e 42 1f 3d
       -0.0022348778 -0.018796515 0.030945392 0.03888171
000290 f5 fc 19 3d e4 ac 0d 3d 60 5f 4d bd 89 c7 10 3d
       0.037594754 0.03458871 -0.050139785 0.03534654
0002a0 92 4b 4e 3d 60 19 ff 3c 03 df 35 3d c0 d6 94 bb
       0.05036504 0.03114003 0.044402134 -0.0045422018
0002b0 ac 20 32 3d 5d e9 5f 3d d6 ed d2 3c 3f ef 42 3b
       0.04348819 0.054665912 0.025748175 0.0029744653
0002c0 35 4f fd 3c 63 cb ff 3c 6c 31 22 3d 0d 83 7b bc
       0.030921558 0.031224912 0.039597914 -0.015351069
0002d0 f3 08 68 3c 70 50 93 3c 44 3f a5 3c 2d 4a 5f 3d
       0.01416229 0.017982692 0.020171769 0.0545141
0002e0 36 a8 66 3d d7 6b 47 3d d7 9a 49 3c ff a6 0f bc
       0.056312762 0.04868683 0.012304983 -0.008767842
0002f0 69 ce 2f 3d 1b cb 45 bd 21 c3 f7 3c cd 7b 5e bc
       0.042921457 -0.0482894 0.030244412 -0.013579321
000300 81 ab b7 3c 9b bb 05 bd 04 e4 36 3c f0 f8 de 3c
       0.022420647 -0.032649618 0.011162762 0.027218312
000310 d7 e4 90 3c 76 7e f8 bc 2b 9b 41 3d 96 3b 3b bc
       0.017687244 -0.030333739 0.04726712 -0.011427781
000320 ec 96 05 3d d5 f4 22 3c bf 17 1f 3d 88 3e 15 3d
       0.032614633 0.009946068 0.038841005 0.036436588
000330 41 78 1a 3c 32 eb 8a bc ed c2 1e 3d c5 cf 3d 3d
       0.009428085 -0.016957853 0.038760114 0.046340723
000340 10 62 14 bd 3c a5 a0 3b 6a 39 84 3a 86 d5 e9 3c
       -0.036226332 0.00490251 0.0010087912 0.028544199
000350 2b 62 0c 3d 6c 19 a0 3d 4c c6 97 3d b8 0f 05 3d
       0.034273308 0.07817349 0.07410869 0.032485694
000360 fd 9e 89 bc 13 ac f4 bc a2 9b 20 3d 81 3d fb 3c
       -0.016799444 -0.029867208 0.039210923 0.030668976
000370 94 ea 11 3d eb 24 71 3d 13 60 77 3d 3e 33 02 3d
       0.0356241 0.0588731 0.060394358 0.03178715
000380 1e 76 bd 3c 73 26 ae 3c 7d 13 0c 3d 0c 60 70 3d
       0.023127612 0.021258568 0.034198273 0.058685347
000390 0f de 33 3d 04 24 7d 3d ba 3d 62 3d 1b da 04 3d
       0.043912943 0.061801925 0.05523465 0.032434564
0003a0 84 3a e4 3c c4 62 c7 3c 3e 77 fc 3c 17 d9 f0 3c
       0.027859934 0.024339087 0.030818578 0.029400392
0003b0 d6 75 14 3c b7 5e 17 3d 78 8f 17 bb c1 88 d6 3a
       0.009061297 0.03695556 -0.0023126286 0.001636766
0003c0 ea 17 45 3d 94 de 83 3d 7d f9 3c 3d 5b 55 e7 3c
       0.04811851 0.06438938 0.046136368 0.028238943
0003d0 6c 6d 09 3c e1 52 11 3d 7e 25 64 3d 03 48 3b 3d
       0.008387905 0.03547943 0.055699818 0.045722973
0003e0 5d 64 7d 3d 67 3f 83 3d 51 6a 60 3d 6d 29 eb 3c
       0.061863292 0.064085774 0.05478889 0.028706277
0003f0 da 6c 09 3c 8a 82 96 3c a6 d8 8c 3d 8c 0e 53 3d
       0.008387769 0.018372793 0.0687726 0.051527545

network_body._body_endoder.seq_layers.0.weight f4 [256, 6]
000000 bc 09 97 3e 30 94 12 bf d7 e3 07 3f 80 f8 13 bf
       0.29499614 -0.57257366 0.5308203 -0.57801056
000010 bf 23 28 3e 48 aa 66 3e 04 15 87 be 2b 91 cb 3e
       0.16419886 0.22525895 -0.2638322 0.39759192
000020 e5 3d 90 3e b9 78 5f be 18 c3 ce bd a4 7a 0b 3f
       0.28172222 -0.21823396 -0.10095805 0.5448401
000030 e3 04 4e be c8 5b 53 bf a8 9e 99 3e ba a6 58 3e
       -0.20119052 -0.8256192 0.30003858 0.21157351
000040 6e 7b 28 bf 13 b7 07 bf 44 18 65 be a5 ae d5 be
       -0.6581334 -0.53013724 -0.22372538 -0.41734806
000050 a5 26 ab 3d 32 10 92 be 55 09 8b bd 95 0c f1 3d
       0.0835698 -0.2852798 -0.06788889 0.11769978
000060 50 ad 42 3e ce 39 dd be 7f 61 49 be ac 37 40 bf
       0.19011426 -0.43208164 -0.19666098 -0.7508495
000070 2c 42 35 3e 90 47 a9 be 60 10 c9 be 51 2d 1c bf
       0.17701024 -0.3306241 -0.39270306 -0.6100665
000080 23 21 23 3c 95 83 b3 be e9 94 8f be 2e 6f 5f 3e
       0.009956631 -0.35061327 -0.28043297 0.21819755
000090 5c 30 ab be 3b 72 67 3e 01 bf 29 3f 6e 8a 9d bf
       -0.33435333 0.22602169 0.66307074 -1.230787
0000a0 9d 9a 69 3e 1a 90 1c 3b d0 99 86 3e 8e f7 15 3e
       0.22812887 0.0023889602 0.26289225 0.14645216
0000b0 0c 11 13 3f f4 23 55 be 82 62 32 3e 3a 85 68 3f
       0.57447886 -0.20814496 0.1742039 0.9082829
0000c0 2b 62 0e bf bc 45 c8 3d 2f 32 3e 3d f5 1b a8 bd
       -0.5561854 0.09778926 0.046434578 -0.082084574
0000d0 61 9a 4e be 2b c4 8b be 50 8b 66 3e 1c 8c bd bd
       -0.20176078 -0.27298102 0.22514081 -0.09255239
0000e0 c4 aa ac bc c7 c6 7a 3e 4a ca f6 3e 04 c2 f0 bd
       -0.021077521 0.2448989 0.4820121 -0.117557555
0000f0 12 e9 81 3f 69 07 b9 3e 46 54 e2 be 33 fa 35 be
       1.0149252 0.36138466 -0.4420492 -0.17771225
000100 45 c4 31 bf f8 4a d5 3e 43 33 b5 be 63 29 00 3f
       -0.6944011 0.4165876 -0.35390672 0.5006315
000110 6f cc 8f 3e e7 76 09 3e ae 0c ca 3d c1 38 55 3f
       0.28085658 0.13424264 0.098657 0.83289725
000120 fc 42 58 be 6f fa 21 bf 6f f5 e9 be 39 fc 33 3f
       -0.21119303 -0.63272756 -0.45695063 0.70306736
000130 4b 18 3d 3e 96 08 51 3e d9 52 84 3c 21 47 f8 3e
       0.18466298 0.20413432 0.016152786 0.48491767
000140 42 9d c0 3e 86 31 9a 3e 7b 02 30 3f dc f7 6b bf
       0.37619978 0.30115908 0.68753785 -0.9217508
000150 37 75 08 bf f3 49 22 3f 7d 26 b3 be 65 fb ac be
       -0.53303856 0.6339409 -0.34990302 -0.3378555
000160 40 3a 4d 3f 1c e9 cf 3d fb e9 f1 3a 08 c6 a8 be
       0.8016701 0.10151884 0.0018456572 -0.32963586
000170 f2 9c cb be 92 5f fd 3e 2f 24 39 bf cc 7c 99 bd
       -0.39768177 0.49486977 -0.72320837 -0.07494506
000180 b3 19 90 be 1d 1e 2c 3f d7 6b 18 3e 2a aa de be
       -0.28144607 0.6723345 0.14884888 -0.434892
000190 2f f0 61 3d 75 11 14 bf 80 e5 3e 3e f7 1e 07 bf
       0.055160698 -0.5783914 0.18642235 -0.52781624
0001a0 9f 8a 4a be a2 a0 e0 3e 2c b1 d9 be e8 2d 55 3e
       -0.19779442 0.43872553 -0.42517984 0.20818293
0001b0 a2 df 34 3e 1a ae 4f 3e 11 35 9c be 41 13 a7 be
       0.17663434 0.20281258 -0.30509236 -0.32631877
0001c0 5c 17 1b be 26 58 90 be 90 fc d4 3d 6c bb 3c bf
       -0.1514563 -0.28192252 0.10399735 -0.73723483
0001d0 dd a6 f1 be 33 36 12 be 3b 06 8c bf 55 42 d2 3e
       -0.4719762 -0.14278488 -1.0939401 0.41066232
0001e0 71 d6 06 3e 3d 5e 2d 3f a2 5e b5 bd 7f 58 81 3e
       0.1316774 0.6772192 -0.088559404 0.2526283
0001f0 e0 2f 29 bb 25 50 fa 3c a2 b9 9e bf 43 fe ab 3d
       -0.002581589 0.030555794 -1.2400401 0.08398106
000200 1e 95 e7 3d ed e2 47 be 2e e2 72 3d 01 34 91 3e
       0.11307739 -0.19520159 0.059297733 0.28359988
000210 93 e9 06 bf bb 0e 24 bf 68 e3 7e bf 8e 06 39 3f
       -0.52700156 -0.64084977 -0.99565744 0.72275627
000220 9b c1 c6 be a9 7f 03 3e 3e f4 b5 be 2c b4 10 3f
       -0.38819584 0.12841667 -0.35537905 0.5652492
000230 a9 bd 9e 3e 53 0a 8e 3d d1 12 61 ba 12 84 37 bd
       0.31004074 0.06935563 -0.0008585873 -0.044803686
000240 ca c4 42 3e 11 cd d3 bc 37 b5 73 be ee 0f 43 be
       0.19020382 -0.02585462 -0.23799597 -0.19049045
000250 71 59 41 be e2 35 06 bc 9b f3 92 be eb 62 ad 3e
       -0.18881775 -0.008191558 -0.2870148 0.3386453
000260 f6 62 58 be b0 42 ce bd ab 82 d1 3d 82 eb 33 be
       -0.211315 -0.100713134 0.10230001 -0.17570308
000270 82 f3 3f bf bc 62 23 3d 8d c1 20 3f cb fa ac 3e
       -0.7498094 0.039889082 0.62795335 0.3378509
000280 5e af 06 bf 4e 9e a5 3d d6 34 f3 3e f5 7a b6 bd
       -0.5261134 0.08086835 0.47501248 -0.08910171
000290 d2 6e 77 3e d4 74 15 3f f4 c3 8c be e8 eb 1b 3f
       0.24163368 0.5838139 -0.2749325 0.6090684
0002a0 92 f2 76 3e 8e d2 8f be 68 a1 ad 3e ae d6 02 3f
       0.2411597 -0.28090328 0.33912206 0.51108825
0002b0 8f 14 bb 3e dd 05 ad be ec f3 83 be 62 29 ac 3e
       0.36539122 -0.33793536 -0.25772035 0.33625323
0002c0 a2 b7 05 bf 1d 2c a5 be b2 45 2d 3f 61 09 8a 3e
       -0.52233326 -0.32260218 0.6768447 0.2696028
0002d0 48 6f f5 3e a8 41 d8 3e a1 07 aa bd ca 53 28 bd
       0.47936463 0.42237592 -0.08302236 -0.041095532
0002e0 4f 97 4f 3e 7f 6b 22 3f 37 a4 78 be 78 4a 5a 3f
       0.20272563 0.63445276 -0.24281393 0.8526988
0002f0 62 13 2f bf 19 31 83 be 69 c4 3d bd 6b bd 96 3c
       -0.6838895 -0.25623396 -0.04632989 0.018400868
000300 fa 3e f0 3d 03 9c aa bd 77 47 a7 bd 16 04 2b be
       0.11730762 -0.08330538 -0.08167928 -0.16700777
000310 5f 16 d5 3e 69 87 a2 bd 0a 7d b6 be 5c 16 6b be
       0.4161863 -0.07935984 -0.35642272 -0.22957748
000320 28 7e dd bd f7 61 90 be 4e 61 3b 3f 3f 09 98 3e
       -0.10815078 -0.2819974 0.7319535 0.29694554
000330 47 2a b1 bd 0a e1 31 3f d1 c6 fe 3e 85 7f a0 3e
       -0.08650642 0.6948401 0.4976106 0.3134729
000340 0b d8 8e 3d 18 e3 9c 3e fd 95 91 3e 32 13 9e be
       0.06974801 0.3064201 0.28434744 -0.3087402
000350 91 77 cf bd cf b2 68 3e 3e 44 e1 3e 9f c0 fc be
       -0.10130227 0.2272446 0.43997377 -0.49365708
000360 75 ca 0c 3d 2c 38 50 3e 0d 13 98 3e 78 12 00 3f
       0.034372766 0.20333928 0.29702035 0.5002818
000370 c4 7f 40 bf 7a 3a 64 3f d5 d6 6b 3e af 44 dc 3e
       -0.75194955 0.8915173 0.2303117 0.4302115
000380 76 a9 28 be d8 29 6f be ec 5e 65 be cc 8e f8 bc
       -0.16470894 -0.23355806 -0.22399491 -0.030341528
000390 f2 bd 4d 3e c9 db 3f bd b9 a7 27 be 5c ea 4f 3f
       0.2009199 -0.046840463 -0.16372575 0.8121698
0003a0 5d f4 22 bf ca 9c 9a 3e 84 c3 75 3e 75 51 32 bf
       -0.6365412 0.30197746 0.24000365 -0.69655544
0003b0 ce 2c 81 bc b7 48 9c be f4 c5 5c be 9b 4c 18 3f
       -0.015768435 -0.30524227 -0.21559888 0.5949189
0003c0 e2 f8 af be 3e c5 df bd 7b 08 dc bc 3b ea 60 be
       -0.3436957 -0.10926293 -0.026859513 -0.21964352
0003d0 13 05 9a be d0 9c 2a bf 31 41 b1 bd 52 02 a5 3e
       -0.30081996 -0.66645527 -0.086550124 0.32228333
0003e0 11 c6 60 be fb a0 22 3f fa dd 9f be 62 25 e2 be
       -0.21950556 0.63526887 -0.31224042 -0.44169146
0003f0 25 88 b3 be 48 a2 0b 3e f9 71 c4 be 37 d4 29 3d
       -0.35064808 0.13636124 -0.38368204 0.04146215

network_body._body_endoder.seq_layers.2.bias f4 [256]
000000 54 d4 0f 3d 98 cc 8a bd d4 9e c0 3b 2b 5a 0b 3d
       0.0351146 -0.067773044 0.005878309 0.034021538
000010 1e d5 97 3c 6a 85 8d bd 3a 8d bb 3c 7a 89 82 3d
       0.01853424 -0.06910212 0.02289449 0.06373878
000020 09 27 0f 3d d1 5b 20 3a ea 0a 51 3c 6f ce 4d bc
       0.034949336 0.00061171973 0.01275895 -0.012561425
000030 e1 2b 89 3d 90 aa d7 3c 6d 1b b7 3c 4b 24 38 bd
       0.06697822 0.026326448 0.022351945 -0.044956487
000040 09 1c 48 3d 86 87 4c 3d 44 86 55 bd 72 51 0d 3c
       0.04885486 0.049933933 -0.05213 0.008625375
000050 27 77 05 3c d3 18 de bc b9 93 0b bd d2 90 ed 3c
       0.008146084 -0.027111446 -0.034076426 0.02899972
000060 89 f9 11 bd 22 f8 54 bd 85 e5 d4 3c e2 e7 9c bb
       -0.035638366 -0.05199445 0.02598835 -0.004788385
000070 9d 17 1a 3d cf 39 0a 3b 17 52 e9 3c 16 4a 05 38
       0.037620176 0.0021091586 0.028481526 3.177867e-05
000080 d8 87 b5 bc 62 aa 6c 3d 5a 3d 4c 3d 5f c4 4b 3d
       -0.022159502 0.057779677 0.049863197 0.04974782
000090 37 3f 27 3d 69 12 42 bd 74 b7 3d 3d f3 bb 09 bd
       0.04083177 -0.04738084 0.046317533 -0.033626508
0000a0 76 8e 12 3d ae 23 2f bc 18 ee be 3c 3e 84 c5 3b
       0.035780393 -0.010689659 0.023306891 0.0060277274
0000b0 91 68 0e 3d 88 25 2b 3d f5 3e 23 bd fc 8a 4c 3d
       0.03476769 0.04178384 -0.039854962 0.049937233
0000c0 86 92 2e 3d c0 89 04 3d f9 66 91 3c a2 50 56 3c
       0.042620204 0.03235793 0.017749297 0.013080748
0000d0 ca 39 2a bd e2 7c f5 3c 8d 66 cb 3c 0c 5a fc bb
       -0.04155902 0.029966775 0.024829173 -0.007701164
0000e0 cd f4 20 3d 40 c6 75 bc 30 3c e4 3c 92 0f 9a 3c
       0.03929596 -0.01500088 0.02786073 0.018806253
0000f0 98 02 81 bd c6 f9 be 3c d4 c5 80 3d e8 d6 15 3d
       -0.06299323 0.02331246 0.06287733 0.036581904
000100 0f b1 4a 3d 6e ab 5e 3d bd 96 03 3d 76 7c 5d bb
       0.049485262 0.054362707 0.032126177 -0.0033796108
000110 70 67 ff 3c 89 5a 28 3c e2 7d 44 bd c9 4d 8e 3d
       0.031177253 0.0102754915 -0.047971614 0.0694843
000120 46 f9 59 bc de 87 a5 3c d9 da 94 bc a5 9b ad 3c
       -0.01330406 0.020206388 -0.018170761 0.021192381
000130 4a f0 35 3c db 8a 09 bc 2f c3 41 bc 13 67 fa 3c
       0.011104653 -0.008394922 -0.011826321 0.030566728
000140 de a3 62 bc 80 7d 31 3d 4e 01 6f 3d ad 36 3f 3c
       -0.013833014 0.043332577 0.058350854 0.011670751
000150 d4 0c 03 3d d5 c1 3d 3c f7 d9 71 3d 8f 1d 47 bc
       0.031994656 0.011581858 0.059045758 -0.012153043
000160 02 09 37 bd 83 f3 1a bc f1 8e f9 3c af 73 4e bc
       -0.044686325 -0.009457472 0.030463668 -0.012600823
000170 62 f8 52 bd 8a 19 34 bb fa 20 b2 ba 4e 9a 01 3d
       -0.051506408 -0.0027481043 -0.001359015 0.031641297
000180 b8 a4 f0 bc 71 76 64 3d c0 ab 57 3d d8 af 27 3d
       -0.029375419 0.055777017 0.052654028 0.040939182
000190 49 d8 a5 3c d1 3f 65 3d 36 a5 3d 3c e8 b3 ec 3c
       0.020244734 0.055969063 0.011575034 0.02889438
0001a0 cd b4 93 3d 29 eb 13 3d 0b ed 77 3d 98 80 d7 bc
       0.072122194 0.036112938 0.060528796 -0.026306435
0001b0 e0 cb ae 3c ff d0 04 3d df 51 2d 3d 7e 75 0c 3d
       0.02133745 0.032425877 0.042314406 0.034291737
0001c0 5b e3 b7 bc c3 3d 0e 3d c8 4d 11 3d 73 56 b8 3c
       -0.022447279 0.03472687 0.03547457 0.02250216
0001d0 f2 43 73 3c 4a c2 42 3d f8 5c 40 3d e1 a6 e9 3c
       0.014847742 0.04754857 0.046963662 0.028521957
0001e0 6c f6 0b 3d 67 00 c4 3c 1e 70 1b bd 4e cb 99 3c
       0.034170553 0.023925973 -0.03794872 0.018773701
0001f0 dd bc 5e 3d 9b 26 17 3d 00 f4 58 3c 4e e2 bc 3c
       0.054379333 0.03690205 0.013241768 0.02305713
000200 16 f9 b6 3c ba 56 f2 bc 98 d0 81 3d 49 0b 2e bd
       0.02233557 -0.02958237 0.06338614 -0.04249123
000210 7e c8 6b bd 77 16 1d 3d 54 39 ec bc 56 2a 54 3d
       -0.05756425 0.038351502 -0.02883593 0.051798187
000220 90 1a 03 3d b4 9a 2a bc 74 6e aa 3c 06 eb 62 3d
       0.032007754 -0.010412861 0.020804621 0.055399917
000230 cf f0 61 b8 32 5a 24 bd a6 f6 38 3d fa 1d 87 3c
       -5.386845e-05 -0.04012508 0.045157097 0.016493786
000240 d5 20 49 3c 66 2e 09 3d f3 e7 3c bb 3c f4 c1 bc
       0.012275894 0.033491515 -0.0028824776 -0.02367603
000250 97 75 0d 3d 9e 08 db 3c a7 28 21 3d ea b8 8e 3c
       0.03453597 0.026737507 0.03934541 0.017422158
000260 9b b3 12 3d 4b 3a 35 3d 59 a5 0c bd 4a 80 ab 3c
       0.035815816 0.044245046 -0.034337375 0.020935196
000270 4e e6 3c 3c 68 7f f0 3c 9a 09 f2 3c 57 bc 7e bd
       0.011529518 0.029357627 0.029545594 -0.062191334
000280 59 22 9a 3c ba 1c 5c 3d 8e cf be 3c 1f 5f 33 3d
       0.018815206 0.053738333 0.02329233 0.043791886
000290 47 2a d9 bc 7b ee 20 3d b7 d8 67 3d 88 33 d3 bc
       -0.026509417 0.039289933 0.05660316 -0.025781408
0002a0 ff 98 94 3c 54 3d 00 3c 5b b2 28 bc 08 2c 35 3d
       0.01813936 0.007827122 -0.0102964295 0.044231445
0002b0 38 05 b9 3b 0c ab 7f 3d d4 95 83 bd d8 56 19 bc
       0.005646374 0.062418982 -0.06425062 -0.009359084
0002c0 f4 2b d8 bc 79 84 25 3d 9e 9f 29 3d db 43 4b 3d
       -0.026388146 0.04040954 0.04141199 0.04962526
0002d0 d6 76 33 3d d1 58 85 3d 20 42 1c bb cb bc 54 bc
       0.043814503 0.06511081 -0.0023843125 -0.012984465
0002e0 72 9c ba bc 2e e3 fb 3c dd 2f ae 3b c2 08 bc 3c
       -0.022779677 0.030747976 0.0053157643 0.022953395
0002f0 c3 bd 1f 3b d0 d3 75 3c fb f7 47 3d 52 70 47 3d
       0.0024374581 0.015004113 0.048820477 0.0486911
000300 2d 3a 08 3d 50 cd cc bc 74 a5 af bc b8 ba b9 3a
       0.033258606 -0.025000244 -0.021441199 0.0014170026
000310 f0 ad 3e 3d 72 c3 b1 3c a5 4d 77 bd 64 83 c0 3b
       0.0465526 0.02169964 -0.060376782 0.005875038
000320 0c 2e 17 3d 85 2c 38 bc 29 6a d0 3c e4 6a 4e 3d
       0.036909148 -0.011241083 0.025441246 0.050394908
000330 c6 8a af 3c df 8c 3d bc 90 38 85 bb f0 c2 e5 bb
       0.021428477 -0.011569231 -0.0040655807 -0.0070117638
000340 20 44 5e bd ca 5e 56 3c 3a ec 5d bd 39 cc 00 3d
       -0.054264188 0.013084123 -0.05418036 0.031444762
000350 a8 8a 03 3d 64 9c 89 bd c4 71 b2 3c 8e f7 25 3d
       0.032114655 -0.06719282 0.021782763 0.04051929
000360 bf 79 97 bb 15 13 62 3b 4e 5b f2 3c 0a 44 1e 38
       -0.0046226676 0.0034496237 0.029584553 3.77335e-05
000370 f6 20 15 3c dd f6 d4 3c 11 5a bf ba f5 59 f5 bc
       0.009102097 0.02599662 -0.0014598985 -0.029950121
000380 0c 62 88 3d b4 ea 96 3c a2 ef 9c bc cd 62 00 bd
       0.06659326 0.018422462 -0.019157235 -0.031344224
000390 13 a6 cc 3c 3c 10 22 bd bb 80 10 3c d7 52 6f bd
       0.024981534 -0.039566264 0.008819754 -0.05842861
0003a0 22 86 16 3d 04 04 05 3d 17 17 02 b9 e8 99 ff 3c
       0.036749013 0.032474533 -0.00012406368 0.031201318
0003b0 10 3a cf 3c a4 bd 86 3c f5 ad 07 bd 59 c5 6c bd
       0.025296241 0.01644785 -0.033124883 -0.057805393
0003c0 cc 05 03 3d 80 d3 78 b9 30 aa 6a 3d 1e dc 64 3c
       0.03198795 -0.00023729913 0.05729121 0.013968496
0003d0 fa 31 ad 3c 83 17 e0 ba 4c 25 62 3d 5b 26 f6 bc
       0.021141995 -0.0017096851 0.05521135 -0.030047586
0003e0 e9 69 f6 3c e7 38 82 3d 76 96 4e 3d 13 a9 de 3c
       0.030079799 0.063585095 0.05043646 0.02718023
0003f0 58 94 d4 bc 17 5c cc 3c 2c 77 7b 3d 9e 87 18 3c
       -0.025949642 0.024946256 0.061392948 0.009309677

network_body._body_endoder.seq_layers.2.weight f4 [256, 256]
000000 68 e4 a0 3c 65 76 30 bd ec a9 d3 3a 35 f2 67 bb
       0.019640163 -0.04308166 0.0016148663 -0.003539217
000010 83 dd da 3c 43 3c cc bd 8d 6e 3f be d6 72 a4 3d
       0.026716953 -0.099724315 -0.18694516 0.08029716
000020 de 42 d5 bd 99 d2 63 3b de be a2 bd 7b 2b 6e bd
       -0.104131445 0.0034762977 -0.07946561 -0.058146935
000030 f2 7e ac bc e5 0b 8d 3c 94 b9 82 bd 7f 0e 09 3d
       -0.021056626 0.017217586 -0.063830525 0.03346109
000040 bb 88 9e bb e7 15 85 3d 14 9f 5c 3d 8c 5b 63 bd
       -0.004838077 0.06498318 0.053862646 -0.055507228
000050 26 d7 00 be 3d 8c 79 bd 47 e5 71 3d ed d3 db 3b
       -0.12582073 -0.060924757 0.059056547 0.006708613
000060 68 9f 9c bc bb 7e 04 3d e3 da 87 bc 46 19 9e bd
       -0.01911898 0.032347422 -0.016583866 -0.07719664
000070 75 a8 c0 3c d9 6e b3 bd 1d 5d 22 3d 8c 7e 00 3c
       0.023517827 -0.08761377 0.03963958 0.007842671
000080 8d ea a6 3d 30 3b 7d bd 1f bc d0 bd a4 78 f3 3d
       0.08150206 -0.061824024 -0.10192131 0.11888245
000090 67 38 26 3d b3 7f ac 3d 48 6f 0d 3d 46 d5 75 3b
       0.040581133 0.08422794 0.034529954 0.0037511154
0000a0 fb 84 97 3a 15 b2 14 bd 49 89 9c bd c0 56 e4 3c
       0.0011560017 -0.036302645 -0.076433726 0.027873397
0000b0 5a 1a c3 bc 97 d0 24 be 57 73 17 bd a2 c1 aa bd
       -0.023816276 -0.16095196 -0.03697523 -0.08337714
0000c0 c6 d8 0d be 37 5c 2c 3c 0d bc 9b 3d 2a 5b 04 3e
       -0.13852224 0.010520033 0.07604227 0.12925401
0000d0 17 30 a9 bd a6 a1 d9 3d 9a 4d b7 bd fb 8f 6f bc
       -0.082611255 0.10626535 -0.08950348 -0.01462173
0000e0 e4 df 9b bd 9f 1c 70 bd 0b 45 bb bc 7c 51 04 bd
       -0.07611063 -0.058621045 -0.02286007 -0.032304272
0000f0 fe 1f dc bd 53 92 5a 3c 91 47 37 3d d5 3c 0e 3e
       -0.107482895 0.0133405505 0.044745985 0.13890393
000100 4d b6 ec 3d 2d a0 b3 bd 03 81 b7 bb aa 29 28 bd
       0.115582086 -0.087707855 -0.005600096 -0.04105536
000110 ff 2e 38 3d 8a 2f cf 3a e8 81 14 bb ad ef 0a bd
       0.044966694 0.0015807014 -0.0022660438 -0.03391998
000120 cb d8 9e 3d 6d 8b 41 bb e6 ea 78 bd 12 83 bf bc
       0.07756194 -0.0029532567 -0.06077089 -0.023377929
000130 bc 7a 36 3d 3c 9f f7 bc b8 ac 82 3d 9f ff 24 be
       0.044550642 -0.030227296 0.063806 -0.16113137
000140 ab 44 ed 3d cb 9f 8c bc fc 7d 91 3c ba f6 8c bc
       0.11585363 -0.017166039 0.01776027 -0.017207492
000150 71 95 ef bd b7 30 c7 bd 37 bc 80 bc 20 53 dc 3d
       -0.116984256 -0.097260885 -0.015714748 0.10758042
000160 21 0c da bc 9c c1 b5 bd 4a 67 04 be ff cf 38 bd
       -0.026617112 -0.08874819 -0.12930027 -0.045120236
000170 60 1e 5a bd 9a dd 58 3d 62 e0 d0 3c 8b 53 8b 3d
       -0.053251624 0.05294571 0.025497619 0.06803044
000180 4e ac d9 3c 7e 9a 4a 3a ba f9 72 bd 19 5f 06 bc
       0.02657142 0.00077287096 -0.05932019 -0.008201384
000190 e7 6f 3e bd de 63 09 bd 1a d7 1e bd fc b1 89 bd
       -0.046493437 -0.033542506 -0.038779356 -0.06723401
0001a0 6d e4 2d bc 42 e1 87 3d 5b bc d5 3c b2 c0 aa 3c
       -0.010613543 0.066347614 0.026090791 0.020843837
0001b0 92 b5 6f 3c 8e b9 75 bc 5f 2e 05 3e f3 37 35 bb
       0.014630692 -0.014997853 0.1300597 -0.0027651757
0001c0 ca ea a1 3d 9f af fe 3c 47 6b 34 bd ac df e6 bd
       0.079061106 0.031089602 -0.04404762 -0.11273131
0001d0 04 36 62 3d d6 50 18 bd 65 80 66 3d 63 d6 93 3c
       0.055227295 -0.037186466 0.05627479 0.018046563
0001e0 a1 57 e3 3c bb d9 20 bd 64 4e 9c bd 76 4f 27 3c
       0.027751746 -0.039270144 -0.07632139 0.010211816
0001f0 9c f6 90 3d f1 44 4d bd 79 a7 6c 3c 10 a7 04 bd
       0.07078287 -0.050114576 0.0144442255 -0.032385886
000200 2f eb 9c 3c 90 37 8c bd 0f 4c 8a 3d fa c1 ba bd
       0.019155113 -0.06846535 0.06752788 -0.09119029
000210 8f 45 ab 3d 17 a0 87 bd 39 ab 75 bd 81 b2 91 bb
       0.083628766 -0.066223316 -0.059977744 -0.004446328
000220 91 43 56 bd 63 f7 82 3a 6d fc c3 bd 45 c1 0c 3d
       -0.05231053 0.000999194 -0.09569631 0.034364004
000230 90 b6 33 3d 1e 49 e1 bd 9e d4 2d bd 88 b1 d6 3c
       0.043875277 -0.11000274 -0.042439096 0.0262077
000240 0b 2d 80 bc 42 a8 6b 3d 33 24 ab 3b ce 98 a6 bd
       -0.015646478 0.05753351 0.005222821 -0.08134614
000250 f0 56 52 bd ea 1f ec 3d e4 20 e5 3d b9 1f 19 bd
       -0.05135244 0.115295246 0.11187914 -0.03738377
000260 13 c7 bb bc 6e 24 3c bc 23 3d 5a bd ba 8b 0b bd
       -0.022922074 -0.011483295 -0.05328096 -0.0340688
000270 e1 82 04 bb 32 84 c2 3c d9 c2 8d 3d fd 26 fa bd
       -0.0020219611 0.023744676 0.0692193 -0.12214468
000280 a8 81 9b 3d b8 ad 6d bc f1 b8 31 3c c9 85 be 3d
       0.07593089 -0.01450675 0.010847316 0.09302861
000290 31 17 44 3d 9a 93 bc 3c 05 5e 54 3c e3 5b 25 bc
       0.04787368 0.0230196 0.012961869 -0.010092708
0002a0 bd 2b d1 bd 8d 0e bc 3d 6c 26 ce ba 52 07 15 3d
       -0.102134205 0.09182463 -0.0015728003 0.036383934
0002b0 12 48 84 bd 10 cf 87 3b 35 9e 37 bc a3 ff eb 3d
       -0.06459059 0.004144557 -0.011207153 0.11523368
0002c0 7d 16 84 3c 3f 00 dc 3d 57 92 b2 3d de ac 23 bd
       0.016124004 0.107422344 0.08719318 -0.03995978
0002d0 6c 14 e6 3c 05 4c eb bd 9e 82 c5 bc 10 1e 0c be
       0.02808591 -0.11489109 -0.024110135 -0.13683343
0002e0 48 00 83 bd e9 86 8a 3c 0e 72 89 bb 03 85 88 39
       -0.06396538 0.016910033 -0.0041945046 0.00026039043
0002f0 79 2b 4a bb dd 66 cc bb ed aa 8d 3d 08 9a 7e 3d
       -0.0030848666 -0.006237848 0.06917367 0.062158614
000300 44 f2 d1 3d a3 d4 6e 3d 49 9c 17 3d ce a1 12 3b
       0.102512866 0.058308255 0.03701428 0.0022374275
000310 4c 03 db bc 1f a2 88 3c 2c ce 0f be 37 54 33 3d
       -0.02673497 0.016678868 -0.14043492 0.043781485
000320 42 33 ab 3d b0 82 81 bc d2 7c 9f 3c 02 2e 0e 3d
       0.08359386 -0.015809387 0.019468699 0.034711845
000330 2c 15 6c 3d 51 f2 ab 3d 9d e6 76 bc 6e 7e 78 3c
       0.05763738 0.083958276 -0.015069631 0.015166862
000340 32 1b 9b 3d 19 83 3f 3c d6 e3 e6 3d 86 fa 26 3d
       0.075735465 0.011688971 0.11273925 0.04076626
000350 b2 a4 88 3d 0a 1d 36 bd 6d 7c db bd db d2 e6 bc
       0.06672038 -0.044461288 -0.10717092 -0.028176716
000360 3d 6c 3a 3c 33 6d c7 bd ff e8 22 bd 06 76 a3 3d
       0.011378345 -0.09737625 -0.039772984 0.079814956
000370 bc d9 41 bd 95 19 92 bd d0 0e 48 3d a8 ac b3 3c
       -0.04732679 -0.07133786 0.04884225 0.021932915
000380 f9 0e dd bd bb 2a 8a bc bc 52 96 3d a8 d1 b3 bc
       -0.107938714 -0.016866079 0.07339999 -0.021950558
000390 e2 5e 82 3d 61 4c 9b bc 22 f1 db 3c 7a 3d 92 3d
       0.06365754 -0.018957319 0.02684838 0.07140632
0003a0 bb 3f 21 3d 04 56 8f bd 94 c6 bd 3d 14 f5 4f bc
       0.03936742 -0.06998828 0.092663914 -0.0126927085
0003b0 46 72 88 3c 1c b6 de 3d de c4 7b bd d1 a0 45 3d
       0.016656052 0.10874578 -0.061467044 0.04824907
0003c0 d1 bd 8a bd 45 ef 75 3c d0 02 64 bc 3f 57 68 3d
       -0.06774486 0.01501066 -0.013916686 0.05672383
0003d0 f5 a4 ae 3c bb df e5 bd 8b 63 9a 3d 22 0c 92 3d
       0.021318892 -0.11224314 0.075385176 0.071312204
0003e0 53 c5 be bd 59 e2 90 bd ff 57 08 3d 90 03 ff 3d
       -0.0931498 -0.070744224 0.033287045 0.12451851
0003f0 5f 9e bc 3c 86 b1 a3 bb 98 7a 22 be ca 95 e6 3b
       0.023024736 -0.0049955277 -0.15867078 0.007036899

network_body._body_endoder.seq_layers.4.bias f4 [256]
000000 52 1a dc 39 0a ff 36 3d 06 ef 31 bd f6 ef 05 3d
       0.0004198128 0.044676818 -0.04344084 0.032699548
000010 a9 be 93 3c e2 9e a7 bc fc fa 0a 3d 51 fc a0 bc
       0.01803525 -0.020461503 0.033930764 -0.019651564
000020 7b 4a 2a bc fc cb 8b 3d c4 3f b0 3c 32 1f fe bc
       -0.010393734 0.06826016 0.02151478 -0.031020734
000030 ff c8 f7 3c c0 6e 32 bd 10 c1 3e 3d 32 69 c5 bc
       0.03024721 -0.04356265 0.046570837 -0.024098013
000040 6f 7a a7 3c c9 ce 88 bb ae 81 bb bc c7 c8 20 3d
       0.020444123 -0.0041750413 -0.022888985 0.039253976
000050 83 f2 a8 bb 73 17 4a 3d a3 38 5c bb ba 1e 38 3d
       -0.005155863 0.04933877 -0.0033603094 0.044951178
000060 9c 21 c2 bc c2 1f 1c 3c 93 b5 49 3d f6 ee 95 3b
       -0.023697667 0.009529056 0.04924543 0.0045756055
000070 09 a0 7a bc 83 28 13 3d 6d d3 0b 3d d0 10 19 3d
       -0.015296944 0.035927307 0.03413718 0.03736955
000080 73 73 90 3d e0 20 89 bc c8 d1 40 3b bc 4f b2 bc
       0.0705327 -0.016739309 0.0029421914 -0.021766536
000090 f0 39 75 3d 9b 6d 8c 3d 11 14 29 3b a3 35 da bc
       0.059869707 0.06856843 0.0025799314 -0.026636904
0000a0 bf 5f eb 3c 7c c2 18 bd 35 64 2a bd 25 b8 db bc
       0.028732179 -0.03729485 -0.04159947 -0.026821205
0000b0 92 21 39 3d a6 71 07 bd 4c 48 b7 3c fd 0a c1 3c
       0.04519803 -0.033067368 0.022373341 0.02356481
0000c0 d0 13 08 3d dc 64 11 3d 94 fc 55 3d 84 3a 34 bd
       0.03322202 0.035496578 0.05224283 -0.044001117
0000d0 50 26 21 bc 6b ac d9 3c 03 f5 bc 3c aa cb 2f bd
       -0.009835795 0.026571473 0.02306605 -0.04291884
0000e0 a9 d3 69 3c 9f d6 fe bb aa 8c 2f 3d aa 1e 03 3d
       0.014271655 -0.0077770497 0.042858757 0.032011665
0000f0 7d f2 4e bd 04 9d 31 3d a5 6e 95 3c a7 3c 28 bd
       -0.050524224 0.043362632 0.018241236 -0.041073468
000100 da f8 1c 3d 46 e3 09 3d 53 71 8d bb fd 26 58 3d
       0.03832326 0.03366401 -0.004316488 0.052771557
000110 66 e3 33 3d 88 c6 8b 3d fa a7 2b bd 88 ad 9e 3c
       0.043918036 0.06824976 -0.04190824 0.019369856
000120 85 7b 4f 3d 4f a5 41 3d dc 04 5b 3b c5 a7 0a 3d
       0.050654907 0.04727679 0.0033419644 0.033851404
000130 ab 9d 59 3d 5d e7 47 3d b5 f9 44 3d e3 2a 10 3d
       0.05312888 0.04880463 0.0480897 0.03519715
000140 3e 49 01 3d ae b2 7a 3d 22 81 91 3d bd c3 09 3d
       0.03156399 0.06120556 0.07104708 0.033633936
000150 3b ad 57 3d 6c 14 c0 bc 31 0e 3d 3d 7b c5 9c bc
       0.05265544 -0.023447238 0.046156112 -0.019137135
000160 f7 a4 0f 3d 4d 04 3b 3c d6 71 62 3d 93 e8 3a 3d
       0.035069432 0.0114146 0.055284344 0.045631956
000170 69 27 2b 3d b4 86 98 3c e8 3b 81 3d 01 b9 2f bd
       0.04178563 0.018618919 0.06310254 -0.042901043
000180 61 5d bd 3c be d1 42 3d 76 d5 b0 bb 94 71 8b 3c
       0.023115816 0.047563307 -0.0053965403 0.017021932
000190 c1 89 35 3d 7f 8d b8 bb 4e ae 05 3d ae 40 22 3d
       0.044320825 -0.005632102 0.032636933 0.039612465
0001a0 30 ff ac bc ec 96 c1 3c 28 f6 1d bc 8f 21 28 3d
       -0.021117777 0.023631535 -0.009641208 0.04104763
0001b0 7f 51 26 bd 5a ff 7a bc d3 5a 11 3b fa 38 1c 3d
       -0.040605064 -0.01531967 0.002217938 0.038140275
0001c0 c8 66 d7 3c 5a a3 8a 3d ec 2a ed 3b b9 3e 66 3c
       0.026294127 0.06769438 0.0072377827 0.01405304
0001d0 10 95 08 3d bb 2d 10 bd 5e e8 bb 3c 5f 94 46 3d
       0.033345282 -0.035199862 0.02293795 0.04848134
0001e0 3c 7d d4 bc f7 8b 16 bd 58 95 4a 3d 6d 4c 4f 3d
       -0.025938623 -0.036754575 0.04945883 0.050609995
0001f0 19 38 e9 bb a9 4f 14 3d 7a cf 3a 3d ba 89 38 3d
       -0.007117283 0.036208782 0.04560802 0.04505322
000200 3a 4c 4b b9 2b d1 38 3d e2 a2 1a 3d 77 df af 3c
       -0.00019387985 0.045121353 0.037752993 0.021468861
000210 f0 31 3a 3d 27 a0 3a 3d 7d b5 3d 3d d6 45 20 3d
       0.04545778 0.04556289 0.04631566 0.0391291
000220 16 45 76 3c 3b 8a 4d bd 8b 30 37 3d 68 7d 12 bd
       0.01503112 -0.050180655 0.04472403 -0.035764128
000230 90 cf 34 3d f8 2b 37 3d 77 5d f9 3c 82 aa 95 3c
       0.04414326 0.044719666 0.030440075 0.018269781
000240 6a 44 01 bd 38 4e 14 3d 2a fe 63 3d b0 39 86 3a
       -0.031559385 0.036207408 0.05566231 0.0010240581
000250 5a 31 89 3c c5 94 09 bb af d5 8e 3b b6 d6 4f 3d
       0.016747165 -0.0020993215 0.004358969 0.050741874
000260 40 66 44 3d 34 da d6 3c b9 9a 0c 3d 23 75 19 bd
       0.047949076 0.026227094 0.034327243 -0.037465226
000270 e5 2c 68 3d d9 b4 32 3d 1f af 63 3d e1 6a 58 3d
       0.05668344 0.0436295 0.05558693 0.052836303
000280 0f 10 9c 3b 74 7a f0 3c 47 52 8b 3b 56 46 35 3d
       0.0047626565 0.029355265 0.0042517516 0.04425653
000290 ec d0 98 3c 2f 5f 4d 3d c2 74 2d 3d 94 2a 08 bd
       0.01865431 0.050139602 0.042347677 -0.03324373
0002a0 a8 50 d0 bb d5 19 5c 3d 71 a4 29 3d 8e ac 88 bc
       -0.006357271 0.053735573 0.04141659 -0.016683843
0002b0 43 0d d8 bc 0e 95 cf 3c 9e ba 58 3c 39 1e b3 bc
       -0.026373511 0.02533963 0.013228087 -0.021864997
0002c0 09 d1 59 bc 3d 65 01 3d 1f 00 5b 3d 07 42 9c 3c
       -0.013294467 0.03159069 0.053466912 0.019074453
0002d0 cc 8a 44 bd 6b ce 12 ba 36 57 05 3d c7 81 16 bd
       -0.04798393 -0.00056002167 0.032553874 -0.03674486
0002e0 2a 12 00 3d e3 7a 06 3d 1e 14 e0 3c 4b 95 3e bc
       0.031267323 0.032832038 0.027353343 -0.011632274
0002f0 d4 d0 79 3d ec 14 96 3c 9b ff 4a 3c f9 ea b3 3a
       0.06099017 0.018320523 0.012390043 0.0013726644
000300 4d 3e 43 3d 5f e7 ad 3c a9 3c 29 3d ea af 63 3d
       0.047666837 0.02122849 0.041317616 0.055587687
000310 3e a4 55 3c d2 ae a2 3c 39 b7 0d 3d dd 81 3e bc
       0.013039647 0.019858751 0.034598563 -0.0116276415
000320 e8 2b 45 3c 68 69 bb bc 29 9b 50 3d 26 9a 96 bb
       0.012034394 -0.02287741 0.050929222 -0.0045960126
000330 47 54 fa 39 6a be 66 bc 8c c2 f6 3c 7c 83 88 3c
       0.00047746507 -0.014083484 0.030122064 0.01666426
000340 8a ad 75 3d c9 76 01 3d 48 b6 82 3c 05 a8 24 3d
       0.059979953 0.031607423 0.01595606 0.0401993
000350 ec 6b 5c 3b ad f9 80 3d f4 bf 0f 3d 5f 7b 11 bd
       0.0033633662 0.06297622 0.03509517 -0.035518046
000360 40 67 41 3d b4 16 0c 3c 35 28 6f bd dc 4b 06 3d
       0.047217607 0.008550335 -0.058387954 0.03278719
000370 68 1b 76 3d 4f 87 2d bd 7c 99 29 bb 0e 5e 29 3d
       0.06008473 -0.04236537 -0.0025878837 0.041349463
000380 43 3e 1f bd fe a5 17 3d 6e d7 fb bc 32 1a 2e bd
       -0.038877737 0.037023537 -0.030742373 -0.04250545
000390 7f 8f 99 3c ef ab 2d 3d 84 96 3f bd 52 ea 45 3d
       0.018745182 0.042400297 -0.046774402 0.04831917
0003a0 42 82 3f 3d 08 74 99 bb 54 16 ac bc 68 61 19 bd
       0.046755083 -0.0046830215 -0.02100674 -0.03744641
0003b0 86 49 28 bd 11 ff c4 3b 8e d4 01 bb b1 29 fb bc
       -0.041085742 0.0060118516 -0.001981053 -0.030659528
0003c0 40 97 32 3d 73 b4 02 3d 14 63 ff 3c 79 8d 82 3c
       0.043601274 0.03191037 0.031175174 0.0159366
0003d0 8a 6e 96 3c a2 55 e7 3a 27 1d de 3c e4 06 80 3d
       0.018363256 0.0017649422 0.02711351 0.06251314
0003e0 62 df 47 3c c9 0f c4 3c 8d 35 bb 3c d2 8d 6f 3d
       0.012199255 0.023933308 0.022852683 0.05848486
0003f0 72 12 ad bc f3 b1 fb 3c 66 07 0f bd 7f 5f 28 3c
       -0.02112696 0.030724501 -0.034919165 0.010276674

network_body._body_endoder.seq_layers.4.weight f4 [256, 256]
000000 21 bb 6d bd 99 b9 19 3d e1 b8 b5 3c a4 ca 62 bd
       -0.05803979 0.037530515 0.022182884 -0.055369034
000010 b0 ac 24 3d 10 94 c1 bc 50 48 d7 3c 1e dd dc 3d
       0.04020375 -0.023630172 0.026279598 0.10784362
000020 06 99 22 bd 81 5e 00 3d d3 1a 40 bc ce 7c 90 3d
       -0.039696716 0.031340126 -0.011725145 0.070550546
000030 11 6e bc 3b 90 1b ae 3c 97 57 08 3d cd e0 ee bc
       0.0057504256 0.021253377 0.033286657 -0.029159928
000040 6b f8 2d 3d 6e c2 fa 3c 5e 48 20 3d 58 ac b0 3d
       0.042473238 0.03061029 0.039131515 0.08626622
000050 d9 d3 12 3e 31 d6 81 bb f6 c4 ea bc ab be 5d bd
       0.14338626 -0.003962301 -0.028658371 -0.054136913
000060 ed ba fb 3c 9f 9b 08 3e 06 62 53 bd 37 fb 02 bd
       0.030728782 0.13340615 -0.051607154 -0.03197786
000070 d4 69 f9 ba 93 3b 36 3b 6d 8c 92 bd 02 04 b1 ba
       -0.0019028732 0.0027806505 -0.0715569 -0.0013505223
000080 dc e4 0b bd f1 df b1 3c 7c dc 64 3d ce ec 80 3c
       -0.034153804 0.021713229 0.055874333 0.015737917
000090 1b 7c db 3c c7 1f 87 bc 62 cc 0c bd ee 6c 28 3d
       0.026792577 -0.016494645 -0.034374602 0.04111951
0000a0 46 b5 4e bd 51 26 40 3d 5a d9 b6 bc 52 bd d6 3d
       -0.050465845 0.04691154 -0.022320438 0.10485329
0000b0 4c 75 29 bc b4 c2 00 be b6 56 48 3b bd 9b 7e 3d
       -0.010342907 -0.12574273 0.0030569262 0.062160242
0000c0 07 c9 18 bd 08 29 93 bd 6f 8a 94 bd 8f 64 03 3e
       -0.03730109 -0.071855605 -0.072529666 0.12831329
0000d0 23 ff 83 bd 22 6a ef bc 0d 3b d2 3d e3 45 af bd
       -0.06445148 -0.029225413 0.10265169 -0.08558252
0000e0 3a 42 b3 bd f0 fc a3 bd ff 5a 78 bd cd a1 b1 bd
       -0.08752866 -0.080072284 -0.060633656 -0.08673439
0000f0 df 67 77 3c 8a b3 84 bd 0f a8 6e 3d c3 51 05 bd
       0.015100448 -0.06479557 0.058265742 -0.032548677
000100 14 7c 0a bc 16 63 79 3d 20 43 e4 bd 90 3d 11 3d
       -0.008452434 0.06088551 -0.111456156 0.0354591
000110 3c 17 85 3c 23 7d 05 bd 93 ac a5 3b 51 68 71 bc
       0.01624643 -0.032590043 0.005055973 -0.014734344
000120 4e 98 6c 3d 4d 00 1f bd 92 fc f1 3d 63 fc 89 bd
       0.057762437 -0.038818646 0.11815752 -0.06737592
000130 64 55 9d bc b1 aa 84 bb d1 1e 09 3d f9 ca 7f 3d
       -0.019205756 -0.0040486683 0.033476654 0.06244943
000140 7f 67 a8 bd 29 ca 2e bc f7 86 39 bd ad f8 f8 bd
       -0.08222865 -0.010668316 -0.045294728 -0.12156806
000150 6b 1a 26 bc a5 ad 21 bd 7c 94 82 3c a6 41 0b 3d
       -0.0101381345 -0.03947224 0.015939943 0.033998154
000160 5b 59 5e bc 70 21 b3 bd bc 60 9c bd ab c0 2a 3c
       -0.013571109 -0.08746612 -0.07635638 0.010421912
000170 8c b8 3a 3d 39 44 76 bd 94 0c 0e 3e 39 93 1b 3e
       0.045586154 -0.060123656 0.13871986 0.1519288
000180 18 0a bb 3c bc aa e9 3c 5d 5b ba 3d ca f5 86 bd
       0.022831962 0.028523795 0.090994574 -0.06589849
000190 68 e0 21 3d e6 e4 a1 bd 24 aa 6b 3c d9 9f 28 3d
       0.03952065 -0.07904987 0.014383826 0.041168068
0001a0 89 1b 07 3e 19 0d ff bb 4d 74 31 3d 84 f2 90 bd
       0.13194098 -0.007783544 0.043323804 -0.07077506
0001b0 b4 6e 92 3c cf 85 1b bd 45 a2 dd bd 5f 3d 88 bb
       0.017875053 -0.037969407 -0.10821966 -0.0041577066
0001c0 7a de c3 bd 8d 1e 1a 3d c8 9e 48 3d 15 2f a6 bd
       -0.095639184 0.03762679 0.04897955 -0.08114449
0001d0 22 65 f9 bd 08 63 48 3c 71 42 af 3d 81 bb a8 bc
       -0.12177493 0.012230642 0.085575946 -0.020597221
0001e0 11 ab b8 3b 85 e6 51 3c fa 09 20 3d 72 09 53 bd
       0.005635627 0.012811308 0.039072014 -0.05152268
0001f0 02 45 91 3d f4 3f f2 bd 35 16 0e 3d cf 98 ce bd
       0.0709324 -0.11828604 0.034689147 -0.1008774
000200 40 1e 88 3c 28 0c b9 3d 59 82 89 bc 90 b0 ad bd
       0.016615987 0.09035522 -0.016785787 -0.08480942
000210 f0 8b e5 bc 9b 27 e7 bd 55 f7 87 3d 1a ce ac 3d
       -0.028020829 -0.11286851 0.06638972 0.08437748
000220 be a6 e9 bc b5 f7 04 3d 36 62 14 bd 06 12 84 3d
       -0.028521892 0.032462794 -0.036226474 0.0644875
000230 53 0e b8 3c bd 31 fb 3d ec ad 6e 3d 66 30 47 bd
       0.022467768 0.12265346 0.058271334 -0.04863014
000240 88 e0 cc 3d e2 83 00 3d b3 6e 5e bd 84 62 b5 3b
       0.100037634 0.031375773 -0.05430479 0.0055354256
000250 c5 c8 8e bd 37 38 88 3c 62 7d 33 3d 7b fb 53 3d
       -0.069718875 0.016628368 0.043820746 0.051753502
000260 10 00 48 3d 11 fb 2b bd 07 cb 1e bd dc eb a7 3d
       0.048828185 -0.041987482 -0.03876784 0.081992835
000270 bf 09 c3 bc 98 b5 8d 3d d3 4b 62 3d ef f3 23 bd
       -0.023808358 0.06919402 0.055248093 -0.040027555
000280 1e c2 dd 3c 61 56 e2 3d 63 12 0f 3d 87 43 25 3d
       0.027070101 0.11051632 0.034929644 0.040347602
000290 5e 94 9d 3d 3a 83 0a bd ae f4 dc 3c 4d 6e 1b 3e
       0.076943144 -0.033816554 0.026972141 0.15178795
0002a0 4a 59 76 3d 78 17 90 3c 35 9c c5 3d 49 00 01 3d
       0.060143746 0.017589316 0.09648935 0.031494413
0002b0 4d bf 71 3d 75 8d ae 3d d7 12 c7 bc 47 80 80 bc
       0.05902033 0.085230745 -0.024300976 -0.015686167
0002c0 3c 57 a0 3d c8 41 0e be 7f 3e 18 bd 85 64 57 bc
       0.07829139 -0.13892281 -0.037168976 -0.013146524
0002d0 cf dd 82 b9 e6 0d c1 bd 6e 39 4b bb cd 04 a0 3d
       -0.00024960793 -0.09426479 -0.0031009573 0.07813416
0002e0 05 c2 fc bd 26 41 31 bd 4b bd 84 3d 85 c0 7e 3d
       -0.12341694 -0.04327502 0.06481417 0.06219532
0002f0 23 28 25 3c f1 bc 85 3c 79 bc a1 3d 9a 90 55 bc
       0.01008037 0.016325446 0.078972764 -0.013034964
000300 07 61 06 3d c5 3d 82 3d e7 ef 9c 3d 43 e5 08 be
       0.032807376 0.06359438 0.07662945 -0.13368706
000310 45 48 c0 bd 49 16 6f bd 18 03 1a be 7f 34 8e 3d
       -0.09388784 -0.058370862 -0.15040243 0.069436066
000320 0a 3d 5b bd 45 06 4f 3d c1 e1 ae 3c 2a 0e ff 3d
       -0.05352501 0.05054309 0.021347882 0.124538735
000330 42 70 6f 3d 40 7d 1d bc f3 07 7f bd 03 02 84 bb
       0.058456667 -0.009612381 -0.06226344 -0.00402856
000340 ff 09 f5 bb a8 db 1f 3d dd 8a b7 3d 71 8f 07 3b
       -0.0074779983 0.03902784 0.08962033 0.0020684863
000350 ea 07 78 bd 74 25 33 bd e1 15 21 bc df 16 c7 3d
       -0.060554422 -0.04373689 -0.0098318765 0.09721159
000360 c8 81 60 3d b4 a5 01 3e 74 f4 53 3d 83 b8 93 bd
       0.05481127 0.12660867 0.0517468 -0.07212927
000370 eb 99 02 bd 2d 6b 00 bc 56 0c 56 3d aa 3d 96 bd
       -0.03188507 -0.007838053 0.05225786 -0.0733598
000380 98 65 1e bd 71 75 e2 bd 24 71 b0 ba 14 56 b1 b9
       -0.038671106 -0.110575564 -0.0013461453 -0.00033824204
000390 8f f6 c8 3d 9d 38 88 3d 61 15 b8 3d 08 57 a0 3d
       0.09812652 0.06651423 0.08988453 0.078291
0003a0 1e 4d 76 3c 33 7b 7f bd 46 e4 f0 3d c8 96 85 bd
       0.015033035 -0.06237335 0.1176229 -0.065229
0003b0 c6 5c 1c 3e f2 8a 2e bc af 45 2c 3d 6f 09 28 bd
       0.15269765 -0.010653244 0.042058643 -0.04102462
0003c0 7b 8e 05 bd 58 59 e2 bd ff a8 52 3d e8 ae e8 bc
       -0.032606583 -0.11052197 0.0514307 -0.028403714
0003d0 fe 8c a2 3c 84 0c 78 bc 6b be fa 3c 67 53 91 bc
       0.019842621 -0.015139703 0.030608376 -0.017739965
0003e0 b8 60 e3 bd 64 77 51 bc ae f8 fb bb 64 e8 a3 bd
       -0.11102432 -0.012784813 -0.007689557 -0.08003309
0003f0 fb fb 2f 3d 4e cc 7e 3c 28 eb 29 3d a2 71 29 3d
       0.042964917 0.01555164 0.041484028 0.041368134

network_body.observation_encoder.processors.0.normalizer.running_mean f4 [6]
000000 d9 1f 41 42 d9 f6 9f 41 36 d9 72 42 6e 1f 01 c2
       48.2811 19.995531 60.71212 -32.280693
000010 fa 31 b3 3f 06 51 8e c2
       1.3999627 -71.15825
