Assets/Training/results/learn_v3/MarsTaxi/MarsTaxi-999993.onnx (onnx, 542464 bytes, 10 tensors)

54 f4 [6]
0	0x413a019b	11.625392
1	0x414956a2	12.583651
2	0x407003e7	3.7502382
3	0x3d0464fc	0.03232287
4	0x3ae180d5	0.0017204533
5	0x3d91d8da	0.07121439

action_model._discrete_distribution.branches.0.bias f4 [6]
0	0x3d1b3f0b	0.03790192
1	0xbc19655a	-0.009362543
2	0x3b883a27	0.004157323
3	0xbc9aa458	-0.018877193
4	0xbd0151f1	-0.031572286
5	0xbc7669c3	-0.015039864

action_model._discrete_distribution.branches.0.weight f4 [6, 256]
0	0xbc67ee81	-0.014155985
1	0x3cc832b9	0.024438249
2	0xbd745d68	-0.05965939
3	0x3cbec9cf	0.02328959
4	0x3d01d30f	0.03169542
5	0xbbc3a2ea	-0.0059703486
6	0x3b0a0dce	0.0021065357
7	0xbc6452f0	-0.0139357895
8	0x3a742f5c	0.00093149184
9	0x3c5ff813	0.013669985
10	0x3c071608	0.008244999
11	0xbc546e58	-0.012965761
12	0x3cb7a741	0.02241862
13	0xbcc16f86	-0.023612749
14	0x3b4ae94c	0.003096181
15	0xbcc5c142	-0.024140004
16	0x3bd8f05a	0.006620449
17	0x3cb08520	0.021547854
18	0xbc8ed7ec	-0.017436944
19	0x3d0d15c1	0.034444574
20	0xbd30be39	-0.04315016
21	0x3cc2c087	0.023773445
22	0xbd364c57	-0.044506397
23	0x3cad9419	0.021188783
24	0xbba7d6fb	-0.005122063
25	0xbcf767ba	-0.030200828
26	0x3cccc901	0.02499819
27	0xbba82c57	-0.005132239
28	0x3c43050d	0.01190306
29	0xba5d8fa9	-0.0008451888
30	0x3c93bd85	0.018034706
31	0x3ce0d2d5	0.027444283
32	0x3cd570e1	0.026054801
33	0x3afa03d0	0.0019074623
34	0xbd368f60	-0.044570327
35	0xbd13dfa6	-0.03610196
36	0x3c973622	0.01845843
37	0x3ab86575	0.0014068322
38	0xbd17a37b	-0.03702114
39	0xbca23880	-0.019802332
40	0x3d06d348	0.032916337
41	0xbcc0c6ec	-0.023532353
42	0xbc4deb64	-0.0125683285
43	0xbcb63c5d	-0.02224558
44	0x3b8a0d73	0.004213029
45	0xbc0a0167	-0.008423186
46	0x3c74f987	0.01495207
47	0x3ce35cdf	0.027754245
48	0x3c94fc3d	0.018186683
49	0x3d204731	0.039130393
50	0xb99a6862	-0.0002945094
51	0xbcd5199d	-0.02601319
52	0xbd3e3042	-0.04643274
53	0x3bb1e934	0.0054294113
54	0xbb508e25	-0.0031823006
55	0xbc83bba7	-0.01608069
56	0xbbc2cf75	-0.005945141
57	0x3c2064b8	0.009789638
58	0xbc5edd86	-0.01360262
59	0x3c939ef8	0.018020138
60	0xbd1d4acd	-0.038401414
61	0x3cb230c3	0.021751767
62	0xbc218b5e	-0.009859888
63	0xbceb97fb	-0.028758993
64	0x3cbfa5e9	0.023394542
65	0x3d064c49	0.032787595
66	0xbc2b234b	-0.010445426
67	0x3c574497	0.013138912
68	0x3ca229e5	0.019795367
69	0x3c736bc8	0.01485724
70	0xbcbd1b02	-0.023084167
71	0x3ca38e07	0.019965185
72	0x3c747f71	0.0149229625
73	0x3bfb7c55	0.0076747336
74	0xba466e9a	-0.00075695815
75	0xbc476b4e	-0.0121715795
76	0x3c0b3f0f	0.008498921
77	0x3cd5d04e	0.026100304
78	0x3d116a2e	0.03550165
79	0x3ca5c950	0.020237595
80	0xbb0fa352	-0.0021917415
81	0x3c998a03	0.018742567
82	0x3bec3432	0.0072083706
83	0x3cfc2ba4	0.030782528
84	0x3caab6f1	0.020839186
85	0xbd5eb46c	-0.054371282
86	0x3bfa5f58	0.0076407604
87	0xbc5a0e2e	-0.013309045
88	0x3c92c7ff	0.017917631
89	0xbacb490c	-0.001550944
90	0x3cc04ff4	0.023475625
91	0xbb2c7d41	-0.0026319774
92	0x3d39cd5a	0.045361854
93	0x3d11c909	0.035592113
94	0x3c366509	0.011132487
95	0xbd1b9412	-0.037983008
96	0xbb5d0b56	-0.003372868
97	0xbbcf77c8	-0.0063314177
98	0xbca7894d	-0.020451212
99	0x3b4fd378	0.0031711739
100	0x3d11ef19	0.035628412
101	0xbd17fa63	-0.03710402
102	0x3cb81b61	0.022473993
103	0x3ae0b820	0.0017144717
104	0xbccce3d6	-0.025010984
105	0xbc63cc09	-0.013903626
106	0xbcd86ccc	-0.026419066
107	0x3cbcd354	0.023049988
108	0xbd0666e2	-0.03281296
109	0xbc830716	-0.01599459
110	0xbb492cc5	-0.003069685
111	0x3d12ede1	0.03587139
112	0x3bd90293	0.0066226213
113	0x3c6c79ff	0.014433383
114	0x3c486edf	0.012233465
115	0xbcaf4ce6	-0.021398973
116	0x3b29ac44	0.0025890032
117	0xbd0faf89	-0.035079513
118	0xbba16da4	-0.0049264003
119	0x3ba30b16	0.004975687
120	0xbd43701f	-0.04771435
121	0x3b985447	0.0046487185
122	0x3cc39a78	0.023877367
123	0x3c8f2e6b	0.017478188
124	0xbcd62f33	-0.026145553
125	0x3cf5a9ff	0.029988287
126	0x3cdbcab5	0.026830057
127	0x3cf3cf46	0.029761922
128	0x3a96402b	0.0011463215
129	0x39e2c07e	0.00043249497
130	0xbb2deb6f	-0.0026538034
131	0x3c73ff32	0.014892386
132	0x3c6daf38	0.014507107
133	0x3bf13020	0.0073604733
134	0x3c1e54a5	0.0096637355
135	0x3c0a44d7	0.008439264
136	0xbcb1d51a	-0.02170806
137	0xbd2a5942	-0.04158903
138	0x3cc78114	0.024353541
139	0xbcbb2521	-0.022844853
140	0x3c4f1210	0.012638584
141	0x3cbd690a	0.023121376
142	0x3c16651f	0.009179383
143	0x3c369538	0.011143975
144	0xbd24b8a4	-0.04021515
145	0x3d129e20	0.03579533
146	0x3c4ace8a	0.012378344
147	0xbcb62a7b	-0.022237053
148	0x3c82d454	0.015970387
149	0xbb22189e	-0.0024733911
150	0xbb477fd7	-0.0030441189
151	0x3cda40cc	0.026642226
152	0x3d0fbcf8	0.035092324
153	0x3c311ec0	0.010810554
154	0x3c725663	0.014791104
155	0xbd08b221	-0.033373002
156	0x3d166301	0.03671551
157	0x3c61ecf0	0.0137894
158	0x3ca0e2f2	0.019639466
159	0x3c63036d	0.013855797
160	0xbba408ed	-0.005005947
161	0x3cf6857d	0.030092949
162	0xbb50b39b	-0.0031845334
163	0xbbb6a43d	-0.005573778
164	0x3c9fd1c9	0.019509213
165	0x3bd000e6	0.0063477634
166	0x3c972335	0.018449405
167	0xbc3a4a97	-0.011370323
168	0x3be35e0e	0.0069387024
169	0x3c1f4f63	0.009723517
170	0x3cdabecd	0.026702309
171	0xbd744877	-0.05963942
172	0xbd640c1e	-0.05567562
173	0x3c015dc3	0.00789589
174	0x399f4900	0.00030381233
175	0xbc915bb6	-0.017743926
176	0xbbfd22a5	-0.007725077
177	0xbb74eaf9	-0.00373715
178	0x3cdd2a82	0.026997808
179	0x3cc53540	0.024073243
180	0xbcd43d51	-0.025908144
181	0xbbaa7870	-0.0052023456
182	0x3ce37c46	0.02776922
183	0xbc92bb5e	-0.01791161
184	0x3c84cb01	0.016210081
185	0x3ce0ed55	0.027456919
186	0x3ceb6346	0.02873386
187	0xbcb139c7	-0.021633996
188	0x3c9ada3f	0.018902896
189	0xbc25e912	-0.010126369
190	0xba4e799f	-0.00078763993
191	0x3c6b61b3	0.014366555
192	0x3ce0920c	0.02741339
193	0xbb4a884c	-0.0030903993
194	0x3c73a40e	0.014870657
195	0x3c23fa2e	0.010008378
196	0xbd289386	-0.041156314
197	0x3cb8060f	0.022463826
198	0x3d2c4938	0.042062014
199	0xbd87048b	-0.065926634
200	0x3c20f53a	0.009824092
201	0xbccceb33	-0.025014495
202	0x3cb26c99	0.021780299
203	0xbca5806e	-0.020202842
204	0xbd09cca2	-0.03364242
205	0xbd481579	-0.048848603
206	0xbaa1e5f6	-0.0012351859
207	0x3cc7419f	0.024323283
208	0x3c88d445	0.01670278
209	0xbcd80613	-0.026370084
210	0xbba5abf7	-0.0050559
211	0x3c75f985	0.015013103
212	0x3c6a2667	0.014291382
213	0x3b936984	0.0044986624
214	0x3d2a2762	0.041541465
215	0xbbab83ab	-0.005234202
216	0x3c5f4a5e	0.01362857
217	0xbcc99138	-0.024605379
218	0xbd4c97de	-0.04994952
219	0x3cba825e	0.022767242
220	0x3c8dbf61	0.01730317
221	0xbbf336a5	-0.0074222856
222	0x3af6deff	0.0018834769
223	0x3ca10f76	0.019660693
224	0xbcf40c34	-0.029790975
225	0x3cff3f4c	0.031158112
226	0xbd6213fe	-0.055194847
227	0xbd3f23eb	-0.046665113
228	0xbb8367e6	-0.0040101884
229	0x3ac1a048	0.0014772499
230	0xbce6e754	-0.028186478
231	0x3cf6e38c	0.0301378
232	0x3d129e8c	0.035795733
233	0xbd3622a5	-0.044466633
234	0xba8641b8	-0.0010242974
235	0xbd091475	-0.033466775
236	0xbcfc82c2	-0.030824069
237	0xbc8cc22e	-0.017182436
238	0x3a45a5c5	0.0007539655
239	0xbd249580	-0.040181637
240	0x3cdd223a	0.02699386
241	0x3c9c8ae2	0.019109193
242	0x3c5b7b79	0.013396137
243	0xbd0ea579	-0.034825776
244	0x3bbe00aa	0.005798419
245	0x3c469c21	0.012122185
246	0x3ca68aa9	0.02032979
247	0x3c4d62ad	0.012535733
248	0x3c0be2a0	0.008537918
249	0x3bd99c2a	0.0066409307
250	0xbca0ef8f	-0.01964548
251	0x3ca0dc30	0.019636244
252	0xbce4d041	-0.027931334
253	0x3ca4241d	0.020036751
254	0xbc8042ce	-0.015656855
255	0x3b8078b5	0.0039206394

network_body._body_endoder.seq_layers.0.bias f4 [256]
0	0x3d36344d	0.04448347
1	0x3c1b4a76	0.009478202
2	0x3c6befc2	0.014400424
3	0x3cfd991d	0.0309568
4	0x3d2014bc	0.039082274
5	0x3d5c7b4a	0.053828515
6	0x3c64afce	0.013957931
7	0x3c165890	0.009176388
8	0x3c33c96f	0.0109733185
9	0x3c8d7fe4	0.017272897
10	0x3d380b3c	0.04493259
11	0x3a9802b8	0.001159749
12	0x3d115428	0.03548065
13	0xbad76fa2	-0.0016436467
14	0x3cffeaad	0.031239832
15	0xbd6dc8d5	-0.058052856
16	0x3ce1b613	0.02755264
17	0x3ac9d824	0.0015399498
18	0xbc8c1036	-0.017097574
19	0x3d384a17	0.044992533
20	0xbd352a73	-0.044229936
21	0x3d830da1	0.06399084
22	0x3d30cf9c	0.04316674
23	0xbbbfee8d	-0.005857295
24	0xbd0c3f40	-0.034240007
25	0x3c9334b0	0.01796946
26	0x3d7158b6	0.058922492
27	0x3c49f50e	0.012326492
28	0x3c9e9550	0.019358307
29	0x3d0b4e66	0.034010313
30	0xbbbcb092	-0.0057583535
31	0xbb471ad6	-0.0030380986
32	0x3ca4a0ef	0.02009627
33	0x3d4a64ce	0.04941254
34	0x3ca0619e	0.019577798
35	0x3c2981a3	0.010345849
36	0xbc63f81a	-0.0139141325
37	0x3d0ee50e	0.034886412
38	0xbbe4ed2e	-0.006986282
39	0x3d4e5696	0.050375544
40	0xbc39c6f6	-0.01133894
41	0xbcfd6c2c	-0.03093537
42	0x3c9a7f50	0.018859535
43	0x3d1ff824	0.039055005
44	0x3d47faf3	0.04882331
45	0xbc888739	-0.016666042
46	0xbb8aba46	-0.0042336313
47	0xbc36de01	-0.011161328
48	0x3ca842d2	0.020539675
49	0x3d56d6f4	0.05245109
50	0x3d177768	0.03697911
51	0x3d483629	0.048879776
52	0x3d49e459	0.049290035
53	0x3d2d2317	0.042269792
54	0xbc283e2c	-0.010268729
55	0x3d37a758	0.044837326
56	0x3cb7e991	0.02245024
57	0x3c6beacc	0.014399242
58	0x3c030d81	0.007998825
59	0x3c215ef6	0.009849301
60	0x3d10bd3c	0.035336718
61	0x3d078d43	0.033093702
62	0xbc024eb5	-0.0079533355
63	0x3d2a99bf	0.04165053
64	0x3d0f9332	0.035052486
65	0xbca4bb80	-0.020108938
66	0xbbe54169	-0.006996323
67	0xbcbb718c	-0.022881292
68	0x3d4f948f	0.050678786
69	0xbd15fc09	-0.036617313
70	0x3be0b375	0.0068573304
71	0x3cd92dc6	0.026511084
72	0x3d351ac2	0.04421497
73	0x3d291054	0.041275337
74	0xba5ad275	-0.00083474006
75	0x3d273519	0.040822122
76	0x3ceeb307	0.029138101
77	0x3d1a3916	0.037652098
78	0xbbc719f1	-0.0060760905
79	0xbc6ff09e	-0.01464477
80	0x3cdeeb44	0.027211793
81	0x3cbb6c55	0.022878805
82	0x3c920e9b	0.01782923
83	0x3cf85a7e	0.030316588
84	0x3d45bbfc	0.04827498
85	0xbbf5276b	-0.0074815056
86	0x3d5ff694	0.054678515
87	0x3a98b315	0.001165005
88	0xbd2b3df1	-0.04180712
89	0x3cf000c3	0.029297238
90	0x3d0e3153	0.034715008
91	0x3d34ce82	0.044142254
92	0x3c228e07	0.009921557
93	0x3d492b4f	0.049113568
94	0x3ccdb8a4	0.025112458
95	0x3d22b303	0.0397215
96	0x3c708ad7	0.0146815395
97	0x3c0a0e21	0.00842622
98	0xbd25b1ec	-0.040452883
99	0x3cc3877d	0.023868317
100	0xbb11197f	-0.002214044
101	0x3c042476	0.008065334
102	0x3d214bf1	0.039379064
103	0x3d1e72e8	0.038683802
104	0x3ce3318d	0.027733589
105	0x3d434e74	0.04768224
106	0x3c97e204	0.01854039
107	0x3c866017	0.016403241
108	0x3d360968	0.044442564
109	0x3d364c7d	0.04450654
110	0x3b8af67e	0.00424081
111	0x3d569cd8	0.05239567
112	0x3d0896c0	0.03334689
113	0x3d40830d	0.04699998
114	0x3c9e5b3e	0.019330617
115	0x3d2aea68	0.041727453
116	0x3d133383	0.035937797
117	0x3d477f6b	0.0487055
118	0x3d2fc0b2	0.042908378
119	0x3d0c0ccc	0.03419189
120	0x3d0b296e	0.033975057
121	0xbc2f06b1	-0.010682748
122	0xbbe57e08	-0.0070035495
123	0x3d523bf2	0.0513267
124	0x3ca3e32b	0.020005783
125	0x3d2f325d	0.04277264
126	0x3d2266ec	0.039648935
127	0x3d819351	0.063269265
128	0x3d0c1868	0.034202963
129	0xbbada734	-0.005299473
130	0xbbbf8e77	-0.0058458406
131	0x3ca66ba9	0.020315008
132	0xbc379679	-0.011205309
133	0x3d379693	0.044821333
134	0x3d2539c7	0.040338304
135	0x3d47792a	0.048699535
136	0x3d32aece	0.043623738
137	0x3caee967	0.02135153
138	0xbcaeba84	-0.021329172
139	0xbd04f448	-0.032459527
140	0x3b1f17b0	0.0024275593
141	0xbc866df1	-0.016409846
142	0x3ccf6134	0.025314905
143	0x3d640a65	0.055673975
144	0x3d487f55	0.04894956
145	0x3d133e3f	0.035948034
146	0x3c78d6ca	0.015187928
147	0x3d2b016f	0.041749414
148	0x3d4b3972	0.04961533
149	0x3d14f739	0.036368582
150	0x3d2f88e3	0.042855155
151	0x3d125c70	0.035732687
152	0x3baef06e	0.00533872
153	0x3d3127ae	0.043250732
154	0x3d2d1b0b	0.04226212
155	0x3d4cd69a	0.050009347
156	0x3d84e8ae	0.06489693
157	0x3d33fc61	0.04394186
158	0x3cc42ef9	0.02394818
159	0x3cd501db	0.026001861
160	0xbc449de1	-0.012000532
161	0xbcb88f80	-0.022529364
162	0x3d0b1080	0.033951283
163	0x3d0ede62	0.03488005
164	0x3d0f677f	0.03501081
165	0x3d35b6f7	0.044363942
166	0xbd17205e	-0.036896102
167	0x3d338931	0.043832008
168	0x3d26dc89	0.040737662
169	0x3d23c7fb	0.039985638
170	0x3d076a9f	0.033060666
171	0xbca38135	-0.019959072
172	0x3d044bb7	0.03229877
173	0x3d203c12	0.039119788
174	0x3d15c302	0.036562927
175	0x3bac2446	0.0052533476
176	0x3d2a6ccb	0.04160766
177	0x3d2d8e90	0.042372286
178	0x3d40d4bd	0.047077883
179	0xbc0c8332	-0.008576201
180	0x3ce5b559	0.028040575
181	0x3cafff39	0.021484004
182	0x3c688217	0.014191172
183	0x3d4d8496	0.050175272
184	0x3d53907b	0.05165146
185	0x3d237d97	0.039914694
186	0x3bad78d5	0.0052939453
187	0xbc91dde4	-0.017806001
188	0x3d1223ff	0.03567886
189	0xbd19ba53	-0.03753121
190	0x3d245f73	0.04013009
191	0xbb1eb4cf	-0.0024216657
192	0x3ce1088d	0.027469898
193	0xbd0c91b4	-0.03431864
194	0x3cbc1466	0.022958945
195	0x3d1a0fde	0.03761279
196	0x3c99bea7	0.018767668
197	0xbc8ebaaa	-0.017422993
198	0x3d3988c8	0.04529646
199	0xbc5daebf	-0.013530432
200	0x3d36f2cc	0.044665143
201	0x3cbe38bd	0.023220414
202	0x3d11ca58	0.03559336
203	0x3d1b1e19	0.0378705
204	0x3cb01b31	0.02149734
205	0xbb0db71a	-0.002162403
206	0x3d2da803	0.042396557
207	0x3d289bb9	0.041164134
208	0xbce4016d	-0.027832711
209	0xbae45a61	-0.0017421955
210	0x3c56be4c	0.013106894
211	0x3d0434fa	0.032277085
212	0x3cbe6457	0.023241205
213	0x3d8099fa	0.06279369
214	0x3d8241c5	0.06360201
215	0x3c6ea602	0.0145659465
216	0xbc78cec0	-0.015186012
217	0xbd19146e	-0.037373
218	0x3d3a0149	0.045411382
219	0x3d171254	0.036882713
220	0x3cd1eb91	0.025625022
221	0x3d3fdfe0	0.046844363
222	0x3d6af26e	0.057360105
223	0x3ce68196	0.028137963
224	0x3c280176	0.010254255
225	0x3c15695c	0.009119358
226	0x3d0e2782	0.034705646
227	0x3d3758fd	0.0447626
228	0x3d1f4f5b	0.03889404
229	0x3d5ebb3a	0.054377772
230	0x3d47ddfd	0.04879569
231	0x3d1e49ec	0.038644716
232	0x3c8c2346	0.017106663
233	0x3c5b32bc	0.013378795
234	0x3d268c76	0.040661298
235	0x3ca25061	0.019813718
236	0x3ca02d17	0.01955275
237	0x3d440e14	0.04786499
238	0xbc7c77c1	-0.015409411
239	0x3bc41749	0.005984221
240	0x3d2e24ef	0.04251569
241	0x3d5c93a3	0.053851735
242	0x3d01a99d	0.031655896
243	0x3d1f5a32	0.038904376
244	0x3c90b7f8	0.017665848
245	0x3ceff901	0.029293539
246	0x3d1c7e07	0.038206127
247	0x3d3d1061	0.0461582
248	0x3d4e17f5	0.050315816
249	0x3d54341b	0.051807504
250	0x3d4ec620	0.050481915
251	0x3d2511de	0.040300243
252	0xbac6a2eb	-0.0015154755
253	0x3cd094a3	0.0254615
254	0x3d7b2a74	0.061319783
255	0x3d273392	0.040820666

network_body._body_endoder.seq_layers.0.weight f4 [256, 6]
0	0x3e97b427	0.29629633
1	0xbf11ec22	-0.57000935
2	0x3f07308c	0.5280845
3	0xbf162868	-0.58655405
4	0x3e30e31b	0.17274134
5	0x3e5deaad	0.21671553
6	0xbe851c49	-0.25998142
7	0x3ecc6c5c	0.39926422
8	0x3e917fe4	0.28417885
9	0xbe514750	-0.2043736
10	0xbdeb2485	-0.11481575
11	0x3f0f0703	0.55870074
12	0xbe4ce8d7	-0.20010696
13	0xbf52dc7d	-0.8236769
14	0x3e964e0f	0.2935643
15	0x3e550182	0.20801356
16	0xbf279227	-0.65457386
17	0xbf08a05e	-0.533697
18	0xbe62bfd5	-0.2214349
19	0xbed4f432	-0.41592556
20	0x3da78109	0.081789084
21	0xbe918bb4	-0.28426898
22	0xbd8d1acd	-0.068898775
23	0x3df31e92	0.11871065
24	0x3e42729d	0.18989034
25	0xbedba549	-0.4289954
26	0xbe484d85	-0.19560821
27	0xbf43af7d	-0.7643965
28	0x3e4320f6	0.19055542
29	0xbeb0372d	-0.34417096
30	0xbec944fd	-0.39310446
31	0xbf1c85ac	-0.6114147
32	0x3be1f14c	0.00689522
33	0xbeb12c69	-0.34604195
34	0xbe91ebfd	-0.28500357
35	0x3e641d73	0.22276859
36	0xbea8cac0	-0.32967186
37	0x3e6a5130	0.22882533
38	0x3f2a1291	0.6643458
39	0xbf9b264b	-1.2121061
40	0x3e567ac9	0.20945276
41	0x3cac99c7	0.02106942
42	0x3e86ee94	0.26353896
43	0x3e153b17	0.14573322
44	0x3f12b85d	0.57312566
45	0xbe5c9abb	-0.215434
46	0x3e39d879	0.18148984
47	0x3f66a794	0.90099454
48	0xbf0e7518	-0.5564742
49	0x3dbf14a8	0.09330112
50	0x3d434712	0.0476752
51	0xbd8c422c	-0.06848559
52	0xbe5c866e	-0.21535656
53	0xbe84cdbf	-0.25938222
54	0x3e6261da	0.2210764
55	0xbdc36caa	-0.095422104
56	0xbcb405ae	-0.021975365
57	0x3e6d57ea	0.23178068
58	0x3efd8193	0.4951292
59	0xbe05cfe0	-0.1306758
60	0x3f80fe41	1.0077592
61	0x3eb4d8a4	0.35321534
62	0xbee3789b	-0.44427952
63	0xbe3a23d4	-0.1817773
64	0xbf30b9e9	-0.69033676
65	0x3ed3362b	0.41252264
66	0xbeb32931	-0.34992364
67	0x3f0045e0	0.5010662
68	0x3e9175c1	0.28410152
69	0x3e1a3232	0.1505821
70	0x3da89862	0.0823219
71	0x3f596790	0.8492365
72	0xbe57eff3	-0.21087627
73	0xbf21a0a6	-0.63135755
74	0xbee81821	-0.4533091
75	0x3f32064e	0.6954087
76	0x3e44eef6	0.19231781
77	0x3e4930d9	0.1964754
78	0x3c7e189e	0.015508799
79	0x3ef63e86	0.48094577
80	0x3ec0faf2	0.37691456
81	0x3ea6b97d	0.3256339
82	0x3f29bf2d	0.66307336
83	0xbf65b3e4	-0.89727616
84	0xbf07e952	-0.53090394
85	0x3f222e8a	0.6335226
86	0xbeb28215	-0.3486487
87	0xbea3cabf	-0.3199062
88	0x3f48a23f	0.7837257
89	0x3df4ab4e	0.11946736
90	0x3bba05fd	0.0056769834
91	0xbea5f604	-0.32414258
92	0xbeca4d0f	-0.39511916
93	0x3ef8ce43	0.48594865
94	0xbf36dbb2	-0.7142898
95	0xbdabc1d0	-0.08386576
96	0xbe8cfecc	-0.27538145
97	0x3f2d5952	0.67714417
98	0x3e1910c4	0.14947802
99	0xbed6af12	-0.41930443
100	0x3d2219ca	0.039575376
101	0xbf1013f0	-0.5628042
102	0x3e3ecee7	0.18633614
103	0xbf06376a	-0.52428305
104	0xbe4ace18	-0.19805181
105	0x3ed9bc78	0.42526603
106	0xbed2cd2d	-0.41172162
107	0x3e476589	0.19472326
108	0x3e2df1f6	0.16986832
109	0x3e47c19b	0.19507448
110	0xbe9d9378	-0.30776572
111	0xbeaa8a3c	-0.3330859
112	0xbe142a32	-0.14469221
113	0xbe93cf1c	-0.2886895
114	0x3dd8a575	0.105784334
115	0xbf3b6160	-0.7319546
116	0xbef090e0	-0.4698553
117	0xbe1ee140	-0.15515614
118	0xbf8a70ee	-1.0815713
119	0x3ecbecd9	0.39829138
120	0x3e031bf7	0.12803636
121	0x3f2bd107	0.67115825
122	0xbdb82c3d	-0.08992813
123	0x3e84199b	0.25800785
124	0xbc026b6b	-0.007960181
125	0x3d1330dd	0.03593527
126	0xbf9f0e12	-1.2426169
127	0x3da1458d	0.07874594
128	0x3de31326	0.11087637
129	0xbe3e80ca	-0.18603817
130	0x3d4d5a56	0.05013498
131	0x3e95e509	0.29276302
132	0xbf06e8c4	-0.5269892
133	0xbf238f5e	-0.63890636
134	0xbf7d9b51	-0.9906512
135	0x3f38bbda	0.7216164
136	0xbec62c5b	-0.38705716
137	0x3e02550c	0.12727755
138	0xbeb47309	-0.35244015
139	0x3f10d37a	0.5657269
140	0x3e9ee2d8	0.31032443
141	0x3da9b2c2	0.082860485
142	0xbc6b46fe	-0.014360188
143	0xbd003356	-0.031298958
144	0x3e3bfc48	0.18357956
145	0xbd04d0e2	-0.03242577
146	0xbe72b481	-0.2370167
147	0xbe49b246	-0.19696912
148	0xbe3ab7d6	-0.1823419
149	0xbc705a72	-0.014670001
150	0xbe9222d2	-0.2854219
151	0x3eac1dd6	0.33616513
152	0xbe57ce6d	-0.21074839
153	0xbdaeaffa	-0.085296586
154	0x3db1f2a0	0.08688855
155	0xbe24224e	-0.16028711
156	0xbf3fe34e	-0.74956214
157	0x3d179b5a	0.03701339
158	0x3f200df7	0.6252131
159	0x3eb266e4	0.34844124
160	0xbf096544	-0.53670144
161	0x3dbb4e93	0.09145846
162	0x3eefdb49	0.4684699
163	0xbdc2a5ef	-0.095043056
164	0x3e76fe7b	0.24120514
165	0x3f12cc05	0.5734256
166	0xbe8772a5	-0.26454654
167	0x3f19431c	0.59868026
168	0x3e74ee59	0.23919047
169	0xbe8fc791	-0.28081945
170	0x3eac8bad	0.33700314
171	0x3f000810	0.500123
172	0x3ec0b1b0	0.37635565
173	0xbeb2a31d	-0.3489007
174	0xbe83e620	-0.2576151
175	0x3eabb56b	0.33536848
176	0xbf055ec9	-0.52097756
177	0xbea29b1d	-0.31758967
178	0x3f2bfd49	0.6718336
179	0x3e8c9a5e	0.27461523
180	0x3ef0f02f	0.47058246
181	0x3ed3c0d8	0.41358066
182	0xbdaf319a	-0.085543826
183	0xbd36c38c	-0.04462008
184	0x3e5332fb	0.20624916
185	0x3f218499	0.6309295
186	0xbe7702b2	-0.24122122
187	0x3f5a0f41	0.85179526
188	0xbf2f4fcf	-0.68481153
189	0xbe785ae0	-0.24253416
190	0xbd75dedd	-0.060026992
191	0x3d037bf4	0.032100633
192	0x3de7bebf	0.11315679
193	0xbdb0b9e8	-0.08629209
194	0xbda6e06e	-0.08148275
195	0xbe371136	-0.17877659
196	0x3edb1ca8	0.427953
197	0xbdbaa1b4	-0.09112874
198	0xbeb76baa	-0.3582433
199	0xbe7085a2	-0.23488477
200	0xbdd82deb	-0.10555633
201	0xbe8ad1a3	-0.27113065
202	0x3f389952	0.7210895
203	0x3e9d9991	0.30781224
204	0xbdb6609e	-0.08905147
205	0x3f309621	0.6897908
206	0x3eff0ea6	0.49815863
207	0x3ea9e872	0.33185154
208	0x3d527253	0.05137856
209	0x3ea64bf8	0.32479835
210	0x3e90056a	0.2812913
211	0xbe9e879f	-0.30962846
212	0xbdd10bcd	-0.10207329
213	0x3e5b584a	0.21420398
214	0x3ee7f161	0.45301345
215	0xbf01b6fa	-0.50669825
216	0x3d09f52b	0.033681076
217	0x3e4b1fd4	0.1983636
218	0x3e98d6bc	0.2985133
219	0x3f01fed8	0.50779486
220	0xbf426bd1	-0.75945765
221	0x3f6626d2	0.89902985
222	0x3e6d79df	0.23191021
223	0x3edc9143	0.43079576
224	0xbe296797	-0.16543423
225	0xbe71e1bb	-0.23621266
226	0xbe62a786	-0.22134218
227	0xbd0726b0	-0.03299588
228	0x3e4898d7	0.19589554
229	0xbd4faf7f	-0.050704475
230	0xbe281967	-0.1641594
231	0x3f4ca74a	0.7994276
232	0xbf1fb171	-0.6238013
233	0x3e9416d7	0.28923675
234	0x3e775b5a	0.24155942
235	0xbf30e63b	-0.69101304
236	0xbc851642	-0.016245965
237	0xbea20c78	-0.31650138
238	0xbe513ebb	-0.20434086
239	0x3f156ab6	0.5836595
240	0xbeb0f385	-0.3456079
241	0xbde8f68f	-0.11375152
242	0xbcc55797	-0.024089618
243	0xbe51d456	-0.20491156
244	0xbea18f88	-0.31554818
245	0xbf26d75d	-0.6517237
246	0xbdb54fc6	-0.08853106
247	0x3ea32249	0.31862095
248	0xbe5de356	-0.21668753
249	0x3f26e600	0.651947
250	0xbea8670d	-0.32891122
251	0xbed99b70	-0.42501402
252	0xbeb27189	-0.34852245
253	0x3e0d4fc0	0.13799953
254	0xbec304e9	-0.38089684
255	0x3d4cc9aa	0.04999701

network_body._body_endoder.seq_layers.2.bias f4 [256]
0	0x3d34da34	0.044153407
1	0xbd6da9e1	-0.058023337
2	0x3cbce80c	0.023059867
3	0x3d1c05b1	0.038091365
4	0x3a1b85bd	0.00059327093
5	0xbd8b1058	-0.06790227
6	0x3cf4f9b1	0.029904218
7	0x3d7521b0	0.05984658
8	0x3cd00c23	0.025396412
9	0x3b1ed175	0.0024233733
10	0x3cbe5dd9	0.02323811
11	0xbcfae539	-0.03062688
12	0x3d7b4ab1	0.06135053
13	0x3cfffecf	0.031249432
14	0x3ca25b73	0.019818997
15	0xbd3c07b9	-0.045905802
16	0x3d219427	0.03944793
17	0x3d4a721d	0.049425233
18	0xbd5f7c0e	-0.054561667
19	0x3a015510	0.0004933635
20	0x3c9e5548	0.019327775
21	0xbd12363c	-0.035696253
22	0xbcd6cdaf	-0.026221124
23	0x3d0195c5	0.031636972
24	0xbcf22ba9	-0.029561834
25	0xbd6b3a60	-0.057428718
26	0x3d0a3cd4	0.033749416
27	0x3af277e8	0.001849887
28	0x3d32aeff	0.04362392
29	0x3babf90f	0.005248196
30	0x3d06dfa2	0.032928117
31	0x3aa56e9d	0.0012621466
32	0xbcb80112	-0.022461448
33	0x3d5c2e03	0.053754818
34	0x3d2f5a72	0.042810865
35	0x3d39400d	0.0452271
36	0x3d3c5c60	0.045986533
37	0xbd3b52f5	-0.04573341
38	0x3d34d44d	0.04414778
39	0xbd3ef4dc	-0.046620235
40	0x3cd42a4d	0.025899077
41	0xbc8e94f8	-0.017405018
42	0x3cf68ff2	0.030097935
43	0x3c7dd7fe	0.015493391
44	0x3d2d0336	0.04223939
45	0x3d372675	0.04471441
46	0xbd405d35	-0.04696389
47	0x3d4afd97	0.04955825
48	0x3d2e1200	0.042497635
49	0x3d079866	0.033104323
50	0x3c244c53	0.010027963
51	0x3c517b01	0.012785674
52	0xbd5c6f4d	-0.053817082
53	0x3d076930	0.0330593
54	0x3cd8151f	0.026377259
55	0xbc88b879	-0.016689526
56	0x3d45cc9e	0.04829084
57	0xbce43477	-0.027857048
58	0x3d12c9ce	0.035836987
59	0x3cc3d5f4	0.023905732
60	0xbd7c5c82	-0.06161166
61	0x3c8f7021	0.017509522
62	0x3d6cfae1	0.057856444
63	0x3d1551b1	0.03645486
64	0x3d3cfb3d	0.046138037
65	0x3d5f034f	0.054446515
66	0x3d0a796a	0.033807196
67	0x3b96a531	0.004597329
68	0x3d1159ad	0.035485912
69	0x3ca35b7f	0.01994109
70	0xbd591b59	-0.053004596
71	0x3d71496a	0.058907904
72	0xbc81184a	-0.015758652
73	0x3cded49f	0.027200995
74	0xbcf77658	-0.030207798
75	0x3c9b36d8	0.01894705
76	0x3badefdc	0.0053081345
77	0xbca79ec0	-0.02046144
78	0xbb626696	-0.003454601
79	0x3d0ee105	0.034882564
80	0x3a6593ee	0.00087577
81	0x3d29ed63	0.041486155
82	0x3d58f295	0.05296572
83	0x3cd6ff0b	0.02624466
84	0x3cb50642	0.02209771
85	0x3caa5ac8	0.020795241
86	0x3d374841	0.04474664
87	0xbcc42f7b	-0.023948422
88	0xbd4ed108	-0.050492316
89	0xbc51cfc5	-0.012805884
90	0x3d1e6d11	0.038678233
91	0xbb62edc3	-0.003462658
92	0xbd354d8c	-0.044263408
93	0x3b25a781	0.0025276842
94	0xbc99a498	-0.018755242
95	0x3d08a5cf	0.033361252
96	0xbcc981af	-0.02459797
97	0x3d5957e2	0.053062327
98	0x3d327b90	0.04357487
99	0x3d357ab0	0.044306457
100	0x3c2ad424	0.010426555
101	0x3d3703a8	0.04468122
102	0x3aca9186	0.0015454746
103	0x3c8c8309	0.017152326
104	0x3d7ea457	0.062168445
105	0x3cff4b43	0.031163817
106	0x3d4edc36	0.05050298
107	0xbc858417	-0.016298337
108	0x3ce41f8b	0.027847072
109	0x3cb72a6b	0.022359094
110	0x3d28605e	0.041107528
111	0x3d2b9542	0.04189039
112	0xbcf73670	-0.030177325
113	0x3d310d89	0.0432258
114	0x3cbe4d03	0.023230081
115	0x3cba436e	0.022737231
116	0x3cbd5cc3	0.023115521
117	0x3d34e124	0.044160023
118	0x3d2eda62	0.042688735
119	0x3d12d862	0.03585089
120	0x3d12144d	0.03566389
121	0x3c753f4d	0.014968705
122	0xbd4222f4	-0.047396615
123	0x3cc1c764	0.023654647
124	0x3d4ae7f0	0.0495376
125	0x3d2927ec	0.041297838
126	0x3cae6b5e	0.021291431
127	0x3d1180bc	0.03552316
128	0x3cc07009	0.023490923
129	0xbcec6040	-0.02885449
130	0x3d542097	0.051788893
131	0xbd1db44e	-0.03850203
132	0xbd74ab92	-0.059733935
133	0x3cb1701f	0.021659909
134	0xbd1ddcf2	-0.038540788
135	0x3d45ec4b	0.04832105
136	0x3d21f5c3	0.039541017
137	0xbc1ef3df	-0.009701698
138	0x3cf8e7dd	0.030383999
139	0x3d3c6373	0.04599328
140	0x3ace8ba7	0.0015758172
141	0xbd51831e	-0.051150434
142	0x3d3882d3	0.04504664
143	0x3cfdbe1b	0.030974438
144	0x3ca284d0	0.01983872
145	0x3d172618	0.036901563
146	0xbbdb106f	-0.0066853086
147	0xbd00ef49	-0.0314782
148	0x3d0f6d68	0.035016447
149	0x3ccd1ced	0.025038207
150	0x3d439fce	0.047759824
151	0x3c39851f	0.011323242
152	0x3cfc1de9	0.030775981
153	0x3d499d0e	0.049222045
154	0xbce6bc41	-0.028165938
155	0x3c9d91e5	0.019234607
156	0xbb4f9042	-0.0031671678
157	0x3cacfaaa	0.02111562
158	0x3d103ac0	0.03521228
159	0xbd549783	-0.051902305
160	0x3cce2008	0.025161758
161	0x3d42ad08	0.047528297
162	0x3ca08b38	0.019597635
163	0x3d35602c	0.04428117
164	0xbcfd4708	-0.03091766
165	0x3d348f52	0.044081993
166	0x3d2aee0a	0.041730918
167	0xbd0c8b42	-0.034312494
168	0x3c1c5e27	0.009543932
169	0x3c5abe08	0.013350971
170	0x3b80c00b	0.0039291433
171	0x3d394021	0.045227174
172	0x3c63f1ff	0.013912677
173	0x3d689e40	0.056791544
174	0xbd82c9ce	-0.063861474
175	0xbc428105	-0.011871581
176	0xbcf33878	-0.029690012
177	0x3d2cde3f	0.042204138
178	0x3d06dbb0	0.032924354
179	0x3d4ea98a	0.050454654
180	0x3d43127b	0.047625046
181	0x3d70ab06	0.05875685
182	0x3c19ed56	0.009394964
183	0xbc8b7a77	-0.01702617
184	0xbc9ce7f2	-0.019153569
185	0x3d1fdcb0	0.039028823
186	0x3c679e2f	0.014136835
187	0x3c7595fd	0.014989373
188	0xbbf9e76e	-0.0076264655
189	0x3bd4fb2e	0.0064996695
190	0x3d4f308d	0.05058341
191	0x3d0cccc8	0.034374982
192	0x3d00eb38	0.031474322
193	0xbcbc50c1	-0.022987725
194	0xbd09a8fb	-0.033608418
195	0x3b85e402	0.0040860185
196	0x3d457e1d	0.048215974
197	0x3cde1b6f	0.02711269
198	0xbd734491	-0.059391562
199	0xb9f82503	-0.00047329822
200	0x3d0223cc	0.03177242
201	0xbbb3e8f7	-0.005490418
202	0x3cfc86df	0.03082603
203	0x3d3ab0e1	0.04557884
204	0x3d057e33	0.032591056
205	0xbc6c7b2b	-0.014433662
206	0x3c39b344	0.011334244
207	0xbbc4ad14	-0.006002078
208	0xbd5c5699	-0.053793523
209	0x3c836237	0.016038043
210	0xbd770f68	-0.060317427
211	0x3cb5ea15	0.022206346
212	0x3d1596d2	0.036520787
213	0xbd6e209f	-0.05813658
214	0x3cc55bcc	0.024091624
215	0x3d365b34	0.04452057
216	0xbc345e61	-0.01100883
217	0x3b25adaf	0.0025280525
218	0x3d140206	0.036134742
219	0x3c900e8a	0.017585058
220	0xbbbd8342	-0.0057834694
221	0x3cc117f8	0.023571
222	0xbc295f78	-0.010337703
223	0xbd0768cc	-0.033058926
224	0x3d70306e	0.058639936
225	0x3cd10226	0.02551372
226	0xbc8fc3e4	-0.017549463
227	0xbd08e998	-0.033425897
228	0x3ca48c75	0.020086506
229	0xbd4bb5cd	-0.049733926
230	0x3cc53ec9	0.02407779
231	0xbd68b12d	-0.056809593
232	0x3d190828	0.037361294
233	0x3d204f22	0.039137967
234	0x3befc538	0.0073172115
235	0x3d2ddb89	0.042445693
236	0x3c8e2a74	0.017354228
237	0x3c837510	0.01604703
238	0xbd1066d1	-0.035254303
239	0xbd7dc797	-0.06195792
240	0x3d1ca55e	0.038243644
241	0xbbc14ecf	-0.0058992873
242	0x3d55dce2	0.052212603
243	0x3c489c85	0.012244348
244	0x3cdbe2df	0.026841579
245	0xbcaa8d79	-0.020819413
246	0x3d55e2bc	0.052218184
247	0xbd2c24e8	-0.042027384
248	0x3d18b3d8	0.037280887
249	0x3d6a47ad	0.05719726
250	0x3d49b395	0.04924353
251	0x3c91d803	0.017803198
252	0xbce674ac	-0.028131805
253	0x3c11a67f	0.008889793
254	0x3d68f19e	0.05687105
255	0x3c31240c	0.010811817

network_body._body_endoder.seq_layers.2.weight f4 [256, 256]
0	0x3c88ace6	0.016684007
1	0xbd469a50	-0.048487008
2	0x3b7c913f	0.0038538722
3	0x3ade772d	0.0016972773
4	0x3cff53cc	0.031167887
5	0xbdc1fb66	-0.094717786
6	0xbe4336b0	-0.1906383
7	0x3d99c2d6	0.07507865
8	0xbdc5fd54	-0.09667459
9	0x3ac70216	0.0015183117
10	0xbda75dc5	-0.08172182
11	0xbd8273ba	-0.06369729
12	0xbc9349de	-0.017979559
13	0x3c3a8c86	0.011386042
14	0xbd719948	-0.05898407
15	0x3d0f4b37	0.03498384
16	0xbc260c20	-0.010134727
17	0x3d88e9b0	0.06685197
18	0x3d565dd2	0.052335568
19	0xbd59c77d	-0.053168762
20	0xbe055ce5	-0.13023718
21	0xbd511585	-0.051045913
22	0x3d7bac2c	0.061443493
23	0x3a154038	0.0005693468
24	0xbca74d20	-0.020422518
25	0x3d18887b	0.037239533
26	0xbc4a8c3d	-0.012362537
27	0xbda64fe8	-0.0812071
28	0x3ca10670	0.01965639
29	0xbdac9866	-0.08427505
30	0x3d14ad40	0.036298037
31	0x3bd7275b	0.006565971
32	0x3da9c032	0.082886115
33	0xbd5e14c9	-0.05421904
34	0xbdde9318	-0.108679
35	0x3df45079	0.119294114
36	0x3d0776aa	0.03307215
37	0x3da6fbee	0.081535205
38	0x3d02499e	0.031808488
39	0x3bc57dfd	0.006026982
40	0x3bfb0e8f	0.0076616476
41	0xbd1e505a	-0.038650848
42	0xbd90511f	-0.070467226
43	0x3ce48c57	0.02789895
44	0xbcbb398d	-0.02285459
45	0xbe2a23bd	-0.16615196
46	0xbd2e2ff0	-0.042526186
47	0xbdb30619	-0.087413974
48	0xbe082b3b	-0.13297741
49	0x3c77810e	0.015106453
50	0x3d942fbf	0.07235669
51	0x3e0913c0	0.1338644
52	0xbda99492	-0.08280291
53	0x3dd38fea	0.10330184
54	0xbdbf0b8f	-0.093283765
55	0xbc8148c1	-0.015781762
56	0xbda9913c	-0.082796544
57	0xbd7c040f	-0.061527308
58	0xbca140c8	-0.01968421
59	0xbcdc018e	-0.02685621
60	0xbde2362b	-0.11045488
61	0x3ca61c5a	0.020277191
62	0x3d2f25bf	0.042760607
63	0x3e0952fb	0.13410561
64	0x3de9936e	0.11405073
65	0xbdaf73ad	-0.08566985
66	0xbc24b362	-0.010052534
67	0xbd488470	-0.048954427
68	0x3d1f03a9	0.03882185
69	0xba0247d6	-0.0004969811
70	0x3b013e88	0.001972111
71	0xbcf4850b	-0.029848596
72	0x3d9aae07	0.07552724
73	0xbbe5ef9b	-0.0070170886
74	0xbd87b20f	-0.06625759
75	0xbcaea355	-0.021318117
76	0x3d20947a	0.0392041
77	0xbcc2149b	-0.023691466
78	0x3d70a565	0.058751483
79	0xbe1e041f	-0.1543126
80	0x3deb56fe	0.11491202
81	0xbc94a092	-0.018142972
82	0x3c60693c	0.013696965
83	0xbcb74f0f	-0.022376565
84	0xbde4214e	-0.11139165
85	0xbdc8f237	-0.09811824
86	0xbca475d5	-0.020075718
87	0x3dda30dd	0.10653851
88	0xbd036abd	-0.032084215
89	0xbdb09bae	-0.086234435
90	0xbdfad8b4	-0.12248364
91	0xbd3bca85	-0.045847435
92	0xbd6e3351	-0.058154408
93	0x3d44b7dc	0.048026904
94	0x3cfc0e33	0.03076849
95	0x3d8407ec	0.064468235
96	0x3cdbea04	0.026844986
97	0xbac38cc9	-0.0014919277
98	0xbd85bc34	-0.065300375
99	0xbc1df6bc	-0.009641346
100	0xbd53238a	-0.051547565
101	0xbd2438e4	-0.040093318
102	0xbd25868c	-0.040411517
103	0xbd9625c3	-0.07331421
104	0xbc77ae49	-0.015117236
105	0x3d794199	0.060853574
106	0x3ce98631	0.02850637
107	0x3c91b09c	0.01778441
108	0x3c8a3b0d	0.01687386
109	0xbc4dfd10	-0.012572542
110	0x3e00f631	0.12593915
111	0x3adb9f9a	0.0016755939
112	0x3da6ec28	0.08150512
113	0x3cd9252a	0.026506979
114	0xbd4976fa	-0.04918573
115	0xbdd7d877	-0.10539334
116	0x3d4df2a4	0.05028023
117	0xbceaeeca	-0.028678317
118	0x3d60be50	0.054868996
119	0x3c5c0bf2	0.013430582
120	0x3cd6f452	0.026239548
121	0xbd321e1a	-0.04348574
122	0xbda64af4	-0.08119765
123	0x3c8a8333	0.016908264
124	0x3d94c591	0.07264245
125	0xbd50ecf3	-0.051007222
126	0x3c985d90	0.018599302
127	0xbd18cc2f	-0.0373041
128	0x3c88f25e	0.016717132
129	0xbd84d148	-0.0648523
130	0x3d8222d8	0.06354302
131	0xbdbc6bd5	-0.09200255
132	0x3da3f9de	0.08006643
133	0xbd80a2fd	-0.062810875
134	0xbd79fcbf	-0.061032053
135	0xba8c8130	-0.0010719653
136	0xbd69c21b	-0.05706988
137	0xba8a7ab2	-0.001056513
138	0xbdba3aff	-0.09093284
139	0x3d16a14e	0.036774926
140	0x3d46c409	0.048526797
141	0xbde9443a	-0.11389966
142	0xbd372f96	-0.044723116
143	0x3cfe125d	0.031014616
144	0xbc3de525	-0.011590277
145	0x3d7881eb	0.060670774
146	0x3be7629b	0.0070613152
147	0xbd9f08a7	-0.07765322
148	0xbd4f2475	-0.050571878
149	0x3de288ff	0.11061286
150	0x3de7cdc7	0.11318546
151	0xbd0359b7	-0.03206798
152	0xbcc4ddab	-0.02403148
153	0xba62f5d8	-0.00086578494
154	0xbd618180	-0.05505514
155	0xbd1594b2	-0.03651876
156	0xbbae4609	-0.0053184074
157	0x3cca8305	0.024720678
158	0x3d831668	0.06400758
159	0xbded56f2	-0.11588849
160	0x3d9a219f	0.07525944
161	0xbc320ebb	-0.01086777
162	0x3c7668e5	0.015039657
163	0x3dcabb07	0.09898954
164	0x3d5f476a	0.054511465
165	0x3cad7413	0.021173513
166	0x3c844eb4	0.01615081
167	0xbc574bc1	-0.01314062
168	0xbdc42225	-0.09576825
169	0x3dbb263e	0.091381535
170	0xbb86aaaf	-0.0041097025
171	0x3cf41554	0.029795326
172	0xbd747373	-0.059680413
173	0x3c1b127b	0.009464855
174	0xbc7c08f8	-0.015382998
175	0x3de906dd	0.11378262
176	0x3c800b88	0.015630499
177	0x3dde772e	0.108625755
178	0x3db88883	0.090104125
179	0xbd306613	-0.043066096
180	0x3ccbb398	0.02486591
181	0xbdeaf972	-0.11473359
182	0xbcee5083	-0.029091125
183	0xbe0938c0	-0.13400555
184	0xbd89d6f9	-0.06730456
185	0x3c6f266b	0.014596562
186	0x3aeac9bd	0.0017912906
187	0x3b247a01	0.0025097134
188	0xba716932	-0.0009209096
189	0xbc1b90e6	-0.009494996
190	0x3d8c96ca	0.06864698
191	0x3d6ff2d8	0.058581203
192	0x3dc9143f	0.09818315
193	0x3d5f8593	0.054570746
194	0x3d227334	0.039660648
195	0x3a511362	0.00079756055
196	0xbcef08a8	-0.029178932
197	0x3c600635	0.013673355
198	0xbe0a1e16	-0.1348804
199	0x3d3def0f	0.046370562
200	0x3daa2bf1	0.083091624
201	0xbc64b5ba	-0.013959343
202	0x3cbd423c	0.023102872
203	0x3cf55fb2	0.029952858
204	0x3d6151b8	0.055009574
205	0x3da4ca5b	0.08046409
206	0xbc8482f2	-0.01617572
207	0x3cae74ab	0.021295866
208	0x3d90ebf1	0.07076252
209	0x3bebfaf8	0.0072015487
210	0x3dee20b4	0.116273314
211	0x3d2ef157	0.04271063
212	0x3d954ba6	0.072898194
213	0xbd17d46c	-0.037067816
214	0xbdc2a4c0	-0.0950408
215	0xbd0e7f5f	-0.03478944
216	0x3bfd95fd	0.0077388273
217	0xbdc256f4	-0.09489241
218	0xbd3220ea	-0.04348842
219	0x3daa1c27	0.08306151
220	0xbd28c666	-0.041204832
221	0xbd7cc653	-0.061712574
222	0x3d53bc43	0.051693212
223	0x3cc50092	0.024048124
224	0xbde98e50	-0.11404097
225	0xbcb58800	-0.022159576
226	0x3da15bea	0.07878859
227	0xbccfd98e	-0.025372293
228	0x3d8295ca	0.06376226
229	0xbc3d7495	-0.01156344
230	0x3d08db73	0.033412408
231	0x3d8a56d3	0.06754842
232	0x3d327778	0.043570966
233	0xbd824ace	-0.06361924
234	0x3db910b0	0.09036386
235	0xbbfaee3d	-0.0076577947
236	0x3c54c84c	0.012987208
237	0x3ddfb8b4	0.10923901
238	0xbd6fcf4a	-0.058547296
239	0x3d5057c6	0.050864957
240	0xbd8670be	-0.065644726
241	0x3cc2a28e	0.023759153
242	0xbc326c05	-0.010890012
243	0x3d798338	0.060916156
244	0x3cc06cd9	0.023489403
245	0xbdde1356	-0.10843532
246	0x3d9a2310	0.07526219
247	0x3d8b27d3	0.06794705
248	0xbdac0233	-0.08398857
249	0xbd80324b	-0.062595926
250	0x3d0274dd	0.03184973
251	0x3df84863	0.12123182
252	0x3c8e7802	0.017391209
253	0xbbbbce5e	-0.005731388
254	0xbe1d74c4	-0.15376574
255	0x3c75f553	0.015012103

network_body._body_endoder.seq_layers.4.bias f4 [256]
0	0xbbedfe76	-0.007263
1	0x3d3394c5	0.04384305
2	0xbd40db5f	-0.04708421
3	0x3d0484d1	0.032353226
4	0x3cd08387	0.025453342
5	0xbc9419ea	-0.018078763
6	0x3cd40541	0.025881412
7	0xbcb24123	-0.021759575
8	0xbc01cac9	-0.007921883
9	0x3d7af6c2	0.061270483
10	0x3cb1c3ce	0.021699812
11	0xbcf2e33a	-0.029649366
12	0x3d016bce	0.03159695
13	0xbd119ba0	-0.035548806
14	0x3d2b3f27	0.041808274
15	0xbcf21d61	-0.029555025
16	0x3c85fe40	0.016356587
17	0x3c23aabb	0.009989436
18	0xbcbe68e5	-0.023243377
19	0x3d2cd933	0.042199325
20	0xbcc24064	-0.023712344
21	0x3d3fbee6	0.046812914
22	0xbca913b2	-0.020639274
23	0x3d2d3cd5	0.042294342
24	0xbcae7005	-0.02129365
25	0xba6d4f54	-0.00090526533
26	0x3d3ec59d	0.046575177
27	0x3a8d5103	0.001078159
28	0xbbd2a3f7	-0.0064282375
29	0x3d063dda	0.03277383
30	0x3d0e8055	0.034790356
31	0x3d104083	0.035217773
32	0x3d87f9bb	0.06639429
33	0xbc28b9e0	-0.010298222
34	0xbc4a5307	-0.012348897
35	0xbd1031aa	-0.035203613
36	0x3d55bd4c	0.05218248
37	0x3d771397	0.060321417
38	0xbc247e14	-0.010039825
39	0xbd00a003	-0.0314026
40	0x3d0a399c	0.033746347
41	0xbd15e736	-0.036597453
42	0xbd1a5c85	-0.03768589
43	0xbcbcc7ed	-0.02304455
44	0x3d16e2be	0.036837332
45	0xbd03796d	-0.032098223
46	0x3cc22b13	0.02370218
47	0x3cbbefe8	0.022941545
48	0x3d109e49	0.035307202
49	0x3d2b4431	0.04181308
50	0x3d3e44b2	0.04645223
51	0xbd344cf4	-0.0440187
52	0xbca0f1e4	-0.019646592
53	0x3cc990e8	0.02460523
54	0x3c9292c1	0.017892243
55	0xbd2a9237	-0.041643348
56	0x3bb2be71	0.0054548313
57	0x3a41ad42	0.0007388183
58	0x3d05cf8d	0.03266864
59	0x3cf9398b	0.030422946
60	0xbd5b8b74	-0.05359979
61	0x3d2e0bd1	0.042491738
62	0x3ba209c9	0.004945014
63	0xbd3613d0	-0.04445249
64	0x3d221990	0.03957516
65	0x3d194054	0.037414864
66	0xbc38aeee	-0.011272175
67	0x3d4944dc	0.049137935
68	0x3d33aeea	0.043867983
69	0x3d79f1fa	0.061021782
70	0xbd2cb940	-0.042168856
71	0x3cba464c	0.022738598
72	0x3d43bb98	0.047786325
73	0x3d319954	0.043359116
74	0x3b2d2fee	0.0026426273
75	0x3cac2b4d	0.021016741
76	0x3d45288f	0.048134383
77	0x3d40eecd	0.04710274
78	0x3d496ea6	0.04917779
79	0x3d0196fd	0.031638134
80	0x3cd5fee8	0.026122525
81	0x3d71133b	0.05885623
82	0x3d8391bc	0.06424281
83	0x3d133d53	0.035947155
84	0x3d532c3a	0.05155585
85	0xbd1392e4	-0.036028758
86	0x3d3217df	0.043479796
87	0xbcaf096f	-0.021366803
88	0x3d14f7f7	0.03636929
89	0x3c1a2ac7	0.009409613
90	0x3d53f8ab	0.05175082
91	0x3d17d8a7	0.03707185
92	0x3d34a8d8	0.044106334
93	0x3cdf2487	0.027239097
94	0x3d6a2e2d	0.057172943
95	0xbd3254e2	-0.04353798
96	0x3c8eb477	0.017420037
97	0x3d162b62	0.036662467
98	0xbbaf6056	-0.0053520603
99	0x3c812bf2	0.015768025
100	0x3d34e7bd	0.044166315
101	0xbc84486f	-0.01614782
102	0x3d0d1c13	0.0344506
103	0x3d08be10	0.033384383
104	0xbce30349	-0.027711527
105	0x3c5afd53	0.013366061
106	0xbc839d03	-0.01606608
107	0x3d2db400	0.04240799
108	0xbd32ef0e	-0.04368501
109	0xbc9ac0f0	-0.018890828
110	0xba50b06d	-0.000796086
111	0x3d2707a2	0.040778764
112	0x3cdfde01	0.02732754
113	0x3d7e0d81	0.062024597
114	0x3c6cb488	0.014447339
115	0x3a8e2a3b	0.0010846326
116	0x3cf3a79e	0.029743012
117	0xbd2ba989	-0.04190973
118	0x3c87d648	0.01658167
119	0x3d36ad30	0.04459876
120	0xbd10419d	-0.035218824
121	0xbcb59122	-0.022163931
122	0x3d4baff7	0.04972836
123	0x3d45b898	0.048271745
124	0xbc8c10a4	-0.017097779
125	0x3d1821ca	0.0371416
126	0x3d373569	0.04472867
127	0x3d37805c	0.044800147
128	0xba696844	-0.00089037814
129	0x3d164444	0.036686197
130	0x3d0368e5	0.032082457
131	0x3cb5bc95	0.02218465
132	0x3d334f1d	0.04377662
133	0x3d2fc3d7	0.042911377
134	0x3d3a8542	0.04553724
135	0x3d10391d	0.035210717
136	0x3be0df93	0.0068625896
137	0xbd398e5d	-0.045301784
138	0x3d355b39	0.04427645
139	0xbd1dbfca	-0.038512982
140	0x3d3c0f01	0.045912746
141	0x3d2b8930	0.04187888
142	0x3cd6d2f0	0.02622363
143	0x3ca67585	0.02031971
144	0xbd1956b0	-0.037436187
145	0x3d17192c	0.03688924
146	0x3d51927a	0.05116508
147	0xbbc8482f	-0.0061121206
148	0x3ca79a55	0.020459333
149	0xbb24a407	-0.0025122182
150	0x3b65ecb2	0.0035083708
151	0x3d4a4041	0.049377684
152	0x3d3fcd93	0.04682691
153	0x3cc57355	0.024102846
154	0x3d1d1ae5	0.038355727
155	0xbd0b883b	-0.034065466
156	0x3d5adff7	0.053436246
157	0x3d321baf	0.043483432
158	0x3d51c2fb	0.05121134
159	0x3d48fe42	0.049070604
160	0xbba78169	-0.0051118624
161	0x3d126669	0.035742197
162	0x3bc3b4c1	0.0059724753
163	0x3d1b04d6	0.03784641
164	0x3ccd28f5	0.025043944
165	0x3d38338e	0.04497104
166	0x3d29dd28	0.041470677
167	0xbd0b833c	-0.0340607
168	0x3b4ef3dd	0.003157846
169	0x3d4ee11e	0.050507657
170	0x3d30c8fc	0.043160424
171	0xbd052d6b	-0.032514017
172	0xbd1ce7ea	-0.038307108
173	0x3cbe68b0	0.023243278
174	0x3c80ad56	0.015707653
175	0xbce23146	-0.027611386
176	0xbc4358ee	-0.011923058
177	0x3ce7581c	0.028240256
178	0x3d521b53	0.05129559
179	0x3ccabac3	0.024747258
180	0xbd4998e6	-0.04921808
181	0x3a4c3ea9	0.00077913195
182	0x3d0e42b5	0.034731586
183	0xbd01c343	-0.031680357
184	0x3d1098c0	0.035301924
185	0x3d139fa3	0.036040913
186	0x3d0e0024	0.034668103
187	0xbcb834e7	-0.022486163
188	0x3d68ba5e	0.05681836
189	0x3c1a0326	0.009400165
190	0x3c0e87de	0.008699385
191	0x3c36da28	0.011160411
192	0x3d454bcf	0.048168
193	0x3c88de45	0.016707549
194	0x3d1acf71	0.037795488
195	0x3d49e27b	0.049288254
196	0xbbb902e3	-0.005646096
197	0x3cec9a49	0.028882163
198	0x3d1af36d	0.037829805
199	0xbcf93577	-0.030421002
200	0x3c547c37	0.012969068
201	0xbcc30433	-0.023805713
202	0x3d41ae49	0.047285352
203	0xbc0d3c89	-0.00862039
204	0xbc51a4a3	-0.0127956
205	0xbd05a102	-0.032624252
206	0x3cbe3d55	0.023222605
207	0x3ce43419	0.027856873
208	0x3d68272c	0.056677982
209	0x3c3f8f1e	0.011691837
210	0x3c181d3b	0.009284313
211	0x3d1f817f	0.038941856
212	0x3c3a022a	0.011353055
213	0x3d69f222	0.05711568
214	0x3d1d165c	0.0383514
215	0xbc982941	-0.018574359
216	0x3d48ca51	0.04902107
217	0xbbfc9193	-0.0077077835
218	0xbd5917f3	-0.053001355
219	0x3d0c432f	0.03424376
220	0x3d604d1e	0.054761045
221	0xbd0bdbf3	-0.034145307
222	0x3b366e1f	0.0027836633
223	0x3d324694	0.04352434
224	0xbd0e7354	-0.034777954
225	0x3d2a8134	0.041627124
226	0xbd28e1fd	-0.041231144
227	0xbd3346f6	-0.043768845
228	0x3c899b49	0.016797679
229	0x3d180aac	0.037119552
230	0xbd273c23	-0.040828835
231	0x3d49db2b	0.04928128
232	0x3d43ffa6	0.047851227
233	0xbc761590	-0.015019789
234	0xbca9811e	-0.02069145
235	0xbd1f9d7e	-0.038968556
236	0xbd103d58	-0.035214752
237	0x39036cae	0.0001253362
238	0xbaf1adc2	-0.0018438625
239	0xbd121731	-0.03566665
240	0x3d35286a	0.044227995
241	0x3d195634	0.037435725
242	0x3d06e0ed	0.03292935
243	0x3ae041c1	0.001710944
244	0x3cbcb9e0	0.02303785
245	0x3bd21037	0.0064106244
246	0x3cf65507	0.030069841
247	0x3d6d9098	0.057999223
248	0x3c55100c	0.013004314
249	0x3cd47a91	0.02593735
250	0x3c7a54a2	0.015278967
251	0x3d5b9541	0.053609136
252	0xbd02df09	-0.031950984
253	0x3cf9c7f7	0.030490858
254	0xbcdfb02f	-0.02730569
255	0x3c515b3d	0.012778101

network_body._body_endoder.seq_layers.4.weight f4 [256, 256]
0	0xbd688be2	-0.056774028
1	0x3cd55db7	0.026045663
2	0x3caa369e	0.020777997
3	0xbd5019b7	-0.050805774
4	0x3cd8297e	0.026386973
5	0xbce8b32c	-0.028405748
6	0x3cf51c8d	0.02992084
7	0x3dd95387	0.10611635
8	0xbd42aa7a	-0.04752586
9	0x3d121c84	0.035671726
10	0xbc3f98ba	-0.011694128
11	0x3d6b24eb	0.057408255
12	0xb8b3f7d9	-8.58155e-05
13	0x3caf8995	0.021427909
14	0x3d0b5543	0.03401686
15	0xbd28d9da	-0.041223384
16	0x3d152fb9	0.036422465
17	0x3cdb27cc	0.026752375
18	0x3d23aea9	0.03996149
19	0x3da0185c	0.07817146
20	0x3e0a029d	0.1347756
21	0xbc6db49e	-0.0145083945
22	0xbcea93ee	-0.028634991
23	0xbd497913	-0.04918773
24	0x3cba5baf	0.022748796
25	0x3e001ff3	0.12512188
26	0xbd46093e	-0.048348658
27	0xbd2b8eb2	-0.04188413
28	0x3aaeb3b7	0.0013328706
29	0x3b861ac0	0.0040925443
30	0xbd874e82	-0.06606771
31	0xbc24a1e3	-0.010048362
32	0xbd08ab13	-0.033366274
33	0x3c8fd6b7	0.017558439
34	0x3d5d5746	0.05403831
35	0x3c02b89f	0.007978587
36	0x3cfda35d	0.030961687
37	0xbcd5e8d9	-0.026112007
38	0xbd15f036	-0.036606036
39	0x3d024ce2	0.031811602
40	0xbd503e04	-0.050840393
41	0x3d41b6c3	0.047293436
42	0xbcfa8b3d	-0.030583972
43	0x3dcce0a4	0.10003784
44	0xbc744dcc	-0.014911126
45	0xbe0acd08	-0.13554776
46	0xbc192567	-0.009347296
47	0x3d833fa5	0.064086236
48	0xbd0f50dd	-0.034989227
49	0xbd99f468	-0.0751732
50	0xbd9fcb4d	-0.078024484
51	0x3e045159	0.12921657
52	0xbd976dcc	-0.07393989
53	0xbccfb5ab	-0.02535518
54	0x3dcb22c6	0.09918742
55	0xbdc83fd9	-0.09777803
56	0xbdbf34ed	-0.09336267
57	0xbdbf3b6f	-0.09337508
58	0xbd883829	-0.06651337
59	0xbda712e1	-0.08157898
60	0x3c8ef0a1	0.017448725
61	0xbd838754	-0.06422296
62	0x3d660358	0.056155533
63	0xbd248f15	-0.040175516
64	0xbc3c3319	-0.011486792
65	0x3d6fe68d	0.05856948
66	0xbde3f934	-0.11131516
67	0x3d24128f	0.04005676
68	0x3c9c46ad	0.01907667
69	0xbd26df92	-0.040740557
70	0x3b92cb38	0.004479792
71	0xbc9be4d7	-0.019030018
72	0x3d52f8a9	0.051506672
73	0xbd4bd7cb	-0.049766343
74	0x3de94e01	0.11391831
75	0xbd8dd9cb	-0.06926306
76	0xbcb48cd0	-0.0220398
77	0xbbb40763	-0.0054940446
78	0x3d259c01	0.04043198
79	0x3d7b6f62	0.06138552
80	0xbdbd7fe9	-0.092529126
81	0xbc4d3235	-0.012524177
82	0xbd47d1d0	-0.048784077
83	0xbe049ed9	-0.1295122
84	0xbc9e7923	-0.019344872
85	0xbd3cf9fd	-0.046136845
86	0x3bc2e129	0.0059472513
87	0x3d09135e	0.033465736
88	0xbc4f7480	-0.012662053
89	0xbdb046f7	-0.086072855
90	0xbda8adb3	-0.082362555
91	0x3b7adde4	0.003827923
92	0x3d0ddeb3	0.03463621
93	0xbd949f3e	-0.072569355
94	0x3e03982d	0.12851019
95	0x3e1b6371	0.15174653
96	0x3ca84f0e	0.020545509
97	0x3cc40545	0.023928294
98	0x3dafd7a3	0.08586051
99	0xbd8d7432	-0.06906928
100	0x3d1910c4	0.037369505
101	0xbdb01c5b	-0.085991584
102	0x3c338d35	0.010958959
103	0x3d252bc8	0.040324956
104	0x3e01f829	0.12692322
105	0xbc6841f7	-0.0141758835
106	0x3d20943a	0.03920386
107	0xbda7b94b	-0.08189639
108	0x3c8ef9bf	0.017453073
109	0xbd2678ff	-0.040642735
110	0xbde695a2	-0.11259009
111	0xba92ebd7	-0.0011209202
112	0xbdc5e11a	-0.09662075
113	0x3d0cf5d1	0.034414116
114	0x3d35b54a	0.044362344
115	0xbda48b5d	-0.08034394
116	0xbdf996b0	-0.121869445
117	0x3c564f5b	0.013080443
118	0x3db09fbf	0.08624219
119	0xbcc92a3e	-0.024556275
120	0x3ac88d58	0.0015300913
121	0x3c48e90c	0.012262594
122	0x3d0afa3e	0.033930056
123	0xbd52d569	-0.051473055
124	0x3d870c64	0.0659416
125	0xbdea6097	-0.11444204
126	0x3d081cc4	0.033230558
127	0xbdcf0e2f	-0.10110127
128	0x3c94d6ca	0.018168826
129	0x3da1312d	0.07870708
130	0xbcad4b03	-0.021153932
131	0xbda85d5b	-0.08220931
132	0xbd185677	-0.037191834
133	0xbdf8f217	-0.1215555
134	0x3d6b1d5b	0.057401042
135	0x3da77d0e	0.08178149
136	0xbcdc7aa8	-0.026913956
137	0x3cf06f0f	0.029349832
138	0xbd2221bc	-0.039582953
139	0x3d6bc813	0.057563853
140	0x3c3d5073	0.011554825
141	0x3de5f673	0.11228647
142	0x3d62e0df	0.055390235
143	0xbd7129b7	-0.058877673
144	0x3db7c768	0.089735806
145	0x3d0fb027	0.0350801
146	0xbd596238	-0.053072184
147	0x3bc74d6b	0.006082227
148	0xbd8dbe4a	-0.069210604
149	0x3c9992c1	0.018746736
150	0x3d1aa371	0.037753526
151	0x3d5750e5	0.05256738
152	0x3d457048	0.048202783
153	0xbd388e54	-0.04505761
154	0xbd2498cf	-0.040184792
155	0x3da980d8	0.08276528
156	0xbd1501ff	-0.036378857
157	0x3d7ad854	0.061241463
158	0x3d63b296	0.055590235
159	0xbd4656a6	-0.04842248
160	0x3cb4fb84	0.022092588
161	0x3dde13de	0.10843633
162	0x3d145e8e	0.036222987
163	0x3d261923	0.040551316
164	0x3da021ce	0.07818948
165	0xbd1fbdf6	-0.03899952
166	0x3c954ff1	0.018226596
167	0x3e0f77eb	0.14010589
168	0x3d602937	0.054726806
169	0x3ca5690d	0.020191694
170	0x3dbb939f	0.09159016
171	0x3ceb30a6	0.02870972
172	0x3d733533	0.059376907
173	0x3da0ee9b	0.078580104
174	0xbd0dcd22	-0.034619458
175	0xbc6d5725	-0.014486109
176	0x3da342f2	0.07971753
177	0xbe0da157	-0.13831078
178	0xbd1d60d3	-0.038422417
179	0xbc34d702	-0.01103759
180	0x3afcf535	0.0019299152
181	0xbdc80523	-0.09766605
182	0xbc1d3b0c	-0.009596597
183	0x3da08398	0.078375995
184	0xbe059a26	-0.13047084
185	0xbd4a65ba	-0.04941342
186	0x3d590fa5	0.052993435
187	0x3d6f7153	0.058457684
188	0x3c006c55	0.007838328
189	0x3c91325c	0.017724209
190	0x3d9497e5	0.07255534
191	0xbc91cfe1	-0.01779932
192	0x3d08d748	0.033408433
193	0x3d85111e	0.064974055
194	0x3d85dfab	0.06536802
195	0xbe08535b	-0.13313048
196	0xbdc0c052	-0.09411682
197	0xbd8272b4	-0.06369534
198	0xbe18202a	-0.1485602
199	0x3d8f0b72	0.06984605
200	0xbd5b4e89	-0.053541694
201	0x3d55c539	0.05219004
202	0x3cdb8233	0.026795482
203	0x3e030c6e	0.1279771
204	0x3d3ea7e3	0.046546828
205	0xbca978b7	-0.020687444
206	0xbd940408	-0.072273314
207	0xbc527e52	-0.0128475
208	0xbc93b704	-0.018031605
209	0x3d146684	0.03623058
210	0x3da6946a	0.081337765
211	0xbbae4d71	-0.0053192903
212	0xbd7c1009	-0.06153873
213	0xbd5b9da5	-0.05361714
214	0xbc11df3e	-0.008903323
215	0x3dc1a736	0.09455721
216	0x3d5d940f	0.054096278
217	0x3e03d9fe	0.12876126
218	0x3d41bc15	0.04729851
219	0xbd9d0476	-0.076668665
220	0xbd1a39bf	-0.037652727
221	0xbc8167a1	-0.015796484
222	0x3d5807f0	0.052741945
223	0xbd93e387	-0.07221132
224	0xbd1c32ab	-0.03813426
225	0xbdde1434	-0.10843697
226	0x3b38f473	0.0028221875
227	0xbb9918d7	-0.0046721506
228	0x3dc3f9bd	0.09569118
229	0x3d659a6e	0.05605548
230	0x3da76b74	0.08174792
231	0x3da3e36a	0.0800236
232	0x3c75dca6	0.01500622
233	0xbd5e6050	-0.05429107
234	0x3df695fe	0.120403275
235	0xbd872946	-0.06599669
236	0x3e18ac68	0.14909518
237	0xbc15af6a	-0.00913606
238	0x3d30b9fc	0.04314612
239	0xbd2b0b0b	-0.04175858
240	0xbcdd03aa	-0.026979286
241	0xbdeefba9	-0.11669094
242	0x3d3760e4	0.044770136
243	0xbcfbbd3d	-0.030729884
244	0x3c9f7010	0.019462615
245	0xbce5b2ef	-0.028039424
246	0x3cf48b22	0.0298515
247	0xbd02678b	-0.031837028
248	0xbdda62e7	-0.106633954
249	0xbca7752a	-0.02044161
250	0xbbbde98f	-0.0057956646
251	0xbda74504	-0.081674606
252	0x3d37c42a	0.04486481
253	0x3c328241	0.010895313
254	0x3d2cddeb	0.042203825
255	0x3d20c857	0.03925356

network_body.observation_encoder.processors.0.normalizer.running_mean f4 [6]
0	0x423859c1	46.08765
1	0x418af045	17.36732
2	0x427221c0	60.53296
3	0xc2011f6e	-32.280693
4	0x3fb331fa	1.3999627
5	0xc28e5106	-71.15825
