Assets/Training/results/learn_v5/MarsTaxi/MarsTaxi-1499978.onnx (onnx, 542464 bytes, 10 tensors)

54 f4 [6]
000000 1e 36 10 42 38 e5 4f 41 b7 2c 4a 42 cb 4b d8 3c
       36.05285 12.993462 50.543667 0.026403328
000010 7f 46 b8 3a 43 41 6e 3d
       0.0014059095 0.058167707

action_model._discrete_distribution.branches.0.bias f4 [6]
000000 72 f3 7d 3d 4c 27 c6 3c 8e eb 37 bd 59 76 37 bd
       0.061999746 0.02418866 -0.044902377 -0.0447906
000010 7b 24 94 3c 93 ac 40 bd
       0.018083801 -0.04703958

action_model._discrete_distribution.branches.0.weight f4 [6, 256]
000000 aa 2d a4 3c e5 4a ce 3c 15 99 5c 3d 38 07 58 bd
       0.020041306 0.025182197 0.053856928 -0.05274126
000010 b1 23 29 3d fa b7 d2 ba 52 11 7f 3c a2 f8 74 3d
       0.041293804 -0.0016076558 0.015568094 0.059807427
000020 cf fe 07 bd 6c dd c7 ba 7f 76 b1 bd 83 ff 06 bd
       -0.03320199 -0.0015248484 -0.086651795 -0.03295852
000030 33 23 05 3c 7f 05 83 3d e2 60 df 3c 4e f1 69 bd
       0.008126068 0.06397533 0.027267877 -0.05711489
000040 b3 01 b7 3c a2 ef 92 bc 81 90 8f 3c a3 66 8e bd
       0.022339677 -0.017936531 0.01752496 -0.0695317
000050 36 27 31 ba 2f c1 06 3c ad 8c 19 3d da 7c 21 3d
       -0.0006757857 0.0082247695 0.037487675 0.03942571
000060 db 34 5d 3c 1e 0d 3c 3d 05 b4 7f bc 49 1c 92 3a
       0.013501371 0.045910947 -0.015606885 0.0011147346
000070 82 c0 7a 3d d8 0e 67 bd 32 8d 98 bc 57 c9 1f 3d
       0.061218746 -0.05641064 -0.018622015 0.039010372
000080 d4 7c 8e bd bb 53 53 3d 6f a9 c9 3c 7e 65 27 3d
       -0.06957403 0.051593523 0.024616925 0.040868275
000090 c1 33 77 3d 6e 47 a9 3c 4a 3f 39 3d b4 73 da bd
       0.06035209 0.020663943 0.045226373 -0.106666
0000a0 9d 9c 97 bd eb 53 45 3c 25 40 8d ba 62 34 9e bd
       -0.074029185 0.012043933 -0.0010776563 -0.07724835
0000b0 d6 f6 50 3d a8 3a 0a 3d 35 2e 42 bd e2 f3 9d 3d
       0.05101665 0.033747345 -0.047407348 0.077125326
0000c0 25 6c 30 3d 9b d0 8a 3c be 7a e7 bb 2a ca d8 3c
       0.043071885 0.016945174 -0.0070641926 0.026463587
0000d0 a9 79 5f bd 2d d5 5e bd fc 7e 0b bd 71 6d c6 bd
       -0.054559384 -0.05440252 -0.03405665 -0.09688843
0000e0 e3 15 06 bb 19 c2 02 3c 2d d7 bb bc 09 47 90 3c
       -0.0020459823 0.007980847 -0.022929752 0.017611997
0000f0 0b cf b6 bc 24 61 87 bd c8 16 33 bd d5 a0 ae 3c
       -0.022315523 -0.06610325 -0.043722898 0.021316925
000100 15 c6 94 3c a4 d0 3f 3d a4 a1 03 bd 09 e9 26 3d
       0.01816086 0.046829835 -0.032136574 0.040749583
000110 bf dc cb 3c 54 a2 e8 3c 7e b5 5b 3d ee 56 86 3d
       0.024885533 0.028397717 0.05363988 0.06559549
000120 54 10 05 bc 37 7e 0b 3b 90 5e 9a bd d3 88 7d bc
       -0.008121569 0.0021284947 -0.075375676 -0.015474516
000130 89 4b 1c 3d 76 08 65 3c 63 3c b8 bb ba ed cc 3c
       0.038157973 0.013979068 -0.005622433 0.0250157
000140 14 d6 0a 3d f9 7f 02 bd f1 5b 70 3d 78 08 f1 3b
       0.033895567 -0.031860325 0.058681432 0.007355746
000150 a8 7a d3 bb cb 99 be 3c e1 a3 ac bd 7c 6e 9c bd
       -0.0064538307 0.023266694 -0.08429695 -0.07638261
000160 3e d2 4c bd 8c 9f fe bc 36 90 9a 3b c9 98 a2 bc
       -0.05000519 -0.031081937 0.0047168983 -0.019848244
000170 bc 4d f3 bd ba ac 8c bc 34 9c ac 3b d0 a3 15 3d
       -0.11880061 -0.017172206 0.0052676443 0.036533177
000180 63 03 dc bd 35 b6 e2 3c 4a 33 60 bd ff d8 5c 3c
       -0.107428335 0.027674774 -0.054736413 0.01347947
000190 9d 1a 1a 3c b3 26 84 bd 4c fc 7a bd 32 dd 36 bd
       0.009405759 -0.06452694 -0.061275765 -0.044644542
0001a0 50 dd fe bc d8 f8 6f 3c 78 17 cb 3c 1f a8 03 bd
       -0.03111139 0.014646731 0.024791464 -0.032142755
0001b0 ae 7b 39 3d c0 65 f3 bd c2 b3 30 3d a8 d3 c3 bd
       0.045283966 -0.11884642 0.04314018 -0.095618546
0001c0 45 e5 62 3c fb 19 38 bd 21 7f 22 bc d5 bb 0a 3d
       0.013848607 -0.044946652 -0.009918005 0.033870537
0001d0 ac 05 31 bd 45 35 15 3d 70 00 fd bc bc 60 a9 bc
       -0.0432183 0.036427755 -0.030883998 -0.02067601
0001e0 06 91 a1 3b d1 c0 a1 bd aa d6 3a 3b 18 77 c9 bc
       0.004930618 -0.07898105 0.0028509297 -0.024592921
0001f0 ac bb 92 3d fa ba 66 3d 5c 41 c9 ba 7c 06 4c 3c
       0.07164702 0.05633066 -0.0015354562 0.012452718
000200 7b b4 8b 3d 07 d3 00 3d 82 fc d6 bb ce 24 9c bc
       0.06821533 0.03145125 -0.006560863 -0.019060519
000210 bf 51 9d bd dd c1 bd 3d 78 81 88 3c 48 1c 16 3d
       -0.076816075 0.09265492 0.016663298 0.036648065
000220 ff ff ae bd 5a 5c 43 bd 4a 1d 81 3c db e5 9b 3b
       -0.08544921 -0.047695495 0.015761036 0.0047576255
000230 74 70 d7 bc d0 8a 67 3c 8e 59 c7 3c ee a9 2f bd
       -0.026298739 0.014132217 0.024334695 -0.042886667
000240 84 31 96 bb c3 3a 93 3c 1a d7 3b 3d 68 28 dc bc
       -0.0045835394 0.017972356 0.045859434 -0.026874736
000250 69 18 91 bc e9 d1 ff 3c 3f 69 e3 bb 69 1f 1d 3c
       -0.017711835 0.031228023 -0.0069400365 0.009590008
000260 13 78 f1 3b c7 61 d2 3c fb 01 14 3d dc 93 49 3d
       0.0073690503 0.02568139 0.0361347 0.049213275
000270 e2 47 8c bd 2d 04 39 3d 46 5d 3c bc ed 1b 2f bd
       -0.06849648 0.045169998 -0.0114968475 -0.04275124
000280 88 2a b2 3c 2f 2d b1 3c 0d 60 56 bd 8e 4c 31 3d
       0.021748796 0.02162799 -0.052337695 0.0432859
000290 24 f4 15 3d b2 9c 38 bd 37 94 b9 bd 02 26 72 bd
       0.036609784 -0.04507131 -0.09061473 -0.05911828
0002a0 ff c2 97 bd 15 57 9d bc 6c 35 60 3c 8d af 2d bd
       -0.074102394 -0.019206563 0.013684612 -0.042403746
0002b0 42 fd 66 bd 1a 78 83 3b 9a 05 e5 3c ad ab 5b 3c
       -0.05639387 0.00401212 0.027956773 0.01340763
0002c0 f1 e8 8c 3c 28 84 10 bd c3 6f 3f bc 76 73 3c 3d
       0.017200919 -0.035282284 -0.011684361 0.04600855
0002d0 0d 8b 81 3c 4b a7 37 3d 07 a4 ee 3c 18 9d 10 3b
       0.015813375 0.044837277 0.029130949 0.0022066291
0002e0 55 ca 6b 3d c3 7a 6d 3d f0 4a 06 3d d3 41 63 3d
       0.057566006 0.057978403 0.03278631 0.055482697
0002f0 82 3c 36 3d e9 78 37 3c de 2b 9e ba 8a e0 4f 3d
       0.0444913 0.011198261 -0.0012067517 0.050751247
000300 2e 65 c7 bd c9 33 2f 3d cb cc c4 bd dc 2f cb bd
       -0.09736095 0.042773996 -0.09609374 -0.09921238
000310 73 98 71 3d 4b 18 77 bc 8a 2a 22 bd 87 50 04 3d
       0.058983278 -0.0150814755 -0.03959135 0.03230336
000320 2b 32 41 bd f1 7b ae 3c e4 0f b7 bb 10 11 94 3c
       -0.047166985 0.021299334 -0.005586611 0.018074542
000330 b0 11 8a bd d5 09 12 3d 3a 7b 41 3c 1c 6f bd 3c
       -0.06741655 0.035653908 0.011809165 0.02312427
000340 c5 ed b6 bb f3 b4 0a bc 36 cb 3f 3d 2a 05 e2 bc
       -0.0055825436 -0.008465993 0.046824656 -0.027590353
000350 66 dc da bd 40 f3 60 3c 26 7d 22 bd 65 85 f0 3c
       -0.10686569 0.01372987 -0.039670132 0.029360482
000360 fe 5c c6 bd 05 e0 57 3d b0 4d 9a bc e9 e7 46 3c
       -0.096857056 0.052703876 -0.018835872 0.012140253
000370 7c c6 bd bd 6f 31 eb 3c 7b 16 c6 bd 5a 2a 52 3d
       -0.092663735 0.028710095 -0.096722566 0.05130992
000380 de fc 98 3d ce 15 69 3d d5 c9 8c bd 2c 08 09 bd
       0.074701056 0.05690556 -0.06874434 -0.03345506
000390 bb e0 16 bc 7a 19 2d 3d 2e d3 06 3d 27 b8 37 bc
       -0.009208853 0.042260624 0.03291624 -0.011213339
0003a0 12 6a 71 3d d2 65 53 3d 4a 8c 3c 3d 61 84 ca bc
       0.058939047 0.051610775 0.046032228 -0.024721326
0003b0 e1 92 74 3d 25 b5 a2 3c bc 07 47 3d 16 c6 48 bd
       0.059710387 0.019861767 0.04859136 -0.049017034
0003c0 35 fd 35 bd 2e 2e 17 3d 9e de 91 bc 9d b0 34 bd
       -0.04443093 0.036909275 -0.017806347 -0.044113744
0003d0 dd 3f ae 3c 8d 27 86 bb 14 91 58 bd 1d c9 4b 3d
       0.021270687 -0.0040940703 -0.052872732 0.049752343
0003e0 2b 32 01 3d 96 05 93 3d 87 86 bb bd c1 da 94 3d
       0.031541985 0.071788 -0.091565184 0.072682865
0003f0 ec dd ed 3c fa ae 2d bd 39 3b c6 3c bd b4 dd 3b
       0.029036485 -0.0424032 0.024198161 0.0067659304

network_body._body_endoder.seq_layers.0.bias f4 [256]
000000 c7 8c c4 3d 23 54 1a bd 31 8d b2 3d b3 9d b3 bd
       0.09597164 -0.037677895 0.087183364 -0.08770313
000010 bf 59 db 3d 3f c9 ae 3d 99 50 3f 3d 2d b4 1e 3e
       0.10710477 0.085344784 0.046707723 0.15498419
000020 ec ba de 3d 59 ce b3 bd 63 fc 29 3e 06 9f 22 bd
       0.10875496 -0.08779592 0.16600184 -0.039702438
000030 ce 41 3b b9 8c 47 af 3d d4 d9 cb bd 70 a9 82 bd
       -0.00017858224 0.08558568 -0.09953657 -0.06379974
000040 55 65 e2 3d b9 18 68 bb 09 75 98 3c 57 c9 47 3d
       0.11054484 -0.0035415126 0.018610494 0.048775997
000050 f8 02 94 3d 7a a1 7c bd ca 59 4e 3c 91 6d 85 bd
       0.07227129 -0.061677434 0.01259465 -0.06515039
000060 3e 28 32 3c 0f 56 71 bc c7 a4 14 3e a7 6c 94 3b
       0.010873852 -0.014729991 0.14515983 0.004529554
000070 46 cf af 3d af 13 78 3d 25 57 1b 3c 74 ca 84 bd
       0.08584456 0.060565647 0.009481226 -0.06483927
000080 b0 3c e5 3d 14 5b fd 3d 8d 7f 05 3e 64 ae 95 3d
       0.11193216 0.123708874 0.13036938 0.07308653
000090 94 5b 2c 3d df 55 4a 3d c1 28 7b 3d 44 9b 84 3d
       0.042079523 0.0493983 0.061318163 0.06474927
0000a0 d4 b8 02 3e 46 9f 31 3e 01 1c 1d 3e 62 e8 6b bd
       0.12765819 0.17345914 0.15342714 -0.057594664
0000b0 92 88 bc bd c1 87 87 3d 96 09 3c 3c 04 e0 98 bd
       -0.09205736 0.0661769 0.011476895 -0.074646026
0000c0 08 58 a3 3d a7 61 11 3d 11 43 da 3d d4 9e fe 3d
       0.07975775 0.03549352 0.10657323 0.12432638
0000d0 35 42 8c 3d 74 4a ae 3c 5a b3 af bd e3 ee a2 3c
       0.068485655 0.021275736 -0.085791305 0.0198893
0000e0 65 ba 35 bd 86 54 14 3e cd 1f a8 3d 59 51 c1 bd
       -0.044367213 0.14485368 0.082091905 -0.09439344
0000f0 be 99 6c bd 8a ea 97 3d a0 bc d2 3d ef 0c 0e 3e
       -0.057763807 0.07417782 0.102898836 0.13872121
000100 b4 af c3 3d 68 74 a1 3d da 82 12 3e fa 74 a2 bd
       0.09554997 0.07883531 0.14307728 -0.07932468
000110 6b 47 c6 3c 7e a6 32 3d c1 2f e8 3d 8b 09 91 bd
       0.024203977 0.04361581 0.11337233 -0.07081898
000120 48 04 1a bd 2d 7e c7 3d 49 f2 e7 3d fa 7a c2 3d
       -0.03760174 0.09740863 0.11325509 0.09496112
000130 ac de 94 3d cf 0e f1 3d 7d 4e 05 3d 11 46 60 3c
       0.07269034 0.11770403 0.032545555 0.01368858
000140 e5 e9 af 3d 66 2b 05 3e 8c f7 d9 3d b8 f7 1e 3e
       0.08589534 0.13004836 0.10642919 0.15524185
000150 45 4a e7 3c 24 38 b5 bd 39 62 28 3d 12 a7 ab 3d
       0.028233657 -0.088485986 0.041109297 0.083814755
000160 f1 a4 e6 3d 2e 58 a6 3d e3 30 b9 bd fb 21 e8 3d
       0.11261929 0.08122288 -0.090425275 0.11334606
000170 3f 1b 85 3d 9b 76 a6 3d 25 c1 db bc 27 4c f7 3c
       0.064993374 0.08128091 -0.026825497 0.03018768
000180 0c f4 9c bd f0 dd c9 3b 44 8b 98 3d b8 9c bf bd
       -0.07663736 0.00616049 0.07448438 -0.093560636
000190 44 4e f9 3d ba 04 e2 3d be 49 26 3e 2e 65 52 bd
       0.12173131 0.11036058 0.16239068 -0.051366024
0001a0 92 e6 c5 bd 24 08 40 bd ec 97 a5 bd ca db b3 3d
       -0.096631184 -0.046882764 -0.080856174 0.08782156
0001b0 a0 83 c2 bc 5b 03 83 3d 0b 67 b4 3c 80 67 96 3d
       -0.023744404 0.063971244 0.022021791 0.0734396
0001c0 0f 7d c0 3c 57 bb 0d 3d da 43 ad 3d 6c b3 c7 3d
       0.023497133 0.03460249 0.08460207 0.09751019
0001d0 cb 73 82 3c 66 b2 dd bb 32 92 54 bb 3c a1 c7 bd
       0.015924355 -0.0067656515 -0.0032435772 -0.0974755
0001e0 ff 4d 99 3d 73 a7 45 3d 46 ea 66 bc 72 b4 f8 3d
       0.0748558 0.048255395 -0.014093941 0.12143792
0001f0 ef 8c a2 3d d1 aa b4 3c c0 3c 3c bd c5 2a ea 3d
       0.07937037 0.022054108 -0.045956373 0.11433939
000200 f5 ef 9f 3d d7 43 aa bd bf 71 32 bd b0 f8 bb bd
       0.0780944 -0.08313721 -0.043565508 -0.09178293
000210 1e 78 c0 bc de 0e 09 bb 0d fc 51 3d 0c 1a cd 3d
       -0.023494776 -0.0020913403 0.051265765 0.10014734
000220 3b 98 b9 3d ea 57 2c bd 19 63 c7 3d ad 50 b5 3d
       0.09062239 -0.04207603 0.09735698 0.08853278
000230 5a 89 86 3d e2 32 f4 3d 2e 8d 75 3d 84 98 46 3d
       0.065691665 0.119237676 0.059949093 0.048485294
000240 9d 8a e4 3d ce ed b0 3d ef 64 ae 3c 29 77 b6 3d
       0.11159251 0.08639108 0.021288363 0.08909447
000250 22 e4 8a 3d 39 28 c4 3d dc d3 63 3d 77 5f 16 3e
       0.06781794 0.09577984 0.055621967 0.14684854
000260 03 8e 32 bd 50 43 95 3d 6f f4 c0 3d 74 7c fd 3d
       -0.043592464 0.072882295 0.09421622 0.12377253
000270 04 8e 06 3e 87 9e 08 3e 4c 00 d8 3c 02 5c 28 3d
       0.13140112 0.13341723 0.026367329 0.04110337
000280 92 ca 7a bc f4 44 09 bd e5 07 e2 3d 62 6f 1d bd
       -0.015307086 -0.033513024 0.11036662 -0.0384363
000290 dd fa 67 bd fa 78 13 3d dc e1 b9 3d ca 3b d5 bc
       -0.056635726 0.036004044 0.090762824 -0.026029486
0002a0 25 4c b3 3c 8b df 2a bd 54 73 ce 3d 2f e9 51 3d
       0.021886894 -0.041717093 0.10080591 0.05124777
0002b0 eb dc fd 3d 67 4d a5 3d 92 0e 0b 3e 55 97 56 bd
       0.123956524 0.08071404 0.13579777 -0.052390415
0002c0 78 ac 58 bc 99 ac 1a 3e 03 a5 22 3d 9a 16 eb 3d
       -0.0132247135 0.15104903 0.03970815 0.1147892
0002d0 57 f1 57 bd e6 4b 11 3e b1 8e 8d 3d 40 a4 1e bd
       -0.052720394 0.14189109 0.06911982 -0.03873086
0002e0 eb 73 ab 3d 2f 37 2a bd 66 98 e9 3d 0e e3 e0 bd
       0.08371719 -0.041556533 0.11406021 -0.10980807
0002f0 97 23 fa bc 21 ee 12 3e f0 e4 5f 3d 32 f9 fe 3c
       -0.030534549 0.14348651 0.05466169 0.031124685
000300 24 0e f3 3d 7e bc cd 3d 40 d3 c2 3d 84 a8 9f bd
       0.118679315 0.10045718 0.09512949 -0.07795814
000310 ae d3 db 3c 1f 5b f4 bc 21 f0 bf 3c 22 c3 94 bd
       0.026834335 -0.029828606 0.023429932 -0.07263781
000320 f2 de 97 3d 60 6c cb 3d 76 d8 89 3c a0 3a 0e 3e
       0.0741557 0.0993278 0.01682685 0.13889551
000330 a4 91 34 3d 60 a6 c9 3d 20 3e a7 3d 44 5d b9 bb
       0.044084206 0.09846187 0.08166146 -0.00565687
000340 0b fa 89 3d 0a 3d 83 3d 12 ef e1 3d 1b 20 8e 3c
       0.06737145 0.06408127 0.11031927 0.017349293
000350 dc 2a 07 3d 5e 99 7a bc b3 7f c5 3d 42 9e f2 3d
       0.03299986 -0.015295355 0.09643497 0.118465915
000360 f6 da 23 3d 74 02 79 3d 75 0d 66 bc 6e b1 7c 3d
       0.04000374 0.060793355 -0.014041294 0.061692648
000370 d7 27 0d 3e 0e 03 91 bd 32 11 14 bd 94 c5 36 3d
       0.13784729 -0.07080661 -0.03614921 0.04462202
000380 15 bb b4 3d 29 f3 9c 3d c7 9a 98 3d ef 42 e9 3d
       0.088247456 0.076635666 0.074513964 0.1138972
000390 4d 5b 11 3d e2 b7 cd 3c f1 33 6f 3d df d4 07 be
       0.03548746 0.025112096 0.058399145 -0.13264798
0003a0 62 18 57 bc 5a 69 ad 3d 59 85 a2 3d 20 62 1a 3e
       -0.013128372 0.0846736 0.0793559 0.15076494
0003b0 30 be 22 3d 40 73 01 3e 66 15 09 bd 46 b4 d9 3d
       0.03973216 0.1264162 -0.033467673 0.106300876
0003c0 92 43 8b 3d 59 0f bc bb 8d fa d2 3d f4 a7 de 3d
       0.067999974 -0.0057391343 0.10301695 0.10871878
0003d0 c5 a0 e2 3c 47 84 c7 3d 48 02 bd 3d d5 41 f3 3d
       0.027664552 0.09742027 0.09228951 0.11877791
0003e0 db 4e c5 3d 71 d3 92 3c c1 3f 17 3e 0e 3a c2 3d
       0.09634181 0.017923089 0.14770414 0.09483729
0003f0 7c f9 a0 bc 61 37 97 3c e6 bb 75 3d ac 17 be 3d
       -0.019650213 0.018459024 0.059993647 0.09281859

network_body._body_endoder.seq_layers.0.weight f4 [256, 6]
000000 40 80 f6 be 25 fd 27 be 56 d5 64 3e ba 0e 06 be
       -0.48144722 -0.1640516 0.22347006 -0.13091555
000010 3e 9e a5 3e 5b 7a 59 3e b0 54 b2 3e 98 18 88 bf
       0.32347292 0.21238081 0.34830236 -1.0632505
000020 7f 77 31 3c da 6e 20 3f a6 9d 87 3e e1 72 08 bd
       0.010831713 0.62669146 0.26487464 -0.033312682
000030 76 9d 0f 3f 85 80 bd bd a3 0a b9 bc bd 56 4a 3e
       0.5609964 -0.09253029 -0.02258808 0.1975965
000040 83 b6 bf be a7 5d 08 bf 3c 96 39 bd f4 41 85 bf
       -0.37443933 -0.532679 -0.04530929 -1.0410752
000050 26 c9 ad 3d 36 de a6 be ce b7 75 bd 1d 78 d5 3e
       0.08485632 -0.32591408 -0.059989743 0.41693202
000060 ad 46 8b be 64 3a 62 3e c2 25 c7 be 5e 3e 6b 3e
       -0.2720236 0.22092587 -0.38895994 0.2297301
000070 b1 86 55 3e 6c fe 2a bf 6c 52 32 3f e8 53 39 3c
       0.20852162 -0.66794467 0.69657016 0.011311509
000080 c3 ee 14 3f 8f 91 e1 3e f4 bf b1 be 39 61 86 bf
       0.5817682 0.44056365 -0.3471676 -1.049842
000090 11 cf d4 3e e0 30 8e be b2 41 dd bd 81 a4 e7 3e
       0.4156423 -0.27771664 -0.10803546 0.45242694
0000a0 25 50 0d be ad 6a b6 3e a6 24 c4 be 91 62 a3 3e
       -0.13800104 0.35628262 -0.3830921 0.31911138
0000b0 aa 7b 2d 3f 3d a4 2d be a8 81 02 3f a7 55 07 be
       0.6776682 -0.16957183 0.5097909 -0.13216268
0000c0 5f 3e 87 3e 82 61 2e 3e 56 0e 03 bf 97 91 2d be
       0.26414773 0.17029384 -0.5119375 -0.1695007
0000d0 1d 43 0a 3f 37 56 01 3e 5a a6 f1 bc f5 1b 42 bf
       0.54008657 0.12630545 -0.029498268 -0.7582391
0000e0 2f 65 2f 3d 50 34 4e be f6 52 35 bf 54 d6 25 bd
       0.042821106 -0.20137143 -0.70829713 -0.040487602
0000f0 b0 87 7d bf 8c 93 29 3f ca 83 d9 3e 65 44 c4 3e
       -0.9903517 0.66240764 0.4248336 0.3833343
000100 37 05 7c 3f f1 58 bb bd e8 bf 56 3c ac 3a e9 3e
       0.9844546 -0.091478236 0.013107277 0.45552576
000110 3e e8 d5 be c8 f9 a5 3e 89 1b 78 ba ee 4e 2e 3e
       -0.4177875 0.3241713 -0.0009464552 0.17022297
000120 bf d4 c4 3e e7 e9 51 be b6 8b ce be 96 fa ee 3c
       0.38443562 -0.20499383 -0.40340966 0.029172223
000130 18 16 ec be c8 32 97 3e c5 06 ac be 0a 28 a5 be
       -0.46110606 0.2953093 -0.33598915 -0.3225711
000140 b8 05 e5 3e be 77 21 3f fe a9 ce 3d 89 ca 82 bf
       0.44730926 0.6307334 0.10091017 -1.0218059
000150 52 ce 97 bd 97 bd 82 3e bf dd 1f 3d d1 f8 b2 3e
       -0.07412399 0.2553527 0.039029833 0.34955457
000160 43 d2 31 bf 5c ea cb 3e fc 3a 63 3c 88 9e a3 be
       -0.6946146 0.3982724 0.013869043 -0.31956887
000170 05 30 da be e6 65 8a be 52 5e f2 bd e5 99 4a bd
       -0.4261476 -0.27030867 -0.118343964 -0.04946317
000180 03 3a 2d 3f 03 1e dc 3e f3 bc 00 3f ab 71 b9 3e
       0.67666644 0.42991647 0.50288314 0.36219534
000190 b9 34 04 3f 39 3c c6 be ba 43 63 be b2 a9 07 be
       0.5164295 -0.3871782 -0.22193804 -0.13248327
0001a0 ab ea ba be fd 55 15 bf 30 88 38 3e ce 86 13 3f
       -0.36507162 -0.5833433 0.18020701 0.5762757
0001b0 c7 41 32 bf 8d 56 c3 be c0 1d 47 bf 70 11 9a 3e
       -0.6963162 -0.3815197 -0.7777977 0.3009143
0001c0 15 a4 16 3f 37 49 80 3e c1 a8 01 3e 39 f0 36 be
       0.5884412 0.25055858 0.12662031 -0.17865075
0001d0 67 1a 01 3f 73 a7 28 be f0 9b e9 3d 69 87 f4 be
       0.5043091 -0.16470127 0.11406696 -0.4775956
0001e0 8a 0c ad bd ec 7a ba be 54 db 35 bf bb d2 50 bf
       -0.08449657 -0.36421907 -0.71037793 -0.8157155
0001f0 12 1f 37 3f 1b ff 13 3c b4 8a 4e bd 2d 51 10 bf
       0.71531785 0.00903299 -0.050425246 -0.56373864
000200 f9 80 06 be 77 b7 3e 3e e5 76 88 3e 4e 49 0f bf
       -0.13135137 0.18624674 0.2665321 -0.5597123
000210 c4 ba eb 3e a3 8b d1 be 03 43 4c be d6 24 c3 3e
       0.46040928 -0.40926847 -0.19947438 0.3811404
000220 bf e3 09 bf 15 6f 75 3f 7e 4b 8b be 0d df 01 3f
       -0.5386314 0.9587262 -0.27206033 0.50730973
000230 f6 d2 50 3c b7 1c 24 3e ca 4c ef 3d db 66 64 3f
       0.0127456095 0.16026579 0.11684568 0.89219445
000240 0b 94 3c 3e 0f 74 fe 3e 7c f1 0d 3f f4 03 d9 3e
       0.18415849 0.4969792 0.554466 0.42385828
000250 e0 5f a8 be fa e6 aa 3e 69 92 8e be bc bc 6a 3e
       -0.32885647 0.33379346 -0.27846077 0.22923559
000260 b2 57 bc be ca 6d 16 bf db 33 a2 3d dc 57 1d 3e
       -0.36785656 -0.58761275 0.07920047 0.15365547
000270 ad ca 07 3f 24 82 0b 3f 7d 3f 89 3d 15 92 23 bf
       0.53043634 0.54495454 0.067015626 -0.6389478
000280 35 cc b1 3e fa 5f fb bd 7c 18 15 3f 90 cd 14 bf
       0.3472611 -0.122741655 0.58240485 -0.58126163
000290 97 b2 07 bf 2f 37 03 bf cf 21 22 3e 40 31 b7 be
       -0.5300688 -0.5125608 0.1583321 -0.35779762
0002a0 3a d6 70 be 5b 63 1e bf 5d d0 6f 3f d6 8e c5 3e
       -0.23519221 -0.61870354 0.9367731 0.38585538
0002b0 43 f1 a2 be ff 46 7a 3e 64 bd a1 3e b2 9d 1f 3e
       -0.31824693 0.24441145 0.31589806 0.155875
0002c0 6a 97 e8 3e 18 27 5f 3e ec 0e 08 be 69 82 31 3e
       0.4542802 0.21792257 -0.13286942 0.17334904
0002d0 f2 c8 e5 be a4 ac 52 bc f2 9d cc be 9f 6f 14 3f
       -0.44879872 -0.012858544 -0.39964253 0.5798282
0002e0 24 68 26 3e 45 b8 3b bf 3a 7a 84 be 18 20 31 3e
       0.16250664 -0.7332805 -0.258745 0.17297399
0002f0 61 ca 99 be 9c 54 2d be 1f 22 28 3f 0f f1 70 3a
       -0.30037215 -0.16926807 0.65677065 0.0009191194
000300 ba 05 1a bf c3 19 36 3f 4b 17 85 3d 76 a7 26 3e
       -0.6016499 0.7113306 0.064985834 0.16274819
000310 48 b7 66 3f 1e 5d 13 be ec 15 fc 3e 8e 51 ea 3e
       0.90123415 -0.1439099 0.49235475 0.45765346
000320 dc 74 91 be 5b 97 6d 3e d0 df 1c 3f 30 b6 a3 bd
       -0.2840947 0.23202269 0.6127901 -0.07993734
000330 96 42 3f bf 09 15 06 3f f2 66 41 3e d3 c5 18 be
       -0.7471098 0.5237585 0.18886927 -0.14919214
000340 f4 dd 1c 3f b4 08 95 3e 17 09 67 3e ba ab 60 3e
       0.61276174 0.29108202 0.22562061 0.21940508
000350 c6 78 b0 be 69 3a 33 bf 0d a1 70 be be 38 bc 3d
       -0.34467143 -0.70011 -0.23498936 0.0919051
000360 25 d2 6d be 21 95 1d 3d a0 df 18 be de 66 c9 be
       -0.23224695 0.0384723 -0.14929056 -0.39336294
000370 44 ab fa bd 59 a5 18 3f aa 84 cc be 1d 7b 1e bf
       -0.122396976 0.596273 -0.39944965 -0.61906606
000380 5a 73 62 3d bf 51 24 3e 00 22 c2 3e ce 85 50 3f
       0.05528579 0.16046809 0.37916565 0.8145417
000390 82 6a 6c 3d b6 16 e5 3e 22 d1 84 3e 6b 9c c4 be
       0.05771876 0.4474389 0.25940806 -0.38400587
0003a0 0b f1 b2 3e db 8e d8 bd 01 f9 f9 be 4d f9 a8 bd
       0.34949526 -0.105741225 -0.48822787 -0.08250675
0003b0 70 49 4b be 63 d9 37 bf ae f7 93 3e 0b b7 38 bf
       -0.19852233 -0.7181608 0.28899902 -0.721543
0003c0 94 32 7d 3e e0 da 7f 3e cb 54 06 3f 86 78 09 bf
       0.24726325 0.24985838 0.52473134 -0.5369953
0003d0 a2 5b 29 3f a1 75 f9 be f8 d9 48 be 67 cf 29 3f
       0.66155446 -0.48722556 -0.19614398 0.66332096
0003e0 45 c4 1c 3f fb a0 16 bf d6 0a 1a 3f fc cf 1b bf
       0.61236984 -0.58839387 0.60172784 -0.60864234
0003f0 2a f7 cf be ac 4d f8 3e cc 78 17 3f f7 26 8a bd
       -0.4061826 0.4849676 0.59168696 -0.06745713

network_body._body_endoder.seq_layers.2.bias f4 [256]
000000 92 91 76 bd 4f a5 44 3d ac 13 a0 3d b0 45 3f 3c
       -0.06019742 0.048009213 0.07816252 0.01167433
000010 32 92 bf bd f1 db c4 bd 5c c0 1e bd 05 dc 73 3d
       -0.093540564 -0.09612263 -0.038757667 0.059536
000020 ce d3 8f bd 84 66 94 3d e3 dc 07 be c8 94 77 3d
       -0.070228204 0.07246116 -0.13267855 0.060444623
000030 3a 0e b0 bd bc ef d8 3c b9 58 23 bd 61 ed 10 3c
       -0.085964635 0.026481502 -0.039879534 0.008845658
000040 fc e9 5b 3d 60 10 81 3d 8e 58 ad 3d f2 c0 d0 bd
       0.05368994 0.063019514 0.08464156 -0.101930514
000050 99 7c 9d 3d 63 36 87 3d 9f 3c 56 3c 4c 76 7d 3c
       0.07689781 0.0660217 0.013075977 0.015470099
000060 84 83 52 3d 08 5e 35 bd c3 80 cb 3d 62 e7 16 3d
       0.051394954 -0.04427913 0.09936669 0.036841758
000070 1f be 60 3d 7d 52 b7 3d 28 93 d6 bc ae 53 1f bd
       0.054868814 0.0895128 -0.026193216 -0.038898163
000080 cf 45 89 3b 75 86 11 3e 28 34 86 3b 6a a9 a1 bd
       0.00418923 0.14211448 0.004095573 -0.07893641
000090 78 aa 28 bd 06 67 b3 3d d8 55 ba bd 8e 29 8f 3c
       -0.041178197 0.087598845 -0.09098405 0.01747587
0000a0 3f 8c c1 3c 91 12 c4 3d 66 12 13 be ed 68 70 bd
       0.023626445 0.09573854 -0.14362487 -0.058693815
0000b0 63 59 ec bc dd 90 62 3d 6f 75 b3 bd 48 ed b8 bc
       -0.028851217 0.055313934 -0.08762633 -0.022574082
0000c0 ff 8a c1 bc 4e 62 1b bd 87 12 c2 bd dc b6 8b 3d
       -0.023625849 -0.037935548 -0.0947619 0.06821987
0000d0 6b 7f 0b 3e 18 a5 56 bd d0 21 f3 bd 39 0b 2d 3d
       0.13622825 -0.05240354 -0.118716836 0.04224703
0000e0 27 75 c5 ba ce c3 3f bd ef 8a 45 3d f7 9f 07 3d
       -0.0015064821 -0.046817593 0.0482282 0.03311154
0000f0 36 ec 83 3d 34 51 8b bb 13 9e ff 3c cf 97 cf bc
       0.06441538 -0.0042516235 0.031203305 -0.025340943
000100 4e 9c 4b bd cb 45 f3 3c fd 3a ef 3c c6 fc b0 bd
       -0.04970961 0.029696366 0.029202932 -0.08641963
000110 ea 7e ba bd fa 53 15 bd e5 49 63 3c ae 35 ef 3d
       -0.09106238 -0.03645704 0.013872598 0.116801605
000120 b5 a7 7a 3d 91 9a 1b 3d 8e aa 15 bc 75 00 59 3d
       0.061195094 0.037989203 -0.009134902 0.05297895
000130 66 53 ff 3c a0 21 3c 3c bc 0b 13 bd 93 cb c4 bd
       0.031167697 0.011482626 -0.035899863 -0.09609141
000140 8e 87 95 bc b2 53 24 be b4 49 06 3d 83 99 34 3d
       -0.018253114 -0.16047552 0.032785133 0.044091713
000150 0d 65 f7 3c 97 4f c8 3c 15 e3 05 3c 3c b4 8b bc
       0.030199552 0.024452014 0.008171816 -0.017053716
000160 61 24 ac bd 81 6a e3 bc fb 8c 8e 3d de 09 9e bd
       -0.08405376 -0.027760746 0.06960484 -0.07716726
000170 aa 0f 45 bd fe ae b8 bd 2a d8 8d bd d6 29 71 bd
       -0.04811064 -0.09017752 -0.06925996 -0.05887779
000180 b1 6e bd bc 14 9f 74 3d 03 fe 85 3d 19 8e c4 3c
       -0.02312407 0.05972202 0.065425895 0.023993539
000190 a1 14 f1 3d 49 c7 9a 3c b0 5b d8 bd 90 21 b4 3d
       0.11771513 0.018893855 -0.10564363 0.08795464
0001a0 eb db 4f 3d b8 91 df bd a0 8c d0 bd c4 8d 4d 3d
       0.05074684 -0.109164655 -0.10183072 0.050184026
0001b0 b8 c0 9e 3d d1 23 17 3d 56 dc 34 bd d7 4d e9 bc
       0.07751602 0.03689939 -0.04415544 -0.0284795
0001c0 46 65 89 3d da 35 44 3c 96 d0 5f bd 21 44 cf bd
       0.067087695 0.01197573 -0.054642282 -0.101204164
0001d0 a0 0f c9 bd 63 71 75 3d 1a 6e 62 3d b1 3d af bc
       -0.09817433 0.059922587 0.055280782 -0.021391721
0001e0 21 17 1b bc 76 db b2 bd f5 1e a0 bd 68 f6 85 bc
       -0.009465964 -0.08733265 -0.078184046 -0.016352847
0001f0 10 7f 49 3d 1e 5d 76 bd e3 ac 08 3d a8 c6 cf 3c
       0.049193442 -0.060147397 0.033368003 0.025363281
000200 d2 15 ec bd 8d e0 d8 bd c6 c0 f9 bd 75 b6 82 3d
       -0.115275994 -0.10589705 -0.12194972 0.06382457
000210 9a 55 e2 bd 09 22 f4 3d 40 6c 55 3d e0 6e 82 bd
       -0.110514835 0.11920554 0.05210519 -0.06368804
000220 c9 b6 c7 3d b1 43 64 bc d3 e2 a4 3d 6d 4c a1 3d
       0.097516604 -0.0139321545 0.08051076 0.07875905
000230 40 84 0b bc 16 a9 a1 bd e7 cf 85 bd 86 b5 66 3d
       -0.008515418 -0.07893579 -0.06533795 0.056325458
000240 f3 72 8f 3d 7c fd 2e bd 85 d3 b1 3c 57 bb dc bc
       0.07004347 -0.04272221 0.021707306 -0.0269448
000250 e8 c4 17 bc 17 5e 92 3d dc 70 f5 3c 31 ff 1b bb
       -0.009263255 0.071468525 0.029961042 -0.002380323
000260 76 6b 91 3d 8f 5c 29 3d e1 c7 c8 bd 88 ca c3 3d
       0.07100575 0.041348036 -0.09803749 0.09560114
000270 c6 17 bc bd b1 93 d3 bd b5 a0 d0 bd a9 0b 0e bd
       -0.09184222 -0.10330904 -0.101869024 -0.03467909
000280 74 89 de bd a5 bd 4b 3c cb 04 75 3d a6 74 a4 3d
       -0.10866061 0.0124353515 0.059819024 0.080300614
000290 16 af 85 3d d6 02 1e 3d 03 cc a4 3d 7d 17 57 3d
       0.065275356 0.038576923 0.08046725 0.052512635
0002a0 a8 d1 13 bd 68 74 b9 bd 85 cd 57 3d 86 6e aa 3d
       -0.036088616 -0.09055406 0.052686233 0.08321862
0002b0 4b de ca bd c7 ad 0f 3e f8 07 92 3c f7 86 89 bd
       -0.0990568 0.14031135 0.017826065 -0.067151956
0002c0 5e c0 c9 3d ea 71 09 3d d7 5b b5 bd d8 92 e6 3d
       0.09851144 0.033555903 -0.08855408 0.11258477
0002d0 d8 d8 21 3c dc 99 d4 3d 85 95 f1 3c 17 c9 6d bd
       0.00987836 0.10380909 0.029490242 -0.058053102
0002e0 8b 6d b5 bd ce 96 8d 3d 7b e6 f6 3d d1 e2 a5 3d
       -0.08858784 0.06913529 0.120556794 0.080999024
0002f0 d5 c8 c2 bc 3c 03 30 bd 98 3f 43 3d d0 b7 1b be
       -0.023777405 -0.042971835 0.04766807 -0.15206838
000300 3a 7c 62 3d 65 aa 8e 3d 10 96 59 bc 2e 3c 41 3d
       0.055294253 0.06966094 -0.013280407 0.047176532
000310 21 7a be 3d 41 10 86 bd 5d b1 d5 bd c4 29 ca bd
       0.09300638 -0.06546069 -0.1043422 -0.098712474
000320 67 47 6e bd 31 ff 9a 3b 9a 38 fe 3c 60 3a 52 3d
       -0.058173563 0.004730128 0.03103285 0.051325202
000330 17 86 a7 3d 91 ed e4 bb e4 90 a8 bc 88 22 98 3d
       0.081798725 -0.006986328 -0.020576902 0.07428461
000340 cf c8 9c bd 3f e1 67 3d 75 55 04 be 0f 24 e3 bb
       -0.07655489 0.056611296 -0.12923224 -0.0069317888
000350 03 74 29 bd f0 67 6e bd c9 7c 14 3d 8c 80 13 bc
       -0.041370403 -0.05820459 0.036251817 -0.009002816
000360 4f 89 71 3d 57 74 55 bc 24 e9 c7 bd 9d 63 79 3d
       0.05896884 -0.013028226 -0.09761265 0.060886014
000370 69 e6 ca 3d 18 5d 14 be b8 ce b7 bd 35 f7 f3 3c
       0.099072285 -0.14488637 -0.08974975 0.029780963
000380 e9 54 55 bc 45 c1 c7 bd b1 f9 c3 bd 19 5a 9c 3d
       -0.013020732 -0.0975366 -0.09569109 0.07634372
000390 55 0e b6 3d d0 f5 84 bd 8d 0e 76 3d 18 e0 5c bd
       0.08889452 -0.064921975 0.06007247 -0.05392465
0003a0 5f cf da 3d 6c a9 b1 3d 47 90 5a 3d 8f 97 4f 3d
       0.10684084 0.08674893 0.05336025 0.050681647
0003b0 8d 5a ab bd b7 14 80 3d 79 82 cb 3d f2 ee fd bd
       -0.083668806 0.06253951 0.09936995 -0.12399091
0003c0 6e 9a 6d 3d df ae 3f bd 68 e9 a3 3d 0a 41 44 3c
       0.058008604 -0.04679763 0.08003503 0.011978397
0003d0 65 35 b8 bd 70 9c 2f bd 84 82 24 3d b8 81 80 3d
       -0.08994559 -0.0428738 0.040163532 0.06274742
0003e0 3f 2f 07 bd 6c 2d 99 bd 04 5a 0a 3e 1c 27 65 bb
       -0.03300404 -0.07479367 0.135109 -0.0034965938
0003f0 f5 0a 38 3d 39 00 82 3a db 21 b2 3d ac c5 87 3c
       0.044932324 0.0009918279 0.08697864 0.01657375

network_body._body_endoder.seq_layers.2.weight f4 [256, 256]
000000 46 7e c8 bd e9 24 b9 3c 92 44 77 bd ac 8f 1f 3c
       -0.0978971 0.022600608 -0.060368128 0.009738844
000010 dc 24 d3 bd 52 3b 3a be c8 3e 73 3d 6a 5c 89 bd
       -0.10309765 -0.18186691 0.059386045 -0.0670708
000020 37 58 c1 bc 8f 23 27 3c ff a7 0f be d1 ba c5 bc
       -0.023601634 0.010201349 -0.14028929 -0.024136933
000030 f2 8f 94 bc f1 36 1d bd f3 46 83 bd 26 1e ed bc
       -0.018135045 -0.038382474 -0.06410017 -0.02894504
000040 7e 2f e2 bd 01 cd 0e be 46 81 90 bd b5 c8 a0 3c
       -0.11044215 -0.1394539 -0.07055907 0.019626955
000050 ba 90 23 3d f9 30 01 bd ce 75 ae 3d 6e f2 e9 bd
       0.039932944 -0.031540845 0.08518563 -0.11423193
000060 5c 6d 0f 3d b0 e3 9f bd 36 6c aa 3d 07 25 f2 3d
       0.035016403 -0.078071 0.08321421 0.11823469
000070 f6 53 52 3d eb 6b a9 bb 4a d0 64 bd 91 8f 72 bd
       0.051349603 -0.0051703355 -0.055862702 -0.059218947
000080 41 b2 2d bd 10 3c de bc 8d 31 42 bd 75 22 0e be
       -0.042406324 -0.02712825 -0.047410537 -0.13880332
000090 54 2d 89 bd e8 e2 95 bd 4a ce 21 bd 44 d3 7e bc
       -0.06698099 -0.073186696 -0.039503373 -0.015553299
0000a0 b8 cb 36 bd a7 89 73 bd 7f d3 01 be 16 71 fb 3d
       -0.044627875 -0.059457447 -0.12678336 0.12277429
0000b0 af ff 6e 3c ea be 2e bd f9 0f d0 bc a8 99 29 3d
       0.014587327 -0.04266254 -0.025398241 0.041406304
0000c0 21 1e e6 bd 3c 6e 6b be f3 79 f7 bd 36 86 5f 3d
       -0.112362154 -0.2299127 -0.12083807 0.054571353
0000d0 67 8d 3f be 48 50 93 bd 8b 3c 12 3d 26 f5 4c bc
       -0.18706284 -0.07193047 0.03570227 -0.01250962
0000e0 0e 4e 01 3e 21 2c 89 bd b4 c5 31 be ee 4c 93 3d
       0.12627432 -0.0669787 -0.17360574 0.071924075
0000f0 d1 70 8d 3d cd 33 3a bd 37 d4 1f bd 5d 76 49 be
       0.06906284 -0.045459557 -0.039020743 -0.19674058
000100 c8 d7 ba bd 71 cc 49 bd fc ea 97 3d 3d 5b 74 3d
       -0.09123188 -0.049267236 0.074178666 0.059657324
000110 27 4d b4 3d b9 d5 42 bd 80 b1 03 be fb 55 92 bc
       0.08803778 -0.047567103 -0.1286068 -0.017863264
000120 a9 92 53 bd 84 6b 6d bd 0f 64 d2 3d 36 c4 56 3b
       -0.051653538 -0.057963863 0.10272991 0.003277076
000130 45 9d 0e 3d 1a 5d b2 bd 8b 8e e5 3c 6d 67 f6 3c
       0.034817953 -0.08709164 0.028022071 0.030078614
000140 51 d4 f5 bd 98 25 b7 bd f2 e0 c9 bd 67 92 b1 bc
       -0.12003387 -0.08942717 -0.09857358 -0.021676255
000150 a2 9f 22 bd e7 bb 21 3b 30 7e 95 3b 1d 7b 3b be
       -0.03970302 0.002467865 0.004562162 -0.18308683
000160 bf 2e 78 bd 34 d0 88 bd b2 cf 93 3d 56 01 c7 bd
       -0.060591456 -0.066803366 0.07217349 -0.09717052
000170 1a e7 3b bd 81 c2 01 bd d6 b7 13 3e 4d 15 8a 3d
       -0.045874692 -0.031679634 0.14425597 0.06742344
000180 89 fb 3a 3c 11 81 82 bc 32 43 14 bc 07 bb 4d bc
       0.01141251 -0.015930684 -0.009049224 -0.012556798
000190 44 b7 bb bd 7c 23 8c bd 8d e2 dc bd d3 86 b0 3d
       -0.091658145 -0.068427056 -0.10785399 0.08619466
0001a0 2f 1f 21 3d 65 98 24 bd 37 41 23 3d 81 e2 81 bd
       0.03933638 -0.040184397 0.039857116 -0.0634203
0001b0 23 0a 1b bc 0a 50 04 3d 18 ab 86 be 70 58 10 be
       -0.009462866 0.032302894 -0.2630241 -0.14096236
0001c0 cb c7 23 be ad 43 8b 3d cb 0b fc 3c f9 c1 03 be
       -0.15994184 0.068000175 0.030767342 -0.12866963
0001d0 4c 28 cf 3c 64 4f 9a bd 8b 09 bc bc 27 8a fd 3c
       0.02528777 -0.07534674 -0.02295377 0.030949665
0001e0 3d 28 06 be 1e 86 2a 3d 88 f0 9a bc 49 58 2a be
       -0.13101287 0.04163181 -0.018913522 -0.1663524
0001f0 d6 02 35 bd 0a 37 5f bd ee b7 88 3d 49 8a bf bd
       -0.044192158 -0.05449585 0.06675707 -0.09352548
000200 a1 2d 0a be c4 fd a4 3c 87 cc 1f 3c 8f d3 21 3e
       -0.13493969 0.020140536 0.009753353 0.1580336
000210 c5 59 84 3c 76 ce bd bd 03 14 a1 bd c3 b4 09 be
       0.016156087 -0.09267895 -0.07865145 -0.13447861
000220 e1 96 b0 bc fa f7 37 bd 45 92 0b 3c 8c 80 7a 3c
       -0.02155632 -0.044914223 0.00851876 0.015289437
000230 e5 68 d2 bd 18 27 a3 bc 5f c7 d5 bd 8e c6 15 bd
       -0.10273913 -0.019916102 -0.10438418 -0.03656631
000240 1b ca da bc 34 e5 bb bd e3 f2 f1 3b 4b 62 f9 bd
       -0.0267077 -0.091745764 0.0073836907 -0.12176951
000250 fa 08 a0 bd 81 4c ad bc a1 dc 11 3d 3e 9b 3b bd
       -0.07814212 -0.021154644 0.0356108 -0.045802347
000260 b1 c6 33 3c cc 64 0c 3d 5b af fe bd 5e b7 42 bd
       0.010972665 0.034275815 -0.1243579 -0.047538154
000270 89 f8 8f 3b 40 5e 63 bd 31 d6 55 bd 0b 24 2b bd
       0.0043936414 -0.055509806 -0.052206222 -0.04178242
000280 98 4b 3d bc a8 64 82 3c bd 8d cf bc d6 0a fc 3b
       -0.0115536675 0.015917137 -0.02533614 0.0076917214
000290 54 80 57 bd f4 b5 87 3d d6 9f f0 bd 5e 2b 8a bd
       -0.052612618 0.06626502 -0.11749236 -0.06746553
0002a0 af 15 c1 3c c5 66 99 3d 85 f4 a7 bd a9 07 50 3d
       0.02356991 0.07490305 -0.08200935 0.050788555
0002b0 1b 25 72 bd 12 b6 11 be 3d 7d 0c bd f6 b2 a9 3d
       -0.059117418 -0.1422961 -0.034299124 0.08286087
0002c0 16 a7 82 bd 49 31 85 bd 52 89 2a bd 33 31 7d be
       -0.06379525 -0.06503541 -0.041634865 -0.247258
0002d0 a8 0b 2e 3d cd b1 09 be 4f 31 03 be da f0 3a bc
       0.042491585 -0.13446732 -0.12811778 -0.011409963
0002e0 f9 06 0c bd 5f e2 47 bd d6 f3 57 bd 3c c2 8b bc
       -0.034186337 -0.04879987 -0.052722774 -0.017060392
0002f0 07 97 f1 3c 69 0b 10 bd fd 48 c8 bc 5e 00 16 3d
       0.02949096 -0.03516713 -0.024448866 0.036621444
000300 f1 8a aa 3c 74 5e ae bc ff a2 e6 bc e4 4f cc 3c
       0.020818206 -0.021285273 -0.028153894 0.024940439
000310 2e ea b3 3d f7 11 09 bd a2 ae a7 bd 3f 89 8c 3d
       0.087849006 -0.0334644 -0.081876054 0.06862115
000320 6f 10 87 bd c0 17 dd bc 2c db b3 bc 99 11 05 be
       -0.06594931 -0.026988864 -0.021955095 -0.12994994
000330 9a 84 7a 3d 11 d3 cf bc 6c 6b 5b bd f6 9c a7 3d
       0.061161615 -0.025369199 -0.053569242 0.08184235
000340 72 7e 5c 3d 56 bf 82 3d 9b 10 66 3c a3 f2 80 bd
       0.053831525 0.06384151 0.014042045 -0.06296279
000350 5c 7a 2f 3d 74 4b d6 bc 34 e5 05 bd 03 43 a4 bd
       0.0428413 -0.026159026 -0.03268929 -0.08020594
000360 48 fa af 39 2b ad 10 bd 80 0b cb 3d 8f 9b 2f bd
       0.00033565075 -0.035321396 0.09914303 -0.04287296
000370 24 8e 91 3d 1e 9d fa bc 12 ca 91 bd ce 5b b7 3c
       0.07107189 -0.030592497 -0.0711862 0.022382643
000380 fa 14 3d be aa 7b b5 3c 30 60 14 bd 46 3d 09 bd
       -0.18465033 0.022153694 -0.036224544 -0.0335057
000390 25 48 8b bd 19 a7 ca 3d 06 5d a8 bb d2 80 fc 3d
       -0.0680087 0.098951526 -0.0051380424 0.12329258
0003a0 e8 8c 08 bc eb b2 92 3d 54 a3 05 bd 79 01 22 be
       -0.008334376 0.07163032 -0.032626465 -0.15820874
0003b0 59 3c 9a 3a 8d 3d 21 bd c5 8f e3 3d 73 ed ac bd
       0.0011767253 -0.03936534 0.11111406 -0.08443727
0003c0 98 4f 1d be be 9f ab bd 28 04 65 be 23 9e cd bd
       -0.15362394 -0.08380078 -0.22364867 -0.10039928
0003d0 6f 4e 83 bd d6 b2 92 bd 2e e8 d1 bd f3 d8 8d bd
       -0.064114444 -0.071630165 -0.10249363 -0.069261454
0003e0 76 b2 e5 bd fb 38 49 bd 84 d4 1e bd d7 49 df bc
       -0.11215679 -0.049126606 -0.03877689 -0.02725689
0003f0 e5 f2 f2 3c c1 c9 a8 bc 81 e3 b8 bd 78 cc c9 bc
       0.029656837 -0.020604016 -0.09027768 -0.024633631

network_body._body_endoder.seq_layers.4.bias f4 [256]
000000 40 a8 86 3d 3d c3 2e 3d 4f 29 db 3d 4b 00 92 3d
       0.0657506 0.042666662 0.10701238 0.07128962
000010 ff 8f 80 3c 8b 94 84 bc 2a a3 49 3d 7a a9 ba 3d
       0.015693663 -0.016184112 0.04922787 0.09114356
000020 36 f6 54 bd 77 64 67 bc 8f de 95 bd 15 60 b9 bd
       -0.051992618 -0.014123074 -0.0731784 -0.09051529
000030 63 0b 57 bd 0c 3c ce 3d ca 6a 47 3d 1e 92 ac bd
       -0.052501094 0.10070047 0.048685826 -0.08426307
000040 4f b0 74 bc ff 41 87 bc dd a3 ce 3c 34 60 25 bd
       -0.014934613 -0.016510962 0.02522462 -0.04037495
000050 e4 cc 24 bd 85 f3 ab 3c 8f 54 76 3d 68 fb 9c bc
       -0.04023446 0.020990143 0.060139235 -0.019162849
000060 6d 1f 7d 3d 73 0b 97 3d 2e 19 28 bd e9 c2 2f 3d
       0.061797548 0.07375231 -0.04103964 0.04291049
000070 00 05 bc 3d ca fb 56 bd e0 ad 96 bd ca b1 8e 3d
       0.09180641 -0.05248622 -0.07357383 0.06967504
000080 e9 97 92 bd cc a0 1f 3d d4 51 8e 3d 8f 3e 95 3d
       -0.07157881 0.038971707 0.06949201 0.07287323
000090 56 a1 55 3d 04 b4 7d 3d a2 ee bf 3d ee 5c ff 3b
       0.052155815 0.061939254 0.093716875 0.0077930605
0000a0 98 ad 1b bc 26 6a c2 bc c1 bf 82 3d f5 d5 7d bd
       -0.009501837 -0.023732256 0.063842304 -0.061971623
0000b0 77 a1 08 3b 43 de b2 3d 28 ce b1 bd c5 e6 5d 3d
       0.0020848194 0.08733799 -0.08681899 0.054175157
0000c0 6c 73 8f 3d 25 91 d3 3d e0 68 72 bd de 6b d7 3d
       0.07004437 0.103304185 -0.059182048 0.10518621
0000d0 b9 74 e2 bc d7 c2 ae bc 00 c4 fb bb e2 b7 aa bd
       -0.027643548 -0.021333141 -0.007683277 -0.08335854
0000e0 26 a9 91 bd 9f 92 01 3e f2 32 28 bd 44 8f 45 bd
       -0.07112341 0.12653588 -0.04106421 -0.048232332
0000f0 b3 e9 5b bc 9b 3d 7e bd 2b 55 b4 bd a8 0a dc 3d
       -0.013422417 -0.06207047 -0.08805307 0.1074422
000100 ed 4e 1b 3d 4c 2d 5e 3c 88 a4 80 bd 43 72 c0 3d
       0.037917066 0.013560604 -0.06281382 0.09396794
000110 0a f2 b0 3c 0e cf b6 3d f9 4f a9 3d 90 12 6f 3d
       0.021599788 0.08926211 0.08267207 0.058367312
000120 23 31 81 3c ad 3e db 3c 74 53 98 bd 44 c2 f9 bb
       0.0157705 0.026763285 -0.074377924 -0.007622035
000130 15 29 7f 3d 1a 80 a2 3c 4d 8f 68 3d 65 53 2e 3d
       0.06229504 0.019836474 0.056777287 0.04256
000140 f5 33 b2 3d 27 2d 9d bd 27 90 b1 3d f8 5e 8d bd
       0.08701316 -0.07674628 0.08670073 -0.069028795
000150 a1 69 87 bd 27 8e 49 bd c7 59 b3 bb b7 b9 c2 bd
       -0.06611944 -0.049207833 -0.005473349 -0.095080785
000160 40 7a 83 bd 23 a5 84 bd 38 9d 76 3d 8a 1b 61 bd
       -0.06419802 -0.0647681 0.06020853 -0.054957904
000170 24 58 64 3d 10 76 d6 bc db bf e9 bc 26 4b bb 3d
       0.05574812 -0.026179343 -0.028533867 0.09145193
000180 49 83 be bd 98 3c f0 3c 71 5c ad 3d cc 93 cd 3c
       -0.093023844 0.029325768 0.084648974 0.02509489
000190 25 f7 37 3d ae 9a 0f 3e 59 1e 76 bc 43 3d ca bc
       0.04491343 0.1402385 -0.015021884 -0.024687415
0001a0 bc 23 50 bd 56 39 52 bd 5e b7 d7 bc 81 eb 7b bd
       -0.05081533 -0.05132421 -0.026332553 -0.06150389
0001b0 7c 78 8a ba 79 51 5a 3c 14 ac af 3d 6a 3d a7 bd
       -0.0010564472 0.013325089 0.08577743 -0.08166011
0001c0 3a 60 e1 3c 1e 23 fd 3d 2e fa 37 bd f0 8e 96 3c
       0.027511705 0.12360214 -0.044916324 0.018378705
0001d0 58 22 21 3d 4a d5 01 3d b6 49 c8 bd 45 6c 1b bd
       0.039339393 0.03169755 -0.09779684 -0.03794505
0001e0 c7 79 2d bd 49 8c 41 3d 49 39 b6 3d 6b 1f 19 3c
       -0.042352464 0.047252927 0.08897645 0.0093458695
0001f0 ce 68 c4 3d 67 5c 7e 3d 4f ad ab 3d de d9 ac bd
       0.095903024 0.06209984 0.08382665 -0.08439992
000200 05 b5 15 3d 75 5b b5 3d f4 e7 9c bd 5d 24 fa bb
       0.036549587 0.08855335 -0.07661429 -0.0076337294
000210 fa c3 a4 bd 57 0d b8 3c c7 89 8e 3d 4b 23 93 bb
       -0.08045192 0.022467298 0.06959873 -0.0044902912
000220 fe dd c2 bd dc 21 6c bd ef ea 70 3d 91 7d f8 3c
       -0.09514998 -0.05764948 0.0588178 0.030333312
000230 ee d8 e7 bc 9f 3d 1c 3d 75 5e 1b 3d 8b 94 d1 3b
       -0.028301682 0.038144704 0.037931878 0.0063958815
000240 83 1d 1a bb 1e 3d c9 ba 2e 85 a5 3d 1d d6 8a bd
       -0.0023516126 -0.0015353297 0.08082043 -0.0677912
000250 ca f2 52 bd 90 0e ae 3d df 89 a2 3c 5d 2f b4 bc
       -0.051501073 0.08498871 0.019841133 -0.02199524
000260 54 23 88 3c 14 64 83 3d c5 d1 47 3d 29 03 b6 3d
       0.016618408 0.06415573 0.048784036 0.088873215
000270 af 1d 55 bd ec 2a a5 3c 88 43 e9 bb 4f 78 19 bd
       -0.05203026 0.020162068 -0.007118646 -0.03746825
000280 3d 23 b0 3a b8 98 93 3d 01 ef ae bd 1f 0e c2 b8
       0.0013438236 0.07206863 -0.0854168 -9.253271e-05
000290 f1 87 b1 3d 0a 36 0f bd 31 33 cd bd 0e e8 89 bd
       0.08668507 -0.034963645 -0.100195296 -0.06733714
0002a0 65 e5 8b bd 04 9f 3c bd 75 f2 b2 bc 56 ce 1e bd
       -0.06830863 -0.046050087 -0.021844128 -0.038770996
0002b0 56 6a 4c bd 99 89 94 3d bd 1a c3 3d 6f be 5f 3d
       -0.049906097 0.07252807 0.09526584 0.05462497
0002c0 d4 d6 6f 3d 3a be 6d 3d 12 38 09 bd 38 71 e7 bc
       0.058554485 0.058042742 -0.03350074 -0.02825223
0002d0 50 2b 0f 3d 55 81 c9 3b 48 77 dd 3b 7c e5 4b 3d
       0.034953415 0.006149451 0.006758604 0.0497794
0002e0 12 cc 5a 3d 1b cf bd 3d 51 84 3d 3d 90 00 c8 3d
       0.053417273 0.09268018 0.046268765 0.09765732
0002f0 f7 1b ed 3d 40 63 80 3d 0c 30 fd 3c e0 89 97 3d
       0.115775995 0.062689304 0.0309067 0.073993444
000300 b0 fd 9e bd a9 f7 97 3d 03 56 b8 bd 7a fa ba bd
       -0.07763231 0.07420284 -0.090007804 -0.09129806
000310 59 2e d4 3c 1e 25 01 bd 46 37 37 bd 2f 77 d4 3d
       0.025901007 -0.03152954 -0.044730447 0.10374295
000320 c4 67 b3 bd ab 37 e8 bc ad 42 3b bd 08 fe 91 3d
       -0.08760026 -0.028346857 -0.045717884 0.07128531
000330 4e 53 d1 bd 56 48 a3 3d b7 41 b0 3b 70 20 2d 3d
       -0.10220967 0.07972781 0.0053789276 0.042267263
000340 32 3f da bc 9b 0b b3 bc b7 33 64 3d c6 c1 67 bd
       -0.026641462 -0.02185612 0.05571338 -0.05658128
000350 3a 8b c6 bd b9 2b 67 3c 88 d3 4a bd 77 f2 54 3d
       -0.09694524 0.014109545 -0.04951814 0.051989045
000360 f4 4f c5 bd 50 fd a3 3d 25 85 b9 bd 8d c1 90 3d
       -0.096343905 0.080073 -0.090585984 0.07068167
000370 0f d4 c2 bd de 91 a3 3d b3 59 d3 bd 30 40 80 3d
       -0.09513103 0.07986806 -0.10319843 0.06262243
000380 72 ca 83 3d 55 05 8c 3d ce 58 56 bd 73 42 6a 3c
       0.06435098 0.068369545 -0.052330784 0.014298069
000390 06 06 04 bd d1 c5 c7 3d a5 28 1f 3d bd cf d2 3b
       -0.032232307 0.09754527 0.03885712 0.0064334557
0003a0 30 de a3 3d 5b d2 88 3d cb 88 a6 3d c6 25 9b 3c
       0.08001363 0.06680747 0.0813156 0.01893891
0003b0 b8 af 02 3d 30 b0 5b bd 20 4e d2 3d cd cd b5 bd
       0.03190586 -0.053634822 0.102688074 -0.08877144
0003c0 7a c7 9f bc 26 d8 9e 3d d9 ea 83 3d 3a bb 72 bd
       -0.019504298 0.07756071 0.06441278 -0.059260584
0003d0 aa 69 6f 3d 21 9b 1d bc a5 2b 04 bd cf a1 80 3d
       0.05845038 -0.009619505 -0.032268185 0.062808625
0003e0 39 7e 1e 3d 26 e6 5c 3d cb ba b5 bd 55 e1 c5 3d
       0.038694594 0.053930424 -0.088735186 0.09662119
0003f0 d0 9f f1 bc 0c 38 70 bd 13 a8 08 3c f1 8b 43 bd
       -0.02949515 -0.0586472 0.008340853 -0.04774088

network_body._body_endoder.seq_layers.4.weight f4 [256, 256]
000000 23 fc cf bd a1 b5 4a 3d 5b 22 54 3d de be 65 3d
       -0.10155513 0.04948962 0.051790576 0.05609023
000010 46 c8 1e be a7 7a 2c 3d bf 4d ae 3c dc ae 5f 3c
       -0.15506086 0.042109158 0.021277307 0.01365253
000020 69 aa a1 bd 87 2d 79 ba 32 97 0b be 91 db 51 3d
       -0.07893831 -0.00095053803 -0.13631895 0.051234785
000030 36 f0 00 3d 83 7c 9d bd d5 55 a4 3b c5 6c 3a bd
       0.031479083 -0.07689764 0.005015115 -0.045513887
000040 a0 83 41 3c 2c 76 eb 3c ca f9 8c bb df f6 82 3d
       0.011811167 0.028742872 -0.004302238 0.06394743
000050 2c 46 ac bd fc 84 e3 bd 8c 57 26 bd 17 97 eb 3a
       -0.08411822 -0.11109349 -0.040610835 0.0017974105
000060 fb d5 62 bc 86 76 fe bc 6d 2a 6d 3e 70 43 38 bd
       -0.013844962 -0.031062376 0.23160715 -0.04498619
000070 ce 22 10 3d 62 f9 4e bd 55 4d e9 3c ed 01 ba bd
       0.035189442 -0.0505308 0.028479258 -0.090823986
000080 08 16 62 3c b4 48 e3 3d ff 76 47 bd e0 1f 08 be
       0.013799198 0.110978514 -0.048697468 -0.1329341
000090 e1 c6 9a bd 2b 54 9b 3c 61 16 2f be 3d 15 ee bd
       -0.075574644 0.018961033 -0.1709838 -0.11625145
0000a0 e9 2d 4a 3d 80 b3 9e 3d 1a e5 01 bc 3b f1 de bb
       0.04936019 0.07749081 -0.007928157 -0.0068036593
0000b0 ed db a3 bd df bf d9 3d 91 6f 49 3c 45 62 3d bd
       -0.08000932 0.106323 0.012294666 -0.046236295
0000c0 dc 44 d6 bd 43 74 a6 3c 72 be 2e bc 28 42 d2 3d
       -0.10462353 0.02031911 -0.010665523 0.102665246
0000d0 2c 73 e5 3d 8d eb d0 3a 2d de 52 bd b9 06 80 bc
       0.11203608 0.001593934 -0.051481415 -0.015628206
0000e0 b1 9a 98 3d 2e be 83 3b dc 00 7a 3b 8e d7 44 3e
       0.0745138 0.004020474 0.0038147485 0.19222853
0000f0 de ab 9f bc 34 f6 88 3d b1 4d 87 3d 78 a4 60 3b
       -0.019491132 0.066875845 0.06606615 0.0034277719
000100 98 4b 10 be fa db 20 3c 62 bb c2 3c e4 02 f0 bd
       -0.14091337 0.0098180715 0.023770992 -0.11719301
000110 88 d1 e4 bc f4 4a 6b bb 8d cb 5a bd 7b 3e 02 3c
       -0.027931944 -0.003590283 -0.053416777 0.007949467
000120 3f 0a 06 bd 74 b7 09 bc 4a 9b 46 be 65 80 10 3d
       -0.032724615 -0.008405555 -0.19395176 0.035278697
000130 0c 11 af bd f5 32 2c 3d e4 cc 14 be da fb 22 bd
       -0.08548173 0.042040784 -0.14531285 -0.039790966
000140 9d 2b d4 bc 3e 72 0a be 66 9c 11 bd 51 32 32 bd
       -0.025899703 -0.13520142 -0.035549544 -0.043505017
000150 da 77 22 3d d3 49 c3 3c 30 2c 22 3d 52 a1 d3 3d
       0.03966508 0.023838913 0.03959292 0.10333504
000160 b9 5a b8 bd a7 f5 3d bd 1c 3e 60 bd c4 73 ff bd
       -0.09001679 -0.04637685 -0.054746732 -0.124732524
000170 38 83 43 bd 2c 81 80 3b 19 97 05 3e f1 df ab bd
       -0.04773256 0.0039216485 0.1304592 -0.08392323
000180 f0 ea 85 bc 34 ee 2e 3b fd 17 9b bd ce 33 c8 3b
       -0.016347378 0.0026692273 -0.07572935 0.006109691
000190 9a fb d9 3d 49 b6 8f bd 49 eb 70 3d 7f c6 67 bd
       0.10643692 -0.0701719 0.058818135 -0.056585785
0001a0 d5 e6 54 3c 1f e4 6c bd ab 85 02 be 34 15 2c 3d
       0.012994488 -0.05783474 -0.12746303 0.04201241
0001b0 2d 72 2c bd ec e3 10 3d a7 55 7e 3d a6 08 97 3d
       -0.042101074 0.035373613 0.062093403 0.073746964
0001c0 90 33 9d bd 6d 27 49 3c be a1 a1 bd 25 d5 e6 bd
       -0.076758504 0.012277466 -0.07892178 -0.11271123
0001d0 7c 1a 87 bd f4 ad 11 3d 09 35 ad 3d 38 b6 1d 3d
       -0.06596848 0.035566285 0.08457381 0.038503855
0001e0 e8 5c 82 bd 54 3c df bc 51 27 1b 3d 17 0a bc 3c
       -0.06365377 -0.027250446 0.037879292 0.02295403
0001f0 f0 f2 9a bd bc 8b f7 38 98 2d 7f bc 78 7d 9a bd
       -0.07565868 0.00011803905 -0.015574835 -0.075434625
000200 9c d6 77 bd 14 b6 9f bb 5a 35 1a bb c2 d2 2d 3d
       -0.0605074 -0.0048740003 -0.0023530335 0.042437322
000210 bd 23 50 bd 43 51 e7 bc f1 f4 c0 bd 65 1b ed bd
       -0.050815333 -0.02823699 -0.09421719 -0.11577491
000220 7d 2c f1 3d f5 8d 7d bd 74 57 9a 3c 8d f5 a2 3d
       0.117760636 -0.06190296 0.018840529 0.07956991
000230 c7 09 9a 3d 2d f5 28 3c 1d 79 94 bc 64 59 c0 bc
       0.07521396 0.010312361 -0.018124158 -0.023480125
000240 f3 c3 54 3d 81 fe e7 3c 6e 6f 0c be 8c 4a 94 3d
       0.051944684 0.0283196 -0.13714382 0.07240781
000250 12 12 e9 bc dc 90 05 be a3 1f 8a 3d 2a a6 06 3e
       -0.028451 -0.1304354 0.067443155 0.13149324
000260 7c f4 29 bd 33 37 01 bd 68 a4 8d bd 0e d4 e0 3d
       -0.041492924 -0.031546783 -0.06916124 0.10977946
000270 52 ad 2e bc 2f 4f bb 3d 6a 42 06 3c b8 9a f7 bc
       -0.01066144 0.091459624 0.008194545 -0.030225143
000280 aa 8b 88 bd 37 a0 4c 3c b2 c5 cd bc 1a 7d e5 bd
       -0.06667264 0.01248937 -0.025118683 -0.11205502
000290 a6 76 52 3d f3 d3 d4 ba 25 e3 39 3d 7a 48 70 b9
       0.051382683 -0.0016237482 0.045382638 -0.00022915183
0002a0 06 f9 b4 3d d0 96 08 be c3 a1 0d bc dc ae 4b bd
       0.0883656 -0.1333878 -0.008644524 -0.049727306
0002b0 af 2c ae 3c e8 c8 92 3d fc b4 08 bd 36 12 dd bb
       0.021261541 0.07167226 -0.033375725 -0.0067465557
0002c0 a4 b8 9c 3b 79 79 af bc 06 32 f1 3d 53 3e a1 bd
       0.004782753 -0.021420227 0.11777119 -0.078732155
0002d0 c2 b8 38 bc 2b 1c b6 bc 12 d8 aa 3c 92 2a 90 bd
       -0.011274518 -0.022230228 0.020854983 -0.0703937
0002e0 db c0 9e bd 12 0e 25 be 4f 68 df 3c 21 28 4e 3d
       -0.07751628 -0.16118649 0.027271418 0.05033124
0002f0 5a 0d 21 3d 56 97 9b 3d 79 d4 65 3d 12 ea d4 bd
       0.039319374 0.075972244 0.056110833 -0.10396208
000300 2d 79 f0 bc f2 3d 0b 3d c2 6c 98 3c a5 c9 3b 3d
       -0.029354656 0.033994623 0.018606547 0.0458466
000310 52 69 ba 3d 8d b8 56 bc 62 44 22 bd 31 06 70 3d
       0.091021195 -0.013105524 -0.039615996 0.058599655
000320 b4 5c d4 bd 57 f4 3b bc 5d 1b 33 bd ca 1f ce 3d
       -0.10369244 -0.011471829 -0.043727268 0.10064657
000330 f3 5e 97 bd 00 37 04 bb 7b f1 33 3d a7 32 ce 3b
       -0.07391157 -0.0020174384 0.043931466 0.0062926593
000340 5b e8 95 3d b1 92 61 bd 9a 76 1f be 30 9d 75 bd
       0.07319709 -0.055071536 -0.15572587 -0.05996436
000350 36 58 c6 3d 24 41 f5 3c 36 7d 8c 3d f6 5c 24 bd
       0.09684794 0.029938288 0.068598196 -0.040127717
000360 3c 5e bf 3c b0 81 51 bd a3 6e 51 bd 98 cb 54 3d
       0.023360364 -0.05114907 -0.051130902 0.051951975
000370 32 73 4d bd 5a 69 42 bd 24 70 f8 3c b7 b2 80 bc
       -0.050158687 -0.047463752 0.03032691 -0.015710218
000380 a7 74 99 3d ab 69 f7 bd d6 65 3a 3c 6f df 28 bd
       0.07492953 -0.120807014 0.011376819 -0.041228708
000390 4e 44 68 bd e4 18 42 3d 71 88 53 3c 37 99 d7 bd
       -0.056705765 0.04738702 0.012910948 -0.1052727
0003a0 b7 2c 39 3d c9 50 e9 3c 61 e7 00 3d 2f f6 80 bd
       0.04520866 0.028480904 0.03147066 -0.06296956
0003b0 ab d0 b5 3d 8c 8d d2 bd c0 a9 bb 3d 71 38 25 3c
       0.08877691 -0.10280904 0.091632366 0.010084257
0003c0 23 42 33 3d 55 1f 85 3d 2e 80 4b bd 85 88 2f bd
       0.043764245 0.06500117 -0.04968279 -0.042854805
0003d0 62 57 56 be b5 83 59 3a ec 9b ab bd cd 00 10 bd
       -0.20931771 0.0008297519 -0.08379349 -0.035157014
0003e0 6f ac 86 3d 46 d8 d2 3c bb 73 da 3c 23 48 78 bd
       0.06575858 0.025737893 0.026666513 -0.06061567
0003f0 c8 e0 0a 3d 43 f0 ff bc 0a b7 cc 3d 33 e1 b1 bd
       0.033905774 -0.031242495 0.099958494 -0.086855315

network_body.observation_encoder.processors.0.normalizer.running_mean f4 [6]
000000 c9 15 db c0 2f 3a db 41 e1 80 c2 c1 45 1f 01 c2
       -6.8464093 27.40341 -24.31293 -32.280537
000010 c8 31 b3 3f e2 50 8e c2
       1.3999567 -71.157974
