Assets/Training/results/learn_v5/MarsTaxi/MarsTaxi-1999990.onnx (onnx, 542464 bytes, 10 tensors)

54 f4 [6]
0	0x420948d8	34.321136
1	0x41457a8d	12.34242
2	0x42447448	49.113556
3	0x3cbb663b	0.022875896
4	0x3a9f9cd4	0.0012177476
5	0x3d4e68b9	0.05039284

action_model._discrete_distribution.branches.0.bias f4 [6]
0	0x3d54ee9d	0.05198537
1	0x3cd463a8	0.025926426
2	0xbd32d71d	-0.04366218
3	0xbd1b97dc	-0.03798662
4	0x3cedb2db	0.029015949
5	0xbd75f261	-0.060045604

action_model._discrete_distribution.branches.0.weight f4 [6, 256]
0	0x3cf376e9	0.029719787
1	0x3d42333d	0.047412146
2	0x3d645365	0.055743594
3	0xbd60abe3	-0.054851424
4	0x3e06ee50	0.13176847
5	0x3c3b8962	0.011446329
6	0x3b37935c	0.0028011417
7	0x3d424f30	0.0474388
8	0xbd003c64	-0.031307593
9	0xbcb5acfe	-0.022177216
10	0xbdc98fb8	-0.09841865
11	0xbcf12f33	-0.029441452
12	0x3c71b727	0.01475314
13	0x3d8a15b3	0.0674242
14	0x3d060b38	0.032725543
15	0xbd83cf3e	-0.06436013
16	0x3d45a944	0.048257127
17	0xbd0df4b2	-0.034657188
18	0x3ccfa4ea	0.025347192
19	0xbd97733b	-0.07395025
20	0x3b6adf96	0.0035838834
21	0x3c7995e6	0.0152334925
22	0x3d4794f1	0.048726026
23	0x3dba3715	0.09092537
24	0xba8ab459	-0.0010582312
25	0x3d884a3b	0.06654783
26	0xbc2ff911	-0.010740534
27	0x3c19588b	0.009359489
28	0x3d8dbdf0	0.06920993
29	0xbd82b052	-0.06381287
30	0xbd3e454c	-0.046452805
31	0x3d461868	0.04836312
32	0xbdcd1c87	-0.10015207
33	0x3d5d67b5	0.05405398
34	0x3cb3114f	0.02185884
35	0x3d554f1a	0.05207739
36	0x3dd39fc1	0.10333205
37	0x3aa41805	0.0012519365
38	0x3d87fb01	0.06639672
39	0xbde828ee	-0.11335932
40	0xbd930a13	-0.07179656
41	0x3d4d4c31	0.05012149
42	0xbbf67517	-0.0075212824
43	0xbdbc4c38	-0.09194225
44	0x3d5a1d99	0.053250883
45	0x3cde2c0e	0.027120616
46	0xbd4844aa	-0.04889361
47	0x3d968403	0.07349398
48	0x3d805bca	0.062675074
49	0x3ccee311	0.025254758
50	0xbca0a74f	-0.019611029
51	0x3ce51ebc	0.027968757
52	0xbd722ee2	-0.059126742
53	0xbd7005f5	-0.05859943
54	0xbce4f4ab	-0.027948698
55	0xbde45132	-0.11148299
56	0x3b1c38fa	0.0023837672
57	0x3ae7ca08	0.0017684111
58	0xbd8dd99c	-0.06926271
59	0x3c90c834	0.01767359
60	0xbd0ce479	-0.034397576
61	0xbd92460b	-0.07142266
62	0xbd4d6179	-0.050141785
63	0x3c953f2f	0.018218605
64	0xb90c3f46	-0.00013375012
65	0x3d308518	0.043095678
66	0xbd03d723	-0.032187592
67	0x3d23f58d	0.040029097
68	0x3cd3637c	0.025804274
69	0x3d222b25	0.039591927
70	0x3d598907	0.053109195
71	0x3d8d7e24	0.06908825
72	0xbd08ba53	-0.033380818
73	0x3c2fb2b6	0.01072376
74	0xbde38599	-0.11109466
75	0xbc064b8e	-0.008196725
76	0x3cda9cad	0.026686037
77	0x3c976d4d	0.018484736
78	0x3b93e3ff	0.0045132632
79	0x3d11d8bb	0.03560708
80	0x3d1fc341	0.039004568
81	0xbd82ae0d	-0.06380854
82	0x3d4fce05	0.050733585
83	0x3c8862b8	0.016648635
84	0xbcfd2c39	-0.030904876
85	0x3cfd0e7f	0.030890701
86	0xbdaf6b0d	-0.0856534
87	0xbdc1f040	-0.09469652
88	0xbdc1aca4	-0.09456757
89	0xbd0b6ae6	-0.034037493
90	0x3b2addb9	0.0026072098
91	0xbd2dddbb	-0.042447787
92	0xbdf48a6a	-0.11940463
93	0xbbcc7d58	-0.006240528
94	0xbc2079fd	-0.009794709
95	0x3d434dc9	0.047681604
96	0xbdf93910	-0.12169087
97	0x3c95013d	0.018189067
98	0xbd609153	-0.054826092
99	0x3cad193a	0.021130193
100	0x3c9a26b0	0.018817276
101	0xbd68f664	-0.0568756
102	0xbd8ef674	-0.06980601
103	0xbd42a52d	-0.047520805
104	0xbd5458c7	-0.051842477
105	0x3c9c7975	0.019100884
106	0x3dac742a	0.08420594
107	0xbd5d4a06	-0.054025672
108	0x3da1c761	0.07899357
109	0xbdf25369	-0.118323155
110	0x3d55e869	0.052223597
111	0xbde2eb25	-0.110800065
112	0x3cb64ca1	0.022253336
113	0xbd63804c	-0.055542275
114	0xbbb69617	-0.0055720913
115	0x3cfb9895	0.030712405
116	0xbd0a31a4	-0.033738747
117	0x3d9a6e60	0.075405836
118	0xbce69793	-0.028148448
119	0xbc892c62	-0.016744796
120	0x3c30a953	0.010782558
121	0xbda1d05f	-0.07901072
122	0xbb68250e	-0.0035422477
123	0xbcb56b35	-0.022145847
124	0x3d968742	0.07350017
125	0x3dbe6387	0.09296327
126	0x3c74b4d9	0.014935696
127	0x3c97396d	0.01846
128	0x3ddb0c12	0.106956616
129	0x3d49dc0a	0.04928211
130	0xbb6c74af	-0.003608029
131	0xbd152dd9	-0.036420677
132	0xbdb48278	-0.088139474
133	0x3dcc7aac	0.09984335
134	0x3c2a6fbd	0.010402617
135	0x3d1fab14	0.038981512
136	0xbdcc9390	-0.09989083
137	0xbd4b6704	-0.04965879
138	0x39243136	0.00015658591
139	0x3c49ca16	0.012316247
140	0xbcbd74ac	-0.023126923
141	0xbba95ac0	-0.005168289
142	0x3d1a5feb	0.03768913
143	0xbd04a975	-0.03238817
144	0x3b392938	0.0028253328
145	0x3cd8cdb1	0.026465269
146	0x3d758e09	0.05994991
147	0xbcd0ad81	-0.025473358
148	0xbd05b7ba	-0.03264592
149	0x3d296c6b	0.04136316
150	0xbc8112c2	-0.015756015
151	0x3c68c6c9	0.01420755
152	0x3c3ed3b0	0.01164715
153	0x3c476571	0.012170182
154	0x3cb846ef	0.022494761
155	0x3d5413ea	0.051776804
156	0xbd939eca	-0.07208021
157	0x3d3582bd	0.044314135
158	0xbbcfc4bd	-0.0063405917
159	0xbdb06908	-0.08613783
160	0x3d2d8783	0.042365562
161	0x3d1a2170	0.037629545
162	0xbd5615ca	-0.052266873
163	0x3d878191	0.0661651
164	0x3d45e623	0.04831518
165	0xbdb2ea66	-0.08736114
166	0xbddc382c	-0.107529014
167	0xbd8d89ea	-0.06911071
168	0xbda38d30	-0.07985914
169	0xbc5f2d1a	-0.013621593
170	0x3cade327	0.021226479
171	0xbd1c53b6	-0.03816577
172	0xbd826a9e	-0.06367992
173	0x3c0331a7	0.0080074435
174	0x3d088843	0.033333074
175	0x3cbcb673	0.023036217
176	0x3ccb468d	0.024813915
177	0xbd179770	-0.037009656
178	0xbbd4c865	-0.0064936155
179	0x3d864b51	0.06557334
180	0x3cbe9ba2	0.02326757
181	0x3dbd539b	0.09244462
182	0x3d16d832	0.036827274
183	0x3c1f478f	0.009721651
184	0x3d9c3afe	0.07628439
185	0x3d91507c	0.07095429
186	0x3d804fdf	0.06265234
187	0x3db57eee	0.088621005
188	0x3d8e8a6f	0.06959998
189	0xba9d2f7c	-0.0011992301
190	0xbc8cd22b	-0.01719006
191	0x3da93f69	0.08264048
192	0xbdefe756	-0.11714046
193	0x3d5228cf	0.05130845
194	0xbde2f37f	-0.110815994
195	0xbde60f83	-0.112334274
196	0x3db21111	0.086946614
197	0xbd39dadc	-0.045374736
198	0xbd9a6720	-0.07539201
199	0x3d17cbd5	0.037059624
200	0xbd4b337e	-0.049609654
201	0x3d01f0de	0.03172385
202	0xb9c0d335	-0.00036778455
203	0x3c5b7a79	0.013395899
204	0xbdabbad2	-0.083852425
205	0x3d3d47dd	0.046211112
206	0xbc8f6c55	-0.017507711
207	0x3d0061aa	0.03134314
208	0x3bb2780f	0.005446441
209	0xbb179508	-0.00231296
210	0x3dac3198	0.08407897
211	0xbd8895de	-0.0666921
212	0xbdf8e034	-0.12152138
213	0x3cebcf93	0.028785503
214	0xbd284800	-0.04108429
215	0x3ccdde73	0.025130486
216	0xbde5cb24	-0.112203866
217	0x3d649905	0.055809993
218	0xbcac38c0	-0.021023154
219	0x3c684448	0.014176436
220	0xbde1285b	-0.10994025
221	0x3d84f5e6	0.06492214
222	0xbde5ad87	-0.11214738
223	0x3d9dcb21	0.077047594
224	0x3d9d2838	0.07673687
225	0x3db3e3aa	0.08783658
226	0xbda93c94	-0.082635075
227	0xbcdc0265	-0.02685661
228	0xbb70efb8	-0.0036763977
229	0x3cfc8eb4	0.030829765
230	0x3d266825	0.040626664
231	0xbc95044e	-0.01819053
232	0x3d74f90c	0.059807822
233	0x3d8831bd	0.06650112
234	0x3d7a0775	0.061042268
235	0xbcab3ad6	-0.020902079
236	0x3d7323b0	0.059360206
237	0x3c907624	0.017634459
238	0x3d77b4d7	0.060475197
239	0xbd87e1b2	-0.06634845
240	0xbd3e4acc	-0.04645805
241	0x3ca23a37	0.01980315
242	0xbd4de06e	-0.05026286
243	0xbd471d23	-0.04861177
244	0x3d118967	0.035531428
245	0xbc6a7048	-0.0143089965
246	0xbd48e0cf	-0.04904252
247	0x3d7bc7c1	0.061469797
248	0x3d1f581c	0.038902387
249	0x3dcb9f20	0.0994246
250	0xbdd2d08b	-0.10293683
251	0x3d98c277	0.07458966
252	0x3d496c0a	0.0491753
253	0xbdfd5d6f	-0.12371337
254	0x3cc92915	0.024555722
255	0x3c35e7ce	0.01110263

network_body._body_endoder.seq_layers.0.bias f4 [256]
0	0x3dd21435	0.102577604
1	0xbd1eb548	-0.038747102
2	0x3db9341f	0.090431444
3	0xbdba4eb8	-0.09097046
4	0x3de10073	0.10986414
5	0x3dd75ac3	0.10515358
6	0x3d2ddea1	0.042448644
7	0x3e374452	0.17897156
8	0x3dddacaf	0.108239524
9	0xbdc15178	-0.09439367
10	0x3e3259a6	0.1741701
11	0xbd26fdbf	-0.040769335
12	0xbbd7321f	-0.006567254
13	0x3dc55ba6	0.09636621
14	0xbde34bcf	-0.11098444
15	0xbd95df4b	-0.073179804
16	0x3dfda2f3	0.12384596
17	0xbc018df6	-0.007907381
18	0x3c40ba2d	0.011763138
19	0x3d9f7b42	0.077871814
20	0x3d841709	0.06449706
21	0xbd88d62e	-0.066814765
22	0x3b9ef89e	0.004851415
23	0xbd8b34e6	-0.06797199
24	0x3cbf9827	0.023387982
25	0xbc651666	-0.013982391
26	0x3e21c024	0.15795952
27	0x3a2589f3	0.00063148065
28	0x3dd32968	0.10310632
29	0x3db31eda	0.08746119
30	0x3c2b5af7	0.010458699
31	0xbd85a1dd	-0.065250136
32	0x3debcb5c	0.11513397
33	0x3dfd72fc	0.12375447
34	0x3e0b9a52	0.13633087
35	0x3d912096	0.070862934
36	0x3d1f82c1	0.038943056
37	0x3d622a24	0.05521597
38	0x3d9e107a	0.077179864
39	0x3d88c77e	0.06678675
40	0x3e22d08e	0.1589987
41	0x3e42c7c6	0.1902152
42	0x3e2bc1d0	0.16773152
43	0xbd8d6384	-0.06903747
44	0xbdbcb2f1	-0.09213818
45	0x3d8e0fd6	0.06936614
46	0x3cf25f5e	0.02958649
47	0xbd994589	-0.07483966
48	0x3dae5aee	0.08513437
49	0x3d5b8be7	0.05360022
50	0x3de2fd0e	0.110834226
51	0x3e0e2c7b	0.13884155
52	0x3d91e737	0.07124179
53	0x3d1e4fd7	0.03865036
54	0xbdbdc914	-0.09266868
55	0x3caa754e	0.020807888
56	0xbd348ecc	-0.044081494
57	0x3e1a815a	0.15088406
58	0x3df53039	0.11972088
59	0xbdcba4e6	-0.09943561
60	0xbd885e7a	-0.06658645
61	0x3d8a9e71	0.067685015
62	0x3de11810	0.10990918
63	0x3e13942e	0.14411995
64	0x3dd664a2	0.10468413
65	0x3d9649ed	0.07338319
66	0x3e1fe6f9	0.15615453
67	0xbdb54907	-0.088518195
68	0x3c9169fc	0.017750733
69	0x3d72eefc	0.059309945
70	0x3e0c5534	0.13704377
71	0xbd9ce08c	-0.076600164
72	0xbd1477c8	-0.036247045
73	0x3dd92e18	0.10604495
74	0x3de46f95	0.11154095
75	0x3de15997	0.11003416
76	0x3dc4691b	0.0959036
77	0x3df76043	0.12078907
78	0x3d0bde10	0.034147322
79	0x3bc216e8	0.005923141
80	0x3daa0ab6	0.08302824
81	0x3e224098	0.15844953
82	0x3de7afd8	0.113128364
83	0x3e272596	0.16322932
84	0x3cb1ed1d	0.02171951
85	0xbdb38fec	-0.08767685
86	0x3d384002	0.044982918
87	0x3da9e88b	0.08296307
88	0x3e017def	0.12645696
89	0x3db2cbfc	0.08730313
90	0xbddd6294	-0.10809818
91	0x3df0d9b4	0.117602736
92	0x3d95088f	0.07277023
93	0x3dc5770d	0.09641848
94	0xbcfd6fe9	-0.030937152
95	0x3cadf811	0.021236451
96	0xbd9ebaaa	-0.07750447
97	0x3c2c17ac	0.010503691
98	0x3dd04754	0.10169855
99	0xbdd59e1b	-0.10430547
100	0x3e017753	0.12643175
101	0x3de3826f	0.111088626
102	0x3e44501b	0.19171183
103	0xbd74e69f	-0.05979025
104	0xbdd38c98	-0.103295505
105	0xbd5090a2	-0.050919183
106	0xbdba010f	-0.09082233
107	0x3da5604c	0.08075008
108	0xbc85e6d5	-0.01634542
109	0x3d7e8653	0.06213982
110	0x3cb51110	0.022102863
111	0x3dda6dc1	0.10665465
112	0x3cc28099	0.02374296
113	0x3ced0962	0.028935138
114	0x3da5b223	0.080906175
115	0x3dce3a1f	0.100696795
116	0x3c0f60f0	0.008751139
117	0xbc4105a8	-0.011781134
118	0x3b43026d	0.0029756085
119	0xbdde555d	-0.108561255
120	0x3d8e53c9	0.069495745
121	0x3d3553c9	0.044269357
122	0xbc838496	-0.016054433
123	0x3df4bc9e	0.119500384
124	0x3db95fe7	0.09051495
125	0x3cf149bc	0.029454105
126	0xbd43cfa1	-0.047805432
127	0x3decd510	0.11564076
128	0x3dd6b8b1	0.10484446
129	0xbda61b24	-0.081106454
130	0xbd4d8de2	-0.050184138
131	0xbdd55932	-0.10417403
132	0xbc6ec04a	-0.0145722125
133	0xbaec4b35	-0.0018027785
134	0x3d582598	0.052770227
135	0x3e094401	0.13404848
136	0x3dc8175f	0.09770083
137	0xbd37979e	-0.044822328
138	0x3dc3f2e9	0.09567816
139	0x3dc1d3ae	0.09464203
140	0x3d8ed8d9	0.06974954
141	0x3e051b82	0.12998775
142	0x3d813b21	0.06310106
143	0x3d587b89	0.052852187
144	0x3df9ad2e	0.121912345
145	0x3dc2b26f	0.0950669
146	0x3ca9a807	0.020710004
147	0x3dc7ddbc	0.09759089
148	0x3dbcf5f8	0.09226602
149	0x3dcb3d67	0.09923821
150	0x3d7d6b61	0.061869983
151	0x3e140f99	0.14459075
152	0xbd54bd75	-0.051938493
153	0x3d9214e9	0.071328945
154	0x3dfc359e	0.12314914
155	0x3e001c20	0.12510729
156	0x3e1e290e	0.15445349
157	0x3e11ea78	0.14249599
158	0x3d0e6bf3	0.034770917
159	0x3d2840b1	0.04107732
160	0xbca3f131	-0.02001247
161	0xbce8cd7a	-0.028418291
162	0x3de91c49	0.11382348
163	0xbd3d6793	-0.046241354
164	0xbd93eb63	-0.07222631
165	0x3d193765	0.037406344
166	0x3dba9440	0.09110308
167	0xbcd7ec32	-0.026357744
168	0x3cc874b5	0.024469713
169	0xbd49d9c1	-0.049279932
170	0x3de1315c	0.10995743
171	0x3d71127f	0.05885553
172	0x3e0a1a42	0.13486579
173	0x3dbc3d32	0.091913596
174	0x3e20512a	0.15655962
175	0xbd7b3a01	-0.061334614
176	0xbc06d2fd	-0.008229014
177	0x3e371fb4	0.17883188
178	0x3d55037e	0.052005284
179	0x3e04dd1f	0.12974976
180	0xbd7c2787	-0.061561134
181	0x3e1614d7	0.14656387
182	0x3d80fd9a	0.06298371
183	0xbd28fe6a	-0.041258253
184	0x3da38a0e	0.07985316
185	0xbd51a94b	-0.05118684
186	0x3df27b9f	0.11839985
187	0xbdf512b7	-0.1196646
188	0xbd0c139b	-0.034198385
189	0x3e1a4343	0.15064721
190	0x3d9c05e9	0.07618315
191	0x3ce5a7c1	0.028034093
192	0x3e1fb745	0.15597256
193	0x3df2c5b4	0.11854115
194	0x3dcfb373	0.10141649
195	0xbdaeb6e7	-0.085309796
196	0x3cd93b25	0.02651746
197	0xbd0e92cb	-0.03480796
198	0x3d14f3d6	0.036365353
199	0xbda12e0c	-0.07870111
200	0x3d9b9467	0.07596665
201	0x3e00f4ad	0.12593336
202	0x3cc8e3ae	0.024522629
203	0x3e1c9089	0.15289511
204	0x3d542bbc	0.05179952
205	0x3dcc8754	0.09986749
206	0x3db1e23c	0.08685729
207	0xbc371197	-0.011173627
208	0x3d8658ee	0.06559931
209	0x3d867aba	0.06566377
210	0x3de1709f	0.11007809
211	0x3cce4d9e	0.025183495
212	0x3cd54f54	0.026038803
213	0xbc53c5f1	-0.012925611
214	0x3dc15c94	0.09441486
215	0x3e018e4f	0.12651943
216	0x3d05d93f	0.032677885
217	0x3d8be398	0.068305194
218	0xbc9c7eae	-0.019103374
219	0x3d6c6257	0.05771097
220	0x3e195083	0.14972119
221	0xbd9a8a5c	-0.07545921
222	0xbd048703	-0.03235532
223	0x3d3cd0b8	0.046097487
224	0x3db902e5	0.09033755
225	0x3daa8dd9	0.083278365
226	0x3db66cc7	0.089074664
227	0x3df00a99	0.11720771
228	0x3ce3ba56	0.027798813
229	0x3c865695	0.016398707
230	0x3d85198f	0.064990155
231	0xbe1c4cd9	-0.1526369
232	0xbcb4edef	-0.022086112
233	0x3def5ef3	0.11688032
234	0x3da439c8	0.080188334
235	0x3e2cbb1e	0.16868255
236	0x3d324192	0.043519564
237	0x3e05544e	0.13020441
238	0xbd31e636	-0.043432437
239	0x3df19b2c	0.11797175
240	0x3d8ac896	0.0677654
241	0xbc132a5c	-0.008982267
242	0x3ddab39e	0.106787905
243	0x3de06940	0.10957575
244	0x3cf09b99	0.02937107
245	0x3dd04956	0.10170238
246	0x3e00c03a	0.12573329
247	0x3e0051ec	0.1253125
248	0x3dcc2c7e	0.09969424
249	0x3cb77b36	0.022397619
250	0x3e23be46	0.15990552
251	0x3dc500ce	0.09619294
252	0xbcc12432	-0.02357683
253	0x3cbca901	0.023029806
254	0x3d6e13d6	0.058124386
255	0x3db45d12	0.08806814

network_body._body_endoder.seq_layers.0.weight f4 [256, 6]
0	0xbef95502	-0.48697668
1	0xbe2e909f	-0.17047356
2	0x3e686c9c	0.22697681
3	0xbe0d57d1	-0.1380303
4	0x3ea942ca	0.3305877
5	0x3e523138	0.20526588
6	0x3eb5d188	0.35511422
7	0xbf8776c1	-1.0583116
8	0x3ca9c54f	0.020723967
9	0x3f20be3c	0.62790275
10	0x3e86feec	0.26366365
11	0xbd037cd3	-0.032101464
12	0x3f113c32	0.56732476
13	0xbdbb0421	-0.09131647
14	0xbcbb70b8	-0.022880897
15	0x3e46dc04	0.19419867
16	0xbebdf916	-0.371041
17	0xbf093c3f	-0.53607553
18	0xbd49e6d2	-0.049292393
19	0xbf85ceec	-1.0453773
20	0x3dc19e33	0.09454002
21	0xbea4ffd7	-0.3222644
22	0xbd82553e	-0.06363915
23	0x3ed7567e	0.42058176
24	0xbe8ef774	-0.27923167
25	0x3e5a9f90	0.21349931
26	0xbecfb525	-0.4056789
27	0x3e6816ec	0.22664994
28	0x3e58ae2d	0.21160193
29	0xbf2bc84a	-0.6710249
30	0x3f36ec3e	0.71454227
31	0x3c24d216	0.010059854
32	0x3f1af40a	0.60528624
33	0x3ed2720c	0.41102636
34	0xbea2a12a	-0.31763583
35	0xbf8a2924	-1.0793805
36	0x3ed83a73	0.42232093
37	0xbe8b3562	-0.27189165
38	0xbddd7202	-0.10812761
39	0x3ee9fde8	0.45701528
40	0xbe1202f9	-0.14258946
41	0x3eb8c41a	0.36087114
42	0xbec88d15	-0.39170137
43	0x3e97d2af	0.29652926
44	0x3f2cbdba	0.67477
45	0xbe49855a	-0.19679776
46	0x3f097a01	0.5370179
47	0xbe233709	-0.15938963
48	0x3e8794ff	0.26480862
49	0x3e2c7991	0.16843249
50	0xbf05adc6	-0.5221828
51	0xbe2ce58f	-0.16884445
52	0x3f0a1819	0.5394302
53	0x3e020242	0.12696174
54	0xbd0e331f	-0.03471672
55	0xbf431af3	-0.76212996
56	0x3d32ecbb	0.043682795
57	0xbe46da0a	-0.19419113
58	0xbf37298f	-0.7154779
59	0xbd086d4b	-0.033307355
60	0xbf7e2919	-0.9928146
61	0x3f28601c	0.6577165
62	0x3ed8c419	0.4233711
63	0x3ebf82bd	0.37404433
64	0x3f7e660b	0.99374455
65	0xbdce5fde	-0.10076879
66	0x3bde1b59	0.0067781624
67	0x3ee2e850	0.44317865
68	0xbedcbbee	-0.4311213
69	0x3ea69ff1	0.325439
70	0xbb1117a5	-0.0022139337
71	0x3e2f9b46	0.17149076
72	0x3ec64ff5	0.38732877
73	0xbe4dbc1b	-0.20091288
74	0xbed37ba4	-0.41305268
75	0x3d134c89	0.03596166
76	0xbeef8ffd	-0.46789542
77	0x3e9aacb8	0.302099
78	0xbeaee07f	-0.34155652
79	0xbea9e142	-0.3317967
80	0x3ee80ce4	0.45322335
81	0x3f1e813a	0.61915934
82	0x3de65e1d	0.112484194
83	0xbf8445d0	-1.0333805
84	0xbd983588	-0.07432085
85	0x3e83e5ec	0.25761354
86	0x3d166e99	0.036726568
87	0x3eb9e3ce	0.36306614
88	0xbf3547d8	-0.7081275
89	0x3ed2d56e	0.4117846
90	0x3c2177bd	0.009855208
91	0xbea357c6	-0.31902903
92	0xbee242a3	-0.44191465
93	0xbe853730	-0.26018667
94	0xbe038c8c	-0.12846583
95	0xbd212448	-0.03934124
96	0x3f309442	0.68976223
97	0x3ed703f3	0.419952
98	0x3f06c546	0.52644765
99	0x3eb1183b	0.345888
100	0x3f086144	0.53273416
101	0xbece95b3	-0.40348586
102	0xbe6b4ad4	-0.22977763
103	0xbe0e3fa1	-0.1389146
104	0xbec1f635	-0.37883154
105	0xbf1423e1	-0.57867247
106	0x3e33bfc4	0.17553622
107	0x3f14b8e0	0.58094597
108	0xbf338707	-0.7012791
109	0xbec3b982	-0.3822747
110	0xbf48dc70	-0.7846136
111	0x3e9dd080	0.30823135
112	0x3f14c481	0.5811234
113	0x3e840848	0.25787568
114	0x3defcdbf	0.11709165
115	0xbe4e76fb	-0.20162575
116	0x3f0324ef	0.5122823
117	0xbe497eea	-0.1967732
118	0x3e15a40b	0.14613359
119	0xbf02798b	-0.5096671
120	0xbdb115dc	-0.086467475
121	0xbebae96c	-0.36506212
122	0xbf382bbb	-0.7194173
123	0xbf4e9bf3	-0.8070671
124	0x3f34e842	0.706669
125	0x3c90da45	0.017682204
126	0xbd560c25	-0.052257676
127	0xbf10a833	-0.5650665
128	0xbe031d73	-0.12804203
129	0x3e44b11c	0.19208187
130	0x3e857a0d	0.2606968
131	0xbf0dcada	-0.5538765
132	0x3eec32c3	0.46132478
133	0xbecfad4c	-0.40561903
134	0xbe586e26	-0.21135768
135	0x3ec75052	0.38928467
136	0xbf0bf987	-0.54677624
137	0x3f7784e4	0.9668715
138	0xbe8cd014	-0.275025
139	0x3f00353f	0.5008125
140	0x3bf4aace	0.0074666506
141	0x3e278f09	0.16363157
142	0x3de8680c	0.1134797
143	0x3f65436e	0.89556015
144	0x3e371e32	0.17882612
145	0x3eec5e4f	0.46165702
146	0x3f0f6c5c	0.5602472
147	0x3ed15895	0.40887895
148	0xbea0b4b9	-0.3138788
149	0x3ea33b87	0.31881353
150	0xbe9252d6	-0.28578824
151	0x3e612709	0.21987547
152	0xbec3cec8	-0.382437
153	0xbf16a505	-0.5884555
154	0x3da3edde	0.08004354
155	0x3e1c7ad9	0.15281238
156	0x3f071943	0.5277292
157	0x3f055ff0	0.52099514
158	0x3d8cf4ea	0.06882651
159	0xbf277f41	-0.6542855
160	0x3eb9a682	0.36259848
161	0xbe0d64de	-0.13808009
162	0x3f1626ac	0.5865276
163	0xbf13b700	-0.5770111
164	0xbf097d99	-0.5370727
165	0xbf0228ee	-0.50843704
166	0x3e1de8a0	0.1542077
167	0xbeb514b8	-0.3536737
168	0xbe780ccf	-0.24223636
169	0xbf228ec7	-0.6349911
170	0x3f71ec18	0.94500875
171	0x3ebc064f	0.36723563
172	0xbe9968ae	-0.29962677
173	0x3e6735d1	0.22579123
174	0x3e9d69e7	0.3074486
175	0x3df89054	0.121369034
176	0x3ee9d0a9	0.45667008
177	0x3e3f4aeb	0.18680923
178	0xbdd06960	-0.10176349
179	0x3e11a641	0.14223577
180	0xbee98c55	-0.45614877
181	0xbc8ede1a	-0.01743989
182	0xbed368f3	-0.41291007
183	0x3f142747	0.5787243
184	0x3e278980	0.16361046
185	0xbf3c00a3	-0.7343847
186	0xbe88c097	-0.26709434
187	0x3e26a399	0.16273345
188	0xbea1b2b1	-0.31581643
189	0xbe2ceab7	-0.16886412
190	0x3f2807a8	0.6563668
191	0x3aad6b04	0.0013230746
192	0xbf1a66b0	-0.6031294
193	0x3f349258	0.705358
194	0x3d7ad9ec	0.061242983
195	0x3e22c4a5	0.15895326
196	0x3f67b009	0.90502983
197	0xbe174007	-0.14770518
198	0x3efc0dd8	0.49229312
199	0x3ee3c4b2	0.44486004
200	0xbe937d8c	-0.28806722
201	0x3e6d9ab1	0.23203541
202	0x3f1cdefb	0.6127774
203	0xbda3af72	-0.07992448
204	0xbf4061cb	-0.7514922
205	0x3f03ccbd	0.5148428
206	0x3e3d2443	0.18470864
207	0xbe1fa634	-0.15590745
208	0x3f1e9615	0.61947757
209	0x3e91987d	0.28436652
210	0x3e667f67	0.22509538
211	0x3e5d0685	0.21584518
212	0xbeb6632a	-0.3562253
213	0xbf329522	-0.6975881
214	0xbe73362e	-0.23751137
215	0x3dc16322	0.09442736
216	0xbe72d6de	-0.23714778
217	0x3d15dc1d	0.03658687
218	0xbe21651b	-0.15761225
219	0xbec7aa5a	-0.38997155
220	0xbe00ce9a	-0.12578812
221	0x3f19839e	0.59966457
222	0xbecf786c	-0.40521562
223	0xbf2044df	-0.6260509
224	0x3d7b07c5	0.061286706
225	0x3e1df50b	0.15425508
226	0x3ec55054	0.38537848
227	0x3f4eee9e	0.8083285
228	0x3d4bfe2f	0.049802955
229	0x3ed949bf	0.42439076
230	0x3e832feb	0.25622496
231	0xbece1398	-0.40249324
232	0x3ebc6824	0.36798203
233	0xbdfe6bda	-0.12422915
234	0xbefcb236	-0.49354714
235	0xbdb6198a	-0.0889159
236	0xbe52d6a4	-0.20589691
237	0xbf3870f2	-0.7204734
238	0x3e9526df	0.2913122
239	0xbf394e99	-0.72385556
240	0x3e73420b	0.23755662
241	0x3e650e75	0.22368796
242	0x3f071439	0.5276523
243	0xbf139acd	-0.5765808
244	0x3f337d74	0.701133
245	0xbf06dd1a	-0.52681124
246	0xbe4e982e	-0.2017524
247	0x3f24dfd4	0.64404035
248	0x3f1b842d	0.6074856
249	0xbf1bcfbd	-0.6086386
250	0x3f1f39ac	0.62197375
251	0xbf20fed6	-0.6288885
252	0xbed2b145	-0.4115087
253	0x3ef04376	0.4692647
254	0x3f167d30	0.5878477
255	0xbdac25cb	-0.08405646

network_body._body_endoder.seq_layers.2.bias f4 [256]
0	0xbda9805b	-0.08276435
1	0x3d5183c3	0.05115105
2	0x3da68d24	0.08132389
3	0x3ca90e42	0.020636681
4	0xbdc6972f	-0.09696805
5	0xbdc2fe4b	-0.09521159
6	0xbd20e320	-0.039279103
7	0x3d83e184	0.06439498
8	0xbd96f662	-0.073712125
9	0x3d8920c5	0.066957034
10	0xbe13f2d2	-0.14448097
11	0x3d839102	0.064241424
12	0xbdc24d35	-0.09487382
13	0x3cf94c49	0.030431883
14	0xbd193b73	-0.03741021
15	0x3cdfaeb0	0.027304977
16	0x3d8b7bb4	0.06810704
17	0x3da81792	0.08207621
18	0x3d98e659	0.0746581
19	0xbdd5b2f9	-0.10434527
20	0x3d987c8a	0.07445629
21	0x3d7ecda8	0.062207848
22	0x3c881281	0.016610386
23	0x3c72af8a	0.01481236
24	0x3d8e424b	0.06946238
25	0xbd77318c	-0.060349986
26	0x3e0380d0	0.12842107
27	0x3d177b30	0.036982715
28	0x3d830c95	0.06398884
29	0x3db25d14	0.087091595
30	0xbcf80e3c	-0.030280225
31	0xbd45bb64	-0.048274413
32	0x3b581fcb	0.0032977934
33	0x3e29bba2	0.16575482
34	0x3c03feed	0.0080563845
35	0xbdaef1d9	-0.085422225
36	0xbd62aedc	-0.05534254
37	0x3daff78a	0.08592136
38	0xbddad874	-0.106858164
39	0x3ac76914	0.0015213811
40	0x3cb8657a	0.022509325
41	0x3de8a187	0.11358934
42	0xbe12b74b	-0.14327733
43	0xbd89b874	-0.06724635
44	0xbd0af813	-0.03392799
45	0x3d5e2304	0.054232612
46	0xbdc4990b	-0.09599503
47	0xbce26b7c	-0.027639143
48	0xbc952809	-0.018207567
49	0xbcf3da3f	-0.029767154
50	0xbde255dd	-0.11051533
51	0x3d9589fc	0.07301709
52	0x3e11d453	0.14241152
53	0xbd71ef43	-0.05906607
54	0xbe00c39d	-0.1257462
55	0x3d730167	0.05932751
56	0xbb25b695	-0.002528583
57	0xbd43f88a	-0.047844447
58	0x3d6f5f9c	0.05844079
59	0x3cfc6490	0.03080967
60	0x3d861f9f	0.06549
61	0xbc18b8dd	-0.009321419
62	0x3d1eca0a	0.0387669
63	0xbccec14c	-0.025238656
64	0xbd76013a	-0.060059763
65	0x3cb517af	0.02210602
66	0x3d0b474c	0.03400354
67	0xbdc23346	-0.09482436
68	0xbdc250ee	-0.09488092
69	0xbd11fcd9	-0.035641525
70	0x3b912cbf	0.004430383
71	0x3e01aa94	0.12662727
72	0x3d857a99	0.06517524
73	0x3d340a14	0.043954924
74	0xbc0a885a	-0.00845536
75	0x3d7d1ba7	0.06179395
76	0x3cfc30d0	0.030784994
77	0x3c8fda77	0.017560227
78	0xbd2a899f	-0.041635152
79	0xbdd770f7	-0.10519593
80	0xbca64840	-0.020298123
81	0xbe2666e6	-0.1625019
82	0x3d292616	0.041296087
83	0x3cf71d93	0.03016547
84	0x3c94645f	0.018114267
85	0x3c95e097	0.01829557
86	0x3c14a705	0.009073024
87	0xbc915262	-0.017739478
88	0xbdc118f5	-0.09428588
89	0xbcd39538	-0.025827989
90	0x3d87ffa8	0.066405594
91	0xbdacdb95	-0.084403194
92	0xbd37e669	-0.04489747
93	0xbdbbc1ec	-0.09167847
94	0xbdadb24a	-0.084812716
95	0xbd85c574	-0.06531802
96	0xbcec1f44	-0.028823502
97	0x3d904354	0.07044092
98	0x3d536e80	0.051619053
99	0x3c55e452	0.013054924
100	0x3e16f6de	0.1474261
101	0x3c9ec0db	0.01937907
102	0xbdcfaf9d	-0.101409175
103	0x3daa80d2	0.08325352
104	0x3d2b214b	0.041779798
105	0xbe011c18	-0.12608373
106	0xbdd69279	-0.10477156
107	0x3d523249	0.051317487
108	0x3da31513	0.07963004
109	0x3d11b934	0.035577014
110	0xbd49ba2c	-0.049249813
111	0xbce86aa1	-0.028371157
112	0x3d6553c6	0.055988096
113	0x3c721874	0.014776338
114	0xbd51c4d7	-0.05121311
115	0xbde31cb4	-0.11089459
116	0xbdcf4ccf	-0.10122072
117	0x3d85c1d7	0.06531113
118	0x3d9908e0	0.07472396
119	0xbc8d6719	-0.017261075
120	0xbc579869	-0.013158896
121	0xbdc445d4	-0.09583631
122	0xbdc52f5a	-0.09628172
123	0xbcd18cd4	-0.025579847
124	0x3d91a999	0.07112426
125	0xbd7d20e4	-0.061798945
126	0x3cdef71c	0.02721744
127	0x3cd0166d	0.025401318
128	0xbe0cd804	-0.13754278
129	0xbdff004c	-0.124512285
130	0xbe03823f	-0.12842654
131	0x3d9348c4	0.07191613
132	0xbe0673fb	-0.1313018
133	0x3de2f333	0.11081543
134	0x3d3d5417	0.046222772
135	0xbd8f11be	-0.06985806
136	0x3df147aa	0.11781247
137	0xbb8279b8	-0.003981795
138	0x3d8fcc49	0.07021386
139	0x3daf7732	0.085676566
140	0xbc28c0a1	-0.010299833
141	0xbdbbf8fa	-0.09178348
142	0xbda1d1c4	-0.07901338
143	0x3d751a71	0.05983967
144	0x3d8532ec	0.06503853
145	0xbd2d405f	-0.042297717
146	0x3c060271	0.008179293
147	0xbcbc702d	-0.023002708
148	0xbc47c654	-0.012193281
149	0x3d832250	0.06403029
150	0x3d1373b8	0.03599903
151	0xbc1446c2	-0.009050073
152	0x3d8c3e35	0.068478025
153	0x3d3a30d0	0.045456707
154	0xbde70822	-0.11280848
155	0x3dbc6d37	0.092005186
156	0xbdace08d	-0.08441267
157	0xbde5d5ce	-0.11222421
158	0xbdf1941e	-0.11795829
159	0xbd0cbf44	-0.034362093
160	0xbde6b3b7	-0.11264747
161	0xb71527dc	-8.890373e-06
162	0x3d50378e	0.05083423
163	0x3da84603	0.08216479
164	0x3d9179c8	0.07103306
165	0x3cdd0e3c	0.026984327
166	0x3db0f54c	0.08640537
167	0x3d374ba0	0.044749856
168	0xbcf16ffa	-0.02947234
169	0xbdbf5873	-0.09343042
170	0x3d4eef37	0.0505211
171	0x3d99bdb8	0.07506889
172	0xbdd6b480	-0.104836464
173	0x3e2b9b24	0.167584
174	0x3c766fce	0.015041305
175	0xbd948b02	-0.07253076
176	0x3deeb90b	0.11656388
177	0x3d12cb85	0.035838623
178	0xbda12c74	-0.07869807
179	0x3e04737b	0.12934677
180	0xbbc2a3c7	-0.005939934
181	0x3dd57c1a	0.10424061
182	0x3d10ff33	0.035399627
183	0xbd8cb2dd	-0.06870053
184	0xbdc4c836	-0.096085
185	0x3d8dfd1c	0.069330424
186	0x3e065ac9	0.1312057
187	0x3da6f363	0.08151891
188	0xbd1be58d	-0.038060714
189	0xbd4533e4	-0.04814519
190	0x3d2d0c1e	0.042247884
191	0xbe1eeb4e	-0.15519449
192	0x3d58ba0c	0.052911803
193	0x3da5a51d	0.080881335
194	0xbc86808a	-0.016418714
195	0x3d65033e	0.055911295
196	0x3ddb04ef	0.106943004
197	0xbd92b784	-0.07163909
198	0xbdf77e30	-0.12084615
199	0xbdd71196	-0.10501401
200	0xbd7ec32c	-0.06219785
201	0x3a828018	0.0009956388
202	0x3d086640	0.03330064
203	0x3d35f9ea	0.04442779
204	0x3dbfc47c	0.09363648
205	0xbc477be6	-0.012175536
206	0xbcd5ec85	-0.026113758
207	0x3d81616e	0.06317411
208	0xbd96ba35	-0.07359735
209	0x3d90fbf9	0.0707931
210	0xbe07de9b	-0.13268511
211	0xbca884be	-0.020571109
212	0xbd30c2cd	-0.043154527
213	0xbd7c61ac	-0.061616585
214	0x3cf9f985	0.030514488
215	0xbcaa3ea3	-0.02078182
216	0x3d6158f8	0.055016488
217	0xbc2be96a	-0.010492662
218	0xbdd3d88b	-0.10344037
219	0x3d8565f8	0.065135896
220	0x3dd9541f	0.10611748
221	0xbe109fd4	-0.1412347
222	0xbddb3bcf	-0.10704767
223	0x3d10d5ee	0.03536027
224	0xbca104c4	-0.019655593
225	0xbdc4e64a	-0.09614237
226	0xbdc537db	-0.09629794
227	0x3d93fd73	0.07226076
228	0x3dc51b86	0.0962439
229	0xbd7f2e11	-0.06229979
230	0x3d86501e	0.0655825
231	0xbd5c37d0	-0.053764164
232	0x3decf7b6	0.115706846
233	0x3dd91b9e	0.10600971
234	0x3d494bf9	0.04914472
235	0x3d4e82b5	0.05041762
236	0xbdae2f6c	-0.08505139
237	0x3db6758f	0.08909141
238	0x3ddbf9a5	0.10740975
239	0xbdf1fd4f	-0.11815893
240	0x3d813172	0.06308259
241	0xbd704039	-0.058654997
242	0x3daea396	0.08527295
243	0x3cb451e6	0.022011708
244	0xbdc1a0fd	-0.09454534
245	0xbd211534	-0.03932686
246	0x3cddb3e6	0.027063321
247	0x3d761c33	0.060085487
248	0xbd3c6f41	-0.046004537
249	0xbdb9f1e5	-0.09079341
250	0x3e166975	0.14688666
251	0xbc9d89a0	-0.019230664
252	0x3d7da00e	0.06192022
253	0xba1ac02f	-0.00059032714
254	0x3dc4040f	0.095710866
255	0x3ce451d4	0.02787105

network_body._body_endoder.seq_layers.2.weight f4 [256, 256]
0	0xbdfb0ff5	-0.12258903
1	0xbb964ce8	-0.0045868047
2	0xbd77b81a	-0.060478307
3	0xbc8f5dae	-0.017500725
4	0xbddd8697	-0.108166866
5	0xbe2cf9f3	-0.16892223
6	0x3d13df28	0.03610149
7	0xbd398daf	-0.045301136
8	0xbc8f9b68	-0.017530158
9	0xbc8b4729	-0.017001705
10	0xbdf4dce2	-0.119561926
11	0xba6d546a	-0.0009053411
12	0xbd2a7844	-0.0416186
13	0xbd82ffbd	-0.063964345
14	0xbd1cdd11	-0.038296763
15	0xbd5be933	-0.053689193
16	0xbdb7ef3b	-0.089811765
17	0xbe256730	-0.16152644
18	0xbdbeabf7	-0.093101434
19	0x3c1c2c8e	0.009532107
20	0x3c80d620	0.015727103
21	0xbd6f3410	-0.05839926
22	0x3d74df32	0.059783168
23	0xbdb74600	-0.08948898
24	0x3d6ca1ef	0.05777162
25	0xbd955900	-0.07292366
26	0x3dd7cb66	0.10536842
27	0x3dba837f	0.09107112
28	0x3cee7e1d	0.02911287
29	0x3c7d65ca	0.015466163
30	0xbd974f30	-0.07388151
31	0xbd5ea7c0	-0.054359198
32	0xbca1a4ae	-0.019731846
33	0xbb8f0c2a	-0.0043654637
34	0xbcdebe71	-0.027190419
35	0xbdf19376	-0.11795704
36	0xbda85745	-0.0821977
37	0xbdcc5663	-0.099774145
38	0xbc7db2a0	-0.015484482
39	0xbd19bb0f	-0.03753191
40	0xbccba37d	-0.02485823
41	0xbd15e241	-0.036592726
42	0xbdd1977a	-0.1023397
43	0x3dc6873c	0.09693763
44	0x3cd6834c	0.026185654
45	0xbd1db53d	-0.03850292
46	0xbced0cbf	-0.028936742
47	0x3c731ebe	0.0148388725
48	0xbe09ca8e	-0.13456175
49	0xbe771018	-0.24127233
50	0xbdcdeb83	-0.10054686
51	0x3d98de77	0.07464307
52	0xbe3fe353	-0.18739061
53	0xbd4d48d3	-0.05011828
54	0x3d3b5a26	0.04574027
55	0xbd2202d0	-0.039553463
56	0x3e1807ef	0.14846776
57	0xbd8fac08	-0.07015234
58	0xbe26a5a7	-0.16274129
59	0x3dc65f17	0.09686106
60	0x3d31777b	0.043326836
61	0xbd914650	-0.07093489
62	0xbc9f33ea	-0.019433934
63	0xbe3340ad	-0.1750514
64	0xbd9d20fd	-0.07672308
65	0xbd9ab90d	-0.07554827
66	0x3dc6f0b3	0.097138785
67	0x3dad1b69	0.08452494
68	0x3d7b53ff	0.0613594
69	0xbcc8dd4b	-0.024519583
70	0xbe0c69fc	-0.13712305
71	0xbd1afc61	-0.037838344
72	0xbcdec50c	-0.027193569
73	0xbda9de63	-0.0829437
74	0x3da6219c	0.08111879
75	0x3b91b743	0.0044468953
76	0x3d48b1c7	0.048997667
77	0xbdb55eaa	-0.08855946
78	0x3ac99a86	0.0015381135
79	0x3bbaf1fd	0.005705117
80	0xbe11a544	-0.142232
81	0xbd93006e	-0.07177816
82	0xbdc2f69f	-0.095196955
83	0xbc60d8a5	-0.013723527
84	0xbd812864	-0.06306532
85	0x3cde0f2a	0.02710684
86	0x3ced2206	0.028946888
87	0xbe4e10bb	-0.2012357
88	0xbd14ce1a	-0.036329366
89	0xbd89dc76	-0.06731503
90	0x3dcb1a89	0.099171706
91	0xbdb270c9	-0.08712918
92	0xbd90c606	-0.0706902
93	0xbcf0fd44	-0.029417641
94	0x3df1023b	0.117680036
95	0x3d30e777	0.043189492
96	0xbc7d8fd8	-0.01547619
97	0xbbad86f4	-0.0052956287
98	0xbcbb83ff	-0.02289009
99	0xbd226a71	-0.03965229
100	0xbd9d30af	-0.07675301
101	0xbd50cdaa	-0.050977387
102	0xbdb0e063	-0.08636548
103	0x3d71a450	0.05899459
104	0x3c4ba958	0.012430511
105	0xbd894ec1	-0.06704474
106	0x3c5bdd68	0.013419487
107	0xbda95463	-0.082680486
108	0x3c768073	0.015045273
109	0x3d637f72	0.055541463
110	0xbe8dcb52	-0.27694184
111	0xbe104318	-0.14088094
112	0xbe09d6a5	-0.13460787
113	0x3d2af7c9	0.041740213
114	0x3c40453c	0.011735257
115	0xbe170e21	-0.14751484
116	0x3b9883d1	0.0046543856
117	0xbd59d2c2	-0.05317951
118	0xbd4c4b47	-0.049876478
119	0x3b8ca613	0.0042922585
120	0xbe1c308f	-0.15252899
121	0x3c8bc9ab	0.017063936
122	0xbd2f9984	-0.042871013
123	0xbe151c41	-0.1456156
124	0xbd403823	-0.046928536
125	0xbda560f5	-0.08075134
126	0x3d24f651	0.040273968
127	0xbd97a723	-0.07404926
128	0xbde6f76e	-0.11277662
129	0xbbd2b9bd	-0.006430833
130	0x3d0528ca	0.032509603
131	0x3e3cb583	0.18428616
132	0x3d2534d7	0.040333595
133	0xbde6360f	-0.112407796
134	0xbdd06835	-0.10176126
135	0xbdf45a71	-0.11931313
136	0xbb24932b	-0.0025112133
137	0xbd852a97	-0.06502264
138	0x3b48bb41	0.003062919
139	0x3b80ab85	0.0039266967
140	0xbe04d0ff	-0.1297035
141	0xbbb49fd4	-0.005512217
142	0xbdc1f806	-0.09471135
143	0xbc45d8b1	-0.012075589
144	0xbb789ade	-0.0037934105
145	0xbd8ad7a4	-0.067794114
146	0xbb6ec7ed	-0.0036435083
147	0xbdf41efd	-0.11919973
148	0xbdc42f35	-0.095793165
149	0x3b19045d	0.0023348548
150	0x3cb526ab	0.022113165
151	0xbccd261c	-0.025042586
152	0x3d0408cc	0.03223495
153	0x3bffc634	0.00780561
154	0xbdd35314	-0.1031858
155	0xbcd661ef	-0.026169745
156	0x3ccdb502	0.025110725
157	0xbd12a3ba	-0.035800673
158	0xbd6ff174	-0.058579877
159	0xbd80e914	-0.06294456
160	0x3c2e1d86	0.010627156
161	0x3d1a967b	0.037741166
162	0xbaf808b6	-0.0018923494
163	0xbc5aab1e	-0.013346462
164	0xbcf1c939	-0.029514896
165	0x3d291fd9	0.041290138
166	0xbe02cd53	-0.12773637
167	0xbd357bdc	-0.044307575
168	0x3d395908	0.045250922
169	0x3d44d06c	0.04805033
170	0xbd91cb5c	-0.07118866
171	0x3d8fd6cf	0.07023393
172	0xbd1d43b5	-0.03839465
173	0xbe2afec9	-0.16698755
174	0xbc45fb7c	-0.012083884
175	0x3dda710f	0.106660955
176	0xbd8d5d1b	-0.06902524
177	0xbd2b1065	-0.041763682
178	0xbd279385	-0.04091217
179	0xbe877ec2	-0.26463896
180	0x3c8ccea8	0.017188385
181	0xbe0f1fb2	-0.13976935
182	0xbe1a32e1	-0.15058471
183	0x3c4a22a3	0.01233736
184	0xbd6c874a	-0.05774621
185	0xbcff6198	-0.031174466
186	0xbd87d37e	-0.06632136
187	0xbd2ceb01	-0.042216305
188	0x3d5a6247	0.05331638
189	0xbc5980b7	-0.013275317
190	0xbcd0d0fa	-0.025490273
191	0x3c2a45f9	0.010392659
192	0x3d00c566	0.031438254
193	0xbb9cc894	-0.004784653
194	0xbd5c66ff	-0.053809162
195	0x3b0b7ddf	0.0021284742
196	0x3d776ac9	0.060404573
197	0xbd5de947	-0.05417755
198	0xbd6e2548	-0.058141023
199	0x3d2915f3	0.041280698
200	0xbda219bc	-0.07915065
201	0xbcc07db8	-0.023497447
202	0xbd40b86d	-0.047050882
203	0xbddd9a98	-0.10820502
204	0x3d0adee5	0.033903975
205	0xbc8828fe	-0.01662111
206	0xbcf577b3	-0.029964304
207	0x3d69b730	0.057059467
208	0x3d9ca930	0.076494575
209	0x3da4142c	0.0801166
210	0x3d1ba581	0.037999634
211	0xbd3976b7	-0.04527923
212	0x3c8ea44e	0.017412331
213	0xbb641a63	-0.0034805767
214	0xbd1b3aa2	-0.037897713
215	0xbd6fcb14	-0.05854328
216	0xbc9bc50a	-0.019014854
217	0xbc290d88	-0.0103181675
218	0x3d93908c	0.072053045
219	0xbca20614	-0.019778289
220	0x3dbdcbd3	0.09267392
221	0xbd6d1c10	-0.05788809
222	0xbd3d8ed1	-0.04627878
223	0x3d39d0dc	0.0453652
224	0xbe4ef2ba	-0.2020978
225	0xbb851839	-0.0040617255
226	0xbd09a0c4	-0.033600584
227	0xbc948f9d	-0.018134886
228	0xbd47dd0e	-0.0487948
229	0x3d948c0f	0.072532766
230	0xbcaf6d4b	-0.02141442
231	0x3e158c08	0.14604199
232	0xbd08492b	-0.033272903
233	0x3d7959f2	0.060876794
234	0xbd4bb789	-0.04973558
235	0xbe0cc520	-0.13747072
236	0x3c0ec9ea	0.008715132
237	0xbcda6c93	-0.0266631
238	0x3dac9e39	0.08428616
239	0xbddf7fd4	-0.10913053
240	0xbe1e66b3	-0.15468864
241	0xbddda217	-0.10821932
242	0xbe65b29b	-0.22431414
243	0xbde44d57	-0.11147564
244	0xbdaf31c2	-0.085544124
245	0xbd4e471a	-0.050360776
246	0xbda9de70	-0.0829438
247	0xbd41c809	-0.04730991
248	0xbe01c85a	-0.12674084
249	0xbcc7e225	-0.024399826
250	0xbd1b4e43	-0.037916433
251	0xbd58b42b	-0.052906197
252	0x3d4b048a	0.049564876
253	0xbd193430	-0.037403286
254	0xbdeb237d	-0.11481378
255	0xbd4b449a	-0.04962597

network_body._body_endoder.seq_layers.4.bias f4 [256]
0	0x3daa5b43	0.08318188
1	0x3d1af66d	0.037832666
2	0x3dc1b422	0.09458186
3	0x3dbde689	0.09272487
4	0x3c929ec1	0.017897965
5	0xbb0e9edb	-0.0021762166
6	0x3d239727	0.039939072
7	0x3db800f1	0.089845546
8	0xbd2f370b	-0.042777102
9	0xbcce1ff9	-0.02516173
10	0xbd8c1f82	-0.06841947
11	0xbdc04a11	-0.09389127
12	0xbd4d3b8e	-0.050105624
13	0x3e022ba6	0.12711963
14	0x3d2ce5c9	0.042211328
15	0xbda6cd7a	-0.0814466
16	0xbc6ea26a	-0.01456509
17	0xbc7798bb	-0.015112097
18	0x3ce5c93e	0.028050061
19	0xbcb35c9c	-0.021894746
20	0xbcfeeb3f	-0.031118033
21	0x3d0661ef	0.03280824
22	0x3d6bf312	0.057604857
23	0xbc9554ed	-0.018228972
24	0x3d6517e7	0.055931
25	0x3d9c600f	0.07635509
26	0xbd0aecd8	-0.033917278
27	0x3d8ca21e	0.06866859
28	0x3de1e8a9	0.110307045
29	0xbd388ac4	-0.045054212
30	0xbd9c6ba5	-0.07637719
31	0x3da2afd0	0.0794369
32	0xbd8fe40e	-0.0702592
33	0x3d1ec15f	0.03875863
34	0x3d895897	0.0670635
35	0x3dacfab3	0.084462546
36	0x3d8a53be	0.06754254
37	0x3d54f7e7	0.05199423
38	0x3ddca029	0.107727356
39	0x3c40ad84	0.011760119
40	0xbc810142	-0.01574767
41	0xbce1b517	-0.02755217
42	0x3da22953	0.07918038
43	0xbd7d4be7	-0.061839964
44	0xbbed0fe6	-0.0072345613
45	0x3da975af	0.082743995
46	0xbdaa8946	-0.08326964
47	0x3d2d57ae	0.042319946
48	0x3d9a11e7	0.07522946
49	0x3dfd0beb	0.12355789
50	0xbd6aac03	-0.05729295
51	0x3e088282	0.13331035
52	0xbc66ffbc	-0.014099058
53	0xbc82b585	-0.015955696
54	0xbc81d0b5	-0.01584659
55	0xbda88c9d	-0.08229945
56	0xbd928a77	-0.07155316
57	0x3e153305	0.14570244
58	0xbd36f97a	-0.044671513
59	0xbd4ef9f7	-0.050531354
60	0xbc2e7a57	-0.010649285
61	0xbd727be7	-0.059200194
62	0xbdb509a5	-0.0883973
63	0x3e00f507	0.1259347
64	0x3cd83384	0.026391752
65	0x3c40b7af	0.011762544
66	0xbd66d2b6	-0.056353293
67	0x3dc3e114	0.095644146
68	0x3c498ad8	0.012301169
69	0x3de7eebb	0.11324831
70	0x3d900287	0.07031732
71	0x3d61ffb5	0.0551755
72	0x3bde4a30	0.006783746
73	0x3d2539e7	0.040338423
74	0xbd8d7646	-0.069073245
75	0x39f0a73c	0.00045900967
76	0x3d5a227b	0.05325554
77	0x3cf2333c	0.029565446
78	0x3d9fac0e	0.07796489
79	0x3d8279a5	0.06370858
80	0x3dec7a52	0.11546768
81	0xbdaaf7a4	-0.08348015
82	0x3dad444e	0.08460294
83	0xbd9cf812	-0.07664503
84	0xbd8ace87	-0.06777673
85	0xbd58d704	-0.05293943
86	0xbb1c45e4	-0.002384537
87	0xbdc1c2a5	-0.094609536
88	0xbd754bad	-0.059886623
89	0xbd6baa58	-0.0575355
90	0x3d93b390	0.07211983
91	0xbd661794	-0.05617483
92	0x3d5c560d	0.053793002
93	0xbc620ede	-0.01379749
94	0xbd0a4a60	-0.033762336
95	0x3dee9b65	0.11650733
96	0xbdc021de	-0.0938146
97	0x3c9a8ea0	0.018866837
98	0x3ddafecd	0.10693131
99	0x3d07310d	0.033005763
100	0x3da51f2a	0.08062585
101	0x3e14f7d8	0.1454767
102	0xbc1e5f2d	-0.009666246
103	0xbc632a55	-0.013865073
104	0xbd4c77b3	-0.04991884
105	0xbd54c559	-0.051946018
106	0xbceb3bfb	-0.028715124
107	0xbd813fa3	-0.06310966
108	0xbbeb2eed	-0.007177225
109	0x3c5c031e	0.013428478
110	0x3db995a6	0.09061746
111	0xbdabe4e9	-0.083932705
112	0x3d2072d3	0.039172005
113	0x3e15c7be	0.14626977
114	0xbd0b969d	-0.034079183
115	0x3cc07d7f	0.023497341
116	0x3d45747c	0.04820679
117	0x3d10378f	0.035209235
118	0xbdc212e6	-0.09476261
119	0xbcf4eabb	-0.029897084
120	0xbd1321f3	-0.03592105
121	0x3d444d2b	0.047925156
122	0x3ddcd349	0.10782487
123	0x3c8bbe67	0.017058564
124	0x3db680ba	0.089112714
125	0x3d9f49b5	0.077777304
126	0x3ddb7e4b	0.10717448
127	0xbdb9746f	-0.09055411
128	0x3d2ac826	0.041694783
129	0x3ddf8b09	0.10915191
130	0xbd9a6a1b	-0.07539769
131	0xbc45d879	-0.012075537
132	0xbd9ce91f	-0.07661652
133	0x3cc21106	0.023689758
134	0x3d874d46	0.066065356
135	0xbbfd01d1	-0.007721164
136	0xbdc3d914	-0.09562889
137	0xbd567ad3	-0.052363228
138	0x3d677e24	0.05651678
139	0x3d37f8de	0.044915073
140	0xbcaefcfc	-0.021360867
141	0x3ccfea60	0.025380313
142	0x3d58b076	0.05290266
143	0x3c52893f	0.012850105
144	0x3c4cfb12	0.012511032
145	0xbbe75c7c	-0.0070605855
146	0x3da7d9b0	0.081958175
147	0xbd86e7ed	-0.06587205
148	0xbd4559fc	-0.04818152
149	0x3dd3b9d1	0.10338176
150	0x3cece5be	0.028918143
151	0xbd08fe82	-0.033445843
152	0x3cbfbcf0	0.023405522
153	0x3d51dae7	0.051234152
154	0x3d146871	0.036232416
155	0x3dc5e50d	0.096628286
156	0xbd4dcc7b	-0.050243836
157	0x3c80a4d7	0.015703602
158	0x3aa91346	0.0012899421
159	0xbd004e28	-0.031324536
160	0x3c43cb7e	0.011950372
161	0x3d9e7865	0.07737807
162	0xbda91c04	-0.08257297
163	0xbbfcf0f6	-0.0077191545
164	0x3dd09473	0.101845644
165	0xbd01e89a	-0.031715967
166	0xbdcb286a	-0.09919818
167	0xbd8232dd	-0.06357358
168	0xbda10f2d	-0.07864223
169	0xbd270f53	-0.0407861
170	0xbcc721de	-0.024308141
171	0xbccf6727	-0.025317742
172	0xbd0a617a	-0.033784367
173	0x3dc07111	0.09396566
174	0x3dedce48	0.11611611
175	0x3da500c8	0.0805679
176	0x3d83a68f	0.06428253
177	0x3d8fd051	0.07022155
178	0xbcb546ac	-0.022128426
179	0xbcf02bcc	-0.029317759
180	0x3d09214b	0.033479016
181	0x3b4f2b84	0.003161163
182	0x3b1b8ad9	0.0023733883
183	0x3d971345	0.07376722
184	0x3d705da0	0.058683038
185	0x3ddd0638	0.10792202
186	0x3d6430e1	0.055710677
187	0x3df1c0da	0.11804362
188	0x3e141a5b	0.14463179
189	0x3d5b05d1	0.053472344
190	0x3cca4882	0.024692778
191	0x3dacb7da	0.084335044
192	0xbd967181	-0.07345868
193	0x3d9dbcca	0.07702024
194	0xbdbdfb4d	-0.092764474
195	0xbdbc8f4b	-0.092070185
196	0x3ce45b89	0.027875679
197	0xbd143092	-0.036179133
198	0xbd40977a	-0.04701946
199	0x3dfe8264	0.12427214
200	0xbdafce1a	-0.08584233
201	0xbd0dbde2	-0.034604914
202	0xbd19ac67	-0.03751793
203	0x3d96bc00	0.07360077
204	0xbdc8d7e6	-0.09806804
205	0x3dafac1c	0.08577749
206	0xbbc62f6e	-0.0060481345
207	0x3d608970	0.05481857
208	0xbd04ece9	-0.032452498
209	0xbc0d9047	-0.008640355
210	0x3d8e4f23	0.06948688
211	0xbd809df1	-0.06280125
212	0xbdcbeef4	-0.09957686
213	0x3d0a725f	0.03380048
214	0xbd165f09	-0.036711726
215	0x3d3c84fa	0.046025254
216	0xbdcd8a29	-0.100361176
217	0x3d9addc5	0.075618304
218	0xbdcf0de1	-0.10110069
219	0x3d829a63	0.06377103
220	0xbdc56b3c	-0.09639594
221	0x3dc34d1d	0.095361926
222	0xbdd68753	-0.1047503
223	0x3d817ce5	0.0632265
224	0x3d6620dc	0.05618368
225	0x3d842d7e	0.064539894
226	0xbd3b301f	-0.04570019
227	0x3cb4a15a	0.022049595
228	0xbce23d92	-0.02761725
229	0x3db537ac	0.08848509
230	0x3d410539	0.04712412
231	0x3b8ac30b	0.0042346767
232	0x3daa413a	0.08313222
233	0x3d9cea8b	0.07661923
234	0x3dc393f3	0.095497034
235	0x3cebfeb1	0.02880797
236	0x3cd06dda	0.025443006
237	0xbd603462	-0.054737456
238	0x3df5ffa6	0.12011652
239	0xbdb0b048	-0.08627373
240	0xbcb6e5d9	-0.022326397
241	0x3d8b71bd	0.06808803
242	0x3db48bc1	0.088157184
243	0xbd74842e	-0.05969637
244	0x3d97852a	0.07398446
245	0xbc118f7c	-0.008884307
246	0xbd0f202a	-0.034942783
247	0x3d7f3d2d	0.0623142
248	0x3d3c915d	0.046037067
249	0x3d4d229c	0.050081834
250	0xbdbf25f5	-0.093334116
251	0x3db9e4f0	0.090768695
252	0xbd2a87d2	-0.041633435
253	0xbd4f6e84	-0.050642505
254	0x3c01d0f2	0.007923352
255	0xbd3b4752	-0.045722313

network_body._body_endoder.seq_layers.4.weight f4 [256, 256]
0	0xbde9bb1d	-0.11412642
1	0x3d1b50d1	0.03791887
2	0x3d50556a	0.050862707
3	0x3d4ceac9	0.050028596
4	0xbe3a479d	-0.18191381
5	0x3d2ae522	0.041722424
6	0x3c77ff4f	0.015136554
7	0x3c2529da	0.010080779
8	0xbdab5ccf	-0.08367311
9	0x3b2f5910	0.0026755966
10	0xbe254006	-0.16137704
11	0x3d4c419f	0.04986727
12	0x3d06fee4	0.032957926
13	0xbd7d7716	-0.061881147
14	0x3c0ff817	0.008787177
15	0xbd288f63	-0.04115237
16	0x3c24eb8d	0.010065925
17	0x3cab3965	0.020901391
18	0xbbab5d17	-0.005229603
19	0x3d1c9ab7	0.038233485
20	0xbda312c0	-0.07962561
21	0xbddda194	-0.10821834
22	0xbd104ea5	-0.03523125
23	0x3b1babae	0.0023753452
24	0xbcdd086f	-0.02698156
25	0xbcfb4e32	-0.030676935
26	0x3e767c7e	0.24070928
27	0xbd7aadf9	-0.06120107
28	0x3d068ae5	0.032847304
29	0xbd47e431	-0.048801605
30	0x3c2ae7d3	0.010431248
31	0xbde14495	-0.10999409
32	0x3c8e5995	0.0173767
33	0x3e029bfb	0.12754814
34	0xbd4c9320	-0.049944997
35	0xbdfe75fa	-0.12424846
36	0xbdb24f93	-0.08706584
37	0x3ca3a817	0.019977612
38	0xbe417c58	-0.1889509
39	0xbdee707a	-0.11642547
40	0x3d51ed17	0.051251497
41	0x3db41103	0.08792307
42	0xbd1b9bf9	-0.037990544
43	0xbcfdd272	-0.030984137
44	0xbdc9abde	-0.09847234
45	0x3ddbf561	0.10740162
46	0x3b15e5df	0.002287261
47	0xbd84a031	-0.064758666
48	0xbdec32c5	-0.11533121
49	0x3cf37049	0.029716628
50	0xbcf01fde	-0.02931207
51	0x3dd48fd3	0.10378995
52	0x3de9c69e	0.11414836
53	0xbc430e0c	-0.0119052045
54	0xbd9c9c78	-0.076470315
55	0xb9bf5f68	-0.00036501442
56	0x3d96e205	0.073673286
57	0xb9021537	-0.00012405669
58	0xbc37238c	-0.011177909
59	0x3e48e57c	0.19618791
60	0xbc9d7e0a	-0.01922514
61	0x3d79de46	0.061002992
62	0x3d872ea1	0.06600691
63	0xba3fbcfb	-0.0007314232
64	0xbe0fd390	-0.14045548
65	0x3c7d56f3	0.015462625
66	0x3cc9b4c2	0.024622325
67	0xbe0fe91a	-0.14053765
68	0xbd5416eb	-0.05177967
69	0x3b9e6a30	0.004834436
70	0xbd754cd0	-0.059887707
71	0x3b1a4f2f	0.0023545732
72	0xbd49183d	-0.04909538
73	0xbc120921	-0.008913309
74	0xbe4b42ec	-0.19849747
75	0x3d3fb43c	0.046802744
76	0xbdac668c	-0.08417997
77	0x3d2adb78	0.041713208
78	0xbe16a453	-0.14711122
79	0xbd376d36	-0.044781886
80	0xbcdbeebb	-0.026847234
81	0xbe275e0e	-0.16344473
82	0xbc9caefe	-0.019126412
83	0xbd321f43	-0.043486845
84	0x3d28154b	0.04103593
85	0x3ca60267	0.020264817
86	0x3d2776c9	0.040884767
87	0x3dacbc4f	0.084343545
88	0xbde64089	-0.11242778
89	0xbd4116d5	-0.047140915
90	0xbd4fb58a	-0.05071024
91	0xbe1c4b56	-0.15263113
92	0xbd7ac5a8	-0.061223656
93	0xbcb581fa	-0.022156704
94	0x3df72643	0.12067845
95	0xbdb62c40	-0.08895159
96	0xbca4bc86	-0.020109426
97	0x3c49b406	0.012310987
98	0xbd97aa81	-0.07405568
99	0x3bbef938	0.005828049
100	0x3dedba19	0.11607761
101	0xbd92a27a	-0.07159896
102	0x3d572f56	0.052535377
103	0xbd593b04	-0.053034797
104	0x3c364238	0.011124186
105	0xbd5f2cab	-0.054485958
106	0xbe1bdbaa	-0.15220514
107	0x3d366e20	0.044538617
108	0xbd1fc011	-0.03900153
109	0x3d106b47	0.035258558
110	0x3d7a8d97	0.061170187
111	0x3d838987	0.06422716
112	0xbd972355	-0.07379786
113	0x3c2f2ab6	0.010691335
114	0xbd91e1d1	-0.07123149
115	0xbde177ed	-0.11009202
116	0xbdc342bf	-0.09534215
117	0x3d1e5706	0.03865721
118	0x3db49114	0.08816734
119	0x3cda9316	0.026681464
120	0xbdb269a3	-0.08711555
121	0xbce2b358	-0.027673408
122	0x3cae26da	0.02125876
123	0x3ca6f777	0.020381672
124	0xbdb84977	-0.08998387
125	0xbbb90331	-0.0056461324
126	0xbc2dd7ab	-0.010610501
127	0xbd93e918	-0.072221935
128	0xbda3490c	-0.07972917
129	0xbbd50d95	-0.0065018632
130	0xbce673a0	-0.028131306
131	0x3d14e013	0.036346506
132	0xbd7bdaf5	-0.06148811
133	0xbd0366ff	-0.032080647
134	0xbdbc6a79	-0.091999955
135	0xbe050fff	-0.12994383
136	0x3df04f33	0.11733856
137	0xbd9b3b92	-0.075797215
138	0x3cb83380	0.022485495
139	0x3dae014f	0.08496343
140	0x3d9661ea	0.073428944
141	0x3bd92a5f	0.0066273655
142	0xbcc2c638	-0.023776159
143	0xbc791cce	-0.0152046215
144	0x3d68ed94	0.056867197
145	0x3c83bc74	0.016081072
146	0xbe0a3c4b	-0.13499562
147	0x3d9f70a5	0.07785157
148	0xbd313df1	-0.043271963
149	0xbe02ab7a	-0.12760726
150	0x3d7f63df	0.062351104
151	0x3e12ef0c	0.14349002
152	0xbd35fcfa	-0.04443071
153	0xbd3817ce	-0.044944577
154	0xbd9d5cb0	-0.07683694
155	0x3ddbe177	0.107363634
156	0xbd282b85	-0.04105713
157	0x3db243e1	0.08704353
158	0xbc440a50	-0.011965349
159	0xbd0a2898	-0.03373012
160	0xbd5a22d8	-0.053255886
161	0x3c4b999b	0.012426759
162	0xbccc52c3	-0.024941808
163	0xbdba9ece	-0.09112321
164	0x3d5cdde9	0.053922568
165	0xbaf84ad1	-0.0018943195
166	0x3d575ac6	0.052576803
167	0x3a851e97	0.0010156211
168	0x3d8b169f	0.06791424
169	0xbe11f9f3	-0.14255504
170	0xbbff6c81	-0.007794917
171	0xbd3e2510	-0.046422064
172	0x3cd7d783	0.026347881
173	0x3db202bb	0.08691927
174	0xbd0be796	-0.034156404
175	0x3ad551b6	0.0016274962
176	0x3cfebe73	0.031096673
177	0xbd04b11b	-0.032395463
178	0x3ddd2aa4	0.10799149
179	0xbd7796ae	-0.060446434
180	0xbc63fe6f	-0.013915642
181	0xbcb29640	-0.02180016
182	0x3d1b6080	0.037933826
183	0xbd95f8b7	-0.07322829
184	0xbdcfe12d	-0.10150371
185	0xbe200186	-0.15625581
186	0x3d361da3	0.044461858
187	0x3d493cba	0.04913018
188	0x3d17ef18	0.037093252
189	0x3d94fe2e	0.072750434
190	0x3cfc7094	0.0308154
191	0xbe087970	-0.13327575
192	0xbcf6c0de	-0.030121263
193	0x3d5f6538	0.05453989
194	0x3cad6450	0.021165997
195	0x3d3f0186	0.046632312
196	0x3dc828f7	0.097734384
197	0xbd14b7f7	-0.036308255
198	0xbd75501f	-0.059890863
199	0x3d3ee918	0.046609014
200	0xbe02d429	-0.12776245
201	0xbcbc8642	-0.023013238
202	0xbd382e8d	-0.04496627
203	0x3dc842e2	0.09778382
204	0xbda5d9ec	-0.08098206
205	0xbb92e331	-0.0044826497
206	0x3cca9329	0.024728375
207	0x3c196810	0.009363189
208	0x3d981f17	0.07427805
209	0xbd260fa0	-0.040542245
210	0xbe3cad89	-0.18425573
211	0xbd7efe75	-0.062254388
212	0x3dbef551	0.09324134
213	0x3cec89a0	0.028874218
214	0x3d8f7aca	0.07005842
215	0xbd36814a	-0.044556893
216	0x3c8d7abe	0.017270442
217	0xbd540aea	-0.05176822
218	0xbd2e56ab	-0.04256312
219	0x3d78292f	0.06058615
220	0xbd3ee0c5	-0.046601076
221	0xbda286e1	-0.07935882
222	0x3d106c57	0.03525957
223	0xbcaa6cd5	-0.020803848
224	0x3d9185f0	0.07105625
225	0xbdfc2d16	-0.12313287
226	0xbc58c46b	-0.013230423
227	0xbd196a86	-0.037455104
228	0xbd45a953	-0.048257183
229	0x3d36ec54	0.044658974
230	0x3c76e04f	0.015068128
231	0xbde21e88	-0.110409796
232	0x3d574d39	0.05256388
233	0x3d431e82	0.047636516
234	0x3d0717c1	0.032981638
235	0xbd7c7ab9	-0.061640475
236	0x3d935c0c	0.07195291
237	0xbde18048	-0.11010796
238	0x3de792d6	0.113073036
239	0x3b1dd7df	0.0024084968
240	0x3d26ef21	0.040755395
241	0x3d4d8937	0.050179686
242	0xbd49d4a7	-0.049275067
243	0xbd27303a	-0.040817477
244	0xbe6fca18	-0.23416936
245	0xbcb0b6f2	-0.02157161
246	0xbdab53d2	-0.08365597
247	0xbd0b202d	-0.033966232
248	0x3d7f0f4b	0.062270444
249	0x3bd6130f	0.0065330337
250	0x3d057c01	0.032588962
251	0xbd740895	-0.059578497
252	0x3d29ed37	0.04148599
253	0xbd031151	-0.031998936
254	0x3dcbc6fa	0.09950061
255	0xbda76775	-0.0817403

network_body.observation_encoder.processors.0.normalizer.running_mean f4 [6]
0	0xc0fe2ee9	-7.9432263
1	0x41cafa60	25.372253
2	0xc1b027ae	-22.019375
3	0xc2011f45	-32.280537
4	0x3fb331c8	1.3999567
5	0xc28e50e2	-71.157974
