Assets/Training/results/learn_v5/MarsTaxi/MarsTaxi-2999995.onnx (onnx, 542464 bytes, 10 tensors)

54 f4 [6]
000000 e5 15 02 42 2c 12 37 41 b3 86 37 42 6d 2d 99 3c
       32.52138 11.4419365 45.881542 0.018698419
000010 d3 52 82 3a fb ae 28 3d
       0.0009942896 0.0411825

action_model._discrete_distribution.branches.0.bias f4 [6]
000000 86 87 20 3d 5e 8b e6 3c d1 d7 41 bd 63 bf 0d bd
       0.039191745 0.028142627 -0.04732496 -0.03460635
000010 28 ab 24 3d a3 fc 7f bd
       0.04020229 -0.062496793

action_model._discrete_distribution.branches.0.weight f4 [6, 256]
000000 47 20 8e 3c f6 ba 77 3d 26 f7 85 3d 83 0f d4 bd
       0.017349375 0.060481034 0.065412804 -0.10354521
000010 c2 a2 2f 3e c7 ca 05 bc e5 a3 e2 3a e3 ed 33 3d
       0.17151931 -0.008166022 0.0017291276 0.04392804
000020 4e 1f 88 bc bf 6d cb bc 7b b1 c7 bd 10 93 84 bc
       -0.01661649 -0.024832604 -0.097506486 -0.016183406
000030 8b 24 e6 3c ca c3 90 3d 85 67 0f 3d 41 6e 5e bd
       0.028093597 0.07068594 0.035010833 -0.054304365
000040 d2 a5 83 3d d6 2f 28 bd a9 56 18 3d 8e a4 34 bd
       0.06428112 -0.041061245 0.03719202 -0.044102244
000050 47 59 93 3c ac 01 f3 3c 49 70 83 3d 5e 1f 08 3e
       0.017986907 0.029663883 0.06417901 0.13293216
000060 be 1d 1e 3a 09 c3 96 3d 00 3b 13 3b e7 8a 1a bc
       0.00060316536 0.07361419 0.0022465587 -0.009432531
000070 3f 69 88 3d 5d 0b 7c bd a7 43 6b bd 6e 25 7f 3d
       0.06660699 -0.061534274 -0.057437565 0.062291555
000080 ec 8d d2 bd 97 cc 47 3d 14 b3 b7 3c d3 25 81 3d
       -0.10280976 0.048779096 0.022424258 0.063060425
000090 c2 4a e1 3d 13 3f bf ba 64 58 87 3d cb 39 e9 bd
       0.11000587 -0.0014590941 0.06608656 -0.11387976
0000a0 69 00 a8 bd 50 4e bc 3d 7f b8 d1 bc 42 88 c3 bd
       -0.08203203 0.091946244 -0.02560067 -0.095474735
0000b0 3f 1d 82 3d e3 cd de 3c eb 57 1a bd 9e cd 97 3d
       0.063532345 0.027197784 -0.0376815 0.07412265
0000c0 35 6b b5 3d 32 dd 74 3c f3 3c 38 bd 1b 29 32 bb
       0.08858339 0.014945315 -0.04498 -0.0027185145
0000d0 b7 d4 f3 bc 73 93 4c bd 10 df cc bc 84 53 e1 bd
       -0.029764516 -0.049945306 -0.025008708 -0.110022575
0000e0 4c da 8c 3c 6e 36 d2 bc e9 15 a2 bd 9f ea 8f 3c
       0.017193936 -0.02566072 -0.07914335 0.01756793
0000f0 b2 09 19 bd 65 38 84 bd a5 e2 6a bd 51 0b cc 3a
       -0.03736276 -0.06456069 -0.05734505 0.0015567337
000100 c9 24 e2 b9 cd 53 12 3d 68 84 99 bc a8 77 25 3d
       -0.00043133486 0.03572445 -0.018739894 0.040397316
000110 07 74 03 3d ba ad a0 3c 9f 5f 76 3d fa ff ad 3d
       0.032093074 0.01961409 0.060149785 0.08496089
000120 49 7e 23 bd da f7 e0 3c d6 33 f2 bd 5c a8 15 bc
       -0.039915357 0.027461935 -0.11826293 -0.009134378
000130 7c da 02 3d a5 33 f3 3c 4c b3 12 bc be c8 f0 3c
       0.031946644 0.029687712 -0.0089538805 0.029392596
000140 67 3e 37 3d 30 2e 93 bd 48 43 6a 3d 06 e3 ec 3c
       0.044737246 -0.07186544 0.05719307 0.028916847
000150 3a 92 2c bd c8 61 35 3d c0 11 fa bd fa bb be bd
       -0.04213164 0.044282705 -0.12210417 -0.093131974
000160 b2 86 d7 bd 71 6c 9f bc a8 a2 85 bc f6 af 5f bd
       -0.10523738 -0.019460889 -0.016312912 -0.05461117
000170 5e 52 fa bd 12 40 ee bc 7d dd 6e bc ea b5 5f 3d
       -0.122227415 -0.029083285 -0.014579174 0.054616846
000180 35 bc f6 bd 61 fa a2 3c 01 f4 c5 bd d7 3a 0f 3d
       -0.120476164 0.01989478 -0.09665681 0.034968223
000190 66 7b e1 3c 5a 1c 88 bd 87 f3 0a be ad 8b fa bc
       0.027524661 -0.06646033 -0.13569461 -0.03058418
0001a0 54 ec 5f bd 3e 46 0c 3d 09 81 0d 3e 86 55 70 bd
       -0.05466874 0.034246676 0.13818754 -0.05867531
0001b0 7f f6 ee 3d 38 16 f1 bd e4 7f 6f 3d ac 86 e6 bd
       0.11668109 -0.11771816 0.058471575 -0.11256155
0001c0 20 df 19 3d 88 c8 be bd d5 a5 cb 3b 30 d0 90 3c
       0.037566304 -0.09315592 0.006214837 0.017677397
0001d0 54 c6 d9 bc 4e e7 db 3d b6 3a 3d bc 15 67 95 bb
       -0.026583828 0.10737477 -0.011549642 -0.0045594075
0001e0 cf ce c6 3c c3 02 aa bd 2e e7 c0 bc 9b 73 9d bb
       0.024268536 -0.08301308 -0.023547735 -0.004805041
0001f0 47 42 a4 3d 75 07 ca 3d b3 86 02 bc 3d 51 02 3d
       0.08020454 0.098647036 -0.007966685 0.031815756
000200 e7 e8 ec 3d 75 2d a4 3d a5 5c 1c bc 71 ee 38 bd
       0.1156786 0.08016483 -0.009543573 -0.04514927
000210 9c 99 9f bd fe f9 eb 3d b5 53 49 3c 12 52 0d 3d
       -0.077929705 0.115222916 0.012288024 0.034502096
000220 dd 32 c9 bd b4 cf 15 bd 3f ed 1f bb 7f 63 06 3c
       -0.098241545 -0.036575034 -0.0024402884 0.008202433
000230 da f6 24 bc 20 8d ef bb 42 39 6f 3d f0 42 ac bc
       -0.01006862 -0.0073105246 0.058404215 -0.021028012
000240 01 82 90 3c a4 12 20 3d 11 83 ab 3d 38 05 6b bc
       0.017640116 0.039080277 0.08374608 -0.014344506
000250 0d af 54 bd fb 98 67 3d 09 a5 36 bd c9 f2 fc 3b
       -0.051924754 0.056542378 -0.044590984 0.007719372
000260 eb 5d 89 3c 87 2e 66 3c fe 3f ca 3c d5 fa 19 3d
       0.016768416 0.014049179 0.024688717 0.037592728
000270 07 7f 7d bd c2 91 22 3d 70 54 c7 3b 4d 2c c7 bd
       -0.06188872 0.039689787 0.006083064 -0.097252466
000280 18 e0 1e 3d 21 5e 25 3d 3e 2c 28 bd 63 9a dc 3d
       0.03878793 0.04037297 -0.041057818 0.107716344
000290 a7 a7 5d 3d 25 a4 d3 bd 0f b3 d5 bd 5c 8a d6 bd
       0.054114964 -0.103340425 -0.10434543 -0.10475609
0002a0 8b 38 9e bd 34 a6 6a ba 3e 40 06 3d 83 24 2b bc
       -0.077256285 -0.0008951158 0.03277611 -0.010445717
0002b0 03 3f b0 bc c1 f7 f4 bb 4f c5 ef 3c 19 93 13 3d
       -0.021514421 -0.0074758236 0.029268889 0.036028955
0002c0 0a 20 cd 3c f8 d3 d4 bc 1a 76 ff 3b 5f a2 8f 3d
       0.025039691 -0.02597998 0.007796061 0.07013392
0002d0 a1 d4 0d 3d 08 82 04 3e d9 4d 4f 3d ab 13 bd 3c
       0.034626607 0.12940228 0.05061135 0.023080667
0002e0 ae a5 99 3d e1 d2 a2 3d 0c 61 85 3d 21 32 f6 3d
       0.07502304 0.07950378 0.06512651 0.1202128
0002f0 f1 81 ac 3d 5c 39 af bb 80 f5 c4 bc ae 5e b2 3d
       0.08423222 -0.005347414 -0.024042845 0.08709465
000300 ee 33 e2 bd 3a 3b 6f 3d 7d 2a e3 bd ff 9e e5 bd
       -0.11045061 0.058406092 -0.11092088 -0.11211967
000310 12 f4 bd 3d 4c a4 63 bd dd 1d af bd 26 97 c9 3c
       0.09275068 -0.055576608 -0.08550618 0.024608206
000320 c8 98 17 bd ec 63 3c 3d 71 60 54 3c 51 63 01 3c
       -0.037010938 0.04599373 0.012962447 0.007897214
000330 27 d3 9f bd 07 62 51 3d c0 19 95 bc d5 ba 3b 3d
       -0.07803946 0.051118877 -0.018200755 0.045832474
000340 89 18 d1 3b 34 5d 49 3c d5 ea b4 3d 66 4a 9f bd
       0.0063810986 0.012290288 0.08833853 -0.07777862
000350 66 7d f8 bd ed aa 3f 3d cc 23 a4 bc e0 35 2c 3c
       -0.12133293 0.046793867 -0.0200366 0.010510892
000360 b9 0b e7 bd 9e af 7b 3d 77 d5 c1 bc 06 10 7b bb
       -0.11281533 0.06144678 -0.023661358 -0.0038309111
000370 4d c9 d9 bd 36 f6 8e 3d c7 e4 df bd f3 85 e7 3d
       -0.10634098 0.06980555 -0.10932308 0.11304846
000380 6a 4b af 3d 71 ff 01 3e 88 79 b5 bd 16 a4 a5 bc
       0.08559306 0.126951 -0.08861071 -0.020219844
000390 12 40 07 3c 0c 32 16 3d 02 38 65 3d 1c 4b d4 bc
       0.008255022 0.036668822 0.055961616 -0.025914721
0003a0 85 ed 90 3d 78 58 78 3d 59 5a 92 3d d8 1d e3 bb
       0.07076553 0.060631245 0.07146139 -0.006931048
0003b0 5e c5 8a 3d 8a cb e5 3b 92 3e 76 3d 60 ce 91 bd
       0.06775926 0.007012789 0.060118265 -0.07119441
0003c0 e3 09 5c bd a1 88 aa 3c 4a 89 c2 bd 8f 6c 6e bd
       -0.053720366 0.020817103 -0.09498842 -0.058209
0003d0 bc 2c 68 3d 69 51 ee bc ab 8f 6f bd 9b 14 9c 3d
       0.056683287 -0.029091554 -0.05848662 0.07621118
0003e0 75 2e 5f 3d af 60 10 3e 77 78 cf bd 86 ab a1 3d
       0.054487664 0.14099382 -0.10130399 0.078940436
0003f0 79 aa 80 3d 61 7e 21 be 92 18 08 3d 36 5f cc 3c
       0.06282515 -0.15770866 0.033226557 0.024947744

network_body._body_endoder.seq_layers.0.bias f4 [256]
000000 11 f0 d3 3d 34 d9 24 bd 94 8e c4 3d 4a cd bb bd
       0.103485234 -0.040246204 0.09597507 -0.09170015
000010 9f 36 f4 3d 21 a1 ee 3d 51 32 33 3d 5a 84 39 3e
       0.11924481 0.11651827 0.043749157 0.18116894
000020 b6 16 ef 3d 42 fd c2 bd ec d0 35 3e ef 4e f9 bc
       0.11674254 -0.09520961 0.17755479 -0.030433146
000030 e1 e0 d0 bb 93 16 cb 3d 6d ff fa bd 9a 63 95 bd
       -0.006374464 0.09916415 -0.1225575 -0.07294388
000040 88 2d 11 3e 00 c6 75 bb aa b3 2f 3c aa 94 a8 3d
       0.14177525 -0.003750205 0.010723988 0.082314804
000050 22 c1 8d 3d bd 4a 81 bd 05 89 a7 3b a6 f2 87 bd
       0.06921603 -0.06313083 0.0051127695 -0.066380784
000060 77 c3 94 3c 01 97 0f bc 87 a0 3c 3e 7b 0e 0b 3b
       0.018159611 -0.0087640295 0.18420611 0.0021218348
000070 e7 ac e0 3d 68 d1 b3 3d ec 51 53 3c 4b 40 7d bd
       0.109704785 0.087801754 0.01289795 -0.061828893
000080 93 e2 02 3e b8 b6 0d 3e 0d 37 12 3e 52 1f a2 3d
       0.12781744 0.13839233 0.14278813 0.0791613
000090 5e 0f 2d 3d 52 88 6c 3d 98 20 b2 3d 13 b5 95 3d
       0.042250983 0.057747193 0.08697623 0.07309928
0000a0 d0 8e 32 3e da b7 49 3e cb 00 2d 3e 40 0d 8e bd
       0.17437291 0.1969904 0.16894834 -0.06936121
0000b0 2b 61 cb bd 4d cf a0 3d 2e 95 00 3d 3b b9 96 bd
       -0.09930643 0.078520395 0.03139227 -0.07359549
0000c0 0d cd b5 3d 26 bf 73 3d c4 7f 04 3e 9a 46 1c 3e
       0.08877001 0.059508465 0.12939364 0.15261307
0000d0 a3 af a1 3d d2 eb e7 3c cc dc c3 bd b2 d4 bc 3c
       0.07894828 0.02831069 -0.09563598 0.02305064
0000e0 95 fb 38 bd 0b d5 25 3e 6b 29 03 3e dc 27 d7 bd
       -0.045161802 0.1619455 0.12808768 -0.105056494
0000f0 1e 27 8d bd 8e d8 94 3d 60 8f e9 3d 84 1c 2d 3e
       -0.06892227 0.07267867 0.114043 0.16905409
000100 96 01 f2 3d 76 e1 99 3d 53 8a 29 3e 8c 8f c3 bd
       0.11816709 0.075137064 0.16556673 -0.09548864
000110 1b d8 9d 3c d4 d9 6b 3d 16 b7 10 3e d2 42 9f bd
       0.019268086 0.057580784 0.14132342 -0.07776417
000120 5a 22 4c bd d5 ba e0 3d d8 c3 ef 3d a9 65 f3 3d
       -0.049837448 0.109731354 0.11707276 0.118846245
000130 d0 58 ed 3d 90 2c 05 3e 6c 97 16 3d ce d5 fe 3b
       0.11589205 0.1300528 0.0367655 0.0077769523
000140 ad 87 b4 3d ac 8c 2c 3e f5 b7 fa 3d 5d 73 35 3e
       0.088149406 0.16850537 0.12242118 0.17719789
000150 9c 27 c8 3c 5f b8 d5 bd 2b 88 4d 3d 8b 8f b9 3d
       0.02443295 -0.104355566 0.050178688 0.09060582
000160 3f 38 f9 3d 5d d1 b9 3d 98 2f e8 bd 7e c9 04 3e
       0.12168931 0.09073136 -0.11337203 0.12967488
000170 ba d6 99 3d 41 71 d8 3d be e3 03 bd 6c b1 bf 3c
       0.07511659 0.105684765 -0.032199614 0.023400031
000180 9b 74 9d bd a0 67 06 3c 98 21 de 3d dd fa dc bd
       -0.07688256 0.008203417 0.10846251 -0.10790036
000190 40 90 0d 3e 6b 19 05 3e 00 3c 46 3e 21 d2 7d bd
       0.13824558 0.12997977 0.19358826 -0.061967973
0001a0 d8 80 d4 bd 62 a5 44 bd 82 72 b1 bd 91 d6 ac 3d
       -0.103761375 -0.048009284 -0.08664419 0.08439363
0001b0 55 d4 c4 bc 27 37 9b 3d f5 52 c7 3c 12 8e 01 3e
       -0.024027029 0.07578879 0.02433155 0.12651852
0001c0 5e 35 bf 3c b1 6c 07 3d 79 84 af 3d f1 bd d5 3d
       0.023340877 0.03306264 0.08570189 0.10436619
0001d0 38 9e 21 3c ae 84 d8 bb 8d 98 b6 3b 78 22 eb bd
       0.009864382 -0.0066076135 0.0055723847 -0.11481184
0001e0 01 c7 95 3d c2 45 43 3d 97 71 86 bc aa a3 16 3e
       0.073133476 0.047673948 -0.016411586 0.1471087
0001f0 2f d1 be 3d 7c 4f 02 3d 7c 8f 45 bd 0b 73 04 3e
       0.09317242 0.031814083 -0.04823254 0.1293451
000200 b7 48 d8 3d b9 e9 a0 bd eb f0 15 bd f4 8d d6 bd
       0.10560744 -0.07857079 -0.03660671 -0.10476294
000210 15 ed ab bc bb 0f 5a bb bc a2 5f 3d f6 eb 10 3e
       -0.020987073 -0.0033273536 0.054598555 0.14152512
000220 df 89 cd 3d e7 f2 36 bd c8 e6 cf 3d 2c 41 d5 3d
       0.100360624 -0.044665243 0.1015144 0.10412821
000230 ff 70 92 3d df 62 19 3e 73 02 8f 3d 53 40 51 3d
       0.071504585 0.14979123 0.06982889 0.051086735
000240 3b 71 07 3e bb 44 bc 3d 1d 13 cc 3c 41 7d d9 3d
       0.13226788 0.09192797 0.024911458 0.106195934
000250 ce 8e cc 3d 84 a1 e1 3d 97 56 7b 3d 3e 96 32 3e
       0.09988175 0.11017135 0.061361875 0.17440125
000260 76 bd 35 bd 53 36 9e 3d 21 1b 0e 3e bd a4 10 3e
       -0.044370137 0.07725205 0.13877536 0.14125343
000270 d7 6b 24 3e f2 d8 17 3e ba 91 15 3d df 8f 39 3d
       0.16056763 0.14828852 0.03651593 0.04530322
000280 43 19 3c bc d5 6e 2c bd a9 b3 05 3e a4 fe 42 bd
       -0.011480632 -0.042097885 0.13056816 -0.047606125
000290 5c 56 87 bd 64 9b 23 3d e0 84 c9 3d 15 06 ce bc
       -0.066082686 0.039943114 0.09839797 -0.025149385
0002a0 48 ae 08 3d 7c 89 46 bd 2c 13 ff 3d d0 5c 82 3d
       0.033369333 -0.04847096 0.124548286 0.06365359
0002b0 2d a9 0c 3e 1c 0d c5 3d 28 86 2b 3e 5c 75 6e bd
       0.1373641 0.09621641 0.16750395 -0.05821739
0002c0 fd a4 29 bc 5c 55 3f 3e dd bb 64 3d f4 e5 07 3e
       -0.010354278 0.18684906 0.055843223 0.13271314
0002d0 81 b7 82 bd 50 d9 1a 3e 06 f3 81 3d 88 23 23 bd
       -0.06382657 0.1512196 0.06345181 -0.039828807
0002e0 7c 17 ab 3d c9 08 25 bd 9d a6 03 3e 7a 8c f7 bd
       0.08354089 -0.04029158 0.12856527 -0.12087341
0002f0 a1 b3 0a bd 5c 89 27 3e d8 19 9b 3d 47 6f f8 3c
       -0.033862714 0.16360992 0.07573289 0.030326499
000300 68 a3 29 3e d0 57 05 3e 51 6f d6 3d 8a 23 af bd
       0.16566241 0.13021779 0.10470451 -0.085517004
000310 74 9f ef 3c 90 45 0b bd 56 04 08 3d 33 35 ad bd
       0.029250838 -0.034001887 0.03320726 -0.084574126
000320 06 b1 aa 3d fc 21 02 3e fe 6c f6 3c ed a6 1d 3e
       0.08334546 0.12708277 0.030081268 0.15395708
000330 53 0b 63 3d 8b 41 dd 3d 26 d8 ba 3d 10 80 1b bc
       0.05543072 0.10803517 0.09123258 -0.009490982
000340 39 cd ac 3d f0 ad 91 3d 03 4a f7 3d 59 1a 11 3d
       0.084375806 0.07113254 0.120746635 0.035425518
000350 94 e5 db 3c 58 6a 73 ba ab bc cb 3d f5 ca 1d 3e
       0.02684287 -0.0009285561 0.09948095 0.15409453
000360 9e b3 10 3d d9 76 7d 3d cc 6b a1 bc 17 7c 97 3d
       0.035327546 0.06188092 -0.019704722 0.07396715
000370 27 4f 21 3e 6b b8 a6 bd c9 95 30 bd 23 b1 82 3d
       0.1575285 -0.08140644 -0.043111596 0.063814424
000380 cc 54 be 3d 83 76 af 3d e2 24 d3 3d a1 62 06 3e
       0.092935175 0.08567526 0.10309769 0.13123561
000390 71 73 4d 3d a7 e0 b1 3c 08 fe 92 3d db 3f 38 be
       0.05015892 0.021713568 0.07177359 -0.17993109
0003a0 02 48 a7 bc 69 52 fe 3d 77 57 ad 3d 47 cb 36 3e
       -0.020420078 0.12418062 0.08463948 0.17850982
0003b0 cb d8 50 3d 07 ac 10 3e 8c 2c 39 bd 46 3f f7 3d
       0.050988 0.14128123 -0.0452085 0.12072615
0003c0 38 f4 99 3d 79 c3 16 bc 85 70 e8 3d 75 62 ee 3d
       0.07517284 -0.009201878 0.113495864 0.11639873
0003d0 12 d0 f5 3c bd 18 d4 3d e3 2a 10 3e e8 3d 15 3e
       0.030006442 0.10356281 0.1407886 0.14574397
0003e0 dd dd d2 3d bf 78 08 3d ac 86 31 3e 56 06 cc 3d
       0.10296223 0.033318277 0.1733653 0.09962146
0003f0 3f 13 7e bc aa 5d b9 3c 78 8f 7d 3d c7 57 bc 3d
       -0.015507518 0.02262767 0.0619044 0.0919643

network_body._body_endoder.seq_layers.0.weight f4 [256, 6]
000000 79 f6 fa be 2c f4 34 be d5 07 6c 3e 75 55 0e be
       -0.4901617 -0.17671269 0.23049863 -0.13899787
000010 ab c1 a9 3e 89 33 51 3e c6 0e b7 3e 40 6c 88 bf
       0.3315557 0.20429815 0.3575346 -1.0658035
000020 38 30 c3 3c 79 29 21 3f 6e 28 86 3e da 92 f9 bc
       0.023826703 0.6295391 0.2620272 -0.030465532
000030 bd 89 12 3f 06 ab b7 bd 6e 71 f3 bc f7 c4 40 3e
       0.5724142 -0.08968167 -0.029717173 0.18825136
000040 60 ed ba be 06 c2 0a bf b8 8e 5e bd 9b ef 86 bf
       -0.36509228 -0.54202306 -0.054335326 -1.0541872
000050 86 ff c7 3d 5d 9a a4 be 2c eb 83 bd f7 bb d7 3e
       0.09765534 -0.3214902 -0.0644134 0.42135593
000060 6f 7a 91 be 9c 71 5e 3e 25 5a d3 be 88 bf 5d 3e
       -0.28413722 0.21723026 -0.41279712 0.21655095
000070 23 06 63 3e 29 5e 2e bf 64 9c 3c 3f 74 1d 08 3d
       0.2217031 -0.68112427 0.73676133 0.033231214
000080 c5 ee 1d 3f a8 1c cb 3e e1 4b 9b be 74 fe 8b bf
       0.6169246 0.396703 -0.3033133 -1.0937028
000090 3f 19 da 3e d9 fa 8a be db d9 e1 bd 66 43 e9 3e
       0.42597386 -0.27144507 -0.11027881 0.45559233
0000a0 f4 8d 10 be 94 09 b8 3e 6f 95 c5 be fa 23 95 3e
       -0.14116651 0.35944808 -0.3859057 0.2912901
0000b0 8f 19 2e 3f 6e fb 4b be 85 17 0a 3f 0e ad 25 be
       0.6800775 -0.19920132 0.5394214 -0.16179296
0000c0 84 ea 87 3e cd 61 31 3e 9e b5 07 bf 1f 26 36 be
       0.2654611 0.17322464 -0.530115 -0.1778798
0000d0 5d 68 0c 3f 3a 83 f1 3d ef d0 2a bd e4 5c 45 bf
       0.54846746 0.117926076 -0.04170316 -0.77094865
0000e0 7b 29 39 3d 05 f5 45 be db 62 37 bf da d8 04 bd
       0.045205574 -0.19331749 -0.71635216 -0.03243337
0000f0 65 e6 7e bf 51 82 26 3f 86 fd d5 3e d8 89 bd 3e
       -0.99570304 0.650426 0.41794986 0.3701923
000100 95 62 7f 3f b7 43 d6 bd 45 cc 8e ba d8 fa e1 3e
       0.997598 -0.10462134 -0.0010894617 0.4413669
000110 ca 63 e3 be d5 dd a0 3e 51 06 14 3c ed 16 24 3e
       -0.4441207 0.31419244 0.009034709 0.1602437
000120 5a 82 c7 3e 75 8f 46 be 4c 29 d5 be 34 64 12 3d
       0.38966638 -0.19390662 -0.4163307 0.035740092
000130 ee 72 ef be a1 8f 9a 3e 87 c1 b0 be e1 82 ae be
       -0.46767372 0.30187705 -0.3452265 -0.34084228
000140 ab 42 e9 3e ca bd 1d 3f 23 79 ec 3d 6f a7 84 bf
       0.45558676 0.6161772 0.115465425 -1.0363597
000150 69 11 9b bd 29 fc 86 3e e1 8f 10 3d db a4 c0 3e
       -0.0757168 0.26364258 0.035293464 0.37625775
000160 b5 a8 38 bf a5 96 d9 3e f4 18 ee 3b fb 29 a0 be
       -0.72132427 0.42497745 0.0072661582 -0.3128203
000170 d8 e3 e3 be f2 5a 85 be 07 45 03 be 8d 42 22 bd
       -0.44509768 -0.26045948 -0.128193 -0.03961425
000180 ad 40 35 3f d9 08 dc 3e e0 2d 08 3f c1 c5 a6 3e
       0.7080181 0.429755 0.53195 0.3257275
000190 85 8a 0d 3f 41 e8 d8 be c6 79 71 be 8d a4 0a be
       0.5528949 -0.42364696 -0.23581609 -0.13539334
0001a0 ed af c3 be 3f 4d 15 bf c7 65 38 3e 80 8f 13 3f
       -0.38220158 -0.58320993 0.18007575 0.5764084
0001b0 b8 9b 34 bf ac 1e c1 be ba cb 48 bf 6d 63 9e 3e
       -0.7055011 -0.37718713 -0.7843586 0.3093523
0001c0 fd 7a 14 3f 3d 9b 84 3e d7 8b ed 3d db 1f 5a be
       0.58000165 0.25899687 0.11598938 -0.21301214
0001d0 5e bb 03 3f 55 36 4e be 9a 5b 1a 3e 78 a7 03 bf
       0.51457775 -0.20137914 0.15074006 -0.5142741
0001e0 7e 9b b6 bd bb 60 b8 be 97 f8 38 bf 77 ed 4f bf
       -0.089163765 -0.360113 -0.7225432 -0.8122172
0001f0 c2 39 36 3f df 58 4d 3c d0 4d 6c bd 9f 25 14 bf
       0.7118188 0.012533396 -0.057691395 -0.57869905
000200 95 bc ff bd 03 9e 40 3e ad 83 87 3e a1 cf 0e bf
       -0.12487141 0.18810277 0.26467648 -0.55785567
000210 fb 3b ed 3e 98 d6 cc be 23 9a 5b be 82 27 c7 3e
       0.46334824 -0.40007472 -0.21445517 0.3889733
000220 15 e5 0b bf 84 70 77 3f 67 fb 8f be 0b 2f fe 3e
       -0.54646426 0.9665606 -0.28121492 0.49645266
000230 a7 a0 00 3a f3 b1 25 3e c8 22 ec 3d 1a cc 64 3f
       0.00049067516 0.16181163 0.115300715 0.89373934
000240 5c bd 47 3e fe 07 f8 3e bc 9e 12 3f 5b 1e d4 3e
       0.19505829 0.48443598 0.5727346 0.4142941
000250 87 7a a3 be 4d 01 a6 3e 29 c5 95 be 2b 37 65 3e
       -0.31929418 0.32422867 -0.29251984 0.22384326
000260 94 ae c7 be d6 15 18 bf cb 74 af 3d bc b7 16 3e
       -0.3900038 -0.5940832 0.08567198 0.14718527
000270 a6 be 09 3f c4 cd 02 3f 87 e3 85 3d bb e7 2e bf
       0.5380653 0.51095223 0.06537538 -0.6832234
000280 ad 77 c8 3e aa 06 2b be 6a 01 17 3f 71 a4 12 bf
       0.39153805 -0.16701761 0.5898653 -0.5728217
000290 6e 29 0a bf 4f 94 02 bf 4c 96 1f 3e 6c eb b5 be
       -0.53969467 -0.5100755 0.15584677 -0.35531175
0002a0 a8 08 7d be be c1 25 bf 6b 32 72 3f fa 71 b8 3e
       -0.24710333 -0.6474875 0.9460818 0.36024457
0002b0 2d d4 95 be 15 0d 60 3e 9c 6d a3 3e e1 ae 02 3e
       -0.2926344 0.2187999 0.31919563 0.12762024
0002c0 53 92 eb 3e 81 bd 3e 3e fe 4e cf bd d7 18 11 3e
       0.46010074 0.18626978 -0.101224884 0.14169632
0002d0 75 9e eb be 59 49 40 bc 4c 9e d4 be c7 7a 13 3f
       -0.4601933 -0.011736237 -0.4152702 0.5760922
0002e0 d6 3b 2a 3e 38 ad 3c bf 79 30 8c be 74 fa 2a 3e
       0.16624388 -0.7370181 -0.27380732 0.16697103
0002f0 9d 19 a5 be 83 af 30 be 04 f9 28 3f 2a 81 1a bb
       -0.32246104 -0.17254452 0.6600497 -0.0023575523
000300 9a 45 1c bf fe dd 31 3f 62 4c 46 3d bb 77 13 3e
       -0.61043704 0.6947936 0.048412688 0.14401142
000310 88 83 6b 3f 3c 8d 26 be 79 71 fb 3e 31 c3 e1 3e
       0.91997576 -0.16264814 0.4911001 0.44094232
000320 1e 70 9a be 90 77 5d 3e e0 e7 20 3f fe f5 c3 bd
       -0.30163664 0.2162764 0.62853813 -0.09568404
000330 43 22 42 bf b2 ee 01 3f d4 e5 37 3e f4 29 27 be
       -0.7583353 0.50754845 0.17958766 -0.16324598
000340 3b 77 20 3f 86 d6 8d 3e 49 0f 65 3e 45 e8 60 3e
       0.6268193 0.2770273 0.22369112 0.21963604
000350 80 3f bb be 6f d8 34 bf 5e 28 6a be 51 48 af 3d
       -0.36571884 -0.7064275 -0.22866961 0.08558715
000360 db 97 77 be 82 2c 28 3d 61 68 24 be e2 82 c9 be
       -0.24179022 0.04105807 -0.16055442 -0.39357668
000370 89 3a fa bd 5f 97 18 3f 42 75 d1 be 02 6e 22 bf
       -0.12218196 0.59605974 -0.40909773 -0.6344911
000380 85 6f 85 3d 95 2e 1b 3e a2 b3 c6 3e ed 3c 4e 3f
       0.06515411 0.15154488 0.38808924 0.80561715
000390 f6 e4 79 3d 9c 4d d9 3e df 04 85 3e e3 c3 d3 be
       0.06100937 0.42442024 0.2598028 -0.41360387
0003a0 71 18 c2 3e 92 96 0a be ec 65 ff be e2 3d b2 bd
       0.37909272 -0.13534 -0.49882448 -0.087032095
0003b0 11 83 54 be 3e 37 3a bf be b3 98 3e ec 14 3b bf
       -0.20753123 -0.7274054 0.29824632 -0.730788
0003c0 65 53 85 3e fc e6 6b 3e 4c b6 08 3f 69 52 18 bf
       0.26040187 0.23037332 0.5340316 -0.5950075
0003d0 0d 35 38 3f c2 94 0b bf af e2 46 be e9 d6 22 3f
       0.7195595 -0.5452386 -0.1942241 0.63609177
0003e0 2d 7b 1b 3f dc ef 1d bf e5 59 21 3f 07 1f 23 bf
       0.60734826 -0.6169412 0.63027793 -0.6371922
0003f0 7b 6d d0 be d4 7e ee 3e 68 d7 16 3f 0a 3b af bd
       -0.40708527 0.46581137 0.58922434 -0.08556183

network_body._body_endoder.seq_layers.2.bias f4 [256]
000000 73 2f a6 bd cc 72 26 3d 99 36 ab 3d 5d e0 b7 3c
       -0.08114519 0.040636823 0.08360023 0.022445852
000010 53 4a e5 bd bc 80 d2 bd e4 20 40 bd 88 73 81 3d
       -0.11195817 -0.102784604 -0.046906367 0.06320864
000020 3c 63 95 bd 54 3e 9f 3d 64 a1 1e be 43 a6 8d 3d
       -0.07294318 0.0777556 -0.15491253 0.069164775
000030 c2 29 d4 bd 6d b0 16 3d fd a4 14 bd 7f 2a 09 3d
       -0.10359527 0.036789346 -0.036290158 0.033487793
000040 06 50 b8 3d cd 71 b2 3d c9 07 9e 3d 86 d6 db bd
       0.08999638 0.08713112 0.07716329 -0.107342765
000050 70 75 9f 3d 2e 1c 89 3d a3 0c ad 3c 56 3a a8 3c
       0.07786071 0.06694828 0.02112419 0.02053563
000060 c4 94 8f 3d c3 82 88 bd 46 0e 10 3e 91 ff 63 3d
       0.07010797 -0.06665566 0.14067945 0.05566365
000070 3b fc 95 3d 18 e3 c4 3d 45 be 1a bd 02 59 2d bd
       0.073235 0.09613627 -0.03777911 -0.042321213
000080 e6 e0 60 3c 8c bd 3d 3e 38 8a 48 3c 24 1a b5 bd
       0.013725495 0.18529338 0.012239985 -0.088428766
000090 eb 98 5e bd 55 6e c3 3d e1 25 03 be 89 a8 55 bb
       -0.054345053 0.095425285 -0.12807418 -0.0032601675
0000a0 81 36 aa 3c d0 2a 00 3e cc 6a 18 be 18 65 92 bd
       0.020777943 0.12516332 -0.1488449 -0.07148188
0000b0 c3 8e 28 bd aa f3 7a 3d b8 32 cf bd c7 09 29 bd
       -0.041151773 0.061267532 -0.10117096 -0.04126909
0000c0 62 ce e4 bc 2b 48 ef bc 5b 0e e7 bd a7 db 9d 3d
       -0.027930442 -0.029209217 -0.11282035 0.07707911
0000d0 1f 29 19 3e 5f 12 88 bd 43 4a 02 be c7 a7 8a 3d
       0.14957093 -0.06644129 -0.12723641 0.06770282
0000e0 22 c1 6d bb 22 42 49 bd e3 10 84 3d d0 98 12 3d
       -0.0036278446 -0.049135335 0.064485334 0.035790265
0000f0 41 e1 92 3d 54 69 ad bb e8 e2 45 3d b9 5b da bc
       0.0717187 -0.005292097 0.048312098 -0.026655065
000100 a6 97 81 bd b5 da 67 3c 2d 98 30 3d 15 6b c9 bd
       -0.06327753 0.014151265 0.043113876 -0.098348774
000110 6d 4a c7 bd 24 43 09 bd 0d 6e 4b 39 0b 83 fc 3d
       -0.097309925 -0.033511296 0.00019400586 0.12329682
000120 15 05 9b 3d 40 a4 39 3d 86 18 1a 3c 00 de 92 3d
       0.07569329 0.045322657 0.009405261 0.071712494
000130 43 c2 1e 3d 11 e2 08 3d 0b 43 39 bd fb 6a da bd
       0.03875948 0.03341872 -0.045229953 -0.10664936
000140 fd 16 cb bc 60 84 31 be 90 78 3a 3d 60 b8 ec 3c
       -0.024791235 -0.17335653 0.045525134 0.02889651
000150 06 56 6d 3c 9f 73 64 3c cd f8 64 3c a7 94 87 bc
       0.014485842 0.013943582 0.013975334 -0.016550375
000160 c3 c7 d6 bd e8 89 a8 bc e1 1e 9c 3d 6d 76 c7 bd
       -0.1048732 -0.020573571 0.07623077 -0.09739385
000170 c3 6f 5d bd ff 18 b3 bd c0 06 bc bd d2 e0 8a bd
       -0.054061662 -0.08745002 -0.09180975 -0.06781162
000180 f1 dd fd bc ea f0 a0 3d 44 c7 5c 3d 99 ab 63 3c
       -0.030989619 0.07858451 0.053900972 0.013895893
000190 c6 18 25 3e 84 9d a2 3c d1 0e de bd 93 64 bf 3d
       0.16122732 0.0198505 -0.1084267 0.09345355
0001a0 3d 47 1e 3d 47 56 11 be 77 0c e9 bd 80 ef 7c 3d
       0.038642157 -0.14193068 -0.113793306 0.061751842
0001b0 58 2c 9f 3d 86 fa 1e 3d 01 7d 4f bd b6 30 85 bc
       0.0777213 0.038813137 -0.050656322 -0.016258579
0001c0 2e e4 49 3d 03 8a 7c 3c cd 29 5b bd 51 47 f7 bd
       0.049289875 0.015413764 -0.05350666 -0.120741494
0001d0 f9 0f f0 bd a7 68 93 3d 13 ad ae 3d b3 c8 9f bc
       -0.117217965 0.07197695 0.08529105 -0.01950488
0001e0 db 32 e5 bc 59 26 d8 bd f0 15 de bd 9e 4b ad bc
       -0.027978351 -0.10554189 -0.10844028 -0.021154221
0001f0 8e 4b 8d 3d d9 ff 80 bd dc 00 e7 3c aa 7b bd 3c
       0.068991765 -0.06298799 0.028198652 0.023130257
000200 97 0b 1e be 5a 2a 09 be 54 1a 09 be 3b a9 bc 3d
       -0.15434109 -0.13395062 -0.1338895 0.09211966
000210 d7 45 11 be e9 21 04 3e c1 b5 55 3d 34 e9 9c bd
       -0.14186798 0.1290356 0.052175287 -0.076616675
000220 23 cb 05 3e ae 39 b6 3b 17 37 95 3d 60 4c c6 3d
       0.13065772 0.005561075 0.07285898 0.09682536
000230 aa 87 1b bc 48 86 c1 bd 93 7b a9 bd 09 a4 81 3d
       -0.009492794 -0.0944944 -0.08275523 0.06330115
000240 68 00 80 3d 71 ca 48 bd 6b bc af 3b b1 3e cd bc
       0.062500775 -0.04902119 0.0053630373 -0.025054308
000250 15 b0 85 bc a9 89 83 3d 72 be 30 3d e0 7a 99 bb
       -0.016319314 0.06422741 0.043150373 -0.0046838373
000260 35 e4 a1 3d 55 a1 3f 3d bf 15 f0 bd f1 b3 c3 3d
       0.07904855 0.046784718 -0.11722898 0.095558055
000270 04 76 b1 bd cd 97 ec bd af 92 00 be ee 6e 0f bd
       -0.08665088 -0.11552391 -0.12555955 -0.0350179
000280 99 ba e8 bd 32 87 4b bb a9 52 6f 3d 0a 32 ca 3d
       -0.11363716 -0.0031055924 0.05842844 0.098728254
000290 a4 4f 8e 3d 64 06 be 3c a5 c8 b7 3d 6a 95 2c 3d
       0.06948784 0.023196407 0.08973817 0.04213468
0002a0 e4 f9 18 bd 18 a1 cb bd 97 6f 40 3d 84 92 a2 3d
       -0.03734769 -0.099428356 0.04698142 0.07938102
0002b0 0d 69 d4 bd 66 08 43 3e fa 93 83 3c 66 9c 92 bd
       -0.10371599 0.19046172 0.016061772 -0.07158737
0002c0 9e dc 02 3e 7e cc 41 3d cd 6f b3 bd 19 2d 17 3e
       0.12779471 0.04731416 -0.08761559 0.14763297
0002d0 63 35 b2 bb b9 d2 e4 3d b6 4d 1c 3d 09 4f 8f bd
       -0.005438493 0.11173005 0.03816005 -0.06997497
0002e0 33 76 d4 bd ae c8 8b 3d 62 ae 0b 3e be 56 b6 3d
       -0.10374107 0.06825386 0.1364074 0.089032635
0002f0 a9 83 0f bd 47 00 37 bd 22 0d 42 3d 3d 35 2c be
       -0.03503767 -0.044678 0.047375806 -0.16817184
000300 78 3e 7c 3d a7 ff b9 3d 7f 66 9a bc b5 66 77 3d
       0.061583012 0.09081965 -0.018847702 0.060400683
000310 f4 b3 f1 3d 83 8e 90 bd 76 01 01 be 0e ff c9 bd
       0.118019015 -0.07058432 -0.12598214 -0.09863101
000320 1c 4a 9e bd 22 6b c0 ba 13 2f 16 3d 65 8c 39 3d
       -0.07728979 -0.0014680366 0.036665987 0.045299906
000330 d2 13 d4 3d 39 05 1b bc 54 99 d2 bc c7 3d 86 3d
       0.10355343 -0.009461694 -0.025707878 0.06554752
000340 f1 64 9a bd 01 6a 9b 3d 74 b5 14 be 1b d2 a3 bc
       -0.07538784 0.07588578 -0.14522344 -0.019997647
000350 c2 ea 12 bd 84 fd 68 bd 47 0d 0b 3d ba b2 e7 bb
       -0.035868414 -0.056882396 0.03394821 -0.0070708664
000360 44 1d 80 3d 2a c9 5f bb a3 4d d6 bd ca 23 88 3d
       0.06255582 -0.0034147003 -0.10464027 0.06647451
000370 af 1d f5 3d 6d 36 15 be 9c 72 f2 bd 02 fd 0d 3d
       0.11968552 -0.14571543 -0.11838266 0.034665115
000380 0e 3a cb bc c8 c7 c8 bd ad e1 dc bd 7a aa a1 3d
       -0.024807956 -0.0980373 -0.10785232 0.07893844
000390 74 c4 cb 3d b2 2e 7d bd 2b e9 8b 3d 04 25 5d bd
       0.0994958 -0.06181211 0.06831583 -0.05399038
0003a0 70 dc f6 3d a1 5f ef 3d 52 fe 2d 3d a6 8c 67 3d
       0.12053764 0.11688162 0.042478867 0.056530617
0003b0 d0 34 b8 bd cf 08 b0 3d e6 72 f7 3d 92 6c f3 bd
       -0.08994448 0.0859543 0.12082462 -0.118859425
0003c0 12 5e 84 3d cc 5e 74 bd ef 3c d7 3d c3 36 bc 3c
       0.06463255 -0.059660718 0.10509669 0.022975331
0003d0 9c c0 d2 bd 1c 8f 3e bd c5 c5 c2 3c de d7 5b 3d
       -0.102906436 -0.0465232 0.023775944 0.053672664
0003e0 0f 5f 54 bd b3 90 bf bd 36 15 1b 3e 8d fd ac bc
       -0.051848467 -0.09353771 0.1514481 -0.021116996
0003f0 dc 46 8d 3d 15 37 10 3c 55 31 da 3d d0 21 19 3d
       0.06898281 0.008802195 0.106539406 0.03738576

network_body._body_endoder.seq_layers.2.weight f4 [256, 256]
000000 10 82 fc bd 0d 10 a2 ba ce ea 56 bd 25 53 80 bc
       -0.12329495 -0.0012364403 -0.05247002 -0.015664646
000010 83 29 ec bd 57 74 2e be 50 80 35 3d fc 2f 4b bd
       -0.11531355 -0.17036568 0.04431182 -0.04960631
000020 8a 71 b6 bc 1f 36 7a bc d7 56 01 be e9 e4 c2 bb
       -0.022270937 -0.015271693 -0.12630783 -0.0059476984
000030 a4 1c 1e bd ba 0a 7c bd 27 16 29 bd 4b 1b 60 bd
       -0.038601533 -0.061533667 -0.04128089 -0.05471353
000040 70 23 c6 bd b3 50 28 be eb 96 c4 bd 62 2f 90 3c
       -0.09674728 -0.16437034 -0.09599098 0.017600719
000050 48 8a 6a 3c 02 de 6b bd 8c 08 86 3d a9 9a bf bd
       0.014315195 -0.05758477 0.06544599 -0.09355671
000060 1d 8f 53 3d 6b 57 a9 bd b8 46 cd 3d 81 7c c0 3d
       0.051650155 -0.08268627 0.10023254 0.09398747
000070 c9 5d 0d 3d 27 0b 62 3c 00 aa a0 bd 47 33 83 bd
       0.03451327 0.013796604 -0.07844925 -0.06406265
000080 b8 1e d5 bc eb 65 f9 bb 2b 17 11 bd e0 ef f9 bd
       -0.026015624 -0.0076110265 -0.035422485 -0.12203956
000090 c9 23 b2 bd 96 0c cc bd 7a 2c a2 bc 56 fb 24 bd
       -0.08698232 -0.09963338 -0.019796599 -0.040278755
0000a0 93 5b e3 bc 86 c5 33 bd 85 7c dc bd 79 04 c6 3d
       -0.027753627 -0.043889545 -0.10765938 0.09668822
0000b0 29 4e 7e 3c d0 ae 41 bd ae 75 ae bc 15 bc 81 3c
       0.0155215645 -0.047285855 -0.021296348 0.015836755
0000c0 96 a0 0c be d6 4c 6e be 9a 5f d8 bd 20 58 97 3d
       -0.13733134 -0.23271498 -0.105651096 0.073898554
0000d0 bc 99 48 be e2 3c 5d bd f1 84 0e 3d d7 bb 15 bd
       -0.19589895 -0.05401314 0.03479475 -0.03655609
0000e0 1c f1 11 3e e0 5c 9e bd 16 a9 26 be 7a 37 c3 3d
       0.14252132 -0.07732558 -0.16275439 0.09532066
0000f0 c6 2c 2d 3d 36 88 91 bd a8 56 ea bc f0 0f 39 be
       0.042279027 -0.07106058 -0.028605774 -0.18072486
000100 3d f3 b3 bd 0e a0 97 bd 80 12 c5 3d 79 77 a7 3d
       -0.087866284 -0.07403575 0.09622669 0.081770845
000110 de cc 7f 3d 5f 25 f7 bc 07 c8 08 be 91 f3 2b bd
       0.062451236 -0.030169187 -0.13357554 -0.04198033
000120 f5 38 01 bd 99 37 aa bd ff 38 af 3d f3 a8 18 3c
       -0.03154846 -0.08311386 0.08555793 0.009317624
000130 61 5a 3c 3d 82 d8 b7 bd c3 01 e9 3b 0e 65 81 3b
       0.04598463 -0.089768425 0.0071108057 0.0039488142
000140 a4 88 11 be 8b 31 93 bd 89 f8 b1 bd 65 a6 c7 bc
       -0.1421228 -0.07187184 -0.086899824 -0.024371335
000150 07 64 81 bd e0 a9 c7 3c bd 40 c4 3c 8e 31 52 be
       -0.06317907 0.024372995 0.02395665 -0.20526716
000160 49 d4 2b bd 1a d0 9a bd 9a 1f c5 3d 6b 1f c4 bd
       -0.041950498 -0.075592235 0.09625168 -0.09576305
000170 ac 2b 93 bd 79 cd c1 bc 33 a5 fc 3d 43 e1 28 3d
       -0.07186064 -0.023657547 0.12336197 0.04123045
000180 79 c1 75 bc 62 17 84 bc 79 84 83 bc cd f8 15 bd
       -0.014999741 -0.016124431 -0.016054379 -0.036614228
000190 22 b7 9c bd bd c2 69 bd e7 6c bb bd 93 6f 77 3d
       -0.07652117 -0.057070483 -0.09151631 0.06040914
0001a0 43 5f 51 3c a7 d4 7f bd bd 09 61 3c 04 cb b0 bd
       0.01277906 -0.06245866 0.013735232 -0.08632472
0001b0 5a b9 3d 3c f9 02 57 3d 77 e0 90 be 3d fb 0b be
       0.011579836 0.05249307 -0.28296253 -0.13670059
0001c0 d1 7b 0e be b2 fc 32 3d af 48 13 3c 23 69 1b be
       -0.1391442 0.04369802 0.008989497 -0.15176825
0001d0 2a f9 9b 3a 41 8a 7a bd 8b 30 3e bd 69 37 d1 3b
       0.0011899818 -0.061167005 -0.046433013 0.0063847792
0001e0 40 36 1c be 04 81 81 3c f8 bf 37 bd d0 a2 1a be
       -0.1525507 0.01580859 -0.04486081 -0.1510117
0001f0 f4 2b 2b bd 3f 30 a0 bd 40 7e 24 3d a3 7f 9c bd
       -0.041789964 -0.07821702 0.040159464 -0.07641532
000200 bd 6a ec bd 2c f7 d7 bb c9 87 e1 3c 26 02 3a 3e
       -0.11543796 -0.0065907445 0.027530568 0.18164882
000210 50 96 13 3d dd 6c ed bd ea 69 d5 bd 2c 29 f3 bd
       0.03603202 -0.1159303 -0.10420592 -0.11873087
000220 7e 20 4e ba 2e aa 8d bd d3 84 ee 3b 57 c8 58 ba
       -0.0007863118 -0.06917225 0.0072790175 -0.0008269599
000230 bd 90 02 be ef f6 88 bc 36 de d7 bd da ed 8a bc
       -0.12750526 -0.01671931 -0.1054043 -0.01695912
000240 6f ea c2 bb 0b a9 96 bd 92 11 dc 3b a3 ef e9 bd
       -0.005948357 -0.07356461 0.0067159617 -0.1142266
000250 de 0d b3 bd bc 33 d7 b9 16 36 8b 3c 37 74 f4 bc
       -0.08742879 -0.0004104654 0.016993564 -0.029840572
000260 09 07 e1 3c 0c 96 4f 3c 70 fc da bd ce ef ec bc
       0.027469175 0.012670051 -0.1069268 -0.028922942
000270 7c 99 ab 3c 13 b9 34 bd 82 5b 4a bd 0e a9 87 bd
       0.02094721 -0.044121813 -0.049403675 -0.066240415
000280 ae c0 57 3b 0d dc 1a 3d b5 b9 dd bb 37 a2 8a bc
       0.0032921243 0.037807513 -0.006766523 -0.016923053
000290 d3 82 0b bd ad e5 24 3d 46 15 09 be 3a c7 49 bd
       -0.03406031 0.0402581 -0.13387021 -0.049262263
0002a0 3c db 1e 3d 15 2e 55 3d a6 e2 91 bd 59 d3 90 3d
       0.038783297 0.0520459 -0.07123308 0.07071561
0002b0 54 fb 3f bd 3c 88 2c be a5 d7 63 bc 99 81 d2 3d
       -0.046870545 -0.16848844 -0.013906394 0.10278625
0002c0 a2 11 93 bd f0 18 41 bd aa f8 05 bd c7 73 89 be
       -0.071810976 -0.047142923 -0.032707848 -0.26846144
0002d0 1a 10 83 3c 09 34 16 be b7 1d 1d be 2b a5 00 3c
       0.015998889 -0.14668287 -0.15343367 0.007851879
0002e0 49 5f 6d bd 97 18 25 bd 2a 23 93 bd 5b 62 30 bd
       -0.0579522 -0.040306654 -0.071844414 -0.04306255
0002f0 5e aa 48 3d 17 49 ad bc 7e 2a 9d bc 4d 13 81 3c
       0.0489906 -0.021153016 -0.0191853 0.015756274
000300 1d 8c 05 3d 6f b0 55 bb 2e ac 55 bd fe ec 95 b9
       0.032604326 -0.0032606383 -0.052166156 -0.00028596068
000310 3c cb 82 3d 59 c0 6d bd 03 5b 7b bd 84 a6 32 3d
       0.0638642 -0.058044765 -0.061366092 0.043615833
000320 8a 3e ae bd ef a4 9d bc a7 c3 22 bd 96 20 e9 bd
       -0.08508022 -0.019243686 -0.03973737 -0.113831684
000330 0c a0 13 3d 4d 54 98 bc 67 1f 14 bd dc 14 63 3d
       0.036041304 -0.018594885 -0.03616276 0.055439815
000340 10 cb 96 3d 83 c4 a9 3d ea 5f 10 3d 62 c0 63 bd
       0.0736295 0.08289435 0.03524772 -0.055603392
000350 17 f8 98 3c a8 ed 09 bc 9c 64 fc bc 12 64 81 bd
       0.018672986 -0.008418478 -0.030809693 -0.06317915
000360 ca ff b7 bc e2 3c 73 bc f7 6a 9d 3d 58 f7 c2 bc
       -0.022460837 -0.014846059 0.076864175 -0.023799583
000370 b7 41 ad 3d 4a 8c 64 bd 64 77 4f bd 1b 9a 28 3d
       0.084598 -0.055797853 -0.05065097 0.04116259
000380 e8 5f 53 be f7 66 e9 ba 4a 78 01 bd 9e e7 de bc
       -0.20642054 -0.0017807175 -0.031608857 -0.027210053
000390 c2 f7 5c bd b1 c9 95 3d da e8 2a bc 9d 36 17 3e
       -0.053947218 0.0731386 -0.010431493 0.14766927
0003a0 6f c1 0b bd 78 d4 89 3d 78 d9 1a bd c9 0d 16 be
       -0.03412002 0.06729978 -0.03780505 -0.14653696
0003b0 d0 76 f9 ba 5a 60 c6 bc c7 6f af 3d 77 b3 df bd
       -0.0019032601 -0.024215866 0.08566242 -0.10922902
0003c0 8e f9 24 be 9d 8f e1 bd 79 7e 6e be 44 b4 ee bd
       -0.16110823 -0.1101372 -0.23290433 -0.11655477
0003d0 8d f9 99 bd 75 6d 6f bd 00 e4 b1 bd 4f 17 51 bd
       -0.07518301 -0.058453996 -0.08686066 -0.05104762
0003e0 9c 82 07 be 11 68 f0 bc f4 d5 3f bd 56 d2 5b bd
       -0.13233417 -0.029346498 -0.0468349 -0.05366739
0003f0 24 a0 2b 3d a1 7f 2a bd 62 79 ee bd bf e6 47 bd
       0.04190077 -0.041625623 -0.11644246 -0.04880404

network_body._body_endoder.seq_layers.4.bias f4 [256]
000000 c5 03 cb 3d 05 1f c8 3c b6 df aa 3d 99 57 e0 3d
       0.09912828 0.024428854 0.08343451 0.10954208
000010 d0 11 2d 3c 9e c3 16 3c 05 25 13 3d 95 1e bb 3d
       0.010563329 0.009201912 0.035923976 0.091366924
000020 91 69 27 bd 85 17 fd bc 70 b4 89 bd 27 8f c2 bd
       -0.04087216 -0.030895004 -0.06723869 -0.094999604
000030 2c d8 60 bd ea aa 19 3e d6 6d 4d 3d 38 de 9f bd
       -0.054893658 0.15006605 0.050153576 -0.07806057
000040 21 b6 6c bc 13 34 7f bc eb 25 93 3c 74 37 74 bb
       -0.01444772 -0.01557638 0.017962417 -0.0037264498
000050 92 fc 0e bd 01 ce f1 3c f9 65 87 3d 3f f0 be bc
       -0.03490884 0.029517176 0.066112466 -0.023307918
000060 c3 c2 7a 3d bc c7 a4 3d 72 1d 1b bd b2 ca ab 3d
       0.061220895 0.08045909 -0.037869878 0.083882704
000070 30 8a f9 3d b3 f4 29 bd 7f 41 9b bd fe 7c a2 3d
       0.1218456 -0.04149313 -0.07580852 0.079339966
000080 6e 4c 95 bd 1a ca 07 3d da 56 9d 3d be 18 bc 3d
       -0.072899684 0.033151723 0.07682581 0.09184407
000090 84 11 90 3d 41 f7 66 3d 4a 6c e3 3d b3 27 12 3c
       0.07034591 0.056388143 0.11104639 0.008920598
0000a0 44 6d 06 bc 04 f5 f1 bc b6 cb c1 3d 09 0a 4f bd
       -0.008204762 -0.029535778 0.09462683 -0.05054668
0000b0 7e 3e 82 bc 58 a2 b0 3d cc 24 a0 bd a4 cc ff 3c
       -0.01589894 0.086247146 -0.078195184 0.03122551
0000c0 c3 a8 a6 3d 32 aa 0c 3e 7b 2c 71 bd 84 31 1b 3e
       0.081376575 0.137368 -0.05888031 0.15155607
0000d0 47 e1 92 3b 9b 67 69 bc 4f b9 6f bc 8e 62 a7 bd
       0.0044824216 -0.014245893 -0.014631583 -0.08173095
0000e0 24 d7 98 bd 23 ae 20 3e ee 6a 25 bd 63 24 56 bd
       -0.0746291 0.15691428 -0.04038518 -0.052280795
0000f0 c0 4b 8c 3b 4c ca 65 bd fe 93 af bd 1b 79 10 3e
       0.004281491 -0.05610113 -0.08573149 0.14108698
000100 90 fa f0 3c 35 b8 c0 3b db 13 57 bd ed 3a bd 3d
       0.029416353 0.005881334 -0.05250917 0.09239755
000110 f4 af 90 3b 61 d2 02 3e c6 7f 74 3d d0 48 36 3d
       0.0044155065 0.12775566 0.059692167 0.044503033
000120 fc 24 2d 3c 0e 37 26 3d e3 7f 62 bd ac a8 70 3c
       0.0105679 0.040579848 -0.055297744 0.014688652
000130 6e 28 70 3d c0 0f a5 3c fa b3 ca 3d 3b 0b 9a 3d
       0.058632307 0.020149112 0.09897609 0.07521673
000140 94 fc 17 3e a6 fe aa bd 0a 0c aa 3d bb 2c a7 bd
       0.14842445 -0.083493516 0.083030775 -0.081628285
000150 c4 92 91 bd 9b 35 67 bd 56 a2 5f 3c 85 0a cb bd
       -0.071080714 -0.056447607 0.013649544 -0.09914116
000160 fc b9 35 bd 21 ce 6d bd 31 f0 d5 3d 13 fb 6b bd
       -0.04436682 -0.058057908 0.104462035 -0.05761249
000170 99 b5 81 3d 3e 60 49 bb 26 2b 1f bd e9 e9 12 3e
       0.06333465 -0.003072753 -0.03885951 0.14347042
000180 29 d7 c0 bd ce e7 43 3c fa 04 00 3e f0 26 0a 3d
       -0.094160385 0.011957122 0.12501898 0.03372854
000190 9b 7a e7 3d 1f 2e 23 3e 6d b4 ae 3c 0b a5 0d bc
       0.11302682 0.15935563 0.021326268 -0.008645306
0001a0 c8 da 6b bd 2e 56 78 bd 38 8e fa bc ab 53 8e bd
       -0.057581693 -0.060629062 -0.030585393 -0.06949552
0001b0 3a 20 48 bc 03 a4 6c 3c 6b 9a e7 3d 3d 29 c1 bd
       -0.012214715 0.0144434 0.1130875 -0.09431694
0001c0 01 35 30 3d c5 a9 24 3e 1b 7d 16 bd f5 03 92 3c
       0.0430193 0.16080387 -0.036740404 0.017824152
0001d0 6a fa 71 3d 3f dc f2 3c d6 cb c0 bd 09 a0 ea bc
       0.059076704 0.029646037 -0.094138786 -0.028640764
0001e0 8f 51 27 bd cd c6 64 3d 56 fb ff 3d 91 29 05 3d
       -0.040849265 0.055853654 0.124991104 0.032510344
0001f0 d5 8e a4 3d f1 8d 99 3d 93 33 fc 3d 27 ec c6 bd
       0.080350555 0.07497776 0.123145245 -0.09713011
000200 b1 01 16 3d 2e 4a e4 3d 31 c0 9f bd 3e 07 4f bc
       0.036622707 0.11146961 -0.078003295 -0.012636004
000210 31 57 a1 bd bc cb 3b 3c 33 b9 92 3d ce 36 5c bc
       -0.078779586 0.011462148 0.0716423 -0.013440801
000220 54 7b c4 bd d4 4f 50 bd 4a 50 86 3d 04 e2 73 3d
       -0.095938355 -0.05085738 0.06558283 0.059541717
000230 8a d0 99 bc b0 a4 ba 3c 39 64 6a 3d 52 7e 9e 3c
       -0.018776197 0.022783607 0.057224486 0.019347344
000240 6f eb 28 3c 00 d7 4c bc 1c 7c cb 3d 90 5d 81 bd
       0.010310038 -0.012502432 0.09935781 -0.06316674
000250 52 18 42 bd 10 c4 e1 3d f2 47 04 3d 88 6b 39 bd
       -0.047386475 0.11023724 0.032295175 -0.045268565
000260 89 f4 1f 3d ba a1 5c 3d e7 54 06 3d 41 15 e7 3d
       0.039051566 0.053865172 0.032795813 0.11283351
000270 6e 5c 47 bd 70 be 0a 3c 6b e3 b2 3a b1 00 61 bc
       -0.048672132 0.008468255 0.0013648098 -0.013733075
000280 95 8a 99 3c ca c7 a3 3d 65 69 a4 bd c4 b1 1a bc
       0.018742839 0.07997091 -0.08027915 -0.009441797
000290 64 75 ea 3d 5a 3c 68 bc 68 9d d5 bd 09 08 6e bd
       0.11448172 -0.014174545 -0.104304135 -0.05811313
0002a0 41 b8 a7 bd b7 d8 21 bd b0 03 de bc 73 26 3c 3b
       -0.081894405 -0.039513316 -0.027101368 0.002870944
0002b0 d9 22 f0 bb 75 6e e5 3d 33 70 06 3e f3 7a e3 3d
       -0.007328373 0.11202709 0.13128738 0.11107435
0002c0 b8 99 81 3d 28 f2 a8 3d f8 78 e4 bc df c1 07 bd
       0.06328148 0.08249313 -0.027889714 -0.033143874
0002d0 96 12 03 3d 29 e1 3f bb 39 2f 05 bc a1 93 b6 3d
       0.032000147 -0.0029278493 -0.008128935 0.08914877
0002e0 5f aa 58 3d 0e 8d 03 3e 8f d0 71 3d 4b 17 ef 3d
       0.052896854 0.12846777 0.059036788 0.11674365
0002f0 d2 79 1b 3e 7e a4 67 3d de f3 b2 3c 34 80 a7 3d
       0.1518319 0.056553356 0.0218448 0.0817875
000300 72 bc 8b bd 0e c0 aa 3d c7 d3 ba bd ae f9 b4 bd
       -0.068230525 0.08337413 -0.091224246 -0.08836685
000310 98 aa c2 3c 6d 3b 15 bd c8 5b 2d bd 15 0c 0a 3e
       0.023762986 -0.036433626 -0.042323858 0.13481171
000320 e7 f3 a3 bd 04 31 2d bd 00 58 28 bd 50 af 9a 3d
       -0.08005505 -0.042283073 -0.04109955 0.075529695
000330 29 49 d9 bd d3 a0 bb 3d 1c e8 d3 bb fa 7f 47 3d
       -0.10609657 0.09161534 -0.0064668786 0.048706032
000340 55 28 d2 bc bf 2a f4 bb e3 cd 8f 3d 2d 49 73 bd
       -0.025653997 -0.007451385 0.07021692 -0.059395958
000350 f3 f8 cb bd dd da 19 3d 9a c4 cf bc 8c 8f 7d 3d
       -0.09959593 0.03756224 -0.025362302 0.061904475
000360 1a c8 d2 bd 22 aa 99 3d 36 cc d4 bd 7f 52 91 3d
       -0.102920726 0.075031534 -0.10390513 0.07095813
000370 55 44 d7 bd f6 49 c3 3d 4b 76 e7 bd b9 54 88 3d
       -0.1051108 0.09535591 -0.113018595 0.066567846
000380 ed f0 42 3d 3b 47 82 3d 71 01 23 bd 89 cd 05 3d
       0.047593046 0.063612424 -0.039796297 0.032666717
000390 9f 68 01 bd 9b 67 c3 3d cd e5 47 3d 50 e7 65 3c
       -0.031593915 0.095412455 0.04880314 0.0140322
0003a0 93 b7 d6 3d d4 6f 91 3d 12 11 f2 3d 59 cf 0c 3d
       0.10484233 0.07101408 0.11819662 0.03437743
0003b0 47 26 a0 3c 89 93 67 bd 11 d5 0f 3e e9 01 bc bd
       0.019549502 -0.056537185 0.14046122 -0.09180052
0003c0 65 ef 5b bc c7 0b 87 3d 7b f3 db 3d 42 74 67 bd
       -0.013423775 0.06594043 0.107397996 -0.056507356
0003d0 45 f0 9b 3d f8 43 4e bc 96 05 f3 bc 44 51 7b 3d
       0.07614187 -0.012589447 -0.02966575 0.061356798
0003e0 50 8f 26 3d 10 45 53 3d 2e c7 c0 bd 21 21 b0 3d
       0.040664017 0.051579535 -0.094129905 0.08600069
0003f0 00 2c 68 bd c4 96 01 bd 34 d9 b4 3b dd 7b 3e bd
       -0.056682587 -0.031637922 0.0055190567 -0.046504844

network_body._body_endoder.seq_layers.4.weight f4 [256, 256]
000000 e7 c1 06 be 93 65 f8 3c 5e 1e 43 3d b7 dc 08 3d
       -0.13159905 0.030321872 0.047636382 0.033413615
000010 15 3f 4e be 61 d9 40 3d 85 df 5d ba 7a f1 71 3b
       -0.20141251 0.04708231 -0.0008463788 0.0036917613
000020 05 9a bb bd 1e 82 db 3a 8f d5 36 be 7a 8d 46 3d
       -0.09160236 0.0016747152 -0.17854904 0.048474766
000030 7f 0e 32 3d 4a d1 19 bd e7 a1 a7 3c cb 29 2c bd
       0.043470856 -0.03755311 0.020462943 -0.042032044
000040 29 a2 b4 3c ac c9 ca 3c 6f 19 e9 ba 37 b6 a6 3c
       0.02204998 0.024754368 -0.0017784069 0.020350559
000050 cb 23 a3 bd 32 96 d1 bd 20 28 37 bd c8 7a 17 bc
       -0.07965811 -0.102337256 -0.044716 -0.009245582
000060 b1 f6 b7 bc 79 7a 06 bd 39 fd 7a 3e 53 aa 91 bd
       -0.022456499 -0.032831643 0.2451066 -0.07112565
000070 d7 5e 02 3d 75 df 42 bd a9 bf a9 bb 1f b3 fe bd
       0.031828728 -0.047576386 -0.0051803184 -0.124365084
000080 71 ec 19 3c bc 57 1d 3e 60 f8 6b bd bc ad d2 bd
       0.009394751 0.153655 -0.057609916 -0.102870435
000090 40 b5 d0 bd bf 08 a0 3c 01 63 54 be 3e 32 ea bd
       -0.10190821 0.01953542 -0.20740892 -0.11435364
0000a0 93 fb 8e 3d 03 e3 c3 3d bf f4 67 bd 0e f7 3d bd
       0.06981578 0.095647834 -0.056629892 -0.046378188
0000b0 4f 6a e2 bd 2a 4f e9 3d df 1f 7a bc 62 09 9c bd
       -0.11055433 0.113920525 -0.015266388 -0.07618977
0000c0 1f 2a ef bd 39 9c 37 3d 73 aa 47 bd 34 11 df 3d
       -0.11677956 0.04482672 -0.048746537 0.10891953
0000d0 8c ef e8 3d 2a 0d dc bc b2 fa c1 bd 33 71 94 3c
       0.11373815 -0.026861746 -0.094716445 0.018120384
0000e0 ca 63 8d 3d 12 66 85 bc e2 43 51 bc 2a bb 59 3e
       0.06903799 -0.016284022 -0.012772532 0.21262804
0000f0 eb 5f 83 bc 59 93 96 3d e1 75 7d 3d 2b 6a a3 bb
       -0.016036948 0.07352323 0.061879996 -0.0049870214
000100 6f 36 12 be f7 59 ac 39 e7 d3 03 3d ca 7c 22 be
       -0.14278577 0.00032873426 0.032184508 -0.15867916
000110 2b de 8e bd fc 67 83 3c cb 7f 89 bd b8 ce 88 39
       -0.06975969 0.016040795 -0.06713828 0.0002609396
000120 5c 16 68 bd fe 98 53 bc d2 41 4c be 24 9f 89 3d
       -0.05666195 -0.012914894 -0.19946983 0.06719807
000130 c3 3e b2 bd 37 68 63 3d 5b 35 16 be 8f 87 44 bd
       -0.08703377 0.05551931 -0.14668791 -0.04798084
000140 92 c3 e7 bc ab 3f 3e be c9 76 04 3b fe 72 28 bd
       -0.028291497 -0.18578975 0.0020212403 -0.04112529
000150 a5 62 36 3d 22 db 89 3c 1a f6 14 3d 25 30 96 3d
       0.04452767 0.016828123 0.036367513 0.073334016
000160 db f4 05 be 6f 26 4f bd 75 60 46 bd 5d 1b 2d be
       -0.13081686 -0.050573763 -0.048431832 -0.1690497
000170 6c b3 9f bd 43 b6 20 bd 73 91 d5 3d 29 f3 cb bd
       -0.07797894 -0.03923632 0.10428133 -0.099584885
000180 f9 da d3 bc 63 fc 2b 3d 27 57 94 bd 93 d1 d5 3b
       -0.02586125 0.04198874 -0.072431855 0.0065252273
000190 74 df fe 3d 4c 31 95 bd c0 9e 4c 3d 13 46 44 bd
       0.12444964 -0.07284793 0.049956083 -0.04791839
0001a0 86 e9 56 3c fa b9 8a bd fd 0e 2d be 18 c4 5d 3d
       0.0131172 -0.067737535 -0.16900249 0.054142088
0001b0 49 de 2b bd 4c a5 25 3d e1 7f 65 3d 03 d1 70 3d
       -0.041960035 0.040440843 0.056030158 0.05879308
0001c0 4d ff 99 bd 52 9d c3 3b ac fe 75 bd 47 ed d3 bd
       -0.07519398 0.005969682 -0.060057327 -0.103479914
0001d0 ae 07 ec bd d8 7f 70 3d e5 79 b9 3d b7 b8 f0 3b
       -0.11524902 0.05871567 0.09056453 0.0073462385
0001e0 a8 13 cf bd 83 ed a6 bc 6f 94 cb 3b 00 70 a9 3c
       -0.10111171 -0.020376926 0.006212763 0.020683289
0001f0 e4 24 ac bd 1c 0c 66 bc fc d2 98 bb 40 9a b8 bd
       -0.08405474 -0.014040973 -0.004663823 -0.09013796
000200 0b 94 c1 bd 89 a2 86 bb ed 76 45 bd c9 b2 4b 3d
       -0.09452065 -0.004108731 -0.04820912 0.04973105
000210 7f 82 a3 bd 29 7e fa bc b9 ba ba bd 40 cb 09 be
       -0.079838745 -0.030577736 -0.09117646 -0.1345644
000220 5e 6f e3 3d 7f d4 94 bd 1c 57 b3 3c 40 99 f0 3d
       0.11105226 -0.07267093 0.021892123 0.1174798
000230 dd 73 8f 3d d0 c9 ee 3b 86 42 01 bd 9c 6f ba 3c
       0.07004521 0.0072872415 -0.031557582 0.022758298
000240 96 9e 79 3d 09 90 3c ba 87 5e 09 be 3b d5 8d 3d
       0.060942255 -0.0007193094 -0.13414966 0.06925436
000250 18 ab 4c bd cb 8f f6 bd 91 e8 88 3d 7d eb 2e 3e
       -0.049967855 -0.12039145 0.066849835 0.17082019
000260 36 df 49 bd 13 f5 23 bd d3 64 9f bd 82 ec d5 3d
       -0.049285136 -0.040028643 -0.077829026 0.10445501
000270 be de 70 bd a7 ca ac 3d 60 fc e6 bc 21 9d 1a bd
       -0.058806174 0.0843709 -0.028196514 -0.037747506
000280 15 fe 26 bd ed 20 2e 3c 43 90 b7 bc ee 09 ad bd
       -0.040769655 0.010627967 -0.022407657 -0.084491596
000290 37 6e 4b 3d c4 a2 6c ba c3 6e 4e 3d 43 90 e5 3b
       0.049665656 -0.00090269395 0.0503986 0.0070057227
0002a0 01 6e 2b 3d 86 58 23 be 1e 1d 91 bb 7a b7 36 bd
       0.041852955 -0.15951738 -0.00442852 -0.04460857
0002b0 2f 6f 12 3d 13 88 c1 3d 00 d9 14 bd 41 1e 84 3c
       0.035750564 0.09449782 -0.03633976 0.016127707
0002c0 7c 3c 41 3d be 7d f3 bc 53 dc c9 3d c6 05 71 bd
       0.047176823 -0.029723044 0.09856477 -0.058843397
0002d0 71 a3 79 bc e4 9e d0 bc db 06 77 3d e5 52 9a bd
       -0.015236721 -0.02546639 0.060309272 -0.07535342
0002e0 62 16 f2 bd 7b 86 1d be 1c b5 3c 3d 75 35 4e 3d
       -0.118206754 -0.15383331 0.046071157 0.05034395
0002f0 b9 2f 0c 3d d5 18 89 3d bd ba 85 3c 07 98 1e be
       0.0342252 0.066941895 0.016324395 -0.15487681
000300 4a f6 00 bd 9e fa bb 3d fe 83 bc 3c 9e a5 56 3d
       -0.03148488 0.09178661 0.023012158 0.05240404
000310 e3 f3 04 3e 37 f9 5f bd a3 47 a2 bd c2 50 4d 3d
       0.1298366 -0.05468103 -0.0792382 0.050125845
000320 ff ae 13 be ea 54 fa bc 72 7b 39 bd 77 7c c8 3d
       -0.14422224 -0.030558068 -0.045283742 0.09789365
000330 43 90 a8 bd 3c 9d 0b 38 c2 36 13 3c 69 53 92 3c
       -0.08230641 3.328662e-05 0.008985223 0.017862039
000340 c3 e7 a5 3d ea 1d 7f bc 92 63 51 be 81 db 7a bd
       0.08100846 -0.015571097 -0.2044814 -0.06124449
000350 e6 93 bd 3d b0 ba c2 3c e5 ca a2 3d 7d 32 55 bd
       0.09256725 0.02377066 0.07948855 -0.052050103
000360 bc fe 97 3c f8 dd 4d bd 24 37 e3 bc 06 bb 5a 3d
       0.018554084 -0.050260514 -0.027736254 0.053401016
000370 92 15 04 bd 3f 32 cd bd f3 16 10 3d c4 5e db bc
       -0.032247134 -0.10019349 0.035178136 -0.026778586
000380 01 de 8d 3d 4e 50 f6 bd a6 d4 d8 bc 99 d3 bc bc
       0.069271095 -0.12027036 -0.026468586 -0.023050116
000390 8f 50 4a bd 7a aa 2c 3d 45 4a b4 3c 55 da f7 bd
       -0.049393233 0.042154767 0.02200807 -0.121021904
0003a0 47 7d 35 3d 04 aa 90 3d 5c c6 18 3d 6a f4 72 bd
       0.044308927 0.07063678 0.037298545 -0.059315123
0003b0 dd 59 51 3d 43 62 dc bd df 15 28 3e 7d 5e 7b ba
       0.05111109 -0.107609294 0.16414593 -0.000958897
0003c0 96 5b 12 3d 45 aa 10 3d 4e 35 3d bd 5f 32 1a bd
       0.035731874 0.03531863 -0.046193413 -0.037645694
0003d0 4f 17 82 be 97 10 06 bd 2a ed a7 bd c4 94 ec bc
       -0.25408408 -0.032730665 -0.08199532 -0.02887953
0003e0 e3 2d 75 3d 7e 10 23 bc 80 d1 cc 3c b5 c1 5a bd
       0.059858214 -0.0099526625 0.025002241 -0.05340739
0003f0 81 17 14 3d b6 73 0e bd 62 16 01 3e b8 85 ac bd
       0.036155228 -0.03477832 0.12606195 -0.08423942

network_body.observation_encoder.processors.0.normalizer.running_mean f4 [6]
000000 bb 78 85 c0 4d 7c b4 41 07 7b 77 c1 45 1f 01 c2
       -4.1709876 22.560694 -15.467536 -32.280537
000010 c8 31 b3 3f e2 50 8e c2
       1.3999567 -71.157974
